model/mnist/tune_lr0.0005_ed64_nl4_nh2_fm2_ps4/temp_model.pt (torch, 597127 bytes, 74 tensors)

embedding.cls_token f4 [1, 1, 64]
00000000: 2a0c 553c 47a7 a1bb c940 933c 6185 f8bb
00000010: f388 b0bb a37a 1abc 0b7c d9ba 2010 47bc
00000020: 30c9 a8bc e70e d13b aa9f bbbb ef1a b5bb
00000030: bec3 113d ebd1 cbbb d1ee 8f3b f39d 4e3c
00000040: 40d8 91bd 591c 833a fe74 823c f589 823b
00000050: 34c6 8b3d d145 4ebc 69f5 04bc 012f 41bb
00000060: f0b5 a2bb ecd3 553d 250d 14bc d59c bfbb
00000070: b010 963b 5e70 f03c 42ff 023d 3231 35bc
00000080: 43f5 04bc 5e98 ef3c c615 d5ba 3227 b7bb
00000090: 3b50 6d3b 0f5c e43a 3b04 02bc c21d aebb
000000a0: 92b8 673b 26d7 853b a788 1dbb a1b5 2fbd
000000b0: 9bab 23bb b5f3 27bc 98cf 993b 31d0 98bb
000000c0: 03a7 133a 85f8 563c 62d5 1dbc 257c 9838
000000d0: 494c 383c 7550 8bbc 9774 28bb bf0b 2d3b
000000e0: c862 60bc 134b 893d 73d5 59bc b547 cc3c
000000f0: 222b ddbc 94a3 bfbc ae5b 1f3c e30c fc3a
0.013003388 -0.004933271 0.017975228 -0.0075842594 -0.0053874194 -0.009428653 -0.0016592754 -0.012149841
-0.020603746 0.0063799503 -0.0057258205 -0.0055268924 0.035587065 -0.0062200925 0.004392483 0.0126109
-0.071213245 0.0010002955 0.015924927 0.003983731 0.068249136 -0.012589888 -0.008115151 -0.002947748
-0.0049655363 0.052204058 -0.009036337 -0.0058475533 0.004579626 0.029350456 0.031981714 -0.011059092
-0.008115116 0.029247459 -0.0016257099 -0.0055893892 0.003621115 0.0017422455 -0.007935579 -0.005313606
0.0035357815 0.0040844856 -0.002403775 -0.042897824 -0.002497411 -0.010250975 0.0046939366 -0.00466349
0.00056324917 0.013120775 -0.009633394 7.2710485e-05 0.011248657 -0.017006138 -0.0025704259 0.0026404706
-0.013695426 0.067037724 -0.013295519 0.024936536 -0.026998106 -0.02339343 0.009726448 0.0019229915

embedding.pos_embedding f4 [1, 50, 64]
00000000: 2b0c 553c 63a7 a1bb cb40 933c 5985 f8bb
00000010: ee88 b0bb a77a 1abc 2f7c d9ba 2610 47bc
00000020: 26c9 a8bc ec0e d13b ac9f bbbb e71a b5bb
00000030: bfc3 113d efd1 cbbb d6ee 8f3b f29d 4e3c
00000040: 41d8 91bd 4f1c 833a fe74 823c ff89 823b
00000050: 35c6 8b3d d045 4ebc 5ef5 04bc 142f 41bb
00000060: 00b6 a2bb f1d3 553d 2f0d 14bc d59c bfbb
00000070: ac10 963b 6270 f03c 40ff 023d 3a31 35bc
00000080: 4bf5 04bc 5f98 ef3c e215 d5ba 3627 b7bb
00000090: 5550 6d3b 065c e43a 2c04 02bc 9e1d aebb
000000a0: b2b8 673b 31d7 853b 8d88 1dbb a0b5 2fbd
000000b0: c0ab 23bb b0f3 27bc 9ccf 993b 44d0 98bb
000000c0: e6a6 133a 82f8 563c 5cd5 1dbc 037b 9838
000000d0: 4e4c 383c 6e50 8bbc a874 28bb b70b 2d3b
000000e0: bc62 60bc 134b 893d 69d5 59bc ba47 cc3c
000000f0: 1e2b ddbc 94a3 bfbc af5b 1f3c eb0c fc3a
00000100: 3440 6c3c 943d b03c 4d47 b7bb b524 7abc
00000110: 0154 28bd d6fe 503c 7ab3 80bb aa6c 56bc
00000120: 2cd4 dc3c 13f6 733c 6f15 343d 2d35 ae3c
00000130: 073d 18bc 3ecf 8fbc efec b3bb 9f3a b8bc
00000140: 0ee9 b2bc adb2 e33c 5466 a0bc 37c2 e83c
00000150: d5f1 223d 7f8d f53c 729b d7bb 0b48 18bd
00000160: 47cd 873b c306 b1bb 1e9d 4fbc 1d75 4abc
00000170: 16d6 093c 05c7 b63b f4e8 eabb 1bac 793c
00000180: c3aa 9b3c 6a1d 41bc 3169 e1bb 35a4 30bd
00000190: 161f 62bc 7591 07bc 6eae 3fbb add6 d1bc
000001a0: b02f 603b 5eb6 d8bb b4d4 c7bc 8185 c6bc
000001b0: a83a 01bc b0f2 353d 69f2 2c3d 893f c13a
000001c0: 2dcc 91bb 0f80 ea3b 3903 743c dc66 06bd
000001d0: bd31 e8bb 8940 ffbc a679 5dbb 4859 79bc
000001e0: 2227 9cbc 7d6f 84bb 4161 163b 374d 263d
000001f0: 03cc 2c3d 4249 2cbc 0a11 513c 363f 503c
00000200: 83d8 b33b 96c3 8e3c 3223 c43b e075 89bc
00000210: 45bc 36bd 224e 373c cc0c d6bb 6335 22bc
00000220: 88b5 003d 5b71 7a3c 6feb 283d d653 cb3c
00000230: 5138 07bc f300 8abc 5911 1abc f385 87bc
00000240: d0be 8dbc a566 df3c 13cc 80bc 4450 e63c
00000250: df8e 0e3d 26a5 dc3c f294 f7bb 8977 0fbd
00000260: 2127 113b 6830 e4bb f75c 37bc 1d09 50bc
00000270: 0255 213c 247f aa3b 7b1a 0ebc 6133 823c
00000280: e43a 953c 351c 55bc a572 24bc e7bd 0fbd
00000290: 050a 69bc 174c 35bc 1f20 5a3b 1020 dabc
000002a0: 4477 203b 6d87 79bb 7f03 b0bc 69ab 9ebc
000002b0: 7c36 19bb b676 253d 790b 1d3d 0563 00bb
000002c0: 6f94 ccba 2ec0 503c 95a5 8d3c 9a89 03bd
000002d0: 7ebd e4bb 6f1c f7bc 34fc 18ba 5b96 a4bc
000002e0: 5099 a0bc 09eb afbb 9ac6 333b fe0b 1c3d
000002f0: 5414 653d 3215 48bc fce5 193c 8136 283c
00000300: 3a95 30bd fe9f 52bc d1d7 71bb 4977 b2ba
00000310: 1fc2 e6bc 06a4 563d dfd3 743b 16fb 9a3c
00000320: 7d8e f23c 23e2 41bc eebb 8f3a e354 163c
00000330: ee20 f5bb 1476 a33b bfb0 94bc e9ac 4abc
00000340: b5f6 0d3d 35fc da3c 13c0 e5bc e50c 873d
00000350: 3842 84bb 1efd 9a3c d519 573d 2bf0 02bd
00000360: 9b09 883c 857d 353b 94c2 8d3c 4c39 1cbd
00000370: b79d 40bc 82bb 7bbc 7b98 bdbb 9930 89bc
00000380: 3565 343d 6573 c1bc ba95 3d3c bf04 90bc
00000390: e8e4 9fbc 59eb 29bc 7ef0 343d e122 22bc
000003a0: 0172 9a3b 23bd 16bd 3a6f 473c a18b 263c
000003b0: c909 c23c 3d6e ae3c f701 c13c 8bc0 c9ba
000003c0: 3593 9dbc 9a11 b53c 0b78 4c3d 1ee2 72bc
000003d0: a283 62bd d81a cc3b 184d d2bc 3fcd edbc
000003e0: 30d4 4bbb 0ec6 253b 59ac 353d a594 eabc
000003f0: 9ace a03d f868 2f3c 7966 1cbd 7c76 3e3b
0.013003389 -0.004933284 0.017975232 -0.0075842557 -0.005387417 -0.009428657 -0.0016592796 -0.012149846
-0.020603728 0.0063799527 -0.0057258215 -0.0055268886 0.03558707 -0.0062200944 0.004392485 0.012610899
-0.07121325 0.0010002943 0.015924927 0.0039837356 0.06824914 -0.012589887 -0.008115141 -0.0029477524
-0.0049655437 0.052204076 -0.009036346 -0.0058475533 0.004579624 0.029350463 0.031981707 -0.0110591
-0.008115123 0.02924746 -0.0016257132 -0.005589391 0.0036211212 0.0017422445 -0.007935565 -0.0053135892
0.003535789 0.0040844907 -0.002403769 -0.04289782 -0.0024974197 -0.010250971 0.0046939384 -0.004663499
0.0005632475 0.013120772 -0.009633388 7.2708375e-05 0.011248661 -0.017006125 -0.0025704298 0.0026404688
-0.013695415 0.067037724 -0.01329551 0.024936546 -0.026998099 -0.02339343 0.009726449 0.0019229924
0.014419604 0.021513738 -0.0055932165 -0.015267541 -0.041095737 0.01275607 -0.0039276453 -0.013087431
0.02695664 0.014890212 0.043965753 0.02126559 -0.009291894 -0.017554875 -0.005490891 -0.02248889
-0.021839645 0.02779516 -0.019580044 0.028412921 0.03978141 0.029974697 -0.00657981 -0.03717808
0.004144344 -0.0054024174 -0.012671737 -0.012357024 0.0084128585 0.005577924 -0.0071688835 0.015238787
0.019002324 -0.011786798 -0.006878995 -0.04312535 -0.013801357 -0.008274426 -0.0029248255 -0.02561506
0.0034208111 -0.0066135367 -0.024393417 -0.024233581 -0.00788752 0.044420898 0.042223368 0.0014743666
-0.0044493885 0.007156379 0.0148933465 -0.032812938 -0.0070860074 -0.031158702 -0.0033794432 -0.01521904
-0.019061629 -0.0040416108 0.0022946151 0.04060098 0.04218675 -0.010515513 0.01276041 0.012710383
0.0054884567 0.017427247 0.005985641 -0.01677984 -0.04461314 0.011188062 -0.006532287 -0.009900424
0.03142312 0.015285815 0.041240152 0.02482025 -0.008253173 -0.016846156 -0.00940355 -0.016543364
-0.0173029 0.027270624 -0.01572231 0.028114446 0.03480422 0.026934218 -0.0075555975 -0.035026107
0.0022148567 -0.0069637783 -0.011191598 -0.012697485 0.009846928 0.0052031446 -0.008673306 0.01589364
0.018216558 -0.013007213 -0.010037099 -0.035093214 -0.01422358 -0.0110655045 0.0033283306 -0.026626617
0.002448515 -0.0038075105 -0.021486042 -0.019368844 -0.0023378422 0.040396415 0.03834102 -0.001959027
-0.0015608202 0.012741132 0.01729087 -0.03211365 -0.006980597 -0.030164925 -0.0005835921 -0.020091226
-0.019604355 -0.0053685945 0.0027431608 0.038097374 0.05592759 -0.012212085 0.009393211 0.010266901
-0.043111064 -0.012855528 -0.0036902318 -0.0013615872 -0.028168736 0.05240252 0.003735773 0.018918555
0.02960896 -0.0118337 0.0010966042 0.009175512 -0.007480732 0.0049884412 -0.018150685 -0.012370327
0.034659106 0.02673159 -0.02804569 0.06594256 -0.004036214 0.018919524 0.05251487 -0.031967323
0.016606143 0.0027693224 0.017304696 -0.03814058 -0.011756352 -0.01536453 -0.0057859994 -0.016746806
0.04404183 -0.023614595 0.011571342 -0.017580388 -0.01951833 -0.010371053 0.044174664 -0.009896011
0.0047132974 -0.03680147 0.012172515 0.010165126 0.023686307 0.0212928 0.023560507 -0.0015392465
-0.019235233 0.02210312 0.04991917 -0.014824418 -0.055301316 0.006228786 -0.025671527 -0.029028533
-0.0031101815 0.0025295052 0.044353817 -0.028635332 0.07851906 0.010706179 -0.038183663 0.0029062321

embedding.conv1.weight f4 [64, 1, 4, 4]
00000000: 351e 1fbd ab16 86bc d429 e2bc 50d2 4fbc
00000010: 02c2 acbc b77b 843c d89e e03c 72a0 0dbd
00000020: 36a3 73bc 57fa bf3c bc3b 293b e353 6ebc
00000030: 5e87 283d 2dea 003d feac 43bc 3ffa 39bc
00000040: fb84 67bd 9143 10bc 690b debc e59b 21bb
00000050: df4c 073c ca6b 1c39 c550 97bc cb7f 313c
00000060: e242 6c3b 19c5 ecbc 2c58 c839 a93c e8bc
00000070: bf20 0b3d 3418 d0bc f6d9 c63b 634c b5bb
00000080: aab8 0c3c 7290 c8bb 4a73 823b 2318 f33b
00000090: 018a afba 18e0 183c 0122 f83c 04d6 a8bc
000000a0: 99e6 ec3c 4036 66bc 4f14 953b 003a b33b
000000b0: 39ef 183d ca4e 34bc e4fb 053d 1820 713b
000000c0: 03fd 023b 2a47 68bc dad0 a7bb 836e 76bc
000000d0: 6391 bd3b 94b7 72bb d4dc 043b f534 c93b
000000e0: 8878 be3a 0db4 5abb 0df9 a13b c631 ddbb
000000f0: b8ee c03c 1ed1 83bc 5afa 5cbc 5055 1739
00000100: a2ef febc 30aa d6b8 b3b1 7cbc f14d a23c
00000110: fc43 53bc e5cc 5dbc bb57 073d bc38 133c
00000120: bcc6 05bd b429 d93a 87a3 3e3d df30 86bc
00000130: 904b 1ebd 7df1 debc 5cce 5d3a a56d 67bc
00000140: 351b cbbb 082d 0ebb 19b8 33bc a7a6 503c
00000150: 83bb 3bbc e615 82bb 5d84 f8bc 5024 143d
00000160: a841 3fbc a5b3 11bd 9ea5 af3c d4c2 ed3c
00000170: 1831 f8ba 6ad9 e03c 2cd8 0a3d 0451 0f3c
00000180: 23b5 1a3c 2e7f 1dbd 018c 39bd 3e27 893b
00000190: d600 d33a e299 1ebd 95db c1bb 4b2c 333c
000001a0: 5c42 04bd 7344 363a 72fe 85bb 7580 8939
000001b0: aed3 4fbc 038f abbb 798c 023c 6d12 143d
000001c0: 3cd8 3e3c 3450 743b 1411 ceba a7df 92bb
000001d0: 25a9 1c3b 3956 183c 32e8 023d 4afd 60bc
000001e0: d32b 38bb 193d 443c 33a0 d8bb 68ab 71ba
000001f0: 2c23 ccbb c04e c0bc fe69 933b e557 07bd
00000200: bb37 1e3d 8da7 acbc dde2 d7bb b92d a2bc
00000210: 0649 173d a500 19bd 982a 96bc faab 433c
00000220: 08f4 f93c 6ac9 54bd f2a9 6ebc 46b5 bb3c
00000230: 0f13 20bc 5d2b edbc a841 92bc 6068 2c3a
00000240: 99f1 d4bb 2ac9 5e3c e658 493b ed57 363d
00000250: 8d79 abba a0e3 93bb 92ce b5bc 9b67 a3bc
00000260: f8fd 383c da6b a1bc bdbb 833c 3bed 4a3c
00000270: b8ba f43c f7f0 45bc 34c6 763b 263d f8bc
00000280: 4e8a 02bc a715 a4bc 21e9 f1bc 2d46 89bb
00000290: 4bd7 6e3c b364 35bd 8553 113b a94b 77bb
000002a0: b47b 83bc 9017 62bc d98f fc3a d4dc 70bc
000002b0: a01c a8bc 94c3 a6bc f014 99bc 0581 d23c
000002c0: 9008 0ebc 24f0 f5bc aaa0 42bd c742 9ebb
000002d0: a5fc b2bc 12bb 783c 101f 353b 315c b7bc
000002e0: d342 053d e095 20bc 3a0e cbbc b10b a53a
000002f0: 5799 223c 4c1c 473c a5c2 93bd 1b59 e93c
00000300: 9571 21bb c8a2 bb3c 2425 1a3d 854f 1c3c
00000310: e236 b13b aaa5 e1bb 57de b93c b8a2 3e3b
00000320: 5768 963b 5619 393c 7595 f43c edde 9f39
00000330: 2d1e 583c c07d 073c 5af3 823b a3e3 0d3d
00000340: ea5f c3bc 6392 bc3c 6f85 b33c dad0 093c
00000350: 052f 0abd 0da6 e93c 75c4 603c 13af 8bbc
00000360: 2a8a 87bb 240a 1a3d 5cea 97bc 1e9f 4cb9
00000370: f6e0 053d 3905 003d 24f2 c93c 87bd 90ba
00000380: 65d5 af39 6e71 05bc a36e e7bb 616c 013d
00000390: d2cd 663b 10ec 96bc 1078 0d3d 68d9 a5bc
000003a0: bb94 3a3c f1cb 523c f271 653c e5da f2bc
000003b0: 1bdb fd3c e115 83bc cd1a 333c 8642 91bc
000003c0: 957d 38bd 97ba 15bd 6a8e fdbc c3ad 3dba
000003d0: a3b9 9fbb 3a72 95bc 86f4 e53b 502d 973c
000003e0: 92db 23bd dbac 5fbb c613 4a3c 726c fa3c
000003f0: 6b20 f6bb c2c1 983c d2d5 223d 2591 4d3c
-0.038847167 -0.01636823 -0.027607836 -0.01268442 -0.021088604 0.016172273 0.027419493 -0.03457684
-0.0148704555 0.023434801 0.0025822958 -0.014546367 0.04114472 0.031473327 -0.0119431 -0.011351167
-0.056523304 -0.008805172 -0.02710505 -0.002465957 0.008258074 0.00014917474 -0.018471131 0.010833691
0.0036050607 -0.028902577 0.00038212666 -0.028349238 0.033966776 -0.025402166 0.0060684634 -0.0055327876
0.008588949 -0.006120735 0.0039810287 0.007418649 -0.0013392569 0.009330772 0.030289652 -0.020609863
0.028918551 -0.01405102 0.00454954 0.0054695606 0.037337516 -0.011005113 0.032710925 0.003679281
0.0019987233 -0.014177123 -0.0051213326 -0.0150409965 0.0057851537 -0.003703569 0.0020273225 0.006140346
0.0014531771 -0.0033371479 0.0049430192 -0.006750318 0.02355133 -0.016090926 -0.013487423 0.00014432264
-0.031120125 -0.00010236015 -0.015423226 0.019812556 -0.012894627 -0.01353762 0.03304265 0.0089856945
-0.03266023 0.0016568215 0.04654267 -0.016380725 -0.03864628 -0.02721476 0.0008461231 -0.014125262
-0.0061983117 -0.0021694321 -0.010969185 0.0127350455 -0.0114582805 -0.0039698957 -0.030336553 0.036167443
-0.0116733685 -0.035571713 0.021441277 0.029023565 -0.001893553 0.027447421 0.033897564 0.008747343
0.0094426 -0.038451366 -0.045299534 0.0041855862 0.0016098272 -0.038720973 -0.005916069 0.010935853
-0.032289848 0.0006952949 -0.00408917 0.00026226384 -0.012684746 -0.005235554 0.007968062 0.036150385
0.011648234 0.003727925 -0.0015721642 -0.004482228 0.002390453 0.009297901 0.03195972 -0.013732264
-0.0028102293 0.011977457 -0.006610894 -0.0009218962 -0.0062297788 -0.02347505 0.0044987192 -0.033042807
0.038627367 -0.021075988 -0.0065883235 -0.019797193 0.036934875 -0.03735413 -0.018330857 0.011942858
0.030511871 -0.051949896 -0.014566885 0.022913586 -0.009770169 -0.028951341 -0.017853573 0.00065768324
-0.0064985272 0.013597766 0.0030723154 0.044517446 -0.001308249 -0.004513219 -0.022193227 -0.019946864
0.01129102 -0.019704748 0.016080732 0.012385662 0.02987419 -0.012081376 0.003765476 -0.030302595
-0.007967545 -0.020029856 -0.02953011 -0.004189274 0.014577697 -0.044285487 0.0022175026 -0.0037734306
-0.016050197 -0.013799563 0.0019268944 -0.014701087 -0.020521462 -0.02035693 -0.018686742 0.025696287
-0.008669034 -0.030021735 -0.047516502 -0.004829738 -0.021848986 0.01518132 0.0027636923 -0.022382827
0.03253443 -0.009801358 -0.024787057 0.0012591985 0.009924254 0.012152743 -0.0721486 0.028484872
-0.002463435 0.022904769 0.037633076 0.009540443 0.005408154 -0.006886204 0.022689028 0.0029088687
0.004590075 0.011297544 0.029856423 0.00030492936 0.013190788 0.008269727 0.003996295 0.03464092
-0.023849446 0.023019021 0.021914212 0.0084116105 -0.033736248 0.028521562 0.013718714 -0.017051255
-0.0041363435 0.037607327 -0.018544368 -0.00019514232 0.032685243 0.03125498 0.024651594 -0.0011042812
0.00033537592 -0.0081447195 -0.0070627495 0.0315975 0.0035217893 -0.01842311 0.03453833 -0.020245269
0.011387999 0.012866006 0.014004217 -0.029645393 0.030988267 -0.016001644 0.010931683 -0.017731916
-0.04504164 -0.0365549 -0.030951697 -0.00072356703 -0.0048744245 -0.018242944 0.007017675 0.018454224
-0.04000432 -0.003413013 0.012333816 0.030569289 -0.0075111887 0.018647078 0.039754696 0.012546812

embedding.conv1.bias f4 [64]
00000000: 5085 e4bc 1c7f ccbc 3610 df3b 1f4a 1d3d
00000010: 6e81 03bd 4b3a fc3c 6afc e2bc ecf2 d53c
00000020: d04c 9c3c 1c41 b5bc b3f3 79bc 5e87 3bbb
00000030: d9f3 6a3c 5a17 f33c d974 a63c c43e 2cbc
00000040: 8d1f 013d 1386 82bb eaf4 483c 5f6d 59bc
00000050: c713 85bc 2136 84bc 92ec 6fbc 76fe c8bc
00000060: 6bc0 d5bc d42a 343c 0a9d c7bc 73de 13bd
00000070: 9714 06bd 95a7 32bd fa7d 533c d57f 303b
00000080: e93d e53c c267 a83b b1ed 02bc cd31 173c
00000090: 51c9 113c 1d6a d23c b980 f23c 27e3 d73c
000000a0: c327 d0bb 9c4f b0bc 474e b1bc 745e d53c
000000b0: e0a9 ae3c 28d5 15bb 3aec 87bc ffe6 89bc
000000c0: 043e 9a3c 844b a6bc 4cf8 f33c 9332 8f3c
000000d0: e972 27bd a919 093d 606b b7bc fd2f e2bc
000000e0: f998 ee3c 7928 663c c946 183d f48d 953b
000000f0: 1f26 263d dbb7 74bc 296f cfbc 74cf a0bc
-0.0278956 -0.024962954 0.0068073524 0.038400766 -0.032105856 0.030789515 -0.027708251 0.02611681
0.019079596 -0.022125773 -0.015255856 -0.002861462 0.014340364 0.02967422 0.02031939 -0.010513011
0.03152423 -0.003983268 0.012265423 -0.013270705 -0.016244782 -0.016139092 -0.014643805 -0.024535399
-0.026092729 0.010996539 -0.024366874 -0.036100816 -0.03273448 -0.04361685 0.012908453 0.0026931663
0.027983623 0.005139322 -0.00799124 0.009228182 0.008898095 0.025685364 0.029602395 0.026353432
-0.006352396 -0.021522336 -0.02164377 0.026046015 0.021321237 -0.0022862647 -0.016592134 -0.01683378
0.0188284 -0.02029968 0.029781483 0.01748017 -0.04088107 0.033471737 -0.022390068 -0.027610773
0.029125677 0.014047735 0.03717688 0.0045640413 0.0405637 -0.014936413 -0.02532156 -0.019630171

encoder.0.attention.queries.weight f4 [64, 64]
00000000: 80ab 103d 938e ad3c 9d56 ac3b 9d62 96bc
00000010: ec94 963d ac04 26bd 6190 213d bac6 3fbd
00000020: cb4a 913b 6289 513d cbb8 213d eef3 ee3c
00000030: 46f5 0bbc 537c 4fbc 6fc3 23bd 6aab 8e3c
00000040: 3e17 94bc 0933 433d 565e e6bc c576 6a3c
00000050: 8777 b43d 16b1 723c 4121 743a 13ad b93d
00000060: 444c 9f3d 1af6 4cbd d313 173c 5d6c a63c
00000070: f14e 353d c0d9 ef3c 0865 24bd 4b38 b0bd
00000080: 2f1a 91bd 812c 9ebc 6fa1 3f3d 8bf1 82bd
00000090: e74d dd3c 3b16 83bd 930a e0bc 9dee f0bc
000000a0: 7e68 8e3c 2932 9c3c 558d d63c 6080 8fbd
000000b0: 16ff 61bc c6db 56bc 627a 3f3d 2fc7 133d
000000c0: 5345 c1bd 2364 8b3c cd59 89bd 2e57 d4bc
000000d0: d660 603d b538 2abd c24f ac3d 661b 893c
000000e0: ab5a 9bbd 812a e5bc 10d3 89bd 052e d43c
000000f0: 16a2 39bd 2a60 643d 87ba 733d 3dde 863d
00000100: 71f8 913b b660 fd3c b02e 8e3c ec27 87bd
00000110: 0807 923d c49c 6fbd 1cbc 293d 1b8b 83bd
00000120: cb55 01bd 3880 ab3d c570 133d ec2b 443d
00000130: 36c4 a8bc 3feb 7e3c 2a61 9abc d16c d83c
00000140: 71b6 00bd 461c d43c 372c eabc aff2 9c3c
00000150: fa98 b43d 393b 6dbb e734 9b3c 4a37 fa3c
00000160: 23f6 103d ef14 eebc ad11 a63c 01a9 563d
00000170: 8575 203d 299d f43d 7149 ffbc b675 84bd
00000180: 5f21 29bd e61f ddbb 70d1 c13c c32f 1e3c
00000190: 86fe b7bc bc00 bdbc 2f6d e2bc df6b 12bd
000001a0: 1838 453d e03d 3f3d 52ba aa3d 85a9 c4bb
000001b0: f866 6ebd e497 573c b9fb 36bc ef63 583d
000001c0: 2f13 7dbd 957b 3a3d a92f 40bd 5a68 c9bc
000001d0: 58a0 a93d 42b1 90bc 163b a53d 0d9d 143c
000001e0: 9e06 a0bd 154e 3d3c 937f 66bd dd77 dc3c
000001f0: 0381 67bd 1cdd 4e3d 95ba 993d 0710 16bd
00000200: 4e16 69bd af38 27bd c188 19bc 58e7 6b3d
00000210: 30da 7abd 59ae 3e3d a30a 6ebd 0c80 123d
00000220: ec05 b53b 42ca 25bd a450 1ebd e2f6 09bc
00000230: a9dc 8abb 731a f03c 3985 263d 9894 a1bc
00000240: 4e2b 223d b7c2 92bc 6bc8 3abc 001b 9bbd
00000250: cf6c 82bd c547 82bc 7259 afbc 312a 94bd
00000260: 8798 babd ddb0 1d3c 0327 8abd 8e01 25bd
00000270: 542f a5bd 3647 a7bd d41b 143d 779d bf3d
00000280: d1ba 913d d327 2e3c db86 19bd 11ee aebc
00000290: 7135 bc3b 074e c13d 3217 9f3d 0437 783c
000002a0: 35eb 24bd 0c12 1fbd 97fc 5dbd 0bb8 063d
000002b0: c98c 483d 896c 0cbc 8d51 89bc bce5 87bd
000002c0: 005b 6a3d 5e86 e9bc 7747 9e3d 0626 3f3d
000002d0: a5bc 93bd 0078 d63c 6681 90bd 3197 95bd
000002e0: 5925 8f3d 7d54 643d 9f07 2c3d 5260 fbbc
000002f0: baad 8a3d ec37 1abd 9841 9dbd f4c9 87bc
00000300: 8850 5e3c 6847 3f3d 299f 9f3c 7641 2bbd
00000310: 8047 c23d ff5e 18bd 822b fa3c e5da 42bd
00000320: 29a9 21bc 5572 343d 07c9 523d 02c7 713c
00000330: 0573 8ebc f139 08bd d608 9cbb 71f7 793a
00000340: 58ac 07bb 0120 303d 7e75 29bd 73f3 203d
00000350: 88c4 893d 6bab e43c 553d c13c 5aca 5a3d
00000360: 1284 853d add6 19bd 894f 883c 3adc ae3d
00000370: 8dad 853d e343 913d 4037 8bbd ca50 9fbd
00000380: 39aa 9fbc b01a 03bd 004a 223d 696f 3cbc
00000390: cafc 51bd 9f7e 62bd b5eb 51bc 570c 33bd
000003a0: edb1 8f3d c915 153d cd70 763d 084c 9fbc
000003b0: 2d7b a7bc 1e27 babc af19 073d 9385 093d
000003c0: 0437 3abd 6b03 443d 16fb c3bd 5b4d 2b3c
000003d0: 953a 6e3d 87d8 20bc b97c 9a3d 8e0f 673d
000003e0: 86cf 6abd 8ddd d3bb 2b0c 3fbd 0f18 f23c
000003f0: 9b15 8ebd dca6 ad3c 75f6 533d 682b b73c
0.035319805 0.021186149 0.0052593485 -0.01835757 0.07352623 -0.0405318 0.03944433 -0.04682038
0.004433965 0.05115641 0.039482873 0.02916905 -0.008542364 -0.012663919 -0.039981302 0.017415721
-0.018077489 0.047656093 -0.028121155 0.014310543 0.088118605 0.014812728 0.00093128165 0.090662144
0.077782184 -0.05003939 0.009221035 0.020315344 0.044264738 0.029278636 -0.040135413 -0.08604487
-0.07085072 -0.01930833 0.046784814 -0.06393727 0.027014686 -0.064007245 -0.027348792 -0.029410655
0.01738381 0.019066887 0.02619044 -0.070069075 -0.013793727 -0.0131139215 0.046747573 0.03607863
-0.09437051 0.017015522 -0.06706581 -0.025920477 0.05477985 -0.041557986 0.0841365 0.016736697
-0.07585653 -0.027974369 -0.0672971 0.02590085 -0.045320593 0.05575577 0.05950406 0.06585357
0.0044546654 0.030929904 0.017356247 -0.06599411 0.07130247 -0.058499113 0.04143916 -0.06423017
-0.03157596 0.08374065 0.035996217 0.04789345 -0.020601373 0.015559017 -0.01884516 0.026419075
-0.03142399 0.025892388 -0.028585536 0.01915869 0.088182405 -0.003619863 0.018946124 0.030543942
0.035390984 -0.029062716 0.0202721 0.05240727 0.039174575 0.119440384 -0.03116295 -0.06467764
-0.04129159 -0.0067481874 0.023659438 0.009654942 -0.022460233 -0.02307164 -0.027639953 -0.035747405
0.0481492 0.046689868 0.08336319 -0.0060016536 -0.058203667 0.013158772 -0.011168414 0.05282968
-0.061785873 0.045528013 -0.046920452 -0.024585892 0.08282536 -0.017662648 0.080679104 0.009070647
-0.07813762 0.011554261 -0.056274008 0.026912624 -0.05651952 0.050503835 0.07506291 -0.03663638
-0.056906037 -0.040825542 -0.009370984 0.057593673 -0.061243236 0.04655299 -0.058115613 0.035766646
0.0055243876 -0.04047609 -0.038651124 -0.008420678 -0.0042377305 0.029309487 0.040654395 -0.019724175
0.03959208 -0.017915113 -0.011400322 -0.07573509 -0.0636841 -0.015903363 -0.021404956 -0.0723461
-0.091111235 0.009624687 -0.06745722 -0.040284686 -0.08065668 -0.08167879 0.03615935 0.09356206
0.071157105 0.010629612 -0.037482124 -0.021353753 0.0057436754 0.09438711 0.07768096 0.0151498355
-0.040263373 -0.03883557 -0.054195967 0.03289036 0.04896239 -0.008570799 -0.01676252 -0.06635615
0.05721569 -0.028506454 0.077284746 0.04666712 -0.072137155 0.026180267 -0.07055931 -0.07304228
0.069895454 0.055744637 0.041999456 -0.030685578 0.06771417 -0.037650988 -0.07678527 -0.016575791
0.013569005 0.046698958 0.019485073 -0.041810475 0.09486294 -0.03719997 0.030538324 -0.047572035
-0.009866991 0.044054348 0.051461246 0.01475692 -0.01738883 -0.033258382 -0.0047617955 0.0009535468
-0.002070209 0.04299927 -0.041371815 0.03929467 0.067269385 0.02791377 0.023588816 0.053415634
0.06519331 -0.037558246 0.016639488 0.08538099 0.06527243 0.070930265 -0.067976475 -0.07779081
-0.019490348 -0.032007873 0.039621353 -0.011501172 -0.05126647 -0.055296537 -0.012812545 -0.04371294
0.070163585 0.03639773 0.06016617 -0.019445434 -0.020444477 -0.02272373 0.03298348 0.033574652
-0.045462623 0.047854822 -0.09569375 0.010455455 0.058161337 -0.009817249 0.0754332 0.05641132
-0.057326816 -0.00646562 -0.046642464 0.029552488 -0.06937715 0.021197729 0.05174871 0.022359565

encoder.0.attention.queries.bias f4 [64]
00000000: 956b 42bd a2a8 61bd bb1f 543d 2d62 55bd
00000010: aa0a 493d f682 443d 8751 57bd 8d11 553d
00000020: 8e1a 57bd 18c2 57bd 665d 4d3d 8647 493d
00000030: df8d 56bd dbc8 403d b6d1 563d 44dd 57bd
00000040: 4d2e 51bd b6cd 4f3d 357b 75bd 7969 60bd
00000050: 8e29 5dbd 34f6 63bd 0d35 46bd 2b14 4f3d
00000060: c91e 613d a10c 753d fe47 59bd 1a1c 5c3d
00000070: ec00 783d 065b 72bd 531f 5cbd 1b57 483d
00000080: 02b3 d2bd c8ef c5bd ddd3 b1bd 1393 c83d
00000090: a070 bf3d d4e4 b1bd bbc5 a9bd d770 c1bd
000000a0: 4ce2 a63d 8a3f c63d b3b1 52bd 4b7c c8bd
000000b0: 12a8 bf3d 1df1 bb3d 9b22 b53d 9050 c43d
000000c0: 097b cf3d 4acc bcbd 0320 ba3d 91c0 cb3d
000000d0: 440f b4bd 254d b33d f9e0 e9bd 7661 c7bd
000000e0: 4a41 c63d 818c b4bd dda9 adbd a92c aabd
000000f0: 3837 c4bd 4219 b63d 3343 c3bd 9719 c93d
-0.04746588 -0.05509246 0.051788073 -0.05209558 0.049082436 0.047976457 -0.052567985 0.05201869
-0.05251556 -0.052675337 0.0501379 0.049140476 -0.052381393 0.04706655 0.05244609 -0.05270125
-0.051069546 0.05073329 -0.059931953 -0.054788087 -0.053994708 -0.05565472 -0.048390437 0.050556343
0.054961 0.059826497 -0.053047173 0.053737737 0.060547754 -0.059168838 -0.05374081 0.048911195
-0.10288049 -0.09664875 -0.08682988 0.09793677 0.093476534 -0.086862236 -0.08289667 -0.094453506
0.081486315 0.09680088 -0.051439 -0.09789332 0.09358229 0.09176848 0.08844491 0.095856786
0.10130889 -0.092186525 0.09088137 0.099488385 -0.08791974 0.087549485 -0.11419863 -0.09735386
0.09680422 -0.088158615 -0.084796645 -0.083092995 -0.09580845 0.08891536 -0.095343016 0.09819334

encoder.0.attention.keys.weight f4 [64, 64]
00000000: 3eeb 3f3c f5be 1f3d 8c57 f6bc bcda 6f3c
00000010: 7a0f 4c3d 75b2 863d 9895 533d e6b7 83bb
00000020: f44b 783d a57a 83bc 2aa6 5c3d 17a4 353d
00000030: be0e 41bd 5bc4 f2bb c44a b9bd 256a ae3c
00000040: 102e babc 9809 b03d d574 90bd d14f 5c3d
00000050: f477 b03d 1cac 103d 1801 433d 07c9 6c3d
00000060: cdb7 793d 7cbf 3cbd 0ca6 033d ee81 d63c
00000070: 89eb bdbc def6 91bc c5c0 2dbc 3b58 d9bd
00000080: d273 a2bc 2ce0 67bd b3f2 d8bc 26c6 4cbd
00000090: e631 04bd 0c37 893d b55c 4cbd c8ff 8238
000000a0: e3d8 02bc 854c 863c 0057 4b3d ea08 963c
000000b0: d9e5 62bc 3a16 0c3d bacd a93d 2df9 0f3d
000000c0: e8c4 94bd 4c93 b53c 8f17 cfbd ac97 84bd
000000d0: 2b25 8d3d 5be7 2cbd a103 9ebc b176 883c
000000e0: 4f89 3fbc d0d9 a3bd 8f6d a13c 7ad0 10bd
000000f0: 53b7 8bbd db74 1b3d a9b1 e63c 2834 543d
00000100: cc6b 9bbc ad45 973c bbb2 cb3b b13e b5bc
00000110: 8d74 a23d d013 0cbd 2543 033c 38b9 3ebd
00000120: bc23 853c 1bdd 10bd 8aa9 d23c c524 a13c
00000130: fd34 46bc eb34 4cbd 7a34 1ebe 02be 853d
00000140: 5888 25bd 3e3b b23c 8791 1dbd b44b 243d
00000150: e305 e5bc 8f43 913d d7f1 8a3c efc2 2b3d
00000160: df10 4b3d d285 01bb ae13 633d 74d5 f23c
00000170: 91e1 533c cccd a23d f5f6 55bc cd14 efbc
00000180: 6070 5bbb 3f8c 37bd 6dd9 ddbc d2c8 9dbd
00000190: bac1 9ebc 9486 193c ca82 0bbd 185b 8bbd
000001a0: 884a 75bc acff 343d 88b0 733d da27 60bd
000001b0: 8235 6137 32bb 423d f155 863d 3787 fc3d
000001c0: 8c54 77bd 1180 433d ab18 8bbd 5c8f 83bd
000001d0: b882 7e3d f9a7 8bbd 1783 05bc 8863 263d
000001e0: 0fab b3bd 31d4 e9bc 3863 f8bc f906 8cbd
000001f0: fe27 9bbd 613c 833d ddfa 2d3c 5800 363d
00000200: 7a22 17bd 2810 24bd d9f5 503c 2978 2f3d
00000210: 069e c7bc 1085 dabc e48e 7abd d3a8 c83c
00000220: 23ae 67bc 1c7f a03d 34de 92bc 0c16 1abd
00000230: 03fe 5d3d 3ebb 8a3d 50fc c13d ba45 c8bd
00000240: f1a3 373c ba4b 43bd 589c 993d 2bc9 4fbd
00000250: fc99 b5bc bcb7 5ebd db6e e4bc a57b 87bc
00000260: d7f9 fdbc c2a9 133d 9b74 8fbd 4da4 87bd
00000270: 8cf3 cc3c c6ff 59bd 6189 b33d 90ff 903d
00000280: a1b7 853d a937 6a3d 6e3c d73c c331 453d
00000290: b5a6 9a3d f1ed 9bbd 771c 153d 973b 853d
000002a0: 7492 fb3a 54d2 95bc e5d8 92bd 4834 273d
000002b0: e963 37bd 8779 bebd 618b 86bd b0de 91bd
000002c0: 4442 e73d 529b 93bd 035d cf3d ce00 833d
000002d0: 6077 ccbc 9503 3e3d d45c df3b 6a58 75bd
000002e0: ce85 063d dd91 fd3c 15f0 0a3d 694a 683d
000002f0: 514d ad3c e796 c3bc aa5e 21bb 23d8 7ebd
00000300: d50c e3ba 1558 413d a3fb cdbc e1e8 2dbd
00000310: 92c8 773d 0796 043d 6ea3 4c3d 492d 69bc
00000320: 6baa 323d 7586 f8bc dd67 a8b7 613a 99bb
00000330: 1a13 a7bd 4d6e b9bc 2de4 c2bd 848f 213d
00000340: 1774 abbc 28eb 223d 92ed a2bd 0739 073d
00000350: e748 723c 928e 843d d613 473d 26a9 9b3c
00000360: 7654 1c3d 6a33 1abb 8700 7b3d 52f9 5d3d
00000370: 1bc8 29bc 56f0 c8bb 8b94 ed3b be62 95bd
00000380: faf4 03bd 1492 0ebd 2a58 2cbd 16b9 9cbd
00000390: 0bfc 6abd 3a13 d93c eaee db3b 7e3c 28bd
000003a0: a631 7c3b 9830 11bc 7ab3 363d 9b6a 78bd
000003b0: 602a b43c be29 563d 72f4 ce3c 42b7 913d
000003c0: 5603 9dbd eb35 1e3d 2aca bfbd 3de7 24bd
000003d0: baad 583d e046 f9bc 69d8 34bc 3358 043e
000003e0: fc70 debb 5729 f4bc 1d9b 12bd cb8b 50bb
000003f0: 8d88 11bd 1d25 283c 885d 8c3c 1e40 b13d
0.011713801 0.03900047 -0.030071042 0.014639553 0.049819447 0.06577007 0.051656336 -0.004019725
0.06061931 -0.016049692 0.053869404 0.04434594 -0.0471332 -0.0074086613 -0.090474635 0.021290848
-0.022727042 0.0859558 -0.07053534 0.053787056 0.08616629 0.035320386 0.047608465 0.057808902
0.0609663 -0.04608105 0.032140777 0.026185002 -0.023183601 -0.01781791 -0.010605042 -0.10612532
-0.019830618 -0.05661027 -0.026482916 -0.049993657 -0.03227415 0.066999525 -0.0498931 6.246526e-05
-0.00798628 0.01639391 0.049643517 0.018314797 -0.013848745 0.034200884 0.08291192 0.035149742
-0.072641194 0.022164963 -0.10111915 -0.064742416 0.06891855 -0.042212825 -0.01928884 0.016658159
-0.011690452 -0.08000529 0.019705562 -0.03535507 -0.06822076 0.03795324 0.028160887 0.051807553
-0.0189723 0.018465841 0.0062163747 -0.02212462 0.079323865 -0.034198582 0.008011614 -0.046563357
0.016252391 -0.035367113 0.025715608 0.019670853 -0.012097594 -0.049855154 -0.15449706 0.06530382
-0.04041323 0.021756765 -0.038468864 0.04011126 -0.027956909 0.07092964 0.016961021 0.04193395
0.049576636 -0.00197636 0.05543869 0.029642798 0.012932197 0.07949409 -0.013059367 -0.029184723
-0.0033483729 -0.044811483 -0.027081216 -0.07704319 -0.019379485 0.009370465 -0.034060277 -0.06804484
-0.014971383 0.04418914 0.059494525 -0.054725505 1.3423503e-05 0.047541805 0.06559361 0.12330478
-0.060383365 0.047729556 -0.067918144 -0.06423828 0.062136382 -0.068191476 -0.00814893 0.040622264
-0.08772861 -0.028543564 -0.030320749 -0.068372674 -0.07575987 0.06408001 0.0106188925 0.04443392
-0.036898114 -0.04005447 0.012753927 0.042839203 -0.024367344 -0.026674777 -0.061171427 0.024494564
-0.0141406385 0.07836744 -0.01792822 -0.03761868 0.054197323 0.06773995 0.09471953 -0.09778924
0.01120852 -0.04767964 0.07500523 -0.050728958 -0.022168152 -0.05437444 -0.027884891 -0.01653845
-0.031002922 0.036050566 -0.070046626 -0.06623135 0.025018476 -0.05322244 0.08766437 0.07079995
0.06529165 0.057181988 0.026273932 0.04814316 0.07551328 -0.07613743 0.0364041 0.065055065
0.0019193427 -0.018288769 -0.071702756 0.040821344 -0.044773016 -0.09300523 -0.06569553 -0.071225524
0.11291936 -0.072073594 0.101251625 0.06396638 -0.024959266 0.046390135 0.006816486 -0.05989877
0.03284245 0.030953342 0.033920366 0.056711588 0.021155031 -0.023875667 -0.0024623075 -0.062217843
-0.001732255 0.047203142 -0.025144404 -0.04245842 0.060494013 0.03236964 0.049960546 -0.014231988
0.043619554 -0.030337552 -2.0075526e-05 -0.0046761488 -0.0815794 -0.022635603 -0.09516177 0.039443508
-0.02092938 0.039775044 -0.07955469 0.03301337 0.014787889 0.06472506 0.0486029 0.019001555
0.038166486 -0.002352918 0.0612798 0.05419285 -0.01036265 -0.006132166 0.0072503737 -0.07294224
-0.03221605 -0.03480728 -0.042076267 -0.0765249 -0.057369273 0.026498426 0.0067118304 -0.041073315
0.0038481741 -0.008861683 0.044604756 -0.060648542 0.021992862 0.052285902 0.025263045 0.07115032
-0.07666652 0.03862564 -0.093647316 -0.04025959 0.052900054 -0.030429304 -0.011037924 0.1292427
-0.006788371 -0.029804869 -0.03579246 -0.0031821604 -0.035530616 0.010262755 0.017134443 0.086548075

encoder.0.attention.keys.bias f4 [64]
00000000: 2474 82b4 7e6f 90b7 2c03 05b7 a685 a438
00000010: 29a8 e7b7 2180 8838 6151 12b8 ad36 0739
00000020: cc32 a438 a6e5 90b8 c3ef dab8 994c 0538
00000030: a343 d4b8 6444 2338 d785 0c38 af8c 72b8
00000040: 215a 4039 2fc8 7237 5548 b0b8 c514 84b8
00000050: e550 e5b8 c1f0 ae36 ea73 c0b8 97a5 f0b6
00000060: ab95 b538 4bba ef38 2b17 c5b7 6005 3039
00000070: 1e2b b037 8756 a638 0540 7736 97a3 eab8
00000080: 27b1 f739 fef5 2239 3ab4 21b9 5b24 7d38
00000090: 7974 b2b9 a7d3 2039 9a7f a639 dcb8 3e39
000000a0: 2b35 31b9 8d0b c3b8 a7ef 94b8 6f5a 1eb9
000000b0: 48b8 9a38 09f2 24b9 5d41 69b9 8361 9db9
000000c0: 3eb9 8e38 034d 9539 ef29 bcb7 9e2a 52b8
000000d0: 1247 8c38 4b43 34b8 79ea 98b8 755d 0639
000000e0: f96b 3fb9 ca47 7a39 323d a439 2272 86b9
000000f0: 31de f2b9 10b4 0aba 7e84 3c38 72bf 0e39
-2.429889e-07 -1.7218055e-05 -7.928156e-06 7.845023e-05 -2.7615652e-05 6.508851e-05 -3.4884903e-05 0.00012894972
7.829591e-05 -6.9092304e-05 -0.00010439709 3.1781008e-05 -0.00010121546 3.8925922e-05 3.350325e-05 -5.7828318e-05
0.00018344123 1.4470933e-05 -8.405807e-05 -6.298119e-05 -0.00010934639 5.2136315e-06 -9.176864e-05 -7.1718346e-06
8.6586304e-05 0.00011431108 -2.3495018e-05 0.0001678667 2.1000913e-05 7.931614e-05 3.6843132e-06 -0.000111884605
0.000472435 0.00015541163 -0.00015421296 6.035376e-05 -0.00034037585 0.00015337636 0.00031757058 0.00018188677
-0.00016899842 -9.300476e-05 -7.101829e-05 -0.00015101743 7.377617e-05 -0.00015730424 -0.00022244961 -0.00030018025
6.805592e-05 0.00028476873 -2.2430873e-05 -5.0107592e-05 6.688958e-05 -4.2978016e-05 -7.291599e-05 0.00012814051
-0.00018255402 0.00023868601 0.00031326112 -0.00025643507 -0.00046323382 -0.00052911136 4.4946086e-05 0.00013613494

encoder.0.attention.values.weight f4 [64, 64]
00000000: b050 8dbd 0d50 c93c 0ad3 163c 24d2 293c
00000010: b32e f3bc d020 34bd 9e76 c6bc 33c7 f43c
00000020: 1c58 043d c6c3 f7bc 794d 883c 6048 0f3c
00000030: f1d5 933c 9121 33bc e8f9 42bd 31c3 38bd
00000040: 3479 823d d41d 1e3b 1ffb 06bd d852 8abb
00000050: d2e9 0fbc cdcc ae3c 52ac 85bc cb40 813d
00000060: d103 f4bb ad03 f4bc f661 3f3d a8dc 1cbd
00000070: da71 94bc 9b9c 90bc c1a2 a7bb 7f66 61bd
00000080: 7d47 933c 785c 733b 6865 89bc 1dec c6bc
00000090: 8b36 9dbc c88e 6e3c e877 9eba e80e c1bc
000000a0: 72ad 5a3c f6f5 dd3b 141f 783b 7a03 3b3c
000000b0: f5da c53b 680c 8ebc 2291 d73b 1051 1fbc
000000c0: 8a75 473d 1bcd 5ebd 111d 1cbc be53 17bd
000000d0: 8147 03bc e529 bdbc b671 9fbc dba3 17bb
000000e0: 513f c33c 660a ebbc 608d 5abb 4ba3 afba
000000f0: 47e2 093d d3b0 fd3c be99 07bd 395a 75bc
00000100: 4e40 a53c 2177 06bd a4f6 3abc c8ff c63b
00000110: a924 033c d758 c7bb 0a34 373c a83a 15bc
00000120: ed24 01bd a08a 80bc c540 c8bb ee9a 59bc
00000130: 4132 133c 0e0b 4f3d e38d 4d3c 83f3 02bd
00000140: 2f46 87bc 6179 5f3c 461d 67bb e47d 03bc
00000150: b14d 423d 8d07 16bd f216 a03b 7b27 dc3b
00000160: ead6 7abc a312 0f3d bdda 81bb b2b2 43bc
00000170: 15a7 1b3c a371 783c 92d9 f73c 5467 2f3c
00000180: c920 e63c 98c2 70bc 85a3 313c 5978 babb
00000190: 6902 423d d111 db3b 1a88 4cbc 4a0d 243c
000001a0: dc94 e33c 278f e93b 7a1c a6bc a959 a9bc
000001b0: 9762 68bc 1e03 63bd a54d 33bd 5584 52bd
000001c0: cb19 1a3b ca4f 97ba 08db 6ebb eae1 003d
000001d0: 454c 163d c520 c83c a544 583a 4cc9 1abc
000001e0: edbf f9bb 50d7 3c3c 0453 20bb 7702 963c
000001f0: 4e1b e8bb 4c6f 95bb 4dfe 87bc a719 98bc
00000200: b34e bdbc 7a76 d53b 63f1 dbbc edd5 ffbb
00000210: 2e99 a03c 0bbf 9f3c 0101 2b3d 0a25 d1bb
00000220: b3e1 5e3d 5a45 d53b 38ad 1cbc 0fe3 413d
00000230: 2e1f 39bd a77b 00bd 845d 043d b7b0 f5bc
00000240: a087 a9bc ff74 493b 3fa9 46bc 982c 7e3c
00000250: 28af ec3c 17c4 933c 5acc e43c de94 9cbc
00000260: 897a 783b eb0e e7bc 9daf 1e3c 4ac7 963b
00000270: 91d9 7dbc e2de 33bc d68a b9bc bb8c 7bbc
00000280: cd20 15bd 8abf 3bbd d303 693c 3e99 2db9
00000290: 1558 29bc 46c2 12bd 5069 0abd 52e8 0dbd
000002a0: 3cb4 2ebd 4fe1 c73c 8671 7c3c 009b d3bc
000002b0: f29b 1cbb 9e62 443c afa4 073d e7c8 2dbc
000002c0: bb65 393d 478b 373d 2c27 65bc 5576 d3ba
000002d0: 2ded bebc 5a54 47bd 4e68 b33a 2b2e f73c
000002e0: 3a81 3abd 9c9c c9bc 8e16 333c c285 3dbd
000002f0: 0b9d ffbc c7b1 51bc 02cc 9f3c b920 cc3c
00000300: 550a 9d3b ef64 f03c 27b9 b43b d518 eb3b
00000310: aeb3 543c a368 c53c 768d 07bb cbc0 3d3d
00000320: d2fd cdbc c521 043b cf55 073b 0f74 013d
00000330: e783 233d a4b3 f53b 8f24 6dbc bcc7 71bd
00000340: 178f 903c d5ff aa3c e582 c03c 83f5 943c
00000350: de7a 9cbc ef39 11bd 72cd 123d f8af c23c
00000360: 0af7 b63c bf68 d0bc e3bf ebbb af83 353b
00000370: 38e1 30bd f998 2abc 9ebb b53b 4757 a5bd
00000380: 6b4d b63c 0292 21bd 669a 4a3a 91e7 50bc
00000390: c595 79bb 6edf 2d3d 8ddb eabc acba 6a3d
000003a0: 5c89 23bc ac7d 513d 7b25 9ebc 1b72 38bd
000003b0: 3fd6 d43b d0c5 41bc df90 b93c 2624 0ebd
000003c0: 64cb 2b3c ea9d a0bc cbfb 813c dda5 c9bb
000003d0: 3f27 16bd 9e37 aabc bed4 0dbc e92a f83a
000003e0: f88d 913c 62c3 f43b 5967 ad3c 10d0 acbb
000003f0: b3a6 b03a f199 d9bc 5b27 79bc cd07 a03b
-0.069001555 0.024574304 0.009205589 0.010365043 -0.029685354 -0.043976605 -0.024226483 0.029880142
0.03231059 -0.03024472 0.016638504 0.008745283 0.018046351 -0.010933296 -0.04760161 -0.045108024
0.06370774 0.0024126666 -0.03295433 -0.0042213015 -0.008783774 0.021337891 -0.01631752 0.063111864
-0.007446744 -0.029786909 0.046724282 -0.03829637 -0.018120695 -0.0176528 -0.0051158373 -0.05502939
0.017978424 0.0037133973 -0.016771987 -0.02428251 -0.019191047 0.014560409 -0.0012090178 -0.023566678
0.013347017 0.0067737056 0.003786032 0.011414403 0.0060380646 -0.0173399 0.0065785805 -0.009723917
0.04869608 -0.054394823 -0.009528414 -0.036945097 -0.008012653 -0.023091266 -0.019463401 -0.0023138437
0.023833903 -0.028691482 -0.0033348426 -0.0013400106 0.03366306 0.030968105 -0.033105604 -0.014975124
0.020172264 -0.032828454 -0.011411343 0.006072972 0.008004346 -0.0060835886 0.011181841 -0.009108223
-0.031529356 -0.015691102 -0.0061112368 -0.013281567 0.008984149 0.050547652 0.012546035 -0.031970512
-0.016512958 0.013639779 -0.003526525 -0.00802562 0.047437374 -0.036628295 0.004885548 0.0067185736
-0.015310029 0.034929883 -0.003962843 -0.01194446 0.009500285 0.015163812 0.030255113 0.010705788
0.028091805 -0.014694832 0.010842209 -0.005690616 0.04736558 0.0066854735 -0.012483621 0.010012934
0.027780943 0.007127661 -0.02027725 -0.020672636 -0.014183662 -0.055422895 -0.04377522 -0.051395733
0.002351391 -0.0011544165 -0.003644647 0.03146545 0.03669383 0.024429688 0.0008249975 -0.009447407
-0.0076217563 0.011525944 -0.0024463544 0.018311722 -0.007083333 -0.0045603868 -0.016600752 -0.01856692
-0.023108816 0.0065143676 -0.0268485 -0.0078074844 0.019604292 0.019500276 0.041749004 -0.006382589
0.054414462 0.0065085115 -0.009562783 0.04733568 -0.04519575 -0.031367924 0.032315746 -0.02999149
-0.020694554 0.00307399 -0.012125312 0.015513562 0.028892115 0.018037839 0.027929474 -0.019113954
0.0037914834 -0.028205356 0.009685424 0.004601394 -0.015493766 -0.010978432 -0.02264921 -0.015353377
-0.036408234 -0.045836963 0.014222103 -0.00016555653 -0.010335942 -0.035829805 -0.03379184 -0.034645386
-0.042652354 0.024399428 0.0154079255 -0.025830746 -0.0023896662 0.011986403 0.03311604 -0.010606981
0.045263033 0.04481056 -0.01398639 -0.0016133288 -0.023306454 -0.04866443 0.0013687701 0.030173382
-0.045533396 -0.02461081 0.01093067 -0.04627014 -0.031202814 -0.012798733 0.019506458 0.024917947
0.0047924914 0.029345004 0.005515236 0.007174591 0.012982292 0.024097746 -0.0020683683 0.04632644
-0.025145445 0.002016173 0.002065051 0.031604823 0.039920714 0.0074982215 -0.014474048 -0.059028372
0.017646356 0.020873943 0.023499915 0.018183475 -0.019101556 -0.03545564 0.03584046 0.023765549
0.022334594 -0.025440572 -0.0071945055 0.0027696898 -0.043183535 -0.010412448 0.0055460474 -0.080732875
0.022253713 -0.039445885 0.00077286956 -0.012750522 -0.0038083654 0.042449407 -0.028669143 0.05730693
-0.0099814795 0.05114524 -0.019304981 -0.045030694 0.0064952667 -0.011826947 0.022652088 -0.034702443
0.010485504 -0.01960655 0.015867135 -0.0061538056 -0.03665852 -0.020778473 -0.008656679 0.0018933687
0.017767891 0.0074695805 0.021167444 -0.0052738264 0.0013477415 -0.026562663 -0.015207137 0.0048837424

encoder.0.attention.values.bias f4 [64]
00000000: 5360 e03b 3b00 4ebc 6046 013c 83a6 963c
00000010: 86f8 67bc 0446 243c 97a1 ecbb 844e 273c
00000020: b594 bfbb d9f5 61bc 5e0c dcbb b5f8 023a
00000030: ace1 ba3c 5cad 8e3b a549 2f3c b451 d23b
00000040: 4648 06bc a2ab ef3a 1eed 6a3c 5c1c 14b8
00000050: 4c4c d13c ada4 70bc 54bf 3fbc 2e98 14bc
00000060: 2d94 0bbc c64b 0a3d 47bf 57bc ad86 66bc
00000070: 6716 7cbc cd1c a5bc 8643 ea3c 868d 12bc
00000080: ab5f db3b a778 d23c aa15 36bc f2f0 f3bb
00000090: 6afd 7a3c 4573 763c 77b5 353c a936 993b
000000a0: 9dae 11bc d6a6 a2bb 645e 41bc 1d90 aebc
000000b0: 84c7 943c 4578 5f3b da98 783a da4b 86bc
000000c0: f0ad d13b c8b2 e53a c00e 2e3c cc3f f83b
000000d0: 8c85 e5bb 986d 0c3c 5ec5 fdbb 73e5 45bb
000000e0: 0049 a53c a11b 173d 13c8 6c3b 920a 8e3c
000000f0: 9890 9d3b cfb0 cfbc c4df 15bc 97dc 84bb
0.0068474202 -0.012573297 0.007890314 0.018389946 -0.014158374 0.010026459 -0.0072214114 0.010211591
-0.0058465847 -0.013791525 -0.0067153415 0.00049961667 0.022812687 0.004354162 0.010698711 0.006418431
-0.008195942 0.0018285403 0.01433876 -3.531236e-05 0.025549076 -0.014687699 -0.011703331 -0.009069486
-0.008519215 0.03376367 -0.013168163 -0.014070195 -0.0153862005 -0.020155335 0.02859665 -0.008944875
0.006694754 0.025692297 -0.011113564 -0.0074444944 0.015319208 0.015042131 0.011090628 0.0046757055
-0.008891729 -0.004963736 -0.01180229 -0.021308953 0.018161543 0.0034098786 0.0009483226 -0.01639359
0.006398909 0.0017524594 0.010623634 0.0075759646 -0.0070044454 0.008571051 -0.0077444753 -0.0030196577
0.02017641 0.036891583 0.0036129996 0.017339025 0.0048084967 -0.025352864 -0.009147588 -0.0040546167

encoder.0.attention.fc.weight f4 [64, 64]
00000000: 3c37 1c3a 2f80 8ebb 47d7 ad3c b9be a8bc
00000010: 528c c33c cc1f 5f3d 6243 0ebc 3e64 813c
00000020: 5e18 223c b3f1 563b 40ea b73c 0586 a63a
00000030: 7011 a73c 7922 03bc b8b4 7eba c9e0 a73b
00000040: 665e edbc d39d b93c 52a8 683c 610a acba
00000050: 87ea 48bd 766c ae3c 460e 993c 6bf1 00bd
00000060: f347 d73b cc59 e339 c547 153d 5e68 8c3b
00000070: 40f2 803c c21d 043d a645 dabc 5b27 ae3b
00000080: 4263 1ebc 6e0e 5d3c f955 6abb 2d7d 07bb
00000090: 9d9b 99bc 971a 2fbb c1fa 4fbc ee08 17bd
000000a0: 34aa 93bc f730 c03c ed08 023d 3e70 89bb
000000b0: 9bae 733c e17d cfbb 146d 9f3c c577 e3bb
000000c0: ee69 ee3a cddb 82bc 0aa8 cbbb f575 b2bc
000000d0: 5c66 0ebc 616c ebbb 8b61 47bc 9ea8 aebc
000000e0: 8e2e 20bc bdc4 b5bb 9451 ad3c a7d9 0fbd
000000f0: ddf2 3d3c 9cf8 33bc 246c 203c 42cd 7b3c
00000100: fbf6 33bc fd00 26bc aa66 61ba d334 5e3c
00000110: dbea ec3c 774b 5d3c 814a cdbc ab23 5ebc
00000120: 2b01 dd3a d330 9f3a 8660 febc 5d09 91bc
00000130: 7849 da3c 9b02 173d 7464 463c 0a74 8aba
00000140: 8d70 afbc d961 033d 1ff1 213c 048b 0ebd
00000150: 3719 7f3c 22e4 ab3c f2f5 653c ce60 ce3c
00000160: 4b62 d0bb 5cd6 debc 40cd 11bb aba7 f43b
00000170: d015 44bd 58ec 6dbc 4314 6b3b b71b 473b
00000180: c2ab 813c 4eb7 92ba a694 3c3d 7e3d 50bc
00000190: 1ebc dd3b c231 a53b 10dd 0fbc ed87 c6ba
000001a0: 124f b7bc 660e 4fbb d74c 01bc fc7b 2b3c
000001b0: 6e95 a7bc ac10 7f3c ec16 f3ba b755 94bc
000001c0: 41b9 353d 0e16 0d3c 41d0 91bb 0167 cb3b
000001d0: eafa 5b3c b46b 953c 5440 18bc ec48 e6ba
000001e0: 0f78 daba d746 fc3c 1757 803c 3d9b 563c
000001f0: e5e4 833b b31d 59bc f9f4 043d 94a2 89bb
00000200: 3b20 033c 6bd0 fc3b 4727 f6bc 10dd b43a
00000210: dbfb 05bd 4026 12bd ab6a a53b d46b cfbb
00000220: db9a 033c 35d4 07bd 4229 ec3b 66d7 e93c
00000230: 0540 56bb 2787 37bb c248 4abc bbab acbb
00000240: 7988 efbc efb1 44ba 0fea ebbc 1659 163d
00000250: 25d6 653c 7760 f13b 6543 92ba cae0 493b
00000260: 6b05 a13c dac5 1e3b 5030 90bc 61af b03c
00000270: bd77 50ba 0e2d e7ba 9166 14bc 7813 2e3d
00000280: 7bcc b5bb 5954 92bb 8bbb c23b 2f00 86bc
00000290: eedd 35bd 4c16 6abc 57c7 72bb 210b babc
000002a0: 6eee c1bc 27de 533c c0e5 94bc e95a 523c
000002b0: fc6e 8cbc c50d e2bb 561a a2bc 743b 11bd
000002c0: 7770 983c faed 073d 9d2d 61bc 0cd2 e5bc
000002d0: 15a4 5f3c 65da be3b 6c1d e93c eba8 b939
000002e0: e4d7 01bd 1739 3f3c 3381 97bb 17ee 563c
000002f0: 2731 1bbc 2010 083c 3431 073d afc7 dfbb
00000300: 2f0b 2c3d c048 8e3c bcee 923b 80cd 0e3c
00000310: a290 9fbc 6904 313d aa34 f8bc b93b bbbb
00000320: 3dfc 573b 629c bebc 6e71 5c3b 5238 743c
00000330: 4c3f 6cbd 1454 503d 50ce 183c 6ed2 04bc
00000340: 393d 5aba a1ba 213d 6424 cc3b 91da 933c
00000350: d261 8d3b 2588 79bc c308 703a fe68 b33c
00000360: 7257 76bc 0baa 073d b2c8 eb3b ae3f 343c
00000370: 02f1 f5bc aae0 363a 8a5f a7bc f2ce f0bb
00000380: db31 193b b22e 87bb a0c3 8f3c f276 9cbc
00000390: 7dfe ce3c 1e90 3ebb e19b dc3c 4de6 c8bc
000003a0: e252 ffbb 0172 5ebc 10cb be3b a103 ddbc
000003b0: 7856 a43c 0607 173d f7c8 a43a a29e bdbc
000003c0: d573 7fbb f349 f83b f0e2 9dbc 3be4 62b8
000003d0: 1d4a 93bb 5e81 9f3b 3ecf 22bd fef1 de3a
000003e0: 61ba e03b 827c 9bbc 705b 0ebd fe94 0bbc
000003f0: 959c c23c b0d1 24bb 06ef e9bc f5aa bebb
0.00059591583 -0.004348777 0.021220816 -0.020598756 0.02387062 0.054473683 -0.0086830575 0.01579487
0.009893505 0.0032797873 0.022450566 0.0012704736 0.020394057 -0.008003824 -0.000971626 0.005123232
-0.028975677 0.022658264 0.014200287 -0.0013125652 -0.049051788 0.021291953 0.018683564 -0.031480234
0.0065698563 0.00043363718 0.036445398 0.0042849025 0.015740514 0.03225494 -0.02664454 0.00531475
-0.00966722 0.01349221 -0.003575681 -0.0020673976 -0.01875096 -0.002671873 -0.012694062 -0.03687375
-0.018025495 0.023460848 0.031746794 -0.0041942885 0.014873172 -0.0063321446 0.019461192 -0.006941768
0.0018189528 -0.01597395 -0.0062151 -0.021784762 -0.008691397 -0.0071845506 -0.012169252 -0.021320637
-0.0097767245 -0.0055471347 0.021157064 -0.03511968 0.011593548 -0.010984566 0.009791408 0.0153687615
-0.010984178 -0.010132072 -0.0008598367 0.013562399 0.028920582 0.013506762 -0.02505994 -0.013558309
0.001686131 0.0012145288 -0.031051885 -0.01770466 0.02664636 0.03686772 0.012108911 -0.0010563147
-0.021415973 0.032075737 0.009884148 -0.034800544 0.0155699765 0.020982806 0.014035689 0.025192644
-0.0063593737 -0.027201824 -0.0022247583 0.0074662766 -0.047872365 -0.014521681 0.0035870231 0.003038151
0.01582897 -0.0011193545 0.0460402 -0.012709973 0.00676681 0.005041332 -0.008780733 -0.001514671
-0.02237657 -0.0031594275 -0.007891855 0.010466572 -0.020456996 0.01556794 -0.001854626 -0.018107278
0.044366125 0.008611215 -0.0044498746 0.0062073474 0.013426522 0.018239833 -0.009292681 -0.001756934
-0.001666786 0.030795498 0.015666528 0.013098535 0.004025089 -0.01325171 0.032460187 -0.004200289
0.00800329 0.007715275 -0.030048026 0.0013798792 -0.03271089 -0.03568101 0.005048116 -0.006329993
0.008032526 -0.03316136 0.0072070668 0.028545093 -0.0032691967 -0.002800414 -0.012346448 -0.0052694953
-0.02923988 -0.0007503321 -0.028798131 0.036706053 0.014028107 0.007366236 -0.0011159001 0.003080415
0.019655904 0.0024226815 -0.017601162 0.021568002 -0.00079524127 -0.0017637329 -0.009057657 0.042499036
-0.0055480576 -0.0044656214 0.005942767 -0.01635751 -0.0444011 -0.014287543 -0.0037045085 -0.022710385
-0.023673262 0.012931383 -0.01817596 0.0128390575 -0.017142765 -0.006898614 -0.019787949 -0.03545709
0.018608315 0.033185937 -0.013743785 -0.02805426 0.01364996 0.0058243745 0.028456412 0.00035411803
-0.03170003 0.011671326 -0.004623556 0.0131182885 -0.009472168 0.008304626 0.033005908 -0.006829224
0.042002853 0.017368674 0.0044840258 0.008715987 -0.019478146 0.043217096 -0.03029855 -0.0057139066
0.0032956742 -0.023267929 0.0033636945 0.014906006 -0.057677552 0.050861433 0.0093265325 -0.008106811
-0.0008325163 0.039484624 0.006229924 0.018048557 0.0043146396 -0.015230213 0.0009156579 0.02190065
-0.015035497 0.03312115 0.0071955556 0.011001511 -0.030022148 0.00069762266 -0.020431299 -0.0073488886
0.0023375663 -0.0041254396 0.017549336 -0.019099686 0.025267834 -0.00290776 0.026929798 -0.024523878
-0.007791863 -0.013576985 0.005822547 -0.02697927 0.020060763 0.036871932 0.0012572099 -0.023146931
-0.0038978953 0.007577175 -0.019273251 -5.4095155e-05 -0.004494919 0.0048677167 -0.039748423 0.0017009375
0.0068581556 -0.018980268 -0.03475517 -0.008519409 0.023756305 -0.0025149398 -0.028556358 -0.0058187195

encoder.0.attention.fc.bias f4 [64]
00000000: 0000 0000 0000 0000 0000 0000 0000 0000
00000010: 0000 0000 0000 0000 0000 0000 0000 0000
00000020: 0000 0000 0000 0000 0000 0000 0000 0000
00000030: 0000 0000 0000 0000 0000 0000 0000 0000
00000040: 0000 0000 0000 0000 0000 0000 0000 0000
00000050: 0000 0000 0000 0000 0000 0000 0000 0000
00000060: 0000 0000 0000 0000 0000 0000 0000 0000
00000070: 0000 0000 0000 0000 0000 0000 0000 0000
00000080: 0000 0000 0000 0000 0000 0000 0000 0000
00000090: 0000 0000 0000 0000 0000 0000 0000 0000
000000a0: 0000 0000 0000 0000 0000 0000 0000 0000
000000b0: 0000 0000 0000 0000 0000 0000 0000 0000
000000c0: 0000 0000 0000 0000 0000 0000 0000 0000
000000d0: 0000 0000 0000 0000 0000 0000 0000 0000
000000e0: 0000 0000 0000 0000 0000 0000 0000 0000
000000f0: 0000 0000 0000 0000 0000 0000 0000 0000
0.0 0.0 0.0 0.0 0.0 0.0 0.0 0.0
0.0 0.0 0.0 0.0 0.0 0.0 0.0 0.0
0.0 0.0 0.0 0.0 0.0 0.0 0.0 0.0
0.0 0.0 0.0 0.0 0.0 0.0 0.0 0.0
0.0 0.0 0.0 0.0 0.0 0.0 0.0 0.0
0.0 0.0 0.0 0.0 0.0 0.0 0.0 0.0
0.0 0.0 0.0 0.0 0.0 0.0 0.0 0.0
0.0 0.0 0.0 0.0 0.0 0.0 0.0 0.0
