model/mnist/tune_lr0.001_ed32_nl4_nh2_fm2_ps4/temp_model.pt (torch, 175623 bytes, 74 tensors)

embedding.cls_token f4 [1, 1, 32]
0	0x3d531b79	0.05153987
1	0x3c4dc263	0.012558552
2	0xbc7b4d76	-0.015338292
3	0xbb6ab8a6	-0.0035815625
4	0xbd7bbefa	-0.061461426
5	0xbd55b1e2	-0.052171595
6	0x3bb5d149	0.0055486304
7	0x3dd195fa	0.10233684
8	0xbcc5347a	-0.024072874
9	0x3cfd08b9	0.030887948
10	0x3c73ae6d	0.014873129
11	0xbb6f6fa0	-0.003653504
12	0xbc4c91ef	-0.012485965
13	0x3d4d26e4	0.050085917
14	0xbd1bcb53	-0.038035702
15	0x3cfea463	0.031084245
16	0xbd608d7a	-0.054822423
17	0x3d07e76c	0.033179685
18	0x3d1b1d2c	0.037869617
19	0xbc3ebbc1	-0.011641444
20	0xbd337f53	-0.043822598
21	0xbd2c2747	-0.042029645
22	0x3bbb45a2	0.005715088
23	0x3cffaeb8	0.031211242
24	0x3db455af	0.08805405
25	0xbcd68a21	-0.026188912
26	0xbce901d2	-0.02844325
27	0xbd1a9129	-0.03773609
28	0x3c9a1dfc	0.018813126
29	0x3b10ef82	0.0022115414
30	0xbc1295e8	-0.008946873
31	0x3d4df0e6	0.050278567

embedding.pos_embedding f4 [1, 50, 32]
0	0x3d531b80	0.051539898
1	0x3c4dc26f	0.012558564
2	0xbc7b4d86	-0.015338307
3	0xbb6ab8a0	-0.0035815611
4	0xbd7bbefa	-0.061461426
5	0xbd55b1e5	-0.052171607
6	0x3bb5d139	0.005548623
7	0x3dd195fc	0.102336854
8	0xbcc53481	-0.024072887
9	0x3cfd08ba	0.03088795
10	0x3c73ae6c	0.014873128
11	0xbb6f6f6a	-0.0036534914
12	0xbc4c91ed	-0.012485963
13	0x3d4d26e3	0.050085913
14	0xbd1bcb48	-0.03803566
15	0x3cfea474	0.031084277
16	0xbd608d76	-0.054822408
17	0x3d07e768	0.03317967
18	0x3d1b1d26	0.037869595
19	0xbc3ebbcd	-0.011641455
20	0xbd337f53	-0.043822598
21	0xbd2c2745	-0.042029638
22	0x3bbb457e	0.005715071
23	0x3cffaec4	0.031211264
24	0x3db455b1	0.08805407
25	0xbcd68a1e	-0.026188906
26	0xbce901d2	-0.02844325
27	0xbd1a9129	-0.03773609
28	0x3c9a1df7	0.018813116
29	0x3b10efa4	0.0022115493
30	0xbc1295ea	-0.008946875
31	0x3d4df0e5	0.050278563
32	0x3cda53e4	0.02665133
33	0x3d27e074	0.04098554
34	0x3c8cf497	0.017206473
35	0x3d7877a0	0.06066096
36	0x3d7581da	0.05993829
37	0xbbc5c72e	-0.006035707
38	0xbd2b4117	-0.04181012
39	0x3cfdf96c	0.031002723
40	0xbd4996d9	-0.049216125
41	0x3d10f28d	0.035387564
42	0xbc9338f1	-0.017971488
43	0x3c9df483	0.019281631
44	0x3d89b39f	0.06723713
45	0xbd807143	-0.06271603
46	0xbcdb3fa4	-0.026763745
47	0xbd69c391	-0.057071272
48	0xbba56e71	-0.005048566
49	0xbd70781c	-0.058708295
50	0x3cb75c33	0.022382831
51	0xbc9f4883	-0.019443756
52	0xbc1c6dc6	-0.009547656
53	0xbcb66eb5	-0.022269586
54	0x3c336779	0.010949963
55	0x3d1faf74	0.038985685
56	0x3c39a1ba	0.0113300625
57	0xbd5198f9	-0.051171277
58	0xbb8a7027	-0.0042247954
59	0xbd65eb19	-0.05613241
60	0xbd0a1c8b	-0.033718627
61	0x3c82a05d	0.015945608
62	0xbc3a8a0f	-0.011385455
63	0x3c0c134c	0.008549523
64	0x3d1867bb	0.0372083
65	0x3cf52fbf	0.029929994
66	0x3be6e6e4	0.0070465673
67	0x3d16dba4	0.03683056
68	0x3d360a91	0.04444367
69	0xbc58dc08	-0.013236053
70	0xbb69bdc1	-0.003566608
71	0x3d6fdbf6	0.05855938
72	0xbd34758c	-0.044057414
73	0x3cd35af5	0.025800208
74	0xbc4f92b5	-0.012669255
75	0x3c591d25	0.0132515775
76	0x3d481c5c	0.04885517
77	0xbd3bc3ca	-0.045841016
78	0xbca17b74	-0.019712187
79	0xbd52fdf5	-0.051511724
80	0xbc4a5909	-0.012350329
81	0xbd51f9b6	-0.051263534
82	0x3cfbd835	0.030742744
83	0x3c185a08	0.009298809
84	0xbc9eeb92	-0.019399438
85	0xbbcb9a2f	-0.0062134485
86	0x3bdf6c46	0.006818327
87	0x3d0ac80f	0.033882197
88	0x3cfe1271	0.031014653
89	0xbd2f08a7	-0.04273286
90	0x3bd9fdec	0.0066525843
91	0xbd474f2a	-0.04865948
92	0xbd41a0ff	-0.04727268
93	0x3c19a24a	0.009377072
94	0xbc0c897d	-0.008577702
95	0x3c3fc98c	0.011705767
96	0xbbd0e95a	-0.006375474
97	0xbe22d0b0	-0.1589992
98	0xbd637b24	-0.055537358
99	0xbe26725d	-0.16254564
100	0xbdc8c746	-0.098036334
101	0x3c5ce9a3	0.013483438
102	0x3e584591	0.21120287
103	0x3df5bda5	0.119990624
104	0x3da24564	0.079233915
105	0xbd6ab0e9	-0.05729762
106	0x3d2efafb	0.042719822
107	0xbdc6ec70	-0.097130656
108	0xbe47e0e2	-0.1951938
109	0x3d92a890	0.07161057
110	0x3d2b4f31	0.04182357
111	0x3c8e310f	0.017357377
112	0xbd09ae44	-0.03361346
113	0x3dee0555	0.11622111
114	0x3d9319fe	0.07182692
115	0xbd79a131	-0.06094474
116	0xbd8a5130	-0.067537665
117	0x3e2fd674	0.17171651
118	0xbd23d925	-0.040002007
119	0x3bf82cee	0.0075737154
120	0x3d781709	0.060568843
121	0x3d327343	0.043566953
122	0x3d4910a4	0.049088135
123	0x3e0eb82a	0.1393744
124	0xbe0703b2	-0.13185003
125	0xbd4a00ef	-0.049317297
126	0x3c8ef7f0	0.01745221
127	0xba615bdf	-0.00085967587
128	0x3cc790c8	0.02436103
129	0xbe54ef0b	-0.20794313
130	0xbd904d22	-0.07045962
131	0xbe477ea4	-0.19481903
132	0xbdec3ba9	-0.11534817
133	0x3cc0c93f	0.023533462
134	0x3eb09cc7	0.34494612
135	0x3e200913	0.15628462
136	0xbc6b1f7f	-0.014350771
137	0xbd745346	-0.05964973
138	0x3d62e73c	0.055396304
139	0xbda5dc60	-0.08098674
140	0xbe14c326	-0.14527568
141	0x3cf9d6ca	0.030497927
142	0x3dba3dbb	0.090938054
143	0x3d011583	0.031514656
144	0x3ca4aff4	0.020103432
145	0x3d7392fa	0.05946634
146	0x3c9969a2	0.018727127
147	0xbcca8d2e	-0.024725523
148	0xbd818bd1	-0.06325496
149	0x3e0b90c1	0.13629438
150	0xbd9d010d	-0.07666216
151	0xbbc8dbfb	-0.0061297393
152	0x3d24c877	0.04023024
153	0x3d312137	0.043244567
154	0x3d597ef6	0.053099595
155	0x3e3608ac	0.17776746
156	0xbe2e27e4	-0.17007405
157	0xbc9c40d7	-0.019073887
158	0xbbb69152	-0.0055715227
159	0xbb9155c2	-0.004435272
160	0x3d839bf7	0.06426232
161	0xbe199ae1	-0.15000488
162	0xbd528ee7	-0.051405814
163	0xbdfdf30f	-0.123998754
164	0xbdf9372a	-0.12168725
165	0xbc3fd436	-0.01170831
166	0x3eaa05e8	0.3320763
167	0x3e2c0a82	0.16800883
168	0xbd73b32f	-0.059497055
169	0xbd47b267	-0.048754122
170	0x3d8fc115	0.07019249
171	0xbdc864f7	-0.097848825
172	0xbe06f2fb	-0.13178627
173	0x3be2566d	0.0069072754
174	0x3dc8af21	0.09799028
175	0x3d47b100	0.048752785
176	0x3d50bd76	0.050961934
177	0x3cd117cc	0.025524043
178	0xbba0cf42	-0.0049075196
179	0x3ccbb3e6	0.024866056
180	0xbd5996c8	-0.05312231
181	0x3df2302a	0.11825593
182	0xbddc99a8	-0.10771495
183	0xbc9bdfce	-0.019027617
184	0x3cbc280a	0.02296831
185	0x3d8be7c0	0.06831312
186	0x3cad5c2a	0.021162111
187	0x3e2b7de7	0.16747247
188	0xbe4fff9d	-0.20312352
189	0xbce1b8fc	-0.027554028
190	0xbb88f1f4	-0.0041792337
191	0xbd1489f3	-0.03626437
192	0x3d62a0d3	0.055329155
193	0xbc86176b	-0.016368588
194	0xbbe3b45c	-0.0069489907
195	0xbbbe190e	-0.0058013266
196	0xbda14c27	-0.07875853
197	0xbc558118	-0.013031267
198	0x3e0a9175	0.1353205
199	0x3dd2aa74	0.102864176
200	0xbcbf641f	-0.023363171
201	0xbd081b6c	-0.033229277
202	0x3ce04e59	0.02738111
203	0xbd92cff0	-0.07168567
204	0xbd4ae902	-0.04953862
205	0x3d0208d2	0.031746693
206	0x3d175ad8	0.03695187
207	0x3d31ccd8	0.043408245
208	0x3d222697	0.039587583
209	0x3d0b3eb7	0.033995356
210	0xbc2bbd9f	-0.010482221
211	0x3d5f434a	0.05450753
212	0xbd619aae	-0.055079155
213	0x3d8852a5	0.06656388
214	0xbd8dd318	-0.069250286
215	0xbceb3d46	-0.02871574
216	0xbc956e3e	-0.018241044
217	0x3d7fffa3	0.062499654
218	0x3cf33fd0	0.029693514
219	0x3cd35254	0.025796093
220	0xbd98a7c3	-0.07453873
221	0xbd66a652	-0.05631096
222	0x3d4604cf	0.04834443
223	0xbd87e253	-0.06634965
224	0x3d08637c	0.033298
225	0x3d3e1c29	0.046413574
226	0x3c72da7c	0.014822599
227	0x3d797f38	0.06091234
228	0x3d92c4dd	0.07166455
229	0xbc35093e	-0.011049567
230	0xbd5c82a5	-0.05383553
231	0x3d2de827	0.042457726
232	0xbd4959e5	-0.049157996
233	0x3d128eaf	0.035780605
234	0xbcb08c77	-0.021551354
235	0x3c8f6fc1	0.017509343
236	0x3d897de5	0.067134656
237	0xbd6ca0ad	-0.05777042
238	0xbd08f90e	-0.033440642
239	0xbd6d35d8	-0.057912678
240	0xbbbd91da	-0.005785209
241	0xbd7f1ed9	-0.062285278
242	0x3cf1ca13	0.029515302
243	0xbbdfa930	-0.0068255886
244	0xbc86837c	-0.016420119
245	0xbcb4a63e	-0.022051927
246	0x3c2c9d55	0.010535558
247	0x3d22f681	0.039785866
248	0x3cc0416d	0.023468697
249	0xbd5d0a65	-0.05396499
250	0xbbd6407c	-0.006538449
251	0xbd78eb41	-0.06077123
252	0xbd330795	-0.043708403
253	0x3c10d04f	0.008838727
254	0xbc10cafd	-0.008837459
255	0x3c5612f8	0.013066046

embedding.conv1.weight f4 [32, 1, 4, 4]
0	0xbcb4759b	-0.022028735
1	0xbd9fbdaa	-0.077998474
2	0xbc92bbd9	-0.017911838
3	0x3c5ef756	0.013608774
4	0xbcaa0680	-0.020755053
5	0xbd36b4da	-0.044606067
6	0xbcba7dbb	-0.022765031
7	0x3cc360da	0.023849893
8	0xbc410aad	-0.01178233
9	0xbd605832	-0.05477161
10	0x3a244d8c	0.0006267659
11	0x3a691bf5	0.00088924106
12	0xbc611462	-0.01373777
13	0xbd6dad1e	-0.058026426
14	0x3c7424fd	0.014901397
15	0x3d256ab5	0.040384967
16	0xbc3adc9b	-0.0114051355
17	0xbb985dce	-0.0046498543
18	0x3bae1b98	0.005313348
19	0x3b671cbb	0.0035264927
20	0xbb98b3d1	-0.0046601077
21	0xbca2bc6c	-0.019865237
22	0x3b816bc1	0.003949613
23	0x3ba42a72	0.0050099427
24	0xbcc39ac1	-0.023877503
25	0xbcd11810	-0.02552417
26	0x3cc81c28	0.024427488
27	0xbcb24680	-0.021762133
28	0xbc67692f	-0.014124199
29	0x3adc24b9	0.0016795612
30	0xba2c35de	-0.0006569306
31	0xbbcf44ea	-0.006325354
32	0xbd0f3696	-0.034964167
33	0xbbf9f5d2	-0.007628181
34	0x3c8d56a7	0.017253233
35	0xbb64b881	-0.0034900012
36	0xbd23191e	-0.039818875
37	0xbc363f5d	-0.011123505
38	0x3cb93c1c	0.02261167
39	0xbc910120	-0.017700732
40	0xbd859c67	-0.06523972
41	0xbc200454	-0.009766657
42	0x3d263dfa	0.04058645
43	0xbce481c0	-0.0278939
44	0xbd65106c	-0.055923864
45	0x3d38e66b	0.04514162
46	0x3cd70751	0.026248606
47	0xbc991861	-0.018688383
48	0xbcc163a0	-0.023607075
49	0x3aeab8c4	0.0017907848
50	0x3ce4f807	0.0279503
51	0x3c680be1	0.014162988
52	0xbb491c84	-0.0030687163
53	0x3be9ecd6	0.0071388287
54	0x3b16a03c	0.002298369
55	0xb96cec43	-0.00022594728
56	0xbcebba05	-0.028775224
57	0x3cd87367	0.026422216
58	0xbc5428a4	-0.012949143
59	0xbbdd38bd	-0.0067511485
60	0x3c552fc6	0.013011878
61	0x3c576f8a	0.013149152
62	0xbbf257c8	-0.0073957182
63	0xbd67def4	-0.05660911
64	0x3cd336c9	0.02578296
65	0xbcd8a6d2	-0.026446734
66	0xbd12ddf3	-0.0358562
67	0x3c893f48	0.016753808
68	0xbc47def8	-0.012199156
69	0xbc1c7b9a	-0.009550953
70	0xbd1ab3f1	-0.03776926
71	0xbc4b92d4	-0.012425143
72	0x3bedf6b5	0.007262076
73	0xbc2f137e	-0.0106858
74	0xbd91fb27	-0.07127982
75	0x3d019fb5	0.03164645
76	0xbc0d97fb	-0.008642192
77	0xbd22e9e8	-0.03977385
78	0xbd8c2772	-0.06843461
79	0x3c431ced	0.011908752
80	0xbc2346f3	-0.009965646
81	0x3cbcc994	0.023045339
82	0x3d24b749	0.040213857
83	0xbb71a15a	-0.0036869855
84	0xbcfed909	-0.03110935
85	0x3cec948c	0.028879426
86	0x3ca4e137	0.020126922
87	0xbbc2b20f	-0.0059416364
88	0xbcdf200e	-0.027236965
89	0x3cb36cc3	0.021902448
90	0x3c5f3b71	0.013625012
91	0x3bb51637	0.00552633
92	0x3c6da1eb	0.014503936
93	0x3cddb335	0.027062992
94	0x3d4441ef	0.04791444
95	0x3c8a6624	0.016894408
96	0xbc941e84	-0.018080957
97	0xbc64bbcf	-0.013960793
98	0x3c897a18	0.016781852
99	0x3c07fb34	0.008299638
100	0xbc6648c0	-0.014055431
101	0xbb1405a3	-0.0022586368
102	0x3c1ac9a6	0.009447491
103	0x3b1865d2	0.002325405
104	0xbc5901a6	-0.013245022
105	0x3b0d7c23	0.0021588884
106	0xbcb55a64	-0.022137828
107	0x3b3ea174	0.0029087933
108	0x3b4be92b	0.003111432
109	0x3c818c91	0.015814098
110	0xbca6d6ea	-0.02036615
111	0x3d25befb	0.040465336
112	0xb9318d9c	-0.00016932789
113	0xbca90660	-0.020632923
114	0xbd9d98c5	-0.07695154
115	0xbba44f41	-0.0050143306
116	0xb945e71f	-0.00018873483
117	0xbc3538f3	-0.011060941
118	0xbc336127	-0.010948456
119	0xb956f07e	-0.0002049822
120	0xbc09a947	-0.008402175
121	0xbb8958d9	-0.0041914997
122	0x3bd142f3	0.006386155
123	0x3c66a010	0.014076248
124	0xbad5ca87	-0.0016310968
125	0x3cdde276	0.027085524
126	0x3d15cf34	0.036574557
127	0x3c884813	0.01663593
128	0x3d43736c	0.047717497
129	0x3c525609	0.012837895
130	0x3bcdfd91	0.006286331
131	0xbaea1fb7	-0.0017862235
132	0x3c1a8402	0.009430887
133	0x3a645825	0.00087106443
134	0xbc3ce215	-0.0115285115
135	0x3bfe4d96	0.007760714
136	0x3c063ea4	0.008193646
137	0xbc948651	-0.018130453
138	0x3c4d7835	0.012540867
139	0xbc1fe0ea	-0.009758214
140	0xbc58a968	-0.013223983
141	0xbc93c0e6	-0.018036317
142	0xbbef5dc9	-0.0073048812
143	0xbc4cce4f	-0.01250036
144	0xbce31e2f	-0.027724354
145	0xbd02d5a5	-0.03194203
146	0xbc90764b	-0.017634531
147	0xbcdfbad6	-0.02731077
148	0xbcf7eb41	-0.030263545
149	0x3b6a79da	0.0035778196
150	0x3bb96ecb	0.0056589595
151	0xbc9e2ff1	-0.01930997
152	0xbc08d72f	-0.008352085
153	0x3bd824b8	0.006596174
154	0x3bbc94ca	0.0057550417
155	0xbc75abb6	-0.014994552
156	0x3d10f7bc	0.035392508
157	0x3c1a29e6	0.009409403
158	0x3ca4abc3	0.020101434
159	0xbd72ae1d	-0.05924808
160	0xbc2a3f17	-0.010391018
161	0x3d7c5849	0.061607633
162	0x3c83bbca	0.016080756
163	0x3ceb86a7	0.02875073
164	0xbc2d2db7	-0.010569981
165	0x3d3be122	0.045869
166	0xba53d069	-0.0008080067
167	0x3a15a788	0.0005708863
168	0xba600855	-0.00085461634
169	0x3adf584f	0.0017039868
170	0xbaded07a	-0.0016999387
171	0xbd114ab8	-0.035471648
172	0x3d815a93	0.06316104
173	0x3d2386bb	0.03992341
174	0x3b4844d0	0.0030558594
175	0xbc44cd2f	-0.01201181
176	0xbbb5b472	-0.0055451924
177	0xbc77b150	-0.015117958
178	0xbcfa8f20	-0.030585825
179	0xbd27e24b	-0.040987294
180	0xbc8fa9e7	-0.01753707
181	0xbc5882a3	-0.01321474
182	0x3b6aa968	0.003580654
183	0xbcc1b47c	-0.023645632
184	0xbc1508ca	-0.009096334
185	0xbc84d981	-0.016216995
186	0xbc1d95ef	-0.0096182665
187	0xbc02f282	-0.007992389
188	0x3c0811a2	0.008304985
189	0x3b8a4b13	0.0042203753
190	0xbd160a0c	-0.036630675
191	0xbabd2122	-0.001442943
192	0xbbbda2ab	-0.005787214
193	0x3c82acbf	0.015951512
194	0x3cbfcfbf	0.02341449
195	0x3cf1091a	0.029423285
196	0xbd09a6eb	-0.03360645
197	0xbb65cb97	-0.0035063976
198	0xbb0a376e	-0.0021090168
199	0xbb5efc30	-0.0034024827
200	0xbaeaf9be	-0.0017927212
201	0xbcc9b586	-0.02462269
202	0x3be12984	0.006871404
203	0x372baee6	1.0233116e-05
204	0xbc14332c	-0.009045403
205	0x3d0ff91d	0.035149682
206	0x3c9dc904	0.01926089
207	0xbb88adba	-0.0041711004
208	0x3d1e1856	0.038597427
209	0x3d11df96	0.03561362
210	0x3d2ec88a	0.042671718
211	0x3ccd4515	0.025057355
212	0x3ce4ae47	0.027915133
213	0xba822714	-0.0009929859
214	0x3c92eaa3	0.01793415
215	0x3c04c8ff	0.008104562
216	0x3d052b7d	0.032512177
217	0xbd06fb6a	-0.03295461
218	0x3c8031a4	0.01564867
219	0x3c7bf71a	0.015378738
220	0xbb9664e9	-0.004589666
221	0xbd0d39d5	-0.03447898
222	0x3b6f22b7	0.0036489198
223	0x3d18c68c	0.037298724
224	0x3d4a2021	0.049347047
225	0xbc9f36ea	-0.019435365
226	0xbcdfe1ab	-0.027329287
227	0x3ce71b24	0.028211184
228	0x3c06b7d8	0.008222543
229	0xbcbb159f	-0.022837458
230	0xbba79662	-0.0051143626
231	0x3cda4eab	0.02664884
232	0xbc936a42	-0.017995004
233	0xbc7fae8a	-0.015605578
234	0x3cd6fa63	0.02624244
235	0x3c130a76	0.008974662
236	0xbc57168b	-0.013127933
237	0x3d32266f	0.043493684
238	0x3c85a18a	0.01631238
239	0x3cef45c7	0.029208077
240	0xbccdfcab	-0.025144896
241	0x3c99afed	0.018760646
242	0x3d9078cd	0.07054291
243	0x3c74335b	0.014904822
244	0xbd3ab5dd	-0.045583595
245	0x3ca87abe	0.02056634
246	0x3d521b3e	0.05129551
247	0xbc89e9c7	-0.016835107
248	0xbd1f44cc	-0.03888397
249	0x3d766e26	0.06016364
250	0x3cd3d6bc	0.02585923
251	0xbcd32080	-0.025772333
252	0x3ce80687	0.028323425
253	0x3d46ab3f	0.048503157
254	0x3b88a6a9	0.004170258
255	0xbd17ed1e	-0.037091367

embedding.conv1.bias f4 [32]
0	0xbd1bdda3	-0.038053166
1	0xbd37c4bc	-0.044865355
2	0xbd7041a7	-0.05865636
3	0xbd23024d	-0.039797116
4	0xbcfbd842	-0.030742768
5	0x3d641e5e	0.055693023
6	0x3cabdb96	0.02097873
7	0xbd260fcf	-0.04054242
8	0x3d20e575	0.039281327
9	0xbd7d0895	-0.061775763
10	0x3d4a2ecb	0.04936103
11	0xbd0daa41	-0.034586195
12	0xbd0d913a	-0.034562327
13	0x3d2a16bd	0.04152559
14	0x3d8af4c7	0.06784969
15	0x3d08013f	0.033204313
16	0x3d4213c5	0.047382135
17	0x3bd8c983	0.006615819
18	0xbd595593	-0.053060126
19	0x3c9bca5b	0.019017389
20	0x3d450fcc	0.04811077
21	0x3ca1fd74	0.019774176
22	0xbd10e7d1	-0.035377327
23	0xbd8a56a5	-0.067548074
24	0xbd2c5aae	-0.042078666
25	0x3cb6e91a	0.022327948
26	0x3d48b16a	0.04899732
27	0x3d849f05	0.06475643
28	0xbcc030d2	-0.02346078
29	0xbd58ad7b	-0.05289982
30	0x3d80a344	0.062811404
31	0xbd3f6946	-0.046731256

encoder.0.attention.queries.weight f4 [32, 32]
0	0xbdaea90f	-0.08528339
1	0xbddb74c9	-0.107156344
2	0xbde2af11	-0.110685475
3	0xbdbab3b8	-0.0911631
4	0xbdbd62f3	-0.09247389
5	0x3dc42a90	0.09578431
6	0x3e07b090	0.13250947
7	0xbd25eb6d	-0.040507723
8	0x3ddaea10	0.10689175
9	0xbe0ecf44	-0.13946253
10	0x3e0420de	0.12903163
11	0xbe1f0868	-0.1553055
12	0xbdfd0fc2	-0.12356521
13	0x3e00e030	0.1258552
14	0x3d89d0ab	0.067292534
15	0x3e0a379c	0.13497776
16	0x3debccf9	0.11513705
17	0x3db5c6d4	0.08875814
18	0xbd1605be	-0.03662657
19	0x3d634206	0.055482887
20	0x3d64f76d	0.055900026
21	0x3bb8e8ce	0.005642987
22	0xbe0cf5d6	-0.13765654
23	0xbdd953eb	-0.10611709
24	0xbd4cc94c	-0.04999666
25	0x3e112053	0.14172487
26	0x3dd2788d	0.102768995
27	0x3d4f063e	0.050543062
28	0xbda129ba	-0.07869287
29	0xbe053d30	-0.13011622
30	0x3de8244e	0.113350496
31	0xbe043e2c	-0.12914342
32	0xbda17deb	-0.07885345
33	0xbdf7319f	-0.12070011
34	0xbe0f1880	-0.1397419
35	0xbdcb9ea1	-0.099423654
36	0xbdef0e66	-0.11672668
37	0x3e1134a5	0.14180239
38	0x3dd4ed57	0.103968315
39	0xbd12dba8	-0.03585401
40	0x3db38c96	0.08767049
41	0xbe29b8d4	-0.16574413
42	0x3e29f7ab	0.16598384
43	0xbdf82ebc	-0.12118289
44	0xbe14a0c1	-0.14514448
45	0x3dc31d06	0.0952702
46	0x3d52caeb	0.05146305
47	0x3e02be50	0.12767911
48	0x3dd6d119	0.10489101
49	0x3d9b1006	0.075714156
50	0xbd4dd56f	-0.050252374
51	0x3d0776d5	0.03307231
52	0x3d4a5c4b	0.049404424
53	0x3c905807	0.0176201
54	0xbdec5f91	-0.11541665
55	0xbdd990b2	-0.106233016
56	0xbd622a85	-0.05521633
57	0x3df56222	0.11981608
58	0x3e09a566	0.13442001
59	0x3dca76c0	0.09885931
60	0xbd780ce1	-0.060559157
61	0xbdb82892	-0.08992113
62	0x3e1b778e	0.15182325
63	0xbe28bbe8	-0.1647793
64	0x3d85d787	0.06535249
65	0x3df1e0b3	0.11810436
66	0x3dfa560e	0.12223445
67	0x3dcd3c0f	0.10021221
68	0x3deb1703	0.114789985
69	0xbe031491	-0.12800814
70	0xbd7a6fcf	-0.061141785
71	0x3d807eb0	0.06274164
72	0xbd4f1ae4	-0.050562754
73	0x3dde234c	0.10846576
74	0xbdee8b53	-0.11647668
75	0x3df7651b	0.12079831
76	0x3df35397	0.11881178
77	0xbdea93bc	-0.11453959
78	0xbdc1d942	-0.09465267
79	0xbdc89218	-0.0979349
80	0xbdc31a5f	-0.09526514
81	0xbccd5cd5	-0.02506868
82	0x3d0f607e	0.03500413
83	0xbd22b936	-0.039727412
84	0xbd801a6b	-0.06255039
85	0xbbbe105c	-0.00580029
86	0x3dcedca6	0.10100679
87	0x3e14b7d5	0.14523251
88	0x3d18e80e	0.03733068
89	0xbdda1a7b	-0.10649582
90	0xbdf8246b	-0.12116321
91	0xbd9fbd33	-0.07799759
92	0x3d737a02	0.059442528
93	0x3dc8c199	0.09802551
94	0xbddf215b	-0.10895034
95	0x3e25ef06	0.16204461
96	0x3de9a794	0.11408916
97	0x3dcd24a5	0.10016755
98	0x3debdcd7	0.11516731
99	0x3db7118a	0.08938892
100	0x3da4737a	0.08029838
101	0xbdfead7f	-0.124354355
102	0xbdebbd45	-0.1151071
103	0x3d2b9c93	0.041897368
104	0xbdc99a6d	-0.098439075
105	0x3e234cde	0.15947291
106	0xbe0b634d	-0.13612099
107	0x3de7a5fe	0.11310957
108	0x3deafb28	0.114736855
109	0xbe080344	-0.13282496
110	0xbdece2f0	-0.115667224
111	0xbe215226	-0.15753993
112	0xbdf7804f	-0.1208502
113	0xbd837bf8	-0.064201295
114	0x3dba8c5b	0.09108802
115	0xbcf5a7c2	-0.02998722
116	0xbde22223	-0.11041667
117	0xbcb6b45e	-0.022302803
118	0x3dea434c	0.11438617
119	0x3e1247c0	0.14285183
120	0x3daf4dd0	0.085597634
121	0xbdae8b58	-0.085226715
122	0xbe032af2	-0.12809351
123	0xbd84c05d	-0.06482003
124	0x3d87a03a	0.06622358
125	0x3dbd2b49	0.092367716
126	0xbde680c0	-0.11255026
127	0x3e31b5e6	0.17354545
128	0xbd860078	-0.06543058
129	0xbdea8515	-0.11451165
130	0xbddd0b17	-0.10793131
131	0xbde929b0	-0.113849044
132	0xbdf62db8	-0.12020439
133	0x3e01e7cc	0.1268608
134	0x3dcfbba2	0.1014321
135	0xbd65b0d4	-0.05607684
136	0x3dca5642	0.098797336
137	0xbdf4b954	-0.11949411
138	0x3e0f721b	0.14008372
139	0xbdc98bf6	-0.098411486
140	0xbdf9568e	-0.12174712
141	0x3de2b2a2	0.11069228
142	0x3dca8384	0.09888366
143	0x3e1c20d2	0.15246895
144	0x3e041be9	0.12901272
145	0x3d02bbb3	0.031917285
146	0xbd1b8203	-0.037965786
147	0x3cf8c3c3	0.030366784
148	0x3d9e6142	0.07733394
149	0x3c8040bb	0.015655866
150	0xbdd476b2	-0.10374202
151	0xbdf18245	-0.11792425
152	0xbd78d8e5	-0.06075372
153	0x3dac9ddf	0.08428549
154	0x3de78885	0.11305336
155	0x3daefd4f	0.085444085
156	0xbdc41af0	-0.095754504
157	0xbe1a1f57	-0.15051018
158	0x3e2ac533	0.16676788
159	0xbdd82067	-0.10553055
160	0x3dd03cc0	0.10167837
161	0x3db23e98	0.08703345
162	0x3def3123	0.11679294
163	0x3dc3b975	0.095568575
164	0x3da0d5ce	0.0785328
165	0xbe03c9bf	-0.12869929
166	0xbde6ceb9	-0.11269898
167	0x3cfb5e1a	0.03068452
168	0xbd797f87	-0.060912635
169	0x3de32a70	0.11092079
170	0xbe424b34	-0.18974
171	0x3deeec55	0.116661705
172	0x3da54e25	0.080715455
173	0xbdd33757	-0.103132896
174	0xbdce6fb7	-0.10079902
175	0xbe05caac	-0.13065594
176	0xbdf6ed44	-0.120569736
177	0xbbfaf146	-0.0076581566
178	0x3d3ced32	0.046124645
179	0xbd3a81d1	-0.04553396
180	0xbd9d1fd4	-0.07672086
181	0xbc95b856	-0.018276375
182	0x3dfad6e3	0.12248018
183	0x3dfbf92e	0.12303387
184	0x3d96a04d	0.07354794
185	0xbdd1ef80	-0.10250759
186	0xbde8c187	-0.113650374
187	0xbd92a7c8	-0.07160908
188	0x3dcea77d	0.100905396
189	0x3df6966f	0.12040412
190	0xbe01c7a9	-0.1267382
191	0x3e172f11	0.14764048
192	0xbdc0c903	-0.0941334
193	0xbdfa215c	-0.12213394
194	0xbdeb473f	-0.114881985
195	0xbdcc41b8	-0.09973472
196	0xbdb27b2f	-0.08714902
197	0x3e207c1e	0.15672347
198	0x3e0603c2	0.13087371
199	0xbc90edda	-0.017691541
200	0x3ddd710a	0.10812576
201	0xbdced722	-0.10099627
202	0x3e069bcb	0.13145368
203	0xbdb4b9a4	-0.08824471
204	0xbda47486	-0.080300376
205	0x3e193422	0.14961293
206	0x3dbf777c	0.09348962
207	0x3df8ebca	0.12154348
208	0x3ddc5b38	0.10759586
209	0x3d1b07eb	0.037849348
210	0xbd577177	-0.052598443
211	0x3c814790	0.015781194
212	0x3dc06fa8	0.09396297
213	0x3cab05bb	0.020876756
214	0xbddecfc8	-0.10879475
215	0xbe0076be	-0.12545297
216	0xbd667d7a	-0.056272008
217	0x3e015d5a	0.12633267
218	0x3e1e992e	0.15488121
219	0x3d343e0e	0.044004492
220	0xbd759bac	-0.059962913
221	0xbe164fbe	-0.14678857
222	0x3e13612c	0.14392537
223	0xbe1d9895	-0.15390237
224	0x3dde1081	0.108429916
225	0x3de910b1	0.11380137
226	0x3d9be314	0.07611671
227	0x3dd2deb5	0.10296384
228	0x3db39db3	0.08770313
229	0xbdc8920e	-0.09793483
230	0xbd8603d5	-0.065437
231	0x3d35457c	0.04425572
232	0xbde240d3	-0.110475205
233	0x3de82abc	0.11336276
234	0xbe292aa4	-0.16520172
235	0x3dcb9ef5	0.09942428
236	0x3dfa66de	0.122266516
237	0xbe0cc126	-0.13745555
238	0xbd8a0766	-0.067396924
239	0xbe13344c	-0.14375418
240	0xbe02c325	-0.12769754
241	0xbd24bceb	-0.04021923
242	0x3cd1d55c	0.025614433
243	0xbd667ea8	-0.056273133
244	0xbd8b2273	-0.0679368
245	0xbcaa48e9	-0.02078672
246	0x3dce0587	0.10059648
247	0x3df4e577	0.119578294
248	0x3d2f22ec	0.042757913
249	0xbd98c4d3	-0.07459416
250	0xbdd2f0ce	-0.10299836
251	0xbd8d2b07	-0.068929724
252	0x3d6d634d	0.05795603
253	0x3e19c043	0.15014748
254	0xbdf7231d	-0.12067244
255	0x3e1cb4d0	0.1530335

encoder.0.attention.queries.bias f4 [32]
0	0x3db660e0	0.08905196
1	0x3db80652	0.089855805
2	0xbda448a2	-0.08021666
3	0xbda065d7	-0.078319244
4	0x3dab4b63	0.08363988
5	0xbda9c594	-0.08289638
6	0x3dbbdf48	0.09173447
7	0xbdaec5b6	-0.08533804
8	0xbdb668c7	-0.089067034
9	0xbdb54153	-0.0885035
10	0x3d9eca8a	0.07753475
11	0xbdaf7e75	-0.08569042
12	0xbdad7ab2	-0.08470668
13	0x3dafd2c1	0.0858512
14	0xbdbcc7c7	-0.09217792
15	0x3db55ba0	0.08855367
16	0x3dfb1bf7	0.12261193
17	0x3dfe4aed	0.12416635
18	0x3e007e1a	0.12548104
19	0x3dfc2e95	0.12313572
20	0x3e02a329	0.12757553
21	0x3e0508e3	0.12991671
22	0x3df395cb	0.11893805
23	0x3e0a7a97	0.13523327
24	0x3e037100	0.12836075
25	0xbe012ab2	-0.12613943
26	0x3df8737c	0.12131402
27	0xbe052b71	-0.13004853
28	0x3dfb1a0a	0.12260826
29	0xbe094599	-0.13405456
30	0x3e06b91e	0.13156554
31	0xbe05cc1e	-0.13066146

encoder.0.attention.keys.weight f4 [32, 32]
0	0xbe087eb0	-0.13329577
1	0xbe003c06	-0.12522897
2	0xbde4e009	-0.11175544
3	0x3dd868d2	0.10566868
4	0xbdccde01	-0.100032814
5	0x3e10892f	0.14114831
6	0xbe83660c	-0.25663793
7	0xbde6ac16	-0.112632915
8	0x3df66777	0.12031453
9	0xbe118642	-0.14211372
10	0x3ddf10bb	0.10891863
11	0xbd870006	-0.06591801
12	0x3de203c6	0.11035876
13	0x3df1981a	0.11796589
14	0x3dfe58fa	0.12419315
15	0x3d89333d	0.06699226
16	0x3e22c420	0.15895128
17	0xbd853d07	-0.06505781
18	0xbe098ac7	-0.13431846
19	0xbe3ddafd	-0.18540569
20	0x3e11337a	0.14179793
21	0xbe012eb1	-0.12615468
22	0xbdc198c6	-0.09452967
23	0xbde4d19e	-0.11172794
24	0xbdf64c37	-0.120262556
25	0x3dabf719	0.083967395
26	0x3e236f39	0.15960397
27	0xbe020cf6	-0.12700257
28	0xbd43d5d7	-0.047811355
29	0xbe03d00d	-0.12872334
30	0x3e178c1f	0.14799546
31	0xbe1bca61	-0.1521392
32	0xbe1cf7ea	-0.15328947
33	0xbdac8a38	-0.08424801
34	0xbd97b78c	-0.07408056
35	0x3da2cbf7	0.079490595
36	0xbdf47cf3	-0.11937895
37	0x3e121f2c	0.14269704
38	0xbe849241	-0.25892833
39	0xbe0b9d0d	-0.13634129
40	0x3d8e7e33	0.06957664
41	0xbe28501e	-0.16436812
42	0x3e1126e5	0.14174993
43	0xbda7846a	-0.08179553
44	0x3d4abc04	0.049495712
45	0x3e07c2ad	0.13257857
46	0x3e12ef18	0.1434902
47	0x3d4d03cc	0.05005245
48	0x3dd46ba7	0.103720956
49	0xbd541255	-0.051775295
50	0xbe070a94	-0.13187629
51	0xbe28f94f	-0.16501354
52	0x3e1ccc3d	0.15312286
53	0xbe004072	-0.12524584
54	0xbdc406ad	-0.09571586
55	0xbde2ea1e	-0.110798106
56	0xbe14d1b6	-0.14533123
57	0x3da4e958	0.08052319
58	0x3e1d4fb8	0.15362442
59	0xbdea250f	-0.114328496
60	0xbd59e7fc	-0.053199753
61	0xbe41afd6	-0.18914732
62	0x3e104983	0.14090542
63	0xbdff9da3	-0.12481239
64	0x3dff4267	0.12463837
65	0x3dbe6c2e	0.092979774
66	0x3dc721e7	0.09723263
67	0xbdc6e180	-0.097109795
68	0x3df75a9b	0.120778285
69	0xbdf886db	-0.12135097
70	0x3e585165	0.211248
71	0x3def4a86	0.11684136
72	0xbdc9ec04	-0.098594695
73	0x3e0eacfd	0.13933177
74	0xbdda54a2	-0.10660674
75	0x3d84bbd8	0.06481141
76	0xbd630758	-0.055426925
77	0xbdc012ec	-0.09378609
78	0xbdc0091b	-0.09376737
79	0xbdb9e145	-0.0907617
80	0xbe018827	-0.12649594
81	0x3d8a6c50	0.0675894
82	0x3d948b14	0.072530895
83	0x3e2267a6	0.15859851
84	0xbdf8cd0a	-0.12148483
85	0x3e08cd3f	0.13359545
86	0x3de6afc9	0.11263997
87	0x3dcfdc32	0.10149421
88	0x3db1085a	0.08644171
89	0xbd93174b	-0.07182177
90	0xbdef6b82	-0.11690427
91	0x3dbdfc30	0.092766166
92	0x3d19ee09	0.037580524
93	0x3dfdf8df	0.12400984
94	0xbdc5fc7a	-0.09667297
95	0x3e08c8c4	0.13357836
96	0x3e1226d2	0.14272621
97	0x3e2690b4	0.16266137
98	0x3d96a9af	0.07356583
99	0xbd782f78	-0.060592145
100	0x3d752327	0.059847977
101	0xbe1f95a5	-0.15584429
102	0x3e67b060	0.22625875
103	0x3e0b0e86	0.13579759
104	0xbd985e5e	-0.07439874
105	0x3e06835d	0.13136049
106	0xbdcd5489	-0.100258894
107	0x3d5c2264	0.053743735
108	0xbd59a86c	-0.053139135
109	0xbdf98b8b	-0.12184819
110	0xbdfe2d6c	-0.12411007
111	0xbd569021	-0.052383546
112	0xbde03a32	-0.109486
113	0x3da12b7f	0.07869624
114	0x3dd50904	0.1040211
115	0x3e2810a5	0.164126
116	0xbdc04a23	-0.093891405
117	0x3e0ed1d2	0.13947228
118	0x3d98c190	0.07458794
119	0x3db01d61	0.085993536
120	0x3e252f6f	0.16131376
121	0xbd80921e	-0.0627787
122	0xbe0e3065	-0.13885649
123	0x3de0a7cd	0.109695055
124	0x3dcfa0f2	0.1013812
125	0x3dfe228c	0.12408933
126	0xbe01adc8	-0.12663949
127	0x3dfbd908	0.12297255
128	0xbe12a6b3	-0.14321403
129	0xbda2b199	-0.0794403
130	0xbdf1e0d4	-0.11810461
131	0x3d9dbcf3	0.07702055
132	0xbdbce09f	-0.092225306
133	0x3e072bd0	0.13200307
134	0xbe66779d	-0.22506566
135	0xbdf347dc	-0.118789405
136	0x3dd091c6	0.10184054
137	0xbe0f600d	-0.14001484
138	0x3d77aa7d	0.060465325
139	0xbd9f6a6a	-0.07783969
140	0x3dd9c654	0.10633531
141	0x3e215d16	0.15758166
142	0x3db8ef3a	0.09030004
143	0x3d761548	0.06007889
144	0x3dc112a8	0.094273865
145	0xbd7ef9cc	-0.062249944
146	0xbdb30629	-0.08741409
147	0xbe22d8ab	-0.15902965
148	0x3e0884a1	0.13331844
149	0xbdf2caa1	-0.11855055
150	0xbdaf0ecb	-0.085477434
151	0xbde321e7	-0.11090451
152	0xbe11700c	-0.14202899
153	0x3d8255d4	0.06364027
154	0x3de6a026	0.11261015
155	0xbe0e6d93	-0.13908987
156	0xbd809606	-0.06278615
157	0xbde8e0c0	-0.11370993
158	0x3dcc67e6	0.099807546
159	0xbe386766	-0.18008193
160	0x3e1a0328	0.15040267
161	0x3e0c4d35	0.13701327
162	0x3df7a2a4	0.12091568
163	0xbd934b0d	-0.07192049
164	0x3e065c01	0.13121034
165	0xbe11d11c	-0.14239925
166	0x3e47902a	0.19488588
167	0x3df3d395	0.119055904
168	0xbe038244	-0.12842661
169	0x3e1296b3	0.143153
170	0xbde48ea9	-0.11160023
171	0x3d9b8f24	0.07595661
172	0xbd9049af	-0.07045304
173	0xbdd46f12	-0.103727475
174	0xbdfa73f4	-0.122291476
175	0xbdcea6a5	-0.10090379
176	0xbdf2d67e	-0.118573174
177	0x3c2ec01f	0.010665922
178	0x3dc1e323	0.09467151
179	0x3e3b66c9	0.18300928
180	0xbde0e6ce	-0.109815225
181	0x3e153538	0.14571083
182	0x3e052e5f	0.1300597
183	0x3e108369	0.14112629
184	0x3de42f18	0.11141795
185	0xbd91107c	-0.07083222
186	0xbdf38252	-0.11890091
187	0x3dee76bc	0.116437405
188	0x3ce70d73	0.028204655
189	0x3dd5c86f	0.1043862
190	0xbdd6487f	-0.10463046
191	0x3dec28ec	0.11531243
192	0xbe02b8ca	-0.12765804
193	0xbe2e8117	-0.17041431
194	0xbe02ab4f	-0.12760662
195	0x3d744b88	0.059642345
196	0xbe07dc6b	-0.13267677
197	0x3deeeea7	0.11666613
198	0xbe671309	-0.22565855
199	0xbe130098	-0.14355695
200	0x3dda8e0e	0.10671626
201	0xbe001a9a	-0.12510148
202	0x3db4eb93	0.08833995
203	0xbd851fcb	-0.06500205
204	0x3db96779	0.09052939
205	0x3e01702f	0.12640451
206	0x3e539940	0.20663929
207	0x3d0cc38c	0.034366176
208	0x3ddb1e79	0.106991716
209	0xbd74f064	-0.059799567
210	0xbd86b0e6	-0.065767094
211	0xbe3fd538	-0.1873368
212	0x3dfcae2a	0.12337907
213	0xbe039405	-0.12849434
214	0xbdd8e906	-0.10591321
215	0xbe037e44	-0.12841135
216	0xbe2563ce	-0.16151354
217	0x3c92d185	0.017922172
218	0x3da43baf	0.08019196
219	0xbe0c200e	-0.13684103
220	0xbd691bb6	-0.056911193
221	0xbdf1c462	-0.11805035
222	0x3dca605b	0.098816596
223	0xbdfcd076	-0.12344448
224	0x3dd88cfa	0.10573764
225	0x3e12ef3f	0.14349078
226	0x3e007bc1	0.12547208
227	0xbdd7025f	-0.10498499
228	0x3ded0d00	0.11574745
229	0xbe2c3cc7	-0.1682006
230	0x3e5cecf6	0.21574768
231	0x3de1e5e2	0.11030175
232	0xbd8a7d9a	-0.06762238
233	0x3de9fbde	0.11424993
234	0xbde875f0	-0.1135062
235	0x3db033cf	0.08603632
236	0xbd5fa69f	-0.05460226
237	0xbe05db6d	-0.13071986
238	0xbe0fbb73	-0.1403635
239	0xbdc4386f	-0.09581076
240	0xbd966544	-0.07343534
241	0x3d9751e1	0.07388664
242	0x3dfbf37f	0.123023026
243	0x3e2c5d6a	0.1683251
244	0xbdf84e21	-0.12124277
245	0x3df5c685	0.12000755
246	0x3dfa60be	0.12225483
247	0x3e132844	0.14370829
248	0x3e1ceeba	0.15325442
249	0xbdb991d9	-0.09061021
250	0xbe036ce3	-0.12834506
251	0x3d906f47	0.070524745
252	0x3d945a96	0.072438404
253	0x3de1cef0	0.11025798
254	0xbdae45ed	-0.08509431
255	0x3e20ea06	0.15714273

encoder.0.attention.keys.bias f4 [32]
0	0xbae0f3cb	-0.00171625
1	0xbae4a524	-0.0017444235
2	0x3b60ffbd	0.003433212
3	0x3af034b2	0.0018326251
4	0xb9c3ffca	-0.00037383876
5	0x3ac9abc7	0.0015386277
6	0xba94075a	-0.0011293695
7	0xbad3adc4	-0.0016149809
8	0x3af11f4d	0.0018396169
9	0xbad32446	-0.0016108833
10	0xbb314120	-0.0027046874
11	0x3a6f1cda	0.00091214257
12	0x3b004a47	0.0019575523
13	0xbb134892	-0.0022473675
14	0x3aa0320e	0.0012221949
15	0xba174b23	-0.0005771389
16	0xb96ee95c	-0.00022784382
17	0xb9e6723b	-0.00043954127
18	0xba36102e	-0.000694516
19	0xb9cdc864	-0.0003924995
20	0xb93ecb04	-0.00018195441
21	0xb9fa331f	-0.00047721804
22	0xba3aedb5	-0.0007130758
23	0xba09fd9a	-0.0005263925
24	0xba734711	-0.0009280304
25	0x3940b902	0.00018379468
26	0xba575e6f	-0.0008215671
27	0x373cbe1b	1.1249936e-05
28	0xb91ab396	-0.00014753485
29	0x38a0109c	7.632488e-05
30	0xba8e270d	-0.0010845378
31	0x3a929b39	0.0011185176

encoder.0.attention.values.weight f4 [32, 32]
0	0xbd167043	-0.036728155
1	0xbcd51f06	-0.02601577
2	0x3c0ac113	0.008468884
3	0x3b31032c	0.0027009947
4	0xbc9cbe89	-0.019133823
5	0x3dcb45dc	0.09925434
6	0xbd4ebec8	-0.050474912
7	0xbde06668	-0.109570324
8	0x3d346caf	0.04404896
9	0xbd3972d8	-0.04527554
10	0x3cb63108	0.022240177
11	0xbb2db401	-0.0026504996
12	0xbbf8dcc7	-0.007594678
13	0xbcfa65b2	-0.03056607
14	0xba8d8cff	-0.0010799466
15	0x3d34eb66	0.044169806
16	0x3d227500	0.03966236
17	0xbcd72233	-0.026261425
18	0xbd356529	-0.044285927
19	0xbc89a069	-0.016800122
20	0x3dce12ad	0.10062156
21	0xba113ae5	-0.0005540087
22	0x3cb51bf5	0.022108058
23	0xbd89d8f5	-0.067308344
24	0xbd41a508	-0.047276527
25	0x3cb8264f	0.022479204
26	0x3cb11a9b	0.021619132
27	0xbb52d0a2	-0.0032167812
28	0x3dae4314	0.08508888
29	0xbc1c63ad	-0.009545249
30	0x3d534275	0.05157705
31	0xbd6c34b0	-0.057667434
32	0xbca6e358	-0.020372078
33	0x3d897490	0.06711686
34	0xba541610	-0.0008090446
35	0x3d1733b0	0.036914527
36	0xbba16d11	-0.004926332
37	0xbcf54457	-0.029939814
38	0xbd7fb7ae	-0.06243103
39	0xbd36c635	-0.04462262
40	0xbb3556f6	-0.002767024
41	0xbd0ce13e	-0.034394495
42	0xbcb7a4a1	-0.022417368
43	0xb9a446a1	-0.0003133314
44	0x3c362221	0.011116535
45	0x3cc894f1	0.024485083
46	0x3d036650	0.032079995
47	0xbc827d43	-0.01592887
48	0xbc3ad442	-0.011403145
49	0xbbec0453	-0.007202664
50	0x3bd75ce5	0.006572353
51	0xbd3d596a	-0.04622785
52	0x3d88eeed	0.066861965
53	0xbd08e27b	-0.033419114
54	0x3cc956ed	0.024577582
55	0xbc05979c	-0.008153822
56	0x3b5d59cb	0.0033775445
57	0x3d1a61ed	0.037691046
58	0x3ace8865	0.0015757201
59	0xbcfe5c90	-0.031049997
60	0x3d5e2088	0.054230243
61	0xbc4d6937	-0.012537292
62	0x3d0b28e0	0.03397453
63	0xbd0aa037	-0.0338442
64	0xbc007dd4	-0.0078425
65	0x3d3df20d	0.046373416
66	0xbd310953	-0.043221783
67	0xbc0ed2c7	-0.008717245
68	0xbd34d934	-0.044152454
69	0xbb203323	-0.0024444542
70	0xbcbe6085	-0.023239383
71	0x3cf87a1b	0.030331662
72	0xbaa0a51d	-0.0012256239
73	0xbd2a50c2	-0.041580923
74	0xbcb7a093	-0.022415435
75	0xbd2ac8d1	-0.04169542
76	0x3ccacd2f	0.024756042
77	0x3bfaf5f0	0.0076587126
78	0x3d826b07	0.0636807
79	0xbcb2bec7	-0.021819485
80	0xbd2e5434	-0.04256077
81	0xbd5567f6	-0.052101098
82	0xbbb14e30	-0.005410932
83	0xbc6074d5	-0.01369973
84	0x3d2298c9	0.03969649
85	0xbc9a82ce	-0.0188612
86	0xbd9ec45d	-0.07752297
87	0xbcbc008b	-0.022949478
88	0xbb653fb7	-0.0034980604
89	0x3d0aea4c	0.03391485
90	0x3d3fba52	0.04680855
91	0xbd81b223	-0.06332805
92	0xbc807379	-0.015680062
93	0xbd00361d	-0.031301606
94	0x3d2a5f10	0.041594565
95	0xbab15813	-0.0013530276
96	0x3c48eb9a	0.012263203
97	0x3d3bbf8e	0.045836978
98	0xbc622cd3	-0.013804632
99	0xbb0f61af	-0.0021878292
100	0x3cbfc18f	0.023407726
101	0xbcc14b55	-0.023595491
102	0xbd4ab037	-0.049484458
103	0xbc21f774	-0.009885658
104	0xbc9042be	-0.01760995
105	0xbd790181	-0.06079245
106	0xbccd9ec4	-0.02510012
107	0x3c65a21c	0.014015701
108	0x3c443e74	0.011977781
109	0x3cb3bb9a	0.021940041
110	0x3c9ccd7b	0.01914095
111	0x3d062357	0.032748546
112	0xbcac3dfb	-0.021025648
113	0xbd67961e	-0.056539647
114	0x3ad2b10c	0.0016074493
115	0xbcc6e258	-0.024277851
116	0x3c0adf69	0.008476117
117	0xbd078df7	-0.033094373
118	0xbc09eb04	-0.0084178485
119	0xbca957f6	-0.020671826
120	0xbb374d49	-0.002796965
121	0xbaf91031	-0.0019002018
122	0x3c0a573c	0.00844365
123	0xbcd11aab	-0.025525412
124	0x3d24706e	0.040146284
125	0x3d48e8a2	0.04904998
126	0x3b99292d	0.004674098
127	0xba40c6a7	-0.000735382
128	0xbd450f2d	-0.048110176
129	0x3ab06c74	0.0013460056
130	0x3b04fa56	0.0020290813
131	0x3d856ffd	0.06515501
132	0xbd8474a5	-0.06467561
133	0x3bcda4c4	0.006275745
134	0xbd50d267	-0.050981905
135	0x3c3c5c3a	0.011496598
136	0xbc46c6ac	-0.012132328
137	0xbd3b31df	-0.045701858
138	0x3d84c2d0	0.0648247
139	0xbd87b1a3	-0.066256784
140	0x3d4280f3	0.047486257
141	0x3d22c8ca	0.03974227
142	0x3cb1a9d0	0.021687418
143	0x3da640ff	0.08117866
144	0x3d67c1c4	0.056581274
145	0x3d5b2dc2	0.053510435
146	0xbc5093fa	-0.012730593
147	0xbda2553f	-0.07926416
148	0x3cea805f	0.028625665
149	0xbcd54dcf	-0.026038079
150	0xbcf85806	-0.03031541
151	0xbd3940a7	-0.045227673
152	0x3bd8ba38	0.006613996
153	0x3db1dca5	0.08684663
154	0xbda8a5d8	-0.08234757
155	0xbd102f80	-0.03520155
156	0x3db03233	0.08603325
157	0xbc0df5b4	-0.008664537
158	0x3d6a9778	0.057273358
159	0xbd83ef3a	-0.06442113
160	0xbbc2195f	-0.0059234346
161	0xbd4d0c25	-0.05006041
162	0xbcde1621	-0.027110161
163	0xbae4d6b3	-0.0017459005
164	0x3cd76df2	0.026297543
165	0xbd6d544f	-0.05794173
166	0x3d90ca52	0.070698395
167	0x3d4b01a3	0.049562108
168	0xbbea7462	-0.007154987
169	0x3d327667	0.04356995
170	0x3c3e8a0c	0.011629593
171	0x3c04c02d	0.008102459
172	0xbcc03322	-0.023461882
173	0xbd1a24ba	-0.03763268
174	0xbc6dacbf	-0.014506518
175	0x3b7572e8	0.0037452523
176	0xbcbac4cb	-0.022798916
177	0x3d27bb51	0.040950123
178	0xbc6f3343	-0.014599624
179	0x3ccda9fd	0.02510547
180	0xbd88c3c7	-0.066779666
181	0x3cc16975	0.023609856
182	0xbb90bcec	-0.0044170525
183	0x3d1163af	0.035495456
184	0xbca8c78f	-0.02060297
185	0xbc3b0c22	-0.011416467
186	0xbd047557	-0.032338466
187	0xbc5f8ddb	-0.013644661
188	0xbce4c7d4	-0.027927317
189	0x3c1051ac	0.008808535
190	0xbc801844	-0.01563657
191	0x3b8b8733	0.0042580604
192	0x38a5787d	7.890256e-05
193	0xbd39ed4f	-0.04539233
194	0xbd82bce8	-0.06383687
195	0xbd1e18ee	-0.038597994
196	0xbce95934	-0.028484918
197	0x3c68c8f4	0.014208067
198	0x3be235d0	0.0069033876
199	0xbb0dcb20	-0.0021635965
200	0x3d0496fa	0.032370545
201	0x3ce44dcf	0.027869133
202	0x3be90942	0.0071116993
203	0x3cddfb05	0.027097235
204	0xbd5f5520	-0.05452454
205	0xbd07afad	-0.03312652
206	0xbd076486	-0.03305485
207	0xbd242b59	-0.040080402
208	0x3c201335	0.009770204
209	0xbc6d2a21	-0.014475376
210	0xbc84aade	-0.016194757
211	0x3d4e0316	0.05029591
212	0x3d00985d	0.031395305
213	0x3cf26956	0.029591244
214	0xbbe41dc9	-0.0069615585
215	0xb99bf005	-0.00029742732
216	0xbd02c3fa	-0.03192518
217	0xbd6a109e	-0.057144754
218	0x3d52de1b	0.051481348
219	0x3d06591e	0.032799833
220	0xbc9928df	-0.018696247
221	0xbd577926	-0.05260577
222	0xbcaae64f	-0.020861773
223	0x3b7827ae	0.0037865448
224	0xbb8153bb	-0.003946749
225	0x3c17a51a	0.009255672
226	0xbd485d6b	-0.048917215
227	0xbd6d43b5	-0.0579259
228	0x3c9459ad	0.018109167
229	0x3d4ce34a	0.050021447
230	0xbd896803	-0.06709292
231	0xbdd9b3da	-0.10630007
232	0x3da991d3	0.08279767
233	0x3c7fd858	0.015615545
234	0xbd487498	-0.048939317
235	0x3d916e7a	0.0710115
236	0xbdb5a9a5	-0.08870248
237	0xbd72146a	-0.0591015
238	0x3b9fc310	0.004875548
239	0xbd0847e7	-0.033271696
240	0xbcfea6e9	-0.031085448
241	0xbcc825ea	-0.024432141
242	0xbc9a76ce	-0.018855479
243	0x3d84efd1	0.06491054
244	0x3d7b62fb	0.061373692
245	0x3d3b6fb0	0.04576081
246	0x3d2c4adf	0.04206359
247	0x3bd19553	0.0063959747
248	0xbcf6721e	-0.030083712
249	0xbd7d1221	-0.061784867
250	0x3db51867	0.08842545
251	0x3d12f277	0.035875764
252	0x3d9135f4	0.07090369
253	0x3cb27004	0.021781929
254	0xbc8af394	-0.01696185
255	0x3d724693	0.059149336

encoder.0.attention.values.bias f4 [32]
0	0x3c957217	0.018242879
1	0xbc54af1d	-0.012981203
2	0xbd162beb	-0.036662977
3	0xbcede3d4	-0.029039301
4	0xbd47705f	-0.04869115
5	0xbb9ea6b2	-0.004841649
6	0x3cb51841	0.022106292
7	0x3d0ddd52	0.034634896
8	0x3bd2801a	0.0064239623
9	0xbc8d7c1c	-0.017271094
10	0x3cba7ad6	0.02276365
11	0xbc956b5b	-0.018239668
12	0xbd81c3ff	-0.063362114
13	0x3d5e0256	0.054201446
14	0x3c4d5442	0.012532296
15	0x3ce500f9	0.027954565
16	0xbc43c5f3	-0.01194905
17	0x3cb118da	0.021618295
18	0x3bef6927	0.0073062363
19	0xbb39875d	-0.0028309443
20	0xbc0d168b	-0.008611332
21	0xbcbf13c7	-0.02332486
22	0xbc149fb9	-0.009071284
23	0xbc7de5a4	-0.015496645
24	0x3d028ae7	0.03187075
25	0x3cc87567	0.024470044
26	0x3bdaf4ff	0.006682038
27	0x3c9b164f	0.018931536
28	0x3bf691be	0.007524698
29	0xbca3edc8	-0.020010844
30	0x3c91a1d6	0.017777365
31	0x3b0e1b89	0.0021683893

encoder.0.attention.fc.weight f4 [32, 32]
0	0xbc51022c	-0.0127568655
1	0xba8f2cbf	-0.001092337
2	0xbb9615f6	-0.0045802547
3	0x3bab622e	0.00523021
4	0xbd53b3f0	-0.051685274
5	0x3c7a42cf	0.0152747175
6	0x3c2b6e10	0.010463253
7	0x3d10e02b	0.035370033
8	0xbd04e03b	-0.032440405
9	0xbc9d2876	-0.019184332
10	0x3cc643ca	0.024202246
11	0x3bc38564	0.005966829
12	0xbc5f3945	-0.013624494
13	0x3d0f7cbe	0.035031073
14	0x3c35ae53	0.011088925
15	0x3d3f21e2	0.046663173
16	0xbc4d5f5d	-0.012534943
17	0x3c1213be	0.00891584
18	0x3a180420	0.00057989545
19	0xbbe6cb8a	-0.0070433067
20	0xbc909a38	-0.017651662
21	0xbb8fda39	-0.004390028
22	0xbb8937f4	-0.0041875783
23	0xbaa93106	-0.0012908287
24	0x3d00189b	0.031273466
25	0x3c6c3b0a	0.014418373
26	0xbbab5f8e	-0.005229897
27	0x3b7a83d4	0.0038225548
28	0xbc81201b	-0.01576238
29	0xbb7d4672	-0.0038646725
30	0xbd3fdebb	-0.04684327
31	0xbc744a60	-0.0149103105
32	0xbbf2a150	-0.007404484
33	0xba21c5fc	-0.00061711646
34	0xbcc9e0d9	-0.024643349
35	0x3c5d00f7	0.013489
36	0x3cccf13e	0.025017377
37	0xbc1bd101	-0.00951028
38	0x3cf3ab2e	0.02974471
39	0xbcd315a6	-0.025767159
40	0x3c4d59f8	0.012533657
41	0x3d2a04c1	0.04150844
42	0x3cae59c5	0.02128304
43	0x3bfaae5e	0.0076501807
44	0x3c3531a4	0.0110591985
45	0x3bd3a37d	0.0064586983
46	0x3cb985e2	0.022646848
47	0xbbf342a5	-0.007423716
48	0x3ab62ed0	0.0013899449
49	0xbd0a7580	-0.033803463
50	0x3bc6c37b	0.0060657836
51	0xbcd50870	-0.026005
52	0x3cc9e7b4	0.024646617
53	0x3c44d845	0.012014453
54	0xbc0008c7	-0.007814593
55	0xbc783bf3	-0.015151012
56	0xbcd4e509	-0.025988119
57	0xbcb4dabe	-0.02207696
58	0xbcc64cca	-0.024206538
59	0x3cd20a69	0.02563973
60	0xbc834d87	-0.016028179
61	0xbc05b1cd	-0.008160067
62	0xbc6b9440	-0.014378607
63	0xbbe2c665	-0.006920623
64	0x3cc8dec6	0.02452029
65	0x3cf81f12	0.030288253
66	0x3cbea58b	0.023272296
67	0xbc827966	-0.015927028
68	0xbbc2f5ee	-0.0059497273
69	0xbd117346	-0.035510324
70	0xbcc136d4	-0.023585714
71	0x3d6957fc	0.056968674
72	0x3cb6b72f	0.022304146
73	0x3be9cf5d	0.0071353153
74	0x3b912456	0.0044293804
75	0xbc43124b	-0.011906217
76	0xbd0d22c0	-0.03445697
77	0x3c9feea6	0.019522976
78	0xbc0d6690	-0.00863041
79	0x3c2fbd6e	0.010726316
80	0x3be596e5	0.0070065134
81	0x3ba3491f	0.004983082
82	0xbd1a4bc6	-0.03766992
83	0x3c39e18f	0.011345281
84	0xbd0e5002	-0.03474427
85	0xbc104a09	-0.008806714
86	0xbcd644a4	-0.026155777
87	0xbc1d5286	-0.009602195
88	0xbb81d1af	-0.003961764
89	0xbc9ad7f0	-0.018901795
90	0x3ce00d7d	0.027350182
91	0xbb19127e	-0.002335697
92	0x3cb6604f	0.02226272
93	0xbcf29a4b	-0.029614588
94	0xbc8d8380	-0.017274618
95	0xbcae18f9	-0.021252142
96	0x3cc36c55	0.023855368
97	0xbbd19c00	-0.0063967705
98	0xbb6fee9e	-0.0036610733
99	0x3cbc7678	0.023005709
100	0x3c9f22b7	0.019425733
101	0xbb500a73	-0.003174451
102	0x3c450704	0.012025598
103	0x3c5aa421	0.013344795
104	0xbcb6d0c5	-0.022316346
105	0xbbaf5056	-0.005350153
106	0xbc93de12	-0.018050227
107	0xbc0f6ed5	-0.008754452
108	0xbc647265	-0.013943289
109	0x3ca01bcd	0.019544506
110	0xbcb17ae5	-0.021665046
111	0xbc75d486	-0.015004283
112	0xbc3f4eb0	-0.011676475
113	0x3cbac210	0.022797614
114	0xbc9d4006	-0.019195568
115	0x3ce181fe	0.027527805
116	0xbd079297	-0.033098783
117	0x3d2e1465	0.04249992
118	0xbb0c4714	-0.002140467
119	0xbcc4349e	-0.023950871
120	0x3bc2b2a2	0.005941705
121	0x3af928e5	0.001900938
122	0xbc95d432	-0.01828966
123	0x3ce986fd	0.02850675
124	0xbc9b8a39	-0.018986808
125	0xbba49852	-0.005023041
126	0xbcb815f4	-0.022471406
127	0xbc818acb	-0.015813252
128	0xba5a4c6a	-0.00083274266
129	0x3cd15d0e	0.025557067
130	0x3ba1ba49	0.004935537
131	0xbbee6429	-0.0072751236
132	0xbd1397ff	-0.036033627
133	0x3ce00260	0.027344882
134	0x3ccc0cd4	0.02490846
135	0x3b6917dc	0.00355672
136	0x3b9bb738	0.004752066
137	0xbad6146f	-0.0016332994
138	0x3d7436f9	0.05962274
139	0x3cff09d3	0.031132614
140	0xbc2f6a81	-0.010706545
141	0x3bb5f906	0.0055533675
142	0x3c521522	0.012822421
143	0x3d334c79	0.043774102
144	0x3c99e0a5	0.018783877
145	0x3c725f0c	0.014793169
146	0x3b67515b	0.0035296294
147	0x3c022520	0.007943422
148	0x3c7799c7	0.015112347
149	0xb93e9f4a	-0.00018179152
150	0xbcf45ec1	-0.029830338
151	0x3c8d9fd0	0.017288119
152	0x3c6db1d2	0.014507728
153	0x3c99ffa9	0.018798666
154	0x3ceec7ce	0.029148009
155	0x3c0c9176	0.008579602
156	0x3aa7b859	0.0012796029
157	0xbcbc4921	-0.02298409
158	0xbcce435b	-0.025178602
159	0xbbeb4e9c	-0.007181002
160	0xbbf6cff0	-0.0075321123
161	0x3ba78602	0.0051124105
162	0x3cb29241	0.021798255
163	0x3cab5517	0.020914597
164	0x3c09b6ab	0.008405368
165	0x3c97e37f	0.018541096
166	0xbc9c5052	-0.019081268
167	0x3c588538	0.013215356
168	0x3bf77894	0.007552216
169	0x3c8ce3b7	0.017198427
170	0x3cd0c6b0	0.025485367
171	0x3a5b8d4b	0.00083752413
172	0xbcaa67b4	-0.020801403
173	0xbd01559f	-0.031575795
174	0xbcb1199e	-0.02161866
175	0xbcc013f7	-0.02344702
176	0xbc9d7b89	-0.019223945
177	0x3bb267d3	0.0054445057
178	0x3cb91832	0.022594545
179	0xbcccdbf2	-0.025007222
180	0xbc33016d	-0.010925633
181	0xbb925444	-0.0044656117
182	0x3c71c783	0.01475704
183	0x3c94c9d2	0.018162642
184	0x3b9f5a8c	0.004863089
185	0xbc068a9b	-0.008211757
186	0xbbca3b70	-0.0061716363
187	0x3ae7bd2f	0.0017680282
188	0x3ca92d86	0.02065159
189	0xbc88b92d	-0.016689861
190	0xbc4dde89	-0.012565264
191	0x3c00f849	0.007871696
192	0xba75d5be	-0.00093778584
193	0xbc1518fd	-0.009100196
194	0xbd10f28f	-0.035387572
195	0xbb0be323	-0.00213451
196	0x3bfcfd6a	0.007720639
197	0x3d109edc	0.03530775
198	0x3d230317	0.03979787
199	0xbcd554c1	-0.02604139
200	0xbb7dbb5b	-0.003871641
201	0xbc77791c	-0.015104558
202	0x3b00fd19	0.0019682108
203	0xbc036706	-0.008020168
204	0x3c15cd93	0.009143251
205	0xbca10144	-0.019653924
206	0x3c949394	0.018136777
207	0x3aa8bfd2	0.001287455
208	0x3be3d99b	0.006953431
209	0x3d310bcb	0.043224137
210	0x3a727ff4	0.0009250634
211	0x3c232b7b	0.009959097
212	0xbc844c62	-0.016149703
213	0x3c3699c6	0.011145061
214	0x3ca5a7d7	0.020221634
215	0xbcb03bdc	-0.021512918
216	0xbc6f57a5	-0.014608298
217	0xbba879c9	-0.005141471
218	0xbc09d1fb	-0.00841188
219	0x3c1f331e	0.009716777
220	0x3c108acf	0.008822157
221	0xbc40bc18	-0.011763595
222	0xbcb26f22	-0.021781508
223	0x3cf72de5	0.030173251
224	0xbc8f8dc3	-0.017523652
225	0xbb1cb4d6	-0.0023911498
226	0xbd20556c	-0.039143965
227	0x3c93d72f	0.018046943
228	0xbd047056	-0.032333694
229	0x3c4a0faf	0.012332841
230	0x3bccaa58	0.0062458925
231	0xbd00a0e4	-0.031403437
232	0x3ab27ce7	0.0013617546
233	0x3bd456a5	0.0064800554
234	0x3d2618b6	0.04055091
235	0xbc0983cf	-0.008393242
236	0x3cb8286d	0.022480214
237	0x3d0fa68f	0.035070952
238	0xbd30c633	-0.043157768
239	0x39ebf5e3	0.00045005893
240	0x3ba1f1cb	0.004942154
241	0x3c8b8ef2	0.017035935
242	0xbcbdef65	-0.023185441
243	0xbc2d4444	-0.010575358
244	0x3c1f7d5e	0.00973448
245	0x3b8facbb	0.0043846047
246	0xbd11575e	-0.03548371
247	0x3b687e33	0.0035475611
248	0xbc004edd	-0.0078313025
249	0xbd091a7c	-0.033472523
250	0x3d05ea29	0.032694016
251	0xbcf707af	-0.030155031
252	0x3c4199c4	0.011816446
253	0xbac0bb60	-0.001470428
254	0xbc052cf0	-0.00812839
255	0x3b8c14ab	0.0042749248

encoder.0.attention.fc.bias f4 [32]
0	0x00000000	0.0
1	0x00000000	0.0
2	0x00000000	0.0
3	0x00000000	0.0
4	0x00000000	0.0
5	0x00000000	0.0
6	0x00000000	0.0
7	0x00000000	0.0
8	0x00000000	0.0
9	0x00000000	0.0
10	0x00000000	0.0
11	0x00000000	0.0
12	0x00000000	0.0
13	0x00000000	0.0
14	0x00000000	0.0
15	0x00000000	0.0
16	0x00000000	0.0
17	0x00000000	0.0
18	0x00000000	0.0
19	0x00000000	0.0
20	0x00000000	0.0
21	0x00000000	0.0
22	0x00000000	0.0
23	0x00000000	0.0
24	0x00000000	0.0
25	0x00000000	0.0
26	0x00000000	0.0
27	0x00000000	0.0
28	0x00000000	0.0
29	0x00000000	0.0
30	0x00000000	0.0
31	0x00000000	0.0
