model/mnist/Final_lr0.001_ed64_nl6_nh4_fm2_ps4/Vit.pt (torch, 869606 bytes, 106 tensors)

embedding.cls_token f4 [1, 1, 64]
000000 44 92 ad bd e5 c1 65 bc 33 d2 0c be 26 93 31 3e
       -0.084751636 -0.014023279 -0.1375206 0.17341289
000010 46 42 8f 3e 99 df 62 bd 49 d8 06 bc f8 d8 87 bd
       0.2798025 -0.05538902 -0.008230277 -0.066331804
000020 72 29 a7 3d 4b 05 b4 3c 67 ab e4 3c 16 51 86 bd
       0.08162202 0.02197518 0.027913762 -0.06558435
000030 f8 2c e9 3d 97 ad 42 3d da 42 85 bc 6f 16 f2 bc
       0.1138553 0.04752883 -0.016267229 -0.029551713
000040 78 d8 80 3d 04 90 f1 bc 69 6a 09 3c b2 a8 91 3d
       0.06291288 -0.029487617 0.008387187 0.07112254
000050 53 96 e3 3d 2d c2 50 3d ff ed 25 bc 4e 26 f7 3d
       0.111126564 0.05096643 -0.0101275435 0.12067853
000060 56 56 9a bd ed bf 55 bc 0d 5b 44 bd 11 ed ef 3d
       -0.075359985 -0.013046247 -0.047938395 0.11715139
000070 8a 0d 22 bd 23 89 8f 3c fa 54 2d bc 80 50 a1 bd
       -0.039563693 0.017521447 -0.010579342 -0.07876682
000080 60 e5 15 bd 70 7a 44 bb 50 fa e8 bd af 5c d0 bc
       -0.036595702 -0.0029980205 -0.11375868 -0.02543482
000090 63 16 f1 3c 3c f1 85 3d 4c 12 c2 bc df 06 db bd
       0.02942962 0.065401524 -0.023690365 -0.1069467
0000a0 15 c7 dd bd 32 62 75 bc a1 74 76 bd c6 90 d7 bd
       -0.108289875 -0.014977025 -0.06016982 -0.1052566
0000b0 4d 67 c5 bd 4b 0d db 3d 96 5c 89 3c d6 aa 1a bd
       -0.09638844 0.10695895 0.016767781 -0.037760578
0000c0 91 42 b2 3d 3d 3e 0b 3e 40 7d 8d 3d 80 cc 24 bd
       0.08704103 0.13597961 0.06908655 -0.04023409
0000d0 ba cf 69 bd f2 7f 28 3c 9f 63 19 bd f8 64 c4 3c
       -0.05708287 0.010284411 -0.03744852 0.023973927
0000e0 82 f5 3c bd 27 b8 55 3c 46 26 20 bc 28 fa 00 3e
       -0.046132572 0.013044394 -0.00977475 0.12595427
0000f0 ee 0d 01 bd aa 9f 53 bd 45 01 b1 3c b9 ad 67 bd
       -0.031507425 -0.05166594 0.02160705 -0.05656216

embedding.pos_embedding f4 [1, 50, 64]
000000 3b 92 ad bd e2 c1 65 bc 35 d2 0c be 27 93 31 3e
       -0.08475157 -0.014023276 -0.13752063 0.1734129
000010 45 42 8f 3e 96 df 62 bd 2a d8 06 bc fb d8 87 bd
       0.27980247 -0.05538901 -0.0082302485 -0.066331826
000020 78 29 a7 3d 4d 05 b4 3c 69 ab e4 3c 13 51 86 bd
       0.081622064 0.021975184 0.027913766 -0.065584324
000030 f2 2c e9 3d a5 ad 42 3d dd 42 85 bc 6d 16 f2 bc
       0.11385526 0.04752888 -0.016267234 -0.02955171
000040 7e d8 80 3d ff 8f f1 bc 56 6a 09 3c ac a8 91 3d
       0.062912926 -0.029487608 0.008387169 0.0711225
000050 58 96 e3 3d 29 c2 50 3d 03 ee 25 bc 4b 26 f7 3d
       0.1111266 0.050966416 -0.010127547 0.12067851
000060 52 56 9a bd ec bf 55 bc 03 5b 44 bd 0b ed ef 3d
       -0.075359955 -0.013046246 -0.047938358 0.11715134
000070 8e 0d 22 bd 23 89 8f 3c e7 54 2d bc 7b 50 a1 bd
       -0.039563708 0.017521447 -0.010579324 -0.078766786
000080 68 e5 15 bd 9d 7a 44 bb 53 fa e8 bd a4 5c d0 bc
       -0.036595732 -0.002998031 -0.113758706 -0.0254348
000090 65 16 f1 3c 3d f1 85 3d 4e 12 c2 bc d7 06 db bd
       0.029429624 0.06540153 -0.023690369 -0.10694664
0000a0 1a c7 dd bd 33 62 75 bc 9c 74 76 bd c9 90 d7 bd
       -0.10828991 -0.014977026 -0.0601698 -0.105256625
0000b0 5a 67 c5 bd 4e 0d db 3d 9a 5c 89 3c ce aa 1a bd
       -0.09638853 0.10695897 0.016767789 -0.03776055
0000c0 95 42 b2 3d 40 3e 0b 3e 41 7d 8d 3d 7a cc 24 bd
       0.08704106 0.13597965 0.06908656 -0.040234067
0000d0 c7 cf 69 bd f9 7f 28 3c 96 63 19 bd fd 64 c4 3c
       -0.057082918 0.010284417 -0.03744849 0.023973936
0000e0 85 f5 3c bd 21 b8 55 3c 44 26 20 bc 26 fa 00 3e
       -0.046132583 0.013044388 -0.009774748 0.12595424
0000f0 ea 0d 01 bd b1 9f 53 bd 46 01 b1 3c b8 ad 67 bd
       -0.03150741 -0.051665965 0.021607053 -0.056562155
000100 f4 87 bb 3d 1a b3 81 bd 1c ee a1 3d d6 fd 29 bb
       0.091567904 -0.06332989 0.07906744 -0.0025938652
000110 6f 08 f1 bc b3 50 2d bd 1d bb 75 3d 7b e1 ab 3c
       -0.029422967 -0.04231329 0.0599929 0.02098154
000120 39 ca cd bc 7e cf 83 bc 9a bf d7 bc 8a 51 e0 3c
       -0.025120841 -0.01609015 -0.02633648 0.02738263
000130 16 fb b7 bc e8 d7 d9 3c 51 4e f5 3c 0f 55 ca bd
       -0.022458594 0.02659221 0.02994457 -0.09879505
000140 f9 b5 ec 3d 1b e0 4a bd ab 61 36 3d c1 1b 95 3e
       0.11558146 -0.04953013 0.044526737 0.29122737
000150 b8 6a 31 be 99 7d 9c bd e4 25 4a be e7 5d 9e bd
       -0.17325866 -0.07641143 -0.19741017 -0.07732754
000160 4a 00 cd bd fa e9 2b be de 94 17 bd dd a7 0d 3d
       -0.10009821 -0.16788474 -0.037007205 0.034583915
000170 6f 15 8c bc 7b 68 08 be 86 b1 c6 bd 4c 02 2e 3e
       -0.017100064 -0.13321106 -0.09701829 0.16993064
000180 d8 81 58 bd 1f a1 1c 3d b4 a1 15 3c d4 0d 7d 3c
       -0.052858204 0.038239595 0.009132791 0.015445191
000190 a7 96 84 bd ad 6c 1e bc 91 b3 80 bd 3c 60 74 3d
       -0.06474047 -0.009669465 -0.062842496 0.05966209
0001a0 24 e8 69 bd e7 b9 10 3e b8 4d 8a 3e d6 26 da 3b
       -0.057106152 0.14133416 0.2701242 0.0066574616
0001b0 c9 75 37 3c 75 b8 9c bd b9 dd 85 3d cc be 94 bd
       0.011197516 -0.0765237 0.06536431 -0.07262954
0001c0 30 ea ff bd 91 c8 a8 bd 7f a2 db bd 64 6a 1c 3d
       -0.124958396 -0.0824138 -0.10724353 0.0381874
0001d0 fe a9 15 bd a8 67 62 3e 71 e3 5b bd 1b 5e 9c bd
       -0.03653907 0.22109854 -0.053683702 -0.07635137
0001e0 2c 9c 02 3e 65 17 9c bc 01 d4 e0 3d 95 b7 0a 3e
       0.12754887 -0.019054124 0.109779365 0.13546593
0001f0 85 da aa 3d cc 70 60 bc c1 48 b2 be 20 a0 b5 3d
       0.083424605 -0.013698768 -0.34821132 0.08868432
000200 e4 81 4e 3e 80 03 91 3c 21 2b 9a bb 27 50 03 bc
       0.20166737 0.017701864 -0.0047048484 -0.008014715
000210 7c 8c 91 bd 31 f6 3b 3c a4 67 bf 3d 97 cd 67 3e
       -0.071068734 0.011472271 0.0934594 0.2263702
000220 d9 dd 9d bd 81 5a 00 be ce 25 67 3d 18 60 db 3d
       -0.0770833 -0.12534525 0.056432538 0.10711688
000230 34 e8 1b bd 00 51 b6 3c 3c 20 3b bc 05 ca 5f 3d
       -0.038063243 0.02225542 -0.0114212595 0.05463602
000240 80 bd 93 3d 49 6f c7 bb 10 67 c4 bc 59 fa c4 3e
       0.07213879 -0.0060862643 -0.023974925 0.3847225
000250 ff e8 1f be b2 71 85 bd 0a 06 cd bd b5 f9 3e bd
       -0.15616225 -0.06515826 -0.100109175 -0.046624858
000260 4c 4c 3e bc 38 aa cc bd c6 29 c4 bd c3 2d a0 bc
       -0.01161487 -0.09993404 -0.0957828 -0.01955307
000270 df aa 89 bd 2d 8b 5d be 5b d4 0a be b6 36 98 3e
       -0.06722044 -0.21635123 -0.1355757 0.2972924
000280 de d7 12 be 7f f5 0f 3e 12 84 41 3c d0 7e 13 bc
       -0.1434016 0.14058493 0.011811273 -0.009002402
000290 ad 8c 95 bd 87 ca 59 bd d8 b5 93 bd 51 a5 09 3e
       -0.073022224 -0.05317166 -0.07212418 0.1344197
0002a0 36 5a 41 3d 33 15 88 bd 51 46 93 3e 67 02 e7 3d
       0.047205172 -0.066446684 0.28764585 0.11279755
0002b0 ed a4 38 3d 62 6c 94 bd 68 5f 52 3d 92 34 ff bd
       0.04507916 -0.07247235 0.051360518 -0.12461199
0002c0 f3 be 70 be 20 8b 4d bd b2 a9 2d bd 51 3d 3b 3d
       -0.23510341 -0.050181508 -0.042398162 0.045712773
0002d0 08 ad e1 ba b0 62 bd 3d 98 3b df b9 3f e3 27 be
       -0.0017217705 0.09247339 -0.00042578275 -0.16395281
0002e0 82 41 96 3d 9b fe b4 bd d1 ab 14 3d 01 dc 89 3d
       0.073367134 -0.08837625 0.03629667 0.067314155
0002f0 e0 8a b8 3d 5b 30 57 be 24 b0 c5 be 8e 04 69 3d
       0.09010863 -0.2101454 -0.38610947 0.05688911
000300 d8 96 23 3e 3a 61 14 3e d4 58 ad bd fa 00 80 bd
       0.15975511 0.14490214 -0.08464208 -0.06250186
000310 68 7f ae 3c 0f 24 36 bd 60 b9 22 3c 7d be da 3e
       0.021300986 -0.044467982 0.009931892 0.42723456
000320 c9 b3 cc bd 53 58 64 be f6 78 29 3e f8 05 5a 3e
       -0.09995229 -0.22299318 0.16550049 0.2129134
000330 b6 ea 73 3d 48 38 a3 3d 4b 5b a2 ba 9a 62 ce 3d
       0.05955001 0.07969719 -0.0012386827 0.100774005
000340 a7 30 22 bd 86 3a 97 3c 81 08 07 be ac e0 7a 3e
       -0.03959718 0.018460523 -0.13186838 0.24499768
000350 07 eb dd bd a3 b5 25 3d 99 c8 61 bd a8 c5 62 bd
       -0.108358435 0.040456425 -0.055122945 -0.05536428
000360 ab 2e 1e 3d f6 e0 9c 3d da 19 52 bd e6 0e 0c bd
       0.038618725 0.076600954 -0.051294185 -0.034193896
000370 93 78 e7 3b b3 50 bb bd 4e 9e 52 be f9 e8 94 3e
       0.007063934 -0.091462515 -0.20568201 0.29083994
000380 72 60 56 be 4a 38 4f 3d cf 12 92 bd b7 7e 67 3b
       -0.20935228 0.05059079 -0.07132494 0.003532333
000390 b7 2d 11 3e 3c 42 05 be 29 b7 2b be 9f ae 62 3e
       0.14177595 -0.13013548 -0.16769089 0.22136925
0003a0 1a b0 4a 3e 37 c9 a9 be e1 e8 06 3e 10 4f 62 3c
       0.1979374 -0.33161327 0.13174774 0.013812795
0003b0 c9 1a 7c 3d e4 45 22 be 84 88 33 3e 63 26 21 be
       0.06154898 -0.15846974 0.17532545 -0.157373
0003c0 db c5 e4 be 9d 66 59 bc 39 ec ab 3d 97 11 8d bc
       -0.44682202 -0.013269094 0.08394665 -0.017220302
0003d0 19 46 25 bd 23 e5 2c 3d 7a 7b 1f 3e 19 04 b5 bd
       -0.040350053 0.04221071 0.15574446 -0.08838672
0003e0 85 f9 0b 3c f9 27 7a bd 44 fd a3 bd 6a c9 2c 3d
       0.008543377 -0.061073277 -0.08007291 0.04218427
0003f0 be 6c 31 3e 18 8a 6d be 51 c3 45 be 99 aa 4e 3d
       0.17326638 -0.2319721 -0.19312789 0.050455663

embedding.conv1.weight f4 [64, 1, 4, 4]
000000 e9 9e 10 3d 1e 10 27 bd 95 ef 57 bc fd 2e fa bc
       0.0353078 -0.040786855 -0.013179679 -0.030539984
000010 a8 41 a6 3c 07 d2 10 bd 96 17 d0 38 62 11 fe 3c
       0.02029498 -0.035356548 9.922606e-05 0.031014148
000020 c5 9e ba 3c 6a b5 57 bb 95 db f5 3c 4b 32 43 3d
       0.022780785 -0.0032914528 0.030011931 0.047655385
000030 29 e9 b1 3a f0 6b 4d 3c 9f 14 04 3c 7d 58 53 3d
       0.0013573515 0.012537941 0.008061557 0.05159806
000040 18 93 8f 3c 2e f9 05 3d 8a 9c 85 3c d1 4f 4f 3c
       0.017526194 0.03270834 0.016309995 0.012653307
000050 af f4 2a bd 6c 3c e6 bd 62 38 94 bd ce 4b dc 3b
       -0.041737255 -0.11241993 -0.07237317 0.006722904
000060 ee b3 0e 3d 6f 73 ba bd 6b eb 99 bd 78 7a cb 3c
       0.034839563 -0.091040485 -0.075156055 0.024838671
000070 b0 99 63 3c 0f 4f 65 3d 66 b4 2f 3d 94 0a be 3d
       0.013891622 0.0559836 0.04289665 0.09279361
000080 21 ae c8 ba 51 84 19 3d 24 71 ba 3d 0c 6f b4 3d
       -0.0015310684 0.037479702 0.09103611 0.08810243
000090 79 5a 1d 3c d1 94 25 bd 7a 55 16 3d 5a 01 cb 3c
       0.00960409 -0.040425126 0.03670261 0.024780918
0000a0 f5 98 90 3c 78 4c 30 3c dd 81 df 3c 7e 60 5d 3c
       0.01765106 0.010760419 0.027283603 0.013511775
0000b0 dc 97 2a 3d 5d 49 2d 3c bb 49 a9 3d 33 e5 a8 3c
       0.04164873 0.010576573 0.08266016 0.020617103
0000c0 94 04 0c bd b8 08 9c bc dd 56 b3 3c c2 1a c9 bb
       -0.034184054 -0.019047126 0.021892006 -0.006137223
0000d0 c1 ea 7e bd e3 ba 5f bd 06 44 37 39 6c f3 a0 bb
       -0.062235598 -0.05462159 0.0001747758 -0.0049118306
0000e0 fd cf 6e bd f4 28 62 bc 71 8d 47 3d c3 fe d6 bc
       -0.05830382 -0.013803709 0.048718873 -0.026244527
0000f0 d7 ef ad bd 38 d3 a7 bc ea 1e 39 3d 81 b5 c4 3c
       -0.084930114 -0.02048646 0.045195498 0.024012329
000100 b0 cc b3 3d 3a a4 15 bd b6 74 d6 bc bf 62 99 3c
       0.087792754 -0.03653357 -0.026178699 0.018723844
000110 83 77 cf 3d e3 9b 03 3c 55 8c 1b bc 3a bc 22 3d
       0.10130217 0.008032772 -0.009493907 0.039730288
000120 82 66 69 3d 29 34 be 3c 47 08 9b 3b 63 e3 df 3c
       0.056982525 0.023218231 0.0047312113 0.027330106
000130 46 f8 be bb 21 b4 78 3b d9 bb 66 bd 23 77 22 3c
       -0.0058279363 0.0037949162 -0.05633149 0.0099161
000140 1a c8 49 3d 14 ee 45 3c 69 73 46 bc 31 2c a3 bc
       0.049263097 0.012080688 -0.012112477 -0.019918533
000150 b5 f2 9b 3d 9d 75 1b 3d 17 41 a2 bd 54 e1 01 3d
       0.07614652 0.03795396 -0.07922571 0.03170903
000160 99 59 3e 3d c8 ee a6 bd e6 6c b3 bd e1 4e 88 3d
       0.046472166 -0.08151013 -0.08761005 0.0665567
000170 33 33 8d 3c 2e 87 be bd aa 1c 2d 3c a6 50 e5 3d
       0.017236328 -0.09303127 0.010565916 0.11197023
000180 6b cd ba bc 2d f5 82 bc 74 d9 45 bd 3b 60 b9 bd
       -0.022803029 -0.01598605 -0.048303083 -0.09051558
000190 69 9b d1 bb fc 86 76 3c c7 6e 8d bd dc 4f 15 bd
       -0.0063967 0.015046831 -0.06905895 -0.036453113
0001a0 ed 44 fe bc f9 b9 92 bc 96 e0 84 bd 82 38 58 bd
       -0.031038726 -0.017910944 -0.06488149 -0.052788265
0001b0 da 9e 71 bd 05 d5 8b bd e4 ef 9e bd 13 ee da bd
       -0.058989383 -0.068277396 -0.07760599 -0.1068994
0001c0 53 26 7f bd a5 27 8f bd 23 24 c7 bb 4a 07 14 3d
       -0.06229241 -0.069899835 -0.006077306 0.036139764
0001d0 8d c5 af 3d 84 3a 5a 3c 1e ae 1e bc 7a 8f d7 bc
       0.08582602 0.013319615 -0.009685067 -0.026313532
0001e0 5c ff b7 3d dc c6 8a bb 80 d6 cb 3c b0 88 0f bc
       0.08984253 -0.0042351317 0.024882555 -0.008760616
0001f0 67 62 48 3d b7 60 50 3b be 4d b8 3c 4c 9d 85 bd
       0.04892197 0.0031795928 0.022498008 -0.065241426
000200 6a bb a6 3d fb cc 04 bb 49 09 96 bc 3d e9 51 3c
       0.08141215 -0.002026378 -0.018314974 0.012811956
000210 92 1a 08 3d eb 50 31 bd 8c 13 94 bd 08 06 7a 3c
       0.033228464 -0.04329006 -0.07230291 0.015260227
000220 10 71 a7 3b 67 f1 f1 bc d5 8f 4b bd 49 ce 1f bc
       0.0051099136 -0.029534055 -0.049697716 -0.009753772
000230 bd 93 e3 3b 54 42 3d 3d 3a 59 bf bb af b1 a1 bc
       0.006945102 0.046205834 -0.005839494 -0.019738046
000240 e7 7a 5a 3d 1d 20 b9 bc d6 c7 ca bb 4c 97 ca bd
       0.053339865 -0.02259832 -0.006188373 -0.09892139
000250 b8 fd 04 bd af f3 23 3c 29 19 fa 3c 46 44 09 bd
       -0.032468528 0.010006829 0.030529575 -0.033512376
000260 5e 84 b9 bc 5c 19 3a 3d f5 d5 e3 3c 93 5e c2 bb
       -0.022646125 0.04543434 0.027811984 -0.0059316843
000270 5e 4e 1e bd 77 56 1a 3d 3d 37 2a 3c 7d e6 30 bd
       -0.038648956 0.037680116 0.010389146 -0.04318856
000280 22 61 d3 bc 12 33 7f 3d 81 3b d5 3d c5 f5 bd 3d
       -0.025803152 0.062304564 0.1041174 0.092753924
000290 40 1f 5c bc 15 69 74 3d 4e af df bc f2 96 5e 3c
       -0.013435185 0.059670527 -0.027305271 0.013585793
0002a0 8e 70 6e bd d9 d6 e9 3b 50 7b 92 bd c2 7d ac bc
       -0.05821281 0.0071362075 -0.07152426 -0.02105606
0002b0 f9 cd d3 bd 76 62 f5 bb a5 95 6b bd e9 70 a5 3d
       -0.103420205 -0.007488544 -0.05751576 0.080781765
0002c0 37 5b 7a bd c7 7a 16 bd dd 65 a1 bc 48 d2 b0 bb
       -0.061122146 -0.036738183 -0.019701893 -0.005396161
0002d0 e1 5e 78 3d 0c 6c f7 3c ac 3f 89 3b 12 6e 26 3d
       0.06063736 0.030202888 0.0041884985 0.040632315
0002e0 99 3b 5b 3d 67 ab 36 3d 5e d0 5b 3c fd 2f 30 3d
       0.053523634 0.044597056 0.013416378 0.043014515
0002f0 9a d7 49 bd bb 61 62 bd 4b 30 8a bd 56 eb a4 3c
       -0.04927788 -0.055268984 -0.067474924 0.020131748
000300 7b 61 4d 3c 45 9f ae 3d 05 75 a0 3d 7d 40 3b 3c
       0.012535448 0.08526472 0.0783482 0.011428949
000310 6c b2 68 bd b4 34 04 3d 2b ed 35 bc ef 34 de bc
       -0.05681078 0.032276824 -0.0111039085 -0.02712485
000320 50 28 12 bd 07 6d 4b 3c 18 c3 10 bd 9b e7 5e 3c
       -0.035682976 0.012416131 -0.035342306 0.013605024
000330 ed 65 a5 3d bb 71 09 3d 47 ea 8b bd 96 de aa bd
       0.080760814 0.033555727 -0.06831794 -0.08343236
000340 2a 6b 3f bd a4 9a d1 bc 2b 71 cc bb 1b 7f 9a bb
       -0.04673306 -0.025586434 -0.0062390766 -0.004714859
000350 05 79 33 bd de a9 f2 bb 9d 17 08 ba 81 a8 09 bb
       -0.043816585 -0.0074055037 -0.0005191507 -0.0021004977
000360 67 e6 95 bd 2f 4c f9 3c 6a 0c 17 bc 59 f7 8b bc
       -0.073193364 0.030431835 -0.009219268 -0.017085718
000370 eb 7e 5f bc 6b 6a aa 3d 68 95 40 3c 00 7c 07 3b
       -0.013641099 0.08321079 0.011754371 0.0020673275
000380 a4 4c aa 3d c9 9b 36 3d 9e 43 35 bd 91 c9 27 bd
       0.08315399 0.044582162 -0.044253938 -0.040963713
000390 bf 1c 01 3d 20 ee 04 3e 96 34 6a 38 10 43 4a bb
       0.031521555 0.12981462 5.5838922e-05 -0.0030862726
0003a0 73 c9 8f bd e6 02 a4 3d bb 0f 88 bc 74 f2 e1 bc
       -0.07020845 0.08008365 -0.016609063 -0.027581431
0003b0 49 1c 1b bd 72 73 d3 3d 09 9a 7a 3d 96 02 d9 bc
       -0.03786877 0.10324754 0.061182056 -0.02649049
0003c0 36 5a 94 3d 58 05 a4 3d 6d 3b 48 3d 02 06 f5 bc
       0.07243769 0.08008832 0.048884798 -0.029910091
0003d0 d0 81 08 bd 5d 92 0c 3c 7f 9a 8d 3c 21 7f a2 bd
       -0.033326924 0.008579818 0.017285584 -0.07934404
0003e0 05 4e a4 bc ce c3 9e 3c 98 2b 29 3d 7c e4 85 bd
       -0.020056734 0.019380476 0.04130134 -0.065377206
0003f0 b7 d7 8f bd 56 aa 81 3c 2e 8e 8c 3d 6a c2 08 bd
       -0.07023566 0.015828293 0.06863056 -0.033388533

embedding.conv1.bias f4 [64]
000000 64 09 58 3d a5 41 0c 3b 87 c5 0c 3d 2f 14 0c be
       0.05274333 0.0021401432 0.034368064 -0.13679574
000010 88 0b 7a 3d fa b5 9b 3d 54 77 38 be 53 ee 0a 3d
       0.061046153 0.07603069 -0.1801427 0.03391869
000020 a6 cd 21 bb 0f 21 2d bd db ed 5e 3c 6c 96 b2 3c
       -0.0024689226 -0.042267855 0.013606514 0.021800242
000030 5e 8b 75 3c eb 25 90 bd 0e e9 e9 3d a5 ef fb 3c
       0.014986841 -0.07038482 0.11421405 0.03075392
000040 62 ca 25 bd 30 b7 aa bd b2 14 54 bc 68 56 33 bd
       -0.04047621 -0.083357215 -0.012944387 -0.043783575
000050 31 b5 82 bd 37 be f8 bc 5a 47 f3 bc 88 44 e9 3d
       -0.06382216 -0.030364139 -0.029697109 0.113900244
000060 0d 98 02 bd b5 1f 14 3d b5 ac 87 bc 0c f2 bc bd
       -0.03188329 0.03616305 -0.016561845 -0.09225854
000070 47 9b b6 3d 34 51 33 3d c5 bf 8b bd 4c 8b 4c 3d
       0.089163356 0.043778613 -0.068236865 0.04993753
000080 3f cf 01 3d 92 9d c4 bc e6 08 e8 bc df 92 96 3d
       0.031691786 -0.024000917 -0.028324556 0.07352232
000090 1b 4d 47 3c d7 a0 66 3d 8c 0a 4d bd 8f 2f 0e 3d
       0.0121643795 0.056305733 -0.050058886 0.034713324
0000a0 b7 1c f3 3c a2 7d 26 3d f3 06 59 3d 35 ae 65 bc
       0.029676778 0.040647157 0.052985143 -0.014018585
0000b0 67 7a f2 bc c7 ae f6 bc 31 d8 03 bd 2c 40 96 bd
       -0.029599382 -0.030112637 -0.032188598 -0.073364586
0000c0 f0 02 e5 bd 2c 29 56 bd a5 6f fa bc 38 30 0e 3d
       -0.11182201 -0.05228536 -0.030570814 0.034713954
0000d0 47 6f fa bd 3d 0d 09 3d aa 73 34 bc a1 ea 98 3c
       -0.12228256 0.03345989 -0.011013905 0.018666567
0000e0 a5 c2 75 3d 1c 3c 4b 3d 98 95 06 3d 79 33 0a 3d
       0.06000008 0.04961787 0.032857507 0.033740494
0000f0 22 eb cf bd 1d ab 98 3b 9f 97 95 bc 10 15 75 bc
       -0.1015227 0.00465907 -0.018260775 -0.014958635

encoder.0.attention.queries.weight f4 [64, 64]
000000 10 53 05 3d db 6b 8a bc d8 dd d4 3b b5 93 d3 3d
       0.032549918 -0.016897133 0.0064961724 0.10330907
000010 3a 02 14 be d1 1e 56 3c ee b0 bc 3d 25 a0 cf bd
       -0.14453974 0.013068871 0.09213434 -0.10137967
000020 5e 88 9a 3d 3f 73 91 bd 29 86 ec 3c c8 92 a2 bd
       0.07545541 -0.071020596 0.028872566 -0.079381526
000030 85 e6 c2 bd d9 31 7a 3d 36 03 15 be e1 7d 1d be
       -0.09516624 0.061082695 -0.14552006 -0.1538005
000040 71 e9 17 3e ce de 00 3e e8 8e 09 3e 1a 5a eb bc
       0.14835145 0.12584993 0.1343342 -0.028729487
000050 cf e7 ac bb cc 50 6e bd d6 85 9d 3c 34 fd c3 bd
       -0.005276657 -0.058182523 0.019228857 -0.09569779
000060 9f f4 b2 3d 78 97 0e be 02 1e 97 3d 65 c3 f0 3d
       0.08738064 -0.13924968 0.073787704 0.117560185
000070 09 73 b7 bd 95 c2 d5 bd 1f 4f 5b 3d ac 48 ba 3c
       -0.08957488 -0.10437504 0.053542253 0.02273973
000080 ff 85 56 3d 2f 34 fc b9 5a 76 d7 3d 52 aa dd bd
       0.052373882 -0.00048104065 0.10520621 -0.10823502
000090 a3 1a e1 bd f1 a1 a7 bd 85 a7 c7 3d b7 11 7b bc
       -0.10991409 -0.08185185 0.09748749 -0.015324048
0000a0 36 eb 83 bd af 0a 00 3d ca 8f 1d bd 41 e0 20 bd
       -0.06441347 0.03126019 -0.038467206 -0.039276365
0000b0 74 ce 10 3e 71 d8 8f 3d 6a e5 82 3b 8b fe 85 3d
       0.14141256 0.07023705 0.0039946334 0.06542691
0000c0 78 93 3a 3d 75 32 01 3d ad 40 3d 3d 7a 05 d9 bc
       0.045550793 0.03154226 0.046204258 -0.02649187
0000d0 f1 6e e1 3d a5 fd dd 3c 25 83 12 bd 7c 89 0b be
       0.110074885 0.027098486 -0.0357696 -0.13626665
0000e0 30 10 93 bd 0c 1c 1c be ba 8e 71 bd e8 3f 51 3d
       -0.07180822 -0.15245074 -0.058974005 0.051086336
0000f0 b1 03 3d 3e be a0 1d bc 8f bd 83 bc ba 2a 39 39
       0.1845844 -0.009620843 -0.0160816 0.00017658892
000100 81 bf a7 bd a9 d2 ec 3b f2 65 61 bc 38 e7 cd bd
       -0.08190823 0.007227261 -0.013757216 -0.10053867
000110 b6 ed 2a 3e 0e 13 d1 bb 1a 2c a4 bd b7 d0 bf 3d
       0.16692242 -0.0063804453 -0.08016224 0.09365981
000120 eb ab 94 3c d6 1f a8 3d 3d ac 4c bd 27 06 d3 3d
       0.018148383 0.08209197 -0.049968947 0.10303908
000130 13 41 77 3d 75 b1 2a bd b9 60 05 3e 8a cf 1e 3e
       0.060364794 -0.041673142 0.13025178 0.15508857
000140 b3 08 22 be f3 5b eb bd a6 f9 32 be 08 3b d0 bb
       -0.15823631 -0.11492147 -0.17478046 -0.0063546933
000150 ed 24 62 bc 91 6b 7c 3d 35 e9 27 bc b2 46 86 3d
       -0.013802749 0.06162602 -0.010248472 0.06556453
000160 9b 5b 9c bd 61 f7 18 3e b1 9e 84 3c 12 c2 29 be
       -0.0763466 0.14938118 0.016188951 -0.16577938
000170 e4 3f 00 3e 14 55 bf 3d 6a d2 f3 bc 9e fb 61 bc
       0.12524372 0.09342399 -0.02976342 -0.0137929
000180 fc 77 53 bc 2b 23 07 bd 98 f4 17 be 4a 2f cd 3d
       -0.0129070245 -0.032992523 -0.14839399 0.10018785
000190 fc 0d ea 3d 34 0f d3 3c 14 4f ac bd b7 2e c9 bb
       0.114284486 0.025764085 -0.084135205 -0.006139602
0001a0 ae ee 3a bb 8a d8 36 bd b4 2d 07 3d ce 1a aa 3d
       -0.0028523612 -0.0446401 0.03300257 0.08305894
0001b0 83 e1 01 be 70 3e 65 bd 67 b9 02 3b f4 7d d1 bc
       -0.12683682 -0.05596775 0.0019946934 -0.025572754
0001c0 99 9a 02 bd fa 1e 3a 3b 49 2d 52 bc 94 4e e2 3c
       -0.031885717 0.002839981 -0.01282818 0.02762536
0001d0 d6 9d c8 bd 97 57 7b bb 67 7d a4 3c 18 8a 1c 3e
       -0.0979573 -0.0038351768 0.020079328 0.15287054
0001e0 94 1a 3d 3d ba 3d ca 3d c9 8d 71 3d 7b 7c 29 3c
       0.046167925 0.09875055 0.058973107 0.01034462
0001f0 9e 53 40 be 86 bc 77 3b 79 96 ff 3c 02 ed 1a 3d
       -0.18781897 0.0037801578 0.03119968 0.037823685
000200 35 d4 51 3d c7 f9 a2 3c c6 13 84 3d a3 56 c4 bd
       0.051227767 0.019894494 0.06449084 -0.09586837
000210 1c 56 30 3e 01 ff 82 3c 4b 01 17 be 57 95 dc 3d
       0.17220348 0.015990736 -0.14746587 0.10770672
000220 b2 04 57 ba 36 cc 67 3d da ec e7 3c 9d d6 a6 3d
       -0.0008202299 0.056591235 0.028311182 0.08146403
000230 e4 c6 83 3d fa ea 3b bd c1 e4 3a 3e e5 a1 c3 3d
       0.0643442 -0.045878388 0.18251325 0.09552363
000240 65 97 0b be d6 50 fa bd b6 6a 17 be 11 b0 af 3c
       -0.13631971 -0.122224495 -0.147868 0.02144626
000250 81 9e 9f bc 63 86 6a 3d f1 69 3b bd e4 28 00 3e
       -0.01948476 0.057257067 -0.04575533 0.12515599
000260 b2 f1 15 be f7 ab 19 3e 79 07 96 bd 4d 7d f5 bd
       -0.1464298 0.15007006 -0.07325644 -0.1198679
000270 9e 97 84 3d eb 3d cf 3d 6d e1 9b bd 9c 4f 48 bd
       0.06474231 0.10119232 -0.07611356 -0.048904046
000280 2f 91 4a bd 14 40 63 bd 9f 87 40 be 81 01 14 3e
       -0.049454864 -0.05548103 -0.18801735 0.14453699
000290 78 ec f0 3d 17 f8 e5 3d c8 85 a5 bd 39 20 99 bc
       0.11763853 0.1122896 -0.080821574 -0.018692123
0002a0 92 61 0d 3b 7a d1 94 3c 8f aa 64 3d 69 70 90 3d
       0.002157305 0.018166292 0.05582672 0.070526905
0002b0 b0 0c 08 be 62 e2 25 bd 60 f2 35 3d df d7 0a bd
       -0.1328609 -0.0404991 0.0444206 -0.033897277
0002c0 b1 17 32 bd b4 2d 02 bc 6d c2 88 bd 41 c0 52 3c
       -0.043479625 -0.007945467 -0.06677709 0.01286322
0002d0 3f 48 0c be ba e4 fd bc 2b 9c 9d 3d 96 e5 34 3e
       -0.13699435 -0.030992854 0.07695802 0.17665705
0002e0 e8 b1 7a 3d 5d e2 1e 3e d9 ba 98 3d 0a 9e e2 bc
       0.06120482 0.15516038 0.07457513 -0.02766325
0002f0 5a b1 35 be dd df cd 3c 3c c8 9d 3b b2 e1 90 bc
       -0.17743436 0.02513116 0.0048151296 -0.017685745
000300 31 b3 a2 3d e4 ee 06 3d 2c 84 82 3c 37 67 03 3e
       0.07944334 0.032942668 0.015932165 0.12832342
000310 f3 98 ac bd 99 ca 9e 3d 1e 6e ae 3c 01 91 aa bd
       -0.0842761 0.07753486 0.021292742 -0.083284386
000320 63 c2 d3 3d 5d 1d 01 bd ce 14 5e bd 49 a4 06 be
       0.10339811 -0.031522144 -0.05421906 -0.13148607
000330 fa 8f 8f bd 8b 5b 67 3d 70 93 0a be c5 3c 27 be
       -0.07009883 0.056483787 -0.13532805 -0.16331775
000340 a0 a0 54 3e 1e a8 df 3d 74 3c 9b 3d 96 50 83 bc
       0.20764399 0.10920738 0.0757989 -0.016029637
000350 11 6f c9 bc 2c 1c 61 bc 9d 70 16 bd 0c 0d 99 bc
       -0.024589093 -0.013739627 -0.03672849 -0.018682979
000360 79 b4 9f 3c c6 29 20 be 5d 18 0b bc 73 da 18 3e
       0.019495236 -0.15640935 -0.008489695 0.14927082
000370 c5 75 5f bd a8 36 e7 bd ad 10 61 3d e0 86 ad bb
       -0.054555673 -0.11289722 0.054947544 -0.0052956194
000380 34 dc 51 bb 3d c4 38 bd 09 18 08 3e f4 ee ab bc
       -0.003202212 -0.045109022 0.13290419 -0.020987965
000390 68 0c f4 bd a0 a2 a5 3d 4b 30 c3 3d 14 6d 9b bd
       -0.11916429 0.08087659 0.095306955 -0.075891644
0003a0 b4 ed 86 bd b6 3e c9 3d df 66 0d 3d 26 92 b5 bd
       -0.06588307 0.09826414 0.034521934 -0.08865766
0003b0 64 1c dc 3d 4d d1 d6 3d 5d 25 20 bc b9 06 38 3d
       0.107476026 0.1048914 -0.009774533 0.044928286
0003c0 75 e7 b7 3d f0 f9 c6 38 35 17 b9 3a 72 f1 bb bd
       0.08979694 9.48793e-05 0.0014121296 -0.091769114
0003d0 ca 3e d9 3d a2 d0 db 3d bf e5 bb bd d3 eb 1c be
       0.10607679 0.10733153 -0.0917468 -0.15324335
0003e0 68 97 0c 3b cd ac 0d be 94 92 b9 bd 0e d0 f5 3d
       0.002145255 -0.1383545 -0.09061161 0.12002574
0003f0 5a f9 40 3e aa b2 28 bd ad d9 62 bc c3 50 3e bd
       0.1884512 -0.041186012 -0.013845843 -0.04646374

encoder.0.attention.queries.bias f4 [64]
000000 0e 9d 89 bd 37 df 8b 3d 7b 1c 71 3d 8f 6f 93 bd
       -0.06719409 0.06829684 0.05886505 -0.071990125
000010 a8 b7 82 bd d8 8c 6d bd cf 0b 7a 3d 7b 82 6f 3d
       -0.06382686 -0.057995647 0.061046418 0.058474045
000020 44 85 61 bd a8 80 90 3d 9f 13 70 3d 7a 08 4d bd
       -0.055058733 0.07055789 0.058612462 -0.050056912
000030 2a 3d 76 bd 68 7a 74 3d 5b 73 80 bd eb a4 7a bd
       -0.060116924 0.05968705 -0.06272002 -0.061192434
000040 52 b0 3e be c7 dc 40 3e 69 41 44 3e 90 71 49 be
       -0.18621948 0.1883422 0.19165577 -0.19672227
000050 5e 03 4d 3e a0 9c 40 3e 98 20 4f 3e 07 e9 3d be
       0.20020816 0.18809748 0.20227277 -0.18545924
000060 4c 15 45 be d4 c3 3d 3e af 22 40 3e 30 f2 4c 3e
       -0.19246405 0.18531734 0.1876323 0.20014262
000070 f7 1b 42 be 29 14 45 be 8b 63 3b be 00 c0 52 be
       -0.1895598 -0.19245972 -0.18299691 -0.20581055
000080 6d 54 4c be 76 95 8d 3e 58 6d 52 be 67 20 4a 3e
       -0.19954081 0.27653092 -0.20549524 0.19738923
000090 5e bc 63 3e 1d 43 43 3e fd 94 67 be 76 31 6d 3e
       0.22239825 0.1906857 -0.22615428 0.23163399
0000a0 88 8d 4d be 5f 6c 3c 3e 5a e1 4e be 15 88 55 be
       -0.20073521 0.18400715 -0.20203152 -0.20852692
0000b0 5d 28 6d 3e a0 8d 50 be ac 2a 68 3e 94 8d 3b 3e
       0.23159929 -0.20366526 0.22672528 0.18315727
0000c0 3d a0 81 3d 4b 8b bd bd 0e 64 ab 3d 9c 4c 75 3d
       0.06329391 -0.09255084 0.08368693 0.059887514
0000d0 38 29 77 3d b7 c6 a4 bd ff b6 83 be 09 c1 a9 bd
       0.060342044 -0.08045714 -0.25725552 -0.08288772
0000e0 41 e9 ab bd d5 e5 81 3d 3d 8f af bd 7b 02 f0 bd
       -0.08394099 0.06342665 -0.085722424 -0.11719223
0000f0 ce 1e 7a bd 37 73 a8 bd 61 bc 63 3d ec 15 60 3d
       -0.061064534 -0.082251005 0.055599574 0.054708406

encoder.0.attention.keys.weight f4 [64, 64]
000000 93 5b 39 be ce 44 22 3d a1 96 27 be 9f b6 c0 3d
       -0.18101339 0.0396164 -0.16366054 0.09409832
000010 07 2b ff bd 90 89 63 bd 5c ce bb 3d 25 8b 9f bc
       -0.12459379 -0.05555111 0.09170219 -0.019475529
000020 56 e1 9c 3c 98 f4 9b bd 09 a9 40 3c f5 97 ba 3d
       0.019150417 -0.07615012 0.011759051 0.09111015
000030 a9 60 5f bb ee f9 86 bc 74 1b 84 bd 35 ad e5 bc
       -0.0034084714 -0.016476598 -0.06450549 -0.028036693
000040 97 97 ab bd 14 80 44 3d e6 d7 09 3e d9 eb dc bd
       -0.08378523 0.047973707 0.13461265 -0.10787172
000050 54 b2 c5 3d 5e 20 0a 3e b3 b6 07 3e be 2e 1b bd
       0.09653154 0.1348891 0.13253288 -0.037886374
000060 ea 67 0b 3d a5 9a d5 bd 48 45 8f 3c 44 75 9f 3d
       0.034034647 -0.10429887 0.01748909 0.077860385
000070 f6 d5 13 bd a6 4d 0e 3c cf 7d 03 3e 72 86 02 3b
       -0.03609272 0.008685505 0.12840961 0.0019916561
000080 0b 19 85 3c 25 a0 db 3b f8 18 7c 3d 2d ae 10 be
       0.016247293 0.0067024403 0.06154725 -0.14128943
000090 1b 12 19 3e 15 34 b3 bd d4 e9 c6 3d ef c4 a1 3c
       0.14948313 -0.08750168 0.09712568 0.019747226
0000a0 28 66 17 bd 0d b1 1f be 10 58 c4 bb 98 c5 18 bd
       -0.03696266 -0.15594883 -0.005991943 -0.037297815
0000b0 ef c1 39 3d a0 4a cf 3b a3 8e 8b 3d ae c8 de 3c
       0.045350965 0.0063260347 0.06814315 0.0271953
0000c0 29 83 d9 3d 7a c2 6a 3d 93 07 f3 3c 12 be db 3c
       0.1062072 0.057314374 0.029666698 0.026824031
0000d0 df bb 8e 3d 0c eb 49 bd 29 4c 4f 3d 42 2e 1d bd
       0.06969427 -0.049296424 0.05060974 -0.038374193
0000e0 f3 5f ca bd 2f a5 d2 3b d7 f5 1a bd ff 0e 88 3d
       -0.09881582 0.006428383 -0.037832107 0.06643485
0000f0 7f e7 9f 3d ed 26 91 3d 35 0e 3b 3d 26 cf 9b 3d
       0.07807826 0.07087503 0.045667846 0.0760787
000100 08 e5 18 3e 86 84 4f 3c 03 8e d1 3d a1 99 5b bd
       0.14931118 0.012665873 0.10232165 -0.05361331
000110 c3 41 32 3d 35 6f 1c 3d b3 80 b3 bd 43 1d df 3c
       0.043519747 0.038191993 -0.08764782 0.027235633
000120 57 bd 19 bd 3f 77 19 3e 69 8d 90 bd ff ff 0c be
       -0.037534084 0.14986895 -0.07058222 -0.1376953
000130 95 fa 00 bd 5a 84 c8 3c cc 83 c2 3c 04 84 09 3c
       -0.031488974 0.024477173 0.023744486 0.008393291
000140 f4 cd 93 3d 06 76 d9 bc da 0d 87 bd b1 b2 5e 3d
       0.07217017 -0.026545536 -0.06594439 0.054369632
000150 77 e6 85 bd 0f 62 b0 bd 22 b9 41 be 0b 93 c8 3c
       -0.06538098 -0.08612453 -0.18918279 0.024484178
000160 60 0d 28 3c fc 7a 98 3d 09 1d c4 bc a8 37 91 bd
       0.010257095 0.074453324 -0.023939626 -0.07090694
000170 52 43 61 3d a0 0c d1 bd 0c e7 b6 bd fc 56 41 bd
       0.054995842 -0.10207486 -0.089307874 -0.047202095
000180 ad 99 2b bd 97 26 14 bd 1b 82 5e bd 4c c0 0f 3e
       -0.041894604 -0.036169615 -0.054323297 0.14038199
000190 4f 59 ac bd 3b 14 ab 3d 20 50 17 bd cc 9d f2 bc
       -0.08415472 0.08353468 -0.036941648 -0.029616259
0001a0 8e cb 83 3d ed d1 86 3e bb 0c 11 3d bf 6b 93 3d
       0.06435309 0.26332036 0.03541253 0.07198285
0001b0 3d 31 ac 3a 7f 82 07 3c 97 bc 0f bd 57 06 81 bd
       0.0013137233 0.008270859 -0.035091963 -0.06300037
0001c0 c2 3a 96 bd 53 19 7f bc 2a 1a a8 bd e1 49 b2 bd
       -0.07335426 -0.015570003 -0.082081154 -0.087054975
0001d0 18 d5 88 bd 97 0e 0c 3d 6e a3 58 bd 94 a8 e1 3c
       -0.066812694 0.0341936 -0.052890234 0.027546205
0001e0 63 73 c0 3d 22 9e ca 3c 9c 11 b3 bc de b8 c7 bd
       0.09397008 0.024733607 -0.021858983 -0.097520575
0001f0 f8 e3 df bd 5f ad 43 bd 74 25 14 bd 90 61 3d bd
       -0.109321535 -0.04777276 -0.03616853 -0.04623562
000200 b7 50 19 3e 50 07 52 bd 33 94 01 3e 98 69 0d be
       0.14972197 -0.051276505 0.1265419 -0.13809812
000210 82 ec fc 3d 6e cb b0 3d 12 88 c2 bd 6b f2 f6 3d
       0.12349798 0.08632551 -0.094986096 0.12057956
000220 0b 06 15 3b 45 6a 78 3c 4b e3 28 bd 62 90 7b bd
       0.0022739198 0.015162055 -0.04123239 -0.06141699
000230 3f e4 27 bd d8 7c bd bd c9 ea 94 3d fb c0 d1 3d
       -0.040989157 -0.09252328 0.07271344 0.10241886
000240 c9 b5 a3 3c 59 5a 7f bd 9f 2b aa bd 72 4f d6 3d
       0.019984143 -0.06234202 -0.08309101 0.10464372
000250 f3 35 ed bd 53 a4 02 be 26 22 93 3c 38 52 33 3d
       -0.115825556 -0.12757997 0.01796062 0.04377958
000260 e2 58 27 bd 37 52 33 3e 92 31 a5 3b 63 f7 29 be
       -0.04085625 0.17511831 0.0050413096 -0.16598277
000270 a6 54 b7 3d 40 f2 f3 bb df c3 00 be 38 e5 cf 3b
       0.08951692 -0.00744465 -0.12574719 0.0063444637
000280 13 b7 08 3d 05 65 e8 3c be 91 a9 bd 33 52 1c 3e
       0.03337772 0.028368482 -0.08279751 0.15265732
000290 ae dc ef bd 3e 41 de 3d 86 5f a9 bd 08 cc 7c bd
       -0.11712013 0.10852288 -0.08270173 -0.061718017
0002a0 5b 7e f4 3c 51 89 e4 3d 15 d8 37 3d 55 60 15 3e
       0.029845407 0.111590035 0.044883806 0.14587529
0002b0 8b 09 7d bb 8f 7c d4 bc d9 23 a6 bd 0c 50 85 bd
       -0.0038610424 -0.0259383 -0.08112306 -0.06509408
0002c0 e4 2f fa bd ec b2 95 bd 5d 55 e3 bd b4 fa a3 bb
       -0.12216166 -0.07309517 -0.11100266 -0.0050042514
0002d0 c4 55 f8 bd 73 9a db 3d b6 0f 82 bd cf 38 66 3d
       -0.121257335 0.10722818 -0.06350653 0.05620652
0002e0 75 8d e8 3d 83 f8 79 3d b3 10 7f 3c 7f de 8f bd
       0.11355106 0.061028015 0.015567946 -0.0702486
0002f0 0c 3c f2 bd 5d 84 67 bd c6 7c 20 bd 1c d2 64 bd
       -0.11827859 -0.056522716 -0.039181493 -0.05586444
000300 67 be 0c be b4 2a 0c bd 07 5e 01 be 21 9c 5a bc
       -0.13744508 -0.034220412 -0.12633525 -0.013342888
000310 85 0c 85 bd 9f 8d a3 bc e5 5b 3c 3d 31 19 b3 3d
       -0.064965285 -0.019964991 0.045986075 0.08745039
000320 10 8a 1a 3d 98 69 1c be 2f f7 e6 3c b5 66 05 3e
       0.037729323 -0.15274656 0.028194038 0.13027461
000330 90 c2 e1 3c 68 eb 3d bc 2b f8 eb bb 56 c4 a8 3d
       0.027558595 -0.01159177 -0.007201215 0.08240573
000340 00 13 34 bd ba 87 d0 3c ba 75 d2 3d a2 d2 0e be
       -0.043963432 0.025455344 0.10276361 -0.13947538
000350 11 d7 8c bc 1b d7 08 3e 78 3c 61 3e de 97 61 bd
       -0.017192395 0.13363306 0.21995723 -0.055076472
000360 8f 3c 1b 3d fd 95 a5 3d de d9 47 3d 87 0b fc bc
       0.03789955 0.080852486 0.04879176 -0.030767215
000370 69 d2 a8 bd 0b a5 db 3d 11 63 f9 3d a0 9d 8b 3d
       -0.082432576 0.10724839 0.121770985 0.06817174
000380 4d 00 b5 bb 6d 1a 90 3d fc 40 66 3c f2 7d 31 be
       -0.0055237175 0.0703629 0.014053579 -0.173332
000390 64 94 67 3e 9a a8 a8 bd 72 6c 56 3d 63 be 94 3c
       0.226152 -0.08235283 0.052349515 0.01815719
0003a0 c6 51 c0 bc d5 b2 7b be 23 0f 17 3d f4 ae df 3d
       -0.023476493 -0.24579938 0.03687967 0.109220415
0003b0 e3 a6 f2 3c 77 2e 73 bd 43 22 d8 3c f3 5f 3c 3c
       0.029620593 -0.059370484 0.026383525 0.011497485
0003c0 f1 e0 9b 3c 74 21 da 3d f8 34 0e 3c f1 cf fe 3b
       0.019028159 0.10650912 0.008679621 0.0077762534
0003d0 ea 52 88 3d f1 81 13 bd 9f 63 6e 3d 6b 43 ba bd
       0.066564396 -0.036012594 0.058200475 -0.0909489
0003e0 ac 53 13 be ab 9e b7 3c 4e c3 80 bd a2 15 98 3d
       -0.14387387 0.022414526 -0.062872514 0.07426001
0003f0 e2 95 ca 3d da 6b 38 bc 09 26 92 3c 57 ae a0 3c
       0.09891869 -0.011256183 0.017840402 0.019614382

encoder.0.attention.keys.bias f4 [64]
000000 d1 c3 03 3a e1 16 4f b9 22 ee 2d ba 61 31 f2 b9
       0.00050264323 -0.00019749581 -0.0006634911 -0.00046194627
000010 23 82 55 3a 87 62 3b 39 a6 79 dc b9 2c d4 1d 3a
       0.0008144697 0.00017870414 -0.00042052305 0.0006020691
000020 06 3e 82 39 c6 ca da 39 3b a6 45 ba e1 ab e8 b5
       0.00024841743 0.00041731278 -0.0007539724 -1.733537e-06
000030 52 ff dd 3a fa 1e 2f 3a 52 3f 93 b9 89 74 ce 38
       0.0016937053 0.0006680336 -0.00028085202 9.844552e-05
000040 fa a2 01 3b 2f 92 15 ba 19 d8 66 ba a1 4f 04 3b
       0.001978098 -0.0005705682 -0.0008806005 0.0020189064
000050 1b a8 2d bb ef 1a 89 ba b7 61 62 ba 7b 12 9d 3a
       -0.0026497904 -0.0010460297 -0.00086357765 0.0011983657
000060 17 83 90 39 8b 4d bb ba 5b 65 00 bb d3 32 68 ba
       0.0002756349 -0.0014290077 -0.0019591663 -0.0008857671
000070 18 36 be 39 e9 11 5c 3a f5 93 ba 3a 0f ba 34 b9
       0.00036279927 0.0008395003 0.0014234768 -0.0001723545
000080 90 fd 8f b9 a6 be a3 39 00 02 c6 39 6f 4a 0b 3a
       -0.00027464004 0.00031231827 0.00037766993 0.00053135207
000090 24 88 94 39 4b f0 87 b9 8e ae 39 b9 e3 51 29 39
       0.00028330192 -0.0002592824 -0.00017708002 0.00016147601
0000a0 2f fa 05 3a d7 78 29 b8 d2 60 59 ba ee e5 35 b8
       0.00051108276 -4.040528e-05 -0.00082923204 -4.33679e-05
0000b0 d1 fe ec b8 5c ae c0 b9 88 c5 f9 b8 68 3f d2 b9
       -0.0001130082 -0.00036751002 -0.00011910038 -0.00040101563
0000c0 fd ed c3 39 21 a4 9c ba 79 1c 7b 3a b6 c1 38 3b
       0.00037370613 -0.001195077 0.0009579133 0.0028191633
0000d0 d9 d7 df 3a b5 e4 0e ba 2d 3c 32 bc 5f a3 c5 ba
       0.0017077877 -0.000545095 -0.010878605 -0.0015078596
0000e0 4b b2 0f 3a 22 a2 76 3a 70 16 89 ba 23 f6 a2 bb
       0.0005481585 0.0009408315 -0.0010458957 -0.0049731894
0000f0 aa 7e 63 bb ed ec d8 ba 0f 7c 3c 3a 62 35 38 3a
       -0.003471295 -0.0016550102 0.0007190117 0.00070269976

encoder.0.attention.values.weight f4 [64, 64]
000000 16 4e c9 bd 19 de 0c 3c 7e 3a 80 bc 7a 26 f9 bb
       -0.09829347 0.008597874 -0.015652891 -0.0076034637
000010 3d cc f6 3c 45 30 52 bd 99 99 fd 3c 6e d4 b6 3c
       0.030126685 -0.051315565 0.03095703 0.022318091
000020 e8 7b a8 3d 2d 2a ec 3c 6e 89 d1 3c e3 fe 86 3d
       0.08226758 0.028828705 0.025578227 0.065915845
000030 2d 8f 8b 3d 8e 3a 80 bc 2d ad a6 bc 75 da 1a 3b
       0.06814418 -0.015652921 -0.020346249 0.0023628746
000040 f7 72 cd bd 57 67 ca 3c 65 02 bc 3a 66 23 70 3c
       -0.100316934 0.02470748 0.0014343975 0.014656877
000050 bb cd ab 3d 19 f0 72 bd c2 79 d1 3d 12 2b 13 bc
       0.08388849 -0.059311006 0.102283016 -0.008982437
000060 df 61 1c 3c a5 00 63 3d 05 99 43 bb cf b9 6c 3d
       0.009544819 0.055420537 -0.0029845845 0.05779439
000070 97 e8 2d bc 4d ff 87 3c fc 30 f9 bc 28 73 6a bd
       -0.010614536 0.01660123 -0.030418865 -0.057238728
000080 e1 19 1c 3d 26 c6 c5 3c 98 d2 80 bd d5 a9 3c bc
       0.038110618 0.024142336 -0.062901676 -0.0115151005
000090 ee 2c 22 bd 4e a4 95 bc 0f 36 5a bc 10 3b 59 3d
       -0.03959363 -0.018266823 -0.013318553 0.053034842
0000a0 75 d3 7a 3c e1 1e 40 bd c8 b4 c8 bd 4e 2e e9 3b
       0.015309204 -0.04690445 -0.09800106 0.0071161157
0000b0 f5 0e 48 3c 05 31 6c 3c 44 a4 e2 bc f1 5c b5 3c
       0.012210597 0.014415984 -0.027666219 0.022139044
0000c0 a0 be dc 3b 88 ac 3d bb 4d ff ac 3d 7a 69 00 3d
       0.0067365915 -0.0028941948 0.08447132 0.03135059
0000d0 e3 c6 00 3c 2e d3 03 bd f6 95 bc 3c b3 1a 26 bc
       0.007859918 -0.03218382 0.023020726 -0.0101382015
0000e0 02 95 87 bd 77 2c 9b 3b 3b b2 71 bc ea 7b 44 bc
       -0.06620218 0.004735525 -0.014751966 -0.011992434
0000f0 e4 37 c7 3a fe 3f 43 bd ef 62 c1 bc 89 06 d1 3c
       0.0015199152 -0.04766845 -0.023606746 0.025515812
000100 bc f8 e3 bc a4 78 c6 bd ed c8 7b ba 47 db c9 bc
       -0.027828567 -0.09690979 -0.00096048304 -0.024640692
000110 7b 85 63 3d 2e 5a 5d 3d e9 07 8d bc b6 4d 5b bc
       0.05554722 0.05404108 -0.017215686 -0.013385227
000120 32 35 f3 3c f6 00 52 3d 82 0c 12 bd 9b aa 61 3d
       0.029688451 0.051270448 -0.03565646 0.055094343
000130 55 90 d9 bc 08 d7 e2 bd 51 59 6c 3d 1e b4 b5 3d
       -0.02655808 -0.1107617 0.057702366 0.08872245
000140 05 10 bf bd ad 4d fe bc b2 75 6d 3d d7 46 cd 3c
       -0.09329227 -0.031042898 0.05797357 0.025058193
000150 bc 80 f9 3c af ec ce bd c2 18 84 3d 9d 0b 1d 3d
       0.030456893 -0.101037376 0.06450035 0.038341153
000160 96 fa 6e bc 3a fe 3a 3c e0 5e 30 3d 5e 03 dc bc
       -0.0145861115 0.011413151 0.04305923 -0.026857074
000170 a3 2c 47 3c c3 15 9b 3d 63 37 a5 3d 7e 34 81 3c
       0.012156638 0.0757251 0.08067205 0.0157721
000180 e4 06 2f 3d 06 ee 31 3b 59 82 1b 3d ae 36 99 3c
       0.04273118 0.002714993 0.037966106 0.018702831
000190 13 b0 12 bd 11 ed 1e 3d 95 7a fc 3a d7 5f 44 bd
       -0.03581245 0.038800303 0.0019262607 -0.047942962
0001a0 7d 92 0b bc c9 7b ec 3c 32 78 54 bd 19 cd 94 3c
       -0.008518812 0.02886762 -0.05187244 0.018164204
0001b0 60 9f 37 bc e7 4b f6 bc 1c 06 d6 3c a4 c7 a2 bd
       -0.011207432 -0.03006549 0.02612596 -0.07948235
0001c0 79 62 b0 bc de 47 02 3d c7 65 8b bc 6a c4 75 bd
       -0.02153133 0.03180682 -0.017016305 -0.06000177
0001d0 a3 d3 f1 bb a3 4f b8 bc a0 60 9d bd 40 86 71 3c
       -0.0073799654 -0.022498911 -0.076844454 0.01474148
0001e0 08 a3 13 3d 2a 35 c3 3b 46 d5 9e 3c 26 02 9e 3b
       0.03604415 0.0059572654 0.019388806 0.0048220335
0001f0 b9 90 d5 bc da b2 04 3d d7 3b d5 bc c6 5a b1 3c
       -0.026069986 0.03239713 -0.02602951 0.02164973
000200 d6 2d 06 be ca cf d3 bc ac 49 be 3c 96 d1 01 3e
       -0.13103423 -0.025855917 0.023228489 0.12677607
000210 a9 5e 18 bc 0a 5c fd bd e6 d9 e3 3c d0 ae 0c bd
       -0.0092999125 -0.12371071 0.027813863 -0.0343464
000220 f0 05 61 3d 9a 9d 1e 3e 31 6f 55 bd 67 c3 04 be
       0.054937303 0.15489808 -0.052107994 -0.12965165
000230 66 cb 46 bb 02 53 c7 3d ee e7 8d bd 67 c5 0e bd
       -0.0030333637 0.09732629 -0.06929003 -0.034856226
000240 0d 0a 66 3c a5 c9 87 3d 3c 01 af 3b 7d 5f c2 3d
       0.014040482 0.066302575 0.0053407233 0.09490869
000250 99 13 30 3e b7 85 20 3d a7 89 64 3d dd 2d c0 39
       0.17194976 0.03919002 0.055795338 0.00036655265
000260 72 11 fe 3c 0e 46 94 bd bf 7c b7 38 8e 20 19 3e
       0.031014178 -0.07239924 8.749356e-05 0.14953825
000270 91 ad a5 bd 44 3b 79 bd 57 74 b4 3d bc 5b f4 bd
       -0.08089746 -0.060847536 0.088112526 -0.119315594
000280 8c fc b6 bd 7c c8 9f 3d cb 67 1d 3d 73 07 34 bd
       -0.08934888 0.07801911 0.038429063 -0.043952417
000290 3a 4b 6a 3c 6c f3 fe bc 77 3d 89 3d 5e 08 64 bc
       0.014300162 -0.031121932 0.067011766 -0.0139180105
0002a0 23 83 ba bd 6a db e4 bd 52 4e 1f be ee 64 de 3c
       -0.091070436 -0.111746624 -0.1555722 0.027147736
0002b0 42 57 0a bd 1a f7 0c 3d d7 da 86 3d 92 54 32 3d
       -0.03377462 0.034415342 0.06584709 0.043537684
0002c0 d7 89 23 3e 15 c9 9b 3d fe bf b8 3d ff 05 06 bd
       0.1597055 0.07606713 0.090209946 -0.032720562
0002d0 91 30 46 3c 65 3a dd bd a4 ca 5b 3c e7 b8 f6 bc
       0.01209654 -0.108021535 0.0134150125 -0.030117465
0002e0 89 26 07 bd f9 de 01 bd c0 96 86 bc 19 f0 dc 3c
       -0.032995734 -0.031706784 -0.016429305 0.026969956
0002f0 8d dc 0b 3d 6c de 79 3d bb 9e 3e 3d 72 99 dc bb
       0.03414588 0.061003134 0.046538096 -0.0067321593
000300 41 7e 4c 3d 50 5e af bd cc a0 75 3c 16 31 c3 bd
       0.049925093 -0.085629106 0.01499195 -0.09530847
000310 b3 c4 fc 3c 05 c3 ba 3c 2d af 9c bc 9a 96 a3 3c
       0.030855512 0.02279807 -0.0191265 0.019969273
000320 f2 76 f6 bd a8 d0 28 bb 76 8e 56 3d bc 85 d6 3c
       -0.12034406 -0.0025759134 0.052381955 0.026186816
000330 c9 f5 f1 bc c7 ce be bd 9a 4a 69 3d a6 95 03 3e
       -0.029536145 -0.093167834 0.05695591 0.12850055
000340 07 0b ce bd dd 3f 37 bd c7 da 8c 3b 1a 45 63 bc
       -0.10060697 -0.04473864 0.004298541 -0.013871456
000350 74 65 90 bc f3 f2 8a 3d 15 14 a8 bb 3c 26 c9 3c
       -0.017626502 0.0678462 -0.005129347 0.024554364
000360 48 90 e5 bc 43 2a d9 3d 1e 82 95 bd b7 e5 d7 bd
       -0.0280229 0.10603764 -0.073002085 -0.105418615
000370 cc 0b 0f bc 93 21 50 3d 98 48 a4 3b 28 04 9b 3d
       -0.00873084 0.05081327 0.0050135367 0.07569152
000380 93 d3 3e 3d de e0 3b 3d 24 3d 2a 3c 74 1f 23 bc
       0.04658849 0.045868747 0.010390554 -0.0099562295
000390 b2 85 9b 3d b5 80 19 3d 21 7d 8a bd 73 dd 29 3e
       0.0759386 0.03747626 -0.06762148 0.16588382
0003a0 4d 5e 65 3d 96 8a 47 bd 15 dc bb 3d 72 41 83 3d
       0.055998135 -0.04871615 0.09172837 0.06408967
0003b0 46 6c 54 3c 81 00 d0 bd 20 ce 90 bb 57 8a e2 bc
       0.0129652675 -0.10156346 -0.0044191033 -0.027653856
0003c0 b0 88 cb bc f7 25 56 3c e9 7d 05 bb 7e d5 11 3d
       -0.024845451 0.013070575 -0.0020369238 0.035603993
0003d0 26 9c 24 bd f3 47 9a bd 91 32 cb 3d 3a 7d dd 3b
       -0.040187977 -0.075332545 0.09921754 0.006759313
0003e0 5d 5e 74 3d b6 54 04 3d 30 64 7b 3d 53 54 e6 bd
       0.059660304 0.03230735 0.061374843 -0.11246552
0003f0 97 e5 6a bd fa bc a3 bb 10 0e 61 bc dc 26 75 bd
       -0.05734786 -0.004996893 -0.013736263 -0.059851512

encoder.0.attention.values.bias f4 [64]
000000 ed 60 e1 3a cb c5 9f bc df fb be bd 99 90 a6 bc
       0.0017195024 -0.019503495 -0.09325384 -0.020332621
000010 af b6 54 3d 6c d7 96 3c 6c 58 25 bd 67 14 40 3c
       0.051932033 0.018413268 -0.04036753 0.011723614
000020 b4 b0 93 3a 8e 80 26 3b 6d 05 03 3d 00 c6 03 bb
       0.0011267872 0.0025406214 0.031987596 -0.002010703
000030 8b 6c 5d 3c 9d 69 25 bc 7e 05 15 3d 60 60 13 3d
       0.013514648 -0.010095981 0.03638219 0.035980582
000040 00 d9 8c bc f2 e3 e5 bc 68 dd c0 bb 16 2a 89 bc
       -0.017193317 -0.028062794 -0.0058857687 -0.016743701
000050 18 25 c5 3c 1e da 5f 3c 05 f6 33 3d 58 57 37 3d
       0.02406554 0.013662843 0.043935794 0.044761032
000060 cf 0b 3c bc 7d fe a1 3d 3c c4 bb bc dc 8b 92 bc
       -0.011477425 0.07909868 -0.02292072 -0.017888956
000070 88 85 ed 3c b8 62 98 3d c9 8b ff bc 8f f4 fb bb
       0.028994337 0.07440704 -0.031194584 -0.0076890658
000080 9b 11 5e 3d e8 a7 66 3c 4d 78 0f bd 79 a7 bf 3b
       0.05421601 0.014078118 -0.035026837 0.0058488217
000090 c2 ee e3 39 54 43 dc bc 62 e7 c9 bc fb 89 71 bc
       0.00043474702 -0.026887573 -0.024646465 -0.01474237
0000a0 40 a9 ef ba 78 8d 6f bc 10 b9 23 bb 26 10 23 bc
       -0.0018284693 -0.014621131 -0.0024982132 -0.009952581
0000b0 b3 cd 05 bd 4f dc 3c bc 9c b4 fd bc 12 72 a7 bc
       -0.032666873 -0.011527135 -0.03096991 -0.020440135
0000c0 e9 31 8f 3c 98 35 70 3c e6 1b de 3c 02 a0 e7 3c
       0.017479854 0.014661215 0.027112912 0.02827454
0000d0 3c 43 40 bd d8 20 f7 bc e3 fa 90 3c b7 d4 24 3d
       -0.04693912 -0.030167028 0.017697757 0.040241923
0000e0 09 09 2f bd 68 3c 5f 3d eb 78 9f 3c cd bd 1e bc
       -0.042733226 0.054500967 0.019466838 -0.009688807
0000f0 e2 a6 88 bd 9a 84 27 bc a0 4a 54 3d 5a 42 70 bd
       -0.06672455 -0.010224486 0.05182898 -0.058657028
