model/mnist/tune_lr0.0005_ed64_nl4_nh4_fm2_ps4/temp_model.pt (torch, 597127 bytes, 74 tensors)

embedding.cls_token f4 [1, 1, 64]
000000 e3 18 89 3c 5a 38 d7 bc 9f aa b8 bd a5 1a 20 ba
       0.0167355 -0.026271988 -0.090169184 -0.0006107486
000010 2a 88 bf bc 06 77 34 3c aa de 2b 3b 33 6d bf 3c
       -0.023380358 0.0110147055 0.0026225247 0.0233675
000020 33 95 bd 3c 38 13 dd 3b 55 e4 8d 3c b4 28 e9 3c
       0.023142433 0.006746676 0.017320791 0.028461792
000030 b7 a0 82 bb b9 35 7a bd f6 6a 5c bc ff 64 bc 39
       -0.003986444 -0.06108639 -0.013453236 0.00035933402
000040 cf cd ba bb 15 32 01 3c b6 6a e7 3c 0f 20 e0 3b
       -0.005700804 0.007885476 0.028249126 0.006839759
000050 fe c3 82 bb e7 f1 77 bb 45 68 92 3b 04 00 76 3c
       -0.0039906492 -0.0037833394 0.0044679963 0.015014652
000060 1b 2c 8e 3b 6b f0 f9 37 90 20 12 3c c2 26 83 bd
       0.004338754 2.9795066e-05 0.008918896 -0.06403877
000070 fd 74 a0 bb e9 b0 ba 3c 63 61 48 bc ea f9 7b 3c
       -0.0048967586 0.022789435 -0.01223025 0.015379408
000080 f2 18 a9 3b 75 27 c1 bb 43 51 3e 3c 75 74 91 ba
       0.0051604444 -0.005894596 0.011616054 -0.0011097329
000090 ca 8f 87 3c 4f 54 03 3c 47 00 a0 bc c5 1a f3 3b
       0.016548056 0.008015706 -0.019531382 0.0074189627
0000a0 07 2b ab 3c 70 e3 cc 3c 64 d1 cd bc 9b 37 13 bc
       0.02089454 0.025010794 -0.02512426 -0.008985425
0000b0 1a 9d 7e ba e4 4c 03 bc 1f ee cd 3a 3c cd b2 bc
       -0.0009712741 -0.008013938 0.0015711224 -0.021826379
0000c0 15 75 5a 3b ac 39 82 bc d4 81 87 bc 25 a9 ff bb
       0.0033333946 -0.01589664 -0.016541399 -0.007802146
0000d0 08 42 62 3c e4 fd a8 bb ac ca 3b 3b b8 3e b5 3b
       0.013809688 -0.0051572192 0.0028654737 0.0055311583
0000e0 ae 76 c9 bc 18 2d 07 3c 3e e8 bd 3b 91 61 99 3b
       -0.024592724 0.008250497 0.0057955077 0.0046808203
0000f0 6a 15 80 bc bd ea a0 bb 8c 86 cd 3b c6 00 2b 3b
       -0.015635211 -0.0049107955 0.0062721428 0.002609299

embedding.pos_embedding f4 [1, 50, 64]
000000 e8 18 89 3c 59 38 d7 bc a2 aa b8 bd d3 1a 20 ba
       0.016735509 -0.026271986 -0.090169206 -0.0006107513
000010 28 88 bf bc f9 76 34 3c c1 de 2b 3b 35 6d bf 3c
       -0.023380354 0.011014693 0.00262253 0.023367504
000020 2f 95 bd 3c 26 13 dd 3b 5c e4 8d 3c b3 28 e9 3c
       0.023142425 0.0067466674 0.017320804 0.02846179
000030 a8 a0 82 bb b3 35 7a bd f4 6a 5c bc d7 64 bc 39
       -0.003986437 -0.061086368 -0.013453234 0.00035933286
000040 d5 cd ba bb 1c 32 01 3c b4 6a e7 3c 12 20 e0 3b
       -0.0057008066 0.007885482 0.028249122 0.0068397606
000050 fd c3 82 bb 09 f2 77 bb 33 68 92 3b 08 00 76 3c
       -0.003990649 -0.0037833473 0.004467988 0.015014656
000060 23 2c 8e 3b 93 ec f9 37 95 20 12 3c c2 26 83 bd
       0.0043387576 2.9793277e-05 0.008918901 -0.06403877
000070 ed 74 a0 bb ed b0 ba 3c 6c 61 48 bc de f9 7b 3c
       -0.004896751 0.022789443 -0.012230258 0.015379397
000080 f7 18 a9 3b 6e 27 c1 bb 3f 51 3e 3c 66 74 91 ba
       0.0051604467 -0.005894593 0.01161605 -0.0011097312
000090 c9 8f 87 3c 4b 54 03 3c 49 00 a0 bc b7 1a f3 3b
       0.016548054 0.0080157025 -0.019531386 0.007418956
0000a0 fa 2a ab 3c 75 e3 cc 3c 65 d1 cd bc 9a 37 13 bc
       0.020894516 0.025010804 -0.025124261 -0.008985424
0000b0 26 9d 7e ba e2 4c 03 bc 06 ee cd 3a 3e cd b2 bc
       -0.0009712748 -0.008013936 0.0015711195 -0.021826383
0000c0 1f 75 5a 3b ac 39 82 bc d3 81 87 bc 19 a9 ff bb
       0.003333397 -0.01589664 -0.016541397 -0.0078021404
0000d0 03 42 62 3c e6 fd a8 bb ac ca 3b 3b a8 3e b5 3b
       0.013809684 -0.00515722 0.0028654737 0.005531151
0000e0 ad 76 c9 bc 1a 2d 07 3c 33 e8 bd 3b 9f 61 99 3b
       -0.024592722 0.008250499 0.0057955026 0.004680827
0000f0 68 15 80 bc b0 ea a0 bb 9d 86 cd 3b d9 00 2b 3b
       -0.015635207 -0.0049107894 0.0062721507 0.0026093035
000100 01 10 39 3c be 15 ab bc 56 24 22 3c 5e 5a 09 3d
       0.01129532 -0.02088439 0.0098963585 0.033533446
000110 10 ed dd 3c 5c b5 6f bc 6b 10 81 3c e4 de 1c bd
       0.02709058 -0.014630642 0.015754899 -0.038298503
000120 a1 6c 21 bc b6 d5 80 3c 4a d9 46 39 de 35 b1 ba
       -0.009852559 0.015726905 0.00018963698 -0.0013520082
000130 93 cf f5 3b 84 4a 8c 3b 10 2c e7 3a 13 a9 85 3d
       0.0075015514 0.004281344 0.0017637033 0.06526389
000140 58 94 c6 3c bb c0 80 bc 68 1c 57 3b d9 18 14 bc
       0.024240658 -0.015716901 0.0032823328 -0.009039127
000150 5e e4 b2 3c c1 fe 96 bc c5 9d ef 3b 1d 7c 06 3c
       0.02183741 -0.018432023 0.0073125088 0.008208302
000160 48 a0 b8 ba 21 2a 47 bc 29 2d 1a 3d d3 8d 8c bc
       -0.0014085853 -0.01215604 0.037640724 -0.01715747
000170 29 5a 7b 3d a3 dd 13 3c 37 00 0e bc c3 3f 40 3d
       0.06136528 0.00902501 -0.008667043 0.046935808
000180 e8 72 28 3c 40 f5 3e 3b 00 24 83 bc 92 a8 54 3c
       0.010281302 0.002913788 -0.016008377 0.012979643
000190 7b b7 a9 bc b9 fb 1f 3d c0 c8 37 3d b0 0e 43 bd
       -0.020717373 0.03905842 0.044869184 -0.04762143
0001a0 0b a8 37 3c c0 6b fd 3b 3b 34 28 3c cc 76 45 3b
       0.011209498 0.007733792 0.010266359 0.0030130623
0001b0 2b db ca 3b 12 06 67 bc 9a 39 d6 bc 79 ee 06 bd
       0.0061906776 -0.014100568 -0.026150513 -0.03294227
0001c0 f0 0e b9 bc d2 e2 e1 3b 82 a2 e0 bb 53 5c fe 3c
       -0.02259013 0.006893494 -0.00685531 0.031049883
0001d0 d6 99 2e 3b 7b e1 05 3c f4 5e c6 bd 60 bf 47 3c
       0.0026641986 0.0081714345 -0.096860796 0.012191623
0001e0 f7 82 6f 3c df 01 d3 3c 7e 26 60 bd f5 6d 83 3d
       0.014618627 0.025757728 -0.05472421 0.06417457
0001f0 a7 83 e3 3c 44 ca a2 bc a7 0c 19 3d 10 74 8e 3b
       0.027772738 -0.019871838 0.03736558 0.004347332
000200 87 f3 54 3c 53 5f 31 bc 5c 93 8c 3c 8e 51 cc 3c
       0.012997515 -0.01082595 0.01716011 0.024941232
000210 8d 6f 0a 3d 31 26 3d bc 50 76 b5 3c 76 95 0f bd
       0.03379779 -0.01154475 0.022151142 -0.035054646
000220 09 05 29 ba e6 31 d3 3c d3 b0 ce bb 2c 06 bd bb
       -0.00064475887 0.02578063 -0.0063077 -0.005768558
000230 7f d7 80 3b db ad e1 bb dd 2e 29 3c 28 6b 81 3d
       0.003931939 -0.0068871803 0.0103261145 0.063192666
000240 c7 32 a3 3c 17 28 ee bc c9 f5 4d 3c 30 77 51 bc
       0.019921673 -0.02907185 0.012570807 -0.012784764
000250 a4 3f 71 3c ea b5 a9 bb 29 f9 5e 3c e5 14 b7 3b
       0.014724646 -0.0051791565 0.013609209 0.0055872076
000260 d1 64 09 bc 38 fb 61 bc 43 46 42 3d bc e6 13 bd
       -0.008385853 -0.013792805 0.047430288 -0.036108717
000270 b9 7b 93 3d 75 db b4 3c 36 d4 9f bc 7d 03 1a 3d
       0.072013326 0.022077302 -0.01951037 0.037600983
000280 95 1e aa 3c c9 02 e3 bb e7 b1 ac bc 24 e3 e9 3b
       0.020766536 -0.0069278223 -0.021080924 0.007137673
000290 8a 97 bb bc 0c 86 20 3d 47 36 11 3d 56 67 80 bd
       -0.022899408 0.039190337 0.035452154 -0.0626971
0002a0 1e 81 6d 3c b7 eb 14 3c 3e c5 87 3c c7 f9 8e 3c
       0.014496116 0.009089402 0.016573545 0.017453087
0002b0 d8 67 6a 3a 64 44 9d bc bd f0 e7 bc a2 ea 1c bd
       0.00089418655 -0.01919765 -0.028313035 -0.0383097
0002c0 2d 8b cf bc 82 9a 0e 3b c7 17 10 3b 87 92 1e 3d
       -0.025334919 0.0021759574 0.0021986829 0.038713958
0002d0 d5 64 20 3c 33 41 4b 3c 4c 45 c8 bd 42 22 16 3c
       0.009789665 0.012405681 -0.09778842 0.009163441
0002e0 f9 25 8e bb 95 b3 39 3c db 89 4d bd 36 97 50 3d
       -0.004338023 0.01133432 -0.050180297 0.050925456
0002f0 66 e1 09 3d 62 3e fe bc d6 25 04 3d 9c 1f 78 3c
       0.033662222 -0.031035606 0.032262646 0.015144255
000300 24 ba 02 3d ae a1 62 3d 5e 1f 37 3d f2 c0 5b 3c
       0.0319158 0.05532997 0.04470765 0.013412701
000310 15 a7 48 3c 6b bf 05 bd 50 5d 88 3d 1f db 0a bd
       0.012246867 -0.032653254 0.06658423 -0.033900376
000320 23 cb c3 3d 21 4c 72 3d d8 40 c6 3a d3 88 08 bd
       0.0956023 0.059154633 0.0015125526 -0.03333361
000330 fb c5 63 3c d5 f6 97 bc bc f4 3b 3d a2 51 4d 3d
       0.013902183 -0.018550316 0.045887694 0.05012668
000340 e1 bd 95 bc 58 15 88 bd 6b 67 87 3c 8b 11 a8 bc
       -0.018279018 -0.06644696 0.016528806 -0.020516178
000350 f0 dd da bc 7c 36 53 3d e1 e6 3f 3d ab a1 45 bd
       -0.026717156 0.051565632 0.046851043 -0.04824988
000360 b5 26 3b bd 68 98 c1 bc 05 31 1b 3d 44 84 bd bc
       -0.04569121 -0.023632243 0.037888546 -0.023134358
000370 93 9a fb 3b df 75 8f 3d d9 01 11 be f8 1b 78 b9
       0.007678339 0.07004904 -0.14160861 -0.00023661542
000380 82 5a 3f 3d d1 24 84 bd 68 85 99 bd 7f 50 47 bd
       0.046717174 -0.06452335 -0.07496148 -0.04866075
000390 6e 15 3b 3c ad 67 e8 3c b9 3e 06 3d 9e 1e 0a bd
       0.011418683 0.028369749 0.03277466 -0.033720605
0003a0 5f 84 40 3c a3 3d d0 3b 76 96 36 3d fe bd 9c 3d
       0.01175031 0.006355004 0.044577084 0.07653426
0003b0 d0 24 21 bd 2a 24 ce 3b c0 77 1e bd ab d8 65 bd
       -0.039341748 0.006290932 -0.03868842 -0.056114834
0003c0 53 bb 5e 3b 02 cd b3 bb ce 0d 5f 3d d8 70 fd 3c
       0.0033986166 -0.0054870853 0.054456525 0.030937597
0003d0 34 d5 15 3d ff 33 d3 3c e3 1b fe 3c d9 bf b0 bc
       0.03658028 0.02578163 0.031019157 -0.021575855
0003e0 55 d2 6a bd bb 76 84 3c f0 ae 54 bd 10 5c d8 39
       -0.057329495 0.016169896 -0.051924646 0.00041267322
0003f0 f5 e2 81 3c 0e 2f 38 bd 3a 67 5d 3c 68 5f b4 3d
       0.015855292 -0.04496675 0.013513381 0.0880726

embedding.conv1.weight f4 [64, 1, 4, 4]
000000 ed 45 63 3c 9e 9a ab 3c 36 f3 5a 3c f1 28 fb bb
       0.013871652 0.02094775 0.01336365 -0.0076647927
000010 91 98 d6 bc 94 6a 99 bc 24 6b 6b bc 02 08 b4 bb
       -0.026195796 -0.018727578 -0.014368806 -0.0054941187
000020 eb ae 01 bd aa 9a 58 bc 50 7c 37 ba 96 6f 6b 3c
       -0.031660955 -0.013220469 -0.000699942 0.014369866
000030 b5 7d 6b bc 1d c6 9a bb fe 34 68 3a 80 3b e5 3b
       -0.014373233 -0.004723324 0.0008857994 0.0069956183
000040 f7 bf 04 bc ff 7a c0 3b 20 bc e5 3b 8d a8 37 bd
       -0.008102409 0.0058740373 0.0070109516 -0.044838477
000050 af 5a d8 b8 c6 b3 64 3c 37 3f bc 3c 4e 1f d1 bc
       -0.00010316574 0.013958877 0.022979362 -0.025527623
000060 b9 b5 24 3c e2 b4 c8 3b c5 b2 25 3c a1 7b 1e bc
       0.010053092 0.0061250785 0.010113423 -0.00967303
000070 cc 16 6f ba ab 8d 17 3c a8 f7 e4 bb 7c 80 dc bc
       -0.00091205235 0.009250085 -0.0069875307 -0.026916735
000080 72 df a3 bb 12 d2 12 3d 40 96 15 bb 63 f5 00 3c
       -0.005001002 0.03584487 -0.0022825152 0.007871005
000090 92 94 30 3c 7a 7a a0 3c 9e 64 a2 3b 08 53 78 bc
       0.010777609 0.019589651 0.004955842 -0.015156515
0000a0 25 82 a8 3c c0 c0 9b bc 29 6d f2 3c 89 29 1a 3c
       0.02056987 -0.019012809 0.029593067 0.009409317
0000b0 de ff 62 bb 25 3b e6 ba 31 49 6d bb 93 f6 48 bc
       -0.0034637372 -0.0017565234 -0.0036206956 -0.012265819
0000c0 0b a6 9a 3c e4 60 2d bd 8a 06 1f bd 3e f2 14 bd
       0.018878004 -0.04232873 -0.038824596 -0.036363833
0000d0 7a 80 6c 3a e8 91 3b bc 2b 11 8c bc 81 c9 f4 bb
       0.000902183 -0.011448361 -0.01709803 -0.00747031
0000e0 12 cf b5 3c f0 bc 27 bd 8c db 25 bd 68 72 2d 3b
       0.022193465 -0.04095167 -0.04049258 0.0026465897
0000f0 2f fb 97 bc 38 40 3e bc a2 f0 e9 3b bf 34 6d 3c
       -0.01855239 -0.011611991 0.0071392814 0.014477908
000100 fa 8e a8 bc d2 43 92 bb 77 c9 19 3c e6 ee 00 3d
       -0.020575989 -0.004463651 0.009386412 0.03147783
000110 e9 7f ca bb a8 6d 93 bc 66 c0 a4 3a a0 46 eb 3b
       -0.006179799 -0.017996624 0.0012569546 0.00718005
000120 9d ef d3 ba ba 23 ea 3b 07 58 fb 3c c6 2e 4b 3c
       -0.0016169433 0.007145372 0.030681623 0.012401288
000130 98 95 da bc b2 f9 09 3d 88 7e 6a 3c 72 48 f4 bb
       -0.02668266 0.033685394 0.014312394 -0.007454925
000140 a2 4d 9a 3b b4 a9 aa 3c 04 9b 4b 3c cd 05 93 bb
       0.0047089616 0.020832874 0.012427095 -0.0044867755
000150 f5 f4 a5 3b af 9d 8c bb 23 06 2e bc 66 39 dd bc
       0.0050646015 -0.0042912583 -0.01062158 -0.027004909
000160 fe 44 a8 bb 95 33 5c 3b 71 65 04 bc 69 07 75 bc
       -0.0051351776 0.0033600081 -0.008080826 -0.01495538
000170 a5 7c 59 bc 07 cf 28 3c 4e ca f5 3b a6 31 15 3c
       -0.0132743465 0.010303265 0.0075009232 0.009106075
000180 58 84 9e 3c 7c ec 6a 3c af eb 66 bb b5 b7 f1 3c
       0.019350216 0.014338609 -0.0035235693 0.029506544
000190 5b ed 28 bd 4e eb ae bc d4 15 58 3c 5d ef 39 3b
       -0.041241985 -0.021352436 0.013188798 0.0028371431
0001a0 50 5a 08 bd 20 11 d1 bb 7e 10 19 3d ae 69 f3 bb
       -0.033289254 -0.0063802153 0.037369244 -0.0074283695
0001b0 fd c4 15 bd 29 ba 34 3c 4e b4 b0 bc 68 67 b6 bc
       -0.036564816 0.011030712 -0.021570351 -0.022266105
0001c0 d5 c3 07 3d 9c 02 38 3d 7c 0c d1 3c b1 d1 ac ba
       0.033145744 0.044924363 0.025518648 -0.0013185052
0001d0 de a1 24 bd 76 73 2e 3c b8 44 9a bb 18 f6 30 3c
       -0.04019343 0.010647645 -0.004707899 0.010800861
0001e0 73 38 04 3b c2 c4 c9 bb c0 b3 ee 3c 59 14 e1 39
       0.0020175248 -0.0061574886 0.029138446 0.00042930504
0001f0 c8 cc 01 3d b0 b9 08 3d 4f 06 1f 3d 35 60 ea 3c
       0.031689435 0.03338021 0.038824376 0.028610328
000200 d7 91 21 3c 33 9b 5e 3c 75 7b fd 3c 2c 38 6d bc
       0.009861431 0.013586807 0.030942658 -0.014478724
000210 3d fa 1b bc 7e 3e 17 3b d1 4b 17 3d 64 bd 32 bc
       -0.009520111 0.002307802 0.03693754 -0.010909412
000220 ed 3a d3 bb 70 98 58 3c 5f 50 57 3c 69 1c ea 3b
       -0.0064462335 0.013219938 0.013141721 0.0071445
000230 bf 15 0c 3d 46 b5 45 3c a5 5b 95 3a a9 fb cd bc
       0.034200426 0.012067145 0.001139511 -0.025144415
000240 e9 b4 55 bc 29 34 4a 3b 83 2e 08 bd b3 05 67 3c
       -0.013043621 0.0030853844 -0.033247482 0.01410048
000250 48 b4 80 ba f7 f4 74 bc b7 31 27 3c ea 7e 4c 3d
       -0.0009819353 -0.014950982 0.010204724 0.049925722
000260 46 31 b8 3b b1 e1 12 3a 69 f6 9c 3b c1 b7 68 3d
       0.005621108 0.00056030886 0.0047901166 0.056815866
000270 b5 90 8f 3b 48 36 d1 bb a6 f2 b6 3c f4 ab bb ba
       0.004381264 -0.0063846447 0.0223325 -0.0014318214
000280 4b 76 6a bc 55 f0 aa 3c ca 01 da 3c a2 b8 8f 3c
       -0.01431043 0.020866552 0.026612181 0.017544094
000290 9d f5 84 bb 9f eb 95 3a 8f 57 9c bc d0 6a e1 3b
       -0.0040575997 0.0011438018 -0.01908472 0.006879188
0002a0 10 af d3 bc 18 bb 19 3c 8e eb 54 bc 95 f6 01 bc
       -0.025840312 0.0093829855 -0.012995614 -0.007932325
0002b0 00 7b d3 bc b4 e0 9b bc fe 74 04 3d 42 80 20 bc
       -0.025815487 -0.019028045 0.032338135 -0.009796204
0002c0 de 9e a9 3c e4 d4 94 ba 41 8a dc bb e4 7c a1 3c
       0.020705637 -0.001135495 -0.0067303483 0.019712873
0002d0 44 9a ba bc df c5 2f bc fd 85 19 3c f8 a7 c8 bb
       -0.022778638 -0.0107283285 0.009370324 -0.006123539
0002e0 d6 70 7a bc f2 60 19 bb 4b 5f 1a 3b d3 ae c1 3c
       -0.015285691 -0.0023403731 0.0023555334 0.023642933
0002f0 14 d9 8a bc 1b 11 58 3a 60 02 6a 3b 14 03 96 bc
       -0.016949214 0.0008242295 0.0035706982 -0.018312015
000300 78 61 ca 3c cc 63 fc b9 33 16 6c bb 6e 7d 59 bd
       0.02470468 -0.0004813954 -0.0036023974 -0.053098135
000310 f7 33 1b 3c 7d f7 b6 bc 58 f1 b7 bb cc c4 d8 bb
       0.009472839 -0.022334808 -0.005613487 -0.006615257
000320 e6 34 2c bc c1 4c cb bb ba d2 8e bc 64 c0 67 3c
       -0.010510659 -0.006204218 -0.017434467 0.014144991
000330 08 47 c4 bc 1f 67 b7 bc 24 43 b6 bc 98 56 98 3b
       -0.023959652 -0.02238804 -0.022248812 0.0046489947
000340 a5 8d 25 bc 47 5f d6 bc 8a 0d a4 bc d6 76 b6 bc
       -0.0101045715 -0.026168479 -0.020025987 -0.022273462
000350 00 50 04 bd 10 06 d1 bc 62 da 85 bc d0 d1 48 3c
       -0.032302856 -0.025515586 -0.016339485 0.012257054
000360 bb c2 2c bc ad 02 30 bc 44 fb 10 bd 90 c6 47 3b
       -0.010544474 -0.010742825 -0.035395876 0.0030483343
000370 67 16 56 3c d5 aa 1b bd bb 09 e5 3b 31 74 07 3d
       0.013066865 -0.038004715 0.0069896854 0.033069793
000380 1e f1 91 3c 6e d6 1b bc 6a 9f 41 bc c7 a1 f6 3c
       0.017815169 -0.009511573 -0.011817792 0.030106438
000390 09 3e 43 3c 4a 18 d6 3c 58 68 c2 bc ca de 8b 3c
       0.011916646 0.026134629 -0.023731396 0.017074008
0003a0 1c 6f 55 3d 38 3c 7b ba c7 55 bf 3b 03 c2 18 3d
       0.052107915 -0.00095838634 0.005839083 0.0372944
0003b0 e3 ac 8f bb af d4 c9 bc 83 e2 e5 b9 aa a8 94 bc
       -0.0043846234 -0.024637548 -0.00043847048 -0.018146832
0003c0 82 0b 99 bc 18 0f 23 bc 9b 00 19 bc dd 25 14 bd
       -0.018682245 -0.009952329 -0.009338523 -0.03616892
0003d0 d9 a5 16 bb 03 d2 36 3b bb 25 5d 3c a1 4f 09 bd
       -0.0022987037 0.0027896173 0.013497765 -0.033523206
0003e0 a3 02 18 3c 77 f0 c2 3c 67 df 3f 3c 73 e5 41 bc
       0.009277972 0.023796303 0.011710978 -0.01183449
0003f0 1c 67 aa bb 79 ca 2c bc 22 83 d8 b7 e3 74 2a bd
       -0.00520028 -0.01054632 -2.581027e-05 -0.041615378

embedding.conv1.bias f4 [64]
000000 85 8f bf bc e4 4e 16 3d 1b be 2a 3d 0e ec 85 bc
       -0.023383865 0.03669633 0.041685205 -0.016347911
000010 39 6a 9d 3c 01 60 4e bc aa 16 a7 bc 20 dc 50 3c
       0.01921569 -0.012596131 -0.02039655 0.012747794
000020 18 df 2f bb 97 4b 97 3c 62 9e 67 bc 47 df 7c bc
       -0.0026835855 0.018468661 -0.0141368825 -0.015434093
000030 97 5f b9 bc 5a 27 f0 3b 9e 9f 22 3d 20 33 50 bc
       -0.022628589 0.00732891 0.039703004 -0.012707502
000040 d4 2f a5 bc 39 dd c2 bc 0c 64 6a 3c 5a 4c e4 bc
       -0.020164408 -0.023787128 0.01430608 -0.027868439
000050 11 12 68 bb 40 1c 87 bc 90 da 4e 3c bb 9a 47 bc
       -0.003541116 -0.016492963 0.012625352 -0.012182887
000060 4a 4e e9 bc 96 b3 93 3b 4d 20 8b 3b 32 20 38 bc
       -0.028479714 0.0045074923 0.004245794 -0.011238145
000070 d0 a8 00 bb 6d 6e d9 bb fb c7 19 bc 65 c8 02 bd
       -0.001963187 -0.006635478 -0.009386058 -0.031929392
000080 71 75 9a 3c 10 c3 74 bc 26 5f 68 bc cc 0f 48 bc
       0.018854829 -0.014939085 -0.014182841 -0.0122107975
000090 c0 30 83 3c a4 2c 15 bc e0 2b 6b 3c 81 2e 4c bc
       0.016014457 -0.009104881 0.014353722 -0.012462259
0000a0 c3 36 d9 bb a6 58 8f 3c 01 74 e3 3c fe 77 e0 3c
       -0.0066288426 0.017498326 0.027765276 0.027400967
0000b0 cf 07 7b 3c 97 d4 d0 3c 52 b6 82 bc 6a 82 dc 3c
       0.015321686 0.025491996 -0.015956078 0.026917655
0000c0 ce 13 60 bc 09 d2 d4 3c a9 76 ed 3c 34 9d 18 3d
       -0.013676597 0.025979059 0.028987246 0.037259296
0000d0 66 67 9c 3c 5a 3f 8f bc b8 f8 95 3b 2a 59 62 bc
       0.019092273 -0.017486263 0.0045767687 -0.013815204
0000e0 3b 7b bf bb cf 8a c3 bc ce 02 a7 3c 36 85 d1 bc
       -0.0058435476 -0.0238699 0.02038708 -0.025576215
0000f0 f1 b0 f3 3c d1 ff 9a 3a 61 a9 d7 bc 2b c7 3b 3c
       0.029747458 0.0011825507 -0.026325883 0.01146106

encoder.0.attention.queries.weight f4 [64, 64]
000000 a6 5a c6 3d 59 6d d7 bd 0e e4 0d be 51 db 7a bd
       0.096852586 -0.10518903 -0.13856527 -0.061244313
000010 7c 58 a9 bd d9 53 4f 3e a4 77 56 3d 60 a0 a9 3d
       -0.0826883 0.20246829 0.052360192 0.08282542
000020 f6 5a b8 3d 9f ab 68 3d d9 41 ff 3d 3b 42 6c 3d
       0.090017244 0.056804296 0.12463731 0.05768035
000030 40 b3 ab bc 5a 63 fd bd 59 98 22 be 78 cc 2a bd
       -0.020959496 -0.123724654 -0.15878429 -0.041698903
000040 e5 cb 51 bd 40 7d 23 3e f6 fe b3 3d db 56 b8 3d
       -0.05121984 0.15965748 0.08788864 0.09000941
000050 65 ed 96 b9 2b 40 76 bd ce 5d 94 3d 40 9b b9 3d
       -0.00028787102 -0.06011979 0.07244454 0.09062815
000060 2d da 35 3e ce 15 de 3d 75 9d 13 3e 5e ea c3 bd
       0.17759009 0.10844003 0.14415534 -0.09566186
000070 76 1a 42 bd f3 63 b5 3d 6d dc cd bc 2e 89 bd 3d
       -0.047388516 0.088569544 -0.025129521 0.092546806
000080 a1 8c 86 3d b5 19 0a 3e 01 1e 88 3c 15 56 58 3d
       0.065697916 0.13486369 0.01661587 0.05281647
000090 48 1b 6a 3c 19 53 5f 3d fd 15 e4 bd db f8 8f 3d
       0.014288731 0.054522607 -0.111370064 0.07029887
0000a0 0f ed 46 3d e8 01 8d 3d ea 6d d4 bd 8b 94 1c be
       0.04856592 0.06885129 -0.10372527 -0.1529104
0000b0 1e c3 ca bd 26 dc a4 bd 50 42 03 3d 3b e1 49 bd
       -0.09900497 -0.080498025 0.032045662 -0.049287062
0000c0 ad a5 25 3c ca 08 9e bc ae e2 b8 bd af a1 b7 bd
       0.010110301 -0.0192913 -0.09027611 -0.089663856
0000d0 a7 55 05 bb a3 9c 12 3c 6f 1f de 3c a2 b8 c8 3d
       -0.0020345242 0.008948478 0.027114598 0.09800841
0000e0 15 8d 7c bd 91 7b ac bc 52 ea a3 3d 82 09 40 bc
       -0.061657984 -0.021055015 0.080036774 -0.011721017
0000f0 a5 ba b1 bd 50 45 d5 bd 64 bd b8 3a 6b ff 9b bd
       -0.08678178 -0.10413611 0.0014094529 -0.076170765
000100 6e 24 f1 bd 47 8c c2 3d 9c 6b fb 3d 07 5a 34 3d
       -0.117745265 0.09499412 0.12276384 0.04403117
000110 c7 79 d7 3d c4 c0 d3 bd 32 5e 83 bd 3c 66 82 bd
       0.10521274 -0.103395015 -0.06414451 -0.06367156
000120 12 be 9c bd 76 cf a7 bc 1e 97 c3 bd 37 a0 ad bd
       -0.076534405 -0.020484667 -0.09550308 -0.08477824
000130 e4 1f 3f 3c 47 12 a2 3d 51 17 20 3e 45 07 59 3b
       0.011665318 0.079136424 0.15633895 0.0033115905
000140 5c 63 9c 3d 48 45 c0 bd 01 ed e6 bc f7 23 b4 bd
       0.07636139 -0.09388214 -0.028189184 -0.08795922
000150 b6 58 c1 bc b3 3e 44 3c 35 91 a2 bc 9c 8d 81 bd
       -0.023601871 0.011977839 -0.01984463 -0.06325838
000160 65 7d 06 be 84 7b 51 bd b3 09 ea bd 58 26 33 3d
       -0.13133772 -0.051143184 -0.11427631 0.04373774
000170 d1 c4 b2 bc 61 f5 0c 3d a1 bb 3b 3c e5 df cd bd
       -0.021822365 0.0344137 0.011458308 -0.1005247
000180 8b fb 96 bd 19 43 65 bd 6a ea e6 3b d4 a1 68 bc
       -0.07372197 -0.055972192 0.0070469873 -0.014198739
000190 51 a2 22 bd 45 5b be bd be bd b1 3d f1 42 ca bd
       -0.03970558 -0.09294752 0.086787686 -0.09876049
0001a0 93 6a f9 bc 3c 37 5a bd 1e 9c 80 3d 7f 8d 13 3e
       -0.030446326 -0.05327533 0.06279777 0.14409445
0001b0 45 fc ae 3d 6c e0 89 3d 08 de b5 bc e6 13 96 3d
       0.0854421 0.06732258 -0.0222006 0.07328014
0001c0 50 ae 55 bc c1 2c 45 3d 7b 68 b2 3d 99 d5 28 3e
       -0.013042048 0.048138384 0.08711334 0.16487731
0001d0 15 28 5f 3c 53 51 8d bd d1 a5 fb b9 b2 e3 da bd
       0.013620396 -0.06900277 -0.00047997994 -0.10687961
0001e0 b2 94 49 3d 7c 35 80 bc 11 36 49 bd 54 cd c7 bc
       0.049214073 -0.015650503 -0.049123827 -0.0243899
0001f0 e3 d2 a1 3d c5 c9 e6 3c 28 07 aa bc 7a 92 29 3d
       0.079015516 0.028172383 -0.020755365 0.041399457
000200 b8 c0 cf 3d 6a 6f 25 be a5 3f 7c bd a7 10 90 bd
       0.1014418 -0.16155782 -0.061584134 -0.07034426
000210 80 73 64 bd 90 79 44 3e f6 b6 37 3d ec c8 85 3d
       -0.055774212 0.19186997 0.04485222 0.065324634
000220 9e 6a c3 3d 13 aa 02 3d 15 e8 0a 3e 76 bd d0 3d
       0.0954182 0.031900477 0.13565095 0.10192387
000230 0d d3 1a bd d6 21 92 bd f2 d5 e5 bd 1a 0a c6 ba
       -0.03779893 -0.0713536 -0.112224475 -0.0015109212
000240 a8 2c 15 bd 39 fc 06 3e fe ec b6 3d 94 04 de 3d
       -0.03641954 0.13182153 0.089319214 0.10840717
000250 7a 5e 06 3c 61 cd 74 bc 6a d9 87 3c 4e c5 b4 3d
       0.008201236 -0.014941544 0.016583163 0.088266954
000260 4c a3 11 3e 7c 86 71 3d a8 92 b4 3d 26 12 51 bd
       0.14222449 0.058966145 0.08817035 -0.0510427
000270 d3 0e 03 3d 43 fe c6 3d 77 7d 8c 3b 30 5e c0 3d
       0.03199656 0.09716465 0.0042874175 0.09392965
000280 12 82 c3 3d ee f1 74 3d d3 98 05 3d fd c3 91 3d
       0.09546293 0.059801035 0.032616448 0.0711746
000290 32 66 ab bc 21 e6 9c 3d fb 11 2a bd f0 4e 9a 3d
       -0.020922754 0.07661081 -0.041521054 0.075345874
0002a0 04 9a 1e 3d 50 2c b9 3d 90 66 9e bd 11 ec 09 be
       0.0387211 0.09041655 -0.07734406 -0.13468958
0002b0 5f f5 7a bd e9 fc 09 bd bd 69 16 3d 31 3e 80 bd
       -0.06126916 -0.03368846 0.036721934 -0.06261862
0002c0 f9 f2 d6 bb fe 65 0e bc d7 2e d2 bd fc 3a 18 be
       -0.0065597263 -0.008691309 -0.1026284 -0.14866251
0002d0 63 d9 08 bd 9c 39 8a 3a 94 30 34 bb b4 5a e4 3d
       -0.03341044 0.0010545733 -0.0027494775 0.11150113
0002e0 2f e2 d7 bd d6 82 f8 3a cb 7f 8d 3d cb 7f dd 3c
       -0.10541188 0.0018959891 0.0690914 0.027038475
0002f0 b8 0a da bd 5d 48 ac bd cb 93 10 3d 4a 53 6f bd
       -0.10646576 -0.0841224 0.035297196 -0.05842904
000300 08 c5 82 3d 0a 50 0c be 31 8d f7 bd 22 7f b6 bd
       0.06385237 -0.13702407 -0.12087477 -0.089109674
000310 c2 03 35 bd e0 e3 4a 3e 6e b6 97 3b 8b 72 a2 3d
       -0.044193037 0.1981349 0.0046299016 0.079320036
000320 87 4b 6e 3d 33 66 b2 3c 9c 33 7e 3d 09 8c c7 3d
       0.058177497 0.021777248 0.062060937 0.097435065
000330 5f 47 46 bd 88 14 9a bd e4 e6 0b be f5 0d 11 bd
       -0.04840791 -0.07523447 -0.13662297 -0.0354137
000340 03 88 17 bd 81 1d d3 3d 85 a2 87 3d 95 42 91 3d
       -0.036994945 0.10308362 0.06622795 0.07092778
000350 c4 c3 a8 3a f7 7e 93 bc 3e 20 66 3d 15 b0 05 3e
       0.0012875726 -0.018004877 0.056183092 0.13055451
000360 84 44 00 3e c4 d2 76 3d 93 7d ad 3d 5d 7c c2 bd
       0.12526137 0.060259596 0.08471217 -0.09496377
000370 58 bf 85 3c ef ce 26 3d f5 4f 2b bc 6e cf 52 3d
       0.016326591 0.04072469 -0.010456075 0.05146735
000380 9d 14 cb 3d 24 19 9b 3d 12 90 52 38 73 a1 8f 3d
       0.09916041 0.075731546 5.0202078e-05 0.07013216
000390 3c ce 0a 3d 6b a0 3e 3d c4 f6 8b bd cc 23 50 3d
       0.033888087 0.046539705 -0.06834176 0.05081539
0003a0 3c 94 06 3d 2b 21 49 3d d1 13 83 bd da 74 ec bd
       0.03285621 0.049103897 -0.06400264 -0.11545725
0003b0 17 19 a2 bd 6b 27 21 bd 80 18 20 3d 70 a6 31 bd
       -0.07914942 -0.039344233 0.039085865 -0.043371618
0003c0 4d ef 59 3c e1 de ad 3c ed 8f 9f bd ed 2f a1 bd
       0.013301683 0.021224441 -0.077911235 -0.07870469
0003d0 7e 31 a1 3c 3f 75 f6 3c 4f cc 46 3c cc 64 95 3d
       0.01967692 0.030085204 0.012133672 0.07294616
0003e0 51 08 7c bd 33 24 39 bc 83 b0 84 3d 0b 1f a8 bb
       -0.06153137 -0.0113001345 0.064789794 -0.0051306537
0003f0 50 df 58 bd c5 39 63 bd 1c bf 99 3d 93 fa 12 bd
       -0.052947342 -0.055475015 0.07507154 -0.035883497

encoder.0.attention.queries.bias f4 [64]
000000 6c ec f5 bd f7 63 04 3e 0c 97 e3 bd 1f be ec bd
       -0.120079845 0.12928759 -0.11112794 -0.115597
000010 ca 7b de bd ba 4e f8 bd 7a 0a 0b be 83 37 03 be
       -0.10863455 -0.12124391 -0.13578215 -0.12814145
000020 25 68 01 be 71 cd 0c be 91 c4 01 be 1a 8c dc 3d
       -0.12637384 -0.13750245 -0.1267264 0.1076891
000030 f2 6b e5 3d 1e 42 d4 3d 3e e8 d6 bd 74 d4 de bd
       0.112022296 0.10364173 -0.104935154 -0.10880366
000040 b6 56 f5 bd 88 ed de 3d 6e e6 e8 3d e6 e9 d3 3d
       -0.119794294 0.10885149 0.11372076 0.10347347
000050 53 83 e4 bd 32 9e 00 be 22 16 03 be 2a 41 fd bd
       -0.111578606 -0.12560347 -0.12801412 -0.12365945
000060 e9 95 07 3e 01 d9 f1 3d dd a4 0a 3e e9 be e8 3d
       0.1324078 0.11808968 0.13539453 0.11364538
000070 e8 5c de 3d b7 7d e6 3d 12 35 f0 bd 38 ac f4 bd
       0.10857564 0.11254447 -0.11728872 -0.119469106
000080 50 64 30 3e 98 a5 31 3e a1 66 20 be 96 2f 28 3e
       0.17225766 0.17348325 -0.1566415 0.16424403
000090 4d 29 1f 3e 68 f9 2d 3e fe fc 37 be 9a de 24 be
       0.15543099 0.16989672 -0.17967603 -0.16100541
0000a0 bd 20 32 3e 7c 5b 13 3e 6d 91 2b be e2 85 30 be
       0.17395301 0.14390367 -0.16754694 -0.17238572
0000b0 b7 c2 30 be 99 15 2c 3e 98 bd 39 3e 3b 94 41 be
       -0.17261778 0.16805114 0.1813873 -0.18904202
0000c0 03 95 c6 bd 9a c1 a2 3d 04 42 d6 3d 52 c5 b8 bd
       -0.096963905 0.07947083 0.1046181 -0.09022011
0000d0 88 6a be bd 84 e7 cb bd 83 2f e4 3d 5a b7 d8 bd
       -0.09297663 -0.099562675 0.11141875 -0.105818465
0000e0 77 c6 c6 bd b0 67 d1 3d 38 04 ca 3d 50 ed ab 3d
       -0.09705823 0.10224855 0.09864086 0.08394873
0000f0 28 88 dc bd 19 a7 c8 3d 2e 7b ce 3d 66 79 ca bd
       -0.10768157 0.09797496 0.100820884 -0.09886436

encoder.0.attention.keys.weight f4 [64, 64]
000000 09 8d 36 3e c8 cd 5d bd eb f6 8a bd 51 6c 82 3d
       0.17827238 -0.054151326 -0.06785377 0.06368316
000010 a6 60 91 bd 6b 39 49 bd 81 a2 c9 3d 3f 94 c6 bd
       -0.07098512 -0.049127024 0.09845448 -0.096962444
000020 17 d0 80 bd 58 02 a3 bd 12 43 a0 bc fb f8 36 3d
       -0.0628969 -0.079594314 -0.019563232 0.04467104
000030 3a 77 15 3e ff 4b b6 3d 0b a7 35 bd db 22 9e 3d
       0.14596263 0.08901214 -0.044348758 0.07721492
000040 ce 71 97 3d e0 18 0f be 3e 6a 9f bd 04 21 b2 bd
       0.073947534 -0.13974333 -0.07783936 -0.086977035
000050 a0 5d 0c 3e 96 24 53 3d 53 5e 59 3d 20 b2 d9 bd
       0.1370759 0.051548563 0.05306847 -0.10629678
000060 a6 1b 37 be 9e b5 d6 bd 46 93 cd bd cd c0 81 3d
       -0.17881641 -0.104838595 -0.10037856 0.06335602
000070 3f 32 26 3e 26 7c 68 bd 20 ff 9e bd 15 5d 30 3d
       0.16230105 -0.056759022 -0.07763505 0.04305752
000080 91 55 8f bd 60 d9 3f be a5 e7 14 3e fe 39 e0 bc
       -0.06998742 -0.18735266 0.1454149 -0.027371403
000090 61 7d ec bd d7 3f 32 3d 73 8b b6 bd 2b 72 f5 3b
       -0.11547352 0.043517914 -0.089133166 0.0074904165
0000a0 24 9b 31 3c ec d5 6a bd 42 91 4c bd 5f b4 83 bd
       0.010840211 -0.057332918 -0.049943216 -0.064308874
0000b0 62 be 45 bb 80 3d 04 be 6a 76 b8 bd 78 c3 9b bd
       -0.0030173291 -0.12914085 -0.09006961 -0.07605642
0000c0 bb ab b0 3d 23 a9 03 be e3 63 52 bc 3a e7 ae bc
       0.08626505 -0.1285749 -0.012841198 -0.021350492
0000d0 e5 c9 14 bd 64 7b 37 3d 92 f8 86 be 3d 33 0b be
       -0.036325354 0.04479541 -0.2636152 -0.13593765
0000e0 cf 62 53 3d 1c 36 06 3e cf 4f 9f bd 77 24 b9 3c
       0.051607903 0.13106579 -0.07778894 0.022600396
0000f0 5e 61 bc bd c2 b2 8c bc 01 4d 1b 3e e1 3f 76 bc
       -0.09198259 -0.017175082 0.15166093 -0.015029878
000100 3d 3b 6f be 79 6f 9d 3d 2d 5e 0f 3d d4 60 b9 bd
       -0.23362441 0.07687277 0.035001922 -0.090516716
000110 fd 22 ad 3d d4 6b 4c bd 1c 1e c6 bd 4c c7 f7 3d
       0.08453939 -0.04990752 -0.09673712 0.1209856
000120 0d 7a 0a 3e 76 77 b7 3d 81 2c 5d 3c d3 e6 a3 bd
       0.13523121 0.08958332 0.01349938 -0.080030106
000130 8e 59 23 be df 45 ac bd ae 69 b4 3d f5 72 aa bd
       -0.15952131 -0.08411764 0.08809219 -0.083227076
000140 14 7c 28 be 9b 4c db 3d f4 31 d5 3d 2c 9c db 3d
       -0.16453582 0.10707971 0.104099184 0.10723147
000150 70 af db bd 43 1f ab bd dc fa 8d 3b 1a 94 bb 3d
       -0.107268214 -0.08355572 0.0043328833 0.091591075
000160 76 65 26 3e 51 cd 30 3e 65 2b ee 3d 97 24 cf bd
       0.16249642 0.17265822 0.116293706 -0.10114401
000170 d6 85 87 be 76 9d 07 3e fb c8 4f 3d ed 33 c8 bd
       -0.26469296 0.1324366 0.05072878 -0.09775529
000180 e4 e0 f4 3d 01 da 20 3e 6b 18 16 be b1 76 0b 3d
       0.11956957 0.15708162 -0.14657752 0.03404874
000190 2d e0 0b 3e 57 0c e9 bc ec d6 87 3d 75 7b 58 bd
       0.13659735 -0.028448267 0.0663279 -0.052852113
0001a0 30 ea 36 bc 41 0e b1 3d 83 91 c6 3d eb 33 65 3d
       -0.011164233 0.08645297 0.09695723 0.055957716
0001b0 68 04 8a 3d f9 b2 07 3e 7b 5e 93 3d 16 75 01 3e
       0.06739122 0.13251866 0.07195755 0.12642321
0001c0 9f 30 e0 bd 7b 92 15 3e f3 a0 11 bd 54 43 a1 3d
       -0.10946774 0.14606659 -0.035553884 0.0787417
0001d0 41 9b 6e 3d 39 77 a2 bd ff e5 75 3e b7 74 0e bb
       0.05825353 -0.07932896 0.24013518 -0.0021737048
0001e0 60 05 93 bd 57 7e 0e be c7 38 1e 3e bd 6b 6f bd
       -0.071787596 -0.13915382 0.15451346 -0.058452357
0001f0 cd 3b dd 3d 75 d8 89 3c f0 93 2c be 1c 7a 3e 3d
       0.10802422 0.016826848 -0.16853309 0.04650317
000200 9e 7f 08 3e 43 62 27 bd 47 c8 24 bd b6 a9 a5 3d
       0.13329932 -0.040865194 -0.04023006 0.080890104
000210 8a 03 c1 bd 8b ee f6 bc 8f ac d2 3d 94 dc da bd
       -0.09424503 -0.030143043 0.10286819 -0.10686603
000220 5e 87 be bd 13 da 76 bd dd 50 08 bd 5e fd 1c 3d
       -0.09303163 -0.060266566 -0.033280242 0.038327567
000230 2b f8 d3 3d 1a 74 8f 3d ae 33 5b bd e1 cd 3d 3d
       0.10350069 0.070045665 -0.053516082 0.04633892
000240 ac 16 77 3d d9 c8 f2 bd a8 e4 9b bd 17 f3 08 be
       0.060324356 -0.11854715 -0.07611972 -0.13373981
000250 ff 97 95 3d 75 e2 56 3d 32 17 2e 3d a8 07 d8 bd
       0.073043816 0.05246206 0.04250259 -0.10548335
000260 d5 a8 2a be fe 4a ce bd 16 c6 ee bd b4 2a c1 3d
       -0.16665967 -0.100728974 -0.11658876 0.09431973
000270 70 f5 48 3e be 8d 0d bd 27 4d e6 bd 29 e3 0a 3d
       0.19624877 -0.034559004 -0.112451844 0.033908043
000280 56 a5 e2 bd 41 73 2d be 1d b6 e6 3d 23 b7 22 bd
       -0.110666916 -0.16938497 0.11265204 -0.039725434
000290 bc c6 33 bd 48 4b 3a 3d d1 9d 51 bd 25 84 40 bd
       -0.0438907 0.04548195 -0.051175896 -0.047001023
0002a0 e0 dd 80 3c a3 3f 35 bd 7d 17 62 bd 79 e9 f0 bc
       0.015730798 -0.04425014 -0.05519818 -0.029408203
0002b0 69 43 e7 bb 3b 36 b0 bd d1 89 a8 bd ba d3 87 bd
       -0.0070575965 -0.08604094 -0.082294114 -0.066321805
0002c0 f2 3e 9e 3d 33 0e c6 bd 78 ba 1f 3d 86 4e 0d bd
       0.077268496 -0.09670677 0.03899619 -0.034498714
0002d0 61 68 8a bc 04 72 b2 3d 17 73 80 be 83 f7 e1 bd
       -0.016895475 0.08713153 -0.25087807 -0.11033537
0002e0 6a e5 7e 3d 0c 87 c5 3d 37 31 1a be b5 fd 4b 3d
       0.062230505 0.09644899 -0.15057836 0.0498025
0002f0 a2 cc 54 3c eb 72 04 bd 6a 47 28 3e e2 b3 43 bc
       0.012988241 -0.032336157 0.16433492 -0.011944743
000300 49 f9 25 3e 19 a8 9a bd fd 2f 8f bd 10 19 cf 3d
       0.16208376 -0.07551593 -0.06991575 0.10112202
000310 62 c4 c8 bd 97 45 68 bd 58 2a 1b 3e 1b dd a5 bd
       -0.09803082 -0.05670699 0.15152872 -0.08098813
000320 13 cb a1 bd cd 9e 57 bd 59 ef 43 bc af 13 37 3d
       -0.079000615 -0.05264168 -0.01195892 0.044696506
000330 11 2e bb 3d 1d 9f a6 3d df b4 7f bd d9 21 47 3d
       0.09139646 0.08135817 -0.06242835 0.048616264
000340 9c a0 5c 3d b4 b3 99 bd ff 46 7a bd f5 41 f1 bd
       0.053864107 -0.07504979 -0.061102863 -0.117801584
000350 22 6f 93 3d 45 7d 29 3d bd 51 6f 3d 83 1b d8 bd
       0.07198931 0.041379232 0.05842756 -0.105521224
000360 66 8d 12 be 97 ca d7 bd 97 d6 07 be f2 b1 9a 3d
       -0.14311752 -0.10536688 -0.13265453 0.075534716
000370 f3 de 60 3e 0c a8 b5 bd 29 e7 ae bd 6b c9 92 3d
       0.21960048 -0.08869943 -0.08540184 0.07167324
000380 38 2d e3 bd 61 fd 2b be 31 e2 19 3e f7 97 06 bd
       -0.11092609 -0.16795875 0.15027691 -0.03285977
000390 74 bf f8 bd 52 d6 25 3d 87 cf ac bd a7 8b ba 3c
       -0.12145892 0.040487595 -0.0843802 0.02277167
0003a0 0b 73 77 3c 18 ea c3 bd 89 6d 3a bd 41 16 77 bc
       0.015103112 -0.09566134 -0.045514617 -0.015080989
0003b0 bd aa 09 bd 47 1b e6 bd 9f ac 89 bd e7 23 9d bd
       -0.033610094 -0.112356715 -0.06722378 -0.076728635
0003c0 71 51 bd 3d b9 c9 d1 bd e4 6d c2 3b ff bf ba bd
       0.09244049 -0.10243554 0.00593351 -0.091186516
0003d0 93 91 99 bc c6 3c 39 3d c2 7f 84 be 0a 65 ad bd
       -0.018746173 0.045223974 -0.2587872 -0.08466537
0003e0 52 17 8f 3d 9c b4 a6 3d 8b 0b ec bd d6 19 32 3b
       0.0698687 0.08139917 -0.11525639 0.0027176044
0003f0 71 9e 4b bd 0a af 38 bd 2f 78 20 3e 16 c7 b2 bc
       -0.04971165 -0.045088805 0.15670846 -0.021823447

encoder.0.attention.keys.bias f4 [64]
000000 29 03 d9 38 63 c4 c3 b7 b3 69 b4 b5 82 0b a2 38
       0.00010347955 -2.3337261e-05 -1.3441808e-06 7.7269055e-05
000010 9f e5 a4 37 b1 ee 43 38 87 90 11 39 27 7e 36 39
       1.965725e-05 4.671392e-05 0.00013882118 0.00017403868
000020 e1 e6 29 39 38 bf 14 39 eb 5f 84 b8 3d df 5d b9
       0.00016203105 0.00014185614 -6.3121166e-05 -0.00021159365
000030 e1 32 8a b9 2f c7 35 b8 f6 0e 34 38 fa e6 e1 38
       -0.0002635932 -4.3339267e-05 4.2929278e-05 0.00010771859
000040 f4 aa d8 38 a8 51 81 38 56 5c 35 b8 f9 70 8c b8
       0.00010331525 6.166409e-05 -4.3239757e-05 -6.696763e-05
000050 c3 0e be 38 1d fd 04 39 5d f0 a9 38 da ab dd 37
       9.0626556e-05 0.00012682793 8.103319e-05 2.6425278e-05
000060 2f 92 eb 38 b2 75 3a b8 81 55 1d 39 c0 95 83 38
       0.00011232902 -4.4455468e-05 0.0001500454 6.27446e-05
000070 5c 48 2f 39 6b c3 1c b9 bd 1f 7d 37 64 c2 89 b7
       0.00016716257 -0.00014950118 1.5087365e-05 -1.6422193e-05
000080 c8 5f 5d 38 06 5a 6b 39 ba a7 76 b9 56 1f 73 38
       5.277971e-05 0.00022444883 -0.00023522871 5.79649e-05
000090 c0 21 d9 38 d8 97 a8 38 06 4e 43 b9 ee 8b ed b8
       0.00010353653 8.039147e-05 -0.00018625715 -0.000113271046
0000a0 60 82 43 39 86 15 ad 38 3c 38 a1 b8 e5 4b 96 b9
       0.00018645218 8.253292e-05 -7.687553e-05 -0.00028666775
0000b0 ef 41 14 b9 16 eb 2d 39 a5 76 d1 37 29 3b d5 b8
       -0.00014138942 0.00016586142 2.496999e-05 -0.00010167651
0000c0 9e 08 b5 b3 ce 2c a4 b7 c0 81 8e 37 9b 2f 02 b8
       -8.430037e-08 -1.9571187e-05 1.6988139e-05 -3.103875e-05
0000d0 28 1a 4c b8 e4 e9 f9 37 28 9d a0 38 46 ab b7 37
       -4.866175e-05 2.9792027e-05 7.658667e-05 2.1895055e-05
0000e0 88 0e 4a b7 00 61 32 b8 f5 0e b3 37 1d a7 1d b7
       -1.2043522e-05 -4.2528845e-05 2.1345428e-05 -9.396838e-06
0000f0 86 52 65 b8 5d 58 8d 36 84 9d 15 39 56 47 45 b8
       -5.467471e-05 4.2124143e-06 0.00014268426 -4.7034897e-05

encoder.0.attention.values.weight f4 [64, 64]
000000 0d 2d cf bd 7f 92 bc 3b dd fd fc 3b e0 1f 42 3c
       -0.10116015 0.0057547684 0.0077206925 0.01184842
000010 6a 49 0a 3c 6d 9b fa bc 00 96 ad bd 7a 3e 3c bc
       0.008440355 -0.03059169 -0.08475876 -0.011489505
000020 4d e8 69 bc bb 4b 09 3c 3b 94 3b bd c9 16 46 bd
       -0.014276576 0.008379872 -0.04579566 -0.048361573
000030 f6 6d 33 3c 1f fb 41 3a ea 23 ac bb 31 e4 66 bb
       0.01095151 0.00073997857 -0.0052533047 -0.0035231228
000040 d8 68 5b 3c 11 61 11 bd ee 1d f8 bc e9 56 47 3a
       0.013391696 -0.03549296 -0.03028771 0.0007604198
000050 79 e4 f2 3b 96 3e 6c bc 55 d0 ab 3a 43 4f 4d 3c
       0.00741249 -0.0144192185 0.0013108352 0.0125311045
000060 2a 98 0f 3d d8 29 58 bb a9 f2 f6 bb 8a b4 05 3d
       0.035057224 -0.0032983925 -0.0075362516 0.03264288
000070 cb e1 9d bb 25 4a ae 3c d5 18 a6 bb f3 96 6c bc
       -0.0048181764 0.02127559 -0.005068878 -0.014440286
000080 70 e6 88 3b 4e f6 6d 3c bc 65 3b bd ff 12 f6 bc
       0.004177861 0.014524056 -0.04575132 -0.030038355
000090 16 a3 f6 3c 34 15 66 3c bd 0e 2a bd de 39 d1 bb
       0.030107062 0.014043141 -0.04151796 -0.006385072
0000a0 0d 78 50 bc 71 32 75 bc 76 ce 98 bb 06 b8 5b 3c
       -0.012723935 -0.014965639 -0.004663284 0.013410574
0000b0 7e 6c 04 3d 87 2d ff 3c 51 30 1f 3d a3 a4 2f bd
       0.03233003 0.031149639 0.038864437 -0.04288162
0000c0 e6 1a 0a bb 85 c7 c3 bc af b9 45 bc 8c 55 a2 3b
       -0.0021073162 -0.02389885 -0.012068196 0.0049540456
0000d0 ce 30 25 3d 48 92 e7 ba eb 16 c3 3d 57 f9 30 bc
       0.040329747 -0.0017667497 0.09525856 -0.010801635
0000e0 a3 f3 dc 3c b4 15 49 bb 42 fc be bc a4 a7 9a 3c
       0.026971644 -0.0030683102 -0.023313645 0.018878765
0000f0 8c 9b 06 bb e8 fc b4 bc 5f 32 b9 bc 00 8a 5c 3b
       -0.002053949 -0.022093251 -0.022607027 0.003365159
000100 23 68 9a 3c 3d c0 b5 bc 91 9a fd 37 2d d0 01 bd
       0.018848484 -0.022186393 3.0231926e-05 -0.031692673
000110 8b ce 82 3c 1e 04 0a 3d 67 8b d7 3b b3 89 5c ba
       0.015967628 0.033695333 0.0065778974 -0.0008412853
000120 91 2c 05 3c 30 08 1f 3d 89 38 cc 3c 7a f1 92 bb
       0.008128301 0.038826168 0.024929302 -0.0044843527
000130 3c 9c 11 3d 0a 09 34 bc c5 30 a8 3c a3 5e 96 bc
       0.035549387 -0.010988483 0.020531068 -0.018355673
000140 7b d2 e2 3c 62 0f 0d 3c 2d e5 5c bb bb 52 2b 3c
       0.027688256 0.008609625 -0.0033705935 0.010456736
000150 df ee 01 bd 38 8d 0c 3c 92 f3 c3 bc ec a6 35 3d
       -0.031721946 0.008578591 -0.023919854 0.044348642
000160 43 fe 4d bc c2 60 9e bb 2c b9 6b 3c a2 d9 8c 3c
       -0.012572828 -0.004833312 0.01438741 0.01719362
000170 d1 12 29 bb f2 4d 1f bc 56 cf af bc 52 d3 19 ba
       -0.002579857 -0.009723173 -0.02146117 -0.0005867976
000180 1c ca a7 3b bd a4 3c bb eb a6 1e bd 25 a9 6a 3c
       0.005120529 -0.0028784715 -0.038733404 0.014322554
000190 b3 7b 8c 3b 04 d5 b7 3c 7a f1 e1 3c 88 ed b6 3c
       0.004287207 0.022440441 0.027580965 0.02233006
0001a0 cd 27 35 3c 00 ca 60 bc fa e4 a5 3b 52 70 0a bd
       0.0110568525 -0.013720036 0.0050626965 -0.033798523
0001b0 9d 20 0e 3d 36 65 f8 3b bd aa 20 3c 1d df cb 3c
       0.03469907 0.0075804247 0.009806332 0.024886662
0001c0 36 e7 83 bc a7 91 8d bc 0d 65 ac bc 05 80 6e 3d
       -0.01610146 -0.017281367 -0.021044279 0.058227558
0001d0 3b de 8c bc d5 93 7f 3c 0e 11 cc bc 3f 19 9e bc
       -0.017195811 0.015599211 -0.024910476 -0.019299148
0001e0 c0 8a b8 3c 24 3b 48 ba 55 6a b9 bc 01 13 14 bc
       0.022527099 -0.0007638207 -0.02263371 -0.009037734
0001f0 5b d7 da bb 60 2a 06 3d b7 03 99 3c cc eb b1 bc
       -0.0066785044 0.032755256 0.01867853 -0.021718882
000200 2a a3 0b 3d ed 77 88 3c 1e 93 e8 bc 15 ef c3 bc
       0.034091152 0.016658748 -0.028390463 -0.023917714
000210 b0 ff 12 3d 57 16 28 3d 9e 5d ad 3c d8 e2 d0 bb
       0.035888374 0.04103693 0.021162804 -0.006374698
000220 ef 68 58 3b be 15 1f bb 97 4e c8 bb 61 87 b7 bb
       0.003302153 -0.0024274434 -0.0061128843 -0.005600855
000230 28 41 cb bc 94 72 15 3a 2f 24 b0 3c 9d 81 24 bd
       -0.024811342 0.00057009724 0.021501629 -0.04016267
000240 36 a7 4d 3c 2e 42 a2 3c c5 60 8d bc 66 18 26 3d
       0.012552073 0.019806948 -0.017258057 0.040550612
000250 e5 9b d0 bb 20 2b be bb e3 6c a8 3c a1 81 9d 3c
       -0.0063662403 -0.0058034807 0.020559734 0.019226851
000260 eb 07 83 3c 49 35 e5 3c 93 8a dc 3b 42 15 eb bb
       0.015994987 0.02797951 0.0067303865 -0.007174165
000270 e5 0a 94 bc a1 c2 14 3d d4 9c 7b bd 14 5a c7 bc
       -0.018071601 0.036318425 -0.06142886 -0.024334945
000280 95 11 5b 3d 3f 2b 3b bc d5 10 61 bc 27 c1 f4 3c
       0.053483564 -0.011423885 -0.013736923 0.029877258
000290 f1 d1 9b bc ec 8b 88 bc f9 d8 71 3b 57 2d 14 bd
       -0.019021006 -0.016668282 0.0036903007 -0.036176052
0002a0 7a d5 e4 bb a6 a9 39 bd 56 5c 60 bb 4b f7 42 ba
       -0.006983456 -0.045327805 -0.0034234724 -0.0007437362
0002b0 cf c4 83 bc 3d cd 6d bc 9e 03 c7 3c 80 0a 06 3d
       -0.016085057 -0.014514265 0.024293717 0.032724857
0002c0 40 e2 d8 bc 05 4e c0 ba 53 ff 04 bc 61 69 07 bc
       -0.026475072 -0.0014671689 -0.008117515 -0.00826487
0002d0 30 71 a7 bc 81 d1 dc bc b9 63 6c 3c 04 9d 96 3d
       -0.020439714 -0.026955368 0.014428073 0.07354167
0002e0 1f 98 b5 ba 39 eb 8b bb c8 d5 4a bc 3d a6 af bc
       -0.001385454 -0.004269984 -0.012380071 -0.021441573
0002f0 99 38 05 bc 2a 63 96 bd 2a ec 5d bc 10 95 18 bd
       -0.00813117 -0.07343133 -0.013545075 -0.037251532
000300 f7 7b 13 3d a3 22 1d 3c 2a 6f 4d 3d b5 33 ed bb
       0.036006894 0.009590778 0.050154842 -0.00723883
000310 45 07 08 3d f3 57 20 3d 7b cf 5f 3c 00 09 7e bc
       0.033210058 0.039146375 0.013660307 -0.015505075
000320 10 fe 98 3c 35 d1 4a 3c 86 b7 25 3d 64 fd 44 3d
       0.018675834 0.01237898 0.040458225 0.048093215
000330 31 5a 51 3b aa ab 4a bd ee 6d 35 3c 24 13 c1 bc
       0.0031944627 -0.049480118 0.011073573 -0.023568697
000340 4d f6 4f 3c 8f a7 85 bc b1 f1 bd bc 9b 66 4f 3c
       0.012693 -0.01631525 -0.023186537 0.01265874
000350 09 8d 3c 3c 3d 68 5c bc 80 75 01 3d 51 76 4e 3c
       0.011508235 -0.013452587 0.031606197 0.012601451
000360 42 38 26 bc 5d 20 ad 3c 5a 5f c9 3c 47 02 ff 3c
       -0.010145249 0.021133596 0.0245816 0.031129016
000370 ca ef ba bb 9e d4 9d 3c 4b 65 47 3c 70 9d 04 bd
       -0.0057048546 0.019266423 0.012170146 -0.032376707
000380 fc 02 1b 3c 44 76 50 3c c9 d7 6a 3c d3 46 0a 3d
       0.009461161 0.012723509 0.014333674 0.03375895
000390 e7 d3 5a bd d3 e4 59 3c 67 d6 3a 3b 00 80 d9 bc
       -0.053424742 0.013299185 0.0028509141 -0.026550293
0003a0 c8 79 13 3d a0 b9 a2 3c 41 6f 00 3d 4a 88 17 bc
       0.03600481 0.019863904 0.0313561 -0.009248802
0003b0 a2 f4 9e bd 2a 38 09 3d 7c 16 a9 bd e1 c6 f3 3c
       -0.07761504 0.033500828 -0.08256242 0.029757919
0003c0 31 f7 25 bd 56 8d ea bc 14 3d 59 b9 0d 70 30 3d
       -0.040518943 -0.028631847 -0.00020717486 0.04307561
0003d0 8c 66 37 3d b5 4a bc bb 1b d6 9f bc 43 ff 76 bc
       0.04477553 -0.0057462105 -0.019511273 -0.015075508
0003e0 f8 d5 01 3c 37 60 9b 3b 53 04 47 3d 97 3f 4a bc
       0.007924549 0.0047416943 0.04858811 -0.012344263
0003f0 e5 6a 23 3c a6 ba 44 3d 41 3a 8b 3c a6 6c ee bc
       0.009974216 0.048029564 0.016995551 -0.029104542

encoder.0.attention.values.bias f4 [64]
000000 c0 f6 16 39 22 62 35 bb 4d a6 66 bc 89 72 c8 bb
       0.00014397036 -0.00276769 -0.014077735 -0.0061171693
000010 9c 06 68 bc 5d 20 31 3a 50 21 ca bb 35 56 93 3c
       -0.014161732 0.00067568367 -0.006168522 0.017985443
000020 ab 92 7c 3c a5 fd 63 3c c5 fe 35 3b 42 73 b6 3b
       0.015415828 0.013915454 0.0027770263 0.005567939
000030 08 56 08 bc 8a eb 1d bd 20 5d c8 3b 03 b1 22 bb
       -0.008321293 -0.038554706 0.006114617 -0.0024824745
000040 76 9b ba bc 1d 7f 35 bc 36 bb 92 3c dd 87 5b bc
       -0.022779208 -0.011077669 0.017911535 -0.013399092
000050 23 7b 91 ba 65 20 9e bb db bd eb 3b 8b 55 c5 3b
       -0.001109932 -0.004825639 0.0071942634 0.0060221604
000060 28 76 1a bc 1d 8e 13 bb b9 40 97 3b ce 28 01 bd
       -0.009427585 -0.0022515126 0.00461587 -0.031533055
000070 b1 1a a3 bb 37 9d 49 3c c7 4e 68 bc 8c 0a 8a bb
       -0.004977547 0.012305549 -0.014178938 -0.004212683
000080 9e dd f7 3b a7 56 52 bc f0 4f ef 3b 04 bc 7b bb
       0.0075642606 -0.012838042 0.0073032305 -0.0038411627
000090 e5 52 9d 3c b0 7f 01 3a cf 2f 49 bc d2 2c f6 3b
       0.019204566 0.00049399864 -0.012279465 0.007512667
0000a0 49 f9 a1 3b 29 64 57 3c 1b a7 07 bc bb af e4 3b
       0.004943047 0.013146439 -0.008279587 0.0069789565
0000b0 6c 7f af 3b 2d c1 9b 3b 4d 2a ba bb 95 e1 20 bc
       0.005355766 0.004753253 -0.005681312 -0.009819408
0000c0 fc 9c fa 3a 42 01 de bb 0f 0d 48 3c da 36 e8 3b
       0.0019120271 -0.0067750523 0.012210145 0.007086617
0000d0 20 c9 69 3c 2f da b1 bb 04 fa 3b 3b fc d1 d9 bb
       0.014269143 -0.005427621 0.0028682956 -0.0066473465
0000e0 6b 2e df bc 01 ee 5f 3b 13 a3 03 3c 88 b9 23 bc
       -0.027243813 0.003416896 0.008034485 -0.009992965
0000f0 da 64 87 3b fe d1 17 bb dd 8f 2f bc ce 10 2c 3c
       0.0041318955 -0.0023165937 -0.010715452 0.010502053
