model/mnist/tune_lr0.0001_ed32_nl6_nh2_fm2_ps4/temp_model.pt (torch, 254829 bytes, 106 tensors)

embedding.cls_token f4 [1, 1, 32]
0.0071508195 -0.005060881 0.0020691117 0.007534054 0.006217295 0.0035612192 -0.0069100256 -0.0036737632
-0.0047299787 -0.0044209403 0.0024040735 0.00040265455 0.006391495 -0.0053283637 -0.0023367533 -0.0011108365
-0.0040298826 0.007357768 0.003166391 0.009964656 -0.0039285966 -8.222515e-05 0.0017949827 -0.008466339
-0.0041403314 -0.0047216685 0.0081879115 0.0039065485 0.0025778438 0.0023110746 -0.0004212843 -0.0034988578
00000000: 6c51 ea3b bfd5 a5bb ef99 073b 3ae0 f63b
00000010: 73ba cb3b 5863 693b 7f6d e2bb 85c3 70bb
00000020: f0fd 9abb 89dd 90bb a98d 1d3b 611b d339
00000030: bf6f d13b 8e99 aebb 3724 19bb 7d99 91ba
00000040: 1b0d 84bb 6e19 f13b 3a83 4f3b cc42 233c
00000050: 75bb 80bb 4b70 acb8 a045 eb3a 66b6 0abc
00000060: 9eab 87bb 3ab8 9abb 9726 063c 8102 803b
00000070: 0bf1 283b 6675 173b d2df dcb9 184d 65bb

embedding.pos_embedding f4 [1, 50, 32]
0.0071508205 -0.0050608804 0.0020691114 0.007534051 0.0062172953 0.0035612225 -0.006910024 -0.003673763
-0.0047299815 -0.0044209394 0.002404074 0.0004026533 0.006391497 -0.005328365 -0.0023367538 -0.0011108371
-0.004029881 0.007357773 0.0031663917 0.009964655 -0.0039285966 -8.2222956e-05 0.0017949834 -0.008466337
-0.004140329 -0.00472167 0.0081879115 0.0039065504 0.0025778427 0.0023110742 -0.00042128487 -0.0034988585
-0.011159604 0.005125247 0.0009025156 -0.0068965564 0.006105235 -0.0004359732 -0.0038156174 0.010244827
0.004611703 0.0024543616 -0.0024744244 0.0026501312 0.0014560834 -0.0056686206 0.0112014515 -0.0042726607
0.008094561 -0.006669233 -0.010623674 -0.0008904544 -0.0038824612 -0.0058547123 -5.130794e-05 -0.005746258
0.0065333946 -0.0027826282 -0.0012122408 -0.010397279 -0.002147778 0.00041795944 0.0037178888 0.008969958
-0.011306016 0.0052896244 0.0014055936 -0.0065122223 0.0059127165 -0.0005348682 -0.0038981338 0.00903937
0.0041382792 0.002173659 -0.00297879 0.002079003 0.00051187776 -0.0039399625 0.010451558 -0.0048766625
0.008065214 -0.006594314 -0.010086731 4.3902004e-05 -0.004131094 -0.005041832 -0.0010109531 -0.005497438
0.004932241 -0.0020930034 -0.0018959326 -0.0091769835 -0.0014947576 0.00090695336 0.0039235274 0.011407756
-0.005518702 0.0017653417 0.011290966 0.0011392498 0.0017318896 0.00029051927 -0.0083220275 -0.006565898
-0.0001749796 -0.00782557 -0.00039033932 -0.006667735 -0.008297766 0.023309257 -0.015549641 -0.008454256
0.004978464 -0.0065803854 0.0008293162 0.0091615645 -0.013954527 0.01975556 -0.011164398 -0.0010157385
-0.014647325 0.009114973 -0.0032050363 0.0088198325 -0.0016100822 0.00994189 -0.0004150924 -0.0071963025
-0.010772374 -0.0022417197 0.00860291 0.01000763 -0.00012958294 0.00011211626 -0.00971695 -0.010514101
-0.00889472 -0.016587777 0.0005971606 -0.0036234052 -0.006918964 0.038834244 -0.023211695 -0.012311427
0.0010483246 -0.014395899 0.016879262 0.016802536 -0.020492189 0.033497266 -0.0056661093 -0.00012831732
-0.020410124 0.0044990648 -0.01520621 0.025745008 0.001199386 0.028591324 -0.0022247613 -0.020983335
-0.007886357 -0.0023640406 0.013116852 0.005623206 0.0033927122 0.009293232 -0.01098294 -0.016236251
0.011196122 -0.022997113 -0.001664584 -0.009893895 -0.0023378953 0.033635564 -0.027226783 -0.007047171
0.007240968 -0.008609232 0.01464329 0.0083701825 -0.015716217 0.036004927 -0.010526115 -0.014033886
-0.016910458 0.0056718476 -0.008619959 0.02114613 0.0012239025 0.026856303 -0.0019655016 -0.035889395
-0.0009514106 0.0025832616 0.01566356 -0.0051063946 -0.0003713081 0.0063309255 -0.009056856 -0.009882265
0.0040061017 -0.012612235 0.0073730936 -0.00708704 -0.004149254 0.011826887 -0.0116616655 -0.00734791
0.004282478 -0.0054377145 -0.002856361 0.017660439 -0.013580143 0.008958359 -0.0173761 -0.0024602425
-0.00798668 0.01634736 0.006107167 0.004279566 0.004928542 -0.00033104085 0.00059087516 -0.02081409
-0.011109227 0.0052017593 0.0008698035 -0.0073256283 0.006095263 2.2883116e-05 -0.0039585126 0.010542807
0.004822548 0.0027964192 -0.0033834882 0.002581869 0.0018125398 -0.0065596025 0.012840031 -0.004101575
0.00801043 -0.006524979 -0.010969547 -0.00068864366 -0.003424455 -0.006689978 -8.185991e-06 -0.005945558
0.0073059956 -0.0034037465 -0.00062590884 -0.010888206 -0.0021884239 0.00017648851 0.0038568063 0.008259475
00000000: 6e51 ea3b bed5 a5bb ee99 073b 33e0 f63b
00000010: 74ba cb3b 6663 693b 7c6d e2bb 84c3 70bb
00000020: f6fd 9abb 87dd 90bb ab8d 1d3b 361b d339
00000030: c36f d13b 9199 aebb 3924 19bb 8299 91ba
00000040: 180d 84bb 7919 f13b 3d83 4f3b cb42 233c
00000050: 75bb 80bb 1d6f acb8 a645 eb3a 64b6 0abc
00000060: 99ab 87bb 3db8 9abb 9726 063c 8502 803b
00000070: 06f1 283b 6475 173b e6df dcb9 1b4d 65bb
00000080: c6d6 36bc b0f1 a73b cc96 6c3a 82fc e1bb
00000090: 6c0e c83b 5593 e4b9 700f 7abb ebd9 273c
000000a0: c51d 973b 5bd9 203b f429 22bb d3ad 2d3b
000000b0: 0dda be3a d6bf b9bb 4b86 373c ad01 8cbb
000000c0: 0d9f 043c 9589 dabb eb0e 2ebc 626d 69ba
000000d0: e470 7ebb e3d8 bfbb 7b33 57b8 1b4b bcbb
000000e0: 1616 d63b c15c 36bb 0de4 9eba 5959 2abc
000000f0: bcc1 0cbb 9121 db39 d3a7 733b bbf6 123c
00000100: de3c 39bc 9654 ad3b e53b b83a 7b64 d5bb
00000110: 76bf c13b 6636 0cba d577 7fbb de19 143c
00000120: 679a 873b f273 0e3b ce37 43bb e23f 083b
00000130: 892f 063a cd1a 81bb 033d 2b3c 69cc 9fbb
00000140: f623 043c 1d15 d8bb d142 25bc 6b23 3838
00000150: 215e 87bb f435 a5bb f581 84ba da23 b4bb
00000160: a39e a13b c52a 09bb f180 f8ba 0f5b 16bc
00000170: beeb c3ba 9cc0 6d3a ef90 803b 99e7 3a3c
00000180: 3ad6 b4bb 0a63 e73a befd 383c e152 953a
00000190: 9200 e33a d650 9839 1d59 08bc bf26 d7bb
000001a0: bb7a 37b9 d236 00bc 75a6 ccb9 047d dabb
000001b0: 5af3 07bc 0ef3 be3c ecc3 7ebc b883 0abc
000001c0: 6222 a33b 46a0 d7bb 7866 593a 631a 163c
000001d0: 87a1 64bc 6ad6 a13c e1ea 36bc 8722 85ba
000001e0: 55fb 6fbc f856 153c 960b 52bb 0f81 103c
000001f0: 6509 d3ba 4fe3 223c c2a0 d9b9 f6ce ebbb
00000200: 9d7e 30bc d1e9 12bb 38f3 0c3c 0bf7 233c
00000210: a8e0 07b9 f51f eb38 d833 1fbc 5643 2cbc
00000220: 29bb 11bc 17e3 87bc c58a 1c3a a776 6dbb
00000230: 7ab8 e2bb a810 1f3d 7426 bebc deb5 49bc
00000240: f067 893a c7dc 6bbc 6146 8a3c 79a5 893c
00000250: 3cdf a7bc 6e34 093d c5aa b9bb eb8c 06b9
00000260: 2233 a7bc e46c 933b 7823 79bc 32e7 d23c
00000270: b734 9d3a 5a38 ea3c 4dcd 11bb 3ee5 abbc
00000280: c735 01bc 05ee 1abb 11e8 563c df42 b83b
00000290: 4458 5e3b a442 183c caf1 33bc e301 85bc
000002a0: f06f 373c 7164 bcbc 2c2e daba 011a 22bc
000002b0: 6037 19bb 72c5 093d b40a dfbc f4eb e6bb
000002c0: a445 ed3b bc0d 0dbc 69ea 6f3c 1723 093c
000002d0: 4cbf 80bc e779 133d ba75 2cbc 62ee 65bc
000002e0: cd87 8abc e8da b93b ba3a 0dbc a63a ad3c
000002f0: 5a6b a03a c001 dc3c a5cf 00bb c200 13bd
00000300: 1668 79ba f04b 293b de50 803c 8b53 a7bb
00000310: 21ac c2b9 a773 cf3b 3563 14bc 39e9 21bc
00000320: 9e45 833b 8ca3 4ebc fe99 f13b 673a e8bb
00000330: 77f6 87bb 8fc5 413c 9210 3fbc bdc6 f0bb
00000340: 0754 8c3b db2e b2bb c931 3bbb a0ac 903c
00000350: 407f 5ebc 15c6 123c 5358 8ebc 053c 21bb
00000360: 90da 02bc e6ea 853c a11e c83b 9a3b 8c3b
00000370: 9b7f a13b 8d8f adb9 f6e4 1a3a 4f82 aabc
00000380: 7a03 36bc 8573 aa3b 8603 643a d30b f0bb
00000390: c6ba c73b 1ef5 bf37 69b6 81bb bdbb 2c3c
000003a0: 7706 9e3b 2144 373b 83bd 5dbb 9334 293b
000003b0: be92 ed3a eff1 d6bb fe5e 523c 8166 86bb
000003c0: 2e3e 033c 7ecf d5bb 9db9 33bc 1886 34ba
000003d0: d26c 60bb 9a37 dbbb 9056 09b7 f5d2 c2bb
000003e0: 2267 ef3b 6411 5fbb 0814 24ba 7264 32bc
000003f0: a96b 0fbb c60f 3939 79c2 7c3b c052 073c

embedding.conv1.weight f4 [32, 1, 4, 4]
-0.005121618 -0.013582248 -0.004562781 -0.0044874614 0.008764596 0.027963359 0.049759254 0.017744284
0.0048885825 -0.016630607 -0.014918574 0.006580079 0.0093567185 -0.008863833 -0.043341372 -0.004365634
-0.023270736 -0.004840041 0.036637783 0.004685441 -0.015039614 0.0036761342 0.00013467188 0.0030806263
-0.00093015813 -0.0004889828 0.01971223 -0.002867309 0.010224112 -0.0035760377 0.049126443 0.015387342
-0.016348438 0.033436943 0.0049871355 0.014681456 0.022146136 -0.018251283 0.027640374 0.016418183
0.012946775 0.03692574 -0.018156439 -0.035240263 0.033511236 0.0007956389 -0.0031043445 -0.007726686
0.018444007 -0.020975836 0.003275215 -0.0023532729 -0.033224255 0.009160833 -0.018823303 0.0029767193
0.014552175 0.016756669 0.0067854943 0.010100138 -0.010236329 -0.004028006 -0.034239635 0.013538255
0.015748937 0.052372284 0.004767762 0.0072867647 0.01698502 0.0019791569 0.0023577174 -0.00015210976
-0.016397897 -0.0016892884 0.0033413263 0.0008407911 0.019038796 -0.03163919 0.004442569 0.0046568443
-0.01637537 0.0010672489 -0.035614006 0.013767854 0.0105693955 0.0010247359 0.0023514314 -0.031432282
0.035810236 0.04169412 0.021302646 -0.016898518 0.007427642 0.0016031261 0.012787866 0.002792911
0.009649461 -0.033877946 -0.0009500174 -0.01860557 -0.025927328 0.01898166 0.009434302 0.011057538
0.0119580645 -0.027886357 0.014175324 0.02388562 -0.028494082 -0.037612934 -0.030414728 -7.008946e-05
0.038292516 0.020281063 0.008741539 -0.0029103267 0.0076107737 -0.016154995 -0.02630474 0.0018830161
-0.010743842 -0.011021679 -0.036506712 0.010080658 0.008057012 -0.019209048 -0.0025859845 -0.018645095
0.01704209 0.023337005 0.016121846 0.010461071 0.0007239174 -0.02633825 0.017119503 0.0013207038
0.02020531 0.035034712 0.011956677 0.007098775 0.02083955 -0.0073597566 -0.015592406 -0.022587495
-0.021477932 -0.019490035 0.0001878365 0.01461961 0.008378012 -0.0038050455 0.00906082 0.025963664
-0.021016013 -0.013856884 -0.019067666 -0.022645334 0.016039055 -0.011212973 -0.010138354 0.016415255
0.0121795675 -0.006020029 0.003533452 0.010389048 -0.0057045314 -0.010333123 -0.003680648 0.011593726
-0.026516737 0.009785415 -0.014176022 0.039153207 0.010557051 -0.033647485 0.034409586 0.005738712
-0.0125245 0.0010693291 0.03175798 -0.013650848 -0.0016321015 -0.0026750565 0.020654198 0.020660935
-0.0024054956 -0.02270784 -0.009050639 -0.017853726 -0.023138216 0.047336362 0.011102213 -0.00918858
0.03027012 0.0077558835 0.030183315 0.0061967443 -0.0030593423 0.00071705284 0.0386737 0.0053747986
-0.0008482492 -0.0026133643 -0.013856757 -0.009357121 0.01008672 -0.031873144 -0.004566224 -0.037738316
0.0014103726 0.014647553 -0.032184664 -0.020327311 0.011130419 -0.004114316 0.0090525355 -0.003883917
0.037358847 -0.010892491 0.0017844492 -0.017675586 0.015016132 -0.0015172743 -0.00057799823 0.0096804155
-0.028920691 0.009721891 0.029275527 0.02094923 -0.020602753 0.0063234847 -0.012888379 0.03361866
-0.0075860354 0.015962293 0.0027734977 -0.009502275 -0.0156954 -0.018549135 -0.013974628 0.0045540384
-0.019275729 0.004201855 -0.01797056 -0.045266263 0.034247365 -0.025186777 0.03013731 -0.00801411
-0.00126077 -0.009763844 0.0055133076 -0.027336147 0.024686586 0.0074351565 -0.018572224 -0.019371774
00000000: 3fd3 a7bb 1488 5ebc 6283 95bb 8e0b 93bb
00000010: 6199 0f3c 6a13 e53c 5cd0 4b3d 765c 913c
00000020: 6730 a03b e93c 88bc 096d 74bc b49d d73b
00000030: ec4c 193c 9c39 11bc b986 31bd 980d 8fbb
00000040: 45a2 bebc 3599 9ebb 8011 163d 5488 993b
00000050: b768 76bc 4ceb 703b b536 0d39 55e4 493b
00000060: dbd5 73ba 152f 00ba 8b7b a13c 76e9 3bbb
00000070: 0983 273c f55b 6abb cf38 493d 311b 7c3c
00000080: 29ed 85bc 2df5 083d 206b a33b 7d8a 703c
00000090: d06b b53c b783 95bc 116e e23c 6d7f 863c
000000a0: b61e 543c 723f 173d d0bc 94bc 1858 10bd
000000b0: 1443 093d 6c92 503a 4272 4bbb 2430 fdbb
000000c0: e317 973c 84d5 abbc fda4 563b 5e39 1abb
000000d0: 2816 08bd 5217 163c 5433 9abc 1015 433b
000000e0: 3f6c 6e3c 4845 893c da58 de3b 0d7b 253c
000000f0: 47b6 27bc 5dfd 83bb dc3e 0cbd 8fcf 5d3c
00000100: ea03 813c 5284 563d e33a 9c3b d0c5 ee3b
00000110: 2b24 8b3c beb4 013b ef83 1a3b a77f 1fb9
00000120: e254 86bc 1d6b ddba 27fa 5a3b 8968 5c3a
00000130: 40f7 9b3c 1898 01bd f892 913b 7198 983b
00000140: a425 86bc eee2 8b3a fedf 11bd 9192 613c
00000150: 422b 2d3c 6e50 863a 791a 1a3b 23bf 00bd
00000160: c1ad 123d 74c7 2a3d e382 ae3c c36e 8abc
00000170: 9463 f33b fc1f d23a 3384 513c 4509 373b
00000180: c618 1e3c 9ac3 0abd 970a 79ba b56a 98bc
00000190: 8c65 d4bc 6d7f 9b3c 5592 1a3c ad2a 353c
000001a0: c2eb 433c ee71 e4bc 9e3f 683c c7ab c33c
000001b0: 6c6c e9bc 0510 1abd 4f28 f9bc fefc 92b8
000001c0: 9dd8 1c3d 7924 a63c ac38 0f3c 2ebb 3ebb
000001d0: cc63 f93b 7b57 84bc 0a7d d7bc 89cf f63a
000001e0: f106 30bc 4694 34bc 1088 15bd 5829 253c
000001f0: 8f01 043c 4b5c 9dbc 9f79 29bb 99bd 98bc
00000200: da9b 8b3c 3f2d bf3c f611 843c e964 2b3c
00000210: 46c5 3d3a 50c3 d7bc 333e 8c3c 771b ad3a
00000220: 9b85 a53c 8f80 0f3d f0e5 433c d79c e83b
00000230: b4b7 aa3c 1d2a f1bb 4a77 7fbc 6909 b9bc
00000240: 7df2 afbc 91a9 9fbc faf5 4439 1787 6f3c
00000250: ee43 093c 125e 79bb d573 143c c0b1 d43c
00000260: c629 acbc fc07 63bc cb33 9cbc b582 b9bc
00000270: 5664 833c 9eb6 37bc 571b 26bc 4979 863c
00000280: cf8c 473c aa43 c5bb 7d91 673b d336 2a3c
00000290: 14ed babb 424c 29bc 0737 71bb 9df3 3d3c
000002a0: a139 d9bc 0153 203c 8c42 68bc 1d5f 203d
000002b0: 7bf7 2c3c f2d1 09bd 11f1 0c3d ce0b bc3b
000002c0: 8f33 4dbc bb28 8c3a a814 023d cea7 5fbc
000002d0: 3dec d5ba 0050 2fbb fe32 a93c 1f41 a93c
000002e0: 85a5 1dbb cb05 babc 2249 14bc fa41 92bc
000002f0: 5b8c bdbc c6e3 413d 0ee6 353c b38b 16bc
00000300: 0bf9 f73c 1125 fe3b 0043 f73c 0f0e cb3b
00000310: 3f7f 48bb 9af8 3b3a 5068 1e3d 141f b03b
00000320: 0a5d 5eba fa44 2bbb 7407 63bc 9c4e 19bc
00000330: c542 253c 6a8d 02bd 43a0 95bb 7e93 1abd
00000340: 40dc b83a 4afc 6f3c 11d4 03bd 7685 a6bc
00000350: 5c5c 363c 62d1 86bb 1651 143c 5089 7ebb
00000360: 9705 193d 6b76 32bc 2ee4 e93a 64cc 90bc
00000370: 3906 763c 47df c6ba ce84 17ba 9b9a 1e3c
00000380: 16eb ecbc 9148 1f3c 3bd3 ef3c b89d ab3c
00000390: 1bc7 a8bc 3c35 cf3b c829 53bc b8b3 093d
000003a0: 4794 f8bb 5bc3 823c 92c3 353b 6eaf 1bbc
000003b0: a493 80bc 5bf4 97bc d7f5 64bc 0b3a 953b
000003c0: 22e8 9dbc b7af 893b ff36 93bc 1e69 39bd
000003d0: f746 0c3d 8054 cebc 85e2 f63c 9d4d 03bc
000003e0: 6c40 a5ba 88f8 1fbc faa8 b43b 0ef0 dfbc
000003f0: 863b ca3c 9da2 f33b c724 98bc 8eb1 9ebc

embedding.conv1.bias f4 [32]
0.007166158 0.002991552 0.009323087 -0.005083707 0.0051313173 0.011940003 -0.007279757 -0.018895635
0.004373381 -0.008171572 0.006900455 -0.014730418 -0.0010718709 0.015964147 -0.021215508 -0.005858533
0.0057684686 -0.007411954 0.0025479028 0.0009495288 -0.011727784 0.014725301 -0.009944142 -0.0050217765
-0.021762757 0.007818505 0.0020463236 0.02942491 0.0061435364 0.004610132 -0.0029541806 -0.0047615003
00000000: 17d2 ea3b ea0d 443b dcbf 183c 3a95 a6bb
00000010: 9c24 a83b 01a0 433c 078b eebb 05cb 9abc
00000020: 944e 8f3b 0fe2 05bc 361d e23b da57 71bc
00000030: 057e 8cba 3ec7 823c 25cc adbc f0f8 bfbb
00000040: 6c05 bd3b fadf f2bb b7fa 263b cde9 783a
00000050: e425 40bc 6442 713c c1ec 22bc b78d a4bb
00000060: cf47 b2bc 3019 003c 9d1b 063b 820c f13c
00000070: b84f c93b 9710 973b ed9a 41bb 5c06 9cbb

encoder.0.attention.queries.weight f4 [32, 32]
-0.06662022 0.03377566 -0.027114818 -0.030672036 -0.012369985 -0.032158174 0.0017057232 0.02547668
0.0041083875 0.06595608 -0.025845742 -0.07920241 -0.01280569 0.005564024 0.024243478 0.067362376
0.018702317 -0.04548705 -0.06515934 -0.057580125 0.046362776 -0.028044038 0.040783167 0.04408372
0.010892594 -0.025869165 -0.058860447 -0.037117336 -0.021541493 -0.012595045 -0.015756447 0.030779243
-0.03095664 -0.050485242 -0.015705006 -0.0188762 -0.0055556074 -0.0105194505 0.019477673 0.005906789
0.02748847 -0.0040182956 0.0058761328 0.024067745 0.04843373 0.040209334 0.0005040517 0.0015595099
-0.018433232 -0.03375545 -0.027284402 -0.019143376 -0.021912608 0.013663887 -0.0071204193 0.0049663316
0.026512176 0.054590635 -0.03746225 0.0020841337 -0.026355783 0.0163196 0.0029435481 0.017492354
0.05191108 -0.007982264 0.052044842 0.010590961 -0.0001320584 0.03362247 -0.03653644 -0.054226015
0.03492321 -0.048017576 0.029879695 0.055356685 0.041682683 -0.006499348 -0.05029622 -0.027439818
-0.019945951 0.040981874 0.042236008 0.043008804 -0.026875354 0.05929353 -0.016607529 -0.04880052
-0.04901532 0.014032535 0.072162576 0.05443609 0.03734479 0.009797982 -0.018657655 -0.017024826
0.048458815 -0.027923837 0.0033801624 0.054310698 -0.021428516 0.052331276 -0.039329764 -0.030013235
-0.014953304 -0.021832632 -0.0009605535 0.014250943 0.0058427807 -0.035367593 -0.014150607 -0.027111629
-0.014562909 0.048633903 0.010142058 0.036770985 0.03118867 0.03839909 -0.01044636 -0.039600883
-0.033872835 0.00767277 0.020849932 -0.0052441773 0.022823734 0.01668319 0.0062973825 -0.007051327
0.004560437 -0.01578913 0.0059276694 0.021765469 0.014315127 0.02918387 -0.021754635 -0.0464832
-0.034518708 -0.0013528536 0.022507349 0.047017552 -0.0001268738 -0.029676173 0.0063667097 0.007967609
0.0013258476 0.06193385 0.017949129 0.009211833 -0.04041792 0.04264497 -0.0326765 -0.048622176
-0.03407383 0.040008374 0.053927034 -0.0019284289 0.06813616 0.027765447 0.006092598 0.008361828
0.04929362 0.027654171 -0.0005985399 0.016386718 -0.006109706 0.008218396 -0.033213943 0.00925406
-0.0059237857 -0.012003876 0.03709397 0.025750745 -0.01754925 -0.030616598 -0.040802907 0.033518914
-0.011640314 0.01950239 0.03143201 -0.0012220566 -0.019572299 0.001834656 -0.011037794 0.015591451
0.005822412 -0.042089436 -0.010958787 0.0019719389 0.025112305 0.021459144 0.038639955 -0.025489988
0.060245167 0.025563654 -0.013661714 0.029275784 0.03986904 0.029985165 1.5155593e-05 -0.02114476
0.00071399345 -0.018766051 0.06470203 -0.004201386 -0.010043323 -0.006803887 -0.01080058 -0.009505957
0.00029324472 0.008855867 0.04701481 0.038962655 -0.021932485 0.023811867 -0.021133393 -0.04070427
-0.028977431 0.013895392 0.012499678 0.017771604 0.023956802 0.015248792 0.004144669 -0.037874777
-0.007747328 0.0593191 -0.020743795 -0.04067923 -0.017618792 -0.050341155 0.034932785 0.04870134
-0.010592555 0.026300086 -0.032929722 -0.023956172 -0.05328849 0.021640578 0.055365864 0.045200694
0.03566864 -0.07651438 -0.034507234 -0.04312275 0.024510715 -0.029851295 0.03192633 0.12604222
0.034094952 -0.031044077 -0.059290517 -0.018960651 -0.037637394 -0.04896436 0.032648534 0.010657913
00000000: 2f70 88bd 5958 0a3d e51f debc ec43 fbbc
00000010: 7aab 4abc 4ab8 03bd 9392 df3a 78b4 d03c
00000020: a79f 863b fb13 873d 73ba d3bc e034 a2bd
00000030: f5ce 51bc 6b52 b63b 429a c63c 49f5 893d
00000040: 9a35 993c a150 3abd 4372 85bd 23d9 6bbd
00000050: e5e6 3d3d 9cbc e5bc 400c 273d 2191 343d
00000060: da76 323c 92eb d3bc a717 71bd 5908 18bd
00000070: c977 b0bc 735b 4ebc aa13 81bc c024 fc3c
00000080: c898 fdbc 9dc9 4ebd c9a7 80bc 43a2 9abc
00000090: d00b b6bb c659 2cbc a48f 9f3c bd8d c13b
000000a0: 802f e13c e8ab 83bb 938c c03b b829 c53c
000000b0: 7262 463d 8bb2 243d 5622 043a 7868 cc3a
000000c0: 4a01 97bc 2843 0abd 8a83 dfbc 92d2 9cbc
000000d0: 1282 b3bc 7fde 5f3c 6852 e9bb 9cbc a23b
000000e0: 1030 d93c 6e9a 5f3d 0472 19bd f695 083b
000000f0: 15e8 d7bc afb0 853c 8be8 403b 204c 8f3c
00000100: b6a0 543d 0bc8 02bc f92c 553d b685 2d3c
00000110: 2879 0ab9 b7b7 093d 3ca7 15bd 191c 5ebd
00000120: a40b 0f3d 14ae 44bd 43c6 f43c b1bd 623d
00000130: 76bb 2a3d 7cf8 d4bb 6903 4ebd 78c9 e0bc
00000140: b165 a3bc 9cdc 273d aaff 2c3d 002a 303d
00000150: b429 dcbc c6dd 723d 830c 88bc 0ee3 47bd
00000160: 4ac4 48bd b8e8 653c f9c9 933d 61f8 5e3d
00000170: daf6 183d b787 203c f0d7 98bc a677 8bbc
00000180: c07c 463d 88c0 e4bc b785 5d3b e574 5e3d
00000190: db8a afbc 5259 563d 3f18 21bd 51de f5bc
000001a0: b4fe 74bc 59da b2bc a7cd 7bba ca7c 693c
000001b0: cc74 bf3b 9cdd 10bd f3d7 67bc 3519 debc
000001c0: 4499 6ebc 5834 473d e02a 263c 2c9d 163d
000001d0: 627f ff3c 5d48 1d3d 3627 2bbc 8934 22bd
000001e0: 3ebe 0abd dc6b fb3b 7acd aa3c 59d7 abbb
000001f0: d7f8 ba3c 2fab 883c 465a ce3b d10e e7bb
00000200: b86f 953b 3558 81bc e53c c23b 7f4d b23c
00000210: ff89 6a3c 0313 ef3c c736 b2bc 2b65 3ebd
00000220: 7d63 0dbd 3c52 b1ba 5561 b83c 7a95 403d
00000230: 6d09 05b9 721b f3bc d59f d03b 938a 023c
00000240: 10c8 ad3a 59ae 7d3d 0d0a 933c 3aed 163c
00000250: 438d 25bd 7eac 2e3d cbd7 05bd 0c28 47bd
00000260: 0091 0bbd d2df 233d 98e2 5c3d 56c3 fcba
00000270: f98a 8b3d 5d74 e33c 6ba4 c73b 0c00 093c
00000280: 1be8 493d 008b e23c 55e7 1cba 703d 863c
00000290: ee33 c8bb 74a6 063c 580b 08bd 579e 173c
000002a0: 511c c2bb e8ab 44bc d9ef 173d 3af3 d23c
000002b0: 72c3 8fbc a9cf fabc f320 27bd 214b 093d
000002c0: 04b7 3ebc 7ac3 9f3c dabe 003d 6a2d a0ba
000002d0: 1656 a0bc d778 f03a ddd7 34bc 4973 7f3c
000002e0: efc9 be3b f965 2cbd 7c8c 33bc a53b 013b
000002f0: 52b8 cd3c 16cb af3c ee44 1e3d 61d0 d0bc
00000300: a3c3 763d de6a d13c 62d5 5fbc c5d3 ef3c
00000310: b84d 233d 73a3 f53c c744 7e37 c737 adbc
00000320: 4a2b 3b3a 43bb 99bc 7f82 843d c8ab 89bb
00000330: c08c 24bc 24f3 debb eaf4 30bc e0be 1bbc
00000340: a4be 9939 3318 113c 9a92 403d 4e97 1f3d
00000350: c1ab b3bc 1b11 c33c f01f adbc 85b9 26bd
00000360: 1462 edbc 80a9 633c 73cb 4c3c c195 913c
00000370: 0e41 c43c 12d6 793c 01d0 873b 9522 1bbd
00000380: 4cdd fdbb 96f8 723d e4ee a9bc 449f 26bd
00000390: 4955 90bc 8732 4ebd ae15 0f3d 0e7b 473d
000003a0: 658c 2dbc 4773 d73c 51e1 06bd bc3f c4bc
000003b0: 0845 5abd 9547 b13c 51c7 623d 5d24 393d
000003c0: 4819 123d 92b3 9cbd 7557 0dbd 7ba1 30bd
000003d0: b2ca c83c b48a f4bc 2fc5 023d 3611 013e
000003e0: 26a7 0b3d 2650 febc 9dda 72bd 5e53 9bbc
000003f0: ab29 1abd da8e 48bd 78ba 053d 879e 2e3c

encoder.0.attention.queries.bias f4 [32]
-0.030314554 -0.015455008 0.025166418 0.033786487 0.030076157 0.021911932 0.04051479 -0.024292698
-0.023868011 -0.033732325 0.02067007 0.018575503 -0.018968996 -0.021052018 0.03351369 0.01734035
-0.028032709 0.019593779 0.017219277 0.027776951 -0.03145415 -0.028490271 0.023138952 -0.018464277
0.014539294 -0.027781343 -0.019261204 -0.008808095 0.020546908 -0.017313156 0.027664378 -0.026011406
00000000: 3a56 f8bc 0037 7dbc ce29 ce3c b363 0a3d
00000010: 4662 f63c a780 b33c d6f2 253d 7b01 c7bc
00000020: d986 c3bc e82a 0abd 4754 a93c a72b 983c
00000030: de64 9bbc 4875 acbc a745 093d 5a0d 8e3c
00000040: daa4 e5bc 2283 a03c 710f 8d3c 7d8c e33c
00000050: 11d6 00bd 6e64 e9bc e68d bd3c 6542 97bc
00000060: 3836 6e3c b395 e3bc acc9 9dbc d44f 10bc
00000070: fd51 a83c 52d4 8dbc 68a0 e23c df15 d5bc

encoder.0.attention.keys.weight f4 [32, 32]
-0.023512198 0.087562025 0.02319233 -0.02951397 0.040589325 0.043081153 -0.03635135 -0.054591462
0.023075402 -0.02422302 0.010564332 0.05792459 0.019716889 -0.06260775 -0.0057798247 -0.03608194
0.05563005 0.033505946 -0.06041825 -0.01716009 -0.04488235 -0.048963297 -0.028001742 -0.02770161
-0.0027672478 0.060926333 0.0036854732 -0.04694389 0.019699575 -0.053511735 0.05457012 -0.015190127
-0.039596096 0.01279982 -0.0050240066 -0.031892452 0.01366649 0.0023350897 -0.014563808 -0.016201923
0.008787992 0.012632802 0.006823227 0.027367929 -0.0049834903 -0.031618085 -0.01008023 -0.002391258
-0.017453875 0.042524133 -0.011062969 0.0024148778 -0.002110992 -0.061800767 0.007601496 -0.013544129
-0.0027492128 0.015011407 0.027256839 -0.04277429 0.0072472375 -0.01852461 -0.02797941 -0.043484155
0.023147933 -0.04382563 -0.031233944 0.030885799 -0.030418132 -0.06674605 0.011937432 0.033915054
-0.0071428823 0.026588475 -0.042354215 -0.023059607 -0.0092641115 0.06453908 -0.012426907 0.025510121
-0.030376362 -0.066456884 0.061480843 0.038939256 0.038701124 0.06579685 0.032137718 0.011266202
0.025614984 -0.031705704 -0.026886933 0.061631486 0.013350512 0.037046507 -0.029708704 -0.0063586454
0.050055303 -0.001846923 -0.0043651354 0.060443718 -0.05146433 -0.024781995 0.036315344 0.013023539
-0.06492853 0.012244205 0.0054084253 -0.030774727 -0.05629855 0.06697278 0.0029966075 0.04494
-0.015515831 -0.033262134 0.053219028 0.00615377 0.06499701 0.06384627 0.0036220828 0.008883526
-0.02020944 -0.0008244773 0.042204577 0.061763383 -0.0399863 0.04580004 -0.01530321 -0.00066246564
0.04080669 -0.034137215 -0.026152577 0.048212234 -0.0068907407 0.007373939 0.010618825 0.044641677
-0.046964962 0.0052179466 -0.0032904393 -0.05524897 0.015342321 0.05535854 0.02095854 0.03793223
-0.085893184 -0.021290941 0.029085023 0.030307867 0.0023715443 0.0752016 0.019330334 0.033202723
-0.016701683 -0.033099692 -0.0044058166 0.056780715 -0.033090316 0.03560338 0.008598711 0.019500915
0.005959593 -0.0010335868 -0.020619709 0.03559879 0.016225576 -0.018882727 -0.0056011947 -0.00019260605
-0.0163226 0.025520941 0.0090078125 -0.04098116 -0.03171955 0.044487886 0.028647147 0.030614333
-0.022947166 0.002351108 0.028913306 0.013524886 0.023806363 0.060385015 0.023082865 0.0056906138
0.006752813 0.018660787 -0.004690287 0.06267168 -0.031586364 0.03909405 -0.037044834 0.0090198
0.036538523 -0.042774253 -0.013286843 0.035051636 -0.05694567 -0.07819713 -0.012340063 0.061032586
0.008462253 0.019978756 -0.043226 -0.04203222 -0.017604314 0.07220615 0.053593993 0.014841573
-0.027930342 -0.022406876 0.09633711 -0.006594534 0.018840358 0.03585895 0.023212109 0.030619508
-0.010771574 -0.021464098 0.00074240315 0.09821135 -0.016497865 0.036317594 -0.04791254 0.005187774
-0.035637338 0.011096498 0.042363603 -0.0608877 0.03913028 -0.0026729486 -0.035772804 -0.057176154
0.008050066 -0.041426063 0.07485985 0.061704263 0.009086245 -0.03363306 -0.012040367 -0.0778437
0.0494503 0.016802747 -0.061616536 -0.047867786 -0.05836517 -0.066256516 -0.014100379 -0.020165417
-0.013179393 -0.0076787574 0.027020486 -0.062433362 0.062949575 -0.05805042 0.047655772 0.009005617
00000000: a79c c0bc b853 b33d d7fd bd3c 48c7 f1bc
00000010: fe40 263d dd75 303d 27e5 14bd 4c9b 5fbd
00000020: a008 bd3c 5b6f c6bc 0516 2d3c 5642 6d3d
00000030: 5085 a13c 7e38 80bd af64 bdbb a8ca 13bd
00000040: 56dc 633d 883d 093d 2079 77bd 5193 8cbc
00000050: 8ed6 37bd bd8d 48bd e963 e5bc 7dee e2bc
00000060: b75a 35bb e48d 793d fb87 713b 3d48 40bd
00000070: 0161 a13c 1f2f 5bbd eb84 5f3d 03e0 78bc
00000080: 842f 22bd 56b6 513c 6ca0 a4bb a9a1 02bd
00000090: 6ae9 5f3c 4e08 193b 0a9d 6ebc e5b9 84bc
000000a0: 83fb 0f3c d0f9 4e3c 6095 df3b b532 e03c
000000b0: 8c4c a3bb f781 01bd 8d27 25bc a7b6 1cbb
000000c0: 6efb 8ebc c92d 2e3d 7541 35bc ed42 1e3b
000000d0: 9258 0abb cd22 7dbd f815 f93b 32e8 5dbc
000000e0: 232c 34bb 68f2 753c bc49 df3c 1834 2fbd
000000f0: 3c7a ed3b ecc0 97bc 1335 e5bc 711c 32bd
00000100: bca0 bd3c 8182 33bd 54de ffbc 3704 fd3c
00000110: 722f f9bc 27b2 88bd 3895 433c 83ea 0a3d
00000120: d70e eabb 13d0 d93c 9d7b 2dbd 80e7 bcbc
00000130: 80c8 17bc 112d 843d 3a9a 4bbc 9afa d03c
00000140: d9d7 f8bc 8c1a 88bd 56d3 7b3d c57e 1f3d
00000150: 1285 1e3d 80c0 863d d7a2 033d e095 383c
00000160: 84d6 d13c d7dd 01bd fc41 dcbc 4c71 7c3d
00000170: 1bbc 5a3c 14be 173d ab5f f3bc 2f5c d0bb
00000180: ca06 4d3d 7414 f2ba 6909 8fbb d593 773d
00000190: 43cc 52bd 9c03 cbbc 66bf 143d af60 553c
000001a0: 40f9 84bd eb9b 483c 2939 b13b 481b fcbc
000001b0: 4f99 66bd 0629 893d bb62 443b 0113 383d
000001c0: 1d36 7ebc e03d 08bd 32fc 593d 90a5 c93b
000001d0: 271d 853d d5c1 823d 7760 6d3b 358c 113c
000001e0: 448e a5bc bc21 58ba b5de 2c3d 9afb 7c3d
000001f0: adc8 23bd d398 3b3d 51ba 7abc 51a9 2dba
00000200: ea24 273d 77d3 0bbd ee3d d6bc 317a 453d
00000210: b9cb e1bb 15a1 f13b 95fa 2d3c 31da 363d
00000220: 555e 40bd 4ffb aa3b 69a4 57bb be4c 62bd
00000230: 5c5e 7b3c a3bf 623d 3eb1 ab3c d35e 1b3d
00000240: c4e8 afbd 576a aebc b743 ee3c 3448 f83c
00000250: e96b 1b3b 4c03 9a3d a65a 9e3c 94ff 073d
00000260: f8d1 88bc 8b93 07bd ab5e 90bb e592 683d
00000270: b689 07bd dad4 113d 9ce1 0c3c 62c0 9f3c
00000280: b148 c33b 6b79 87ba aaea a8bc 09d0 113d
00000290: 80eb 843c f3af 9abc 3a8a b7bb 4bf6 49b9
000002a0: f9b6 85bc 4b11 d13c 8195 133c dcdb 27bd
000002b0: 5cec 01bd ee38 363d 6cad ea3c e9ca fa3c
000002c0: b2fb bbbc 0c15 1a3b 99db ec3c 7c97 5d3c
000002d0: 9005 c33c 4756 773d 4718 bd3c 5478 ba3b
000002e0: b346 dd3b 82de 983c fbb0 99bb 025a 803d
000002f0: b460 01bd 1521 203d 53bc 17bd c9c7 133c
00000300: 6ba9 153d 0e34 2fbd 0fb1 59bc 4e92 0f3d
00000310: dd3f 69bd d125 a0bd fa2d 4abc 4efd 793d
00000320: 43a5 0a3c 7daa a33c bf0d 31bd fa29 2cbd
00000330: ec36 90bc d1e0 933d 6085 5b3d 122a 733c
00000340: 2cce e4bc a08e b7bc 644c c53d f616 d8bb
00000350: 1857 9a3c d6e0 123d 5227 be3c c3d5 fa3c
00000360: 427b 30bc 7ad5 afbc d59d 423a 0823 c93d
00000370: 8826 87bc c2c1 143d f13f 44bd 34fe a93b
00000380: 75f8 11bd 16ce 353c 7585 2d3d 6265 79bd
00000390: 1347 203d a32c 2fbb 8186 12bd 8b31 6abd
000003a0: 6de4 033c 60ae 29bd 1f50 993d 9cbd 7c3d
000003b0: 79de 143c d2c2 09bd f644 45bc 856c 9fbd
000003c0: 668c 4a3d eaa5 893c 9f61 7cbd 0311 44bd
000003d0: 5110 6fbd 7fb1 87bd 4705 67bc f231 a5bc
000003e0: 61ee 57bc 169e fbbb 115a dd3c 20ba 7fbd
000003f0: b5eb 803d 47c6 6dbd b332 433d 4c8c 133c

encoder.0.attention.keys.bias f4 [32]
7.283099e-06 1.48238e-06 5.983214e-07 -4.647944e-08 6.7454553e-06 3.2363314e-06 1.0082704e-05 -7.835066e-06
-7.141486e-06 -6.290844e-07 3.5378705e-06 6.397287e-06 -5.973074e-06 1.6401751e-06 2.6226835e-06 1.0251589e-05
6.455e-06 -2.6125097e-06 -4.289283e-06 6.967072e-06 -5.6203726e-06 -4.6772643e-06 -2.744243e-06 1.5771018e-06
9.1674406e-07 2.0073303e-06 5.8524824e-06 2.5080703e-07 8.4718e-06 -1.9857273e-06 5.244225e-06 9.153937e-06
00000000: 5861 f436 30f6 c635 559c 2035 afa0 47b3
00000010: 0557 e236 c02f 5936 e228 2937 5a73 03b7
00000020: e6a0 efb6 5ade 28b5 276c 6d36 47a8 d636
00000030: 516c c8b6 fd23 dc35 5c01 3036 3dfe 2b37
00000040: 0798 d836 9352 2fb6 a9ec 8fb6 b1c6 e936
00000050: a296 bcb6 65f1 9cb6 bc29 38b6 ceac d335
00000060: 2c16 7635 acb5 0636 7160 c436 a8a6 8634
00000070: 1b22 0e37 8942 05b6 8df7 af36 dc93 1937

encoder.0.attention.values.weight f4 [32, 32]
0.014012528 -0.006719034 -0.010311957 -0.0031129394 -0.027516188 0.012651935 0.009692288 -0.012503134
-0.020359883 -8.458177e-05 0.009528272 0.0082140425 -0.022414537 -0.030098023 -0.023709172 0.0011491736
0.00376699 -0.010470976 -0.03892462 0.0031175278 0.006558513 0.007689611 -0.0022169957 0.016151361
-0.029100297 -0.014930032 -0.001709163 0.022559058 -0.0024588683 -0.0011835013 -0.01439362 -0.0053971973
0.017619237 0.023489185 0.020719372 -0.015219947 0.008868785 -0.020113187 0.03472549 0.009672194
0.004640897 0.00033259604 -0.0033167878 0.011363122 -0.024641434 0.043848563 -0.0045938315 0.023122087
-0.034046523 0.015990661 0.0071920482 -0.016883628 -0.0051643983 -0.00424507 0.0077093868 0.021880547
-0.019779801 -0.0054811537 -0.026072064 -0.00430944 -0.0029714787 0.03094921 0.0147448145 0.010884575
-0.020138666 0.0011061871 0.008524471 0.034539692 -0.0028194375 -0.01717206 -0.03549845 0.00035635568
0.013487647 -0.0053446693 0.029629122 0.020575922 0.017129986 -0.023888895 0.0123667335 -0.020189932
0.038685758 -0.016962977 -0.0019188253 0.0021916286 -0.037000977 -0.0065099713 -0.044416424 -0.006372596
0.006264768 0.036435883 -0.0015226846 0.032217123 -0.027573397 0.007160613 0.0060998616 0.017819768
-0.012397707 -0.00045080835 0.0010358391 -0.009332214 0.009886426 0.013973397 -0.025672622 -0.007104339
0.010169068 -0.0026085027 0.015619829 -0.00024006891 0.0065896004 0.020978337 -0.05934757 -0.0045073857
0.031047931 -0.030622259 0.0053065484 0.020001141 0.0013526955 0.029543467 0.01923188 -0.0056604194
0.021307709 -0.007384678 -0.031074919 0.01805301 -0.013729523 -0.0070444937 0.025495023 0.0013730095
0.014823326 -0.010398949 -0.03159537 -0.02805725 -0.022028431 0.009291807 0.0155982245 0.023235256
-0.00637902 0.026279703 0.0024392847 0.010858709 -0.0057540536 0.01572078 0.011172667 0.0154596
-0.026848378 0.0019362107 -0.007165813 -0.0030110741 0.010308314 -0.021447076 0.0430259 0.011761238
-0.046531543 0.013150046 0.008108001 -0.012820716 0.01746657 0.04901267 -0.05568763 0.03425044
-0.009991348 0.0019145428 0.034899656 -0.013090773 0.035618033 -0.032841496 -0.0036852153 0.026049973
0.0105964495 -0.0031192687 0.0040418687 -0.0048513785 -0.013019499 0.016384607 0.042269003 -0.02986361
0.031391256 -0.0016544719 4.0897576e-05 0.04462323 -0.005012805 -0.0014551918 -0.0003583332 0.0014218646
0.055183627 0.01821296 0.028793633 0.019280687 0.0027097508 0.03240076 0.00777599 0.0034505597
0.005102976 -0.042515244 -0.004210174 -0.01978733 0.022207692 0.012714573 0.0062509086 0.0048404015
0.0053149927 -0.024403466 0.012526292 0.05404658 0.038980637 0.0002584113 0.010181004 -0.0020314686
0.046889972 0.045961916 0.013807925 0.0030353998 -0.018156264 -0.018674495 -0.030049214 -0.013238164
-0.025577676 0.007841932 0.043666948 0.047873676 -0.011365009 0.009168817 0.0011382818 -0.029914625
0.015295095 -0.024470435 -0.03892729 0.06170031 -0.0089400085 -0.025623236 0.016471963 -0.00017761154
-0.0058880006 -0.012194802 0.012446502 0.0142132165 0.014242596 -0.017533304 0.030781886 0.03793581
0.024563853 0.0028303165 0.0157508 -0.003516829 0.0035004364 0.03267228 -0.0014368792 0.021431353
-0.025637794 -0.018027142 0.007632658 -0.020942265 -0.02421542 -0.005595107 0.014497565 0.02685019
00000000: cd94 653c 582b dcbb 7cf3 28bc 7502 4cbb
00000010: a169 e1bc 104a 4f3c 67cc 1e3c f2d9 4cbc
00000020: c5c9 a6bc 7e61 b1b8 781c 1c3c 3194 063c
00000030: b19e b7bc 2190 f6bc bd39 c2bc de9f 963a
00000040: 9bdf 763b 758e 2bbc 6c6f 1fbd 704f 4c3b
00000050: cbe8 d63b 22f9 fb3b 044b 11bb dc4f 843c
00000060: bf63 eebc 189d 74bc fe05 e0ba c6cd b83c
00000070: f724 21bb b71f 9bba 38d3 6bbc f9da b0bb
00000080: 3856 903c 646c c03c acbb a93c 165d 79bc
00000090: 614e 113c 69c4 a4bc 513c 0e3d 1f78 1e3c
000000a0: aa12 983b 4960 ae39 775e 59bb 632c 3a3c
000000b0: d5dc c9bc 8d9a 333d da87 96bb 886a bd3c
000000c0: 5e74 0bbd d9fe 823c 46ab eb3b 894f 8abc
000000d0: 1d3a a9bb 3a1a 8bbb 069f fc3b d53e b33c
000000e0: 4009 a2bc 409b b3bb 1595 d5bc 3436 8dbb
000000f0: 24bd 42bb 3389 fd3c 3c94 713c 3755 323c
00000100: d8f9 a4bc 7bfd 903a 39aa 0b3c 7e79 0d3d
00000110: 50c6 38bb 6cac 8cbc d366 11bd 40d5 ba39
00000120: 4bfb 5c3c 5622 afbb c6b8 f23c d68e a83c
00000130: 2f54 8c3c a5b2 c3bc d79d 4a3c 5b65 a5bc
00000140: f574 1e3d f1f5 8abc 1881 fbba 6da1 0f3b
00000150: 568e 17bd 9951 d5bb ffed 35bd 36d1 d0bb
00000160: af48 cd3b cb3d 153d d194 c7ba 1af6 033d
00000170: 9be1 e1bc 93a3 ea3b 59e1 c73b c3fa 913c
00000180: c11f 4bbc 795a ecb9 fec4 873a 24e6 18bc
00000190: adfa 213c adf0 643c 644f d2bc 84cb e8bb
000001a0: 2a9c 263c 6af3 2abb 50ea 7f3c 02bb 7bb9
000001b0: 93ed d73b c3da ab3c 7016 73bd b1b2 93bb
000001c0: 3b58 fe3c 88db fabc 8ee2 ad3b 6fd9 a33c
000001d0: ee4c b13a 2405 f23c 2d8c 9d3c 0a7b b9bb
000001e0: 818d ae3c 2bfb f1bb d490 febc e8e3 933c
000001f0: cbf1 60bc 7fd5 e6bb f0da d03c 8ef6 b33a
00000200: 89dd 723c 5a60 2abc 266a 01bd 51d8 e5bc
00000210: f874 b4bc aa3c 183c b28f 7f3c dd57 be3c
00000220: 1907 d1bb 8848 d73c 68dc 1f3b bae8 313c
00000230: 808c bcbb ddc8 803c 900d 373c 434a 7d3c
00000240: 21f1 dbbc 73c8 fd3a 32cf eabb 7155 45bb
00000250: 34e4 283c c7b1 afbc ed3b 303d 35b2 403c
00000260: dc97 3ebd 4a73 573c 6cd7 043c fb0d 52bc
00000270: 0d16 8f3c 82c1 483d b618 64bd 304a 0c3d
00000280: c0b2 23bc 65f1 fa3a f1f2 0e3d ae7a 56bc
00000290: 37e4 113d ce84 06bd a783 71bb c166 d53c
000002a0: bb9c 2d3c a56c 4cbb a771 843b 50f8 9ebb
000002b0: bd4f 55bc 0339 863c 4322 2d3d 88a4 f4bc
000002c0: 1e94 003d ddda d8ba 7089 2b38 d9c6 363d
000002d0: 7542 a4bb 22bc beba abde bbb9 dc5d ba3a
000002e0: 3a08 623d 5833 953c a0e0 eb3c 88f2 9d3c
000002f0: 1396 313b a9b6 043d bbcd fe3b c922 623b
00000300: de36 a73b 7724 2ebd 80f5 89bb 0a19 a2bc
00000310: e8ec b53c c950 503c 6cd4 cc3b 3b9c 9e3b
00000320: 6429 ae3b c7e9 c7bc 143b 4d3c f25f 5d3d
00000330: 29aa 1f3d 617b 8739 3ace 263c 6322 05bb
00000340: b30f 403d 9042 3c3d a33a 623c 8fed 463b
00000350: 72bc 94bc 41fb 98bc c529 f6bc e2e4 58bc
00000360: 4688 d1bc 727b 003c 1ddc 323d 3017 443d
00000370: 4d34 3abc ce38 163c 6632 953a 840f f5bc
00000380: 4798 7a3c 3976 c8bc 3972 1fbd 77b9 7c3d
00000390: 1d79 12bc d2e7 d1bc 36f0 863c 3c3d 3ab9
000003a0: 21f0 c0bb b5cc 47bc 6aec 4b3c 8dde 683c
000003b0: c759 693c 01a2 8fbc 4b2a fc3c 9462 1b3d
000003c0: 223a c93c d57c 393b d207 813c 9a7a 66bb
000003d0: 9467 653b 5ed3 053d aa55 bcba ce90 af3c
000003e0: 5a06 d2bc a8ad 93bc 601b fa3b 1d8f abbc
000003f0: 6b5f c6bc 2957 b7bb 3287 6d3c eef4 db3c

encoder.0.attention.values.bias f4 [32]
0.009481617 -0.005504836 0.0026646934 0.009104159 0.0069671404 0.004220959 -0.0075507658 -0.0041477964
-0.0046032295 -0.005932984 0.0026972825 0.00013658094 0.008495053 -0.0039211335 -0.002872676 -0.0014873337
-0.004207485 0.0073826783 0.0037144735 0.011873959 -0.0044286195 0.0012479065 0.00079755415 -0.008094723
-0.004661196 -0.0032340733 0.007045221 0.0045759743 0.0029505356 0.0039192922 -0.00077947206 -0.0050130673
00000000: c958 1b3c e961 b4bb 23a2 2e3b 9c29 153c
00000010: 9c4c e43b f84f 8a3b 6a6c f7bb 3dea 87bb
00000020: b0d6 96bb 7a69 c2bb e4c4 303b 2b37 0f39
00000030: d62e 0b3c da7c 80bb 8143 3cbb a3f2 c2ba
00000040: f1de 89bb 65ea f13b 866e 733b fe8a 423c
00000050: f41d 91bb cb90 a33a f412 513a bb9f 04bc
00000060: f2bc 98bb bff2 53bb 99db e63b 0ef2 953b
00000070: c65d 413b 686d 803b 7c55 4cba a844 a4bb

encoder.0.attention.fc.weight f4 [32, 32]
0.010905042 0.018596202 0.01622295 -0.011131121 -0.0023927817 -0.0066707516 -0.009880474 0.005455876
-0.01961142 -0.000829396 -0.028422914 0.001762751 0.013335037 0.0194624 0.027466688 0.017156966
0.036978368 0.015070222 0.009992433 -0.013241861 -0.0043478757 -0.007279026 -0.04368314 -0.009181667
-0.0011493604 -0.011628391 0.020148404 -0.023799533 0.01717933 -0.0054473826 -0.006907815 0.0092561515
-0.014564312 -0.043187156 0.023879277 -0.019298572 2.545819e-06 -0.0411284 -0.01648397 0.023734428
0.007718941 -0.022245206 -0.0011570767 0.017313914 -0.0026196772 -0.014607408 -0.023485405 -0.0071038925
-0.0033711845 0.044983346 0.020398766 -0.0005624852 -0.012099217 -0.030583624 0.00095674617 -0.023553865
0.050725088 0.0147974 -0.009267518 -0.007683582 -0.031119714 -0.026224064 0.018057844 -0.0047151614
0.0031287917 -0.013356398 0.013615375 -0.0028852348 0.017879756 0.0063338173 0.010087656 -0.025343107
0.018714193 -0.0010874612 0.00022631178 -0.0012139888 -0.028962916 -0.0004362145 0.0061897472 0.014937666
-0.017468112 -0.029649984 0.001170598 0.028214226 0.025055833 0.031131774 0.00530855 0.039035644
5.007107e-05 -0.024944384 -0.008323294 -0.0094239665 -0.0031798515 0.0103766 -0.003950864 -0.004819697
0.0112716835 0.01958456 0.019269573 -0.015086886 -0.0060179303 0.010485138 -0.004961659 0.025087506
-0.011402415 -0.029359149 -0.0068286727 -0.031438712 0.014358246 0.00094497186 0.008699459 -0.016537853
-0.030288512 0.036140826 -0.010684136 0.008787948 0.0058360742 0.023262914 -0.015349764 -0.029341733
0.012506196 -0.022262117 -0.0029319185 -0.023079151 0.0069788196 -0.0010016346 0.016223637 0.0044265846
-0.027628617 -0.0052677966 0.007968991 -0.0050852373 -0.06312495 0.019949712 0.0068324446 -0.0161947
-0.038535256 0.030163452 -0.00080563634 -0.017084172 -0.009684151 0.010282897 -0.015754677 0.016569609
-0.014952411 -0.0029983043 0.012617746 0.02007411 0.0028597054 0.020777544 0.035196815 -0.015176688
0.0386529 -0.02269015 -0.05960432 0.016248055 0.008840727 -0.00280119 0.018610105 0.019084122
0.019508764 -0.0056829285 -0.019689891 0.0053405827 -0.018634358 -0.007658189 0.027370686 -0.022278177
0.01266088 -0.019567829 -0.012011027 -0.017317891 -0.015139172 -0.048288405 0.0035650157 0.04664711
-0.012317607 -0.020162838 -0.027813837 0.00969635 -0.0032803663 0.01950968 0.03450591 0.0299382
-0.059000842 -0.0272795 0.012208773 0.0006152338 -0.032915473 -0.0040256204 0.0061979285 0.008960223
0.008516766 0.017094556 -0.007876094 0.009069251 0.00014233969 0.0045543257 0.0003004342 -0.028028067
-0.0032499358 -0.011916795 -0.021396162 0.00743324 0.03338936 0.00069076946 -0.01784945 -0.022676207
-0.032296833 -0.030349605 -0.02259225 0.01692877 -0.04041799 -0.002992442 -0.00050635927 -0.00046140855
-0.02362036 -0.038545083 0.017693821 -0.009188025 0.027160142 0.029655492 -0.0012054552 0.029530138
-0.042623203 -0.023871567 -0.008910019 -0.027423257 -0.03823658 0.022911305 -0.032499634 0.008402568
-0.018279923 -0.015984843 0.0017817181 -0.009631317 -0.00091122347 -0.0117225405 -0.0048434217 -0.016309822
0.015047245 0.04033152 -0.0064171944 -0.0026054266 0.017293584 0.004665556 -0.005239706 -0.003028463
0.03774716 -0.022229826 0.021812296 -0.0059851073 0.0060284375 -0.009684165 0.0012044302 -0.01172736
00000000: 10ab 323c 1057 983c fee5 843c 4e5f 36bc
00000010: 37d0 1cbb 5296 dabb b6e1 21bc 34c7 b23b
00000020: 21a8 a0bc d36b 59ba 2cd7 e8bc 1c0c e73a
00000030: 337b 5a3c 9c6f 9f3c d201 e13c c48c 8c3c
00000040: a176 173d 18e9 763c 4db7 233c 64f4 58bc
00000050: a078 8ebb e584 eebb 18ed 32bd b46e 16bc
00000060: 23a6 96ba 0285 3ebc 440e a53c 3df7 c2bc
00000070: abbb 8c3c f57f b2bb f45a e2bb 1da7 173c
00000080: 279f 6ebc 04e5 30bd 799e c33c 0a18 9ebc
00000090: d6d8 2a36 4176 28bd 6409 87bc b46e c23c
000000a0: 2cef fc3b 943b b6bc 0da9 97ba e9d5 8d3c
000000b0: e4ae 2bbb e953 6fbc 7764 c0bc c5c7 e8bb
000000c0: 17ef 5cbb 7540 383d 501b a73c be73 13ba
000000d0: cb3b 46bc 828a fabc 26ce 7a3a 09f4 c0bc
000000e0: 1cc5 4f3d cb70 723c cad6 17bc 8fc6 fbbb
000000f0: c5ee febc d9d3 d6bc 0bee 933c a481 9abb
00000100: 6a0c 4d3b cbd4 5abc 0613 5f3c 3516 3dbb
00000110: 9178 923c e98b cf3b b246 253c 599c cfbc
00000120: 824e 993c 2589 8eba 1b4e 6d39 b41e 9fba
00000130: a343 edbc b8b3 e4b9 5dd3 ca3b 1dbd 743c
00000140: 4919 8fbc 86e4 f2bc c06e 993a 8521 e73c
00000150: e441 cd3c 1008 ff3c 58f3 ad3b d7e3 1f3d
00000160: 6703 5238 2a58 ccbc 6d5e 08bc fb66 1abc
00000170: 0e65 50bb 9d02 2a3c 4076 81bb 8cee 9dbb
00000180: deac 383c cd6f a03c 39db 9d3c fc2e 77bc
00000190: 0f32 c5bb dbc9 2b3c 6a95 a2bb 5084 cd3c
000001a0: 32d1 3abc 9982 f0bc 0fc3 dfbb e1c5 00bd
000001b0: d93e 6b3c fdb7 773a 2d88 0e3c 647a 87bc
000001c0: 9d1f f8bc 6708 143d 840c 2fbc 53fb 0f3c
000001d0: 8a3c bf3b de91 be3c 947d 7bbc 135e f0bc
000001e0: cae6 4c3c 0b5f b6bc 6e25 40bb 7d10 bdbc
000001f0: 95ae e43b 4849 83ba 6fe7 843c e20c 913b
00000200: 6955 e2bc 7b9d acbb 5f90 023c 10a2 a6bb
00000210: a747 81bd 946d a33c b3e2 df3b bfaa 84bc
00000220: 25d7 1dbd 5819 f73c 5731 53ba 1bf4 8bbc
00000230: 46aa 1ebc 9979 283c f40f 81bc fdbc 873c
00000240: f5fa 74bc 337f 44bb aaba 4e3c 7672 a43c
00000250: e569 3b3b ab35 aa3c 892a 103d a5a7 78bc
00000260: 8152 1e3d b2e0 b9bc a923 74bd a41a 853c
00000270: b2d8 103c 2b94 37bb 3874 983c 4e56 9c3c
00000280: d8d0 9f3c dc37 babb b24c a1bc 0e00 af3b
00000290: 15a7 98bc 8cf1 fabb 7d38 e03c b980 b6bc
000002a0: 946f 4f3c b64c a0bc e6c9 44bc 40de 8dbc
000002b0: 4a0a 78bc 10ca 45bd 0aa3 693b 0a11 3f3d
000002c0: cacf 49bc 892c a5bc d8d9 e3bc 71dd 1e3c
000002d0: 6afb 56bb c4d2 9f3c 1256 0d3d f540 f53c
000002e0: deaa 71bd 4279 dfbc 4e07 483c a447 213a
000002f0: 60d2 06bd 5ae9 83bb fe17 cb3b e6cd 123c
00000300: e889 0b3c e209 8c3c bc0a 01bc 3297 143c
00000310: 0541 1539 743c 953b 9983 9d39 1e9b e5bc
00000320: e0fc 54bb a93e 43bc 0147 afbc 8992 f33b
00000330: 48c3 083d c114 353a 0339 92bc 74c3 b9bc
00000340: af49 04bd bc9f f8bc 6213 b9bc 34ae 8a3c
00000350: 568d 25bd d91c 44bb 32bd 04ba 35e9 f1b9
00000360: 7c7f c1bc 73e1 1dbd a2f2 903c 5f89 16bc
00000370: f27e de3c 13f0 f23c 5d00 9eba 30e9 f13c
00000380: ab95 2ebd 4e8e c3bc 54fb 11bc bda6 e0bc
00000390: f69d 1cbd 7db0 bb3c 561e 05bd edaa 093c
000003a0: c7bf 95bc a5f2 82bc 8a88 e93a accc 1dbc
000003b0: 2cdf 6eba e60f 40bc 91b5 9ebb 2d9c 85bc
000003c0: b888 763c aa32 253d 5447 d2bb cebf 2abb
000003d0: 46ab 8d3c 85e1 983b d7b1 abbb 2e79 46bb
000003e0: c49c 1a3d 531b b6bc b3af b23c b81e c4bb
000003f0: 338a c53b 55aa 1ebc f9dd 9d3a 1d24 40bc

encoder.0.attention.fc.bias f4 [32]
0.0 0.0 0.0 0.0 0.0 0.0 0.0 0.0
0.0 0.0 0.0 0.0 0.0 0.0 0.0 0.0
0.0 0.0 0.0 0.0 0.0 0.0 0.0 0.0
0.0 0.0 0.0 0.0 0.0 0.0 0.0 0.0
00000000: 0000 0000 0000 0000 0000 0000 0000 0000
00000010: 0000 0000 0000 0000 0000 0000 0000 0000
00000020: 0000 0000 0000 0000 0000 0000 0000 0000
00000030: 0000 0000 0000 0000 0000 0000 0000 0000
00000040: 0000 0000 0000 0000 0000 0000 0000 0000
00000050: 0000 0000 0000 0000 0000 0000 0000 0000
00000060: 0000 0000 0000 0000 0000 0000 0000 0000
00000070: 0000 0000 0000 0000 0000 0000 0000 0000

encoder.0.fc1.weight f4 [64, 32]
0.00414431 0.025632678 0.0048531424 0.009255613 0.014726987 0.0044709835 -0.00076614483 0.01589105
0.0043610847 -0.017988522 0.069274485 0.004198781 0.026468512 -0.007693727 -0.04919999 -0.0005728168
-0.030994382 0.021027753 0.012777601 -0.008007082 -0.013668262 0.005658185 0.019191045 -0.004463981
-0.057550367 -0.005293513 -0.009034627 0.011318861 0.016832452 0.020528695 -0.016264016 0.032531653
0.057106078 -0.032148533 -0.039433554 -0.016420562 -0.021343665 -0.045579977 0.004084932 0.015024808
-0.006624833 0.03378774 -0.05232237 -0.031977333 -0.031339895 -0.023195686 0.010258901 0.03138343
-0.0105471425 0.029944444 -0.024143599 -0.013549569 0.06387733 -0.027420903 -0.010399558 -0.0232867
0.06266856 -0.03278731 -0.020529004 -0.033779286 -0.024061449 -0.032594517 0.004715887 0.02755662
-0.003644653 0.00895519 0.011348173 -0.016355991 0.0120931445 0.056637533 0.012621318 -0.022249501
0.008017567 0.0020059256 0.019725828 -0.03079648 -0.01072233 -0.02174187 0.019774634 0.032514628
0.011157746 -0.0023271327 -0.008104181 0.0006891575 -0.018686432 -0.009411092 0.011048267 0.009691209
-0.018570252 0.008821447 0.0018304485 0.035841502 0.027935384 0.0028971788 0.024173941 -0.0055257445
-0.0028617713 0.02459087 -0.04557895 0.00016300578 0.0038849663 -0.035093334 0.030228658 0.045225713
-0.032670815 0.019885812 -0.007488301 0.011907578 -0.012142445 0.011354517 -0.005201028 -0.0024615265
-0.05386569 -0.019466184 0.009647351 0.027811233 0.038201243 -0.019543365 0.04024263 0.01624539
-0.0034105224 -0.01839123 0.016133636 -0.030791972 -0.008401113 -0.0011876803 -0.042799883 -0.012740416
0.037568264 0.04269176 0.014684699 -0.028827714 -0.028909238 0.01108292 -0.004844439 0.026547369
-0.032782625 0.014594101 -0.020602996 0.023165274 -0.028441766 -0.031625234 0.018616807 -0.011666575
-0.004531006 -0.009463027 -0.013704194 -0.020243227 0.065445215 0.010697686 0.003279083 -0.0021937403
0.028958596 -0.009266471 -0.019407926 -0.049990293 -0.023587218 -0.04059052 0.025104648 0.017419748
-0.0029004053 0.007946974 0.00035020075 0.019946165 -0.017555334 -0.0051671998 9.217551e-05 0.030976323
-0.016722612 0.010570966 -0.014164815 -0.014385129 -0.014226623 0.007927394 0.007043719 -0.028084561
0.009112086 -0.006577888 -0.021156523 -0.0018855749 -0.00020166903 -0.019204894 0.016462684 0.02833174
0.01604319 -0.010698344 -0.006968132 0.011197085 0.002685683 -0.005144258 0.030077195 -0.00922695
0.030315144 0.013683664 -0.01984733 0.020126779 -0.01007234 -0.04391948 -0.026003234 0.0064305267
-0.016549967 0.0018868354 -0.036600597 -0.008746258 0.016623672 0.015047295 -0.021234399 0.023685494
-0.0043120296 0.013848977 -0.006164102 0.049689364 0.025595559 -0.016214846 -0.011698121 0.02589754
0.029372616 0.004562114 0.041095372 -0.023734415 0.012943023 0.002098145 0.023325715 -0.009579545
0.008805189 0.03274177 0.03774492 0.00969797 -0.016111024 -0.0011680246 -0.00087015185 0.025522111
0.054319516 -0.012462923 -0.012418269 -0.050689768 -0.06164314 -0.0006276445 0.054105606 -0.011449432
-0.0064604357 0.016205879 0.04244374 -0.0060540857 -0.012799622 -0.009133013 -0.01466339 -0.054691736
0.040437203 0.018062027 -0.00729938 0.021819318 -0.018867303 0.03166098 -0.0038358117 -0.019920116
00000000: fecc 873b 9ffb d13c 1c07 9f3b dba4 173c
00000010: 7649 713c 5481 923b 1cd7 48ba f32d 823c
00000020: 6ee7 8e3b aa5c 93bc c8df 8d3d ee95 893b
00000030: 7ed4 d83c a91b fcbb ee85 49bd 1629 16ba
00000040: eee7 fdbc 6542 ac3c 2559 513c 2330 03bc
00000050: d9f0 5fbc 4c68 b93b 8a36 9d3c 9646 92bb
00000060: efb9 6bbd 3575 adbb f905 14bc be72 393c
00000070: 36e4 893c cb2b a83c 1d3c 85bc e93f 053d
00000080: 10e8 693d 2eae 03bd 1485 21bd 6a84 86bc
00000090: e9d8 aebc 12b2 3abd e5da 853b 9d2a 763c
000000a0: 2115 d9bb 0365 0a3d fb4f 56bd aafa 02bd
000000b0: 435e 00bd e104 bebc f314 283c e98b 003d
000000c0: eccd 2cbc 0d4e f53c ccc8 c5bc 03ff 5dbc
000000d0: 1ed2 823d cda1 e0bc e862 2abc c0c3 bebc
000000e0: 6058 803d fd4b 06bd 712c a8bc 265c 0abd
000000f0: 841c c5bc d481 05bd ba87 9a3b 6cbe e13c
00000100: 21db 6ebb cab8 123c b0ed 393c 00fd 85bc
00000110: 5322 463c c2fc 673d a5c9 4e3c 9644 b6bc
00000120: 1d5c 033c d975 033b 0f98 a13c e648 fcbc
00000130: b6ac 2fbc 021c b2bc 6afe a13c 0f2e 053d
00000140: fbce 363c cf82 18bb 66c7 04bc 94a8 343a
00000150: 4a14 99bc fb30 1abc ca03 353c e0c7 1e3c
00000160: a420 98bc d587 103c a9eb ef3a 8ace 123d
00000170: bfd8 e43c 98de 3d3b 6e08 c63c 4e11 b5bb
00000180: 8e8c 3bbb cb72 c93c feb0 3abd 88ec 2a39
00000190: eb9a 7e3b 07be 0fbd 17a2 f73c 993e 393d
000001a0: d5d1 05bd 92e7 a23c 6c60 f5bb 0118 433c
000001b0: 1bf1 46bc 4c08 3a3c 636d aabb 9051 21bb
000001c0: 45a2 5cbd 8c77 9fbc ec0f 1e3c 62d4 e33c
000001d0: e878 1c3d 6819 a0bc 75d5 243d 0d15 853c
000001e0: 1283 5fbb 34a9 96bc b02a 843c 723f fcbc
000001f0: d2a4 09bc f0ab 9bba ee4e 2fbd 2ebd 50bc
00000200: 2ee1 193d 8edd 2e3d 1798 703c 1928 ecbc
00000210: 11d3 ecbc 2395 353c 1abe 9ebb de79 d93c
00000220: 1347 06bd 191c 6f3c 9dc7 a8bc 1ac5 bd3c
00000230: b5fe e8bc 7689 01bd 4682 983c 2a25 3fbc
00000240: d578 94bb d00a 1bbc 8e87 60bc 20d5 a5bc
00000250: 2408 863d 5945 2f3c e2e5 563b dbc4 0fbb
00000260: 943a ed3c 65d2 17bc 5ffd 9ebc 9fc2 4cbd
00000270: fb39 c1bc 3f42 26bd 43a8 cd3c dcb3 8e3c
00000280: ba14 3ebb 0634 023c 269b b739 2466 a33c
00000290: 34d0 8fbc 9d51 a9bb 5a4e c138 0fc2 fd3c
000002a0: dcfd 88bc d831 2d3c 8a13 68bc 9baf 6bbc
000002b0: c816 69bc e6e1 013c ffce e63b 9811 e6bc
000002c0: dc4a 153c 538b d7bb 7250 adbc 6525 f7ba
000002d0: 1e77 53b9 9553 9dbc c0dc 863c f717 e83c
000002e0: 026d 833c 1b48 2fbc ee54 e4bb fa73 373c
000002f0: 4902 303b 2a91 a8bb 7364 f63c a22c 17bc
00000300: 7757 f83c 7231 603c de96 a2bc eae0 a43c
00000310: 7506 25bc eae4 33bd bc04 d5bc 2bb7 d23b
00000320: cc93 87bc b14f f73a 82ea 15bd 774c 0fbc
00000330: 5e2e 883c ee88 763c c3f3 adbc 1508 c23c
00000340: ed4b 8dbb d2e6 623c 3cfc c9bb 1387 4b3d
00000350: c7ad d13c ffd4 84bc 7aa9 3fbc 1427 d43c
00000360: d79e f03c c97d 953b 9f53 283d ad6e c2bc
00000370: f90e 543c 0881 093b 9215 bf3c 86f3 1cbc
00000380: a443 103c 3c1c 063d 6b9a 1a3d 3ce4 1e3c
00000390: 44fb 83bc 6718 99ba e71a 64ba bf13 d13c
000003a0: 247e 5e3d 4a31 4cbc ff75 4bbc 13a0 4fbd
000003b0: 847d 7cbd 8288 24ba d79d 5d3d 6696 3bbc
000003c0: 10b2 d3bb 31c2 843c 7dd9 2d3d 5a61 c6bb
000003d0: 81b5 51bc a2a2 15bc b73e 70bc 7104 60bd
000003e0: 7ba1 253d d1f6 933c a32f efbb 6dbe b23c
000003f0: 9a8f 9abc f2ae 013d 3e62 7bbb 832f a3bc
