model/mnist/tune_lr0.0001_ed64_nl4_nh2_fm2_ps4/temp_model.pt (torch, 597127 bytes, 74 tensors)

embedding.cls_token f4 [1, 1, 64]
00000000: 1a8c a0b9 73f7 cd3b f20e b13a 5b50 7a3b
00000010: ba65 6f3b c96b 3fbb 57cf 253a d744 913b
00000020: 6f5a f3bb 8777 a7bb f356 d23a 4033 c53b
00000030: 5bbd 45bb b2bd d83a 3784 b3bb 024e d43a
00000040: af2c 703b 0b1f 53bb fcea 37bb 27de 94bb
00000050: d0a1 013c 7b99 6e3b 80a0 203c fd6c 94bb
00000060: d8e9 1f3a 276c 8bb9 c0ad a53b a920 9a3a
00000070: 19ac d4bb c3f9 e83b 6b7f fdba 0109 95bb
00000080: 177c 39bb 0a40 29ba 4992 de3b 484a 31bb
00000090: 1c2d 8ebb 034c cd38 782b 25bb b293 edb6
000000a0: 8240 6fbb b57c 083b 2a7b 8f3b d3a4 13bb
000000b0: c299 a4ba 6125 853b a821 7e3b 4eb6 3bbb
000000c0: 5d23 673b 6f4f 6abb cb6c 05bb 3914 6d38
000000d0: c43b 05bc f7eb beba 7071 5cbb 1a2e 903b
000000e0: 658e f73b 820b 4f3a 866b 4bbb 2254 1b3c
000000f0: 1f59 72bb 98c6 2e3b 5c1e 17bc 00d1 aebb
-0.00030621962 0.0062856018 0.0013508482 0.0038194868 0.003652914 -0.0029208532 0.00063251465 0.004433255
-0.007426552 -0.0051106843 0.0016047641 0.0060180724 -0.003017268 0.0016536026 -0.0054784077 0.0016197565
0.0036647727 -0.0032214548 -0.0028063646 -0.004543084 0.007912114 0.00364074 0.009803891 -0.004529594
0.0006100214 -0.00026592726 0.005056113 0.0011759001 -0.006490242 0.007109852 -0.0019340342 -0.0045481925
-0.0028302723 -0.0006456381 0.006792341 -0.0027052332 -0.0043388736 9.78932e-05 -0.0025202911 -7.0803444e-06
-0.0036506956 0.0020826284 0.004378696 -0.0022528663 -0.001255803 0.004063294 0.0038777385 -0.0028642598
0.003526888 -0.0035752913 -0.0020359035 5.6524037e-05 -0.008131925 -0.0014566173 -0.003363695 0.004400027
0.0075548165 0.0007898138 -0.003103943 0.009480508 -0.003697939 0.0026668664 -0.009223547 -0.0053349733

embedding.pos_embedding f4 [1, 50, 64]
00000000: ff8b a0b9 73f7 cd3b ea0e b13a 6150 7a3b
00000010: b665 6f3b be6b 3fbb 64cf 253a cf44 913b
00000020: 755a f3bb 8177 a7bb fe56 d23a 3d33 c53b
00000030: 61bd 45bb a7bd d83a 3284 b3bb 004e d43a
00000040: b52c 703b 0c1f 53bb 02eb 37bb 20de 94bb
00000050: d2a1 013c 8899 6e3b 7da0 203c fe6c 94bb
00000060: c4e9 1f3a 346c 8bb9 b7ad a53b a120 9a3a
00000070: 1eac d4bb c8f9 e83b 597f fdba 0009 95bb
00000080: 067c 39bb 1040 29ba 4a92 de3b 4c4a 31bb
00000090: 172d 8ebb 844b cd38 6e2b 25bb 14a7 edb6
000000a0: 7f40 6fbb af7c 083b 267b 8f3b d2a4 13bb
000000b0: be99 a4ba 6825 853b b821 7e3b 4cb6 3bbb
000000c0: 6123 673b 724f 6abb be6c 05bb c712 6d38
000000d0: c33b 05bc 09ec beba 6871 5cbb 262e 903b
000000e0: 688e f73b 650b 4f3a 816b 4bbb 2454 1b3c
000000f0: 2859 72bb 90c6 2e3b 591e 17bc 01d1 aebb
00000100: e9ef beb9 53d4 60bb 4232 61bb 19c4 ebbb
00000110: 3bf2 12bc a67e 003c d472 22bb 9bc0 dfbb
00000120: bee7 e4bb 62a2 8b3b 1c34 283c 7bd9 a2b9
00000130: d694 393c f578 1abc 75c0 9cbc a03f c9bb
00000140: 11d3 08bc 1b8d 7f3b 5920 a33a 684b 5a3b
00000150: 5c60 c1bb 861b 993b c447 00bb 776d c4bb
00000160: 080b 9cbb 266e df37 9422 d2bb 64e6 e1bb
00000170: 3510 4cbb 6d61 eabb b8b9 b63b 56ce f33b
00000180: 281c 3a3b 1de8 9138 e814 633b 5f10 f43b
00000190: 41f1 0a3c 3566 2dbb 152e fcba 6df8 263c
000001a0: 932f f63b d1e0 cc3b ce50 c7ba b5b4 223c
000001b0: 1e2f 51bc 3d6b f7ba bf2a 2ebc 77d8 d73b
000001c0: 783c b33b 9388 563c a4b8 67bb 7819 e4bb
000001d0: 7b37 68bc 8652 3e3b 45bd 023c 84dd a73b
000001e0: ae98 52bb f9df ecbb b420 d93b c1a8 95bb
000001f0: 3f89 88b9 3064 3c3b c628 cf3b 9b65 bbba
00000200: 3803 3abb 6ab0 8ebb 26c2 83bb e603 fcbb
00000210: 231c 12bc 0fe3 bd3b dbbd e0ba 3269 fbbb
00000220: 76f4 c9bb 7f49 513b ac1d 233c b79a d437
00000230: aa8b 263c 7a98 1fbc 3122 84bc 44df b3bb
00000240: 5632 06bc 3d3d 893b 43cf bf39 d425 ae3a
00000250: 495f bcbb 5a11 943b 805b cdb9 d44d babb
00000260: 7e6a 90bb c208 2e3a cac6 d6bb a055 cbbb
00000270: 8f7c 45ba b3a2 d5bb 5037 b13b 827f 853b
00000280: 273c 503b eec4 7d3b 13c8 583b 95fb d23b
00000290: 09b8 0d3c c1b5 7139 6cb5 c9ba 6b26 203c
000002a0: 8af9 213c 4ae2 b13b affb 4ab9 f966 043c
000002b0: feae 37bc f230 21bb 62d2 36bc c0ca 2e3b
000002c0: 5d4b 0d3c 9b52 543c 3de5 6abb 744c 9abb
000002d0: 4746 7abc be63 013b 24db f03b b92e 953b
000002e0: 3381 7fbb 6384 ecbb 8c42 ad3b eefe 92bb
000002f0: 201d 283a 2ae3 863b 2a93 b73b e701 61ba
00000300: 7b5a 81bc 89f0 a8bb 3ab3 f7ba b74e 7737
00000310: e528 043c 7f03 14bc 6414 e43b 0c89 8abc
00000320: 96f6 58bb 99b4 f4bb a26d 01bb 5ca1 15bc
00000330: a794 b0b9 11de 18ba fcc2 ab3b 99ef e33a
00000340: a5be 0d3a ead6 c83a 257a 18bc 400a d4bb
00000350: 7e5d 4e3a c2cb 803b 9a2b 553c 4474 a63b
00000360: 153d f33b b197 c3bb 3391 f039 db2d eb3b
00000370: 7489 5d3c e4d0 1039 6102 e539 d136 34bc
00000380: dcc5 0dbb d3bc 013c f693 b93b b133 80bb
00000390: e5dc f13b 4d31 8b3c 37fe 91ba c6d6 5bb9
000003a0: f3aa d73b 68dd b5bb 888e 373b 5014 0dbc
000003b0: 1875 3bbc cb07 ec3b f7f3 2e3a 8fc6 3dbc
000003c0: 6b8a 553c 4781 303b 6e65 e93b e361 473b
000003d0: 3205 c53a 9de5 a73a 63f3 c939 12cd 44bb
000003e0: 3c45 68ba 55cb ae3b d32d 81bb 02b0 f039
000003f0: 63e3 123c 19b0 17bc 3145 d1ba 3f9d 1f3c
-0.00030621883 0.0062856018 0.0013508473 0.0038194882 0.003652913 -0.0029208506 0.0006325154 0.0044332515
-0.007426555 -0.0051106815 0.0016047654 0.006018071 -0.0030172693 0.0016536013 -0.0054784054 0.0016197562
0.0036647741 -0.003221455 -0.002806366 -0.004543081 0.007912116 0.003640743 0.009803888 -0.0045295944
0.00061002024 -0.00026592764 0.005056109 0.0011758992 -0.0064902445 0.0071098544 -0.0019340321 -0.004548192
-0.0028302683 -0.00064563844 0.0067923414 -0.002705234 -0.004338871 9.7892276e-05 -0.0025202888 -7.082601e-06
-0.0036506949 0.002082627 0.004378694 -0.002252866 -0.0012558026 0.004063297 0.0038777422 -0.0028642593
0.003526889 -0.003575292 -0.0020359005 5.652269e-05 -0.008131924 -0.0014566194 -0.0033636931 0.0044000326
0.007554818 0.0007898121 -0.003103942 0.00948051 -0.003697941 0.0026668645 -0.009223544 -0.005334974
-0.0003641837 -0.0034306243 -0.0034362231 -0.0071950075 -0.008968885 0.007842695 -0.0024787681 -0.0068283803
-0.0069856336 0.004261301 0.01026633 -0.00031061083 0.011326989 -0.0094282525 -0.01913474 -0.006141618
-0.008351103 0.0038994018 0.0012445553 0.0033309106 -0.0059013795 0.0046724705 -0.0019574026 -0.0059944945
-0.004762057 2.6634963e-05 -0.0064128134 -0.00689392 -0.003113759 -0.0071527273 0.0055763386 0.0074403686
0.002839813 6.957373e-05 0.0034649912 0.0074482406 0.008480371 -0.0026458625 -0.0019239808 0.010191065
0.0075129955 0.006252386 -0.0015206577 0.009930779 -0.012767581 -0.0018876564 -0.010630309 0.006587084
0.005469855 0.013094085 -0.0035357857 -0.006961044 -0.014173384 0.0029040887 0.007979696 0.0051228423
-0.0032134461 -0.007228848 0.006626213 -0.004567236 -0.00026042198 0.002874624 0.0063219992 -0.0014297249
-0.0028383266 -0.0043545263 -0.004020947 -0.0076908944 -0.008917841 0.0057948898 -0.0017146425 -0.0076724524
-0.006163175 0.0031934676 0.009955805 2.5344414e-05 0.010165134 -0.009740943 -0.016129585 -0.005489262
-0.008190712 0.0041882084 0.0003658478 0.001328642 -0.0057486636 0.00451867 -0.0003916882 -0.0056855474
-0.004407226 0.0006638878 -0.006554459 -0.0062052757 -0.0007533514 -0.0065196394 0.005408205 0.004074038
0.0031774135 0.0038722116 0.0033078238 0.0064386823 0.008649834 0.0002305126 -0.0015389151 0.009774785
0.009886155 0.005428587 -0.0001935798 0.008081191 -0.011211155 -0.0024595824 -0.011158558 0.0026671141
0.008623925 0.012959148 -0.0035842203 -0.004708821 -0.0152755445 0.001974329 0.0073503423 0.004552689
-0.003898692 -0.00721793 0.005287474 -0.0044859564 0.00064130314 0.0041164355 0.00560226 -0.00085833523
-0.015790215 -0.005155627 -0.0018898018 1.47406745e-05 0.008066391 -0.009034037 0.0069604386 -0.016911052
-0.003310596 -0.007467818 -0.0019749184 -0.009132709 -0.0003368009 -0.00058314303 0.00524175 0.0017390131
0.00054071314 0.0015322838 -0.009306465 -0.0064709485 0.0007872208 0.00393054 0.013010884 0.005079778
0.007423053 -0.0059690108 0.0004588455 0.0071770973 0.013521541 0.00013810728 0.00043680056 -0.010999397
-0.0021632826 0.007918554 0.0056633903 -0.003912412 0.007381069 0.016991282 -0.0011138384 -0.00020965477
0.006581658 -0.0055500753 0.002800854 -0.0086108 -0.011441492 0.0072030774 0.0006673927 -0.011582985
0.01303349 0.0026932524 0.007122687 0.0030423335 0.0015031456 0.0012809519 0.00038519045 -0.0030029458
-0.00088604144 0.0053342977 -0.0039422303 0.00045907503 0.008965346 -0.009258294 -0.0015966055 0.00974208

embedding.conv1.weight f4 [64, 1, 4, 4]
00000000: e077 4cbd 1f5c 97bb 803c a13c 4303 d03c
00000010: dcd8 6bbc 46d0 07bb 861b 8fbc c1c5 103d
00000020: 9156 a2ba f3be 96bc 07fb ce3c 4937 babb
00000030: bb3c bcbc 3d76 873c b534 423c 232a a9bb
00000040: 62d2 3e3c c764 073d d254 6b3c b26c 073d
00000050: 1a8c f03a a53d 5cbd 123b ea3c 3720 393c
00000060: 5ffb 5f3a bf25 f9bc d48c 023d 3946 a8bc
00000070: 3224 7abc 8405 04bb db90 18bc 3913 18bd
00000080: f3fc 903c 1c9a ebbc 724d 94bb b125 2fbc
00000090: 5b65 1cbc 0ce8 78bc 2b48 f6ba 466e c6bb
000000a0: 36e1 2dbc cf8e 75bb 91b0 b5bb 3f00 f2bb
000000b0: e486 913c 2665 51bc 2d69 0e3b 3000 65ba
000000c0: 42cf c1bc 6203 0cbd 5238 98bc 5cc0 c3bb
000000d0: 1d05 bd3c 10bf 833c e000 e93c 658d 25bc
000000e0: 3583 dc3c cd9c 503c 8a90 3bbc 898c 3abc
000000f0: ec4b bbbc 8021 823c 4970 05bb 6dac cfbc
00000100: 26d1 5c3d 550d 5a3c 3957 5e3c d355 8dbc
00000110: d418 dbbc 6eff 093c 5e32 1f3d 4a57 0abc
00000120: 83f0 88bc 4d0b c03c 7255 d83b eef8 a93b
00000130: 91dc c7bb 8348 5d3a c2a9 d03a f233 97bb
00000140: 91ff ebbc d3e1 c03a 72cd a43c 8276 66bc
00000150: 4f29 d2bc 9c15 e1bb 5477 44bc 063c 01bc
00000160: b312 87bc e190 ffbb 3354 d53a 64ec 08bd
00000170: dd89 a43c e797 c93c 6b8a d4bb 253d e33b
00000180: 0011 a23b d927 22bd 8c82 b73b e1b1 38bc
00000190: fc42 2dbb e4f5 223c 168d 243c c261 dc3c
000001a0: b7e4 a7bc d5e4 b53c 28d3 08bd a3a3 bdba
000001b0: 773e 5e3c df46 e4bc d59d abbc 950e ff3c
000001c0: 5f3b 9abb 5129 d7bc 34c8 273d f077 03bd
000001d0: 26fb b0bc cf3f 51bb 41a7 66bc ff5a a43c
000001e0: 5c4c b1bc 6daf 103d beac db3b 34e9 6f3a
000001f0: 5467 793c e9b9 233c dc97 bebc 216f 8dbc
00000200: 2c80 21bd 7fc6 34bb 882b 023c 8053 be3b
00000210: dccb 303d 0d0f 89bd 68aa c5bc 2d2b f23c
00000220: abfe 963b 626a 83bc bb70 e13c 4501 be3c
00000230: 55ff 9bb9 40dc 84bc 7bc2 9ebc e381 603b
00000240: f9b5 01bc 61fa 4fbc fddc 66bb 2ea0 4dbc
00000250: e2c6 5abc 98e2 933c a4cd 45bd e547 0b3c
00000260: e9b7 15bc d685 96ba 280a 823a 7655 2fbb
00000270: 44b7 43ba 3571 ec3c 93d0 ba3b 84f6 683c
00000280: a48e af3c 033d 99bc 9846 09bd a917 a23c
00000290: 4c3c 5d3b b8ab 113a 13bf 81bc 6681 b6bc
000002a0: 1806 ffbb df58 493b 2b17 083d 1480 d1bb
000002b0: 9ab7 683c 799f 253c 8c9e 203c b088 14bd
000002c0: 3a09 94bc 3b01 43bc 7ede 80bb cee9 a4bb
000002d0: 4b64 8bbc d55b 6d3b 26eb 1b3d a6a8 aa3c
000002e0: 01c3 3abb 3533 143c 4ca7 c7bb 13b7 0d3c
000002f0: 2db1 573c b8c2 e73c 9a55 e9bc 98ce 10bd
00000300: 9b3a 5ebc 8eef 25bd 71b9 88bb 6164 a5bb
00000310: 8784 1ebd 3510 d8bb 3d41 c23b 628a 01bd
00000320: e325 9e3c 0b2c 00bd aa4a f83c 16dc de3c
00000330: 01f5 303c 96c5 a73c 44f9 e0bb 52fe 8a3c
00000340: 13d4 05bd 2138 1bbd 1d57 80bc e1fb 3cbc
00000350: 44dd 9ebb bfe3 1b3d 43aa 64bc 55b3 c8bc
00000360: 2fce 453c 01e9 f53c c341 b03c d760 a73c
00000370: dd07 a2ba 596e 3dbb 9898 92bc fd09 af3b
00000380: fe1a 6c3b 21de 2039 8d2e 8e3c b705 8e3c
00000390: 6772 303c 725a 173c c0e9 60bb 5fe2 f5bb
000003a0: b6cd 6c3b 04bc 983c 7645 c53b 1bc8 0f3c
000003b0: b74f 2e3c ed4c 62bc 3c50 cf39 d9fd f2bb
000003c0: 57d4 27bc f561 eabc 1843 0bbc a6a1 fdbb
000003d0: 36a0 3a3b 9d44 5d3c 0c76 cabc 0aa0 8b3b
000003e0: 260e 26bb 23fd d3bc 8293 afbc b98f f43c
000003f0: c482 29bd 6ccd 4e3b 5d7b 363c c8b1 81bc
-0.04991901 -0.004619136 0.019682169 0.02539218 -0.014394965 -0.0020723506 -0.017469179 0.035344843
-0.0012385418 -0.018401599 0.025266184 -0.00568286 -0.022978177 0.016535873 0.011853387 -0.005162494
0.011646839 0.033055093 0.014363484 0.033062644 0.00183523 -0.053769726 0.02859262 0.0112991845
0.0008544232 -0.030413507 0.031872585 -0.020541297 -0.015267419 -0.002014489 -0.00931188 -0.037127707
0.01769874 -0.028760009 -0.0045258338 -0.010690139 -0.009545649 -0.015192043 -0.0018789818 -0.006055626
-0.0106127765 -0.0037469154 -0.00554473 -0.0073852832 0.017764516 -0.012780463 0.002173017 -0.00087356847
-0.023658399 -0.034182914 -0.018581543 -0.0059738588 0.023073727 0.016082317 0.0284428 -0.010104512
0.026918033 0.012732697 -0.011448035 -0.011386045 -0.02286335 0.015885115 -0.0020361117 -0.025350774
0.053910397 0.013308843 0.0135706 -0.017252838 -0.026745237 0.008422716 0.038866393 -0.008443663
-0.016716247 0.023442889 0.0066019827 0.0051871454 -0.0060992916 0.0008441286 0.0015919732 -0.0046143467
-0.028808387 0.0014715738 0.020117495 -0.01406634 -0.025654463 -0.006869031 -0.011991341 -0.007887846
-0.016488409 -0.0077992533 0.0016275704 -0.033428565 0.02008527 0.024608565 -0.0064862273 0.006934779
0.004945874 -0.039588783 0.005600279 -0.011272878 -0.002643763 0.00994632 0.010043403 0.026902083
-0.020494802 0.022203842 -0.0334045 -0.0014468323 0.0135646975 -0.027865825 -0.020949284 0.031134883
-0.0047067846 -0.026264818 0.040962413 -0.032096803 -0.021604132 -0.0031928902 -0.014077962 0.020062922
-0.021642856 0.03532355 0.006703942 0.00091518764 0.015222389 0.009993055 -0.023265772 -0.017264904
-0.039428875 -0.0027584133 0.007944949 0.005808294 0.043163165 -0.06692324 -0.024129108 0.029561603
0.0046079955 -0.016041938 0.027519574 0.023193965 -0.0002975414 -0.016218305 -0.019379845 0.0034257106
-0.007916921 -0.012693972 -0.0035226934 -0.012550397 -0.013353081 0.018052384 -0.048291817 0.008501028
-0.009138086 -0.0011483978 0.000992124 -0.002675382 -0.00074659684 0.028862575 0.0057011335 0.01421893
0.021430321 -0.01870585 -0.03351459 0.019786673 0.0033757864 0.0005556899 -0.015838182 -0.022278499
-0.007782709 0.0030723137 0.03322522 -0.006393442 0.01420393 0.010108822 0.0098034255 -0.036263168
-0.018070806 -0.011902149 -0.003932773 -0.0050327545 -0.017015597 0.0036218066 0.038066052 0.020832371
-0.002849758 0.009045412 -0.0060929414 0.008649605 0.013164801 0.028291091 -0.0284832 -0.035353273
-0.013563777 -0.04051166 -0.004172497 -0.0050473665 -0.038700607 -0.006593729 0.005928187 -0.031626113
0.019305175 -0.031292003 0.03030904 0.027204555 0.010800601 0.020479959 -0.0068656523 0.016966973
-0.032672953 -0.037895326 -0.015666539 -0.011534662 -0.0048481543 0.038058992 -0.013956609 -0.024499575
0.012073084 0.030018331 0.021515733 0.020431919 -0.0012361963 -0.0028904884 -0.017895028 0.005341767
0.003602683 0.00015341539 0.017356182 0.01733671 0.010769463 0.009237872 -0.0034319013 -0.007503792
0.0036133355 0.01864434 0.0060202433 0.008775736 0.010639123 -0.013812286 0.00039541896 -0.007415515
-0.010243497 -0.028611163 -0.008499883 -0.0077402173 0.002847684 0.013505128 -0.024714492 0.0042610215
-0.0025338023 -0.02587754 -0.021432642 0.029853689 -0.041384473 0.0031555546 0.011137811 -0.015831843

embedding.conv1.bias f4 [64]
00000000: 83b1 573a 50f4 6ebb b575 3abb e3b9 b637
00000010: 02e6 053c 81f7 21bc 482b 813b 5e94 0cbc
00000020: e07e 83bb 5c65 9ebb 5ce5 04bc d40f 9fbb
00000030: ac2d 84ba aec7 42ba bb0e f03b e3d1 43bb
00000040: 3065 a7ba 6af6 c43b 6f23 4f3b 429f bab9
00000050: 4ab2 4cbb 48a8 ac3b a7b7 163a b1d0 0f3b
00000060: 1581 073c 9fe0 09bb daef d3bb b4e3 8c3b
00000070: 2091 1e3c 2d5b 42bb 99f9 b43b 59aa 17bc
00000080: d714 e9bb 5c5e eabb 67cc 8e3b e16d 30bc
00000090: 53c0 e23b 9acf 953b ef5b ddbb 07fe 15ba
000000a0: cfe1 813b 3a5b 55b9 0dd6 9b39 43ea 1abc
000000b0: f8e5 71bb cf15 d83b 0e8e e43b ab76 b1bb
000000c0: 7b9f 99bb 11de 15bc e538 bd3b d428 173c
000000d0: 3ff2 023c 3462 623b b23a 08bc 66a7 163b
000000e0: 4871 9cbb 72b2 40ba b6c2 c03a a10d 88bb
000000f0: d0ca 9c3b f150 08bc 68bb 893b 7abf 003c
0.00082280504 -0.003646154 -0.0028451507 2.1782651e-05 0.008172514 -0.00988567 0.003941927 -0.008580295
-0.0040129274 -0.0048338603 -0.008111324 -0.004854182 -0.0010084412 -0.0007430267 0.0073259748 -0.002987974
-0.0012771245 0.00601082 0.0031606813 -0.0003559534 -0.0031234198 0.005269084 0.0005749412 0.0021944458
0.008270522 -0.0021038426 -0.0064678015 0.0042996053 0.009678155 -0.0029656396 0.0055229184 -0.009256923
-0.00711308 -0.007152362 0.0043578628 -0.010768385 0.0069198995 0.004571867 -0.006755344 -0.0005721752
0.003963686 -0.00020347247 0.00029723384 -0.009455266 -0.0036910754 0.0065943967 0.006974942 -0.0054157577
-0.004688201 -0.009147183 0.0057746046 0.009226043 0.007992326 0.0034543397 -0.008314775 0.002298796
-0.0047742464 -0.0007350809 0.0014706466 -0.0041520153 0.0047849193 -0.008320079 0.004203249 0.007858152

encoder.0.attention.queries.weight f4 [64, 64]
00000000: 2b64 b6bc 74b3 e63c bb6f ad3c 7694 30bc
00000010: 6509 533c 6aa9 073d 0259 28bc 6955 c63c
00000020: 5c07 85bc da20 acbc 546d 0d3d cff7 0fbd
00000030: c084 61bc 5910 8bbc 278b 493d b58b b83c
00000040: 3f91 f53c 94c2 f0bb 9148 31bd 7e8a 0ebc
00000050: 3e3f 083d 55d6 843c a7a6 013d 4041 e73c
00000060: cf54 daba 816b c43c 8179 a03c c2e0 a33c
00000070: 9759 2fbb 1ae9 143d 089e 19bd 540f 35bc
00000080: fbd9 feba 6657 9cbc 996e d83c 7054 fcbc
00000090: 7c38 2739 bcaf b8bc 7e97 f0bc 9a3b f7bc
000000a0: 7197 b1bc de4c 103c a23e 983c 59c8 1abc
000000b0: 2142 973c 790c b4bc e06d 8e3c 6c3f 483c
000000c0: d32e c8bc 96fa 40bd 6147 d8bc 66e1 ee3c
000000d0: e5a4 8bbc 8d96 abbc b3c9 f43a cf56 d5bc
000000e0: 2cd1 823c d918 ad3c 07ae 48bd dd46 993c
000000f0: b273 cdbc 2795 33bc 9d72 00bd 33a6 39bc
00000100: e35c 0eba 2efc dabc 833a c8bc d200 9ebc
00000110: 63b8 25bd fa67 9a3c dbdc afbc 79f0 35bc
00000120: 23f1 fb3c b506 13bc 06e7 4dbd c7ca f0bc
00000130: acb9 673d f1da 35bd 0862 de3c 1048 55bd
00000140: 0cb7 99bc 6082 11bd 97df 4b3d 701f db3b
00000150: 5e62 ea3a 5c18 07bd 1df0 1bbd 3c25 003d
00000160: f36f a9bc 110f 363c d0ed 60bd 7ac4 bfbc
00000170: 9d65 073d eeb1 aebd 5914 033d 96bf f33c
00000180: badf 8e3d bb0d 483d d22c 6a3b 65b0 1a3d
00000190: a7fe 403c 9501 993c 060e dc3c 8185 f73b
000001a0: 960b c13b 8f36 083c 6839 fcbc 061f c93c
000001b0: b307 153a 27c7 a8ba 522d 78bc 2209 433c
000001c0: 4b68 183d 56ed 593d cd27 2c3c 5fe1 18bc
000001d0: dd64 dd3c 2b78 d53b 1c48 22bb 2cab adbc
000001e0: b3a8 54bb c2c9 30bd d9da 893d a62a 25bd
000001f0: 2f7e cb3c 8fb1 cb3c 03aa 793d 41a9 9e3c
00000200: b1de 5b3c df3a 863c 5854 cc3c 3b10 0f3d
00000210: 76c4 063c 6858 ab3a 03eb b6bc a17b 153d
00000220: 482f 263c 7c09 923c 3bf3 083d 42f5 90bc
00000230: c17c 2bbd 0f50 1f3c 8ff4 043d cea5 063d
00000240: e988 7e3d 9abb e63a 14cd f9bc 5397 46bd
00000250: f088 263d a93c 273c e97d c23c 9171 3c3c
00000260: db2b 3b3c 4828 9d3c 49e8 ebba 478b 7d3c
00000270: 4421 1fbb ad92 1b3d d337 e5bc 0430 c9bc
00000280: 7332 80bc 0537 4bba 4ee9 653c ba07 ee3b
00000290: b97f 53bd 555c f53c 6317 2dbd 0f1d b8bc
000002a0: f8ff 0d3c 1659 de3c ab01 dabb 953d 9cbc
000002b0: c218 dabc 344e 533d 5b1c 2fba a19a 4dbd
000002c0: 4cec 1ebd e011 85bd 918f 09bd 25ff 033d
000002d0: b32a 42bc 748b 53bd a4f4 2fbd eaf8 fbba
000002e0: a423 4c3d 5097 813c b892 98bd 0ac9 253d
000002f0: b429 abbc 7f51 153c fa39 b7bc a934 91bd
00000300: 9d2a 94bc 2608 c0bb df43 9e3c a319 fbbc
00000310: 1dc3 50bc 772d bd3b d608 2b3d 82fe 0e3d
00000320: 2c32 3e3d 92d5 a23c 5cab 3bbd 16c0 cb3c
00000330: 1966 763c d531 17bc d4a2 69bc 22bd 443c
00000340: 0fc4 0cbd 8c3f 55bc 921c ac3c ab8d 043d
00000350: 433d 81bc c15d 0abd 0d67 0dbd 1f61 393c
00000360: bd78 5ebb 4c42 5c3c b578 03bd 963f 963c
00000370: f3a0 4abb d507 e1bc 1efe 2cbb 2dfc 3a3c
00000380: 2540 c33b 91e5 2ebc e66f 5dbd 8926 563d
00000390: 05b3 3d3d debc 73bd 8bc4 f9bc 1c00 423d
000003a0: 9f4a 09bc 8049 38bc 0f70 a4bc e725 3d3d
000003b0: 0bfb c03c 0994 61bd 7c1b 30bc 91f3 a7bc
000003c0: 9bd7 f03b 3c75 dc3c 1434 953c d5ec 1cbc
000003d0: f780 e13c ebc6 2d3d ad61 6a3d 9b6e 05bd
000003e0: ce35 a9bd fef4 9ebc f8b1 e13c 817c 27bd
000003f0: 3cdd be3c ff56 823c 5a90 6e3c ab79 723d
-0.02226456 0.028161742 0.021171441 -0.010777583 0.012880658 0.03312055 -0.010275127 0.024210649
-0.01623886 -0.021011759 0.03452809 -0.035148438 -0.01376456 -0.016975569 0.04920497 0.022527555
0.029976485 -0.0073474143 -0.043282095 -0.008700011 0.033263437 0.016215483 0.031653073 0.028229356
-0.0016657355 0.023977043 0.019589188 0.020004634 -0.002675628 0.036355115 -0.037504226 -0.011051018
-0.0019443625 -0.019084644 0.026419925 -0.030801982 0.00015947403 -0.022544734 -0.029369112 -0.030179787
-0.021678658 0.008807389 0.018584553 -0.009447181 0.01846415 -0.021978604 0.017386377 0.012222152
-0.02443639 -0.047113977 -0.026401224 0.029160213 -0.017046401 -0.020945812 0.0018675834 -0.02604237
0.015968882 0.021130012 -0.04899409 0.018710548 -0.025079582 -0.010960854 -0.031359304 -0.011331129
-0.00054307113 -0.026731577 -0.024441963 -0.0192875 -0.040459048 0.018848408 -0.021467617 -0.011104696
0.030754631 -0.008973767 -0.05026915 -0.029393567 0.056573555 -0.044398252 0.027146354 -0.052070677
-0.018764041 -0.035524726 0.04977378 0.0066870973 0.0017882099 -0.032982215 -0.038070787 0.03128551
-0.020683264 0.011111991 -0.054914296 -0.023409117 0.03305589 -0.08530031 0.032001827 0.029754441
0.06976266 0.04884122 0.0035732281 0.03776588 0.011779464 0.018677512 0.026862156 0.0075537567
0.0058912737 0.008313789 -0.030789092 0.024550926 0.0005685046 -0.0012876735 -0.015147524 0.011904033
0.037208837 0.053204857 0.010507536 -0.009331076 0.027025634 0.0065145693 -0.0024762219 -0.021199785
-0.0032449185 -0.04316116 0.06731195 -0.040323876 0.024840442 0.02486494 0.06095315 0.019367816
0.013419793 0.016385494 0.024942562 0.034927588 0.008225551 0.0013072612 -0.02232886 0.036494855
0.010143109 0.017826788 0.033435088 -0.017695073 -0.04186702 0.009723677 0.03245979 0.032872967
0.062142286 0.0017603517 -0.030493297 -0.048484158 0.040657938 0.010207334 0.02374168 0.011501686
0.01142403 0.019184247 -0.0017998304 0.015475101 -0.0024281302 0.037981678 -0.02798072 -0.024559028
-0.015649056 -0.0007752034 0.014032675 0.0072641047 -0.051635478 0.029951254 -0.04225863 -0.022474794
0.008666985 0.027142089 -0.006653031 -0.019072333 -0.026623134 0.051588252 -0.00066799455 -0.050196294
-0.03879957 -0.0649755 -0.03358418 0.032225747 -0.011851001 -0.051646665 -0.042957917 -0.0019223962
0.049838677 0.015819222 -0.074498594 0.04047493 -0.020893909 0.009113668 -0.022366513 -0.07090122
-0.018086726 -0.0058603464 0.019319473 -0.030651873 -0.012741831 0.005773242 0.041756473 0.034910686
0.046434566 0.019877229 -0.045817718 0.024871867 0.01503899 -0.0092281895 -0.014260013 0.012007983
-0.034366664 -0.013015639 0.021009717 0.032361668 -0.015776282 -0.033780817 -0.034522105 0.011314659
-0.0033946477 0.013443541 -0.032097537 0.018340867 -0.0030918687 -0.027469555 -0.0026396583 0.011412662
0.0059585744 -0.01067485 -0.054061793 0.052282844 0.046313304 -0.05950629 -0.030489227 0.047363386
-0.008379607 -0.0112479925 -0.020072965 0.046178725 0.023557207 -0.055072818 -0.01074874 -0.020501884
0.007349921 0.02691137 0.01821331 -0.0095779495 0.027527316 0.04242603 0.057222057 -0.032576185
-0.082622156 -0.01940393 0.027550682 -0.04089022 0.023298852 0.015910624 0.014560783 0.059198063

encoder.0.attention.queries.bias f4 [64]
00000000: 7b8e 393c 2d9c e7bc 1b7d a03c 23fa 07bd
00000010: b49b bcbc 36a4 323d 96db a63c 9803 64bc
00000020: 821f 05bd a9a2 1c3d 67ba f13c 559e ddbc
00000030: 2e13 0d3d 9966 8ebc 37fe c43c d681 903c
00000040: eb6f 06bd ab8e 04bd 705b 9bbc 5060 b4bc
00000050: 3f08 8cbc 67f6 d73c 7751 f6bc 1e93 973c
00000060: 104b 86bb 7f5d 8d3c 7a51 933c e18d ebbc
00000070: 8674 d43c 2119 a9bc fb76 98bc 1848 0abd
00000080: 4e67 1f3c 0cde 05bc fd8c 7abb be10 f43b
00000090: 757b a63c e403 d53b 3721 10bc fa78 b63b
000000a0: cd1b 3cbc 9751 20bb ccc0 bebb bf25 a0bc
000000b0: c363 56bc 4fb0 e0bb 67e8 9d3b 2405 e3bc
000000c0: 50c9 0cbc 1509 bc3b 6245 483c d0fd 3cbc
000000d0: 0747 61bc 56b5 0bbc bb6d 5abc 51ab 78bc
000000e0: 305b 0e3c c354 71bc e54c d9bb 8f8a 1cbc
000000f0: 0136 e63b e426 0a3c 473d 943b 840f 4e3b
0.011325474 -0.028272713 0.019590905 -0.033197533 -0.023023464 0.043613635 0.020368379 -0.013916872
-0.03250075 0.038241062 0.029507829 -0.027053038 0.03444212 -0.017382907 0.024047 0.017640036
-0.032821577 -0.03236262 -0.0189645 -0.022018582 -0.017093776 0.026362611 -0.030068142 0.018502768
-0.0040983036 0.017256496 0.017983187 -0.028754177 0.025934469 -0.020641865 -0.018611422 -0.03376016
0.00972922 -0.008170616 -0.0038231008 0.007448285 0.02032254 0.006500708 -0.008796982 0.0055686207
-0.011481238 -0.0024462694 -0.005821323 -0.019549249 -0.0130853085 -0.006856955 0.0048189643 -0.027712412
-0.0085929185 0.0057383873 0.012223573 -0.011535123 -0.013749844 -0.008527121 -0.013331826 -0.015177564
0.008688733 -0.014729681 -0.006631481 -0.009554519 0.0070254807 0.008432124 0.0045239064 0.0031442354

encoder.0.attention.keys.weight f4 [64, 64]
00000000: 64f8 533c f231 91bc 8b04 783d fd38 4cbc
00000010: 1bf6 1abc 5128 86bc 4822 20bb b07a cf3c
00000020: 7f46 0e3d a90a 703d a893 993c 5c19 043c
00000030: 08a8 ca3c fa70 553d 9895 35bc 133b f63b
00000040: 21e6 ea3b 82e0 8ebc 9d5a 1e3c 7516 173c
00000050: fa43 7abd a85a 5dbd 5e88 0f3c f959 18bb
00000060: a6c5 e6bb 5257 a23b 7bcc ee3c 6647 1bbd
00000070: b083 393d 6309 86bc 401e f83c 40aa 183d
00000080: af94 173d edbb f93c 94f4 563c 4a45 6d3b
00000090: 0906 a53b 1557 313c 6134 af3c 57fe 5c3c
000000a0: 452b 59bb b405 3f3c bffd 933c 6d37 eb3c
000000b0: e16b 103d fb4f 82bd d136 89bc 121d 8d3c
000000c0: 46c9 323c a908 d53c fe15 73bc e073 8e3c
000000d0: 8cf1 0f3d 0173 623b 6266 eb3c 4df1 2e3d
000000e0: fd35 1bbc b4e6 c8bc 403f c2bc 019a b73c
000000f0: 204d 19bc 9e07 db3c 2f97 753a ba1c 00bd
00000100: 4b55 c33b 8250 64bc 95b9 34bd 2c82 89bc
00000110: c7f2 5b3c b3fd 4e3c 5886 0fbd 911a 68bc
00000120: 66de 15bb da17 693c 7962 283d d5f0 893d
00000130: ae38 72bc 8f17 f23c 8bee ca3c 9ccc e9bc
00000140: c9b7 36bd de59 4d3c af6e 263d 0997 f93b
00000150: b2b9 5fbb e131 d13b 3f24 7ebd 3a81 2bbd
00000160: 77f0 d33c e465 223c 2fb4 0f3c 313a bb3c
00000170: fc2b 0dbb 226e b7bc 6775 2c3d aea9 963c
00000180: b924 dfba 88ae 2ebb 916a c8bc 6d63 143d
00000190: ea66 ca3c 22a1 98bc 36b5 e7bc caa2 40bb
000001a0: be4e de3c 6def 073c a988 6f3d 5b43 ad3b
000001b0: d656 4c3c 7058 f03b 96d1 333d 1764 55bc
000001c0: 3acb 993c 96b4 163d de86 0a3d f440 cf3c
000001d0: 6a41 03bd 3d6a 003d 7540 36bc d89c 043d
000001e0: f009 5abc f759 04bb ba5b aa3c d9ac 0cbd
000001f0: be0f 853b f67a 25bd 7f7f 2f3d f502 163c
00000200: ef2b 1f3c 9e48 3abd db0b cfbc 041d cc3c
00000210: 3b9c 8f3b 2724 89ba 17d6 3d3b 8591 1f3c
00000220: aa0d 423d aea1 0f3d 4e6d 27bd c2d6 60bc
00000230: 9bde 2c3d eab3 543b a50c c8bc bed0 323d
00000240: abc8 993c 6cf2 0abd fd4d 2dbc 473d 28bd
00000250: bcf9 0ebd a334 2abd 4369 833d 3064 ca3c
00000260: b2c2 38bd 9211 c63c b6c2 1e3d 86a1 91bc
00000270: edb2 63bb 12d9 e13b 6032 0b3a c58a 053d
00000280: 37a1 9c3b 573e aa3c 8b15 80bb a95d 36bd
00000290: 6440 02bc 856a 03bd dbce f93c 7b92 0e3c
000002a0: 9453 3cbd 70f0 46bc d43c a7bd eb80 a43c
000002b0: ccb1 da3c c395 3bbd a2b2 9fbd 533c ca3c
000002c0: 213e 92bc ff93 cf3c 95e0 ebbc 3e35 3bbc
000002d0: f942 e8bb e644 be3c 9aaa 7a3c ddbd de3b
000002e0: 784d f83c 48a0 f0bc beea 36bd d407 6a3c
000002f0: 6388 f3bc b24b 343d e6a5 40bc 61de 22bb
00000300: c4e4 603b d05f 5f3c 24ae bebc 1952 48bc
00000310: 6871 caba 454d 2d3c a1eb 3bbc d02c 9a3c
00000320: 0fbe 35bc 0c1d 5fbd 9efc 2c3d 3e09 743d
00000330: a115 c4bb adbf 4f3b 427d 9b3c 388d 17bd
00000340: 6833 18bd 4b73 053d b83f c43c 760d 2dbb
00000350: 8698 183c 11fc 993b a643 82bc e3c7 8bbd
00000360: 2771 143d 1579 50bc 09ab fcbc b245 9d3c
00000370: 1c95 813c 247f 4bbd e993 3c3d ca61 51bd
00000380: d86b 3f3c 64a7 5dbc 1c77 8f3d f29c c5bc
00000390: 4fd6 87bc 48a0 1e3c b743 08bd 8585 173d
000003a0: dad6 8f3c 1dd7 46bb d51f d33c c085 633d
000003b0: f4ac 0d3d ae6c d73c 0e0b cf3c f5a1 2bbc
000003c0: 0e31 3e3d 7b83 4a3d f3eb 953d 3785 1bbb
000003d0: f743 7cb7 5988 923b 2dc8 643c a2ea 3d3d
000003e0: 46f8 e0bc ba63 8a3c fc84 d83c 5798 273d
000003f0: 1eda f23c 276a d5bc 10c7 7a3d f812 df3c
0.012937639 -0.017724011 0.060551208 -0.012464759 -0.00945809 -0.016376646 -0.0024434496 0.025327057
0.0347352 0.058603916 0.018747166 0.008062687 0.024738327 0.052109696 -0.011083029 0.0075143664
0.007168547 -0.017441038 0.009665159 0.009221663 -0.061099984 -0.054041535 0.00876054 -0.0023246987
-0.0070426045 0.004954257 0.029150238 -0.037909888 0.045291603 -0.016361898 0.030287862 0.037271738
0.03700703 0.030485118 0.013119835 0.003620463 0.00503612 0.010823985 0.02138728 0.013488374
-0.0033137363 0.011659075 0.018065332 0.028712953 0.03525913 -0.06362911 -0.016749771 0.017225776
0.010912245 0.026005106 -0.014836786 0.017389238 0.035142466 0.003455341 0.028735343 0.04271059
-0.009473321 -0.02452407 -0.0237118 0.022412302 -0.009356767 0.02673703 0.00093685364 -0.031277396
0.0059610954 -0.01393521 -0.044122297 -0.016785704 0.013424582 0.012633729 -0.03504023 -0.01416649
-0.0022868156 0.014226878 0.041109536 0.06735388 -0.014784021 0.02955225 0.02477195 -0.028539948
-0.044608865 0.012533633 0.0406329 0.0076168817 -0.0034137783 0.00638412 -0.062046286 -0.041871287
0.025871499 0.009911988 0.008770986 0.022854896 -0.002154111 -0.022391383 0.04210415 0.018391456
-0.0017024494 -0.0026654322 -0.024464877 0.036227632 0.024707276 -0.018631522 -0.02828465 -0.0029393905
0.027137157 0.00829683 0.05847994 0.0052875704 0.012471875 0.0073347613 0.04390105 -0.013024352
0.018773664 0.036793314 0.033820026 0.025299527 -0.032044806 0.031351317 -0.011123766 0.03237614
-0.013308033 -0.0020195225 0.020795692 -0.034344528 0.0040607145 -0.040400468 0.0428462 0.009155978
0.009715064 -0.04547941 -0.025274208 0.02491618 0.004382638 -0.0010463045 0.0028966719 0.009739284
0.047376312 0.0350663 -0.040875725 -0.013723077 0.04220448 0.003245587 -0.024420092 0.043656103
0.018772444 -0.033922598 -0.010577676 -0.041074064 -0.034906134 -0.041554105 0.064165615 0.024705976
-0.04510755 0.0241783 0.03875991 -0.017777216 -0.00347441 0.006892332 0.00053099357 0.032603044
0.0047799605 0.02078168 -0.003908818 -0.044522915 -0.007949922 -0.032084007 0.030494144 0.008701916
-0.045978144 -0.012142286 -0.08165899 0.020081004 0.026696108 -0.04579712 -0.077977434 0.024686968
-0.017851891 0.025339125 -0.028793612 -0.011426268 -0.007088062 0.023226213 0.015299464 0.006797536
0.030310377 -0.029373303 -0.04465746 0.014284093 -0.02972812 0.0440175 -0.011758303 -0.0024851786
0.0034316042 0.013633683 -0.023276396 -0.012226605 -0.0015445175 0.0105775045 -0.0114697525 0.018820196
-0.011092677 -0.05447106 0.042233102 0.059579127 -0.0059840237 0.003169994 0.018980626 -0.03699991
-0.0371584 0.032580655 0.023956165 -0.0026405728 0.009313708 0.004699238 -0.015901398 -0.06825235
0.036240723 -0.012724181 -0.030843275 0.019198272 0.015818171 -0.049681798 0.046039496 -0.05111865
0.011683427 -0.013528679 0.0700514 -0.024122689 -0.016581682 0.009681769 -0.033267703 0.03699257
0.017558504 -0.003034062 0.025772015 0.055547476 0.03458877 0.02629694 0.025273826 -0.010475625
0.0464335 0.049441796 0.07320394 -0.0023730525 -1.5036195e-05 0.0044718203 0.013963741 0.04636634
-0.027462136 0.016893256 0.0264306 0.040916767 0.029645022 -0.026051594 0.061224997 0.027230725

encoder.0.attention.keys.bias f4 [64]
00000000: 8e31 2fb5 7918 9336 35ad 28b4 8bb9 5e37
00000010: 3dc8 d235 8712 a2b6 dcf0 b1b6 1862 f2b5
00000020: 1113 70b5 e418 aeb7 e4e2 14b7 c77e f536
00000030: 88a7 28b7 9b61 d134 ed13 45b7 7f10 16b5
00000040: 6567 c236 0565 ef36 0513 5c36 33da 5ab5
00000050: 6c85 5a36 250b a4b6 6590 7636 0cf4 1fb6
00000060: c9c1 e9b5 78f2 e0b6 29be 20b6 8474 2a37
00000070: c8b6 d9b6 5c99 be35 fc8f f4b5 0d37 2e37
00000080: 9036 d2b4 c3a0 2a35 fa2c 3e35 de49 eeb5
00000090: 82ac cf36 8953 5335 7730 9eb4 c681 5db6
000000a0: 9c45 ceb5 9596 8336 5f50 aab6 6efb 29b6
000000b0: 2f12 40b6 19e1 81b5 7658 3eb6 129c c235
000000c0: 2564 92b5 9bd3 f2b4 0db2 8635 c2ae b435
000000d0: 5155 bf35 772d 3f35 74e5 89b6 c2ea 27b6
000000e0: 449a 3d34 bbe6 9d33 0236 5eb4 513f 3cb6
000000f0: bf38 4ab5 6839 98b4 2b39 0435 8c1c 76b5
-6.526469e-07 4.3837904e-06 -1.5709232e-07 1.3275431e-05 1.5704496e-06 -4.830133e-06 -5.303051e-06 -1.8058954e-06
-8.943471e-07 -2.0754007e-05 -8.8743145e-06 7.316328e-06 -1.0052587e-05 3.90003e-07 -1.1746754e-05 -5.590336e-07
5.7936873e-06 7.1345153e-06 3.2793625e-06 -8.152885e-07 3.2562193e-06 -4.8888783e-06 3.6740905e-06 -2.38349e-06
-1.7416252e-06 -6.7039473e-06 -2.3952546e-06 1.0159918e-05 -6.4883825e-06 1.4200737e-06 -1.8221322e-06 1.0384026e-05
-3.9155248e-07 6.3563874e-07 7.0845965e-07 -1.775388e-06 6.1891633e-06 7.8725185e-07 -2.9465056e-07 -3.3007104e-06
-1.5368455e-06 3.9216343e-06 -5.0757512e-06 -2.5329314e-06 -2.8620814e-06 -9.676761e-07 -2.8363697e-06 1.4499549e-06
-1.0906994e-06 -4.5229976e-07 1.0035598e-06 1.3461906e-06 1.4255439e-06 7.1219205e-07 -4.10963e-06 -2.5021586e-06
1.7658118e-07 7.352852e-08 -2.0695009e-07 -2.8051038e-06 -7.533344e-07 -2.8353975e-07 4.925702e-07 -9.168368e-07

encoder.0.attention.values.weight f4 [64, 64]
00000000: 0519 743c 3282 2f3c ff97 aa3c e369 24bc
00000010: dae6 d43c 776d 27bc f1a4 e3ba 3517 aa3c
00000020: 37dd 40bc 72d7 c03c 1b1c 633c 90a6 263d
00000030: 72ec bcbc a8c7 443c bd4f 21bb c0af 30bd
00000040: 59d5 043b 6482 7bbb 5acf 143c 8a66 093d
00000050: b599 50bc 03a3 9a3c d8e8 17bd 5d4b 02bb
00000060: 45e5 05bc 7d05 be3c 6d2a 49bc 0ada 1ebc
00000070: e5d0 6a3c 0bb6 3e3d c303 273d 2e0b 20bc
00000080: d31b 913b 2ed9 e3bc d890 d33a b030 21ba
00000090: 923e 213c da9d 04bd 6c00 fbb8 d9e8 07bd
000000a0: 7e4e 633c 3e3f e8bc 7204 183c f449 a13a
000000b0: 289d b5bc d4fe 043c 5564 313c d924 48bd
000000c0: 93d4 b03b adf6 543c 2d12 133c 6c37 f2bc
000000d0: afb0 c83c 869f a93b 0764 783c c05e 6ebb
000000e0: 9dca afbc 6da4 dbbc 58a6 aa37 9591 eeba
000000f0: eb7c a33b daf4 7b3b 3fac 0e3c c764 ca3b
00000100: 2b70 073d 475b 63bb 5732 e93c 33cd c1bc
00000110: 4b95 3b3c cc68 21bc 181b 983c b2f8 f2bc
00000120: 9e6f a0bc 06c9 3b3c 1051 84ba 8469 83bb
00000130: 4765 683c 1de3 aabb f1b9 3ebb 94e3 153c
00000140: d528 26bc 87a8 1fbc 7818 983c a68a 363c
00000150: b9dc e7bb a634 2ebb d2d7 d73a ecb6 70bb
00000160: 121b 053d 0aa8 4bbb dcaf 01bc 070c 093d
00000170: 3951 98bc 9519 ef3b a54d 80bc ddb5 b8b9
00000180: c020 16bc 8e16 aa3c 3731 a6bc a3fd 0c3c
00000190: e95f 52bc 84b1 4c3b cd7e 8d3c 8a5d 153d
000001a0: 3ba3 2d3d 329b 5a3c e534 00bd 89a3 003c
000001b0: e31f 24bd 51dc e13a 513e 583c 0bfe 6b3c
000001c0: c15c 07bb 77b7 c1bc 6bda 4d3c 6b77 61bc
000001d0: 6054 863a 23bb 7bbc 68aa 433c e1db 13bc
000001e0: d209 eb3c 20df e13b 6b62 70bb 451f bb3c
000001f0: fa4c c43c 3786 5a3c a4d3 643c b317 cd3b
00000200: a436 63bd 8146 3fbd ba20 67bc 6999 b33b
00000210: 689e 923c 19a8 6dbc a19e 7cbb e190 3e3c
00000220: 6bb7 a7bc c435 abbc 9025 3ebc 4888 8cbc
00000230: 5da6 d2bb acd6 893c 9fe0 c63b f274 cc3c
00000240: 6a5e f83c c41d 74bc c032 97bc 9828 7abc
00000250: fe3c 0e3c 9027 b53c d5b1 52bc 7e50 53bc
00000260: 8181 5b3a 5bb0 043c 904a af3b 49bd d6bc
00000270: 5a03 ab3b 55c9 f03b 76e5 1e3c 1d4d 003c
00000280: b448 d4ba 1b40 d6bc 9e3f 743b 684e f8bc
00000290: 0ba3 22bc 41e3 8fba 660f 17bd 6dd5 18bc
000002a0: 280d 443b 03e2 bd3c 2545 d03c 6e12 2fbd
000002b0: 86a3 fc3c 05f5 843b e57f 853b 186b 01bc
000002c0: 8e3b 0dbd 1fad ca3b 42d2 c23c 6871 4f3c
000002d0: aeb9 90bb ebe0 843b f154 c0bc 279d b4bc
000002e0: 7556 76bc b6f5 963a dcbd e53b 5a88 caba
000002f0: 62c0 cebc 860f cfbc 88cf dcbb 3a50 053c
00000300: 54c6 70bc a50e 073d 84af 7f3a 7961 80bc
00000310: 6bda 663c 932f 2e3d 5660 673a cf5b 5dba
00000320: 066a d73b 9b67 aabb 8f33 dc3c b092 563d
00000330: a620 29bb e83c ee3c 9431 b83b e143 743b
00000340: 9777 58bb 5a4d da3c 191d 7ebb 8e72 cd3c
00000350: 8653 8e3c ddcf 9f3c 9bc5 97bb 63e1 9ebc
00000360: 967b 2e3c 6b66 24bc 1020 4a3c 32ee 113b
00000370: 8d16 03bd e555 87bc cc57 8a3c dcc6 ee38
00000380: cd1f 893a 9b93 f43b 4b2d abbc 5e8d 0ebb
00000390: 8191 94bc 8d3d aa3c cc1b a0bc 45d9 25bc
000003a0: 5705 fbbb abaa f3bc f18e eabb c5fc c73c
000003b0: c311 823b 9915 49bc 8024 6dbc 1a8f ac3c
000003c0: 9d28 093c 5741 20bd aed9 493c 72a9 9b38
000003d0: 516f 92bb 91d4 3b3b e74e d5bc 07c4 b0bc
000003e0: b3e0 583c 8d5b bd3c 7021 b73b 5547 2abc
000003f0: 7b5e 8f3b 99fb 03bd 405a 563a a37d 993b
0.014898543 0.010712193 0.02082443 -0.010035011 0.025988985 -0.01021897 -0.0017367882 0.02076302
-0.011771492 0.023540232 0.013861681 0.04068619 -0.023061965 0.012010492 -0.0024614178 -0.04313636
0.0020268767 -0.003837728 0.00908264 0.033545054 -0.012731959 0.018876558 -0.03708729 -0.0019881346
-0.008172338 0.023195976 -0.0122781815 -0.009695539 0.014332031 0.04656033 0.04077507 -0.00976829
0.0044283657 -0.02781352 0.0016141189 -0.00061489176 0.009841578 -0.0323771 -0.00011968691 -0.033181045
0.013873694 -0.028350469 0.009278404 0.0012305365 -0.022169665 0.008117396 0.010827144 -0.048863266
0.0053964346 0.012998265 0.008976501 -0.029567443 0.024498312 0.0051764874 0.015160567 -0.0036372393
-0.021458918 -0.026811803 2.0343039e-05 -0.0018201346 0.0049892566 0.0038445503 0.008708059 0.0061765644
0.033065956 -0.0034691857 0.028466387 -0.023657417 0.011449168 -0.009851646 0.018567607 -0.029659603
-0.019584473 0.011461502 -0.0010094959 -0.004010381 0.014184303 -0.0052150623 -0.002910253 0.009148497
-0.010141571 -0.00974477 0.018566355 0.011141455 -0.0070758727 -0.0026581674 0.0016467518 -0.0036730124
0.03249652 -0.00310755 -0.007915463 0.033458736 -0.018593417 0.007296751 -0.015662024 -0.00035230714
-0.009163082 0.020762708 -0.02028714 0.008605394 -0.01284025 0.0031233737 0.017272377 0.03646616
0.042391997 0.0133426655 -0.031300444 0.00785149 -0.040069472 0.0017231797 0.013198451 0.01440383
-0.002065465 -0.023647053 0.012564282 -0.013761382 0.0010248534 -0.015364441 0.0119424835 -0.009024591
0.028691206 0.0068930537 -0.0036679755 0.022842059 0.023962487 0.013337663 0.013966475 0.0062589287
-0.05547203 -0.046698097 -0.014106924 0.0054809344 0.0178978 -0.01450541 -0.0038546699 0.0116312215
-0.020473203 -0.02089966 -0.011605635 -0.017154828 -0.0064285235 0.016825996 0.0060692574 0.024958108
0.030318458 -0.014899675 -0.018456817 -0.015268467 0.008681534 0.022113591 -0.012859781 -0.012897609
0.00083734846 0.008098687 0.0053494647 -0.026213305 0.0052189054 0.0073482194 0.009698262 0.007830885
-0.0016195984 -0.026153615 0.0037269364 -0.030310825 -0.009926568 -0.0010977761 -0.03687992 -0.009328228
0.0029915068 0.02317906 0.025423596 -0.042742185 0.030839693 0.004057529 0.004074084 -0.007899068
-0.034480624 0.0061851884 0.0237819 0.0126613155 -0.004416666 0.0040551326 -0.023478003 -0.022047592
-0.015035261 0.0011517319 0.0070111584 -0.0015452013 -0.02523822 -0.025275957 -0.006738607 0.008136803
-0.014695723 0.03297295 0.0009753632 -0.015671479 0.014090161 0.04252584 0.0008826306 -0.00084441615
0.0065739183 -0.005200339 0.026880054 0.052385986 -0.0025806814 0.029081777 0.0056211445 0.0037271904
-0.0033030265 0.026648212 -0.0038774668 0.025079038 0.017373811 0.019508297 -0.0046317107 -0.019394582
0.010649582 -0.010034184 0.012336746 0.002226722 -0.032003928 -0.01652045 0.016887568 0.00011385765
0.0010461748 0.007463885 -0.02089562 -0.0021751742 -0.018135788 0.020781303 -0.019544505 -0.010122602
-0.0076605487 -0.029744467 -0.007158153 0.024412522 0.0039694025 -0.012273216 -0.014474034 0.02106433
0.008371499 -0.039124813 0.012319965 7.4225376e-05 -0.0044688364 0.0028660635 -0.0260386 -0.021577848
0.013237166 0.023114944 0.005588703 -0.010392983 0.0043752766 -0.032222364 0.00081769004 0.0046841665

encoder.0.attention.values.bias f4 [64]
00000000: 5e68 deb9 528c cf3b 4397 b13a d869 a63b
00000010: 882a 943b 565d 9abb a4d7 763a e5b9 c439
00000020: c9dc 81bb b5f4 a8bb e724 8f3a 8fa4 383b
00000030: 92a8 afbb 28e7 0f3b 6a1a 41bb 81f7 e13a
00000040: b32f 8d3b b362 1dbb 9b5b 1dbb 4d45 99bb
00000050: cd5d ea3b f686 553b 4ab3 053c 89fb d5ba
00000060: a64a 903a bd89 b439 cac0 9d3b 1f70 a73a
00000070: 3b72 fdba e44a 1f3c 0231 14bb 679e a8bb
00000080: f3c5 4ebb 3679 3fba c15d c23b 530b 7dbb
00000090: 842c 6abb a182 803a f96c 40bb ee2a 8eba
000000a0: afd5 3fbb fed0 053b 0a42 923b 9600 63bb
000000b0: 755e f7b9 3771 963b 266d b33b a629 4ebb
000000c0: 6fae cf3a cd16 9fbb 42e0 95ba b367 113a
000000d0: f271 81bb c8a2 f4ba 0d2e 76bb 1f4e 853b
000000e0: 34d9 da3b 9b53 e139 3ee0 91bb cb6e 0a3c
000000f0: 1dba 69bb 409e df3a 6931 99bb 37a9 f0ba
-0.000424209 0.006333866 0.0013549108 0.0050785355 0.0045216717 -0.0047108335 0.0009416288 0.00037522535
-0.003963087 -0.0051561245 0.0010921032 0.0028174256 -0.0053606713 0.0021957848 -0.0029465207 0.00172399
0.0043086647 -0.0024015128 -0.00240109 -0.0046774508 0.007152295 0.0032581664 0.008160422 -0.0016325574
0.0011008575 0.00034434898 0.004814242 0.0012774504 -0.0019336411 0.009722445 -0.0022612219 -0.005145836
-0.0031551092 -0.00073041336 0.0059315865 -0.0038611486 -0.00357321 0.0009804555 -0.0029361828 -0.0010846534
-0.0029271652 0.0020418759 0.004463439 -0.00346378 -0.00047181887 0.004591133 0.005475658 -0.003145793
0.0015844832 -0.004855013 -0.0011434632 0.00055467634 -0.003950351 -0.0018664235 -0.003756407 0.0040681507
0.0066787247 0.00042977635 -0.0044517806 0.008449267 -0.003566391 0.0017060712 -0.0046750796 -0.0018360977

encoder.0.attention.fc.weight f4 [64, 64]
00000000: 609b 743c 4ba6 65bc dcd8 e43c 3436 093c
00000010: ae49 26bc 1018 213c 9e64 a93c e7ba 16bc
00000020: 80b9 4f3c d5e3 163d 2b80 cc3c 8cb8 da3c
00000030: 3530 7dbc 9bcf 933b 8195 d1ba 7459 5ebc
00000040: 75c3 b2bb 80de 22bc 0431 673b 03d0 ffba
00000050: b967 5abb 22c3 e23c 7518 cdbc af93 80bc
00000060: 42a7 adbb ac9a 8abb 0959 aabb 4e06 6fbb
00000070: 195b 11bb 3053 8dbb 27cd 793c f789 a2bb
00000080: c6e9 6e3c 61ce b4bc eb16 5dbc 747c d13b
00000090: ca82 a63c 1b0b 32bb 334c cfbb 5602 9bbc
000000a0: bb32 0b3a 9912 c63b 4ee9 2dbb 549d 65bc
000000b0: 2647 03bd 70eb cdbc 69d8 2b3b 6765 7cbd
000000c0: 667e bf3c 5991 7fbb 1346 d43b db26 ee3c
000000d0: a074 10bc 79b0 b0bc bd41 ab3c c24f 373c
000000e0: 0cd3 fab6 055b 75bc 9419 6c3a e08c 0d3c
000000f0: 0a38 4f3d cdb7 9cbb c97d f639 02a3 45bc
00000100: 6cb9 973b 798d 78bb 587a e6ba 6612 f83c
00000110: b5d9 c8bc e91b 72b8 a55c ea3b 66b0 77bc
00000120: c6b6 fdbc 35bd c8bb ce15 cebc 35f2 34bc
00000130: 40f2 57bc 7d00 0b3c c543 c0bb fa94 8abc
00000140: 4dbc 1b3c 0eb1 b73c 0d1b aabc d91f a23c
00000150: 2c9b 9abc 5436 9bba d76f 5f3c be4b b83c
00000160: 74a7 9a39 e67e 7fbc d919 d83b 3e6a c0bc
00000170: e11e 873d dd6b d93c 309b 5dbb 44b6 363d
00000180: 59ba 533b 007f e23c e1c5 a9bb a69d 423d
00000190: 6605 ea3c b2ed 7dbc d2dd 203d 3565 56bc
000001a0: 8745 003d 6e77 573c 93af b3bc 989b ebbb
000001b0: 1841 133d 6e8a df3a ab85 f53b 2099 18bb
000001c0: 62bc a33c ae8c 323c 75d9 33bc e959 793c
000001d0: 5a11 163c 9d84 8f3b ca43 25bc 8091 72bc
000001e0: a636 f83c 27ab e6bc fbf8 29bc 7df8 c03b
000001f0: 9221 44bc 047a 303d a66c 873b 149f 283c
00000200: c983 333c b23c 47bc 0139 263d a751 2abd
00000210: 4974 91bc 74dd 383c f04a e03c c09c 02bc
00000220: 07e6 d0b9 8889 023d 0650 0c3d 8beb 08bc
00000230: 74fe d5bc 07e7 3cbc 2953 6dbc 4528 b63a
00000240: 10d3 50bc 4f2f 3bba fc42 6fbb 8ab6 b6bc
00000250: 0211 06bc 4ee7 943c 29c1 04bd 94d9 863a
00000260: a1ea 3cbb a060 bbbb 4fce f53b 3c19 21bc
00000270: 1241 9a3b 4796 4f3c 842e 52bc 0ea4 873c
00000280: 1f61 8f3c 4507 43bc 4e61 443c 70fa 33ba
00000290: d79f 1d3c 7854 5ebc e1d7 c9bc 5791 783c
000002a0: d7bc df3c c4bf 0dbd 8401 06bb 90b7 8dbc
000002b0: 2b97 bcbc 2935 803c 58d4 8b3c d957 febb
000002c0: d88f 0e3b ae2e 643c 665f 3abb 1bfb 0cbc
000002d0: 540e 4fbb e108 f0bc 58cf 073d 9bf5 a13c
000002e0: 90a0 5fbc ab49 dfbc 4587 713c 0609 38bc
000002f0: 2f37 8cbb f5da 653b dd47 6e3b 5727 f8bb
00000300: 2b81 76bc 5327 e43c 463e 32bb 73cf 78bc
00000310: 4c8f ce3b b21e 3ebb 0955 513d 9773 163c
00000320: 4480 5b3c 5969 05bc 4847 98bc 388d 273c
00000330: 93e1 e0bc ab66 1d3c be99 bb3b 04bb 363d
00000340: 6fd3 e5bb a9c1 efbc 10b3 393c 9fd2 04bc
00000350: d8c5 db3b f736 85bc 9de7 9ebb a72a e63c
00000360: eeb3 da3c 2e76 1bbd 4588 473b 8bc4 ccbc
00000370: 4245 72bc 0c40 103c 8501 363c 5e0d e63b
00000380: 171a 08bd 59d6 d2bc a619 0a3d ad1a b93c
00000390: eb1d 27ba ee3a 18bc de82 323c 3dbb cd3a
000003a0: 79e8 b13c a425 00bc 7ef3 9f3c 8258 273b
000003b0: e0a5 733c c493 9c3c fc83 80bc 9cbf cabb
000003c0: 60f3 993c c175 60bb e7eb b73b 27dd a53c
000003d0: 66ea 893c c012 f73b e532 fd3b 52f5 d03c
000003e0: 5d59 e4bc 2a5f a4bc 7dc5 cd3b 65ca 82b9
000003f0: 84a7 59bc d3ac f9bb c73f 2dbb 8932 d73c
0.014929622 -0.014016698 0.027935438 0.008374739 -0.010149403 0.009832397 0.02067786 -0.009199834
0.012678504 0.03683837 0.024963459 0.026699327 -0.015453388 0.0045108325 -0.001598999 -0.013571132
-0.005455429 -0.009940743 0.0035277018 -0.0019516948 -0.0033325984 0.027680937 -0.025036076 -0.015695421
-0.0052994797 -0.004229864 -0.005198602 -0.0036472264 -0.0022179543 -0.0043128952 0.015246666 -0.0049602943
0.014582103 -0.022071065 -0.013494234 0.00639301 0.020326037 -0.0027167264 -0.0063262223 -0.018922012
0.00053099886 0.0060446975 -0.0026536766 -0.014014561 -0.032050274 -0.02513668 0.002622152 -0.061620142
0.023375701 -0.0038996546 0.00647808 0.029071262 -0.008816868 -0.021568524 0.02090537 0.011188449
-7.4751497e-06 -0.014975314 0.0009006497 0.008639544 0.050590552 -0.004782653 0.00047014494 -0.01206279
0.0046302583 -0.003792612 -0.0017584069 0.03028221 -0.024517873 -5.772329e-05 0.0071521574 -0.01511774
-0.030970942 -0.006126071 -0.025156882 -0.011044075 -0.0131803155 0.008484003 -0.0058674538 -0.01691674
0.009505344 0.022423293 -0.020764852 0.019790577 -0.01887282 -0.0011841753 0.013637505 0.022497054
0.0002949793 -0.01559422 0.006594878 -0.02348816 0.065976866 0.026540691 -0.0033814423 0.044607416
0.0032307117 0.027648449 -0.0051810597 0.047513627 0.028567027 -0.0154985655 0.039274044 -0.013085653
0.031316306 0.013151033 -0.021934306 -0.007190179 0.03595075 0.0017054805 0.007492741 -0.002328463
0.019987289 0.010897798 -0.010977139 0.01521919 0.00915941 0.0043798224 -0.010086963 -0.014805198
0.030299496 -0.028157784 -0.010374303 0.005888997 -0.011970894 0.043085113 0.004132825 0.010291833
0.010956713 -0.012160467 0.040581707 -0.041581776 -0.017755644 0.011283267 0.027379483 -0.007971942
-0.00039844235 0.03186944 0.034256004 -0.008356939 -0.02612231 -0.011529691 -0.014485159 0.0013897499
-0.012745634 -0.00071405334 -0.0036508432 -0.022303838 -0.008182766 0.0181767 -0.032410774 0.0010288232
-0.0028826373 -0.0057183057 0.0075014005 -0.0098326765 0.004707464 0.012670106 -0.012828473 0.01655772
0.017502366 -0.011903589 0.01198609 -0.0006865626 0.009620628 -0.013569944 -0.024639072 0.0151713705
0.027311726 -0.03460671 -0.002044768 -0.017299443 -0.023021301 0.015650349 0.017069027 -0.007761937
0.0021753218 0.013927145 -0.002843821 -0.00860479 -0.0031594234 -0.029301109 0.033156723 0.019770434
-0.013649121 -0.027256807 0.014741723 -0.01123262 -0.0042790393 0.0035073136 0.0036358752 -0.007573049
-0.0150454445 0.027850782 -0.0027197762 -0.0151861785 0.0063037034 -0.0029009995 0.051106486 0.009182832
0.01339728 -0.008142793 -0.018588677 0.01022654 -0.027451312 0.0096069975 0.0057251146 0.044611946
-0.0070137302 -0.029267149 0.011334196 -0.008106857 0.0067069344 -0.01626156 -0.004849388 0.02809651
0.026697125 -0.0379545 0.0030446213 -0.024996063 -0.01478702 0.008804332 0.011108761 0.0070206365
-0.033228006 -0.025736975 0.033715867 0.022595728 -0.00063750026 -0.009291394 0.010895459 0.001569606
0.021717297 -0.007821474 0.019525286 0.0025534933 0.014871091 0.019113429 -0.015687935 -0.0061873924
0.018792808 -0.0034249874 0.0056128385 0.020247055 0.016835403 0.007540077 0.0077270144 0.025507603
-0.027874643 -0.020064909 0.006279646 -0.00024946328 -0.013284568 -0.007619479 -0.002643572 0.026269214

encoder.0.attention.fc.bias f4 [64]
00000000: 0000 0000 0000 0000 0000 0000 0000 0000
00000010: 0000 0000 0000 0000 0000 0000 0000 0000
00000020: 0000 0000 0000 0000 0000 0000 0000 0000
00000030: 0000 0000 0000 0000 0000 0000 0000 0000
00000040: 0000 0000 0000 0000 0000 0000 0000 0000
00000050: 0000 0000 0000 0000 0000 0000 0000 0000
00000060: 0000 0000 0000 0000 0000 0000 0000 0000
00000070: 0000 0000 0000 0000 0000 0000 0000 0000
00000080: 0000 0000 0000 0000 0000 0000 0000 0000
00000090: 0000 0000 0000 0000 0000 0000 0000 0000
000000a0: 0000 0000 0000 0000 0000 0000 0000 0000
000000b0: 0000 0000 0000 0000 0000 0000 0000 0000
000000c0: 0000 0000 0000 0000 0000 0000 0000 0000
000000d0: 0000 0000 0000 0000 0000 0000 0000 0000
000000e0: 0000 0000 0000 0000 0000 0000 0000 0000
000000f0: 0000 0000 0000 0000 0000 0000 0000 0000
0.0 0.0 0.0 0.0 0.0 0.0 0.0 0.0
0.0 0.0 0.0 0.0 0.0 0.0 0.0 0.0
0.0 0.0 0.0 0.0 0.0 0.0 0.0 0.0
0.0 0.0 0.0 0.0 0.0 0.0 0.0 0.0
0.0 0.0 0.0 0.0 0.0 0.0 0.0 0.0
0.0 0.0 0.0 0.0 0.0 0.0 0.0 0.0
0.0 0.0 0.0 0.0 0.0 0.0 0.0 0.0
0.0 0.0 0.0 0.0 0.0 0.0 0.0 0.0
