model/mnist/tune_lr0.001_ed32_nl6_nh2_fm2_ps4/temp_model.pt (torch, 254829 bytes, 106 tensors)

embedding.cls_token f4 [1, 1, 32]
000000 4b 5e 58 3c ed 66 21 3c 02 27 07 3c 10 aa 40 bc
       0.013206075 0.0098512 0.008249046 -0.011759296
000010 3e ad ba 3a 50 31 28 bc db 35 73 3d f9 38 ed 3b
       0.0014242304 -0.010265663 0.059377532 0.0072394577
000020 e2 3f 0c 3a 1c db 9d 3d 92 3c c1 3c 70 b3 72 bd
       0.00053500955 0.077078074 0.023588452 -0.059253156
000030 5f dd 20 bd d3 31 09 3d d0 af c9 39 86 03 21 3c
       -0.039273616 0.03349478 0.00038468698 0.0098275
000040 18 11 39 bd 6d 98 08 bb fb 19 8c bd bd 4b 47 3d
       -0.045182317 -0.0020842806 -0.06840893 0.048656214
000050 78 4e 27 bc a9 f6 5b bb e3 fb fa bb c4 b1 9a 3c
       -0.0102115795 -0.003356377 -0.007659422 0.018883593
000060 6f aa 97 bc d4 5e a4 3b dc de 2b bb 49 8c 56 bc
       -0.018513886 0.005016187 -0.0026225364 -0.01309497
000070 79 b2 c5 3b e9 db 67 bd a4 7d 14 3d 8e 07 74 bc
       0.0060332385 -0.056606207 0.036252633 -0.014894379

embedding.pos_embedding f4 [1, 50, 32]
000000 4d 5e 58 3c ec 66 21 3c 0b 27 07 3c 10 aa 40 bc
       0.013206077 0.009851199 0.008249055 -0.011759296
000010 7a ad ba 3a 52 31 28 bc df 35 73 3d dc 38 ed 3b
       0.0014242374 -0.010265665 0.059377547 0.007239444
000020 35 40 0c 3a 1a db 9d 3d a9 3c c1 3c 6d b3 72 bd
       0.0005350144 0.07707806 0.023588495 -0.059253145
000030 55 dd 20 bd d4 31 09 3d b8 b0 c9 39 80 03 21 3c
       -0.03927358 0.033494785 0.00038469373 0.009827495
000040 16 11 39 bd b2 98 08 bb fb 19 8c bd bb 4b 47 3d
       -0.04518231 -0.0020842967 -0.06840893 0.048656207
000050 7f 4e 27 bc b7 f6 5b bb e5 fb fa bb c7 b1 9a 3c
       -0.010211586 -0.0033563802 -0.0076594227 0.018883599
000060 73 aa 97 bc ed 5e a4 3b dd de 2b bb 5c 8c 56 bc
       -0.018513894 0.005016199 -0.0026225366 -0.013094988
000070 75 b2 c5 3b e5 db 67 bd a1 7d 14 3d 89 07 74 bc
       0.0060332366 -0.056606192 0.03625262 -0.014894375
000080 bb 9f b4 3c 9d 1a 9d 3c 3b dd 4f bd c8 b1 19 3c
       0.022048822 0.01917773 -0.05074809 0.009380765
000090 52 ae 13 3d 42 97 c7 bb f0 f4 07 bc f4 56 14 3d
       0.036054917 -0.0060910294 -0.008298144 0.036215737
0000a0 56 99 cb 3c be 18 0c 3b 5e 19 1d bc 53 43 d1 3c
       0.02485339 0.0021377052 -0.009588568 0.025544798
0000b0 c3 88 02 3d b1 68 a9 3c ff 90 00 bd 6a 0a bd bc
       0.031868707 0.020679804 -0.03138828 -0.023076255
0000c0 d8 39 c2 3b 3a c1 45 3c 4b fb 10 bd 79 10 2a 3d
       0.0059273057 0.012069995 -0.0353959 0.041519616
0000d0 e8 eb 0c 3c 53 9f 8f bc aa 30 b0 bb 09 72 47 3d
       0.008601166 -0.017532026 -0.005376895 0.048692737
0000e0 b3 62 18 bd 06 c3 b8 bc ea 9c 13 bd 4e 07 f7 bb
       -0.037203502 -0.022553932 -0.036038317 -0.0075387126
0000f0 13 dc 90 3b 9e 3b a7 ba 84 f5 fb bc 29 e0 33 bd
       0.004420766 -0.0012758856 -0.03075672 -0.043914948
000100 66 1a 0f 3d 45 c2 a0 3b dd a9 43 bd 15 53 43 3c
       0.034937285 0.004905971 -0.047769416 0.011921664
000110 6f af d8 3c dc 53 97 bc a4 d5 7e 3b ba 5b 6e 3d
       0.02645084 -0.018472604 0.0038884664 0.058192946
000120 30 e9 c1 3c e1 e1 81 3c eb b5 d3 3b d8 5b 5e 3c
       0.023670763 0.015854778 0.0064608953 0.013571702
000130 f8 74 4c 3c 2d 5b b4 3c 8d 93 99 bc e5 70 aa bc
       0.012479059 0.022016132 -0.018747116 -0.020805785
000140 45 f0 f3 3a 7b e0 1d 3a 22 66 3e bd 11 c8 37 3c
       0.0018611035 0.0006022525 -0.04648412 0.011217133
000150 46 83 28 bc d9 7a 73 3b be 36 c5 bb de 65 2d 3d
       -0.010285204 0.003715208 -0.0060184887 0.042333476
000160 0f 40 38 bd 09 6b ac bc 60 be ee bc 8d b5 5c bd
       -0.044982966 -0.021047132 -0.029143512 -0.053884078
000170 0b 5c b2 3c bc f1 79 bc 8f 82 33 bd c5 04 2f bd
       0.021772405 -0.015255388 -0.043825682 -0.042729158
000180 ec 8e ef bc d7 ad e3 bd 82 9d b1 bc f9 67 30 3d
       -0.029242955 -0.11117142 -0.02168155 0.043067906
000190 ea 44 9c bd 7b 58 fe 3a 50 7f d5 ba d3 5e 65 3c
       -0.07630332 0.0019405031 -0.0016288552 0.013999659
0001a0 fb 7b 76 bc 88 ac 7a bd 24 41 1a 3e b9 d4 84 3c
       -0.015044208 -0.061199695 0.15063912 0.016214715
0001b0 c2 55 c7 bc 53 ec 43 bd d2 f4 cc 3d 9c 5f ba ba
       -0.024332885 -0.0478328 0.10007633 -0.0014219168
0001c0 07 16 84 3b 58 85 b8 bc cd 7f ac 3d 48 55 0a be
       0.004030946 -0.02252452 0.084228136 -0.13509095
0001d0 a1 ab 50 be 26 0e 6a 3e 9e 75 8e 3c ab 5b 33 be
       -0.20377971 0.2285696 0.017390069 -0.17515437
0001e0 00 6a 13 3d c1 a6 4e 3c 2c 5d 63 3c 0a 13 2e be
       0.03598976 0.012612999 0.013877194 -0.1699945
0001f0 8d 89 0e 3e af 01 bf bd d3 06 14 be 34 a1 4b 3d
       0.13919659 -0.09326493 -0.14455728 0.049714282
000200 29 f1 9f bc 87 ab 98 bd e0 35 bf bd 79 fa 41 3d
       -0.019524174 -0.07454591 -0.09336448 0.04735801
000210 d5 7e 7c bd 23 74 87 3d 05 91 a0 bc e4 93 94 3d
       -0.061644394 0.06613948 -0.0196004 0.072547704
000220 6f a9 b8 bc 28 8f d2 bd c9 28 4f 3e 74 1a 7d 3d
       -0.02254173 -0.10281211 0.20230402 0.061792806
000230 3d 68 44 3d 6a da a2 bb 3f 7b ce 3d e7 65 e6 bc
       0.047950972 -0.0049698846 0.10082101 -0.028124763
000240 bc 30 84 3c 3e 2c ab 3c 32 49 35 3d 17 74 7c bd
       0.01613652 0.02089512 0.044259258 -0.06163415
000250 36 bd 9d be 38 c9 86 3e 9c 9a 14 3d f5 fd 0b be
       -0.3080842 0.26325393 0.03628026 -0.13671096
000260 9a eb 43 bc f1 1d 4f bd e7 da 36 bb 10 bd 4c be
       -0.011958027 -0.050565664 -0.0027901472 -0.19993997
000270 2d 0e 32 3e 8f 35 12 be 50 e1 84 be d4 9e 2a 3c
       0.1738822 -0.14278243 -0.2595315 0.010413844
000280 22 4c 50 bc 4f 82 44 bd 53 36 e9 bd 05 f3 0e 3d
       -0.012713464 -0.047975834 -0.11387315 0.03489973
000290 d3 fc 02 bd 7c 5b 7d 3d bb 29 03 bd 15 3c a3 3d
       -0.031979393 0.061854824 -0.03202222 0.07970444
0002a0 1a a2 ab bb 44 00 f9 bd 20 91 25 3e 57 7c a2 3c
       -0.00523783 -0.12158254 0.16168642 0.01983468
0002b0 18 e7 94 3d 05 05 ee bb fd 84 e9 3d 75 62 d1 ba
       0.0727064 -0.007263782 0.114023186 -0.0015974777
0002c0 86 2e 10 3d 46 1a c1 39 ce a9 53 3d c8 a3 49 bd
       0.03520062 0.00036831404 0.05167561 -0.04922846
0002d0 45 19 76 be 02 fc 6c 3e 6e b1 90 3d ab cd dc bd
       -0.24033077 0.23143008 0.07065092 -0.107814156
0002e0 7a fa c0 bc 52 12 ce bc 04 88 87 bc b9 14 3e be
       -0.023556937 -0.02515522 -0.01654435 -0.18562593
0002f0 ad 5f 6a 3d 7b ac 26 be 12 08 4c be 4d 27 91 3b
       0.05722015 -0.16276734 -0.19924954 0.004429734
000300 10 8d 89 3d e0 47 29 bd 22 d7 40 ba 75 24 ce 3b
       0.06716359 -0.04132831 -0.0007356276 0.006290967
000310 d3 f6 f0 bc ce 02 fc 3b 87 46 c7 3c e0 99 6c 3d
       -0.02941457 0.007690764 0.024325622 0.057763934
000320 f0 77 46 bc c1 da 9d bb f2 18 64 3d 35 78 b1 bc
       -0.012113556 -0.0048173373 0.055687852 -0.021663764
000330 83 89 0f bb 21 a3 9c 3c 92 05 7f 3d da 6d 90 3a
       -0.0021902032 0.019120755 0.06226117 0.0011019066
000340 4c eb f8 bb 62 ff 2f be 59 61 e1 3c e8 42 82 bd
       -0.007596409 -0.17187265 0.02751224 -0.063604176
000350 9e 2e 9f bd db 14 9f 3d ad 8e a2 3d d5 6e da bb
       -0.077725634 0.0776765 0.079373695 -0.0066660442
000360 82 86 91 bd 67 c4 04 3d 59 7d 86 bc 28 be 53 be
       -0.071057335 0.032413866 -0.016417192 -0.20678008
000370 8f c5 63 3c ea 45 86 bd da af 75 bd 54 45 dd bc
       0.013902082 -0.06556304 -0.05998216 -0.027010597
000380 d2 dd d5 3c 2d 8a 91 3c 15 71 55 bd 2d 0b 37 3c
       0.026106749 0.017766083 -0.052109797 0.011172098
000390 02 25 14 3d c2 76 fb bb 61 f4 0c bc b6 91 2b 3d
       0.036168106 -0.007674069 -0.008603186 0.041887008
0003a0 ad f0 f5 3c 41 34 3b 3c 3f 90 4b bc 4e 3c d6 3c
       0.03002199 0.0114260325 -0.012424528 0.026151802
0003b0 05 d2 e3 3c c4 09 a3 3c 12 c3 14 bd 13 8d 9e bc
       0.027810106 0.019902118 -0.036318846 -0.019354379
0003c0 ca 14 a6 3b 05 e4 08 3c c5 fa 10 bd d1 fb 30 3d
       0.005068396 0.008355145 -0.035395402 0.0432089
0003d0 de a3 25 3c fd 30 98 bc 7d 3a 1d bc a2 e4 4e 3d
       0.01010987 -0.018578047 -0.009596464 0.05051101
0003e0 bb 36 19 bd 24 4c 9d bc 61 d5 18 bd 4d 9a 55 bb
       -0.03740571 -0.019201346 -0.03731287 -0.003259319
0003f0 ea ee e0 3a bf 04 5e 3a 13 34 d9 bc 73 20 3a bd
       0.0017161046 0.0008469335 -0.026514089 -0.045441102

embedding.conv1.weight f4 [32, 1, 4, 4]
000000 27 2d c8 bc eb fb 44 bd 18 88 70 3b df 2f 76 3c
       -0.024435593 -0.04809181 0.0036702212 0.015026062
000010 05 a3 c8 bb d9 24 37 bd b3 af 62 3b c5 5e d5 3c
       -0.006122949 -0.044712875 0.0034589588 0.026046166
000020 06 5b 29 bb b9 bd e4 bc d2 cf 8c bc da 5f 9a 3c
       -0.0025841608 -0.027922498 -0.01718894 0.018844534
000030 c8 89 0b bd 22 1a 32 bd 09 22 62 ba cb 91 4c 3d
       -0.034066945 -0.043481953 -0.00086262875 0.049943727
000040 a3 87 89 bc 63 9d 68 bd dd 22 07 3c c2 a4 8b bc
       -0.01678831 -0.05679072 0.008248058 -0.017046336
000050 4d 13 5c 3c 7c b4 34 bd 11 00 60 3c 13 71 a5 3b
       0.013432336 -0.044117436 0.013671891 0.00504888
000060 60 a1 4a bd c5 ca 7a 3b f3 d2 16 3d d3 11 e6 bc
       -0.049470305 0.0038267833 0.03682227 -0.028084671
000070 88 6b 66 bd 43 db 26 3d 2d b9 18 3d bd 63 83 bd
       -0.056254894 0.040736448 0.037285972 -0.06415508
000080 07 d3 0a bc 79 cf c1 3c d3 ac cf 3c bf ec 0e bc
       -0.008473164 0.023658501 0.025350964 -0.008723437
000090 34 42 c1 bb 81 4c 9e 3c e2 0f 00 3c ab 4b ae bc
       -0.0058977846 0.01932359 0.007816287 -0.021276316
0000a0 4e 1f a7 bb 21 1f 15 3d da 3a 20 3b 76 4f 05 bd
       -0.0051001674 0.03640664 0.002444914 -0.032546483
0000b0 70 97 08 3d 68 2a 81 3c 80 5c 17 bd 53 d9 1e bd
       0.033347547 0.015767291 -0.03695345 -0.038781475
0000c0 78 10 87 3b d0 b5 05 bc 07 f9 21 bc 7b 90 a0 bc
       0.0041218363 -0.008161023 -0.009886033 -0.019600144
0000d0 50 6c 3f bd c3 a5 58 bc fd d9 b0 bc 8f 3e c3 bc
       -0.046734154 -0.013223114 -0.02158832 -0.023833541
0000e0 12 ec 31 bd f8 f0 54 3d 3d 54 fc bc 34 db 14 bd
       -0.043438025 0.05198762 -0.030801887 -0.03634186
0000f0 da 7f 12 bc ca 4f 9a 3c 7c e0 45 bd 7c c5 15 bd
       -0.008941615 0.018836875 -0.048309788 -0.03656529
000100 d8 50 61 bd fc 21 a7 bc 39 cf 74 3c 9d 5e 1a 3c
       -0.05500874 -0.020401947 0.014941984 0.009421972
000110 8f 60 52 bd 32 87 ec ba 1f e4 ce 3c 08 4a 9b bc
       -0.051361617 -0.0018045662 0.025255261 -0.0189562
000120 49 eb 44 bd 97 0e b8 3b af e8 bc 3c 63 be 2a bd
       -0.048075948 0.0056169736 0.023060171 -0.041685473
000130 bb 0b 34 bd d6 e8 b0 bc 84 ee 8b 3b b7 0d 0d bd
       -0.0439565 -0.0215954 0.0042703766 -0.034436908
000140 88 24 29 3c 4c 60 e6 bb da c0 2a 3c 49 bf c0 39
       0.010323651 -0.0070305225 0.010421956 0.00036763612
000150 25 8c e0 bc b1 87 cc 3c 8d 41 74 3c 82 92 05 3c
       -0.027410576 0.024967046 0.014908207 0.008152606
000160 1e 81 83 bc f1 40 15 3d d3 51 b2 3c 36 c8 cc ba
       -0.016052779 0.036438886 0.021767532 -0.0015623632
000170 4d 14 e2 3c 7d 0b 26 3d d1 69 a5 3d 8d 39 c5 bc
       0.02759757 0.0405383 0.080768235 -0.024075294
000180 0a 53 20 3d a9 21 2f 3b ab b7 5f 3c ae 9a 28 3d
       0.039141692 0.0026722944 0.01365463 0.04116314
000190 34 5c 33 3d 89 32 05 bc 65 6a 20 3b 43 50 d2 3c
       0.043789104 -0.008129724 0.0024477479 0.025673037
0001a0 0d 0a 0e 3d 63 1d 1b 3c 1b a8 2d bc bf 4a ac 3b
       0.034677554 0.009467456 -0.0105991615 0.005257934
0001b0 0c 09 37 3d a6 3b 8b bc a9 f8 b3 bc 85 2a f7 3c
       0.044686362 -0.016996216 -0.021969156 0.030171642
0001c0 40 a3 c6 3c d6 a1 2a bd 60 fc 39 bd ea 40 2d 3d
       0.024247766 -0.041658245 -0.0454067 0.042298235
0001d0 fc 19 75 bc dc 33 fc bc 6a 64 84 bd 3c 40 6f 3d
       -0.014959808 -0.030786447 -0.06464465 0.058410868
0001e0 12 9a 22 bc 00 4a 3e bd a9 32 86 bc ca 99 5e 3d
       -0.009924429 -0.04645729 -0.016381579 0.054345883
0001f0 a0 30 a1 bd 04 c8 40 3a 77 c4 e1 3c 45 a8 5f 3d
       -0.078706026 0.00073540234 0.027559502 0.054603834
000200 3d 91 2e 3d db fb 3a bd eb f0 37 bd 14 3b f7 bc
       0.04261898 -0.045650344 -0.04490749 -0.030179538
000210 f6 c0 af bc 7f 3a d0 bc 2b df af 3b 1f b5 e8 bc
       -0.021454316 -0.025418518 0.00536718 -0.028406678
000220 73 31 b5 3b 39 95 01 bd 47 a6 15 bc 24 4e b0 3c
       0.0055295764 -0.03163645 -0.009133882 0.021521635
000230 a1 25 31 bd 6c a0 0f bd 7f 78 b9 bb cb b6 d3 3c
       -0.043248776 -0.0350651 -0.005660116 0.025843998
000240 76 b3 14 bc 11 cc 62 3b 82 9a e8 3c 12 aa 9c bc
       -0.00907599 0.0034606496 0.028393988 -0.019124065
000250 9b 06 90 3b 57 05 5c 3b 03 4f d5 bc e7 11 3f bc
       0.0043953187 0.0033572519 -0.026038652 -0.011661983
000260 02 c2 cb 3c a7 ea e4 bc 3a 26 d5 bc 68 b5 29 3c
       0.024872784 -0.027943922 -0.026019204 0.010358192
000270 1e e1 c8 bc 07 4c 4f bd 88 5a 15 3d bb 46 84 bb
       -0.024521407 -0.050609615 0.03646329 -0.004036752
000280 42 58 87 3c 80 7a 0c 3c 5b ed 7f 3c 6c 8f 15 bd
       0.016521577 0.008574128 0.015620555 -0.03651373
000290 fc 96 37 bb e0 61 3c 3b 5f 24 bd bc c2 41 91 3c
       -0.0028013578 0.0028744861 -0.023088632 0.017731551
0002a0 61 74 87 3c 8c e1 89 3c d8 72 54 bc 64 98 80 bc
       0.016534986 0.016831182 -0.012966834 -0.015697666
0002b0 62 7c 11 bd ed 20 11 3c fb be 92 bc 01 43 1e bc
       -0.03551901 0.008857948 -0.017913332 -0.00965953
0002c0 47 ff 31 bb ac 20 e1 bb e7 70 71 3b c5 31 cb bc
       -0.0027160214 -0.00687035 0.0036840977 -0.024804005
0002d0 04 4b 9d bb 3a 28 0d bb c4 51 2c bd 17 26 3d bc
       -0.0048002023 -0.002153887 -0.042070165 -0.011544726
0002e0 e4 ef b9 3b 35 f2 17 bc 44 b4 5d bd 51 99 1e 3c
       0.005674349 -0.009274055 -0.054126993 0.009680108
0002f0 b5 4d 08 bc bf 92 a1 bc cb 87 ce bc ab 7c da bc
       -0.008319308 -0.019723294 -0.025211236 -0.026670774
000300 40 9c 8c bb b7 60 21 3b 4f e8 f9 3b 96 52 09 bc
       -0.0042910874 0.0024624297 0.0076265703 -0.008381506
000310 f6 02 2c bc 72 3d 68 3c 25 e0 21 3d 97 67 4f 3b
       -0.010498753 0.014174806 0.0395204 0.0031647438
000320 65 14 eb bc 12 c4 2d 3d 8e 39 2b 3d 43 f0 a8 bc
       -0.028696248 0.042423315 0.041802935 -0.020622378
000330 a9 60 94 3a c7 1b a9 3d 1e 0d ea 3c 1d 5b 9c 3b
       0.0011320311 0.08257251 0.028570708 0.0047716037
000340 cd c0 11 3c b9 9d d4 bc bc 8d 36 bd e1 8d b6 bc
       0.008896065 -0.025954114 -0.044568762 -0.02228445
000350 fe 3a 89 bb d8 2d 60 bc a2 84 99 bc ab 8f d9 bc
       -0.0041879406 -0.013682805 -0.018740002 -0.026557764
000360 3c 29 ae 3c 6a 68 1b bb 6d 2e ce bc 5f 8c c6 bb
       0.021259896 -0.0023713359 -0.025168622 -0.006059214
000370 d5 c7 a4 3c 7b c6 71 bc 32 02 53 bc 6e 53 85 bb
       0.020114819 -0.014756794 -0.012878941 -0.0040687835
000380 d7 9e c2 bc 71 d6 55 3c 30 26 cb 3c 2a 22 67 3d
       -0.023757381 0.013051615 0.024798483 0.056429066
000390 71 64 09 bd 20 a9 b8 3c 0e 31 27 bb 1d 78 97 3c
       -0.033543054 0.022541583 -0.0025511417 0.018489892
0003a0 ad 84 f8 bc de 25 ce 3c bf 46 49 3d a4 f5 82 bb
       -0.030336702 0.02516454 0.049139734 -0.003996568
0003b0 ce 4a 5b bc 8a 3b 70 3d e2 0c 8e 3d 02 f3 c3 bb
       -0.013384534 0.05865053 0.06936051 -0.0059798965
0003c0 98 8e d1 bc 3e fb a8 3a 42 71 95 3d c7 42 5d 3d
       -0.02558069 0.0012892259 0.07296993 0.054018762
0003d0 ea 92 bf bc d6 f6 1f ba 0a 4c 87 3d fa 3c 5d bc
       -0.023385484 -0.000610215 0.066063 -0.0135033075
0003e0 cc 52 1c 3c ce ae 8c 3b 90 31 f2 3c ff f0 9b 3c
       0.009541225 0.0042932993 0.029564649 0.019035814
0003f0 34 c1 c5 bb ed 99 89 bc 2f 62 f5 3c c6 19 5f 3c
       -0.0060349945 -0.01679703 0.029954044 0.013616985

embedding.conv1.bias f4 [32]
000000 3c 30 ce bc da a2 15 bd 77 a2 4c bd 0b d7 9d bc
       -0.025169484 -0.03653226 -0.049959626 -0.01926758
000010 57 82 cd b9 c7 a8 46 3c 19 5e 74 3b b5 9d 0c 3d
       -0.00039197758 0.012125201 0.0037287532 0.03433009
000020 13 2d 79 bc e9 0c 75 bd 0c 1b 1c 3d c7 38 83 3c
       -0.0152085 -0.059826765 0.03811173 0.016018284
000030 ca 9d 5d 3d 06 42 1f bd 40 ac 0e bb 53 40 0c 3d
       0.054105558 -0.038881324 -0.002177015 0.03424103
000040 66 5b 3d 3d 54 ee 89 ba b5 bf c1 bc 8c de 03 bd
       0.046229742 -0.0010523298 -0.023650983 -0.03219466
000050 06 d9 0c bd db 79 7c 3d 80 9a 00 bd 9e 0d c5 bc
       -0.034386657 0.061639648 -0.031397343 -0.024054345
000060 8b 37 04 3d 64 81 15 bd a4 a0 99 3c 7e 1d 3c bc
       0.032279532 -0.03650035 0.018753357 -0.011481641
000070 46 69 5d 3d b9 95 bf bc 02 e9 40 bd 3e a6 d0 3c
       0.054055475 -0.023386823 -0.047097214 0.025469895

encoder.0.attention.queries.weight f4 [32, 32]
000000 f2 8c 02 3e 82 7c c0 3d 75 34 23 3b f9 be a7 3d
       0.12749079 0.09398748 0.0024903093 0.08190722
000010 fa 33 91 3d d9 63 bd bd 26 da 65 bc 65 85 bd bc
       0.07089992 -0.0924756 -0.014029061 -0.023134897
000020 a4 8e f4 3d 31 42 67 3d 11 a0 a1 3c 62 b7 85 3d
       0.11941269 0.05645961 0.019729646 0.06529118
000030 69 8d 0e be 3b 3b 09 3e b3 30 ca bd d8 f5 1c be
       -0.13921131 0.13401501 -0.0987257 -0.15328157
000040 ca e6 2b be 06 15 0b 3e 7b d5 97 3d 9a 81 e2 3d
       -0.16787258 0.13582239 0.07413765 0.11059876
000050 e2 ad d4 3c 81 bc cb 3c 91 e9 c4 3d 0d 21 31 3d
       0.02596182 0.02487016 0.09614862 0.04324441
000060 af ff 0f be 1a d1 03 3e 07 c9 c5 bd ac 90 62 bd
       -0.1406238 0.12872735 -0.096574835 -0.05531375
000070 27 42 b9 3d 63 e4 66 bc 7e bc c1 3d 49 82 ef bd
       0.09045821 -0.014092538 0.0945978 -0.11694772
000080 eb cd 00 bc 4c 60 15 bb 9e 67 83 be e0 27 06 3d
       -0.007861595 -0.0022792993 -0.2566499 0.03275287
000090 61 13 a8 3d 0e b0 be 3c d8 97 f5 bc 5e 4c 6b 3e
       0.08206821 0.023277309 -0.029979631 0.2297835
0000a0 ad c9 9b 3d b7 81 e4 bd 3c 0a 89 3e 2f cc f2 3d
       0.07606826 -0.11157554 0.2676562 0.11855351
0000b0 1a 7b 37 3e 66 ca de bc b5 b6 bd bd dd a3 b1 bc
       0.17918053 -0.02719612 -0.09263364 -0.021684581
0000c0 31 6e 93 3e 46 45 fe 3d 3a a9 13 3c 72 49 65 3d
       0.28795007 0.124155566 0.009012515 0.055978246
0000d0 57 c9 cc bd 57 c4 81 3e ec 62 ae bc a9 94 a3 bb
       -0.0999934 0.25345108 -0.021287404 -0.004992087
0000e0 48 65 ac 3d f7 00 28 be 53 4b ac bd bd 16 7c bd
       0.08417755 -0.16406618 -0.084128045 -0.061545122
0000f0 d3 77 9e 3e 95 7d de 3c a0 55 f3 bd 44 95 04 3d
       0.30950794 0.027159492 -0.11881566 0.032368913
000100 b0 09 e9 bd 6f 98 97 bd 70 96 db bd 0e ff c9 bd
       -0.11378801 -0.07402121 -0.10722053 -0.09863101
000110 a4 1f 8b bd a7 6f b9 3d 48 11 03 3d f2 46 28 3c
       -0.06793144 0.09054499 0.031998903 0.010270821
000120 76 cf d1 bd ed 1d 12 be f8 60 db 3c 2a b9 97 bc
       -0.10244648 -0.14269228 0.026779637 -0.01852091
000130 8a 0a 51 3e 84 91 12 be 68 c0 bd 3d 4c 36 0d 3e
       0.20414177 -0.14313322 0.09265214 0.13790244
000140 a9 b7 80 3e c2 d3 2e bd 11 32 b4 bd 82 93 e4 bd
       0.25140122 -0.042682417 -0.08798612 -0.111609474
000150 2c 9c 11 bd 48 5d 7d 3d 3f b7 c3 bd 1a b5 71 bd
       -0.035549328 0.061856538 -0.09556436 -0.059010603
000160 ed 7c 18 3e 19 fc 3f be 69 e8 ca 3d 6c 0f c3 3c
       0.14891405 -0.18748511 0.0990761 0.023811065
000170 0b b7 a1 bc 98 f8 60 bd a2 fd 19 be 99 ce d7 3d
       -0.019740602 -0.054924577 -0.1503816 0.10537452
000180 99 33 2b be 91 e5 9e bd e7 e7 18 3c 1f f6 21 be
       -0.16718902 -0.0775863 0.009332634 -0.15816544
000190 3e ec d2 bd dc 09 ec 3d b6 6e 91 3d 1c 13 5d bd
       -0.10298966 0.11525318 0.071011946 -0.053973302
0001a0 2b 4b 25 be 28 55 c1 bd 93 3d d8 bd cc c2 9f bd
       -0.16141956 -0.094400704 -0.10558619 -0.078008264
0001b0 74 b0 e4 3d 95 31 d7 bd e2 41 af 3d 3d d7 33 3e
       0.11166468 -0.10507504 0.08557488 0.17562576
0001c0 33 cb 27 3e 43 1d 28 be c3 6b 32 be de e5 0f be
       0.16386108 -0.16417412 -0.1742392 -0.14052531
0001d0 e5 d6 86 3c b8 4a ee bd 9e 61 ba bd da e4 40 bd
       0.016459892 -0.11635345 -0.0910065 -0.04709325
0001e0 d4 68 01 3e 07 5f 30 be 46 46 02 3e 55 5e a3 3d
       0.12637645 -0.1722375 0.1272212 0.07976977
0001f0 79 01 ea bd c3 33 7b bd c2 eb ca bd 11 40 2e 3e
       -0.11426062 -0.06132866 -0.099082485 0.17016627
000200 b8 29 20 3d d0 98 93 bc 85 ac 8e 3e a4 40 b5 bc
       0.039102286 -0.018017203 0.27865997 -0.02212555
000210 89 78 b8 bd 7f 59 c1 bd 6c 6d e1 bb 77 37 51 be
       -0.09007365 -0.09440898 -0.006879499 -0.20431314
000220 5f 17 e7 bd 5a 00 cf 3d 00 3c 5d be 14 38 ca bd
       -0.112837546 0.10107489 -0.2160492 -0.09873977
000230 f3 7d 41 be a4 f2 0b 3d 28 7b 58 3d c9 88 5e 3c
       -0.18895702 0.034166947 0.052851826 0.013582417
000240 06 f1 ae be 89 44 e4 bd af ec 27 3d e5 2e 8c 3a
       -0.3416826 -0.111458845 0.040997203 0.0010695128
000250 6c 25 d7 3d a2 a9 7d be f1 64 96 3d 6f 3e 1d 3b
       0.105051845 -0.24771741 0.07343472 0.0023993512
000260 19 41 a1 bd db 26 05 3e e7 77 0b 3d fb 8d 97 3d
       -0.078737445 0.13003103 0.034049895 0.074001275
000270 e6 06 81 be 63 16 db 3c 1f 19 d6 3d 17 56 ee bb
       -0.25200576 0.026744073 0.1045401 -0.0072734463
000280 6d 04 2e 3e 20 bf d0 3d a6 dd 2e 3d 7e 0d 02 3e
       0.16993876 0.10192704 0.04269185 0.1270046
000290 9a d8 bb 3d 35 b7 00 be 9f d9 08 bd 39 a4 66 3b
       0.09172173 -0.12569888 -0.033410665 0.00351931
0002a0 da 6f 0d 3e b4 7e 90 3d c7 6d 38 3b d8 b5 a5 3c
       0.13812199 0.07055417 0.0028141604 0.020228311
0002b0 a6 fc 32 be de ee 1a 3e a3 bb bf bd 3d b9 09 be
       -0.1747919 0.15130183 -0.09361961 -0.13449569
0002c0 b6 b2 75 be ce 85 21 3d 0b 0e 00 3e a7 47 a3 3d
       -0.23993954 0.039434247 0.12505357 0.07972651
0002d0 1d 85 20 3d 03 c3 85 3c 09 bc ac 3d f9 ae d9 3d
       0.039189447 0.01632834 0.08434302 0.106290765
0002e0 1d 92 12 be 06 7f 3d 3e a7 aa 46 be 99 b1 ab bc
       -0.1431355 0.18505487 -0.19401036 -0.020958709
0002f0 99 d8 27 3d b3 f8 82 3d 96 6a df 3d 73 d6 00 be
       0.040978048 0.06395092 0.109090015 -0.12581806
000300 b8 68 49 3e 43 ef d2 3d 77 d1 3d 3d b8 56 b6 3d
       0.19668853 0.10299542 0.04634234 0.08903259
000310 fc 33 7a 3d c2 6b d9 bd 98 69 bb bd b7 38 10 3d
       0.061084732 -0.10616256 -0.09151 0.035210337
000320 c6 83 c7 3d 91 ab d8 3c d2 1a 56 3d 3b 2a 4f 3d
       0.09741931 0.026448997 0.05227167 0.050577383
000330 f8 c0 e9 bd 6f 21 04 3e 21 c4 83 bd 76 6b 00 be
       -0.11413759 0.12903379 -0.06433893 -0.12540993
000340 f9 3b 03 be 46 18 de 3d ce 6e 04 3e af 5e f2 3d
       -0.12815847 0.108444735 0.12932894 0.11834466
000350 10 2f 98 3c 39 57 12 3c 17 da 0c 3e b4 ad a6 3c
       0.018577129 0.008931928 0.1375507 0.0203465
000360 3b b4 ee bd 3c 4a 25 3e bb 3d 18 be 27 6e 89 bd
       -0.1165547 0.161416 -0.14867298 -0.06710463
000370 99 bf a1 3d 5d 91 0b 3d 1c 9d 80 3d ec 7b 03 be
       0.078978725 0.034074176 0.06279966 -0.12840241
000380 47 93 d5 bc 0c 31 49 bb 4f 0f 55 be 25 c3 81 3c
       -0.026071204 -0.00306994 -0.20806621 0.015840122
000390 bb fc 99 bc ff e0 48 3d 80 02 33 3c a4 55 25 3e
       -0.01879727 0.049042698 0.010925889 0.1614595
0003a0 fb e0 ac 3d dd d6 87 bd 15 30 41 3e d2 ed 6c 3d
       0.08441349 -0.06632779 0.18865998 0.05784399
0003b0 12 3c 49 3e 68 7e 3a bd 78 6e bd 3b cf 9f 0a 3d
       0.19651821 -0.045530707 0.005780991 0.03384381
0003c0 c5 5c a2 3e 18 ec 7a 3d 52 2c 34 bd f8 b2 1a 3c
       0.31711403 0.061260313 -0.04398758 0.009442084
0003d0 45 c6 d0 bd 76 a8 51 3e fc 92 6f bd 90 6a b0 bc
       -0.10194067 0.20474419 -0.058489785 -0.021535188
0003e0 90 b2 c8 3d bf d2 1f be 92 ba 92 3c dd bb 39 bd
       0.09799683 -0.15607737 0.01791123 -0.045345176
0003f0 d5 8d 55 3e 7c 34 19 bd 93 78 0f be 52 d7 7b 3d
       0.20854886 -0.03740357 -0.14010839 0.061484642

encoder.0.attention.queries.bias f4 [32]
000000 32 91 a5 bd 59 9e 12 3e f8 ef b6 3d cd c7 a9 3d
       -0.080843344 0.14318217 0.08932489 0.08290062
000010 dc f8 1b be f3 a8 a5 bd 8b 4d a6 bd 6b 39 28 3e
       -0.15231651 -0.08088865 -0.08120259 0.16428153
000020 3b 8a b5 3d 9d cd bc bd 61 8f 1f be 96 f2 00 be
       0.08864256 -0.09218905 -0.15582038 -0.12592539
000030 6b 2b aa 3d 0b 2d b1 3d 6a b3 88 bd 4d 68 1c 3e
       0.083090626 0.086511694 -0.066748455 0.15274163
000040 eb cc f4 3d c2 20 7a bd 56 e7 ea 3d 0a 27 e6 3d
       0.119531475 -0.061066397 0.11469905 0.11237915
000050 33 97 d7 3c fa c8 ee bd 02 18 f4 bc 45 cd c2 bd
       0.026317215 -0.11659427 -0.029796604 -0.09511808
000060 d1 d5 ef 3d d2 82 f7 bd d5 65 76 3d 9c 46 eb 3d
       0.11710704 -0.12085499 0.06015571 0.11488077
000070 7d d0 a2 3d 14 59 bf 3d 88 ab f8 3d ec 19 4e 3d
       0.07949922 0.09343162 0.12142092 0.05031769

encoder.0.attention.keys.weight f4 [32, 32]
000000 fe fa 3c 3c 69 85 1f 3c 87 0d 32 be d7 f7 7c 3c
       0.011534451 0.009736397 -0.17387973 0.015439949
000010 8b 5f 40 3d 0a 3a 51 bd 59 7e a0 bd 85 f6 e5 3d
       0.046966117 -0.05108074 -0.07836599 0.112286605
000020 0e 95 e3 3c ba 7a 36 bc ea e9 1d 3e e9 36 e8 3b
       0.027781036 -0.011137659 0.15421262 0.007086624
000030 65 1b 63 bc 9c 25 b2 3b 2e a5 88 bd 16 a5 36 bd
       -0.013861512 0.0054366123 -0.066721305 -0.044591032
000040 18 80 cf bd 3a 47 9b 3d a0 82 b2 3c 67 2c 0d bc
       -0.10131854 0.07581945 0.021790802 -0.008616543
000050 c4 fb b8 bd 3f fa 3b 3e 3a 44 0a 3d 57 b6 e3 3c
       -0.090323955 0.1835718 0.033756472 0.027796907
000060 32 99 aa 3b e4 b6 48 3d e8 7c 90 bc e9 af 8b be
       0.0052062506 0.049002543 -0.017637685 -0.27282646
000070 04 d8 25 3e eb 70 e5 bb f6 22 01 bd d3 7e 70 bd
       0.16195685 -0.0070019863 -0.031527482 -0.0587147
000080 67 10 8c bd 93 27 21 bd 98 45 14 be 40 5e 58 bd
       -0.06839066 -0.03934438 -0.14479673 -0.05282426
000090 95 a6 97 bd db 7b ce 3b f7 96 95 3d 34 7c 6b bc
       -0.0740482 0.006301386 0.07304185 -0.014372874
0000a0 fd 89 5a bd 19 0f d8 bd bb 73 00 bd 26 86 69 bd
       -0.053354252 -0.10549755 -0.03136037 -0.0570127
0000b0 62 91 64 3d 4f 4d 91 bd ff de 93 3b 2b b7 d4 3b
       0.05580271 -0.070948236 0.004512667 0.006491562
0000c0 8a 11 7c bd 70 b4 26 3c 4a 9e ad bd b9 c9 8e bc
       -0.061540164 0.010174856 -0.08477457 -0.017430173
0000d0 ea 89 75 be 2e 8e 07 3d 14 bc ec bc e5 25 ef bb
       -0.23978391 0.033094577 -0.028898276 -0.0072982186
0000e0 bd 48 7f 3d 2b 6a e4 bd a1 d2 d0 3d 9c ac df be
       0.062325228 -0.111530624 0.10196424 -0.43686378
0000f0 39 23 83 3d 61 3c eb bd 4d 4d 0c be b9 c7 d3 3c
       0.064032026 -0.11486126 -0.13701363 0.025852071
000100 60 77 4a bd a8 71 a4 bd bd 81 4d 3e db d5 30 bd
       -0.04943025 -0.08029491 0.20069022 -0.0431727
000110 09 03 60 bd 1a 13 a6 3d 8d 8c 62 3d c3 cb ff bd
       -0.054690395 0.08109112 0.05530982 -0.12490036
000120 c3 2b b7 bd a8 c9 81 bb 8e d2 4f be c9 99 76 bd
       -0.08943894 -0.003960807 -0.20295164 -0.060205255
000130 96 d3 17 3d b3 54 7c bd 2b f1 92 3d ba f1 a9 3d
       0.03706702 -0.061604213 0.071749054 0.08298059
000140 ce d3 cf 3d 59 bb a5 bd 4f dc ac bd d6 ae 2a 3d
       0.101478204 -0.08092374 -0.08440458 0.041670643
000150 f9 5b 6a 3d 4f f6 31 be 58 d3 18 bd 18 dc fe bc
       0.05721662 -0.17379116 -0.037310928 -0.031110808
000160 85 d7 9c 3d bf e5 d4 bd 0a 94 25 3d 32 05 85 3e
       0.076582946 -0.10395383 0.040424384 0.25980526
000170 6e 16 3a be d0 ee b5 bc 11 6b 7f bd ec f8 85 3d
       -0.18172619 -0.022208601 -0.062357966 0.06541619
000180 af 53 cc bc 6a b0 25 bb 6b be 49 3e 29 77 d5 bc
       -0.024942247 -0.0025282153 0.19701545 -0.026057797
000190 f4 42 2d bc ee 66 90 3d 19 6f d1 3c 8b de cb bd
       -0.010575045 0.07050882 0.02556567 -0.09954556
0001a0 8b e5 71 3c 5a f9 cf bc 07 72 30 be 34 b1 7d bc
       0.0147642 -0.025387455 -0.17230998 -0.015484143
0001b0 c2 eb 0e 3d 7f b6 94 bc 8e a4 45 3d e5 4b a1 3c
       0.034892805 -0.018153427 0.048252635 0.01968951
0001c0 6a 52 f9 3d 7a 98 1f bd 25 4c 15 bd 67 cb 40 3d
       0.12173922 -0.038963772 -0.03644957 0.04706898
0001d0 0d f6 1f 3e e0 6e 30 be a8 e8 85 bc 7e 42 a3 3c
       0.15621205 -0.17229795 -0.01634629 0.019929167
0001e0 2a dc f0 3c 90 56 80 bd 35 69 a9 3c 06 ad 9b 3e
       0.029401857 -0.062665105 0.02068005 0.30405444
0001f0 a2 f8 05 be 09 6b 39 3c 4c 05 e0 3c 39 b8 70 3d
       -0.13083127 0.011317023 0.027346276 0.05876944
000200 03 5f 5f 3d 40 6a ae 3d 97 c6 ff 3d 99 12 d7 3d
       0.05453397 0.08516359 0.1248905 0.10501594
000210 bd fc b2 3d de 54 10 bd 57 67 a1 bd 5c 39 ce 3b
       0.08739612 -0.035237186 -0.07881039 0.006293459
000220 32 56 5d 3d 2d 2c 22 3e 7f e3 79 3d 47 7b 2f 3d
       0.05403728 0.15837164 0.061007973 0.042842176
000230 fb 3f f2 bd d9 90 8d 3d 0a ef 15 bd 1b 32 b6 bd
       -0.118286096 0.06912393 -0.03660492 -0.088962756
000240 e7 9d fd 3c 41 85 00 3d 24 7e 2b 3e a5 02 52 3d
       0.030959083 0.03137708 0.16747338 0.051272053
000250 7b 33 86 3e 69 ed 3f 3a a0 2b 72 3d c7 29 70 3d
       0.2621115 0.00073214486 0.059123635 0.058633592
000260 78 2b fe bc e0 0b 09 3e c6 fc 93 bd 82 13 ce 3e
       -0.031026587 0.13383436 -0.07225947 0.40249258
000270 13 fb ab bd e5 75 fc 3d e1 79 22 3e c1 fd 72 bd
       -0.08397498 0.12327174 0.15866806 -0.05932403
000280 e4 9d 0e 3d a2 27 d4 3c 21 0e 58 be 12 af a2 3c
       0.034818545 0.025897805 -0.2109914 0.01985887
000290 4a ca 63 3d 8d 66 96 bd b3 77 63 bd 81 b8 fa 3d
       0.05561284 -0.07343779 -0.055534076 0.122422226
0002a0 55 9a a0 3c 9f e5 a7 bc d3 fb 4d 3e e3 49 a1 3c
       0.019604841 -0.020495234 0.20115595 0.019688552
0002b0 79 87 8f bd 9e c1 8b 3c 6a 95 8a bd 42 d0 81 bd
       -0.07008261 0.017060097 -0.0676678 -0.0633855
0002c0 af a8 0c be 2b 58 8c 3d 3c 42 53 3d 4c fe 71 bc
       -0.13736223 0.06852754 0.051576838 -0.014770102
0002d0 b6 bf f4 bd 9f a5 37 3e 7a 9e b6 3b b9 d4 6e 3c
       -0.119506285 0.17934273 0.005573091 0.014577084
0002e0 56 55 4d bd 08 93 b5 3d 8a 74 ab bd b0 37 8f be
       -0.05013021 0.088659346 -0.083718374 -0.27972174
0002f0 df f9 2d 3e 7e c8 c8 bc b6 3d 0a 3c 27 72 8b bd
       0.1698985 -0.024509665 0.008437565 -0.06808882
000300 29 b3 c4 3c 2e d4 71 3c 82 80 64 be 4e f9 66 3d
       0.024011211 0.01476006 -0.22314647 0.0563901
000310 92 ad 97 3b 86 ca 60 bd 7f 63 28 bd 21 3a b4 3d
       0.0046288455 -0.05488064 -0.041110512 0.0880015
000320 e0 1b b4 3c b2 ff 24 bd c0 78 1b 3e d3 f9 26 3c
       0.021985948 -0.040282913 0.15182781 0.010191399
000330 25 da c7 bc 61 35 d4 3b 0f ac 8f bd 6d ea 1e bd
       -0.024396012 0.00647609 -0.070152394 -0.038797785
000340 c1 be fd bd 36 c9 73 3d 37 80 81 3d 02 3c 70 bc
       -0.12389899 0.05951806 0.06323283 -0.0146627445
000350 42 d1 fa bd dd 51 28 3e a3 44 6d 3a 8f c4 d4 3c
       -0.12246944 0.16437478 0.000905106 0.025972633
000360 15 d7 ec bc d4 be 51 3d 60 61 1e bd 8d 20 90 be
       -0.028911153 0.05120738 -0.038667083 -0.28149834
000370 52 fa ed 3d 5a fc e7 bc 3b de 41 bc 65 a3 c9 bc
       0.116200104 -0.028318573 -0.011832769 -0.024614045
000380 81 13 aa bd 44 36 49 be 59 f1 c4 bd 52 2f 38 be
       -0.08304501 -0.19649607 -0.09616346 -0.17986801
000390 2b dc 0d be 91 31 8e 3d 6a a3 22 3e 73 99 2b bd
       -0.13853519 0.06943048 0.1588265 -0.041894387
0003a0 d4 ed 08 be 03 f3 1b be 53 fa 15 be db 78 9e bd
       -0.13371974 -0.1522942 -0.14646272 -0.07737895
0003b0 eb e6 23 3e d4 9e d8 bd ee e9 85 3d 28 b0 6c 3d
       0.16006057 -0.10577169 0.06538759 0.057785183
0003c0 ee b8 05 3d 8d 4a f6 bd c5 7a 71 be de fa a8 bd
       0.032647066 -0.12025938 -0.23581989 -0.08250974
0003d0 f4 8a 89 be 92 a5 ed bd 02 a7 23 be 5c cf 01 be
       -0.26863825 -0.11603846 -0.15981677 -0.12676758
0003e0 c8 29 8d 3d ad 6a 67 be 10 f6 23 3e 2d 3d e1 be
       0.06892735 -0.22599287 0.16011834 -0.43991986
0003f0 f0 29 07 3d 36 31 38 be b5 ab 8b be b0 73 53 3d
       0.03299898 -0.17987522 -0.2727944 0.051624

encoder.0.attention.keys.bias f4 [32]
000000 9b 90 2b bb aa 4d d1 ba f8 a9 55 3b e5 8e 89 3b
       -0.002617872 -0.001596858 0.003260253 0.0041979426
000010 30 41 07 ba 8d b0 56 bb 46 30 67 39 a5 6c 18 39
       -0.0005159555 -0.003275904 0.0002204786 0.00014536323
000020 b3 ae 9c 3a 86 2c 31 b8 18 df c0 b8 2b 21 54 ba
       0.001195392 -4.2241554e-05 -9.196828e-05 -0.00080921006
000030 d7 05 b3 b9 1a 74 08 3b 09 9c 16 bb 61 9d 81 b9
       -0.00034145892 0.0020821155 -0.0022981188 -0.00024722054
000040 69 3f 0a ba 6d af 1c 3a a5 87 a7 3a 45 8d 43 ba
       -0.0005273731 0.0005977068 0.0012781514 -0.00074597105
000050 46 be 5e b9 08 6e a7 3a 97 e5 eb 39 36 c9 0c 3a
       -0.00021242452 0.0012773881 0.0004499375 0.0005370559
000060 28 59 01 3a 93 b1 49 3a e6 85 2c 3b ce c4 80 37
       0.0004934245 0.0007694002 0.0026324927 1.5350433e-05
000070 4a 51 a8 b9 51 be 6e ba 57 c4 68 ba 8c 99 93 3a
       -0.00032104022 -0.0009107339 -0.00088793546 0.001126097

encoder.0.attention.values.weight f4 [32, 32]
000000 69 0e 38 bd 67 1d cb 3b 92 2e 6d 3c 0a 6a c2 3c
       -0.044935618 0.0061985734 0.014476435 0.023732204
000010 e5 0f 06 bd 4c 84 67 3d c3 f7 d3 3c 1b dc b9 3c
       -0.032730002 0.056522653 0.025874978 0.022687962
000020 59 5f 9e bc 91 82 74 bd b8 f3 aa 3b 33 8f 89 bc
       -0.019332575 -0.05969483 0.005217042 -0.016791916
000030 60 02 28 3d 0c 65 b0 bc 44 7f 76 3c af 03 6d 3b
       0.04101789 -0.021532558 0.015044991 0.0036165526
000040 66 46 4b 3d f2 1d 01 bc d2 ff 1a 3b 4b a8 0f 3c
       0.049627684 -0.007880675 0.0023651016 0.0087681515
000050 9f 21 7a bd 3c f6 2a bd 37 92 0b bc 1a 83 c5 bc
       -0.06106722 -0.041738734 -0.008518747 -0.024110366
000060 ae 24 7d 3d 4f 20 ed bd db 20 e4 3c e5 fd 69 3d
       0.06180256 -0.11578428 0.027847698 0.0571269
000070 d8 ab f4 3b a9 af 1a bd f7 d6 c8 bd cc 8b 8e 3d
       0.0074667744 -0.03776518 -0.09806626 0.06960258
000080 39 a8 93 bc 0c 99 39 3c 04 ad 03 bc de 8e 8b 3c
       -0.01802455 0.011327993 -0.008036856 0.017035898
000090 72 87 0a 3d 8a 88 43 bd ab 43 f4 b9 46 00 b1 bc
       0.033820577 -0.047737636 -0.00046589723 -0.021606576
0000a0 2a 6a 8b 3c 9a c7 ff 3b 19 81 ff bb ed b8 1c 3d
       0.017018396 0.007805777 -0.007797372 0.038262296
0000b0 79 e4 dd bc f9 a3 f4 3c f4 ae bc ba a0 ff 97 39
       -0.027086483 0.029863345 -0.0014395402 0.0002899142
0000c0 b5 4a 3c 3d 0a 35 d8 bb 1d af 5c 3c 33 85 db 3b
       0.045969684 -0.0065981196 0.013469485 0.006699228
0000d0 13 d8 e6 3d b7 c8 c9 bb 02 18 bc 3c a1 ae 9c bc
       0.11271682 -0.0061579603 0.022960667 -0.019126238
0000e0 5a 3e 2a 3d 08 01 ef bd 47 34 03 3d 19 8d 67 bc
       0.04156337 -0.116701186 0.032032277 -0.014132761
0000f0 cd b9 b2 bc cb 67 01 3d 36 b2 ae 3c d5 9e 82 bb
       -0.021817112 0.031593125 0.021325212 -0.0039862194
000100 f0 da 99 bc 45 9a 8d 3c 3e 64 26 bc 0d b1 fe ba
       -0.018781155 0.017285476 -0.010155736 -0.0019431427
000110 b5 86 34 bd 21 5c e1 3c d1 61 c5 3c d3 d0 0c bd
       -0.04407378 0.02750975 0.024094494 -0.034378838
000120 b6 d1 ea bc 28 0c c3 3c 76 a6 f6 3c ee 25 c3 bb
       -0.028664451 0.023809507 0.030108672 -0.0059554493
000130 2d 01 22 3d 6b 78 2c 3c b8 9c 35 bc 7f e2 bf bb
       0.039551903 0.010526757 -0.011084728 -0.005855858
000140 e8 da 6c bc 1c 50 09 3d af 65 bd 3c 55 ba a2 bc
       -0.014456488 0.033523664 0.023119776 -0.01986424
000150 71 1d a4 3b e5 c9 58 3c 2e 1e 8b 3b d5 ef 91 bc
       0.0050083925 0.013231729 0.004245541 -0.017814556
000160 34 80 c6 ba e2 de 3b 3d 96 93 4d bc 9f 28 c9 3b
       -0.0015144409 0.045866854 -0.012547394 0.0061388756
000170 06 fa 66 bc 45 a9 30 3b 60 fb 76 bc 02 63 ad 3c
       -0.014097696 0.0026956361 -0.015074581 0.021165375
000180 88 ea 69 bd 58 17 5b bd fd 70 3e 3c 35 66 17 bd
       -0.057108432 -0.05348906 0.011623618 -0.036962707
000190 8c 07 5a bd e4 7e 93 3d eb bc 97 3d 09 aa 23 bd
       -0.053229854 0.07201937 0.0740908 -0.03995708
0001a0 de 9b 02 bc 55 17 94 3b bc 6f d7 bc d0 0b 0a bd
       -0.007971732 0.004519383 -0.026298396 -0.03370267
0001b0 fd 16 c2 3d ad 90 2b bd f0 a5 18 3d ce 1f 57 3d
       0.09477041 -0.04188602 0.037267625 0.052520566
0001c0 cb d8 07 3d 49 67 0f 3c d6 75 36 bd d7 ef 0c bd
       0.033165734 0.008752652 -0.04454597 -0.034408417
0001d0 df fa 17 be 11 5a c6 bc af 5f 88 bd 13 6d 1b bd
       -0.14841793 -0.024212869 -0.06658875 -0.03794582
0001e0 f8 c7 88 3d 6e b1 cb bd 0e 84 7c 3d 1a 36 0e bd
       0.06678766 -0.099459514 0.061649375 -0.034719564
0001f0 72 96 0d 3b 34 28 02 bd 7d b0 36 bd e5 3f 92 3d
       0.0021604565 -0.031776622 -0.044601906 0.07141093
000200 30 d4 02 bd 04 fd eb bc dd 31 7e 3c a9 0a 87 bd
       -0.03194064 -0.02880717 0.015514818 -0.0659383
000210 95 d8 6a bd f3 3e 89 3d 42 97 92 3c 5c d1 66 bd
       -0.057335455 0.0670146 0.017894391 -0.056352004
000220 80 87 d0 3b ea fe 18 bd aa 06 62 bc 97 3d 44 bd
       0.006363809 -0.03735248 -0.013795534 -0.0479103
000230 d4 be 5f 3d 0d 03 76 bd e3 36 eb 3b fc aa 8b 3d
       0.054625347 -0.060061503 0.007178174 0.06819722
000240 88 11 83 3c 63 86 2d bc 3a 82 df bc 2f 01 72 bc
       0.01599957 -0.010591122 -0.027283777 -0.01477079
000250 fb cb b8 bd df 73 90 bc d0 d6 0e 3a d5 fa 9b bc
       -0.09023281 -0.017633377 0.00054488797 -0.019040504
000260 7f b9 14 3d 4b 63 65 bd ab bd 5c 3d ff 75 6a bd
       0.036309715 -0.056002896 0.05389182 -0.057241436
000270 eb 32 86 3c ce 2f e6 bc 14 02 8f bd fc e0 82 3b
       0.016381701 -0.028098967 -0.06982818 0.0039941054
000280 57 e8 b0 3c ee 3a 1f 3d 86 4e 02 bc ba 9d 4c bb
       0.021595163 0.03887456 -0.007953292 -0.0031221942
000290 6d ac c0 3c 89 35 a1 bd 39 58 cc bc 07 b9 4d 3c
       0.023519719 -0.07871539 -0.024944412 0.012556321
0002a0 0c 13 8b 3c 5e c5 f8 bc 25 a6 23 bb c1 e5 94 3c
       0.016976856 -0.03036755 -0.0024970856 0.018175961
0002b0 63 8c c0 bd 1e 2c 14 bb 1b 76 69 bd 44 5f c5 bc
       -0.09401777 -0.0022609304 -0.0569974 -0.024093278
0002c0 ae b4 bd bc d8 a7 ea 3c 8a 3b 45 3d c6 f8 ab bb
       -0.023157444 0.028644487 0.048152484 -0.005248162
0002d0 c1 8c ca 3c ec 9f 4a 3b 63 af 0b 3c 30 66 eb 3c
       0.02472532 0.0030918075 0.008525702 0.02873525
0002e0 d6 98 03 bd 77 18 d5 3d 8f 25 3b bc 64 94 42 bc
       -0.032128178 0.10405057 -0.011422529 -0.011876199
0002f0 44 96 be bb fe 27 c6 3c 44 0f 0d 3d e0 15 aa bc
       -0.005816253 0.024188992 0.034438387 -0.020762384
000300 69 a5 64 3d 56 96 34 3d 10 fa 3f 3c 54 2f 1d 3d
       0.05582181 0.044088684 0.011717334 0.038375214
000310 84 df 96 3d e0 7d a2 bd d3 f0 d0 bd 27 bd f9 3c
       0.07366851 -0.07934165 -0.102021836 0.030485703
000320 bb d6 38 3d f2 33 d9 3b 09 44 8f 3c cc ed 9d 3d
       0.045126658 0.006628507 0.017488496 0.07711372
000330 63 15 c1 bd db 58 34 3d 81 64 79 bd 8c 82 c0 bc
       -0.09427907 0.04403005 -0.060886864 -0.02349975
000340 e9 30 71 bb 71 5a 82 3c 12 3f 3b 3d a4 62 e4 3c
       -0.0036802834 0.015912266 0.045714445 0.027879067
000350 4c 6a 2c 3e fb 10 02 3d 80 b0 78 3d 54 8d d4 3c
       0.16837424 0.031754475 0.0607152 0.025946297
000360 19 f4 a8 bd 6a 35 95 3d 88 71 96 bd 26 2a 2f 3d
       -0.08249683 0.072855785 -0.07345873 0.042764805
000370 71 93 8c 3c 8e 41 c2 3d 33 7f a5 3d 81 66 78 bd
       0.01716015 0.0948516 0.08080902 -0.06064463
000380 87 8b 66 3c 62 97 89 bc 95 c9 e6 bc e5 85 21 3d
       0.014071352 -0.016795818 -0.028172294 0.039434332
000390 41 84 e6 bb aa 09 b0 3c 51 d2 72 bd 48 66 63 3b
       -0.007034809 0.021488983 -0.059282605 0.0034698416
0003a0 1d 16 dc 3b 45 7c e1 3c 4c bd d9 3c 07 a8 45 3c
       0.0067165033 0.027525077 0.026579522 0.012063987
0003b0 4d 11 6a bc 78 43 ad 3c 5e 83 39 3c 43 4f 5d bc
       -0.014286351 0.021150336 0.011322824 -0.013507667
0003c0 16 8c 66 3c ae b4 6f 3d 14 3d 8c 3d 8e a6 f2 3c
       0.014071485 0.05852192 0.06847587 0.029620435
0003d0 99 39 3c bd 0e 04 3a 3c 9f 36 0f 3b 8b 01 30 3c
       -0.045953367 0.011353506 0.0021852625 0.010742555
0003e0 55 0f 9e 3a 76 fd a2 bd 0b bb 3e bd b4 af 8d 3c
       0.0012059013 -0.079585 -0.046565097 0.017295696
0003f0 ca 46 97 3c a7 f7 d0 3c 49 4f ee 3a 14 db 21 bc
       0.018466372 0.025508715 0.0018181588 -0.009878892

encoder.0.attention.values.bias f4 [32]
000000 25 a0 a4 bb ee e4 36 bb 6f 35 90 bc 21 de 93 bc
       -0.0050239735 -0.0027907449 -0.017603604 -0.018050255
000010 24 24 99 bb 56 7f 57 bc c3 bf 12 3d 4d d5 b1 3c
       -0.0046734978 -0.013152918 0.03582741 0.021708155
000020 f0 9a 5a 3a 8f ce 3d 3c 88 98 60 3d 46 17 2d bd
       0.00083391275 0.011584892 0.054832965 -0.042258523
000030 74 ee 93 3b 01 ba 83 3b 84 cb 03 bc 4f 9b d3 3c
       0.00451451 0.004019976 -0.008044127 0.025830893
000040 87 64 e1 3b 07 af 95 3c 3c c9 96 bd 9b 98 86 3c
       0.006878439 0.018271936 -0.07362601 0.01643019
000050 38 86 f5 bc bb ac aa 3c d9 28 88 bc 37 d4 96 3c
       -0.029971227 0.020834317 -0.01662104 0.018411739
000060 0c 71 e9 ba ce d3 11 bd 91 5f 45 3b 46 05 ec bc
       -0.001781018 -0.035602383 0.0030116776 -0.028811108
000070 eb e6 e0 3c 42 61 15 bd 80 13 dd bb 79 db 06 bc
       0.02745386 -0.036469705 -0.0067467093 -0.008231037

encoder.0.attention.fc.weight f4 [32, 32]
000000 07 97 b4 3b e0 3e 6a bc 0c 7f 13 bd 80 a8 37 bc
       0.005511168 -0.014297217 -0.036009833 -0.011209607
000010 72 a3 66 bc eb af a7 3a aa 27 9a bc af fa 49 bc
       -0.014077054 0.0012793517 -0.018817741 -0.012327834
000020 0f 0d d2 3c ce ad 5b bc b5 6b a3 bc 1c e1 40 3c
       0.025640992 -0.0134081375 -0.01994882 0.01177242
000030 e1 8d 3c 3c fc b6 7a 3c d2 d2 85 bc 3e ae f3 3b
       0.011508436 0.015302416 -0.016335879 0.007436543
000040 01 0a 76 bc 2a 3f d3 39 8b 07 cc bc 7d c1 b3 bc
       -0.015017034 0.00040292117 -0.02490594 -0.021942848
000050 8b 33 92 bc d0 94 d0 3c 79 64 0b 3b 69 07 e7 3c
       -0.017846843 0.025461584 0.0021269603 0.028201776
000060 2a 61 22 bd be 4f 85 3b 2a 03 ef bb 0b 00 a2 3c
       -0.039643444 0.004068344 -0.0072940784 0.019775411
000070 cb c9 8b 3c b3 aa 52 bb a7 6f ca bc 00 78 60 bc
       0.017063996 -0.0032145202 -0.024711443 -0.013700485
000080 73 fe 01 3d 06 0c 31 3c d2 83 4e bc 7c 87 1d bc
       0.031736802 0.010806089 -0.012604671 -0.0096148215
000090 94 1d ce 3c e5 2f 63 3c 85 18 dc bc 67 1c 16 3d
       0.025160588 0.013866399 -0.02686716 0.03664818
0000a0 d9 86 54 3c 9d 4d bf bb 67 eb 85 3c a5 ba 80 3a
       0.012971603 -0.0058381096 0.0163476 0.0009821249
0000b0 8a 8d 0a bc 0c c1 0e bd 38 fd ac 3c 65 73 4b 3c
       -0.008456597 -0.034852073 0.021116838 0.012417649
0000c0 1e 67 9c bc 9e a1 44 bc aa f9 c3 3b 70 3a ff bc
       -0.019092139 -0.012001423 0.00598069 -0.031155795
0000d0 4f 7c 38 bc c2 06 50 bc 39 a2 a8 bc 84 7d 04 3c
       -0.011260106 -0.012696924 -0.020585166 0.008086566
0000e0 8e dd b0 bb a0 80 b9 bb bd e6 d7 3c dd 82 29 3c
       -0.005397505 -0.0056610852 0.026355142 0.010346142
0000f0 14 74 08 bc 42 bb 5d 3c c9 80 4b bd e6 a5 3b 3d
       -0.008328456 0.013533415 -0.049683366 0.04581251
000100 03 12 7c 3c 64 34 b9 bc bd 3a 44 3d a7 10 00 3b
       0.015385154 -0.02260799 0.04790758 0.0019541176
000110 a0 f6 8a bc 72 30 46 39 b4 cc 8e 3c e6 15 38 bc
       -0.016963303 0.00018900799 0.017431594 -0.01123569
000120 22 2b 51 bb bc b9 0d bc 9d b4 ac bc 25 91 e3 3c
       -0.0031916578 -0.00865024 -0.021082217 0.027779171
000130 03 a9 8d bc f7 3b b6 bc a2 09 b6 3a bd b5 d0 3c
       -0.017292505 -0.02224539 0.0013888369 0.025477285
000140 cb e9 60 3b bd fc a6 bc b7 ba f7 3b a3 8a 7f bc
       0.003431904 -0.020384187 0.0075601 -0.015597018
000150 0a 24 26 3b 85 5b cb 3b bd fe eb 3b 29 22 be 3c
       0.002535107 0.0062059783 0.007201998 0.023209648
000160 37 19 90 bc 95 ae c1 3a 61 95 49 3c 5d 38 16 3b
       -0.017590148 0.0014776761 0.012303681 0.0022921779
000170 c6 5d 3d 3c 17 bc ab bc e0 fe 8c bc 9c d8 bc 3c
       0.011558002 -0.020963712 -0.017211378 0.023052506
000180 d4 92 8b 3c 48 31 92 3b d4 79 21 3d 61 d3 a8 3c
       0.017037787 0.004461441 0.039422825 0.020608606
000190 24 59 0a bd d8 81 b2 bc 25 34 de bb 1b 2b a4 bc
       -0.033776417 -0.02179043 -0.0067811185 -0.020040086
0001a0 2b e2 83 3c e2 cf 1e bc f2 dc bb bc 06 29 4d bb
       0.016099056 -0.009693118 -0.022932503 -0.003130497
0001b0 3a 30 8b bc 6e 5c 26 bb 95 78 c7 3b 9c 79 e1 bb
       -0.01699077 -0.0025384682 0.0060873725 -0.006880952
0001c0 42 30 f7 3c 72 89 a4 3a dd f2 7a bc d8 0e 4a 3b
       0.030174378 0.0012553169 -0.015316692 0.0030831601
0001d0 32 37 1a bc 77 70 48 bc 49 1e 91 bc ce b9 d6 bc
       -0.009412574 -0.012233845 -0.017714636 -0.026211645
0001e0 34 89 00 3d 9d d2 e8 bc 55 c0 e8 bb 22 92 ec 3c
       0.031380847 -0.02842074 -0.007103006 0.028878275
0001f0 dd 57 9f bc 70 f7 93 3b a9 80 dd 3c 27 a1 40 3b
       -0.019451076 0.004515581 0.027038889 0.002939293
000200 ae b2 f4 38 c0 d8 05 bc a5 01 c6 bc 4c 32 75 bc
       0.00011668108 -0.008169353 -0.024170706 -0.014965605
000210 56 d7 2a bd a7 f5 48 bc 2a 6f c1 3b e6 a8 c0 3c
       -0.041709267 -0.012265599 0.0059031444 0.023518037
000220 e5 f2 4e bc 97 02 85 3c af a0 67 bc ad 6f 03 3d
       -0.012631153 0.016236586 -0.014137431 0.032088924
000230 64 12 3d bb cf 13 4d bc 34 84 ac bc fc fe df bc
       -0.0028850073 -0.01251693 -0.021059133 -0.027343266
000240 f0 c1 78 bb 10 99 13 bb 8f 48 95 3c 97 d2 7c bc
       -0.0037957393 -0.0022521652 0.018223075 -0.015431068
000250 87 03 2a bb 8e b4 83 ba f6 a5 9e bc 53 2b c8 3b
       -0.0025942044 -0.0010048316 -0.019366246 0.0061086803
000260 8b de 9a 3c 89 a0 2c 3c c0 7d 80 3b b4 a4 21 b9
       0.018904945 0.010536321 0.0039212406 -0.00015415513
000270 0f 93 7f bc 3d 9f 81 bc e8 bc 90 3c d5 39 bf bc
       -0.015599026 -0.015823001 0.017668203 -0.023343006
000280 80 bd 6b bd 79 b9 a7 bc 9d d7 41 bc b0 f4 31 bb
       -0.05755377 -0.020474182 -0.011831191 -0.0027153902
000290 f5 e7 6c bc 81 a5 b2 bc 97 d5 bc bb af b7 6d bc
       -0.0144596 -0.021807434 -0.0057627666 -0.014509126
0002a0 ee cd ed 3c aa 40 2f bb 8e c5 ff 3b 25 b5 ae 3c
       0.029028859 -0.0026741424 0.007805533 0.02132661
0002b0 85 94 03 3c 20 30 cd 3c 40 2e 29 3a 77 4e 05 bc
       0.008031015 0.025047362 0.000645373 -0.008136383
0002c0 39 dd 68 3b 0e a1 f1 3b c2 61 e1 ba d3 d5 6e bc
       0.003553225 0.0073739355 -0.0017195272 -0.014577347
0002d0 93 01 a4 3a a5 69 32 bc 3d 00 27 bd 62 55 28 bc
       0.0012512676 -0.010889445 -0.04077171 -0.010274263
0002e0 c9 dc 31 ba 9d a0 e9 3c c0 2e d1 bb 6e 9f c3 3c
       -0.0006784914 0.02851897 -0.006383747 0.023879733
0002f0 e2 7f a1 bc 8e 0b 44 bc 45 5c 18 3c de 74 3e 3c
       -0.0197143 -0.0119656455 0.0092993425 0.011624543
000300 8c 71 14 bb d0 a2 03 39 b8 b4 7c bc cc d6 86 3c
       -0.0022650687 0.00012553786 -0.015423946 0.016459845
000310 13 2a cc 3c cb e9 28 3c e1 75 0f bd d3 b0 02 3b
       0.024922406 0.010309647 -0.035024527 0.0019941821
000320 a1 0f c9 bb 50 3c a7 3c db e2 4d bc c0 d4 dc bb
       -0.0061358963 0.020414501 -0.012566294 -0.006739229
000330 cf 04 8e 3c 21 e1 6a 39 37 c8 72 3c 66 78 90 3c
       0.017336277 0.00022399846 0.014818243 0.017635535
000340 03 0f a0 bc db 7e 9b bc 75 95 81 bb db 89 a9 3c
       -0.019538408 -0.018981388 -0.0039545842 0.020695617
000350 95 75 3e bc 25 4f c2 bc e1 3e bb 3c e1 02 83 3b
       -0.011624713 -0.02371938 0.022857131 0.003998146
000360 1d 8b 5e 3b 70 65 20 bb 0a d8 4f 3c c0 75 25 3b
       0.003395743 -0.0024474524 0.012685785 0.0025247186
000370 48 47 8d 3c d7 7a cc 3b 77 6e f9 3b c4 e9 91 ba
       0.017245904 0.0062402296 0.0076120454 -0.001113229
000380 a2 49 70 bc 38 5c 8a 3b 58 3c 20 bc 3c 95 30 bc
       -0.014665993 0.004222419 -0.009780012 -0.010777768
000390 20 7b c3 bb 4a 97 2b 3b dd e0 59 3c 8f b6 04 bc
       -0.0059656054 0.0026182705 0.0132982405 -0.008100166
0003a0 77 45 ea 3c 93 9a bf 3b e0 86 d0 bb 02 8b 09 bd
       0.028597577 0.005847284 -0.0063637346 -0.033579834
0003b0 9c 7e cf b9 f0 fa 96 3c bf e7 21 bb 77 0d 3e bd
       -0.00039576448 0.018430203 -0.0024704782 -0.04639956
0003c0 bd 3e 0d 3c 2b 04 2e 3c 9e 3b 20 bd 4d eb 0b bd
       0.008620915 0.010621111 -0.039119355 -0.034159947
0003d0 52 0f 17 3c 38 2c 0c bd 8a 1f 88 3c 14 25 f6 bb
       0.009219961 -0.034221858 0.016616601 -0.0075117443
0003e0 e5 07 e1 3b 2a 6a 2a bd af e1 a4 bc 27 6c 3f 39
       0.006867396 -0.041605152 -0.020127146 0.0001825547
0003f0 04 40 48 bc 52 c1 b4 bc 05 2c 44 3c c2 c3 c7 3a
       -0.012222294 -0.022064839 0.011973386 0.0015240835

encoder.0.attention.fc.bias f4 [32]
000000 00 00 00 00 00 00 00 00 00 00 00 00 00 00 00 00
       0.0 0.0 0.0 0.0
000010 00 00 00 00 00 00 00 00 00 00 00 00 00 00 00 00
       0.0 0.0 0.0 0.0
000020 00 00 00 00 00 00 00 00 00 00 00 00 00 00 00 00
       0.0 0.0 0.0 0.0
000030 00 00 00 00 00 00 00 00 00 00 00 00 00 00 00 00
       0.0 0.0 0.0 0.0
000040 00 00 00 00 00 00 00 00 00 00 00 00 00 00 00 00
       0.0 0.0 0.0 0.0
000050 00 00 00 00 00 00 00 00 00 00 00 00 00 00 00 00
       0.0 0.0 0.0 0.0
000060 00 00 00 00 00 00 00 00 00 00 00 00 00 00 00 00
       0.0 0.0 0.0 0.0
000070 00 00 00 00 00 00 00 00 00 00 00 00 00 00 00 00
       0.0 0.0 0.0 0.0
