model/mnist/tune_lr0.0005_ed32_nl6_nh2_fm2_ps4/temp_model.pt (torch, 254829 bytes, 106 tensors)

embedding.cls_token f4 [1, 1, 32]
-0.0024966747 0.010066369 -0.007671973 -0.00033307367 -0.006075199 -0.01111429 0.0037420264 0.0042335065
-0.058943834 0.028481785 -0.027311703 0.005986686 -0.00583632 0.0045464216 0.0036492874 -0.009309022
0.01989552 -0.052565224 -0.0062465146 -0.003911192 -0.044394195 -0.00021644622 -0.00057553727 0.004376782
0.043494888 0.02674965 -0.0149619635 0.01923449 0.015767008 0.0057483013 0.0142892925 0.0044098557
00000000: 409f 23bb 69ed 243c 2d65 fbbb 64a0 aeb9
00000010: 7712 c7bb b618 36bc c93c 753b 3ab9 8a3b
00000020: 176f 71bd a252 e93c cbbc dfbc f62b c43b
00000030: 9a3e bfbb 26fa 943b e228 6f3b de84 18bc
00000040: eefb a23c a24e 57bd 90af ccbb 7529 80bb
00000050: b0d6 35bd d7f5 62b9 a7df 16ba 1c6b 8f3b
00000060: b227 323d 1522 db3c 0623 75bc a691 9d3c
00000070: d029 813c 3f5c bc3b a31d 6a3c 8d80 903b

embedding.pos_embedding f4 [1, 50, 32]
-0.0024966735 0.010066372 -0.007671974 -0.00033306726 -0.0060751988 -0.01111428 0.0037420376 0.0042335065
-0.058943823 0.028481796 -0.027311701 0.0059866942 -0.005836307 0.0045464206 0.0036492916 -0.009309024
0.01989551 -0.052565232 -0.0062465174 -0.0039111893 -0.0443942 -0.00021645348 -0.00057553244 0.0043767844
0.04349489 0.02674965 -0.014961964 0.0192345 0.015767016 0.005748288 0.014289286 0.0044098487
0.0038142893 -0.0047053765 0.015874218 -0.007169615 0.005041371 -0.024154218 0.020341514 -0.004246183
-0.010150705 -0.022741117 -0.017708194 0.0037760108 -0.0069043464 -0.028232839 0.011347454 -0.02432107
0.013245533 -0.029677935 0.008833913 0.01937151 -0.0047826995 -0.015255978 0.008823493 0.028143195
0.001040102 -0.005815825 0.019388733 -0.02191729 -0.019319575 -0.024770472 -0.017512446 -0.033812378
-0.0023487478 -0.0094564 0.010326703 -0.014066545 0.010031183 -0.0050581233 0.04662229 -0.0007944869
0.0028349338 -0.014602432 -0.021043528 -0.005409202 -0.021300755 -0.024858318 0.006865236 -0.018133797
0.0047822464 -0.028696734 -0.0016961134 0.028285373 0.006714593 -0.015806539 0.0012399774 0.017890621
-0.012210373 -0.017381577 0.01365622 -0.007969416 -0.008548374 -0.011319248 -0.009604927 -0.028708953
-0.05730616 -0.019874424 -0.053701896 -0.030294545 0.08873881 0.022965193 0.04971496 0.049950477
0.02821506 -0.015801653 -0.05002401 -0.013796604 -0.010807857 0.015891343 -0.025465412 0.008935116
-0.05472471 -0.050100386 -0.005237876 0.065709315 0.079871096 0.040457882 -0.027228432 -0.01333357
-0.07473942 -0.046772286 -0.0032991522 -0.00981434 0.0042042113 0.028958855 0.026859684 0.014871138
-0.06625651 -0.08819997 -0.101632334 -0.053811625 0.12401539 -0.022921318 0.0077892668 0.072816975
0.037003916 0.00017190844 -0.1153899 -0.00257189 -0.027793493 0.0436557 -0.045888927 0.01004784
-0.012708345 -0.08633792 -0.018526569 0.112772234 0.10823639 0.0703508 -0.05186759 -0.0022130858
-0.04847642 -0.100116506 -0.003255478 -0.037766162 0.06497243 0.032540113 -0.053357683 0.08060741
-0.061842367 -0.079817034 -0.08549783 -0.056233395 0.11060957 -0.045902748 0.019445244 0.06223597
0.023769999 0.010792509 -0.10831425 -0.014092052 -0.05278815 0.034097683 -0.04162117 0.016333552
0.0018876053 -0.07880177 -0.019849204 0.11602297 0.08441818 0.05575427 -0.058960177 -0.0034084595
-0.02497346 -0.1086445 -0.01210326 -0.00826766 0.07131417 0.027788412 -0.035741657 0.062194362
-0.029316071 -0.0022282829 -0.057843238 -0.03131237 0.044050734 -0.04127066 0.04564087 0.017188923
0.013881972 -0.022690797 -0.031264294 -0.025922775 -0.038458213 0.007612815 -0.0028216592 0.012538988
-0.000609277 -0.06684888 0.006089485 0.06230314 0.03695159 0.008387545 -0.019494632 0.01161086
-0.027758535 -0.048545685 0.017773263 -0.0026933851 -0.013890896 0.01545971 0.022172289 -0.012200793
0.003605699 -0.0040964894 0.014690224 -0.0074448436 0.0056115375 -0.025306754 0.019997438 -0.003933925
-0.012296598 -0.02361667 -0.017688269 0.0039999965 -0.006115054 -0.029342456 0.011991657 -0.024530465
0.014161351 -0.034104306 0.009943094 0.019967414 -0.00480826 -0.014441875 0.009442468 0.028410224
0.0020073212 -0.0050873104 0.019482655 -0.022456108 -0.020407416 -0.025246538 -0.017235477 -0.034336
00000000: 3b9f 23bb 6ded 243c 2f65 fbbb 889f aeb9
00000010: 7612 c7bb ab18 36bc f93c 753b 3ab9 8a3b
00000020: 146f 71bd a852 e93c cabc dfbc 082c c43b
00000030: 7e3e bfbb 24fa 943b f428 6f3b e084 18bc
00000040: e9fb a23c a44e 57bd 96af ccbb 6f29 80bb
00000050: b1d6 35bd caf7 62b9 54df 16ba 216b 8f3b
00000060: b327 323d 1522 db3c 0723 75bc ac91 9d3c
00000070: d429 813c 225c bc3b 9c1d 6a3c 7e80 903b
00000080: 28f9 793b 8f2f 9abb a60a 823c 17ef eabb
00000090: 1632 a53b 11df c5bc 3fa3 a63c 9123 8bbb
000000a0: 254f 26bc 944b babc c610 91bc f376 773b
000000b0: db3d e2bb 8e48 e7bc acea 393c fb3c c7bc
000000c0: cb03 593c 241f f3bc 1ebc 103c 00b1 9e3c
000000d0: 31b8 9cbb 36f4 79bc 6990 103c 8f8c e63c
000000e0: 0854 883a ad92 bebb 1fd5 9e3c e38b b3bc
000000f0: 1644 9ebc 72eb cabc 4376 8fbc d97e 0abd
00000100: 73ed 19bb 04ef 1abc 5531 293c 5e77 66bc
00000110: d559 243c 9dbe a5bb 04f7 3e3d 1d45 50ba
00000120: 4cca 393b 0a3f 6fbc 7a63 acbc ad3f b1bb
00000130: ec7e aebc aca3 cbbc c6f5 e03b 548d 94bc
00000140: 64b4 9c3b 6a15 ebbc 1f50 deba bab6 e73c
00000150: 1706 dc3b b77c 81bc bd86 a23a 5a8f 923c
00000160: 040e 48bc cf63 8ebc 57be 5f3c 2792 02bc
00000170: 7b0e 0cbc 5e74 39bc fc5d 1dbc 0a2f ebbc
00000180: ddb9 6abd b0cf a2bc 85f6 5bbd 442c f8bc
00000190: b1bc b53d 8021 bc3c eaa1 4b3d df98 4c3d
000001a0: 4523 e73c 7872 81bc fae5 4cbd 270b 62bc
000001b0: 7013 31bc 902e 823c d79c d0bc 9864 123c
000001c0: 0427 60bd 1036 4dbd 7da2 abbb 9b92 863d
000001d0: 7593 a33d 2ab7 253d 290e dfbc 0c75 5abc
000001e0: fb10 99bd 4c94 3fbd 9736 58bb 53cc 20bc
000001f0: 7bc3 893b 1f3b ed3c d708 dc3c 13a6 733c
00000200: 7eb1 87bd 30a2 b4bd 9d24 d0bd 9469 5cbd
00000210: c8fb fd3d 7dc5 bbbc 1b3d ff3b 1121 953d
00000220: 6b91 173d 5242 3439 8a51 ecbd 278d 28bb
00000230: 2eaf e3bc 52d0 323d 07f6 3bbd b29f 243c
00000240: aa36 50bc efd1 b0bd 08c5 97bc 21f5 e63d
00000250: 0aab dd3d 1514 903d 1c73 54bd 6b09 11bb
00000260: 368f 46bd e209 cdbd dc59 55bb b1b0 1abd
00000270: 4410 853d c848 053d 968d 5abd 7f15 a53d
00000280: 6c4e 7dbd 1d77 a3bd 7c19 afbd fd54 66bd
00000290: 4587 e23d 8504 3cbd a24b 9f3c 25eb 7e3d
000002a0: 4db9 c23c 10d3 303c ddd3 ddbd 5ae2 66bc
000002b0: 6338 58bd 03aa 0b3d f67a 2abd f1cd 853c
000002c0: 8669 f73a d362 a1bd cc9a a2bc 739d ed3d
000002d0: 70e3 ac3d 975e 643d 3a80 71bd 7660 5fbb
000002e0: 2495 ccbc 0281 debd c04c 46bc 1475 07bc
000002f0: 2a0d 923d 86a4 e33c d865 12bd 84bf 7e3d
00000300: 4228 f0bc 6208 12bb 08ed 6cbd 6641 00bd
00000310: 8b6e 343d 6c0b 29bd ecf1 3a3d c9cf 8c3c
00000320: 3671 633c 0de2 b9bc fd0e 00bd 005c d4bc
00000330: 5c86 1dbd ec74 f93b 96eb 38bb 5470 4d3c
00000340: e3b7 1fba 11e8 88bd 4d8a c73b 9431 7f3d
00000350: 8d5a 173d ea6b 093c 35b3 9fbc 7a3b 3e3c
00000360: de65 e3bc d7d7 46bd 3c99 913c 8183 30bb
00000370: a496 63bc b94a 7d3c a9a2 b53c d6e5 47bc
00000380: 974d 6c3b d83b 86bb 44af 703c e0f3 f3bb
00000390: fde0 b73b 1c50 cfbc abd1 a33c 28e8 80bb
000003a0: ac77 49bc bf77 c1bc fde6 90bc 6712 833b
000003b0: ca60 c8bb 975f f0bc a878 443c 1df4 c8bc
000003c0: 0305 683c f5b0 0bbd 5ce8 223c b492 a33c
000003d0: 9c8e 9dbb 9d9d 6cbc 95b4 1a3c 8fbc e83c
000003e0: 438d 033b 74b3 a6bb 179a 9f3c dff5 b7bc
000003f0: 742d a7bc d4d1 cebc 6a31 8dbc e8a3 0cbd

embedding.conv1.weight f4 [32, 1, 4, 4]
-0.07104007 -0.002649453 -0.0030063626 0.012942596 -0.035257805 -0.014178644 0.004063379 0.013905463
-0.030881513 -0.001031549 0.01618749 -0.0139453765 -0.017977834 0.011514585 0.017968081 0.0007968637
0.0016473536 -0.0036705907 -0.009368401 0.010214247 -0.012615418 -0.019897373 -0.04626346 0.012524297
0.026887376 -0.016730739 -0.012093251 0.006698472 -0.0002270907 -0.06517585 -0.03081488 0.016600974
-0.0031769185 0.014556176 -0.0016307723 -0.024510466 -0.004031205 -0.0046741012 -0.0101318285 -0.019968674
0.0040541654 0.0062168245 0.010699328 -0.014949968 0.054735497 0.02080377 0.0020738957 -0.01837625
-0.023805568 0.0028603757 -0.051260944 -0.01530407 0.015926953 -0.005769174 -0.026683122 0.0066905045
0.008995441 -0.010268762 -0.015534108 0.0013919757 0.014322034 0.02020286 -0.034823246 -0.015853662
0.019686587 -0.007900892 -0.03546874 -0.016366275 0.013211316 -0.03995058 -0.0054647475 -0.030583058
0.020178758 -0.016520545 0.018049594 -0.014230965 0.022117788 -0.013900708 -0.0068205674 -0.023953538
-0.021280516 0.02164426 -0.02309714 0.003706408 0.013168783 -0.0028717462 -0.01349435 0.019323671
0.02942 -0.014361849 0.0068118097 -0.0042458605 0.0029187181 -0.022736877 -0.012641017 -0.0069748526
0.019622305 -0.019425549 -0.015606051 -0.021911545 -0.010702932 0.0120081315 -0.033942208 0.0035729653
0.03490212 -0.03968502 -0.024033986 -0.0010798692 0.018094307 -0.0044832234 -0.026420275 -0.006212864
-0.0151792895 -0.014042223 -0.0047518956 -0.028183755 0.007781351 0.010961495 -0.003293094 -0.02434545
-0.011555284 0.0028506797 0.017347192 -0.0069947583 0.0025231584 -0.018283583 -0.024751531 -0.0073368168
0.0018719555 -0.019792443 0.007075061 0.0038465657 -0.028652128 0.009376098 -0.023606727 0.012265814
-0.008019787 0.02240959 -0.012797508 0.009655854 0.0056464146 0.013489955 -0.0011033815 0.02698553
-0.0061848075 0.034423605 0.012528012 0.026326703 -0.014894499 0.013073928 0.018772013 -0.007864753
-0.0026712336 0.030042568 0.02162523 -0.023455253 0.02075787 0.04229992 -7.06998e-06 0.0062698973
0.018888917 -0.002887185 0.0008151053 -0.012234471 0.024517898 -0.02050038 -0.0069394372 -0.018289458
-0.0005786508 -0.0040184828 0.011034573 0.0013519903 -0.0016392199 -0.01196195 -0.030241786 -0.004877949
-0.008112291 -0.036026143 -0.004439227 -0.03841377 -0.030147273 0.017891271 -0.017358188 -0.022393279
-0.0046199984 0.018063296 -0.025302295 -0.012670879 0.03343144 -0.0301309 0.011591366 -0.029928923
0.0059634964 -0.016428577 -0.021566002 0.00016193808 -0.005532214 -0.021246985 -0.018351382 -0.034321517
-0.010948051 -0.0057476186 0.0042663584 -0.017865384 0.01232742 -0.036731977 -0.03196238 -0.012223642
-0.007777655 0.0017543755 0.040063493 0.037198205 0.006842607 -0.031814024 0.020301135 -0.0044569536
0.0115270065 -0.019905383 0.02589268 -0.000892774 0.028252304 -0.01746554 0.02493515 -0.05077903
-0.027020978 -0.011713654 -0.020561073 0.02584255 -0.01607675 -0.023760462 -0.009442504 0.00874574
-0.009014642 -0.0064064623 -0.026750121 0.021817295 -0.038275342 -0.024611171 -0.0062719174 0.027250314
-0.005475967 0.051560387 0.015933765 0.022924656 -0.016447445 -0.011876441 0.0021823605 -0.01871971
-0.007276625 0.026751217 0.028467102 -0.007831395 -0.02544433 0.03120792 0.010374979 -0.0038028304
00000000: 757d 91bd 72a2 2dbb 6506 45bb 2f0d 543c
00000010: 7d6a 10bd 8b4d 68bc 1826 853b bdd3 633c
00000020: 3afb fcbc 0a35 87ba a19b 843c 267b 64bc
00000030: 4046 93bc aca7 3c3c cc31 933c 9ee4 503a
00000040: 04ec d73a 4b8e 70bb ec7d 19bc a859 273c
00000050: e6b0 4ebc d1ff a2bc c17e 3dbd b632 4d3c
00000060: ea42 dc3c e70e 89bc c522 46bc db7e db3b
00000070: 321f 6eb9 eb7a 85bd 7d6f fcbc c4fe 873c
00000080: d933 50bb 077d 6e3c a3bf d5ba 2cca c8bc
00000090: 3318 84bb 3429 99bb f8ff 25bc 5895 a3bc
000000a0: ced8 843b 81b6 cb3b 3c4c 2f3c b6f0 74bc
000000b0: 5432 603d ab6c aa3c 32ea 073b ca89 96bc
000000c0: e503 c3bc 2475 3b3b fff6 51bd ecbd 7abc
000000d0: 3e79 823c 570b bdbb 9096 dabc 053c db3b
000000e0: 9d61 133c 4f3e 28bc c582 7ebc f472 b63a
000000f0: f7a6 6a3c 7880 a53c d2a2 0ebd 8adf 81bc
00000100: c445 a13c be72 01bc ab47 11bd 9112 86bc
00000110: 4774 583c 38a3 23bd a011 b3bb 5289 fabc
00000120: ec4d a53c 1856 87bc bedc 933c fe28 69bc
00000130: 5d30 b53c ccbf 63bc 117f dfbb 363a c4bc
00000140: 7a54 aebc 4e4f b13c 3736 bdbc 35e7 723b
00000150: e1c1 573c e833 3cbb 6817 5dbc ad4c 9e3c
00000160: 3602 f13c f64d 6bbc 9a35 df3b dc20 8bbb
00000170: f747 3f3b b042 babc 451c 4fbc 4e8d e4bb
00000180: f5be a03c 5422 9fbc 86b0 7fbc d77f b3bc
00000190: 5a5b 2fbc c1bd 443c fc06 0bbd 6928 6a3b
000001a0: 86f5 0e3d c28c 22bd ece2 c4bc 668a 8dba
000001b0: 833a 943c 01e8 92bb 556f d8bc 4895 cbbb
000001c0: 8eb2 78bc 5a11 66bc cab5 9bbb 9ee1 e6bc
000001d0: b4fa fe3b d897 333c f3d0 57bb 1c70 c7bc
000001e0: 6052 3dbc 78d2 3a3b b31b 8e3c 4934 e5bb
000001f0: 935b 253b 74c7 95bc b9c3 cabc ae69 f0bb
00000200: 675c f53a c323 a2bc ead5 e73b aa16 7c3b
00000210: deb7 eabc 359e 193c e562 c1bc 8df6 483c
00000220: 6d65 03bc 5194 b73c a4ac 51bc 9633 1e3c
00000230: 8f05 b93b f904 5d3c 579f 90ba c210 dd3c
00000240: eda9 cabb c4ff 0c3d 4a42 4d3c 19ab d73c
00000250: 0f08 74bc 0734 563c c4c7 993c 2adb 00bc
00000260: dd0f 2fbb d51b f63c 6527 b13c 3b25 c0bc
00000270: 690c aa3c ae42 2d3d aa3a edb6 b673 cd3b
00000280: eebc 9a3c ed36 3dbb caac 553a 1773 48bc
00000290: c2d9 c83c 6af0 a7bc 3864 e3bb c6d3 95bc
000002a0: 99b0 17ba 7aad 83bb 5bca 343c 4435 b13a
000002b0: 18db d6ba 0efc 43bc 9fbd f7bc 34d7 9fbb
000002c0: 6ae9 04bc 2690 13bd ef76 91bb c257 1dbd
000002d0: 6af7 f6bc b790 923c c232 8ebc 1c72 b7bc
000002e0: 5b63 97bb 7af9 933c c246 cfbc 8599 4fbc
000002f0: 68ef 083d 14d5 f6bc b6e9 3d3c 802d f5bc
00000300: 6f69 c33b 3995 86bc 2fab b0bc eccd 2939
00000310: 9347 b5bb 280e aebc a355 96bc b894 0cbd
00000320: 745f 33bc 8556 bcbb cfcc 8b3b 6d5a 92bc
00000330: f2f8 493c 4574 16bd fcea 02bd ac45 48bc
00000340: b3db febb 13f3 e53a 9e19 243d 255d 183d
00000350: f337 e03b 6c4f 02bd 914e a63c a30b 92bb
00000360: c5db 3c3c 9d10 a3bc e31c d43c 0d09 6aba
00000370: 6071 e73c e413 8fbc cd44 cc3c acfd 4fbd
00000380: 195b ddbc a0ea 3fbc b26f a8bc c1b3 d33c
00000390: 63b3 83bc 4da5 c2bc bbb4 1abc 4b4a 0f3c
000003a0: 26b2 13bc 4ded d1bb 1223 dbbc 2fba b23c
000003b0: 9bc6 1cbd 5e9d c9bc a884 cdbb 0d3c df3c
000003c0: be6f b3bb fc30 533d 8787 823c 7dcc bb3c
000003d0: cbbc 86bc 6795 42bc ef05 0f3b 145a 99bc
000003e0: c170 eebb 5e25 db3c d733 e93c 404f 00bc
000003f0: a170 d0bc c0a7 ff3c d1fb 293c e838 79bb

embedding.conv1.bias f4 [32]
-0.040096343 -0.034435645 -0.035271857 -0.025934264 0.03302394 0.023417974 0.00033677643 0.04648738
0.03655323 0.010954917 -0.019398706 -0.014507536 -0.012721626 0.024737593 -0.03368105 0.02972515
-0.042329546 0.019112576 -0.016346749 0.041005623 0.04887197 0.040976215 -0.031134032 -0.031801064
-0.045216445 -0.03617624 -0.007936947 -0.008102806 0.011638686 0.0071447757 0.0055415225 0.035390828
00000000: 103c 24bd 640c 0dbd 3979 10bd 1874 d4bc
00000010: 1c44 073d 0dd7 bf3c 5e91 b039 8d69 3e3d
00000020: d7b8 153d 417c 333c 09ea 9ebc 04b1 6dbc
00000030: 5e6e 50bc 7ea6 ca3c 24f5 09bd 2882 f33c
00000040: bf61 2dbd fa91 9c3c 9ee9 85bc 83f5 273d
00000050: fa2d 483d add6 273d cc0c ffbc d541 02bd
00000060: e134 39bd 892d 14bd f809 02bc a2c1 04bc
00000070: 30b0 3e3c b91e ea3b a995 b53b f9f5 103d

encoder.0.attention.queries.weight f4 [32, 32]
0.10314199 0.05404649 0.027612032 0.06313867 -0.0067210994 -0.054916944 -0.014353622 0.003931201
-0.08820091 -0.041363478 -0.03578764 0.04110698 0.04839785 -0.09446977 0.07419532 -0.101638466
0.04147399 -0.041544203 0.0317429 -0.034936164 -0.013264273 -0.0041218707 0.102904595 0.11290456
0.03882419 0.06511018 0.040998135 -0.039961644 -0.029597457 -0.04686572 -0.08656058 -0.08131667
-0.06431105 -0.0020875663 -0.0031430332 -0.087147966 0.022154033 0.07573367 0.015727125 0.027275454
0.086289085 0.013407535 0.060612395 -0.02792747 -0.009883616 0.08597747 -0.06545485 0.02931071
-0.08318239 0.028342532 -0.012920233 0.015914269 0.064925574 0.012154035 -0.0694932 -0.12618615
-0.060339604 -0.031888817 -0.024615122 0.033098254 0.04517845 0.047460336 0.06187313 0.043355078
-0.041008662 -0.07848574 -0.012752917 -0.09662863 -0.05773255 0.004949898 -0.06062783 -0.1004611
0.04416688 0.0096357055 0.005199535 -0.110954225 -0.060554445 0.04448534 -0.035166144 0.10186168
-0.06274127 0.026747135 -0.086313725 -0.0496501 0.11560967 -0.014713696 -0.098858945 -0.1087575
-0.091303535 -0.044778097 -0.08660597 0.052244127 0.120245 0.041428275 0.043729886 0.04546844
0.053684544 0.058942974 0.029190134 0.0913517 0.00798189 -0.06680566 0.03683791 -0.0018803846
-0.07517496 -0.03229021 -0.01701716 0.059946515 0.022293027 -0.08630859 0.10607128 -0.11444259
0.068604626 0.047130194 0.039702877 -0.022467142 -0.070612766 -0.02670988 0.094844624 0.12436049
0.06606306 0.096571356 0.016311765 -0.02166651 -0.058396704 -0.1028262 -0.03887895 -0.05737227
-0.07637727 -0.033596396 -0.018518036 -0.049438167 -0.027923902 0.054890107 0.01467543 0.007225405
0.06269551 0.06060548 0.010988774 -0.040752597 -0.022847092 0.05688724 -0.04674305 0.09342999
-0.042695295 0.011461997 -0.049184978 -0.0044475202 0.044465087 -0.02478748 -0.10594905 -0.07080089
-0.058081396 -0.047445588 -0.038081046 0.0034611989 0.056691833 0.06063011 0.05444799 0.03631307
-0.03676147 -0.008080832 -0.027875785 -0.023899537 0.018076189 0.083586335 0.018686933 0.014299114
0.059993926 0.0026824477 0.018329242 -0.031670656 0.0128814485 0.107175075 -0.041022513 0.05759531
-0.07675671 -0.017968155 -0.038434543 0.05537713 0.03114513 0.0596589 -0.050331574 -0.078129746
-0.089344844 -0.032761376 -0.044857748 0.032291073 0.06118887 0.05451946 0.08617236 0.03446504
-0.04492733 -0.0082011465 -0.007330564 -0.06533005 -0.014696483 0.06927934 0.013655855 -0.002779885
0.044914015 0.06268599 0.011512738 -0.063299306 -0.0055135423 0.08601377 -0.043489657 0.103700414
-0.03389222 0.020036696 -0.013476178 0.0011121399 0.0594853 0.005165032 -0.08805062 -0.1244092
-0.07144606 -0.034271702 -0.065732926 0.02715106 0.03938046 0.065293014 0.084874205 0.08848893
0.077397 0.06088344 0.048297387 0.03198216 -0.012605547 -0.07603982 0.02313438 -0.015232436
-0.07615055 0.0030937272 -0.031273108 0.07726914 0.03300627 -0.061285943 0.051447228 -0.1298335
0.056740772 -0.02146268 0.014538663 0.008648516 -0.03585002 -0.023713155 0.10155092 0.114299774
0.047248363 0.048576698 0.03873244 -0.029691273 -0.08214608 -0.06915076 -0.113160506 -0.050612852
00000000: 1c3c d33d da5f 5d3d a132 e23c d94e 813d
00000010: ab3c dcbb 97f0 60bd 742b 6bbc 4ed1 803b
00000020: aea2 b4bd c06c 29bd 0f96 12bd cb5f 283d
00000030: d33c 463d 5e79 c1bd b7f3 973d d427 d0bd
00000040: a1e0 293d 412a 2abd d804 023d 3919 0fbd
00000050: 6552 59bc c210 87bb a5bf d23d 823a e73d
00000060: 1d06 1f3d 7c58 853d a9ed 273d d2ae 23bd
00000070: 5e76 f2bc 45f6 3fbd ac46 b1bd 5b89 a6bd
00000080: 83b5 83bd 8dcf 08bb 59fb 4dbb a27a b2bd
00000090: 607c b53c 411a 9b3d 2cd6 803c c670 df3c
000000a0: 55b8 b03d 47ab 5b3c b444 783d 26c8 e4bc
000000b0: e4ee 21bc f514 b03d 310d 86bd 041d f03c
000000c0: 875b aabd 992e e83c 63af 53bc a45e 823c
000000d0: b3f7 843d b821 473c 7352 8ebd f136 01be
000000e0: a926 77bd d99d 02bd a7a5 c9bc 0992 073d
000000f0: 0a0d 393d c565 423d ae6e 7d3d 1895 313d
00000100: b3f8 27bd 22bd a0bd 9cf1 50bc 3be5 c5bd
00000110: f778 6cbd c132 a23b e354 78bd 8dbe cdbd
00000120: 55e8 343d 14df 1d3c dc60 aa3b f83b e3bd
00000130: f007 78bd 4336 363d 600a 10bd db9c d03d
00000140: 7f7e 80bd cf1c db3c 40c5 b0bd e75d 4bbd
00000150: c3c4 ec3d b711 71bc 8f76 cabd 41bc debd
00000160: 59fd babd 3d69 37bd 795e b1bd f0fd 553d
00000170: 0343 f63d b2b0 293d 1c1e 333d 1d3d 3a3d
00000180: 53e4 5b3d 306e 713d 2620 ef3c 9a16 bb3d
00000190: 79c6 023c 68d1 88bd 59e3 163d 3d77 f6ba
000001a0: 54f5 99bd bd42 04bd 9267 8bbc 7a8a 753d
000001b0: de9f b63c 8fc2 b0bd e63b d93d e060 eabd
000001c0: 9580 8c3d 970b 413d 7c9f 223d 030d b8bc
000001d0: 6d9d 90bd aece dabc e63d c23d b6b0 fe3d
000001e0: 124c 873d 34c7 c53d 40a0 853c f77d b1bc
000001f0: 6231 6fbd 8b96 d2bd 893f 1fbd 2fff 6abd
00000200: b06b 9cbd 609c 09bd 23b3 97bc ad7f 4abd
00000210: abc0 e4bc 73d4 603d 3771 703c 17c3 ec3b
00000220: 8166 803d 743d 783d 420a 343c 32ec 26bd
00000230: d329 bbbc 9802 693d a475 3fbd 3958 bf3d
00000240: 43e1 2ebd 1acb 3b3c 3076 49bd 81bc 91bb
00000250: 0621 363d 1d0f cbbc d1fb d8bd 0f00 91bd
00000260: c2e6 6dbd 4e56 42bd dffa 1bbd 48d5 623b
00000270: b235 683d 4757 783d db04 5f3d 04bd 143d
00000280: 3293 16bd 7765 04bc c25b e4bc f6c8 c3bc
00000290: 8414 943c 502f ab3d 5715 993c d546 6a3c
000002a0: 31bc 753d 01cc 2f3b 3527 963c 17b9 01bd
000002b0: b60c 533c 9b7e db3d 3907 28bd 0fe9 6b3d
000002c0: 9f32 9dbd f431 93bc 8a6d 1dbd 21d3 623d
000002d0: 1224 ff3c e45c 743d 7b28 4ebd 7d02 a0bd
000002e0: 6efa b6bd cb30 06bd c2bc 37bd a543 043d
000002f0: 2ea1 7a3d cc4f 5f3d 227b b03d 372b 0d3d
00000300: b805 38bd 1a5e 06bc 3a35 f0bb c3cb 85bd
00000310: 84c9 70bc 54e2 8d3d cfbc 5f3c bb2e 36bb
00000320: c2f7 373d 8361 803d ec9f 3c3c 11a3 81bd
00000330: f2aa b4bb fd27 b03d 3622 32bd e260 d43d
00000340: 92d2 0abd ff23 a43c 30cb 5cbc 39c5 913a
00000350: dca6 733d 6e3f a93b e253 b4bd 40ca febd
00000360: 5052 92bd 7c60 0cbd fc9e 86bd e66b de3c
00000370: 684d 213d 58b8 853d 87d2 ad3d af39 b53d
00000380: 5182 9e3d ea60 793d 7bd3 453d baff 023d
00000390: 7f87 4ebc c4ba 9bbd 5084 bd3c 7891 79bc
000003a0: d2f4 9bbd 21c0 4a3b 3b18 00bd 483f 9e3d
000003b0: 9531 073d f806 7bbd 54ba 523d 13f3 04be
000003c0: 0369 683d 81d2 afbc 9333 6e3c 81b2 0d3c
000003d0: 78d7 12bd 1742 c2bc eef9 cf3d 0016 ea3d
000003e0: 8087 413d 5cf8 463d e8a5 1e3d 1d3b f3bc
000003f0: 343c a8bd ea9e 8dbd b2c0 e7bd 6c4f 4fbd

encoder.0.attention.queries.bias f4 [32]
-0.028502388 0.027718985 -0.020632356 -0.025821026 0.023989145 0.026050638 0.02826061 -0.027750464
-0.027768675 -0.024101887 -0.027906751 0.02902152 -0.027209356 0.02727138 -0.030403608 -0.025953125
0.08762705 0.08477502 0.0806618 0.086479045 -0.092867285 -0.08954633 0.09609566 0.08865469
0.08700669 0.09082999 0.086042985 0.0880484 0.09091948 0.081515886 -0.09150159 0.05324494
00000000: d77d e9bc ed12 e33c 3005 a9bc 9e86 d3bc
00000010: e284 c43c 2668 d53c cb82 e73c f154 e3bc
00000020: 227b e3bc 5271 c5bc b39c e4bc 8abe ed3c
00000030: 28e6 debc 3b68 df3c fd10 f9bc a69b d4bc
00000040: d075 b33d 879e ad3d 0432 a53d ed1b b13d
00000050: 3431 bebd 1164 b7bd cdcd c43d 9790 b53d
00000060: 9030 b23d 1305 ba3d 4e37 b03d b852 b43d
00000070: fe33 ba3d cdf1 a63d 3065 bbbd 5e17 5a3d

encoder.0.attention.keys.weight f4 [32, 32]
0.08858037 0.036901448 0.013340184 0.057352107 0.03082714 -0.08351439 0.037132777 0.048969038
-0.056558672 -0.055242203 0.070231006 0.052633666 0.04608941 -0.030290844 0.106951326 -0.021145511
0.0033007546 -0.027672514 0.09322333 0.0054416438 -0.08470092 0.031339798 0.0921791 0.03876438
0.08430254 0.10707791 0.001294827 -0.04897987 -0.09153239 -0.075135 -0.070288815 -0.086795904
-0.033601634 -0.026115257 -0.04322322 -0.04506086 -0.0047081583 0.016530646 -0.01739199 0.01185394
-0.013464746 0.07690389 -0.1155703 -0.055813834 -0.012833229 0.035875075 -0.04241319 0.0020581905
-0.0001445979 0.0410729 -0.067084625 0.019661238 0.11746008 -0.049299408 -0.044412468 0.016390493
-0.03690109 -0.0710152 -0.04630208 0.047355734 0.08334002 0.030104643 0.04621224 0.021784507
-0.03254964 -0.06140695 0.118540294 -0.008128845 -0.061870962 0.117787205 -0.06866014 -0.06821769
0.13748854 0.025550725 0.115522146 -0.05576336 -0.031243987 0.08693382 -0.025531905 0.08078888
0.019416744 0.15458487 -0.09390162 -0.10663812 0.008540872 -0.09079932 -0.061194908 -0.04486821
-0.05139424 -0.040133856 -0.016047932 0.070680924 0.033984113 0.033282004 0.04674556 0.024799455
0.07108547 0.06977505 -0.0306947 0.039840605 0.009309687 -0.07329265 0.03177389 0.025775515
-0.025239922 -0.052075718 0.048157535 0.079951756 0.04688423 -0.0065189255 0.050346084 -0.019225635
0.07164227 -0.06814472 0.07470318 0.002009215 -0.100123845 0.020484477 0.041917197 0.042914793
0.049060673 0.060408045 0.024091018 -0.035802845 -0.08184792 -0.10760851 -0.038772732 -0.057424735
-0.036988527 -0.05718464 -0.05562341 -0.036310885 -0.037506394 0.08817723 -0.05856225 -0.008926695
0.039590687 0.06879102 -0.05843189 -0.047180887 -0.048569653 0.026586242 -0.042967167 -0.009700325
-0.048384048 0.012351476 -0.05055227 -0.004169791 0.10285989 -0.05371388 -0.07130711 -0.030086022
-0.05557468 -0.08328935 -0.032552388 0.042282455 0.1000003 0.028913608 0.057300817 0.047177043
-0.021707393 -0.07410335 -0.07253841 -0.029153671 -0.025615623 0.04385242 -0.05288995 -0.023934577
-0.01622157 0.06114478 -0.10591636 -0.10094998 -0.096125126 0.006667874 -0.02105637 0.026625464
-0.052085526 -0.010247068 -0.05917941 0.00016483842 0.073616266 -0.016149437 -0.027687708 -0.0204959
-0.062850036 -0.0580024 -0.031299684 0.090889186 0.07639601 0.06111665 0.04869833 0.06256653
-0.07572488 -0.07905644 0.003180427 -0.041749656 -0.0058552935 0.043286394 -0.016067304 -0.033319075
0.027410354 0.08165591 -0.07348135 -0.024335334 -0.041609157 0.020351578 -0.0779687 0.025034329
-0.06465777 0.050070032 -0.087207474 0.030632332 0.07859429 -0.04208757 -0.080204494 -0.0109869875
-0.016135655 -0.100543484 -0.048107207 0.077651255 0.07759471 0.08061977 0.061076805 0.030025765
0.040290114 0.05507599 0.040758234 0.07608745 0.01608544 -0.10083461 0.01771638 0.024892503
-0.015275933 -0.05048388 0.06326502 0.07124555 0.08645375 -0.033330712 0.028793471 -0.029850641
0.061144587 -0.02355212 0.06408015 -0.04086774 -0.09079716 0.028299753 0.06577282 0.0058551636
0.07716556 0.046900842 0.044744667 -0.079918705 -0.08909631 -0.099969134 -0.06618431 -0.11299667
00000000: a069 b53d f925 173d ca90 5a3c 0bea 6a3d
00000010: 3389 fc3c 9809 abbd 8a18 183d c293 483d
00000020: 11aa 67bd a645 62bd 46d5 8f3d 6696 573d
00000030: 40c8 3c3d 8124 f8bc 4c09 db3d 5a39 adbc
00000040: 7951 583b 78b1 e2bc e0eb be3d d14f b23b
00000050: ad77 adbd 295e 003d 65c8 bc3d 66c7 1e3d
00000060: cfa6 ac3d aa4b db3d 2fb7 a93a 1e9f 48bd
00000070: 5575 bbbd 61e0 99bd 95f3 8fbd 0dc2 b1bd
00000080: dea1 09bd aaef d5bc d50a 31bd bd91 38bd
00000090: e546 9abb 476b 873c a679 8ebc 0737 423c
000000a0: 3d9b 5cbc c97f 9d3d 1fb0 ecbd 0c9d 64bd
000000b0: 7742 52bc bef1 123d 74b9 2dbd b5e2 063b
000000c0: 349f 17b9 0f3c 283d aa63 89bd 9b10 a13c
000000d0: e98e f03d 2dee 49bd d9e9 35bd 5b45 863c
000000e0: 9925 17bd 6b70 91bd 40a7 3dbd 16f8 413d
000000f0: 2cae aa3d 039e f63c 0c49 3d3d 6c75 b23c
00000100: c552 05bd db85 7bbd 41c5 f23d d92e 05bc
00000110: 686c 7dbd 6b3a f13d b09d 8cbd b7b5 8bbd
00000120: ccc9 0c3e c14f d13c e096 ec3d 1f68 64bd
00000130: 64f3 ffbc 5c0a b23d 4928 d1bc a474 a53d
00000140: dd0f 9f3c 7f4b 1e3e 7e4f c0bd 1665 dabd
00000150: 03ef 0b3c fef4 b9bd 83a7 7abd bac7 37bd
00000160: c482 52bd 6663 24bd f476 83bc 29c1 903d
00000170: ed32 0b3d b652 083d 4678 3f3d 3a28 cb3c
00000180: 4295 913d 39e6 8e3d 7473 fbbc e72f 233d
00000190: a887 183c 751a 96bd 5725 023d 2c27 d33c
000001a0: f4c3 cebc 594d 55bd d640 453d bfbd a33d
000001b0: ae09 403d b69c d5bb b237 4e3d 147f 9dbc
000001c0: 2fb9 923d 758f 8bbd fbfd 983d 09ad 033b
000001d0: bb0d cdbd 10cf a73c 5eb1 2b3d 6cc7 2f3d
000001e0: d8f3 483d 6d6e 773d 875a c53c 01a6 12bd
000001f0: e29f a7bd da61 dcbd 28d0 1ebd 3336 6bbd
00000200: 4881 17bd 713a 6abd 5fd5 63bd b9ba 14bd
00000210: 4ea0 19bd 4396 b43d f8de 6fbd 4641 12bc
00000220: d829 223d 4ee2 8c3d 4756 6fbd bf40 41bd
00000230: f9f0 46bd 64cb d93c 57fe 2fbd 1dee 1ebc
00000240: 5a2e 46bd d85d 4a3c e60f 4fbd bea2 88bb
00000250: 35a8 d23d 1603 5cbd 7609 92bd f676 f6bc
00000260: 47a2 63bd 9b93 aabd a755 05bd 5e30 2d3d
00000270: f5cc cc3d 3bdc ec3c 43b4 6a3d b73c 413d
00000280: b4d3 b1bc 7fc3 97bd 058f 94bd aed3 eebc
00000290: dbd7 d1bc 989e 333d 22a3 58bd 7212 c4bc
000002a0: 19e3 84bc f372 7a3d adea d8bd ddbe cebd
000002b0: 40dd c4bd 2e7e da3b 697e acbc a51d da3c
000002c0: a257 55bd 51e3 27bc 1c66 72bd 7ad8 2c39
000002d0: 20c4 963d d34b 84bc 55d1 e2bc 05e7 a7bc
000002e0: 85b7 80bd ed93 6dbd 1934 00bd 1c24 ba3d
000002f0: 8375 9c3d 7455 7a3d e677 473d e222 803d
00000300: a515 9bbd 58e8 a1bd b66e 503b b001 2bbd
00000310: c3dd bfbb 134d 313d 949f 83bc 9579 08bd
00000320: ae8b e03c 373b a73d 647d 96bd e55a c7bc
00000330: 5d6e 2abd 5ab8 a63c 0eae 9fbd cb14 cd3c
00000340: 4b6b 84bd 3c16 4d3d d599 b2bd a8f0 fa3c
00000350: 0bf6 a03d 0464 2cbd 4142 a4bd c402 34bc
00000360: ec2e 84bc bee9 cdbd 100c 45bd 9f07 9f3d
00000370: fae9 9e3d fa1b a53d ac2b 7a3d 98f8 f53c
00000380: 3f07 253d 5c97 613d 1bf2 263d bdd3 9b3d
00000390: 9dc5 833c 6082 cebd f121 913c 5deb cb3c
000003a0: e847 7abc 2fc8 4ebd 1791 813d 30e9 913d
000003b0: aa0e b13d c985 08bd 49e0 eb3c 5589 f4bc
000003c0: bf72 7a3d 60f0 c0bc 743c 833d ee64 27bd
000003d0: ddf3 b9bd e2d4 e73c e6b3 863d acdc bf3b
000003e0: fa08 9e3d 191b 403d 2f46 373d 6bac a3bd
000003f0: 2078 b6bd 9ebc ccbd a48b 87bd cc6a e7bd

encoder.0.attention.keys.bias f4 [32]
-0.00014856318 7.9381454e-07 -8.4597814e-05 -0.00014207918 -1.7454564e-05 0.0001300615 5.0233677e-05 0.00012807209
2.9338973e-05 2.1090094e-05 -6.94622e-05 -1.0904829e-05 0.0001272958 -0.000106263775 9.30918e-05 3.4539113e-05
0.00056417705 0.00042853298 0.00035067095 0.00044080056 -0.0010428118 -0.00023701933 0.00083014107 0.0007502781
0.00056907925 -0.00051494647 0.00039695099 0.00037581605 0.00016809575 0.0005170666 -0.000942427 0.00050088984
00000000: a0c7 1bb9 8516 5535 1b6a b1b8 17fb 14b9
00000010: 646b 92b7 1e61 0839 00b2 5238 174b 0639
00000020: f71c f637 a2ea b037 3cac 91b8 e2f3 36b7
00000030: b57a 0539 eed9 deb8 483a c338 17de 1038
00000040: 48e5 133a b9ac e039 42da b739 401b e739
00000050: f5ae 88ba 6488 78b9 d39d 593a 50ae 443a
00000060: 432e 153a 79fd 06ba dc1d d039 2d09 c539
00000070: dc42 3039 c18b 073a 350d 77ba 264e 033a

encoder.0.attention.values.weight f4 [32, 32]
0.025453176 0.025476795 -0.0038152263 0.04224548 0.023429053 -0.020242497 0.01695908 -0.0022967875
-0.04166625 -0.01917719 0.03452489 0.012873972 -0.0016005163 -0.011004021 0.005814865 0.06577756
-0.03659934 -0.054625478 -0.018931527 0.0068126116 0.018183483 0.018649101 0.013139731 -0.021590998
-0.03190717 0.0024871575 -0.010841459 0.015812907 0.02983541 0.015276793 0.00019622347 0.021517523
0.026006557 0.01715067 0.05179422 0.018244887 -0.0008736366 0.024502719 0.013083227 0.016353674
-0.012921145 -0.0017527282 0.011129302 0.012619179 0.0030744488 0.012782827 -0.013686726 0.012776157
0.016955802 -0.01029209 0.011603578 -0.0044735293 0.0063108047 0.012976456 0.009695107 -0.0047039376
-0.0010289978 0.015097597 -0.008855114 0.029840175 0.035055574 0.032168444 -0.027343154 0.06825184
-0.014592572 -0.001345686 0.006725698 0.029753774 -0.017627323 0.008138889 -0.0052804695 0.011027697
-0.021466365 -0.0025701742 0.05047114 0.017489687 0.007779417 -0.005886956 0.011976743 0.02540303
0.02532204 -0.016854558 0.002361539 -0.037691236 -0.020685026 0.015265202 0.023105185 -0.04694005
-0.031115893 0.029792834 0.03069204 -0.023159204 0.0031769206 0.0043873102 -0.0225761 0.019037394
0.049715433 -0.006097986 -0.026567 -0.018021071 0.003385146 -0.00068074843 -0.02355357 0.007746648
-0.01314432 0.01913369 -0.051934507 0.03261758 0.05536785 0.016550217 0.014697161 0.041671176
0.014457423 0.018042322 0.05185503 -0.013622851 -0.001674904 0.020776588 0.022781938 -0.059267897
0.003582804 0.046292998 0.018256871 -0.02007515 0.0024716584 -0.0008612401 -0.019307476 -0.017604796
0.001954015 -0.019211465 -0.010674025 -0.0187471 0.011523571 -0.011398788 0.026936917 -0.01120457
0.009672454 -0.0026654084 -0.054230396 -0.0036438187 0.00041475924 0.04664553 -0.037624367 0.015222408
-0.066824354 -0.003918246 0.007769246 0.024990607 0.013742813 0.0145512 0.014402508 0.08601979
-0.016099384 -0.005865838 -0.012933597 -0.022383414 -0.001617209 -0.023684336 0.0308444 0.008310191
-0.09313705 -0.029341208 0.019179774 -0.020540873 -0.043423723 0.00052507943 0.0137695875 -0.04527248
0.012998184 0.041924637 0.021562291 -0.02612015 -0.027095614 0.034745015 -0.049587626 0.021464903
-0.01740314 -0.006678207 -0.030622343 -0.011110598 0.020002771 -0.024949651 -0.023885064 -0.031479158
-0.03653013 -0.029200187 -0.019727025 0.006101185 0.0143098505 0.024937127 -0.0046602185 0.025774436
-0.030254006 -0.0015373108 0.002158307 -0.024343176 -0.027140744 -0.038116563 -0.0143794445 0.011362276
0.04261681 0.012292913 -0.083886385 -0.013344171 0.030676123 0.054828472 -0.0387591 0.07220027
-0.044640668 -0.014266555 -0.0064976625 0.0075685508 -0.02516269 0.01616122 0.005029831 -0.012697912
-0.04462147 0.0018013687 -0.014586573 -0.005225287 0.07284828 -0.018264247 0.013206797 0.082989275
-0.01903896 0.009351821 -0.024673834 -0.0058859685 0.018671745 0.034657598 0.040389318 0.026441092
0.010284513 -0.032054562 -0.029485144 -0.00054250634 -0.022823354 0.020580845 -0.0036786085 -0.049005214
0.019874606 0.003239807 0.016540673 0.015579311 0.012625894 0.027742477 0.015738204 0.03579883
-0.025032366 0.007882017 0.012410006 -0.019432578 -0.027369026 -0.027856762 -0.027452724 -0.020674689
00000000: 2e83 d03c b6b4 d03c e008 7abb 9909 2d3d
00000010: 49ee bf3c 98d3 a5bc c5ed 8a3c b385 16bb
00000020: 3baa 2abd 7b19 9dbc f969 0d3d 5aed 523c
00000030: 6ac8 d1ba 364a 34bc a08a be3b 63b6 863d
00000040: 31e9 15bd f7be 5fbd 4a16 9bbc 543c df3b
00000050: 87f5 943c 00c6 983c 0748 573c 9bdf b0bc
00000060: 18b1 02bd 94ff 223b 60a0 31bc 128a 813c
00000070: 6469 f43c 844b 7a3c 56c1 4d39 8445 b03c
00000080: b40b d53c 907f 8c3c 2d26 543d 4d76 953c
00000090: c304 65ba edb9 c83c 085b 563c 24f8 853c
000000a0: 36b3 53bc cdbb e5ba ad57 363c acc0 4e3c
000000b0: b17c 493b 106f 513c 4a3e 60bc 1653 513c
000000c0: e5e6 8a3c 27a0 28bc ef1c 3e3c af96 92bb
000000d0: deca ce3b 349b 543c 3ad8 1e3c 7d23 9abb
000000e0: 70df 86ba e95b 773c 0a15 11bc 6273 f43c
000000f0: 6f96 0f3d 0fc3 033d c0fe dfbc 9fc7 8b3d
00000100: af15 6fbc bb61 b0ba 3e63 dc3b 30be f33c
00000110: 2d67 90bc fa58 053c ca07 adbb 83ad 343c
00000120: 3bda afbc 5e70 28bb d3ba 4e3d 8846 8f3c
00000130: 7bea fe3b 5ee7 c0bb 1a3a 443c 041a d03c
00000140: 2b70 cf3c 9212 8abc 0dc4 1a3b 2062 1abd
00000150: a573 a9bc e61a 7a3c 1647 bd3c 3644 40bd
00000160: c2e6 febc 1a10 f43c e06d fb3c 5fb8 bdbc
00000170: e233 503b 6dc3 8f3b 83f1 b8bc 4ff4 9b3c
00000180: 69a2 4b3d 9dd1 c7bb 0aa3 d9bc eda0 93bc
00000190: 53d9 5d3b 4174 32ba 6bf3 c0bc 98d7 fd3b
000001a0: 465b 57bc 42be 9c3c 47b9 54bd 039a 053d
000001b0: 66c9 623d 5294 873c 5ccc 703c 65af 2a3d
000001c0: d4de 6c3c 7ecd 933c f165 543d 6132 5fbc
000001d0: 7488 dbba aa33 aa3c 30a1 ba3c e5c2 72bd
000001e0: 7acd 6a3b ba9d 3d3d 6f8f 953c a474 a4bc
000001f0: 8cfb 213b d8c4 61ba b62a 9ebc ef37 90bc
00000200: ef0e 003b 5d61 9dbc 1be2 2ebc 8593 99bc
00000210: 5ccd 3c3c fbc1 3abc cfaa dc3c 5f93 37bc
00000220: 3679 1e3c 22ae 2ebb b120 5ebd 22cd 6ebb
00000230: 0b74 d939 620f 3f3d 021c 1abd 6867 793c
00000240: 35db 88bd a164 80bb 2995 fe3b 1ab9 cc3c
00000250: 8929 613c 2868 6e3c 7ff8 6b3c 252b b03d
00000260: dbe2 83bc 3736 c0bb 70e7 53bc 6c5d b7bc
00000270: 88f8 d3ba a705 c2bc 65ad fc3c 7827 083c
00000280: a3be bebd f95c f0bc e71e 9d3c 5545 a8bc
00000290: 13dd 31bd 7ca5 093a d699 613c a36f 39bd
000002a0: 56f6 543c 2bb9 2b3d 67a3 b03c edf9 d5bc
000002b0: 9ff7 ddbc ca50 0e3d 651c 4bbd 2ad7 af3c
000002c0: 0891 8ebc dcd4 dabb b5db fabc 3a09 36bc
000002d0: dadc a33c 3663 ccbc 9caa c3bc 4af0 00bd
000002e0: 9ea0 15bd 3b35 efbc 929a a1bc 73ec c73b
000002f0: dd73 6a3c f248 cc3c bfb4 98bb e924 d33c
00000300: 40d7 f7bc 977f c9ba 6272 0d3b 576b c7bc
00000310: 4456 debc 1d20 1cbd c397 6bbc d728 3a3c
00000320: f78e 2e3d 3768 493c a0cc abbd 83a1 5abc
00000330: 7e4c fb3c d293 603d ddc1 1ebd bcdd 933d
00000340: 22d9 36bd 45be 69bc 58ea d4bb 9b01 f83b
00000350: fc21 cebc 8964 843c 48d1 a43b e70a 50bc
00000360: 01c5 36bd e71b ec3a 85fc 6ebc e238 abbb
00000370: 7b31 953d e79e 95bc 5261 583c 48f6 a93d
00000380: 98f7 9bbc 6138 193c c820 cabc 15df c0bb
00000390: 7df5 983c 20f5 0d3d 456f 253d fd9a d83c
000003a0: 6080 283c a54b 03bd d48a f1bc fc36 0eba
000003b0: 0bf8 babc 2999 a83c cf14 71bb b1b9 48bd
000003c0: 12d0 a23c f152 543b 4e80 873c 5e40 7f3c
000003d0: d6dc 4e3c 3144 e33c 68ed 803c cba1 123d
000003e0: ad10 cdbc 9323 013c 5653 4b3c 1231 9fbc
000003f0: 0235 e0bc dd33 e4bc 89e4 e0bc f75d a9bc

encoder.0.attention.values.bias f4 [32]
-0.01241051 -0.005817061 -0.014738059 -0.0013798816 0.010731448 0.0001638191 -0.0007380803 0.018765166
-0.008530468 0.02325717 -0.03294852 0.004787119 -0.004262839 0.009157879 -0.006526861 0.004796163
-0.0037376673 -0.023588972 -0.0055396436 0.009044688 0.012441996 0.015669676 -0.013246191 -0.028828168
-0.00037073353 0.0049404968 -0.010800804 -0.006028685 0.017306328 0.01224064 0.009049548 0.014999484
00000000: 7455 4bbc 0b9d bebb e677 71bc 25dd b4ba
00000010: f5d2 2f3c dbc6 2b39 bb7b 41ba 68b9 993c
00000020: 60c3 0bbc d285 be3c 07f5 06bd 44dd 9c3b
00000030: 49af 8bbb ee0a 163c 47df d5bb 2229 9d3b
00000040: a7f3 74bb a93d c1bc e685 b5bb 2c30 143c
00000050: 83d9 4b3c b15d 803c 8d06 59bc 0d29 ecbc
00000060: 035f c2b9 e4e3 a13b dbf5 30bc 468c c5bb
00000070: 00c6 8d3c f78c 483c 8e44 143c 65c0 753c

encoder.0.attention.fc.weight f4 [32, 32]
-0.0034862868 0.013831458 -0.0015811077 0.023052253 0.006762596 -0.022455718 0.010231985 0.0265455
-0.019377958 -0.021686653 -0.006839285 0.0149348555 -0.00990812 -0.018071352 -0.0008442837 0.021656334
-0.024963645 -0.009645231 -0.008533027 -0.009276734 -0.004746995 0.03265305 -0.0017267644 -0.024816997
-0.03311942 -0.021102874 0.018699735 -0.006605258 0.008863502 -0.016733345 -0.014998436 0.0019444942
-0.0081086 0.0018957492 0.039587565 -0.0011228528 -0.031933896 0.013276973 0.011939066 -0.032676455
-0.0025881832 0.027044347 -0.010829076 -0.009002645 0.00984975 -0.017584026 -0.016698988 0.0038788563
0.015860178 -0.0005363198 -0.027581427 -0.006734776 -0.007817211 -0.016459374 -0.015137058 -0.022495145
0.014388325 -1.6715581e-05 -0.000965354 -0.017367925 -0.021025004 -0.010198084 0.009701923 -0.030667452
-0.0076069008 0.025477575 0.025056977 0.02176423 -0.025007298 -0.009537944 -0.022290537 0.015019702
-0.0021471672 -0.004505307 -0.019108215 0.010142165 0.008271913 0.037748966 -0.007850459 0.012271906
0.004880193 0.0063484875 0.009605593 0.012219217 0.027391251 -0.005360031 0.0028093122 0.018532842
0.051170167 -0.01245094 -0.031544946 -0.014378455 0.015903056 -0.002340503 -0.018280702 0.0075943037
-0.0018813885 0.030265113 0.008442514 0.022035712 0.00094288756 -0.0139195435 -0.00029040268 0.011555733
-0.016655022 0.0030112187 0.009698522 0.0061567104 -0.012927813 -0.018983047 0.05141255 0.0048155384
-0.026256183 -0.0033655225 0.0036009809 -0.018294027 -0.012121337 -0.03350929 0.052945536 0.0060424744
0.0030365707 0.01873165 -0.023196125 -0.0085281925 0.0064894576 -0.0015164993 -0.014039791 0.002510522
-0.013483968 -0.020698141 0.0009496256 -0.022231916 -0.004850804 0.008236838 -0.021996984 0.006646581
0.015036775 -0.029535731 0.021364521 0.019694064 0.030332927 0.03979178 -0.007248958 -0.013570811
0.03312801 0.008456219 0.0006942754 0.00514247 -0.044233 0.051729746 0.019014047 0.011354703
-0.01578185 -0.014279681 0.03936815 0.020158794 -0.03210575 0.036251906 0.030800713 -0.011787701
-0.03071287 -0.0005210464 0.052747015 -0.012633311 0.045657277 -0.023887 -0.003199174 0.01753793
0.004598275 -0.011482037 0.013025563 0.0007639531 -0.01020364 -0.019896712 -0.030228896 0.0074822144
-0.0029661767 -0.020529952 -0.008741847 0.020415867 -0.0070258854 0.02590086 0.030360207 -0.021613982
0.012014642 0.03853853 0.016738882 0.0146386195 -1.2971428e-06 0.0011570249 -0.006470757 -0.028676229
0.0047705984 -0.021427695 -0.0042601405 0.008646426 -0.024759915 0.02581365 -0.019457823 0.018854415
-0.0068305773 -0.0032657394 0.0070794895 0.020837998 0.031470273 0.029130964 0.008340871 -0.031547084
-0.00043875552 0.01813823 0.013775695 0.042880554 -0.013386694 -0.0042902054 0.0076678353 0.0069316863
-0.002741587 -0.013852601 -0.045140903 0.0057769935 -0.009105678 -0.015571026 0.021191664 0.009213741
0.005501456 0.0051604393 -0.015583796 0.025114499 0.007657585 -0.0065704375 0.048835814 0.021041209
0.03503715 0.01532621 -0.016716424 0.019264208 0.015290041 0.02400315 0.0062786248 -0.014559028
0.044452444 0.012512594 -0.014544007 -0.025976922 0.03310218 0.022086956 -0.030900702 0.013888068
0.012885574 0.008130955 0.021750342 0.039032795 0.001592245 0.02582656 -0.018460691 -0.02447082
00000000: 307a 64bb 579d 623c 2c3d cfba 14d8 bc3c
00000010: c498 dd3b 0ef5 b7bc 0ea4 273c f375 d93c
00000020: 86be 9ebc 35a8 b1bc 151c e0bb 53b1 743c
00000030: ab55 22bc 5f0a 94bc ec52 5dba a068 b13c
00000040: 8f80 ccbc 0807 1ebc 1cce 0bbc 71fd 17bc
00000050: ae8c 9bbb 34bf 053d 9954 e2ba 044d cbbc
00000060: 3ba8 07bd efdf acbc 3030 993c ec70 d8bb
00000070: 3938 113c 5e14 89bc 00bc 75bc 66de fe3a
00000080: efd9 04bc ca7a f83a 9226 223d b02c 93ba
00000090: 1ecd 02bd a987 593c 139c 433c bfd7 05bd
000000a0: 829e 29bb 1b8c dd3c 706c 31bc d47f 13bc
000000b0: d960 213c 600c 90bc 51cc 88bc 6934 7e3b
000000c0: 34ed 813c d097 0cba 72f2 e1bc 65af dcbb
000000d0: c213 00bc cfd5 86bc 6c01 78bc bd47 b8bc
000000e0: 02bd 6b3c 7038 8cb7 cf0f 7dba 2e47 8ebc
000000f0: a13c acbc dd15 27bc d0f4 1e3c 4f3a fbbc
00000100: 4f43 f9bb 59b6 d03c 4a44 cd3c e64a b23c
00000110: 1bdc ccbc 0945 1cbc a59a b6bc 3215 763c
00000120: 7db7 0cbb 41a1 93bb d588 9cbc 532b 263c
00000130: eb86 073c a99e 1a3d 369f 00bc 1b10 493c
00000140: 07ea 9f3b f906 d03b c760 1d3c 1c33 483c
00000150: 9e63 e03c 33a3 afbb 701c 383b 30d2 973c
00000160: cf97 513d 07ff 4bbc 4635 01bd 9c93 6bbc
00000170: 2047 823c 2063 19bb 69c1 95bc a3d9 f83b
00000180: ec98 f6ba 8bee f73c 7852 0a3c 3d84 b43c
00000190: 1d2c 773a cc0e 64bc 3041 98b9 4254 3d3c
000001a0: 1d70 88bc de57 453b 8de6 1e3c 3bbe c93b
000001b0: 2ecf 53bc 5682 9bbc f795 523d aacb 9d3b
000001c0: 3517 d7bc 1990 5cbb 6ffe 6b3b 5bdd 95bc
000001d0: 9298 46bc 0a41 09bd 6bdd 583d f3ff c53b
000001e0: 3401 473b 1e73 993c cd05 bebc d5b9 0bbc
000001f0: 84a5 d43b 46c5 c6ba 2707 66bc 9287 243b
00000200: dceb 5cbc 268f a9bc 4cf0 783a b51f b6bc
00000210: 7ef3 9ebb cdf3 063c 0533 b4bc 90cb d93b
00000220: ce5c 763c ebf4 f1bc a604 af3c 7255 a13c
00000230: c27c f83c b5fc 223d ab88 edbb 1b58 5ebc
00000240: 3cb1 073d f48b 0a3c 0900 363a 2a82 a83b
00000250: aa2d 35bd 92e2 533d 59c3 9b3c 1409 3a3c
00000260: f048 81bc 53f5 69bc 7f40 213d 0e24 a53c
00000270: 5281 03bd e17c 143d c751 fc3c 3421 41bc
00000280: 8f99 fbbc d596 08ba 410d 583d f2fb 4ebc
00000290: 2003 3b3d abae c3bc 3ca9 51bb b4ab 8f3c
000002a0: 20ad 963b 271f 3cbc 2c69 553c 0644 483a
000002b0: 2b2d 27bc 6efe a2bc 97a2 f7bc 5d2d f53b
000002c0: 3064 42bb 6e2e a8bc f739 0fbc 2d3f a73c
000002d0: 6639 e6bb 0a2e d43c f8b5 f83c ce0f b1bc
000002e0: 10d9 443c 94da 1d3d fb1f 893c d2d6 6f3c
000002f0: 7d19 aeb5 50a7 973a a508 d4bb 69ea eabc
00000300: ae52 9c3b 2289 afbc a698 8bbb bda9 0d3c
00000310: 4ed5 cabc 2677 d33c 0366 9fbc 9374 9a3c
00000320: 09d3 dfbb 0406 56bb 10fb e73b 73b4 aa3c
00000330: f9e6 003d 0fa4 ee3c 26a8 083c 8437 01bd
00000340: c508 e6b9 a096 943c 74b3 613c 85a3 2f3d
00000350: dd53 5bbc da94 8cbb 7742 fb3b 3323 e33b
00000360: 33ac 33bb 05f6 62bc abe5 38bd ef4c bd3b
00000370: fb2f 15bc 9e1d 7fbc 249a ad3c 3bf5 163c
00000380: 8f45 b43b e718 a93b 2e53 7fbc ecbc cd3c
00000390: 7bec fa3b d34c d7bb 1008 483d 9d5e ac3c
000003a0: 1d83 0f3d c91a 7b3c e2f0 88bc f9cf 9d3c
000003b0: 1583 7a3c 41a2 c43c ecbc cd3b fd88 6ebc
000003c0: c413 363d a001 4d3c fd49 6ebc 8ecd d4bc
000003d0: 2796 073d b4ef b43c 7823 fdbc c78a 633c
000003e0: 041e 533c b237 053c c62d b23c dae0 1f3d
000003f0: e0b2 d03a 3992 d33c e03a 97bc 0777 c8bc

encoder.0.attention.fc.bias f4 [32]
0.0 0.0 0.0 0.0 0.0 0.0 0.0 0.0
0.0 0.0 0.0 0.0 0.0 0.0 0.0 0.0
0.0 0.0 0.0 0.0 0.0 0.0 0.0 0.0
0.0 0.0 0.0 0.0 0.0 0.0 0.0 0.0
00000000: 0000 0000 0000 0000 0000 0000 0000 0000
00000010: 0000 0000 0000 0000 0000 0000 0000 0000
00000020: 0000 0000 0000 0000 0000 0000 0000 0000
00000030: 0000 0000 0000 0000 0000 0000 0000 0000
00000040: 0000 0000 0000 0000 0000 0000 0000 0000
00000050: 0000 0000 0000 0000 0000 0000 0000 0000
00000060: 0000 0000 0000 0000 0000 0000 0000 0000
00000070: 0000 0000 0000 0000 0000 0000 0000 0000

encoder.0.fc1.weight f4 [64, 32]
-0.06844446 0.054844774 0.11322063 -0.00022717462 0.07991207 0.033643894 0.04815401 0.04884161
-0.09171191 -0.023328362 0.086479865 0.036885045 0.08444193 0.014116088 -0.011710264 -0.011375265
-0.032242306 -0.06468147 0.02134232 -0.042599156 -0.14893687 0.055172045 -0.003139952 0.039643966
0.024084818 0.14170815 0.0026355009 -0.019582005 -0.038947433 0.023640856 0.05076027 -0.012117393
-0.060556542 0.09055319 0.08534827 0.038278773 0.036023427 0.07074139 0.06233544 -0.0021101355
-0.10388663 -0.024863264 0.04954001 0.021813571 0.06533909 0.0049279938 -0.004061035 -0.0752714
-0.057351742 -0.07059982 0.012201134 0.010197429 -0.14940166 0.015645351 0.030493114 0.019569183
0.0047835084 0.03743527 -0.014156101 0.012636888 -0.05879846 0.0002841021 0.054626215 -0.032691397
-0.00061688997 -0.013804344 -0.006600941 0.007231044 0.010305316 -0.015680457 -0.017473184 0.0076343026
-0.010630772 -0.043378 -0.026405923 -0.0068991175 0.0015659851 -0.013307075 -0.034320865 -0.0139525905
-0.009406355 0.02287586 -0.0021582223 -0.0348996 -0.0087109255 -0.007061356 -0.01029481 0.012309422
-0.00030196155 -0.011852477 0.046884958 -0.0003643467 0.027317455 0.019338693 0.0022030475 -0.0022410206
-0.023249537 0.052718 0.07640915 0.01456238 -0.0034852303 0.05013815 0.087080464 -0.046645276
0.07662978 -0.029072735 0.008995459 -0.024194902 -0.050696384 -0.03111554 -0.0043424526 -0.02372145
-0.028022347 0.003183444 0.002578669 0.060949296 0.0781975 -0.038908225 -0.014754513 0.0017952651
-0.14923662 -0.008941497 0.016508792 0.02635267 -0.00037555455 0.033208102 0.028712811 -0.02037087
0.006639785 -0.030524233 -0.01274278 -0.00416545 0.0069296593 0.057856977 0.07880761 -0.024408175
0.016606772 -0.0073273173 0.018847557 -0.011024426 -0.017074851 0.015397266 -0.021766668 -0.026794806
-0.034400314 0.03378673 0.011873895 0.005805889 -0.019365171 -0.0051429267 -0.01897997 -0.013848975
-0.055984482 -0.029140975 -0.005208415 0.021925272 -0.023454916 -0.0007293204 0.03993428 -0.033662952
-0.03799442 -0.035286043 0.041271444 0.0015542083 -0.031278938 0.060333822 0.021956598 -0.06918129
0.031886715 -0.0689222 0.05284181 -0.03678126 0.019554747 0.04998118 -0.017636191 -0.013365776
-0.07043946 0.027276253 0.03392561 0.024848502 0.03605944 -0.013416127 -0.0066209678 -0.01572437
-0.090109706 -0.049931806 -0.0042879316 0.013888002 0.0051555033 0.025760895 0.047170985 0.019283472
0.008685596 -0.057046756 0.007988985 -0.020664863 -0.052506886 0.019785391 -0.06764806 -0.037729446
-0.010902414 0.002707638 0.049754225 -0.026772209 -0.005648756 0.031102551 -0.007739371 0.010995872
0.026669683 0.02751645 0.0133007895 -0.031242497 -0.01005463 -0.025589317 0.0031458472 0.013265545
-0.014736691 -0.07351181 0.012435102 0.009963866 -0.006372876 0.012189212 0.012232417 -0.022084758
0.19390987 -0.032839246 -0.026509056 -0.018780472 -0.1407345 -0.04997623 -0.074830145 -0.08988852
0.06055053 0.019766523 -0.030125923 -0.06747292 -0.025626082 0.026449168 0.06315528 -0.004673882
0.23022722 0.12919632 -0.01949922 -0.046405584 0.033851262 -0.0299539 -0.00952812 0.04509154
-0.025222182 -0.09088696 -0.0022478064 0.029851167 0.050834317 -0.012475783 -0.034916356 -0.0046286373
00000000: 9c2c 8cbd eaa4 603d 38e0 e73d b935 6eb9
00000010: f0a8 a33d 2ece 093d 243d 453d 240e 483d
00000020: 74d3 bbbd 1f1b bfbc 5b1c b13d c614 173d
00000030: e4ef ac3d 2a47 673c 68dc 3fbc 525f 3abc
00000040: 8210 04bd b877 84bd 17d6 ae3c 747c 2ebd
00000050: e882 18be 15fc 613d a7c7 4dbb b661 223d
00000060: 864d c53c f11b 113e 5eb8 2c3b 716a a0bc
00000070: 5887 1fbd 78aa c13c 00ea 4f3d 0888 46bc
00000080: 230a 78bd f373 b93d 13cb ae3d 34ca 1c3d
00000090: 4d8d 133d dde0 903d 7253 7f3d 334a 0abb
000000a0: 83c2 d4bd 0bae cbbc 77ea 4a3d 60b2 b23c
000000b0: 80d0 853d 027b a13b 6e12 85bb e427 9abd
000000c0: a9e9 6abd a396 90bd 44e7 473c 1e13 273c
000000d0: c0fc 18be ae2a 803c b2cc f93c 8d4f a03c
000000e0: fabe 9c3b ba55 193d feee 67bc f30a 4f3c
000000f0: a7d6 70bd 8af3 9439 bdbf 5f3d 6ae7 05bd
00000100: c9b6 21ba 9e2b 62bc b54c d8bb 65f2 ec3b
00000110: a1d7 283c 4d74 80bc ec23 8fbc 2c29 fa3b
00000120: b12c 2ebc 21ad 31bd 3c51 d8bc fe11 e2bb
00000130: be41 cd3a eb05 5abc 0994 0cbd 6899 64bc
00000140: 1d1d 1abc 2866 bb3c f670 0dbb e2f2 0ebd
00000150: 45b8 0ebc f362 e7bb 90ab 28bc 75ad 493c
00000160: 9850 9eb9 e430 42bc 710a 403d c905 bfb9
00000170: dbc8 df3c 2e6c 9e3c 0161 103b 16de 12bb
00000180: d075 bebc d4ee 573d 677c 9c3d 0c97 6e3c
00000190: 7668 64bb a95d 4d3d 3e57 b23d 1e0f 3fbd
000001a0: 13f0 9c3d f229 eebc b161 133c 6334 c6bc
000001b0: 03a7 4fbd 04e6 febc 224b 8ebb 7c53 c2bc
000001c0: 1f8f e5bc 54a1 503b e3fe 283b f8a5 793d
000001d0: 0326 a03d 3b5e 1fbd eabc 71bc 1a4f eb3a
000001e0: 7cd1 18be 5b7f 12bc 723d 873c 8ee1 d73c
000001f0: 14e6 c4b9 3805 083d 2137 eb3c d0e0 a6bc
00000200: 8e92 d93b f50d fabc 18c7 50bc 547e 88bb
00000210: 3212 e33b 70fb 6c3d e265 a13d a7f3 c7bc
00000220: ed0a 883c fe19 f0bb 3166 9a3c cb9f 34bc
00000230: 8fe0 8bbc d044 7c3c 0350 b2bc c880 dbbc
00000240: 58e7 0cbd f463 0a3d ba8a 423c 543f be3b
00000250: b5a3 9ebc ff85 a8bb e27b 9bbc d0e6 62bc
00000260: fc4f 65bd 0eb9 eebc 5aab aabb a19c b33c
00000270: 8624 c0bc dd2f 3fba 2192 233d 2ae2 09bd
00000280: 09a0 1bbd 1988 10bd 3f0c 293d 94b6 cb3a
00000290: 581e 00bd 9920 773d 53de b33c ecae 8dbd
000002a0: a59b 023d 1527 8dbd a770 583d f2a7 16bd
000002b0: 4731 a03c 11b9 4c3d c679 90bc 21fc 5abc
000002c0: 9042 90bd 7372 df3c 95f5 0a3d 168f cb3c
000002d0: 10b3 133d 51cf 5bbc b4f4 d8bb 65d0 80bc
000002e0: 708b b8bd 4b85 4cbd c781 8cbb 818a 633c
000002f0: 7fef a83b 8308 d33c 5d36 413d 5ff8 9d3c
00000300: 084e 0e3c dca9 69bd 3be4 023c 5c49 a9bc
00000310: 7611 57bd f914 a23c 118b 8abd 318a 1abd
00000320: 0aa0 32bc a172 313b 16cb 4b3d 6451 dbbc
00000330: 3319 b9bb c7ca fe3c 8d9a fdbb 0828 343c
00000340: 617a da3c 2e6a e13c 8eeb 593c 44f0 ffbc
00000350: 2dbc 24bc b0a0 d1bc 8f2a 4e3b ba57 593c
00000360: 2972 71bc 5c8d 96bd 99bc 4b3c 7c3f 233c
00000370: 8fd3 d0bb 43b5 473c 7a6a 483c 18eb b4bc
00000380: 4f90 463e 7282 06bd 8529 d9bc 81d9 99bc
00000390: b41c 10be e0b3 4cbd 8c40 99bd 7917 b8bd
000003a0: d503 783d 67ed a13c a4ca f6bc 3e2f 8abd
000003b0: caed d1bc edab d83c 8e57 813d 5d27 99bb
000003c0: afc0 6b3e 0a4c 043e d4bc 9fbc c813 3ebd
000003d0: 9fa7 0a3d e261 f5bc d51b 1cbc e8b1 383d
000003e0: c09e cebc f122 babd ef4f 13bb 6f8a f43c
000003f0: a537 503d 3a67 4cbc 7404 0fbd d3ab 97bb
