model/mnist/tune_lr0.001_ed32_nl6_nh4_fm2_ps4/temp_model.pt (torch, 254829 bytes, 106 tensors)

embedding.cls_token f4 [1, 1, 32]
00000000: f83a e6bc 9be5 073d a0ae 57bc c512 29ba
00000010: d298 d2bc 3b07 eb39 28e7 0ebb 0c37 0ebd
00000020: fbed 08bd 5808 3e3c 7bdb 84bc e31e 0e3c
00000030: 3669 e43d 9740 2abc 85e8 7a3d 4223 45bc
00000040: 7e3d e7bb b248 12bd c031 04bd cbac 30bd
00000050: 822d 433c afe4 8e3d 0672 8fbc b398 703c
00000060: 3b4f fcbb 2b0b 543d 76cb c1bc 0e4f 8fbc
00000070: abcf 8e3d 9e7a abbc e660 ab3d 3e37 023e
-0.02810429 0.033177953 -0.013164192 -0.0006449635 -0.025707636 0.0004482808 -0.002180526 -0.034720466
-0.03343008 0.011598669 -0.016217938 0.008674356 0.1115288 -0.010391376 0.061256904 -0.012032332
-0.007056891 -0.03571386 -0.032274008 -0.04313354 0.011912705 0.06977212 -0.017510425 0.014684844
-0.0076998747 0.051768463 -0.023656588 -0.01749375 0.06973203 -0.020932492 0.08368091 0.12716386

embedding.pos_embedding f4 [1, 50, 32]
00000000: f13a e6bc 9fe5 073d 97ae 57bc db11 29ba
00000010: d498 d2bc 1c08 eb39 e4e6 0ebb 0637 0ebd
00000020: ffed 08bd 6a08 3e3c 80db 84bc e11e 0e3c
00000030: 3369 e43d 8f40 2abc 80e8 7a3d 7323 45bc
00000040: 7d3d e7bb ad48 12bd c031 04bd cfac 30bd
00000050: 782d 433c ade4 8e3d 1172 8fbc c798 703c
00000060: 294f fcbb 290b 543d 74cb c1bc 154f 8fbc
00000070: abcf 8e3d af7a abbc e860 ab3d 3c37 023e
00000080: 3209 99bc 6efa 67bd 4890 293c 40bb edbc
00000090: 9b0e cb3a 0baa 563d e885 b8bb 1c90 1d3d
000000a0: de00 f83c df86 1f3d 862f a93c 3b1a abbc
000000b0: c5b8 4d3d fa06 f43c 9222 49bd cdaa 4b3c
000000c0: 523a bdba 50b3 f93b da2c 053d 9bc9 a9bc
000000d0: c05f fa3c afea a2bc ec47 b13c 6a9f b83c
000000e0: 9f15 9c3c 6a8b 6bbd bdcb 21bd 0a98 30bd
000000f0: c635 26bd a981 913c 6a9e d7b9 66ba cdbc
00000100: ebf1 40bd e029 32bd a04e 803d 4101 2bbd
00000110: 2347 b13b 4291 453d 6c6f 93bc abd2 8a3d
00000120: 36c8 9f3c 142f 093d 17c5 4c3c 47c9 f0bb
00000130: b73c 393d 349d 1f3d c60c 00bd 90fb 413c
00000140: 979c 41bc ca97 153c ca0b 6b3c 570e bcbc
00000150: 540c 523c 2f4e 06bd 8447 763c a4ef 9a3c
00000160: 193c bb3c 608e 19bd f6e9 1bbd d48f 61bc
00000170: 9e86 e0bc 8a61 7c3c 0aeb d5bc 8998 bebc
00000180: d9cc 4ebe c7e9 14bd 98f4 c0bb f945 14be
00000190: 3b3c 553d fb02 73bd 95de b1bd b4ce 123d
000001a0: 0e9b 06be c33c 7bbd 7ad2 babc 07d4 a03c
000001b0: 9b19 c5bd 4c90 4f3e 9b59 653d 172b 813d
000001c0: 666f acbd dc15 bcbd e917 d2bc 78b7 463d
000001d0: 71ce 11be 697f 63bd 5747 4f3c 2116 583c
000001e0: ce08 033e a511 7b3d 3f58 803c 1b24 3dbd
000001f0: 9422 3b3d abf3 a23e a6be 07bd 3ef2 953d
00000200: 5a07 4bbe 31a6 153c 5db0 353d 41dc 25be
00000210: ee9f 063e 12e9 92bd f51c 58bd 919b c83d
00000220: 4793 e6bd f83f cabc c1fa 133d 94d2 083d
00000230: b81d 85bd 86d9 363e b8f0 883c fc0c 823c
00000240: 91c9 b4bd 6406 f8bd 691f c53c ff03 8d3d
00000250: e0c7 f6bd 71aa 94bd 38e9 f3bc 5cdc 25bc
00000260: 8945 003e 4785 ac3a ea3e 7d3c d340 89bd
00000270: fbeb c83b 88a2 ac3e 9c1f 99bc f914 c73c
00000280: b208 52be f8fa 0b3d 04cf 953d 0bee 1bbe
00000290: d08f 0b3e 4829 75bd db91 15bd b05d f43d
000002a0: d1f3 2cbe e12b 06bc 8ed0 143d 64d8 1a3d
000002b0: c1ff 91bc c3fb 403e cee8 c93c 3d56 ceba
000002c0: baf0 eabd 9351 13be 424d 1f3d 0c75 293d
000002d0: bc31 00be 11c4 cdbd 1c1f 20bd 0dbf e6bc
000002e0: 7b86 db3d 59d2 b9bc 047b 293a a00a 94bd
000002f0: cce5 643c e05a 8f3e c493 7fbc 5f39 823d
00000300: 5d6b 1fbe cb2b f83c 9cf9 da3d 53a5 0ebe
00000310: 3b67 103d 3f08 c1bc 21ed 14bc 314f 9e3d
00000320: 152f 16be 034b 963d 4e9d de3c 7b7d 3f3d
00000330: 7f5c c73c eb29 0c3e de4e fb3c e479 ecbc
00000340: 966e bebd 6808 8cbd 76e5 673b 3337 683c
00000350: 5906 62bd 6ad9 e9bd 9102 31bd eae2 3fbd
00000360: 5c9e db3c 321b 1d3d 23c3 30bc 4898 64bd
00000370: 3298 6c3a a874 183e f4a1 873d f138 403d
00000380: 6275 d9bc 6edf 62bd d92e 163c c88c e0bc
00000390: 7a51 583b e3d6 423d 3a4e f2bb 6f45 2f3d
000003a0: cdab bd3c 49c9 283d f87e 923c 01e4 82bc
000003b0: 8be1 373d 007f fd3c 6df1 45bd fcee 523c
000003c0: db24 39bb e631 2bbb ec13 0d3d ad7b d2bc
000003d0: db0c ca3c eaeb 65bb 73d4 eb3c 3137 c13c
000003e0: a79c a83c a4b1 80bd 9fc6 5abd 24a6 26bd
000003f0: 14d1 2abd 4037 943c 895f 453a aec7 80bc
-0.028104277 0.033177968 -0.013164184 -0.0006449499 -0.02570764 0.00044828735 -0.0021805102 -0.034720443
-0.033430096 0.011598686 -0.016217947 0.008674354 0.11152878 -0.0103913685 0.061256886 -0.0120323775
-0.0070568905 -0.03571384 -0.032274008 -0.043133553 0.011912696 0.0697721 -0.017510446 0.014684862
-0.0076998663 0.051768456 -0.023656584 -0.017493764 0.06973203 -0.020932524 0.08368093 0.12716383
-0.018681142 -0.056635313 0.010349341 -0.029019952 0.0015492024 0.05240826 -0.0056311972 0.03846751
0.030273851 0.038946982 0.020652544 -0.020886531 0.050225038 0.029788483 -0.049105234 0.012430859
-0.0014436936 0.0076202527 0.032513477 -0.020726016 0.030563235 -0.019887296 0.02164074 0.022536952
0.019053278 -0.057506002 -0.03950094 -0.043113746 -0.040578626 0.017762022 -0.00041126023 -0.025113296
-0.04710571 -0.043496966 0.062649965 -0.041749243 0.0054100915 0.04823423 -0.017997466 0.06778463
0.019504648 0.033492163 0.012498162 -0.007348213 0.045223918 0.03896828 -0.03126218 0.011839762
-0.011817119 0.009130428 0.014346072 -0.022956057 0.012820322 -0.032789405 0.015031699 0.018913098
0.022855805 -0.037489295 -0.03806492 -0.013767201 -0.02740794 0.0154041145 -0.026113052 -0.023266094
-0.2019533 -0.03635576 -0.005888533 -0.14479817 0.052059393 -0.059329014 -0.08685032 0.03584166
-0.13145086 -0.061337244 -0.022805441 0.019632353 -0.096240245 0.20269889 0.055993658 0.06307047
-0.08419685 -0.09183857 -0.025646167 0.048514813 -0.14238907 -0.05554143 0.012651286 0.01318887
0.12796327 0.061296124 0.015667079 -0.04617701 0.045687273 0.3182653 -0.0331408 0.07321595
-0.19827023 0.009133861 0.044357646 -0.16197301 0.13146946 -0.07173361 -0.05276199 0.09795297
-0.1125856 -0.024688706 0.03612781 0.033403948 -0.06499809 0.17856416 0.016716346 0.015875332
-0.08827508 -0.12110594 0.02406283 0.06885528 -0.12049842 -0.072590716 -0.029774293 -0.010123339
0.12526526 0.0013162278 0.015456894 -0.06701817 0.0061316467 0.33717752 -0.01869183 0.024301993
-0.2051113 0.03417489 0.07314876 -0.15227525 0.13629079 -0.059853822 -0.03651605 0.11931932
-0.16889884 -0.0081891725 0.036331706 0.037804022 -0.017822148 0.1884604 0.024647143 -0.0015742254
-0.11471696 -0.14386587 0.03889204 0.04137139 -0.12518972 -0.10047162 -0.03909217 -0.028167272
0.107190095 -0.02268331 0.0006465169 -0.07228589 0.0139708035 0.2799902 -0.015599195 0.06358599
-0.155683 0.03029432 0.106921405 -0.13930254 0.0352547 -0.023563502 -0.009089739 0.07729948
-0.14666398 0.07338526 0.027174618 0.046750527 0.024336098 0.13687865 0.030677255 -0.028866716
-0.09298436 -0.06837541 0.0035384572 0.014173317 -0.055181835 -0.114184216 -0.04321534 -0.04684726
0.02680891 0.038356014 -0.010788712 -0.05580929 0.00090253644 0.14888251 0.06622687 0.046929304
-0.02654523 -0.05538886 0.009166443 -0.02741088 0.0033007548 0.047568213 -0.0073945792 0.042790826
0.02315321 0.041207585 0.017882809 -0.015977861 0.04489283 0.030944347 -0.048325945 0.012874361
-0.0028250727 -0.002612227 0.034442827 -0.025693739 0.024664333 -0.0035083243 0.028787827 0.023585888
0.02058251 -0.06283882 -0.053412076 -0.040685788 -0.0417033 0.018092752 0.00075291895 -0.015720215

embedding.conv1.weight f4 [32, 1, 4, 4]
00000000: 3040 01bc 7e9c 1b3d ab1b 623c 77b2 a53c
00000010: 6513 49bb 11e9 883b 55c9 953c f099 8d3b
00000020: 65c8 90bc f19f 13ba 0619 f53c 35aa 0f39
00000030: a0af a2bc c455 1b3c adb9 5b3c 89eb 27bc
00000040: f74e 633b 5b9b 133c f49a 97bc 1c79 ce3c
00000050: d0fc bcba 3bd6 1fbc 92a6 f63c 552f bc3c
00000060: 8ca1 35bd 3949 413d c643 3e3d 9429 4a3c
00000070: 2e24 1dbc 4c55 883d 89ed b83c 3b48 843c
00000080: f442 73bd 3498 5c3c 9d6e c33c 3a69 0b3d
00000090: 4bb7 b3bc 416f cd3c d0f4 cb3c 8566 9bbc
000000a0: c3bb afbb ec83 e23c fd87 8abb e1b5 c03b
000000b0: d597 533b 4ad1 87bc cd68 6bbc 391e 19bc
000000c0: 605e d2bc 23aa a23c 6034 c0bb bae2 1d3c
000000d0: 4774 6ebb 3a58 dd3b fc6b e4bb 77ef f33b
000000e0: a111 66bc 2a87 4c3a 737c fb3b ebc8 513c
000000f0: 54c7 93bc aa79 d43c 5a05 8239 3985 773c
00000100: 451b 9b3c 3cff d8bc 68a8 87bc 6df5 d3bc
00000110: 0a49 13bc 38db 1ebc 7871 173c 48a4 67bc
00000120: afcb 28bc 293d 8e3b 408d a3bb 6937 98bb
00000130: 044b 573c 880c 39bb 4a42 dfbc ca65 1ebb
00000140: 5260 c9bc fbd4 34bc 6818 fc3c 53fb a23b
00000150: 6607 d5bc 696c 8cbb c9e2 f63c bf6f f5bc
00000160: ba90 a0bc 0d1c 523c 2410 89bb e8a3 173b
00000170: bdde 14bc 2d7b f4bc b172 d9bc 5928 1fbd
00000180: 5278 0bbd 097f 48bd 41e7 af3c 0989 85bb
00000190: 092e 77bd d481 a6ba 719e 963c adf4 dcbc
000001a0: 169f 44bd 473a 2a3d 7d36 abbb dac9 6cbc
000001b0: c9ee bfbb 4c44 a13c caf2 a5bc 7774 40ba
000001c0: 6e4d 20bd 0e5c a1bc de40 84bd a5af d13c
000001d0: b18b f8bc d743 54bc bd27 d9bc c9b1 a73c
000001e0: d5a3 3bbd f26e 103c ec69 61bc e41a 273d
000001f0: 1714 a9bd 26d3 9d3b 586a 7f3b 85b9 f33c
00000200: 630f c93c e6e8 273c c9ec dd3c 4fe5 803b
00000210: 54fd 463c 6dd4 5bb9 94c0 1c3c a033 15bc
00000220: 0326 db3c be92 44bc 5f2e 733a 1a47 dc3b
00000230: 348b 223d 2389 d9bb 0480 473c 74af 72bb
00000240: 1fd1 8e3a 9ae6 cf3c 4b46 a33c fce7 793c
00000250: 8d8b 62bb e4bf 423c 681a 593b 0c4b 093b
00000260: 611b cbbb 472e 363c 4563 ef3b 5c7f c33b
00000270: 6109 28bb ac01 6cbb db34 003c 0d2c c9ba
00000280: b000 133d 2778 b8bc 5b53 95bd 75ba e8bc
00000290: 8b13 f43c 0063 6dbd af41 f5bc 1033 64bb
000002a0: a0c8 b5bc 259b 96bc e1b3 fc39 358c debb
000002b0: 83d1 97bb 13c6 bc3c b9e7 36bc c831 f6bc
000002c0: b77b 68bb 21d2 503c 0ca9 cdbc 3385 2bbc
000002d0: 7674 913c fffc b63c c033 dabc 293d bd3c
000002e0: ea7c 203d dfcc 58ba 287c ddbc 913a 1a3d
000002f0: ba77 173d e33d d63b 6978 18bd 96f1 e83c
00000300: 67a1 3b3c 97d9 e63b 7031 ac3b 2a99 b2bc
00000310: f100 1bbc 8706 b2bc 1615 073d 4998 bdbc
00000320: 9166 86bc 7290 ab3c c89c bd3c e5b4 4cbc
00000330: 906e 213a d527 003c c2b8 353c 6bff e7bc
00000340: 7ad0 97b9 4afc 323c 79eb a1bb 3e30 0c3c
00000350: 1266 a0ba dc68 323c 9012 9ebc ad81 4a3c
00000360: 7d32 31bb 2d88 0fbd a15c bc3c 1cf7 383a
00000370: 7e87 6abc 9bae a63b 74ec 013d c0a1 e03c
00000380: 75ce 423d 0782 07bd 56ba 543d 0ce2 4b3d
00000390: a7dd 273c 2508 89bd 1931 2b3d 7e4e e93c
000003a0: 3761 97bc 4478 13bd 687c d53d efac 50bb
000003b0: cac6 a5bc 2a5b 333b f779 9d3d 24c9 f7ba
000003c0: 8afa 833d 5dad 923c bf88 06bd a608 11bd
000003d0: 6a53 113d b651 473a 76e4 19bd 47a2 b5bc
000003e0: 1e15 fd3b 3c8d 0a3d 8631 d1bc 1088 1fbd
000003f0: 03c3 023d 25a2 f23a c343 9ebd 0d16 6fbd
-0.007888839 0.03799104 0.013800542 0.0202267 -0.0030681726 0.0041781743 0.01828448 0.0043213293
-0.01767368 -0.0005631438 0.029919159 0.0001370095 -0.019859135 0.009480897 0.013410968 -0.010249027
0.0034684518 0.009009208 -0.018506505 0.025204234 -0.0014418606 -0.009755666 0.030108724 0.022971788
-0.044343516 0.04718897 0.046451353 0.012339015 -0.009591145 0.06656894 0.022574203 0.016147723
-0.059390023 0.013464022 0.023856455 0.0340359 -0.021937987 0.025077464 0.02489701 -0.018969784
-0.005362959 0.027650796 -0.004227637 0.0058810567 0.0032286544 -0.016579289 -0.014368248 -0.009345585
-0.025679767 0.019856518 -0.0058656186 0.009636575 -0.0036385225 0.006754902 -0.0069708806 0.007444318
-0.014042289 0.00078021234 0.0076747476 0.01280425 -0.018039383 0.02593692 0.0002479952 0.015107446
0.018933902 -0.026488893 -0.016559795 -0.025873864 -0.008989582 -0.0096958205 0.009243362 -0.014138289
-0.010302468 0.004340787 -0.0049912035 -0.0046452773 0.013140444 -0.002823623 -0.027253289 -0.0024169558
-0.024582062 -0.011037107 0.030773357 0.004973808 -0.026004504 -0.0042853844 0.030137436 -0.029960511
-0.019600261 0.012824071 -0.0041828323 0.0023138467 -0.009086308 -0.029843891 -0.026543947 -0.038856838
-0.034050293 -0.048949275 0.021472575 -0.0040751738 -0.060346637 -0.0012703487 0.018386098 -0.02697214
-0.04800328 0.041559484 -0.0052250014 -0.014452422 -0.005857323 0.019685887 -0.020257372 -0.00073415734
-0.039136343 -0.019697215 -0.06457685 0.02559645 -0.030340048 -0.012955627 -0.026508207 0.020470517
-0.04581054 0.008815514 -0.013758164 0.04079713 -0.08255785 0.0048164306 0.0038973298 0.029751549
0.02454347 0.010248398 0.027090447 0.0039335857 0.012145359 -0.00020964602 0.009567399 -0.009106547
0.026751524 -0.011997877 0.0009276624 0.006722343 0.039683536 -0.0066386624 0.012176517 -0.0037030848
0.0010896063 0.025378514 0.01993098 0.015253063 -0.0034568042 0.011886571 0.0033127312 0.0020949272
-0.006198332 0.011119432 0.007305535 0.00596611 -0.0025640356 -0.0036011739 0.007825102 -0.0015348211
0.035889328 -0.02251823 -0.072912894 -0.028409222 0.029794475 -0.057955742 -0.029938547 -0.0034820475
-0.022190392 -0.018384526 0.00048199206 -0.0067916163 -0.00463313 0.023043668 -0.011163645 -0.030053034
-0.003547413 0.012745411 -0.025105022 -0.010468769 0.017755728 0.022337435 -0.026636004 0.023100452
0.039181627 -0.0008270274 -0.027036741 0.03765351 0.036979415 0.006538139 -0.037224207 0.02843551
0.011452056 0.0070449817 0.005254917 -0.02180155 -0.009460674 -0.021731628 0.032979093 -0.023143904
-0.01640633 0.0209429 0.023146048 -0.0124943005 0.00061581377 0.007821997 0.011091413 -0.028320035
-0.00028956291 0.010924408 -0.0049414006 0.008556424 -0.001223745 0.010889258 -0.01929596 0.012360019
-0.002703815 -0.035041977 0.022993388 0.0007055865 -0.01431453 0.0050867326 0.03171964 0.027420878
0.047560174 -0.033082988 0.051935516 0.049776122 0.010245717 -0.066910066 0.04179487 0.02847981
-0.018478973 -0.036003366 0.10424119 -0.0031841358 -0.020236392 0.002736757 0.076892786 -0.0018904549
0.06444271 0.017904932 -0.032845255 -0.03540864 0.03547994 0.00076034234 -0.037571393 -0.022172106
0.0077234646 0.033826098 -0.02553631 -0.03894812 0.03192426 0.0018511458 -0.07727768 -0.05837064

embedding.conv1.bias f4 [32]
00000000: 4ddc 3dbb f316 b53c 2a58 fa3b 42be 0bbd
00000010: 4508 383d 6f38 14bd a864 4bbd 4a63 3f3b
00000020: f646 6d3d 1246 b0bc 56ad 3ebd f9a1 dc3c
00000030: f8e6 29bd 4663 fe3c dad5 d73c d553 dabc
00000040: 7529 64bd 67b7 663d f421 92bb f19f 7c3d
00000050: d2b6 03bd 9490 06bd 699d 1cbd 6433 48bd
00000060: 9f74 673d de2d d9bc 7774 d73c b6ba 6b3d
00000070: 837a 143d 4873 ed3c 123e 17bd 71e3 71bd
-0.002897042 0.02210567 0.0076399045 -0.03411699 0.04492976 -0.03618663 -0.04965654 0.0029203468
0.057929 -0.021517787 -0.046552025 0.026932703 -0.041480035 0.031053197 0.02634709 -0.026651302
-0.0557036 0.05632725 -0.004459614 0.06167597 -0.032156773 -0.032852724 -0.038236056 -0.048877135
0.056507703 -0.026511129 0.026300652 0.05755111 0.03624965 0.028985634 -0.03692443 -0.059054796

encoder.0.attention.queries.weight f4 [32, 32]
00000000: 4c4a b7bd 41a4 edbd 24e5 b3bc 0c6a 893d
00000010: af4f a6bc bd1b 383e 0d26 c13d c773 df3d
00000020: b6be 1dbe e3ba 393a 579f 353e c988 2ebe
00000030: 1939 7b3d 717b a9bd 26bd 10be feb3 fa3d
00000040: dbda 1f3e 2398 20be 5504 e13d 3241 c3bd
00000050: a881 a93d cc51 a83d f97f 1a3e 8cef ec3d
00000060: 1711 debd 7f69 67bd 6353 04be cb9b 36be
00000070: d850 11be 1fb2 19bd 9a30 b9bd bfdf f73d
00000080: ec1c d33d eba9 223e a3ec 12bd 008d 82bd
00000090: a95e 5d3d 7d9c 04be 91e4 afbd 6fc1 e6bd
000000a0: 3ac4 243e 810d e8bc 782e 1bbe f6c8 583e
000000b0: 33d1 6bbd f00e 9b3d dec9 f73d 5f67 a4bd
000000c0: 7c12 1fbe 4d99 243e c4f2 d5bd 2547 c63d
000000d0: 1a39 57bd ac6d c5bd e001 f6bd 261d 01be
000000e0: d281 0c3e 2a6a 103d 2aac 533e df7b 0c3e
000000f0: a3c4 103e 1eb4 0d3d 41d2 223d c40a 1bbe
00000100: 8954 c7bd 1fe2 2fbe 028b 32bc 5f62 3f3d
00000110: 5fe8 92bc f95b 1e3e f85c dd3d 8d39 1a3e
00000120: 07f2 f1bd 6114 633d edc8 143e ea4e 37be
00000130: 7784 833d a7e8 b2bd a1fa e0bd 52da d83d
00000140: 82d0 e83d a1e2 fabd 14d5 d03d 05fa bbbd
00000150: c792 7b3d f365 9c3d 18e5 103e 722a 143e
00000160: 9e2d dfbd 483b 9abd a268 24be e878 01be
00000170: c75f 21be 7fb0 c6bc 8680 87bd cc39 e13d
00000180: 9f05 71bd 171b 0fbe e7a5 8d3c f248 383d
00000190: 5ce4 7fbd 6c92 113e 8b52 b53d 6f48 b53d
000001a0: a987 15be 239a f3bc 3499 163e e739 1fbe
000001b0: 623f b23d aa68 0abe aa81 28be 0039 b23d
000001c0: 6c9b 113e e43d 12be 1283 0c3e 7ff0 b9bd
000001d0: abcf e93d b1ed a73d 0fe3 033e e7a5 483e
000001e0: 9e41 00be 23ee 5bbd b909 12be adc1 e3bd
000001f0: d51d 9abd dac9 46bd 9844 7fbd 4fa9 113e
00000200: c1f3 3bbc ba0e 2bbe 97b5 363d 4279 963d
00000210: cca3 35bd c975 123e 645f 083e dc23 9c3d
00000220: 350d 07be 164e 27bd cae7 2b3e b6a3 29be
00000230: 1f36 d03d af71 b8bd b9de 01be e6ee d23d
00000240: d1db fd3d 1cd4 03be 738d b43d cdc2 9ebd
00000250: c4a2 c43d 6451 003e 284a 0b3e 1cdb ff3d
00000260: dd84 04be ba53 fcbc 9b9d 40be eab5 49be
00000270: a2ae 04be 858d b1bd 2b87 54bd c956 1a3e
00000280: 3cb0 9f3c 4aa5 2d3e c459 3bbd 528c abbc
00000290: f351 8f3d d3fa fdbd 4a8c 08be 450e 01be
000002a0: 0e2d f13d 513c cebc 21e7 34be 0ed2 1b3e
000002b0: d3ba b7bd 7e83 b03d fcc8 1a3e 8268 d5bd
000002c0: 85a3 33be 2655 123e 70a7 eebd 359d d53d
000002d0: f197 52bd 2d40 adbd b859 efbd c563 22be
000002e0: 0683 0d3e aaf1 103d 0eb6 453e 0d84 223e
000002f0: bdc2 103e 7b7c 4c3d f59b 8a3d ac59 fdbd
00000300: b1e0 4bbd 26a8 0bbe 3544 753c e9d9 b73d
00000310: 4356 58bd bc07 293e 184d 003e b775 f63d
00000320: b762 14be 07c7 323c 4e28 333e 4024 48be
00000330: 4af9 903d 1d03 9cbd 5972 09be fc66 ce3d
00000340: 28ac 2d3e dd43 fcbd 9b9e d93d be44 d7bd
00000350: 4cbb a73d 90a7 9f3d d375 243e 72fb 063e
00000360: 93df cfbd b396 8abd f495 1cbe 68dd 13be
00000370: 4610 d9bd 818c 9cbd faa2 bdbd 8ea5 af3d
00000380: 6f21 3a3d c563 173e 7131 bf3c 5803 bdbc
00000390: 9fb2 d43c ade3 05be c7bf 02be 8967 fabd
000003a0: e1fd 2d3e 4c73 54bc 10ce 12be f2d9 343e
000003b0: 7840 e0bd bc51 cd3d ee22 123e 3615 b3bd
000003c0: ec49 11be 7b75 073e 7d30 c7bd d953 813d
000003d0: 1bf5 93bd 6229 debd 9bc7 fbbd 3c10 2cbe
000003e0: 4ada dc3d 36ba 913d 66cf 2f3e dff7 013e
000003f0: e277 193e 2bbc 803d 03d0 5e3d 22ea ecbd
-0.08949718 -0.116035946 -0.021959849 0.0670968 -0.020301668 0.17979331 0.09431086 0.10910755
-0.15404782 0.0007085038 0.17736565 -0.17044367 0.06133375 -0.08275498 -0.14134654 0.12241362
0.1561083 -0.15683036 0.109871544 -0.095339194 0.08276683 0.082187265 0.1508788 0.115691274
-0.108431034 -0.056497093 -0.12922435 -0.17832868 -0.14190996 -0.037523385 -0.09042473 0.12103223
0.10308251 0.15885131 -0.035870206 -0.0637455 0.054045353 -0.1295032 -0.085885175 -0.11267363
0.1609048 -0.028326752 -0.15154445 0.2117041 -0.057572555 0.075712085 0.1209905 -0.08027529
-0.15534395 0.16074105 -0.104466945 0.096815385 -0.05254469 -0.09640059 -0.120120764 -0.12608775
0.13721398 0.035257496 0.20671144 0.13719128 0.14137511 0.0345956 0.039751295 -0.15140826
-0.09732921 -0.17176102 -0.0108974 0.046724673 -0.017933069 0.15464772 0.10808748 0.15061016
-0.11813741 0.055439357 0.14529772 -0.17901197 0.0642175 -0.08735781 -0.10985304 0.10588516
0.11367895 -0.12250257 0.101968914 -0.09178547 0.061419275 0.07636633 0.14149892 0.14469317
-0.10897373 -0.07530838 -0.16055539 -0.12643778 -0.15759192 -0.024254082 -0.06616311 0.10997352
-0.05884325 -0.13975178 0.017291022 0.04499144 -0.06247364 0.14216012 0.088536344 0.08851706
-0.14602531 -0.029736584 0.1470688 -0.15549432 0.087034956 -0.13516489 -0.16455713 0.08702278
0.14219445 -0.14281422 0.13721874 -0.09079074 0.11416563 0.08199633 0.12879585 0.19594537
-0.12525031 -0.0536939 -0.14261521 -0.11120925 -0.07525221 -0.048532344 -0.062321275 0.14224742
-0.01147169 -0.16704836 0.04460677 0.07347347 -0.044345662 0.14302744 0.13317639 0.07624027
-0.13188632 -0.040845953 0.1678764 -0.16566357 0.10166573 -0.090060584 -0.12682618 0.102994725
0.12395442 -0.12873882 0.08816042 -0.07751999 0.096013576 0.12531048 0.13602507 0.12492964
-0.12941308 -0.030801643 -0.18810122 -0.19698301 -0.12957242 -0.08669571 -0.05188672 0.15072168
0.019493215 0.16957584 -0.045739904 -0.020940933 0.069980524 -0.124013565 -0.13334766 -0.126031
0.117761716 -0.025175245 -0.17666294 0.15216848 -0.08971181 0.0861883 0.15115732 -0.10420324
-0.17542847 0.14290294 -0.1165303 0.104303755 -0.051414434 -0.08459506 -0.11687034 -0.15858372
0.13819513 0.03538672 0.1930773 0.15870686 0.14136787 0.0499234 0.06768028 -0.12370619
-0.04977483 -0.13638362 0.014969875 0.0897711 -0.05281664 0.16506857 0.12529409 0.12034171
-0.14490782 0.01091171 0.17495844 -0.19545078 0.07078798 -0.07617781 -0.13422526 0.100782365
0.16960204 -0.123176314 0.10625955 -0.105111584 0.08190021 0.07795632 0.16060571 0.13181856
-0.10150065 -0.06767025 -0.15291578 -0.14439929 -0.10598807 -0.076439865 -0.09259601 0.08576499
0.04544204 0.14784153 0.023339005 -0.023072883 0.02596408 -0.13075133 -0.1276847 -0.12226779
0.16991378 -0.012966942 -0.14336419 0.17661265 -0.109497964 0.10025355 0.14271137 -0.0874428
-0.14188355 0.13228409 -0.09726045 0.06314821 -0.072244845 -0.10847737 -0.12293931 -0.16803068
0.10783823 0.07115595 0.1716896 0.12692212 0.14987138 0.0628589 0.054397594 -0.11568095

encoder.0.attention.queries.bias f4 [32]
00000000: 746f 7dbd 3696 833d f5a0 8dbd 1fd7 a8bd
00000010: c5b2 93bd dbc7 9f3d f4e2 9bbd 9e62 953d
00000020: dec4 ecbd aeb6 e53d 4a6d ed3d 52c9 ccbd
00000030: 22c5 d13d 9742 fb3d 0a27 fdbd 8b45 d2bd
00000040: 4261 10be ea9d cf3d ccd5 06be 0687 1b3e
00000050: 6ac5 05be ec0c 05be ea20 0ebe fc2e e5bd
00000060: b844 c93d d4d6 afbd 8b23 ad3d 2bac a1bd
00000070: 259b aebd 21d1 84bd ba30 c03d 3b81 a33d
-0.061873868 0.06425135 -0.06915466 -0.08244156 -0.07211832 0.07801791 -0.07611647 0.072942
-0.11560987 0.11216484 0.11593111 -0.09999336 0.10242678 0.122685604 -0.12360962 -0.102671705
-0.14099601 0.101375416 -0.13167495 0.15188226 -0.13063589 -0.1299321 -0.13879743 -0.11190602
0.0982756 -0.08585897 0.08454045 -0.078941666 -0.08525685 -0.06485201 0.09384294 0.07983633

encoder.0.attention.keys.weight f4 [32, 32]
00000000: abb3 e5bd 2a3b 1dbe 4b2b 7d3d 8ba5 25be
00000010: 022a a43d 099a e03d 2ba0 1b3e 38de 093e
00000020: 81e0 25be 789e dabd 14fa 023e 05b8 0bbe
00000030: 92fc 373d 056a f9bc f51c 0abe 11ff bc3d
00000040: 879c 0d3e 0281 2dbe f2cd af3d 6ac2 d8bd
00000050: 53db 65bd f38c 023e e22f 863d cf46 203e
00000060: d0a3 0ebe 3417 efbd 7b81 f4bd eb25 18be
00000070: 9c48 e1bd 1910 b83d 9442 93bd 8afe 1b3e
00000080: ff85 fd3d dc4c f83d a6f2 f53b c5ee 013e
00000090: f2d3 00be 6675 24be d676 1ebe 3f6f 18be
000000a0: b68b 1a3e d149 b83d 6a07 05be 2189 203e
000000b0: 58fe 83bd 9d15 313d ffa1 fa3d f973 95bd
000000c0: cd8b 13be c626 293e 7d3e f1bd 0a73 d43d
000000d0: 09ce aa3d 9ae0 39be a577 c7bd 5188 f0bd
000000e0: 8890 db3d 13a4 fd3d 7c75 d93d 90bd 063e
000000f0: 8585 2b3e 4bf7 cebd 6a93 d13d 7544 e4bd
00000100: 99b5 15be 4c9f b9bd 34f4 4a3d 89cb 96bd
00000110: f5de 7d3d 0c60 353e 66e0 293e 9e4e 0a3e
00000120: bd4a 0dbe 6e65 cebd cf5c cf3d 3b6f 34be
00000130: 93c7 ad3d 7c3f fdbc 063c 1cbe a70c a73d
00000140: 6419 273e 6954 11be bef5 ad3d b916 10be
00000150: 8a76 dbbd 0a2b c93d 9feb 0c3e a6bc 0e3e
00000160: d524 a6bd a72d 5bbd 35b1 2bbe 4ef8 11be
00000170: 102a e1bd 4151 633d 377e e5bd d829 ef3d
00000180: 042c d7bd e188 28be e3b2 933d 877d bfbd
00000190: f04a 923d 8f41 2b3e 3f7d ea3d 1859 c63d
000001a0: 70a9 2abe 0114 62bd ae6a 073e 9ae5 33be
000001b0: fa0d a83c 6121 cfba 28b6 e7bd 6aa1 963d
000001c0: 4435 203e 3233 13be 3165 e53d ce7b d1bd
000001d0: f1ce 6dbd 3f8e c33d 4470 d93d a5f8 263e
000001e0: 3556 b4bd d86e d9bd de57 0ebe 16d1 29be
000001f0: cac6 19be b582 ed3d 63fe f0bd cc0b 193e
00000200: 2cac c0bd c2b6 33be 8c72 903d 29c3 e2bd
00000210: 0c14 8e3d 7bdf 413e 7d07 0f3e a8d5 e13d
00000220: ca39 28be 59e5 a3bd ec17 023e f05a 27be
00000230: a09e 5a3d 55fc 63bd 03d0 1ebe 602a e53d
00000240: a4cc e33d 0658 13be 9f00 c83d 3c35 80bd
00000250: 5479 adbd 008c e93d c455 063e 60b3 a93d
00000260: 1eeb 01be fc93 eabd 1e8d 07be 39d0 03be
00000270: 059a a8bd b379 a73d 1670 aabd 2ce8 e53d
00000280: 136d e73d 9c8b 043e 0e72 2bbd a3fa aa3d
00000290: d9b0 36bd 5e33 04be 6081 2abe fdd6 9ebd
000002a0: 1077 123e 075d 993d bbeb 0cbe 06da 493e
000002b0: aa6d 243c 48ab 3f3d a980 183e ceb7 eebd
000002c0: f7fc 3fbe fe27 2f3e b7d5 c7bd b728 b03d
000002d0: 5d0b 9c3d bfd9 08be bf9f cfbd 7e00 0abe
000002e0: e916 cc3d f1b4 e63d 5153 0b3e 12d6 243e
000002f0: 162b 043e 7020 f4bd 1577 aa3d 6e3f d5bd
00000300: fa2e c8bd 5131 08be f2d3 853d 57a2 60bd
00000310: 1f9d bf3d a832 253e c824 c03d b973 c03d
00000320: d322 3cbe 5fe5 aabd d4f5 0b3e 9361 13be
00000330: 392e 6a3d ac8b e8bc e249 04be 109f 043e
00000340: 0581 133e cecf 13be ca29 ab3d c3bc dabd
00000350: 46fd cfbd f4d8 f13d 07b8 253e 429a d63d
00000360: 32b8 9abd 3357 e7bd 913a 1bbe 0112 32be
00000370: 8ec8 e6bd 066b a53d 3d7e eabd 8573 153e
00000380: 5519 083e 3235 1c3e 9dc0 c63b c32f aa3d
00000390: f2a5 4abd bcf9 2abe 1acc 13be aa92 f3bd
000003a0: f8ba 083e 9fae 8f3d 438f 0cbe 82b2 203e
000003b0: 04a8 4abd 711e b03c c368 0e3e 9670 e9bd
000003c0: 5a3e 07be 425a 123e 647d aebd c742 bb3d
000003d0: adec 8f3d 7b6a 06be 1faa bdbd 69a5 18be
000003e0: 2461 083e 580d df3d 3f16 033e 7335 1c3e
000003f0: 85a4 143e 0a5e cdbd 1709 763d f736 e0bd
-0.112159096 -0.153546 0.061808866 -0.16176431 0.08015825 0.1096688 0.15197818 0.13463676
-0.16198923 -0.10674757 0.1279071 -0.13644417 0.044918604 -0.030446062 -0.13487609 0.092283376
0.13829242 -0.16943744 0.08584203 -0.105839565 -0.056117367 0.1274908 0.06552102 0.15652011
-0.13929677 -0.116743475 -0.11938759 -0.14858215 -0.11000177 0.089874454 -0.07190433 0.15233818
0.12379073 0.12124035 0.0075057326 0.1268874 -0.1258085 -0.16060409 -0.1547502 -0.14886187
0.15092358 0.08998454 -0.1299111 0.1567731 -0.064449966 0.043233503 0.122379296 -0.07297511
-0.14408799 0.16518697 -0.11779497 0.103735045 0.08340079 -0.18152085 -0.09739617 -0.1174475
0.107209265 0.1238481 0.106181115 0.1315825 0.16750152 -0.10105761 0.10233195 -0.1114587
-0.14620055 -0.090635866 0.049549296 -0.0736304 0.061980207 0.1771242 0.16589507 0.13506553
-0.13798042 -0.1007794 0.10125124 -0.17620556 0.084853314 -0.03091406 -0.15257272 0.0815671
0.1631828 -0.14192356 0.08494137 -0.14071168 -0.10715969 0.09822662 0.13761757 0.13939151
-0.08112494 -0.053510334 -0.16766818 -0.14254877 -0.10994351 0.05549741 -0.11205714 0.11677903
-0.10506442 -0.16458465 0.07211854 -0.09350114 0.071431994 0.16724227 0.1144967 0.09684962
-0.16666198 -0.05519486 0.13224289 -0.17568055 0.020514477 -0.0015802794 -0.113140404 0.07355006
0.15645319 -0.14374998 0.11200941 -0.10228692 -0.058058683 0.09548616 0.10617116 0.16305788
-0.08805505 -0.10616845 -0.13900706 -0.16583666 -0.15017238 0.11597196 -0.117672704 0.14945906
-0.09407839 -0.17550185 0.07053098 -0.1107238 0.069374174 0.18932907 0.139677 0.1102708
-0.16428295 -0.08002729 0.12704438 -0.16343284 0.053373933 -0.055660564 -0.15509038 0.11189723
0.111230165 -0.14389047 0.097657435 -0.06260154 -0.08470407 0.11403656 0.13118654 0.08286166
-0.12687346 -0.11454007 -0.13237426 -0.128724 -0.08232502 0.08177509 -0.0832216 0.11225924
0.11300101 0.12943882 -0.041856818 0.083485864 -0.04460225 -0.1291022 -0.16650915 -0.077558495
0.14303231 0.07488447 -0.13761799 0.19712076 0.010035912 0.046794206 0.1489283 -0.11656152
-0.18748842 0.171051 -0.0975756 0.08601516 0.07619355 -0.13364314 -0.10137891 -0.1347675
0.09965307 0.112649806 0.13606001 0.16097286 0.12907061 -0.119202495 0.08323494 -0.10412489
-0.09774585 -0.13300063 0.06534566 -0.05484232 0.0935614 0.16132605 0.093820155 0.09397072
-0.1837266 -0.0834453 0.13667995 -0.1439269 0.057172988 -0.028386913 -0.12918809 0.12951303
0.14404686 -0.1443474 0.0835758 -0.10680535 -0.1015573 0.11808959 0.16183482 0.10478641
-0.07554664 -0.11295929 -0.1515906 -0.1738968 -0.112687215 0.08077054 -0.11449859 0.14594848
0.13290913 0.15254667 0.0060654418 0.08309891 -0.049474664 -0.16696829 -0.14433327 -0.11893208
0.13352573 0.07015728 -0.13726525 0.15693095 -0.04947664 0.02149889 0.13907151 -0.11398427
-0.13207379 0.14292243 -0.0852001 0.09143596 0.07027564 -0.13126557 -0.09260964 -0.14906849
0.13318306 0.10891217 0.12801455 0.15254764 0.14515884 -0.10027702 0.060067263 -0.10947984

encoder.0.attention.keys.bias f4 [32]
00000000: 16a0 bc3a fff7 57ba 67ae 823a 77e7 2a3a
00000010: cb39 11ba 538b aeb9 aaa2 98b9 08af 78b9
00000020: b91f 08b7 d990 833a e9bc b439 16c5 bb3a
00000030: 9693 b1b7 3ffe 98ba 025c 07ba bd29 2ab9
00000040: 7de8 d63a a3e1 66ba 276a 4b3a 6937 abba
00000050: b62c 3f3a 1f07 d639 6ac6 6d39 fee3 883a
00000060: a88b 0139 aae3 c8b8 d620 b039 5957 2c3a
00000070: 9cbd afb9 9572 09ba 8eb8 a839 f64b 0c39
0.0014390971 -0.00082385534 0.0009970189 0.00065194763 -0.0005539923 -0.0003329167 -0.00029112893 -0.00023716327
-8.113618e-06 0.0010037675 0.00034473024 0.0014325704 -2.116877e-05 -0.0011672451 -0.00051635515 -0.00016228012
0.0016396191 -0.0008807426 0.00077596534 -0.0013062778 0.0007292734 0.00040822566 0.00022675996 0.0010443924
0.00012354425 -9.579149e-05 0.000335938 0.0006574295 -0.0003351987 -0.00052432093 0.0003218096 0.00013379738

encoder.0.attention.values.weight f4 [32, 32]
00000000: 3863 3e3b d152 833c 17c7 50bd 5d5e 053d
00000010: 242b a3bb 390f 6ebd d9d7 1dbd 8bea 05bd
00000020: 8f43 35bc fada c73c a5be dbbc cb38 713d
00000030: 6830 fd3c 6612 b0bc 9ce7 013d d4c5 05bd
00000040: ef31 87bd ea63 0a3c 54fc a4bc a114 0ebd
00000050: 743b 1abc d1fa d33c 0065 d2bc f357 1bbd
00000060: 11d5 953d 7dd8 cd3c 62b1 b83c d85f 573c
00000070: 7c56 f03c bf9a 45bc fb21 443c 1359 f73c
00000080: 4b4b 2dbd adfe 7bbd d493 e63b 319f 1dbd
00000090: 47a3 433d f70b 913d 7b50 7d3d a4a7 973b
000000a0: 4b40 c1bc dc89 6cbd b9b3 863d fbfe 1dbd
000000b0: 3a84 f33a 98ea 483c 6767 92bd 0caf c63d
000000c0: b6a4 f73d 77b4 8cbd a32b 733d 7583 bbba
000000d0: 7ed9 fbbb a87e 893c 97f7 a53d d7ad 953d
000000e0: 2ea1 c0bd 8a58 afbc f640 75bd 6576 32bd
000000f0: b062 65bd bf9d 303d 3db7 03bd 4f81 b33d
00000100: 3523 57bc e2c2 acbb 2300 553b e78c 1fbc
00000110: f01d 423d 8295 98bb b0ed 24bd 60ea 05bd
00000120: 06c6 953d eac9 77bc 1361 ed3a 5ed7 2d3d
00000130: 85dd c6bc f408 88bc 6f21 163d f93e a53c
00000140: 7b49 abbc 6fe1 de3c 5a9a 933b 0fc1 8c3c
00000150: d7f9 173d 363e 84bd 6d05 38bd 0d6d faba
00000160: 68d7 cd3b c93f b6bc d35f af3c 2b6a 89bb
00000170: c66f a53c f5b1 68bd 7427 b23c 9bd2 39bb
00000180: d2c1 8b3c 17f1 a4bc 2cc1 72bd 38f1 b53c
00000190: f7ee eabc 5fa3 b6bb a2ac 22bc 6b5f 37bc
000001a0: 4068 bcbc a09e 0a3d d683 293c 5f42 fbbb
000001b0: 1049 5e3c 747f 97bd d19f 1abd b93f 7b3a
000001c0: 3b68 b7bc 1baf e1bc b7c2 10bd 6054 adbc
000001d0: 4866 d0bc 90a1 6f3d 09a5 813d 1208 d6ba
000001e0: cfdd 163d 4ae2 be3a fe10 2abd 4972 033d
000001f0: df6f d13b f8a3 1abd 0188 593a 4f86 943c
00000200: 1df4 0cbd e23d 7a3b 63b1 9b3d 3ab4 4cbd
00000210: 8568 80bb bf0c 913d d4e4 e83c 0073 613d
00000220: f2d6 2b3d 6b5b 68bd fde4 15bd aacb 51bc
00000230: 899e 033c 3460 d73c daaa d9ba c501 4f3d
00000240: d9a3 b63d b980 063d 01ff 0ebd f115 c03a
00000250: 7dcc 1abc 7ac5 d7bc d1e3 ed3b e52f 083d
00000260: 7c5b 8abd 9337 fabc bda4 8abb f831 683c
00000270: 448e 34bd e9ff 5a3a 327e 0abd 8b28 ad3c
00000280: 73fd fc3c 7030 7a3d 5e56 d33c 1806 d83c
00000290: 478c 9bbc 877c b1bd 38f3 41bc b245 7bbd
000002a0: 97d1 6a3d f5fc 0b3c f055 16bd 2d3c 773d
000002b0: e009 5c3c 6c2c 79bd 5755 253d 0115 77bd
000002c0: 845d b1bd 34df 783d bc45 3fbd 2185 84bd
000002d0: 4dc3 da3c ec37 7fbd c79e 6fbd 4e67 61bd
000002e0: d39e 083d 9e2b 093d 3f18 7c3d d65a 3f3d
000002f0: 7db8 a63d 2305 01bd 2dfe 963d 9f23 04bd
00000300: 32df fd3c 0bec 553c a7de 5fbd 893b 1d3c
00000310: 1b71 28bd 5c0a 40bd ac0c 86bd 8421 0ebc
00000320: 2603 77bc a390 06bd b2ea 653c b8fb 1b3d
00000330: ad22 3ebb 6448 4dbc 4541 c93c 5d11 933b
00000340: f596 78bd 849c 2c3d d6bc f1bc 8255 813b
00000350: b5a0 52bc 59eb b53c 6893 e0bb 1a70 13bc
00000360: fd23 a73d 51ed 52bb 16f6 003b ab42 d63c
00000370: 4308 043d 6e72 1abd a325 bbba b4ca db3b
00000380: c6ea d1bc e802 8c3c 11d6 323e 2e61 32bb
00000390: ea38 2f3c fd32 41bd 8a5e 82bd 3fee 12bd
000003a0: 08c6 383d 2d92 a1bc d927 31bc 86c4 593c
000003b0: 8049 213d e88f 053d af76 d63c 7fcc ed3c
000003c0: 0f86 673c 5243 083d 6fd3 8cbc 3d67 803c
000003d0: 7a28 adbd 08bd 41bd 331c 0abd d5c4 5ebc
000003e0: db9a d0bb 0fa1 f63c 80bb 873d e690 863d
000003f0: 13a0 9f3c 5bdc 1a3c 00eb c0bb f645 98ba
0.0029050838 0.0160307 -0.050971117 0.032560695 -0.004979508 -0.058119986 -0.038535926 -0.03269438
-0.0110634705 0.024396408 -0.026824305 0.058892053 0.030906871 -0.021493148 0.03171502 -0.032659367
-0.06601321 0.008446673 -0.02013985 -0.034687642 -0.009413589 0.025876435 -0.025682926 -0.03792567
0.0731603 0.025127644 0.02254552 0.0131454095 0.029338114 -0.01206082 0.011970992 0.030193841
-0.042308133 -0.061522175 0.0070366655 -0.038481895 0.047763135 0.0708236 0.06184433 0.0046281386
-0.023590228 -0.05774866 0.06577248 -0.038573246 0.0018578835 0.012262963 -0.07148629 0.09701356
0.12091963 -0.068703584 0.059367787 -0.0014306145 -0.007685839 0.016784027 0.08103865 0.07308548
-0.094057426 -0.021404523 -0.059876405 -0.04356994 -0.05600232 0.04311919 -0.03215717 0.08764898
-0.013130953 -0.0052722553 0.0032501302 -0.009738184 0.047391832 -0.0046564946 -0.04026574 -0.03269422
0.073131606 -0.015123824 0.0018110595 0.04244172 -0.02427555 -0.016605832 0.03665298 0.02017163
-0.020909062 0.027207104 0.004504484 0.017181901 0.0371035 -0.06457178 -0.04492705 -0.0019105986
0.006281782 -0.022247212 0.021407997 -0.0041935644 0.0201949 -0.056810338 0.021747328 -0.002835429
0.017060194 -0.020134492 -0.059266254 0.022209749 -0.0286784 -0.0055736746 -0.009928854 -0.011192183
-0.022998929 0.033842683 0.010346374 -0.007667824 0.013567224 -0.07397357 -0.03775007 0.00095843856
-0.022388568 -0.027549317 -0.035341945 -0.021158397 -0.025439397 0.058503687 0.06330306 -0.001632931
0.036832627 0.0014563289 -0.04152011 0.032091413 0.00639151 -0.03775403 0.0008298159 0.01813045
-0.034412492 0.0038183858 0.07602193 -0.049976565 -0.0039187097 0.07082509 0.028429426 0.055041313
0.041953035 -0.056727808 -0.036595333 -0.012804905 0.008033403 0.02629099 -0.0016606704 0.050538797
0.0891797 0.032837603 -0.03491116 0.0014654977 -0.009448168 -0.026339281 0.007259824 0.0332488
-0.067557305 -0.030544078 -0.004231064 0.01417207 -0.044080988 0.00083541736 -0.033811755 0.021137496
0.030882573 0.06108135 0.025798019 0.026370093 -0.018987788 -0.0866633 -0.011837773 -0.061345764
0.057328787 0.008544196 -0.03670305 0.060360122 0.013430089 -0.06083338 0.04036459 -0.060322765
-0.08660415 0.060759738 -0.046697363 -0.06470705 0.026704455 -0.06230919 -0.05850103 -0.05503016
0.03335459 0.033488862 0.06154656 0.046717487 0.08140657 -0.03149904 0.07372699 -0.032260533
0.030990217 0.013056765 -0.054655697 0.009596714 -0.04112349 -0.04688488 -0.06545386 -0.008674983
-0.015076434 -0.03285278 0.0140330065 0.038081855 -0.0029012368 -0.012529466 0.024567256 0.004488154
-0.06069084 0.042141452 -0.02950899 0.003946961 -0.012855698 0.02220695 -0.0068535097 -0.008998895
0.08161161 -0.0032184909 0.0019677929 0.026154837 0.03223444 -0.037706785 -0.0014278184 0.0067075137
-0.025624644 0.01709123 0.17464472 -0.0027218568 0.010694722 -0.047167767 -0.06365688 -0.03587174
0.045110732 -0.019723022 -0.010812723 0.013291484 0.039376736 0.032607943 0.02617964 0.029028175
0.014131083 0.033267327 -0.017190663 0.015674228 -0.08454986 -0.047299415 -0.0337183 -0.013596733
-0.0063661165 0.030106096 0.0662756 0.06570606 0.019485509 0.009451951 -0.005887389 -0.001161753

encoder.0.attention.values.bias f4 [32]
00000000: 48a0 0ebd 04ec 4a3d a8b6 ebbb 0dfc 6abc
00000010: 06d0 903c e6ec c8bc 3c00 b9bc 0b31 77bc
00000020: 9620 923c 0dc5 0abd 99b4 e0bc 3a3b e33c
00000030: 666c 83bb a688 133b ae58 ed3c 5e2f 65bc
00000040: f932 ccbc bf66 8a3c f441 21bc 4682 acb7
00000050: 586c 9dbc d0d8 723c 27e6 afbc 80dd 06bd
00000060: 188d 8d3c 9309 0d3c e7c8 c9bb 528f db3c
00000070: 9d20 513d 7804 9c3b 76b7 243c 8e26 883c
-0.034820825 0.04954149 -0.007193405 -0.01434232 0.017677318 -0.024527024 -0.02258312 -0.015087376
0.017837804 -0.03387933 -0.027429866 0.027738202 -0.004010725 0.0022511869 0.02897295 -0.013988344
-0.02492665 0.016894696 -0.009842385 -2.0564661e-05 -0.019216701 0.0148222 -0.02147205 -0.032926083
0.017279193 0.00860824 -0.0061579826 0.026801739 0.051056493 0.004761275 0.010053506 0.016619947

encoder.0.attention.fc.weight f4 [32, 32]
00000000: 93d8 d93c 8307 6c3c 574f 35bd 4e77 183d
00000010: 06f6 d3bc 4193 243d e26d 46bd 325c d23c
00000020: 209e b53b 793f c2bc 2284 3b3d 5dd3 1ebd
00000030: 0fed 053c 6941 4bbb 2e6a 613c 0191 62bd
00000040: f43d 3fbb f369 983c 6302 79bc 0567 89bc
00000050: e68f 163b ecc3 d63c 05ff d0bc c02a 9abc
00000060: fcbe 56bb e94f c7bc 1bc7 3dbc 757f 3fbd
00000070: a437 33bb 0cc6 71bc d930 e93a 0e9e 71bb
00000080: b1dd 873c 7d5e fb3b f0cd 69bc acac 5bbc
00000090: d58a d1bb 9c31 003c d953 1ebb dcf0 57bb
000000a0: 4ceb 7e3c 27a2 453c 93e2 73bc fce7 21bb
000000b0: c2ef 12bc 81d4 ea3c a629 28bd b402 ef3b
000000c0: 138e d5bc a2f4 39bc 6b05 733c b3d3 58bc
000000d0: 21b6 183c c66a 593c de10 f63c c496 90bc
000000e0: 9903 63b9 1d37 073c 07c7 a8bc aac8 693c
000000f0: 02c4 b7bc 18d5 6fbb ab54 1abc ba07 a039
00000100: 6b36 0b3d 2ab9 f4bb 094d 49bb 64b7 4ebc
00000110: 34ea a2bc 47a5 bd3c 2985 2e3d 3cbd b33b
00000120: 9556 cdbb 6058 dcba 75c0 e1ba a314 9abc
00000130: 264d 15bc 382a af3b f34f 82bb b781 343c
00000140: 77db 583c f44e 9d3c 20c6 f1bc dd78 343c
00000150: 4dc6 83bb 0298 6f3c b95f 48bb 7309 c0bc
00000160: cf62 1ebb 7749 ddbb b9af 16bc 6207 013c
00000170: 3216 953c 165d 1bbc 2eb7 3cbc 4b44 9bbb
00000180: 8c7f 22bc cb36 23bd 0b9c 8e3c fcfd 0c3d
00000190: 4032 fe3c b0f4 e3bc b87b abbc feab bebc
000001a0: 2161 33bd aec0 18bc e9b1 f73b 8b48 2c3b
000001b0: 5dae 973c db78 fb39 b638 25bc b0d5 5c3b
000001c0: 93b1 d23b a107 e73c 81e5 053d deab 2abd
000001d0: b3ec 133c 0f0b 22bc f20f cf3a a4e8 853b
000001e0: 053a 023c 7791 fdbc 5398 5abc 7cce 59bc
000001f0: d002 c13c a152 5b3c 67f4 30bc bb7a 103d
00000200: 101f 62bc ea9d c63b 0eff 773c de04 debc
00000210: 228e cdbc dd16 a1bc 544c 08bd 17a9 893c
00000220: 0a9e e4bc 46d7 07bd 5973 c83b 0426 5bbc
00000230: e71d d5bc 6a1d 33bc 74a9 65bc 4dab 31bc
00000240: 0a9a 36bc 0d37 3b3c 7d38 c83c 97e2 223c
00000250: 42df f53b 130b 6d3c 2683 0f3c f5cf 93bb
00000260: 7591 69bc 4e46 303b 5ce7 2a3c 2241 a53c
00000270: fb74 ea3c dcb6 123c 6e31 e23c 0a47 55bb
00000280: b282 933c 9594 3bbc a19c f1bc a697 24bc
00000290: c168 9e3a 5cd7 4c3d 9768 8c3b c14d 263b
000002a0: 7ce9 8bbc 194b 8fb9 d773 97bc 8ccd 953c
000002b0: 73cb 9cbc 2b6e 1a3c c67d 883c 55ca b43b
000002c0: e168 873c 4603 2ebc 3784 4cbc 9925 f23c
000002d0: 4540 723c 8652 b83c b941 69bc 9234 ae3c
000002e0: f970 a9bb 307c 573c cce6 8938 30f5 53bb
000002f0: b409 653c 78ca ed3c 459f b6bc 5deb 45bd
00000300: 0045 493c e190 ef3c 6537 803b 15e3 443c
00000310: eeab 7cbc 6130 bd3c 59de ae3c 3b18 3bbd
00000320: 47c6 86bb 01ed faba 8492 a53b f6f0 a1bc
00000330: e0cc 20bc 2b2e 8ebc 5481 4e3b 50aa 883c
00000340: afe4 743c 8d2a 1bbd 1318 633c d3fe 833c
00000350: c252 98bc 10d8 ad3b 27fe 15bb 8478 453b
00000360: 2a95 e6bc 6b90 ae3b 5567 d13b 050e 97bb
00000370: 60db 00bc de81 a43b 0930 1a3c 6a14 3fbc
00000380: 65a8 a23c dbaf a83b 3a1e 21bd 7d5b ddbb
00000390: 0fa9 b2bc 3b61 8ebc 4148 acbc 2e03 923c
000003a0: 95bd f53c b041 f5bb 9796 13bc 0f9c 93bc
000003b0: f782 04bd b27a 9f3c 9d70 7c3c b256 b2bc
000003c0: 9b8c ddbc fc23 ddbb e5ea efbc 9bd6 1a3c
000003d0: 4460 c73b 742a 22bc f5c7 eabc af3d 293b
000003e0: 6bd4 f53b 29b7 fabc 1656 0abd ecb3 67bc
000003f0: 21c9 ebbb 3d20 e9bc e6d0 5e3c 0d8e 063d
0.026592528 0.014406088 -0.044265117 0.037223153 -0.025874149 0.040179495 -0.048444636 0.025678728
0.0055425316 -0.023711907 0.04578031 -0.03877579 0.008174195 -0.003101433 0.013758225 -0.055314068
-0.0029181214 0.018605208 -0.015198323 -0.016772756 0.0022973954 0.02621647 -0.025512228 -0.018819213
-0.0032767644 -0.024330096 -0.011583115 -0.046752412 -0.0027346397 -0.014756691 0.0017791047 -0.003686789
0.016585203 0.007671176 -0.014270291 -0.013407867 -0.006394724 0.007824328 -0.0024158864 -0.003294996
0.015559029 0.012062586 -0.0148855625 -0.0024704924 -0.0089682955 0.028665783 -0.041055344 0.0072940234
-0.026068723 -0.011349829 0.014832835 -0.013234067 0.009320767 0.013270086 0.03003734 -0.017650016
-0.00021649747 0.008252886 -0.020602716 0.014269033 -0.022432331 -0.003659552 -0.0094196005 0.00030523335
0.033987444 -0.0074683623 -0.0030716083 -0.012616966 -0.019887067 0.0231501 0.04260746 0.005485205
-0.006266425 -0.0016811006 -0.0017223494 -0.018808668 -0.009112632 0.005345609 -0.003976816 0.011017255
0.013235918 0.019202687 -0.029513419 0.011015144 -0.004021442 0.014623644 -0.0030574633 -0.023442006
-0.0024167781 -0.0067531425 -0.009197169 0.007875295 0.01819906 -0.009482643 -0.011518283 -0.0047383658
-0.009918105 -0.039847177 0.017408391 0.034421906 0.03102982 -0.027826637 -0.020933017 -0.023275372
-0.0437938 -0.009323282 0.0075590503 0.0026288356 0.01851576 0.00047964495 -0.010084322 0.0033696704
0.00642986 0.02820188 0.032689575 -0.04166781 0.009028601 -0.009890332 0.0015797599 0.004086571
0.007948403 -0.030953152 -0.013341981 -0.013293859 0.023560911 0.0133863995 -0.010800458 0.035273295
-0.013801351 0.0060613053 0.015136493 -0.02710193 -0.025092188 -0.019664222 -0.033275917 0.016804261
-0.02790739 -0.033164285 0.006117266 -0.013375763 -0.026015235 -0.010932306 -0.014017452 -0.010844064
-0.011145124 0.011426699 0.024440998 0.009941719 0.007503421 0.014467972 0.008759296 -0.0045108744
-0.014255871 0.0026897374 0.010431137 0.02017266 0.028620234 0.00895473 0.02761146 -0.0032543563
0.018006656 -0.011448999 -0.029493632 -0.010045921 0.0012085662 0.05001007 0.004284929 0.0025375935
-0.017079107 -0.00027331038 -0.018487854 0.018286489 -0.01913998 0.00942568 0.016661536 0.005517284
0.016529502 -0.010620898 -0.012482694 0.029558944 0.014785831 0.022500288 -0.014236861 0.021265302
-0.005170938 0.013152167 6.575658e-05 -0.0032342188 0.013979364 0.029027209 -0.022292743 -0.048320163
0.012284517 0.029243888 0.0039128535 0.012017031 -0.015421851 0.023094358 0.021346258 -0.045677405
-0.004112992 -0.0019144119 0.0050528664 -0.01976822 -0.009814471 -0.017355999 0.003151019 0.016682774
0.014947101 -0.037882376 0.01386072 0.01611272 -0.01859415 0.0053052977 -0.0022887082 0.0030131647
-0.028147299 0.0053272746 0.006390492 -0.0046098256 -0.007864803 0.005020364 0.009410867 -0.011662582
0.019855687 0.0051479167 -0.039335467 -0.006755291 -0.021809129 -0.017380347 -0.021030547 0.017823782
0.029997626 -0.007484637 -0.009008071 -0.01801875 -0.03235146 0.019467685 0.0154077085 -0.021769855
-0.027044585 -0.0067486744 -0.029286811 0.00945058 0.006084474 -0.009897817 -0.0286598 0.002582412
0.007502129 -0.030604916 -0.033773504 -0.014142018 -0.0071956073 -0.028457755 0.01359961 0.032850314

encoder.0.attention.fc.bias f4 [32]
00000000: 0000 0000 0000 0000 0000 0000 0000 0000
00000010: 0000 0000 0000 0000 0000 0000 0000 0000
00000020: 0000 0000 0000 0000 0000 0000 0000 0000
00000030: 0000 0000 0000 0000 0000 0000 0000 0000
00000040: 0000 0000 0000 0000 0000 0000 0000 0000
00000050: 0000 0000 0000 0000 0000 0000 0000 0000
00000060: 0000 0000 0000 0000 0000 0000 0000 0000
00000070: 0000 0000 0000 0000 0000 0000 0000 0000
0.0 0.0 0.0 0.0 0.0 0.0 0.0 0.0
0.0 0.0 0.0 0.0 0.0 0.0 0.0 0.0
0.0 0.0 0.0 0.0 0.0 0.0 0.0 0.0
0.0 0.0 0.0 0.0 0.0 0.0 0.0 0.0

encoder.0.fc1.weight f4 [64, 32]
00000000: 1c49 4dbd 7342 9b3c d6b4 813c 4b68 883c
00000010: 1245 f4bb ea57 a8bb 303d 1e3d 2ef9 df3c
00000020: 17af 50bc 20ba 7e3c 5937 99bb 067a 7bbc
00000030: b573 5fba 1cdf a43b eb91 02bd e5a2 e5bc
00000040: 3cf8 38bd d38b 3d3c 57ee 673c c240 84bc
00000050: 7c6e 0d3c 483e 9dbc 09f9 0bbd d7b3 fe3c
00000060: e4ed a23b e7ea b13c 17bc c33b a3e0 d2bc
00000070: 6a5f 583b 7142 523d add1 a63c 0a45 dbbb
00000080: 25d1 843c 0fea 853a d394 52bd 34e5 19bd
00000090: 2831 92bd c7f3 45bc 1cf3 14bc 0e50 a8bc
000000a0: 7f12 273d 8384 433c df90 983c 8dc7 b7bc
000000b0: f394 d93c 8244 e5bc 4ec4 bd3c 72a9 e73b
000000c0: 19c4 00bd 4329 f6ba d78c 403c 6b63 0ebc
000000d0: dfb3 a6bb 42a3 7bbd bfda 3f3c 9aeb 003d
000000e0: 766c 173d a425 52bd 4b17 953c 1167 dd3c
000000f0: 01e0 0639 d74f 4a3d 5b03 4b3c 7a28 0abc
00000100: 04b1 f3ba d1e6 b7bb 1c03 b5bd efbd 71bc
00000110: 76b1 d53c 1373 a43c c51e 4abb c0fa e2ba
00000120: e837 783c 7cd3 c03b 88af 9b3c ad4a 5f3c
00000130: 72d5 b83c 76b4 c13c ace5 c73c d94a b7bc
00000140: e6b0 9cbc 6e03 cabb 542c 0c3c 4d6c 563c
00000150: f212 febc f61c 1ebc 0995 753b 336f 94bc
00000160: de70 adbc 1d94 5e3c 3cac be3c bf48 cfbc
00000170: f5c5 70bc a45f 783c 7fdb c93c 7644 92bc
00000180: 8005 203d 0713 9abb d754 f8ba 6865 9fbc
00000190: 78ea 053d 8632 97bb b83d dc3c 9e34 793b
000001a0: 67a7 84bc f6c5 4abc 6fff 0dbc ea7a 67bb
000001b0: 8f69 683b b120 003c 312e d23c a0c5 7b3c
000001c0: 6531 e83b 8f76 2cbb e6f0 0dbb 0781 08bd
000001d0: 4d9c c23c 4984 f53b 1eba 7cbd a564 eb3c
000001e0: 1e17 1a3c a0a9 89bc c558 313b a8dd 2b3d
000001f0: de11 bbbc 57a3 7f3c b016 09bc 2f02 513c
00000200: 805e a03c bc49 c03c a6a4 2b3d bcdf 1b3b
00000210: 646c 283c b686 b6bb 2f64 d93b 3ea9 29bd
00000220: 728a e13a cc2d 1e3c 5391 92bc 202e d23c
00000230: 3105 04bc 926d a03c 72b3 51bc 8c76 59bb
00000240: cbbc a43c 92eb f53c 91a5 e1ba a4c0 c3bb
00000250: 5d9a 4bbc 84f6 c73c e859 273c a3d0 e5bc
00000260: 05bb 14bd 4656 9fbc 6b70 ff3b e0c1 b33b
00000270: b79f a6bc d143 5a3b af98 d63b eaf1 ed3c
00000280: 180b 13bb 4612 943c 5488 b9bb e980 963c
00000290: 20cb 80bc 0deb 113d 5b81 8abc 371d ebbc
000002a0: 47ae babc f146 efbc 085b 04bc ed27 babc
000002b0: 9c10 5fbb 6700 aabb ae4e 4cbb 4a7b e3bc
000002c0: 1e09 88bc b82d d73b 90eb 673d 769b ac3c
000002d0: dfd6 67bc 3d7c aa3c 3392 853a a7c8 b73c
000002e0: 0407 053d 8b8c 443c 8bd7 b93b b025 623c
000002f0: 9bfc 8ebb 6773 9e3c e3ff f5bb cad2 ef3b
00000300: a0c4 9fbc df50 eabc 3068 d73c f55b 1e3c
00000310: 365a cc39 4600 d73a 411b d73b 90ec 153c
00000320: 5e3f e6bc 71a2 043d 5f6b dc3c 693c e1bc
00000330: 2f4f 21bd b67f 573c 487c 67bc acc5 ef3c
00000340: d0b6 063d c6b1 193c e4fe d8bc a6a8 a1ba
00000350: bc13 3b3c 57f0 c1bc 8f27 dfbc 0d46 51bc
00000360: 6fda 12bd da9d 41bc bea5 763b c798 863c
00000370: 30ee 5c3d 5e5b b5bb 32bf 613c e670 233c
00000380: f535 f8bc 65ac 4e3c 8bf9 17bd 11b2 103c
00000390: 4144 1fbd 74e9 113d 459f 50bd d9ec 403d
000003a0: d0c8 79bd ad49 063d 47f8 b6bc 503c 523b
000003b0: a3cd 1ebc 831d bebb c49e 08bc af5b 8abb
000003c0: 5f38 6b3c ea48 36bd 32ad f13c 2e8b f33c
000003d0: 6acc 10bc e3fb 0f3c 6b1c c8bb 910b 8b3c
000003e0: 808b 203d 361d 5fbc 110a 523c c728 61bc
000003f0: 06ae af3c 0240 a13a b555 ce3b 7d40 b0ba
-0.05011855 0.018952584 0.0158333 0.016651293 -0.007454523 -0.0051374333 0.03863257 0.027340498
-0.012737057 0.015547305 -0.0046757874 -0.015348917 -0.00085240166 0.0050314795 -0.03187744 -0.028031776
-0.04515861 0.011568981 0.014155946 -0.01614416 0.008632299 -0.019194737 -0.034173045 0.031091614
0.0049722064 0.021718455 0.00597335 -0.02574188 0.0033015856 0.051332895 0.020363653 -0.0066915797
0.01621301 0.001021685 -0.05141146 -0.0375721 -0.07138282 -0.012082047 -0.009091165 -0.020545986
0.040789124 0.011933449 0.018623767 -0.02243402 0.026560282 -0.027986769 0.023164894 0.00706976
-0.031437013 -0.0018780607 0.011752329 -0.008690695 -0.0050873603 -0.06143499 0.011709868 0.031474687
0.03696867 -0.05130543 0.018199584 0.027026685 0.00012862684 0.049392547 0.012390937 -0.008432502
-0.0018592183 -0.0056122323 -0.08838484 -0.014754756 0.026085597 0.020074403 -0.0030841094 -0.0017317161
0.015150048 0.005884586 0.019004598 0.013628644 0.022562716 0.02364562 0.024401508 -0.022374557
-0.01912732 -0.0061649596 0.0085554905 0.013087344 -0.031014893 -0.0096504595 0.0037472865 -0.01811943
-0.021171983 0.013585118 0.023275487 -0.025303243 -0.014695634 0.015159521 0.024640797 -0.01785491
0.039067745 -0.0047019753 -0.0018946183 -0.019457534 0.03269431 -0.004614177 0.026884899 0.0038025747
-0.016193105 -0.012376299 -0.008666857 -0.0035321065 0.0035463308 0.007820294 0.025656791 0.015366942
0.0070859664 -0.0026315784 -0.002165848 -0.033326175 0.02375617 0.0074925763 -0.061700933 0.028734514
0.009404926 -0.016804516 0.0027060967 0.041959435 -0.022835668 0.015602908 -0.0083672255 0.012756868
0.019576311 0.02347266 0.041905068 0.002378448 0.010279749 -0.005570258 0.0066342573 -0.041421168
0.0017207398 0.0096544735 -0.017891562 0.02565676 -0.008057878 0.019583497 -0.012799131 -0.0033182232
0.020109555 0.030019555 -0.001721548 -0.0059738923 -0.01242694 0.02440954 0.010214306 -0.028053587
-0.03631117 -0.019450318 0.0077953837 0.005485758 -0.02033983 0.0033304582 0.006548963 0.029046018
-0.0022437032 0.01807512 -0.0056620035 0.018372016 -0.015721858 0.035624553 -0.016907385 -0.028700454
-0.02278818 -0.029208632 -0.008078344 -0.022724116 -0.0034037 -0.0051880362 -0.0031174826 -0.02776875
-0.01660591 0.0065667294 0.056621134 0.021070223 -0.01415035 0.020811195 0.0010190665 0.022434546
0.032477394 0.011996399 0.0056714467 0.013802931 -0.004363609 0.019342138 -0.0075073107 0.007318829
-0.019502938 -0.028603015 0.026294798 0.009665479 0.00038977124 0.001640328 0.006564528 0.009150639
-0.028106388 0.03238148 0.026906667 -0.027494626 -0.039382156 0.013153007 -0.014128752 0.029269062
0.032889187 0.009380763 -0.026488729 -0.0012333586 0.011418279 -0.023674173 -0.027240543 -0.012773049
-0.035852846 -0.01181742 0.003763541 0.016430272 0.05393809 -0.0055345735 0.013778495 0.009975648
-0.030299166 0.012614344 -0.037103217 0.008831517 -0.03888345 0.03562303 -0.05093314 0.047100876
-0.060982525 0.032785106 -0.022335185 0.0032079406 -0.009692582 -0.005801858 -0.008338634 -0.0042223553
0.014356702 -0.04450313 0.029501531 0.029729452 -0.008837799 0.008788082 -0.0061069033 0.016973289
0.039195538 -0.013617804 0.012819783 -0.013742632 0.021445286 0.0012302401 0.006296838 -0.0013446953
