model/mnist/tune_lr0.0001_ed32_nl4_nh4_fm2_ps4/temp_model.pt (torch, 175623 bytes, 74 tensors)

embedding.cls_token f4 [1, 1, 32]
0	0xbb9079f3	-0.0044090687
1	0xba463e01	-0.000756234
2	0xba469f56	-0.00075768435
3	0xbbdef798	-0.006804418
4	0x3b4cdb39	0.0031258597
5	0x3b752654	0.0037406879
6	0xbb5b296e	-0.0033441442
7	0x39ce4ca0	0.00039348472
8	0xbb9f1756	-0.004855077
9	0x3b8f024c	0.0043642875
10	0xbb9be207	-0.004757169
11	0x3bff32c0	0.0077880323
12	0x3b388ea6	0.0028161197
13	0xbc1cc293	-0.0095678745
14	0x3b7941aa	0.0038033524
15	0x3b5a9cd4	0.0033357637
16	0xbb22c218	-0.0024834927
17	0xbb35a41e	-0.002771623
18	0x3a1ef03b	0.0006063019
19	0xbc0ffc43	-0.008788171
20	0xbc031fe7	-0.008003212
21	0xba506163	-0.0007949082
22	0x3c0e47bd	0.008684096
23	0xbac83f83	-0.0015277717
24	0x394b5655	0.0001939175
25	0x3c02b3a7	0.007977403
26	0x3b8e5511	0.004343637
27	0x3af182d5	0.0018425832
28	0x3c420147	0.011841125
29	0xbb564c5c	-0.0032699322
30	0x3b9b4450	0.004738368
31	0xbbec9be9	-0.0072207344

embedding.pos_embedding f4 [1, 50, 32]
0	0xbb9079f8	-0.004409071
1	0xba463e0c	-0.0007562346
2	0xba469f63	-0.0007576851
3	0xbbdef793	-0.0068044155
4	0x3b4cdb47	0.003125863
5	0x3b752659	0.003740689
6	0xbb5b296c	-0.0033441437
7	0x39ce4ca8	0.00039348495
8	0xbb9f1755	-0.0048550763
9	0x3b8f0250	0.0043642893
10	0xbb9be200	-0.004757166
11	0x3bff32c3	0.0077880337
12	0x3b388ea3	0.002816119
13	0xbc1cc291	-0.009567873
14	0x3b7941b6	0.0038033552
15	0x3b5a9cd7	0.0033357644
16	0xbb22c208	-0.002483489
17	0xbb35a41b	-0.0027716223
18	0x3a1ef055	0.0006063034
19	0xbc0ffc44	-0.008788172
20	0xbc031fe2	-0.008003207
21	0xba506169	-0.00079490856
22	0x3c0e47ba	0.008684093
23	0xbac83f55	-0.0015277663
24	0x394b569e	0.00019391856
25	0x3c02b3a6	0.007977402
26	0x3b8e5517	0.0043436396
27	0x3af182be	0.0018425805
28	0x3c420142	0.01184112
29	0xbb564c59	-0.0032699315
30	0x3b9b4459	0.0047383723
31	0xbbec9be8	-0.007220734
32	0x3bc2a6a5	0.0059402757
33	0xbb90406c	-0.004402211
34	0xbc4fb2a4	-0.012676869
35	0xbbb27fcb	-0.005447363
36	0xbc093317	-0.008373997
37	0xbc2ce952	-0.010553675
38	0x3b72e856	0.0037064753
39	0xbc833990	-0.016018659
40	0xbb6f0071	-0.003646877
41	0xbba16bdb	-0.0049261875
42	0x3c07eb2d	0.008295816
43	0xbb89f39e	-0.0042099496
44	0xbc841574	-0.01612351
45	0xbc0782ab	-0.0082709
46	0x3bfc1ccb	0.007693862
47	0x3b967a46	0.004592213
48	0x3a13fcc3	0.00056452694
49	0x3ba2280c	0.0049486216
50	0x37be8e9b	2.271617e-05
51	0x39828556	0.00024894875
52	0x3c2e76a1	0.0106484005
53	0xbb5ea7a0	-0.0033974424
54	0x3b05cb57	0.002041539
55	0xbabcbb7a	-0.0014399134
56	0x3b8540c4	0.0040665586
57	0x3bcde582	0.006283463
58	0x3bbe47e2	0.005806909
59	0xbb5929c1	-0.003313646
60	0xbbc7e398	-0.0061001293
61	0x3bde7007	0.006788257
62	0xbbc60856	-0.006043474
63	0x3ba2618e	0.004955477
64	0x3bb288b8	0.005448427
65	0xbb9f854e	-0.004868186
66	0xbc44d22f	-0.012013002
67	0xbbad6a64	-0.0052922238
68	0xbbddf0f3	-0.006773108
69	0xbc37e69c	-0.011224415
70	0x3b2733d4	0.002551307
71	0xbc7cafd6	-0.015422782
72	0xbb370b47	-0.0027930306
73	0xbba1f986	-0.0049430756
74	0x3c01d1d1	0.007923559
75	0xbb8c1422	-0.004274861
76	0xbc1c4aea	-0.009539345
77	0xbc174e7d	-0.009235022
78	0x3c030490	0.007996693
79	0x3b93c46f	0.0045095007
80	0x3ae9860c	0.0017816438
81	0x3ba021ec	0.0048868563
82	0xb8ed469b	-0.00011314192
83	0xb98cf9c8	-0.00026888982
84	0x3c1c9d91	0.009559051
85	0xbb56f116	-0.0032797507
86	0x3ae7d232	0.0017686544
87	0xbad50279	-0.0016251347
88	0x3b6629bd	0.0035120093
89	0x3bc9433b	0.0061420477
90	0x3bba9dde	0.0056950888
91	0xbad036a1	-0.0015885421
92	0xbbc8a325	-0.006122964
93	0x3bc00500	0.005859971
94	0xbbb5a947	-0.005543861
95	0x3b7b0088	0.0038299877
96	0x3bb24d40	0.005441338
97	0xbb69ab34	-0.0035655024
98	0xbc359c57	-0.011084638
99	0xbb6aef23	-0.0035848103
100	0x3c598bf9	0.013278001
101	0xbc6a7488	-0.01431001
102	0xbb08fa44	-0.0020901123
103	0xbcc9c87a	-0.024631727
104	0x3bf9465c	0.0076072644
105	0xbba800d7	-0.0051270532
106	0x3b3ea777	0.0029091516
107	0xbba31cee	-0.004977814
108	0x3d0f6256	0.03500589
109	0xbc858f17	-0.016303582
110	0x3c933924	0.017971583
111	0x3bb13e47	0.0054090354
112	0x3bc7258d	0.0060774744
113	0x3b1aa3f1	0.0023596252
114	0x3a4650c1	0.0007565134
115	0xbc07650c	-0.008263838
116	0xbb976d47	-0.004621181
117	0xbc2c9982	-0.010534646
118	0x3ba0c6e6	0.004906523
119	0xbb32d1d9	-0.0027285723
120	0xba831b27	-0.0010002599
121	0x3b790dc3	0.0038002587
122	0x3b94a128	0.004535813
123	0x3c6594e9	0.014012554
124	0xbbb4b8b3	-0.005515182
125	0xbb4c1d05	-0.0031145227
126	0xbb1b867b	-0.002373128
127	0xbb956772	-0.004559451
128	0xbb6f8ef0	-0.0036553703
129	0x3bbeb976	0.0058204485
130	0xbc4d9af3	-0.01254915
131	0x3aeb330b	0.0017944289
132	0x3d009c7f	0.031399246
133	0xbba05986	-0.0048934845
134	0xbbedb6c1	-0.007254452
135	0xbc8fb7b2	-0.017543647
136	0x3cb5cec1	0.022193315
137	0xbb6ec2fc	-0.0036432138
138	0xbbf71c25	-0.007541197
139	0xbb8082bc	-0.0039218348
140	0x3d47e160	0.04879892
141	0xbd140ac4	-0.03614308
142	0x3d2c4200	0.04205513
143	0x3c85c358	0.016328499
144	0x3bd22b6c	0.0064138677
145	0xbb5b6920	-0.0033479407
146	0xbbdd1574	-0.006746942
147	0xbc83abba	-0.016073097
148	0xbd0e60b2	-0.034760185
149	0xbd17fb96	-0.037105165
150	0x3c3bac85	0.011454706
151	0xbc065a3c	-0.0082002245
152	0xbc4cd54b	-0.012502025
153	0xba3806fb	-0.0007020083
154	0x3aba7b9f	0.0014227516
155	0x3d2e2cd8	0.042523235
156	0xbb7d2c03	-0.003863097
157	0xbcad9e61	-0.021193685
158	0x3accde84	0.001563028
159	0xbc277dd1	-0.010222868
160	0xbb2aa00f	-0.0026035344
161	0x3b070e33	0.0020607829
162	0xbcb3d970	-0.021954268
163	0xbaa2f23a	-0.0012431808
164	0x3c541895	0.012945314
165	0xbbfc3f31	-0.0076979627
166	0x3b94f186	0.0045453934
167	0xbc9b77c3	-0.018978005
168	0x3c3b5e9f	0.011436134
169	0xbbaf95aa	-0.0053584175
170	0x3ad64753	0.001634816
171	0xbb4fe9da	-0.003172508
172	0x3c78d032	0.015186356
173	0xbd0b1c4f	-0.033962544
174	0x3d037431	0.03209323
175	0x3c83f463	0.016107744
176	0x38ca5258	9.647448e-05
177	0xb97da0ea	-0.00024187905
178	0xbc9e3fc2	-0.019317511
179	0xbc4c1c32	-0.012457894
180	0xbc675a43	-0.014120641
181	0xbd23b6dd	-0.039969314
182	0x3c864a9c	0.016392998
183	0xbbe37d5a	-0.0069424333
184	0xbb9cb920	-0.004782811
185	0x3b0a6a38	0.002112044
186	0x3b903836	0.004401232
187	0x3c9d528a	0.019204397
188	0xbb6b7de0	-0.0035933182
189	0xbc0fbf44	-0.008773629
190	0xba3428af	-0.00068725174
191	0x3a5748ee	0.00082124665
192	0xbb66f7e1	-0.0035242962
193	0xbb24f10d	-0.0025168092
194	0xbca57b58	-0.020200416
195	0xbb987feb	-0.004653921
196	0xbc5c7a5a	-0.013456905
197	0x3bf33ade	0.007422789
198	0x3c521457	0.012822232
199	0x3be5bb6e	0.0070108688
200	0xbb0d9c3c	-0.0021608016
201	0xbbcb2760	-0.006199762
202	0x3c18046a	0.009278396
203	0xbb59e94f	-0.0033250635
204	0xbd365459	-0.044514034
205	0xbc8e381c	-0.01736074
206	0x3c42d171	0.011890755
207	0x3c6d98e3	0.014501783
208	0xba870279	-0.001030042
209	0x3b98fa0d	0.0046684803
210	0xbccc86e6	-0.024966668
211	0x3b1342d5	0.0022470255
212	0x3c77e362	0.015129896
213	0xbd199635	-0.037496764
214	0x3c471e6a	0.012153247
215	0xbc40b7d6	-0.01176258
216	0x3b82f50c	0.003996497
217	0x3bbdc74a	0.0057915794
218	0x3bb72693	0.005589315
219	0xbb88d663	-0.0041759475
220	0xbbb7dbaf	-0.005610905
221	0x3bcc120a	0.0062277364
222	0xbbeb795d	-0.0071860985
223	0x3c44b4d1	0.012006001
224	0x3b91b1ef	0.00444626
225	0xbb810d3b	-0.003938345
226	0xbc60f88c	-0.013731133
227	0xbbb01826	-0.0053739725
228	0xbc1e1193	-0.009647745
229	0xbc0d67d9	-0.008630716
230	0x3b87a636	0.004139687
231	0xbc48fa0b	-0.012266646
232	0xbb7f503d	-0.0038957738
233	0xbba350c5	-0.0049839937
234	0x3c0cb920	0.008589059
235	0xbb81de88	-0.0039632954
236	0xbca93b7d	-0.020658249
237	0xbc1eed0b	-0.00970007
238	0x3c02650b	0.007958661
239	0x3bb197fe	0.00541973
240	0x38eac4b7	0.000111946305
241	0x3b9ed08c	0.004846638
242	0xba2c71f8	-0.0006578262
243	0x3898f559	7.2936244e-05
244	0x3c3f3204	0.0116696395
245	0xbb9e722e	-0.0048353886
246	0x3b2c8ddf	0.002632968
247	0xbb0ecbe1	-0.0021789002
248	0x3b803545	0.0039126
249	0x3bcdee60	0.00628452
250	0x3bb9a99b	0.0056659705
251	0xbb872471	-0.004124217
252	0xbbc21902	-0.0059233913
253	0x3bf1059d	0.0073554055
254	0xbbc87b2a	-0.006118198
255	0x3bae5c1c	0.005321039

embedding.conv1.weight f4 [32, 1, 4, 4]
0	0xbad80947	-0.0016482257
1	0xbc665988	-0.014059432
2	0x3c6c2e12	0.014415281
3	0xbc0f09f8	-0.008730404
4	0x3d0de1c0	0.03463912
5	0x3c7de999	0.015497589
6	0xbcd96d6f	-0.02654144
7	0x3c97f32a	0.018548567
8	0x3cce9363	0.025216764
9	0xbd29451f	-0.041325685
10	0xbc1e60a5	-0.009666597
11	0x3b649069	0.0034876114
12	0xbb9684bd	-0.0045934604
13	0x3ca77ed1	0.020446213
14	0xbc0d2601	-0.008615018
15	0xbc943ba7	-0.01809485
16	0xbacefdef	-0.0015792231
17	0x3cdbb70e	0.026820686
18	0xbb08e34c	-0.0020887433
19	0xbc9d8a3d	-0.019230956
20	0xbb314bff	-0.0027053354
21	0xbbc2dcdd	-0.005946739
22	0x3bd509f5	0.006501431
23	0xbd3cdcb3	-0.046108913
24	0x3bd3c450	0.0064626113
25	0x3d022138	0.03176996
26	0xbcb935f8	-0.022608742
27	0x3bbeb8a1	0.0058203493
28	0x3b34637b	0.0027525115
29	0xbcf42ede	-0.029807504
30	0x3cbd3d66	0.023100566
31	0xbd0b2556	-0.033971153
32	0xbcb56a5e	-0.022145446
33	0xbc5ce3e7	-0.0134820705
34	0x3d2dce69	0.042433176
35	0xbc2104ba	-0.009827787
36	0x3cde9e88	0.027175203
37	0x3c46ccbb	0.0121337725
38	0xbaaeff69	-0.0013351265
39	0xbc36c3f8	-0.011155121
40	0xbb5ddd6e	-0.0033853906
41	0x3b648f04	0.0034875283
42	0x3d004e8a	0.0313249
43	0x3c1fbc78	0.009749524
44	0xbd009b68	-0.031398207
45	0x3910b01a	0.00013798513
46	0x3c2c082c	0.010499995
47	0xbcba7e8a	-0.022765417
48	0x3b19ee2f	0.0023487916
49	0x3c6edb4d	0.014578653
50	0xbb4b52f7	-0.0031024793
51	0xbbc7e2cb	-0.006100034
52	0xbc7261b1	-0.014793799
53	0x3b33eec4	0.0027455548
54	0xbc2a28a5	-0.010385667
55	0xbaae2a8f	-0.001328783
56	0x3b91d072	0.0044498974
57	0x3a7a6612	0.0009551953
58	0xbc9e6618	-0.019335791
59	0xba0a1f9b	-0.0005268992
60	0xbd059914	-0.03261669
61	0x3a36d2fb	0.00069741876
62	0xbc127582	-0.008939149
63	0xbbf17537	-0.0073687094
64	0xbcb02bad	-0.021505201
65	0xb80eae78	-3.4017925e-05
66	0x3c5bd725	0.013417994
67	0xbc226f80	-0.009914279
68	0x3b554f42	0.0032548462
69	0x3bc4baf8	0.0060037337
70	0xbc5d702b	-0.013515512
71	0xbd03d1d7	-0.03218254
72	0x3c4f40c6	0.012649721
73	0x3cc7bd7c	0.024382345
74	0xbca61cb1	-0.020277353
75	0x3ce3372d	0.02773627
76	0xbbe8d509	-0.007105474
77	0xbc9bb848	-0.01900877
78	0x3be34d73	0.006936723
79	0xbc54e992	-0.012995141
80	0x3c1ae7d5	0.009454687
81	0x3d0feb5c	0.035136566
82	0xbb6ceb6b	-0.0036151062
83	0xbc878633	-0.016543483
84	0xbcdc909e	-0.026924428
85	0x3ca2ea60	0.01988715
86	0x3cc54abf	0.024083493
87	0xbc4c8bf7	-0.012484542
88	0xbd0d4ba4	-0.034495965
89	0x3c9e5105	0.019325742
90	0x3cb04a9a	0.021519948
91	0xbc0f541e	-0.008748082
92	0xbd038d77	-0.032117333
93	0x3c2acda6	0.010425007
94	0x3cb72f6e	0.022361483
95	0xbcd4cc91	-0.025976451
96	0x3a5ca5ea	0.0008417057
97	0xba8e85c4	-0.0010873605
98	0x3b97a2de	0.0046275696
99	0xbcf12b22	-0.029439513
100	0x3cfcb691	0.030848773
101	0xbd1d33f8	-0.03837964
102	0xbb09a1ac	-0.0021000905
103	0xbc594570	-0.013261184
104	0xbc30ef8a	-0.010799298
105	0xbb3d5696	-0.002889072
106	0xbd2b2225	-0.04178061
107	0xbd011c2d	-0.03152101
108	0x3d597e2b	0.05309884
109	0x3d81ff19	0.06347484
110	0x3aa9ca06	0.0012953884
111	0x3b3c995e	0.0028777937
112	0x3cb7bf81	0.022430183
113	0x3bc812b6	0.006105746
114	0xbcd104d4	-0.025514998
115	0x3c8d8381	0.01727462
116	0x3c8aaae9	0.0169272
117	0xbccd9d92	-0.02509955
118	0x3ce215ae	0.027598228
119	0xbc812045	-0.015762458
120	0x3bb7b40c	0.00560618
121	0xbc496d5f	-0.0122941425
122	0x3c7de828	0.015497245
123	0x3c1d6f6e	0.009609086
124	0xbc3c8c5a	-0.011508072
125	0xbc6bf578	-0.014401786
126	0xbc1de6fd	-0.009637591
127	0x3c258109	0.010101565
128	0x3b18ce5d	0.0023316361
129	0xbc60b431	-0.013714836
130	0x3c789320	0.015171796
131	0xba89a7ea	-0.0010502313
132	0x3cf92327	0.03041227
133	0x3b8d91a1	0.004320339
134	0xbc54a014	-0.012977619
135	0xbc259632	-0.01010661
136	0xbd18ee2e	-0.03733652
137	0xbc796d57	-0.015223823
138	0xbc6ff5aa	-0.014645973
139	0xbb215bcd	-0.0024621368
140	0xbce69bb2	-0.028150413
141	0xbc2e6b5b	-0.010645713
142	0xbbec7195	-0.0072156885
143	0x3d0289a2	0.031869538
144	0x3b099d94	0.0020998465
145	0x3c293846	0.010328358
146	0xbccd4fcf	-0.02506247
147	0x3b6cf5d8	0.0036157276
148	0x3c1a752a	0.009427348
149	0x3b1040c4	0.002201126
150	0xbc169557	-0.009190879
151	0x3c7a8830	0.015291259
152	0xbb8e2e6a	-0.004339029
153	0x3ba797f5	0.0051145502
154	0xbc4780f2	-0.012176739
155	0xbc952a9d	-0.018208796
156	0x3c376ffb	0.011196132
157	0xbd27d7c1	-0.040977243
158	0xbc565b61	-0.01308331
159	0x3b3342d8	0.0027353074
160	0x3c842d65	0.016134927
161	0x3c93d7c9	0.01804723
162	0xbd009ff7	-0.031402554
163	0x3cad78d7	0.021175785
164	0xbbd354cc	-0.0064493176
165	0xbc3663d6	-0.011132201
166	0x3c263d83	0.0101465015
167	0xbc95f493	-0.018305099
168	0x3c64d260	0.013966173
169	0xbbd08ab6	-0.006364192
170	0xbc17dfd0	-0.00926967
171	0xbc01534c	-0.007893395
172	0xbb577fec	-0.0032882644
173	0x3cbc6ee0	0.023002088
174	0x3c557bd4	0.013030011
175	0x3d1004a7	0.035160687
176	0x3bca51b5	0.006174291
177	0x3bd0839f	0.0063633467
178	0x3cc49ff0	0.024002045
179	0xbc9cb3bd	-0.019128675
180	0xbca3cf5b	-0.019996336
181	0xbb19428d	-0.0023385615
182	0xbc6bfda1	-0.014403732
183	0x3cd25cbc	0.025678985
184	0xbc9c5c96	-0.019087117
185	0xbc1d3e4d	-0.009597373
186	0xbc166e4f	-0.009181573
187	0xbc050360	-0.00811848
188	0xbcfa053c	-0.030520074
189	0xbcb32161	-0.021866502
190	0xbc8cb912	-0.017178092
191	0x3c2e3e01	0.0106349
192	0x3d45bfb6	0.048278533
193	0xbca0caa3	-0.019627875
194	0xbc005988	-0.007833846
195	0xbc195c29	-0.009360352
196	0x3b85b6dc	0.0040806364
197	0x3c1106b3	0.008851695
198	0x3c032c08	0.008006103
199	0x3a96b95b	0.0011499332
200	0x3c12e348	0.008965321
201	0x3bf7e428	0.00756504
202	0x3c706798	0.014673136
203	0xbbf76313	-0.0075496524
204	0x3bb48b03	0.0055097356
205	0xbcc95714	-0.024577655
206	0x3c20670c	0.009790193
207	0x3a63de23	0.0008692464
208	0x3c630ed0	0.013858512
209	0xba73b933	-0.0009297311
210	0xba4f0fa6	-0.0007898755
211	0x3c99fffe	0.018798824
212	0x3c3378d6	0.0109541025
213	0xbae7e694	-0.0017692619
214	0xbcc6dae1	-0.024274291
215	0x3cb021fc	0.02150058
216	0x3cdb7387	0.026788486
217	0xbd01da44	-0.031702295
218	0x3b55fb26	0.0032650917
219	0x3cbc7a4a	0.02300753
220	0x3ca02b27	0.019551827
221	0xba280a5c	-0.0006410235
222	0xbca44106	-0.020050537
223	0xbca56157	-0.020188017
224	0x3b036ca9	0.002005378
225	0x3cbdcf44	0.023170121
226	0xbc8d5a2f	-0.017254917
227	0xbbc0e4d0	-0.0058866516
228	0x3c8802f6	0.016602974
229	0xbc45e337	-0.012078098
230	0x3c992719	0.018695401
231	0x3c181b7b	0.009283896
232	0x3bd69194	0.006548116
233	0x3a91ec09	0.0011132966
234	0x3b453845	0.0030093354
235	0xbd40be78	-0.047056645
236	0xbc2226d6	-0.0098969545
237	0xbc0c6e4f	-0.0085712215
238	0xbcaf38c2	-0.021389369
239	0xba8576a6	-0.0010182455
240	0x3b036a44	0.0020052353
241	0x3d74baa6	0.059748314
242	0x3d18d117	0.03730878
243	0xbcd57984	-0.02605892
244	0x3cc0d74d	0.023540163
245	0x3d7a6892	0.061134882
246	0x3a07a815	0.00051748875
247	0xbd1e8662	-0.038702376
248	0xbc599dda	-0.013282264
249	0xbba0a2a7	-0.004902202
250	0xba33e2e9	-0.00068621204
251	0xbaf2b38c	-0.0018516644
252	0xbc24aacc	-0.010050487
253	0xbbfec915	-0.0077754357
254	0xbd35676a	-0.044288076
255	0x3c65c64e	0.01402433

embedding.conv1.bias f4 [32]
0	0x3b18b97f	0.0023303924
1	0xbbc5905a	-0.006029171
2	0x3bb454c0	0.005503267
3	0xbba91995	-0.0051605203
4	0xba36ba46	-0.0006970506
5	0x3a4c548f	0.00077945826
6	0xbc5e4348	-0.013565846
7	0x3a37a861	0.00070059864
8	0x3a868ec9	0.0010265942
9	0xbbbd25c4	-0.0057723243
10	0x3af98753	0.0019037522
11	0xbbde5d86	-0.006786051
12	0x3c059622	0.00815347
13	0xb70a91d0	-8.259391e-06
14	0xba0b43b7	-0.00053125195
15	0x3badf140	0.0053083003
16	0x3bd179c4	0.0063926894
17	0x3bcae719	0.0061921
18	0xbb97a4f1	-0.004627817
19	0x3b462072	0.0030231741
20	0xbca24c83	-0.019811874
21	0x3c19cad9	0.009386742
22	0xbbbf0e83	-0.0058305874
23	0xbc6785d6	-0.01413103
24	0x3b80b3b0	0.0039276704
25	0x3be3564a	0.0069377767
26	0x3bd74898	0.006569933
27	0x3cb18466	0.021669578
28	0xbc14769f	-0.009061485
29	0xbca16073	-0.01969931
30	0xbc06f94d	-0.008238149
31	0x3bef6bdf	0.0073065604

encoder.0.attention.queries.weight f4 [32, 32]
0	0xbc49fc60	-0.012328237
1	0x3bc05646	0.0058696596
2	0x3c575153	0.013141948
3	0x3d018058	0.03161654
4	0x3ccd0df5	0.02503107
5	0x3c91ffc7	0.01782216
6	0xbcb29a94	-0.021802224
7	0x3cbe5193	0.023232257
8	0xbbd407c2	-0.0064706514
9	0x3d2a1245	0.04152133
10	0x3c78b953	0.0151809035
11	0x3d664f4f	0.05622798
12	0x3cc58ec7	0.024115933
13	0xbcfb35fd	-0.030665392
14	0xbca34089	-0.019928234
15	0x3cc993fd	0.0246067
16	0xbcdb11c1	-0.026741864
17	0xbc944a8e	-0.018101957
18	0x3c42db7f	0.011893152
19	0xbd23e12d	-0.040009666
20	0xbd601f9a	-0.054717638
21	0x3cb5ec76	0.02220748
22	0x3d05157a	0.032491185
23	0xbd008652	-0.031378098
24	0xbd0b4430	-0.034000576
25	0x3c31f41c	0.010861423
26	0x3c649376	0.013951173
27	0x3bf72f9a	0.0075435163
28	0x3da5639e	0.08075641
29	0xbc96a795	-0.018390456
30	0x3ccf6a38	0.025319204
31	0xbc062f44	-0.00818998
32	0xbc25cccc	-0.010119628
33	0x3ca26696	0.019824307
34	0x3d92cbc2	0.0716777
35	0x3b85bea4	0.004081564
36	0x3cb339d6	0.021878164
37	0x3d0479ab	0.032342594
38	0xbd2f5c5d	-0.042812694
39	0xbc95b976	-0.018276911
40	0xbcc54140	-0.024078965
41	0x3c33cbf1	0.010973916
42	0xbd60d134	-0.05488701
43	0x3c403a1f	0.011732607
44	0x3c712ac5	0.01471967
45	0x3b515fec	0.0031948043
46	0x3c223aa8	0.00990168
47	0x3cd95630	0.026530355
48	0x3b3f4a8e	0.0029188725
49	0xbd0d6fd1	-0.034530465
50	0x3cb78cea	0.02240606
51	0xbd025836	-0.031822406
52	0xbced420c	-0.028962158
53	0x3ce23109	0.027611272
54	0x3d70bf82	0.058776386
55	0xbcd521bc	-0.026017062
56	0xbd58b368	-0.05290547
57	0x3c29d174	0.010364879
58	0x3ca221e5	0.019791553
59	0x3d593444	0.05302836
60	0x3c14a777	0.00907313
61	0xbd1d9132	-0.038468547
62	0x3d9764b1	0.07392252
63	0xbd23a711	-0.03995425
64	0x3d4462ed	0.047945905
65	0xbd2d41da	-0.04229913
66	0xbcb739e2	-0.022366468
67	0x3b58ca38	0.0033079516
68	0xbd1e805a	-0.038696624
69	0xbaabc752	-0.0013105667
70	0x3dab7406	0.08371739
71	0xbd55c4f0	-0.052189767
72	0xbbf0bfe1	-0.0073470925
73	0xbce24d5b	-0.027624777
74	0x3d168725	0.036749978
75	0xbd1b0834	-0.03784962
76	0xbccc6331	-0.024949642
77	0x3d3c2155	0.045930225
78	0x3b6b2c5c	0.0035884595
79	0xbd1ff967	-0.039056208
80	0x3d4362dd	0.047701705
81	0x3cb03612	0.021510158
82	0xbcf52581	-0.02992511
83	0x3d8cae6a	0.06869204
84	0x3d2c0751	0.041999165
85	0xbd61c863	-0.055122744
86	0xbd189e7d	-0.03726052
87	0x3d2ea24f	0.04263526
88	0x3c9fb94c	0.019497536
89	0x3ba6a712	0.0050858343
90	0xbc533b76	-0.012892595
91	0xbca03447	-0.019556178
92	0x3a1b681e	0.00059282954
93	0x3af50664	0.0018693921
94	0xbce54fcc	-0.027992152
95	0x3c6ca28b	0.01444305
96	0x3d1a9428	0.03773895
97	0xbcdf6723	-0.02727086
98	0xbd10f6a7	-0.035391476
99	0xbd519eb8	-0.051176757
100	0xbc170038	-0.009216361
101	0xbca448c7	-0.020054234
102	0x3cd9f88c	0.026607774
103	0xbc0235ab	-0.007947366
104	0x3d546b19	0.05185995
105	0xbd1ed2e8	-0.038775355
106	0x3d143288	0.036181003
107	0xbd46fbe4	-0.048580065
108	0xbc91e702	-0.017810348
109	0x3c459833	0.012060213
110	0xbcdf64f6	-0.027269822
111	0xbc6f3888	-0.01460088
112	0x3c6141e0	0.013748616
113	0x3b96f13a	0.004606393
114	0x3c3a871c	0.011384752
115	0x3c9f4f35	0.019446949
116	0x3cc39a97	0.023877425
117	0xbcca3b2a	-0.024686415
118	0xbc738395	-0.014862915
119	0x3cdd5669	0.027018743
120	0x3c96a88d	0.018390918
121	0xbd023f6c	-0.031798765
122	0xbb825694	-0.003977606
123	0xbaf095c7	-0.0018355184
124	0xbcc884fa	-0.02447747
125	0x3d385727	0.04500499
126	0xbacd4e36	-0.0015663567
127	0x3ce7d686	0.028300535
128	0xbc8ebddf	-0.017424522
129	0x3c8ef26e	0.017449584
130	0x3ceaeebe	0.028678294
131	0xbd5db7d2	-0.054130383
132	0x3c7464ca	0.014916608
133	0x3d2c55bb	0.042073946
134	0xbd0ec794	-0.0348583
135	0x3d1d2914	0.038369253
136	0xbcff3263	-0.031151956
137	0x3d82229e	0.06354259
138	0xbd9b670d	-0.07588015
139	0x3ce9436a	0.028474528
140	0x3d671eea	0.056425966
141	0xbd7e3354	-0.06206067
142	0x3d958242	0.07300235
143	0x3ce2d674	0.02769015
144	0xbd80cb2d	-0.06288753
145	0xbd3c383a	-0.04595206
146	0x3c6fd3eb	0.0146379275
147	0xbd52bbd5	-0.05144866
148	0xbd9b3534	-0.07578507
149	0x3d00c06c	0.031433508
150	0x3dacd180	0.084383965
151	0xbd175863	-0.036949527
152	0x39f1d865	0.00046128329
153	0x3d488005	0.048950214
154	0xbb11fe0a	-0.0022276663
155	0x3d558d6c	0.052136824
156	0x3d073811	0.033012453
157	0x3bd956cc	0.0066326614
158	0x3d2aa6a7	0.04166284
159	0xbda43412	-0.08017744
160	0x3cd2ba69	0.025723653
161	0x3cf7e4fa	0.030260552
162	0x3cdcb073	0.026939606
163	0x3ce1beb6	0.027556758
164	0xbc8bce8e	-0.017066266
165	0x3ba28804	0.004960062
166	0xbd3d6e1a	-0.04624758
167	0x3d79ded0	0.061003506
168	0xbd22a6a3	-0.0397097
169	0x3d006816	0.031349264
170	0xbc94ced6	-0.018165033
171	0x3d15eafa	0.036601044
172	0xbc597e9e	-0.013274817
173	0xbd20a65e	-0.03922116
174	0xbc25ea87	-0.010126716
175	0x3c869258	0.016427204
176	0xbd92a847	-0.071610026
177	0x3bc29fa6	0.0059394417
178	0xbb81e4cd	-0.0039640428
179	0xbd07343f	-0.03300881
180	0xbd487759	-0.048941944
181	0xbbfac4b9	-0.0076528457
182	0x3cddeb94	0.027089871
183	0xbb906c19	-0.0044074175
184	0xbc9dc914	-0.01926092
185	0x3d1ceb98	0.038310617
186	0xbd3c2d04	-0.045941368
187	0x3d55a95c	0.052163467
188	0x3be68bcc	0.007035708
189	0xbc7a7093	-0.015285629
190	0x3cf0fbb9	0.029416906
191	0xbaa9b43d	-0.0012947392
192	0x3c22b48d	0.009930742
193	0x3b01d279	0.001980929
194	0xbb31853d	-0.0027087473
195	0x3d6ff50e	0.05858331
196	0x3d18f875	0.037346322
197	0x3aec3036	0.0018019739
198	0x3c7111da	0.014713729
199	0xbd550832	-0.05200977
200	0xbc92dd3d	-0.01792776
201	0xbb649ea7	-0.0034884603
202	0xbc48df57	-0.01226028
203	0x3c38fde9	0.011291006
204	0xbbe9e396	-0.007137726
205	0x3d13d3dc	0.036090717
206	0xbc8bb91c	-0.01705604
207	0xbcd3245e	-0.025774177
208	0xbc6e7cb3	-0.014556098
209	0x3c376fcf	0.011196091
210	0xbc37ea03	-0.011225226
211	0x3bf549c8	0.007485602
212	0x3ca96be1	0.020681323
213	0xbca631e8	-0.020287469
214	0x3ce1b677	0.027552826
215	0xbc8c6be6	-0.017141294
216	0x3c1a2789	0.00940884
217	0x3c923211	0.01784614
218	0xbd36be6a	-0.044615187
219	0xbd061fad	-0.032745052
220	0xbc855fb0	-0.016280979
221	0xbb87b591	-0.0041415174
222	0x3ca6858e	0.020327356
223	0x3d1f919b	0.03895722
224	0xbcd42956	-0.025898617
225	0xbd4156e7	-0.047202017
226	0x3c8eeb0e	0.017446067
227	0xbcba4c0c	-0.02274134
228	0x3ca9a4c4	0.02070845
229	0x3b06a743	0.0020546473
230	0x3c0ca299	0.008583688
231	0x3c56b340	0.01310426
232	0xbc8b516d	-0.0170066
233	0xbb76498c	-0.0037580458
234	0xbc9054b0	-0.017618507
235	0x3d4ab54d	0.04948931
236	0xba2383cd	-0.00062375964
237	0x3a044c05	0.0005046728
238	0x3d24e59e	0.040258043
239	0x3c518225	0.0127873765
240	0xbcb8ef8f	-0.022575168
241	0xbc79e18f	-0.015251531
242	0xbb2c2256	-0.0026265583
243	0x3c1f87bc	0.009736951
244	0xbbfa5c51	-0.0076403995
245	0x3c4597cb	0.012060116
246	0xbc0316d0	-0.008001044
247	0xbc0f2cc9	-0.008738705
248	0x3b89778e	0.00419516
249	0xbc19228d	-0.009346616
250	0x3cf2f68d	0.02965858
251	0xbb5eb4e3	-0.0033982329
252	0xbca6ff3b	-0.020385375
253	0xbc947ebe	-0.018126842
254	0x3d086641	0.033300642
255	0xbd115a1c	-0.035486326

encoder.0.attention.queries.bias f4 [32]
0	0x3c09a389	0.008400806
1	0x3d072f51	0.03300411
2	0xbd0889f0	-0.033334672
3	0xbb8837bc	-0.0041570347
4	0x3d1eea7b	0.038797837
5	0x3bafa7ce	0.00536058
6	0xbc90b46c	-0.017664157
7	0x3ca0eb7b	0.019643536
8	0xbd7a9cfa	-0.06118486
9	0x3d473e95	0.048643667
10	0xbcd71e88	-0.026259676
11	0x3d28b0bf	0.041184183
12	0x3d15dd4f	0.03658801
13	0xbd94b62b	-0.07261308
14	0xbcbf866d	-0.023379529
15	0xbd4b1970	-0.049584806
16	0x3cfbd446	0.030740868
17	0x3d2a1fae	0.04153412
18	0x3d054791	0.032538954
19	0x3cecae99	0.028891848
20	0x3d303c72	0.043026395
21	0x3d7110e9	0.058854017
22	0xbccfc5af	-0.025362818
23	0xbc3610a3	-0.011112365
24	0xbda3173c	-0.07963416
25	0xbd910116	-0.07080285
26	0x3da73c74	0.081658274
27	0x3d916630	0.07099569
28	0x3d3a9c7b	0.045559388
29	0x3d3abe85	0.04559185
30	0x3d8ffb8b	0.070304
31	0x3d5ab84e	0.053398423

encoder.0.attention.keys.weight f4 [32, 32]
0	0xbd4686f6	-0.048468553
1	0xbaf67287	-0.0018802442
2	0x3c3b036f	0.011414393
3	0x3c19d24e	0.009388519
4	0x3d3a79df	0.04552638
5	0x3d9b335c	0.075781554
6	0x3b756b50	0.0037447996
7	0x3d5e1fef	0.054229673
8	0x3c5ff32a	0.013668815
9	0xbd102cc7	-0.035198953
10	0x3b9b9712	0.0047482336
11	0xbc86ca68	-0.016453937
12	0xbc169063	-0.009189698
13	0xbcd460e7	-0.025925113
14	0x3ba9e725	0.0051850253
15	0x3d2c758f	0.0421043
16	0xbbe40710	-0.0069588497
17	0xbd158d89	-0.03651193
18	0x3d01620a	0.031587638
19	0xbcdbfcca	-0.026853938
20	0xbc807976	-0.015682917
21	0x3b5a3b92	0.0033299667
22	0xbd2f3745	-0.04277732
23	0x3c9acfba	0.01889788
24	0xbce6a7e8	-0.028156236
25	0x3be1a152	0.006885686
26	0x39778fbf	0.00023609305
27	0x3d806878	0.06269926
28	0x3d27faf1	0.0410108
29	0xbd6833a2	-0.056689866
30	0x3d237bf4	0.039913133
31	0xbcd45294	-0.025918283
32	0xbbc19291	-0.0059073647
33	0x3cd81c41	0.02638066
34	0x3ce833a0	0.02834493
35	0x3c4e72f7	0.012600652
36	0xbb59f07b	-0.003325491
37	0xbcd3efcc	-0.02587118
38	0xbc83c31d	-0.016084248
39	0x3c815268	0.015786365
40	0x3d074d19	0.03303251
41	0x3b582b8a	0.0032984936
42	0xbccd163a	-0.025035013
43	0xbcadf1a6	-0.021233391
44	0x3d286f27	0.041121628
45	0xbb54de6e	-0.0032481211
46	0xbb58fc76	-0.0033109463
47	0xbde22e51	-0.110439904
48	0xbcb04b5e	-0.021520313
49	0xbd0eceb0	-0.03486508
50	0x3d8f528b	0.06998166
51	0xbc0d44dd	-0.008622375
52	0xbd8c6e4c	-0.06856975
53	0xbca54e5c	-0.020178966
54	0xbcb2bdf2	-0.021819089
55	0x3db88874	0.09010401
56	0xbd0ef8f2	-0.03490538
57	0xbd1d8c37	-0.038463797
58	0xbb992bf6	-0.00467443
59	0x3daac36c	0.08338055
60	0x3aadf680	0.0013272315
61	0xbd874ef4	-0.06606856
62	0x3b14e1c4	0.0022717575
63	0x3c8c5ed5	0.017135063
64	0x3b9b4356	0.0047382517
65	0xbc1912ba	-0.009342844
66	0xbc93a7e2	-0.018024389
67	0xbcb7c706	-0.022433769
68	0xbd26ece5	-0.040753264
69	0xb8f572c0	-0.00011703884
70	0xbc9377e3	-0.018001502
71	0xbc68fdde	-0.014220683
72	0x3c5e58f8	0.0135710165
73	0x3c145a81	0.009054781
74	0x3d5f00af	0.05444401
75	0x3b686814	0.0035462426
76	0xbc145f95	-0.009055992
77	0x3c946f92	0.018119607
78	0x3ba84960	0.0051357
79	0x3db1301e	0.08651756
80	0xbba7a93d	-0.0051166103
81	0x3cbf9af8	0.023389325
82	0xbc86216e	-0.016373362
83	0x3c91ea24	0.017811842
84	0x3d0cd4e7	0.034382727
85	0x3d261a1a	0.040552236
86	0x3cfbcad5	0.030736366
87	0xbdcd8fea	-0.10037215
88	0x3c1e566f	0.009664162
89	0xbbe8ac96	-0.007100652
90	0x3c2abc6f	0.010420903
91	0xbde71396	-0.112830326
92	0x3b2ec3fa	0.0026667104
93	0x3c1a5742	0.009420218
94	0xbd2ce525	-0.042210717
95	0x3d35a423	0.044345986
96	0x3d39dea9	0.04537836
97	0x3c730dfd	0.014834878
98	0xbce1e07c	-0.027572863
99	0x3b8783ba	0.004135576
100	0xbc419f7c	-0.011817809
101	0xbd80eb1c	-0.062948436
102	0xbc4e3d00	-0.012587786
103	0x3b47214b	0.0030384834
104	0xbd16119b	-0.036637884
105	0xbc78378a	-0.01514996
106	0xbce296c1	-0.027659776
107	0xbbb784e9	-0.005600561
108	0x3ca9bdaf	0.020720331
109	0x3c283129	0.010265627
110	0xbd10926c	-0.03529589
111	0x3bb3d177	0.0054876166
112	0x3cefc747	0.029269828
113	0x3cb20c16	0.021734279
114	0xbcb80181	-0.022461655
115	0x3a725d9e	0.00092455174
116	0x3bc9f550	0.0061632767
117	0x3cbfc8ee	0.02341124
118	0x3bd3583e	0.0064497283
119	0xbcd8b438	-0.026453122
120	0x3a95687c	0.0011398937
121	0x3c074194	0.008255381
122	0x3d29e0b7	0.04147407
123	0xbd4cbe21	-0.04998601
124	0xbc1e9cb6	-0.0096809175
125	0x3bab4772	0.005227023
126	0xbd007619	-0.031362627
127	0x3cd3780a	0.025814075
128	0xbd2ad5b2	-0.041707702
129	0x3d070f17	0.032973375
130	0x3d4a69ee	0.04941743
131	0x3c772781	0.015085102
132	0x3d156839	0.036476348
133	0xbb97eb28	-0.004636187
134	0x3c2e5218	0.01063969
135	0x3d01a05a	0.031647064
136	0x3b2b3748	0.002612548
137	0x3c61691c	0.01375797
138	0xbcc1c921	-0.023655476
139	0xbc9cb433	-0.019128894
140	0x3d020e41	0.031751875
141	0x3c8c9e17	0.017165227
142	0xbc190fcd	-0.009342146
143	0xbdc7498a	-0.09730823
144	0xbc419e88	-0.011817582
145	0x3a2d5ab3	0.00066129415
146	0xbc1c3288	-0.009533532
147	0xbb7b99ba	-0.0038391189
148	0xbcffbb6f	-0.031217305
149	0xbd0482e1	-0.03235138
150	0xbc811528	-0.015757158
151	0x3c968a0e	0.018376376
152	0x3bd61ef2	0.0065344507
153	0x3c03d81f	0.008047133
154	0xbc1462ec	-0.009056788
155	0x3db72510	0.08942616
156	0xbc99613a	-0.018723119
157	0xbd46ad0b	-0.04850487
158	0x3d214de7	0.039380934
159	0xbd029f7a	-0.03189037
160	0xbcb328f3	-0.021870112
161	0x3cdbc0d9	0.026825355
162	0x3d199f6a	0.037505545
163	0x3c905f5b	0.017623594
164	0x3cc8adfc	0.024497025
165	0x3d24a5d3	0.040197205
166	0x3cbbc97d	0.022923226
167	0x3d33883d	0.0438311
168	0xbc231221	-0.009953053
169	0x3c11b2f4	0.008892763
170	0x3cb9e1f8	0.022690758
171	0xbcbf1aff	-0.023328302
172	0xb9e3faef	-0.00043483774
173	0xbd31d676	-0.043417417
174	0x3cfc0daf	0.030768244
175	0x3d74926f	0.059709962
176	0x3c89b95c	0.016812019
177	0xbc30957a	-0.0107778255
178	0x3b0ef4a3	0.0021813295
179	0xbc8fbf09	-0.017547147
180	0xbbe94f3f	-0.0071200426
181	0xbbc0e88e	-0.0058870977
182	0x3beea6b2	0.007283055
183	0xbc6af242	-0.014339985
184	0xbcec4b3f	-0.028844474
185	0xbd49cbe6	-0.04926672
186	0x3b876670	0.0041320845
187	0x3d988718	0.07447642
188	0x3bdf8937	0.006821777
189	0xbcc59ad9	-0.024121689
190	0x3d0bd3f8	0.034137696
191	0xbc462a6f	-0.012095078
192	0x3a4921ab	0.00076725584
193	0xbc6118e9	-0.013738849
194	0xbc4cfaae	-0.012510939
195	0x3cdfe095	0.027328769
196	0x3ce62986	0.028095972
197	0x3cd02d90	0.02541235
198	0x3d38aa19	0.045084093
199	0xbd93d3ee	-0.07218157
200	0xbd0b0893	-0.033943724
201	0xbd1d930a	-0.038470306
202	0x3d599f07	0.053130176
203	0x3cf794b1	0.030222269
204	0xbd0077fa	-0.03136442
205	0x3be596ef	0.007006518
206	0xbd19d6ae	-0.03755825
207	0x3da0bd40	0.078485966
208	0xbce8f01e	-0.02843481
209	0xbc52bdc9	-0.012862631
210	0x3c2889b9	0.010286742
211	0x3c3f232e	0.011666102
212	0xbd07ca73	-0.033152055
213	0xbc1fbaad	-0.009749097
214	0x3cc9bb6d	0.024625504
215	0xbc672b37	-0.014109424
216	0xb8b4f0e2	-8.627937e-05
217	0x3d02e4a2	0.031956322
218	0xbc9915b6	-0.01868711
219	0xbdf5f41e	-0.12009452
220	0x3b84793e	0.0040427735
221	0x3d066583	0.032811653
222	0xbbcdfc50	-0.0062861815
223	0x3b9d6b3b	0.0048040426
224	0x3c0bfddd	0.008544412
225	0x3c79e826	0.015253102
226	0xbade25a4	-0.0016948474
227	0xbca3e99e	-0.020008858
228	0xbc8ad29b	-0.016946128
229	0xbcbecc2f	-0.023290722
230	0x3b06ec3b	0.0020587582
231	0x3d419cb8	0.0472686
232	0x3c043114	0.008068342
233	0x3d20e6f3	0.03928275
234	0xbd594f93	-0.053054404
235	0xbc1f6d74	-0.0097306855
236	0x3a27e2c8	0.00064043375
237	0xbc995fde	-0.01872247
238	0x3afe7a46	0.0019415102
239	0xbd80b455	-0.062843956
240	0x3b05bd12	0.0020406884
241	0xbcab781a	-0.020931292
242	0xbc046d4c	-0.008082699
243	0x3b47e122	0.003049918
244	0xbce91336	-0.028451543
245	0xbc7fbe86	-0.015609389
246	0x3c095bac	0.008383673
247	0x3c6462e2	0.013939591
248	0x3c3b7fcc	0.011444043
249	0xbadbc517	-0.0016767111
250	0xbcbf90bf	-0.02338445
251	0x3db264ab	0.08710607
252	0x3c4c0a3b	0.012453611
253	0xbba8c0aa	-0.0051499205
254	0x3cd300e5	0.025757262
255	0xbc76b638	-0.015058093

encoder.0.attention.keys.bias f4 [32]
0	0xb5f7eb4b	-1.8471413e-06
1	0xb686c729	-4.0166965e-06
2	0xb7b5c2d5	-2.1667607e-05
3	0x36ae16a9	5.188242e-06
4	0xb64aecd8	-3.0238207e-06
5	0x36acab61	5.1459506e-06
6	0xb6a7d956	-5.002289e-06
7	0xb674315d	-3.6387567e-06
8	0xb7018fdf	-7.722497e-06
9	0x37a1a020	1.926726e-05
10	0xb6b9c55a	-5.5364044e-06
11	0xb6518c91	-3.1225247e-06
12	0x3676f536	3.6799588e-06
13	0x36d22f0f	6.263966e-06
14	0xb4f2e515	-4.5242692e-07
15	0xb808850d	-3.254884e-05
16	0xb6ec5120	-7.0427923e-06
17	0x3739c2e7	1.10722385e-05
18	0x378b2325	1.6586457e-05
19	0xb6918cb4	-4.3377167e-06
20	0xb69380ca	-4.3959344e-06
21	0x36b7ec53	5.4813368e-06
22	0xb6ead481	-6.998482e-06
23	0x363d3325	2.8192965e-06
24	0x37706de7	1.4330703e-05
25	0x3724d2cd	9.824243e-06
26	0xb7cb750c	-2.425399e-05
27	0xb6a90a48	-5.0377894e-06
28	0xb784e465	-1.584198e-05
29	0xb6d1f290	-6.2569234e-06
30	0x33d08e01	9.711585e-08
31	0xb771ecb7	-1.4419834e-05

encoder.0.attention.values.weight f4 [32, 32]
0	0x3c88b44c	0.016687535
1	0x3ce61ebf	0.028090833
2	0xbd05d723	-0.032675873
3	0xbb8951a1	-0.004190639
4	0x3d01dc8f	0.03170448
5	0x3c576521	0.01314667
6	0xbcfc9f7f	-0.030837772
7	0x3ce5d97c	0.028057806
8	0xbb07fe7a	-0.0020751045
9	0x3b86b226	0.0041105924
10	0x3cdcdb87	0.026960148
11	0xbb3a5cd7	-0.0028436685
12	0x3c861cc2	0.016371135
13	0x3c55c7a6	0.013048088
14	0x3cc1cd72	0.023657534
15	0x3bd74c01	0.0065703397
16	0x3cb15ecf	0.021651654
17	0xbc7fb423	-0.015606913
18	0xbc051628	-0.008122958
19	0xba19fbf1	-0.0005874029
20	0x3c254263	0.010086629
21	0x3cad4116	0.0211492
22	0x3c6e5f88	0.014549144
23	0xbc713682	-0.014722468
24	0xbd1714c7	-0.03688505
25	0xbcc56c31	-0.024099441
26	0xbcc8de12	-0.024519954
27	0x3c67a267	0.014137841
28	0x3ce191b2	0.027535293
29	0xbc9bcdc5	-0.019019017
30	0x3af393fe	0.0018583534
31	0xbc69b6c6	-0.014264768
32	0xbd0c177e	-0.03420209
33	0xbc7bf8cc	-0.015379142
34	0xbd240363	-0.040042292
35	0xbc5f6599	-0.013635063
36	0x3bf49ad5	0.0074647465
37	0xbc4ffc74	-0.012694467
38	0x3c820976	0.015873652
39	0x3cbc24ee	0.022966828
40	0x3c384fd0	0.0112494975
41	0xbd17019b	-0.036866765
42	0x3be60799	0.0070199487
43	0xbceb598a	-0.028729219
44	0x3d078f2e	0.03309553
45	0x3c4c2265	0.012459372
46	0xbb926ef3	-0.0044687926
47	0xbd17adfa	-0.03703115
48	0x3d0c24a3	0.034214627
49	0xbad16295	-0.0015974814
50	0xbc8bf817	-0.017086072
51	0x3cdcba75	0.026944378
52	0x3bc654ee	0.006052605
53	0x3c494595	0.012284656
54	0xbc8f58f1	-0.017498465
55	0x3ba41b58	0.0050081424
56	0xbd10ba3b	-0.035333853
57	0xbd14d6d5	-0.036337692
58	0x3ca7385f	0.020412622
59	0x3b06e6b9	0.0020584299
60	0xbc1c8faa	-0.009555737
61	0x3cbbaacf	0.022908596
62	0xbc307fbb	-0.010772641
63	0x3ad5fb4e	0.0016325505
64	0xbaa33e83	-0.0012454543
65	0xbb3e5a4a	-0.0029045516
66	0xbc379c02	-0.011206629
67	0x3c8cf880	0.017208338
68	0xbd329dc3	-0.043607485
69	0xbcc30cda	-0.023809839
70	0x3a766f56	0.00094007456
71	0x3a5e7797	0.0008486448
72	0x3ccddd43	0.02512992
73	0xbce07cbc	-0.027403228
74	0x3c265462	0.010151954
75	0x3ce4894d	0.027897501
76	0xbcb32d46	-0.021872174
77	0x3d16dd16	0.036831938
78	0x3c42edd8	0.011897527
79	0xbc8ada79	-0.016949879
80	0x3bf44eac	0.0074556675
81	0x3ce0894e	0.027409222
82	0xbc3690d5	-0.011142929
83	0x3c7af4b9	0.0153171355
84	0xbd258cca	-0.04041747
85	0x3bb7ab63	0.0056051477
86	0xbb710bf8	-0.0036780816
87	0x3d18d132	0.03730888
88	0x3be9e8a0	0.0071383268
89	0x3c977003	0.018486029
90	0x3c683fb7	0.014175347
91	0xbc7de5e7	-0.0154967075
92	0xbcb0d1c1	-0.021584393
93	0x3cb9a1f6	0.022660237
94	0xbc5abaf2	-0.013350235
95	0xbc3f7641	-0.011685909
96	0xbc07083f	-0.008241712
97	0x3ccf32fd	0.025292868
98	0xba6e9d77	-0.00091024436
99	0xbc46f328	-0.012142934
100	0xbcc9fdbf	-0.024657128
101	0xbc6c6da8	-0.014430441
102	0x3cba83ba	0.02276789
103	0xbcf01bab	-0.029310068
104	0xbd076c15	-0.03306206
105	0xbc103ef2	-0.00880407
106	0xbca45d56	-0.020064037
107	0xbb9b17e6	-0.0047330735
108	0x3c586c12	0.01320936
109	0x3d02435a	0.031802513
110	0xbcfb01e7	-0.030640556
111	0x3cbc6351	0.022996577
112	0x3cbdf2db	0.023187092
113	0x3943838e	0.00018645657
114	0xbb1331d7	-0.0022460127
115	0x3c3f82ea	0.011688927
116	0x3c4ad047	0.012378759
117	0x3b9e0010	0.004821785
118	0xbcb80252	-0.022462044
119	0xbc2db28f	-0.010601654
120	0xbc0f0fc2	-0.008731784
121	0xbc5e8916	-0.0135824885
122	0xbb2db335	-0.002650452
123	0xbc961480	-0.018320322
124	0xbbc4b53f	-0.0060030515
125	0xbd174e4b	-0.0369399
126	0xbc73fba7	-0.014891542
127	0x3b94e0ac	0.0045433845
128	0x3d0733e9	0.03300849
129	0xbd1562f4	-0.036471322
130	0xbba459c3	-0.0050155832
131	0xbc67ba05	-0.014143472
132	0x3cdac75f	0.026706396
133	0xbcdc516c	-0.026894294
134	0xbd588660	-0.052862525
135	0xbb0e2465	-0.0021689173
136	0xbcacf48e	-0.021112707
137	0xbc358386	-0.011078721
138	0x3cd7dc49	0.026350157
139	0xbbe4ac5f	-0.006978556
140	0x3d0797d4	0.03310378
141	0x3c5a9b9c	0.013342764
142	0xbcb5d248	-0.022194996
143	0xbc8c17e5	-0.017101238
144	0x3ca39f08	0.019973293
145	0xbc15d639	-0.009145313
146	0xbc002628	-0.007821597
147	0x3bd58727	0.0065163556
148	0x3c5e1d6a	0.013556818
149	0x3d02c9d8	0.031930774
150	0xba6f8ff5	-0.0009138578
151	0xbbfcf2f5	-0.0077193924
152	0xbc728559	-0.0148023
153	0x3c9f461c	0.01944261
154	0x3d9298a8	0.07158023
155	0xbc09e5bd	-0.00841659
156	0xbc664532	-0.014054583
157	0xbb66cf92	-0.0035218936
158	0xbd28f02b	-0.041244667
159	0x3c60ea74	0.013727773
160	0xb91fdc3a	-0.00015245462
161	0xbccc8ba1	-0.024968924
162	0xbc5caa1d	-0.013468293
163	0xbb7014de	-0.0036633532
164	0xbc6b085d	-0.014345256
165	0xbd213322	-0.039355405
166	0x3c10a29c	0.008827832
167	0xbb8d2e8d	-0.004308528
168	0xbadbf6cf	-0.0016781929
169	0xbcffc826	-0.031223368
170	0x3c9324d0	0.01796189
171	0xbd4de28f	-0.05026489
172	0x3b7e7efd	0.0038833015
173	0xbd0ac0d7	-0.033875313
174	0x3a3f5e6c	0.0007300142
175	0x3ad77620	0.0016438402
176	0xba4d1058	-0.0007822565
177	0x3c6b82f9	0.014374488
178	0x3cd5f3fa	0.026117314
179	0xbb77fbb0	-0.0037839226
180	0x3abd9fbe	0.0014467163
181	0xbbdd6266	-0.006756115
182	0xbb2d74b6	-0.002646727
183	0x3c89cfdb	0.016822746
184	0x3ad2e180	0.0016088933
185	0x3d455357	0.048175182
186	0x3d0ccba2	0.034373887
187	0x3c5317f0	0.012884125
188	0xbc2efebc	-0.010680851
189	0x3b2f680b	0.0026764895
190	0xbc1b228b	-0.009468685
191	0x3be4d252	0.00698308
192	0xbc22f28c	-0.009945523
193	0xbc108bc4	-0.008822385
194	0x3c8e9e08	0.01740934
195	0x3c8af2f1	0.016961547
196	0xbae84fab	-0.0017723938
197	0xbc834c44	-0.016027577
198	0x3b5dbdf0	0.0033835135
199	0xbc4c523e	-0.01247078
200	0xbc67b36c	-0.014141899
201	0xbcb41f92	-0.02198771
202	0xbc9beda9	-0.019034224
203	0x3d329c71	0.043606225
204	0x3c4c3670	0.012464151
205	0xbc4f1858	-0.012640081
206	0x3c831a08	0.016003624
207	0x3b2c9789	0.002633544
208	0x3c4b9c68	0.012427427
209	0xbc4d2dc1	-0.012523116
210	0x3cfb5b3b	0.03068315
211	0xbcdf0c80	-0.02722764
212	0x3cae5c1e	0.02128416
213	0x3c34f9cd	0.011045885
214	0xbae53957	-0.0017488402
215	0xbd0451f6	-0.032304727
216	0xbb15c9a7	-0.002285579
217	0x3c861701	0.016368391
218	0xbcbca908	-0.02302982
219	0xbbe8aa7e	-0.0071004024
220	0x3cb53cd4	0.022123732
221	0x3c02ac4e	0.007975651
222	0x3c330bf4	0.010928143
223	0x3c9bf9bb	0.01903998
224	0x3c76cd6f	0.015063628
225	0xbcd6dc1f	-0.026228009
226	0x3c7a0a1f	0.015261202
227	0xbc4806e0	-0.01220867
228	0x3ce66c1f	0.028127728
229	0xbb03cb13	-0.0020110055
230	0xbc0f032c	-0.008728784
231	0x3bea3fae	0.0071487045
232	0xbc137de8	-0.009002186
233	0xbac35435	-0.0014902415
234	0xbbae1a49	-0.005313192
235	0x3c7aedac	0.015315454
236	0xbc1a0cef	-0.009402498
237	0x3c56db1b	0.013113762
238	0x3c46d7f7	0.012136451
239	0x3c98025c	0.018555813
240	0x3c34dac0	0.011038482
241	0x3ce569e1	0.028004589
242	0x3cfb33cc	0.030664347
243	0x3c412db3	0.011790681
244	0x3d0ea9b1	0.0348298
245	0xbca2ede5	-0.019888828
246	0xbc0ace16	-0.008471986
247	0xbc904e88	-0.017615572
248	0x3cfbe695	0.030749599
249	0xbbab7f36	-0.0052336706
250	0x3bc2861e	0.005936398
251	0xbc00516c	-0.0078319125
252	0x3c28cc8f	0.010302677
253	0x3d3e959a	0.04652939
254	0x3ad9ac51	0.001660714
255	0xbb0d4862	-0.0021558036

encoder.0.attention.values.bias f4 [32]
0	0xbb9aada2	-0.0047204057
1	0xba76bf88	-0.00094126957
2	0xb99fbd60	-0.0003046794
3	0xbbe33fb3	-0.006935084
4	0x3b43a5cd	0.0029853464
5	0x3b7e96a8	0.0038847122
6	0xbb6646a6	-0.0035137325
7	0x3a4a2a9f	0.00077120395
8	0xbb8cdf58	-0.0042990856
9	0x3b86d0c3	0.004114242
10	0xbba2d829	-0.004969616
11	0x3be1a134	0.006885672
12	0x3b9de8e3	0.004819022
13	0xbc1e3ff2	-0.0096588
14	0x3b2be8bb	0.0026231247
15	0x3b7acf13	0.0038270399
16	0xbafddb3c	-0.0019367705
17	0xbb1fc039	-0.0024376048
18	0x39291dbe	0.00016128176
19	0xbc237925	-0.009977614
20	0xbc165ced	-0.009177429
21	0x373d9b44	1.13014285e-05
22	0x3be14645	0.006874832
23	0xbb1fbac2	-0.002437279
24	0x39110f49	0.00013833972
25	0x3c247625	0.0100379335
26	0x3bb0d9b0	0.005397044
27	0x3b8d20a9	0.004306872
28	0x3c070e16	0.008243104
29	0xbb97efc6	-0.0046367375
30	0x3b6cba32	0.0036121723
31	0xbbe4c57b	-0.0069815493

encoder.0.attention.fc.weight f4 [32, 32]
0	0x3c4040f4	0.011734236
1	0xbc8358f4	-0.016033627
2	0x3c175ab0	0.00923793
3	0xbca576cb	-0.020198246
4	0xbca8a650	-0.020587116
5	0x3cd7d8ab	0.026348433
6	0xb9167944	-0.0001435029
7	0x3ca2cfdd	0.019874508
8	0x3b95e9d4	0.0045749936
9	0xbcca8450	-0.024721295
10	0x3c99387f	0.018703697
11	0xbc71422f	-0.014725252
12	0x3cc8f5dd	0.0245313
13	0x3c3fb5d8	0.01170107
14	0xbc56509e	-0.013080744
15	0x3d3a4280	0.045473576
16	0xbbe7e13c	-0.0070764106
17	0xbb35cafe	-0.00277394
18	0x3d002dd3	0.0312937
19	0x3d1698a2	0.036766656
20	0x3c1deea8	0.00963942
21	0x3b902e8b	0.0044000796
22	0x3cfc9e0c	0.030837081
23	0x3c2f505c	0.0107003115
24	0x3cdf9bd0	0.027295977
25	0x3c61e5b9	0.01378768
26	0xbc0959df	-0.008383243
27	0xbb4a95ad	-0.0030911968
28	0x3c8ed22d	0.017434204
29	0xbc98f440	-0.018671155
30	0xbd019ce2	-0.031643756
31	0xbc2aaf07	-0.010417706
32	0xbb847e2d	-0.0040433616
33	0x3ce025db	0.0273618
34	0x3c98f520	0.018671572
35	0x3be4cf2e	0.0069827056
36	0xbc4e4844	-0.012590472
37	0x3cac30ae	0.021019306
38	0x3cbd611e	0.023117598
39	0xbcc96bcb	-0.024587533
40	0xba53b35d	-0.00080757384
41	0x3c9eeabe	0.019399043
42	0x3cecefbe	0.028922912
43	0xbb7c2bb8	-0.0038478207
44	0xbcd178b3	-0.02557025
45	0x3c4f6339	0.012657934
46	0xb9a7ca54	-0.00032003468
47	0x3acef36f	0.0015789102
48	0xbc973fb6	-0.018462997
49	0x3c8d2fb1	0.017234655
50	0xbb8b6159	-0.004253548
51	0xbc0c75ab	-0.008572976
52	0xbc8a7867	-0.016903115
53	0xbc752162	-0.014961572
54	0x3d358c90	0.044323504
55	0x3bdbe357	0.0067104506
56	0x3c2ec796	0.010667702
57	0xbb21adf0	-0.0024670325
58	0x3ce8c5ea	0.028414685
59	0x3b0738d7	0.0020633244
60	0xbcdb45fc	-0.02676677
61	0xba7ea2f9	-0.0009713616
62	0xbc159f76	-0.009132257
63	0x3bd54baf	0.0065092663
64	0xbd2edf22	-0.042693265
65	0xbd0a62e7	-0.033785727
66	0x3c512510	0.012765184
67	0xbc99e3fd	-0.018785471
68	0x3d3dc7ca	0.04633311
69	0xbc24d8a7	-0.01006142
70	0xb99c7e30	-0.00029848656
71	0x3c8b18a9	0.016979532
72	0x3ca4587d	0.020061726
73	0xbc46ab04	-0.012125734
74	0xbc192939	-0.009348207
75	0x3c9226fc	0.017840855
76	0xb971ebfe	-0.00023071465
77	0x3d120d27	0.035657074
78	0xbaa0905b	-0.0012250053
79	0x3a868246	0.0010262213
80	0x3c941db6	0.018080574
81	0x3b938c3d	0.0045028017
82	0xbc5cc2f8	-0.013474219
83	0xbd2bce4b	-0.041944783
84	0x3d0c09f2	0.034189172
85	0xbcc68101	-0.024231436
86	0xbc38f402	-0.011288645
87	0x3d0e320b	0.034715693
88	0x3c70abb7	0.0146893775
89	0xbbbd961e	-0.0057857176
90	0xbc8d185e	-0.017223533
91	0xbbc21bfe	-0.005923747
92	0xbc686fd2	-0.014186816
93	0xbca1cd33	-0.019751167
94	0x3ccf250f	0.025286226
95	0xbcaee6d0	-0.021350294
96	0xb8e19573	-0.00010756673
97	0x3c183883	0.009290817
98	0x3ca10870	0.019657344
99	0x3be837b9	0.007086721
100	0x3c5a1c3b	0.013312395
101	0xbbf243fe	-0.007393359
102	0x3c542ef4	0.012950648
103	0x3c60fb90	0.013731852
104	0x3caa566f	0.020793168
105	0xbcb85d5d	-0.022505457
106	0xbc8e433f	-0.01736605
107	0xbbb98f98	-0.0056628697
108	0xbd14107f	-0.036148544
109	0xbd11ff2a	-0.035643734
110	0x3c8552af	0.016274778
111	0x3d0a637b	0.03378628
112	0x3af7a0b2	0.0018892495
113	0x3c6b7abe	0.014372526
114	0xbca8a2d3	-0.020585453
115	0x3d0456af	0.03230923
116	0xbbfc2a20	-0.0076954514
117	0xbc7bdcfd	-0.015372512
118	0x3c5f2c44	0.013621394
119	0x3c3eb909	0.0116407955
120	0x3ccc1347	0.024911536
121	0xbcbe6f3c	-0.0232464
122	0xbc9c2fdb	-0.019065788
123	0x3d17f922	0.037102826
124	0xbc68f7e1	-0.014219255
125	0xbc67ad37	-0.014140419
126	0xbcae2e18	-0.021262214
127	0xbbc01b9b	-0.005862666
128	0x3c4c6d18	0.012477182
129	0xbc183d14	-0.009291906
130	0x3c4aee66	0.01238594
131	0xbc20cec8	-0.0098149255
132	0xbc79503e	-0.015216885
133	0x3cd4377c	0.025905363
134	0x3cb3aa98	0.021931931
135	0x3c6bae06	0.014384752
136	0xbd281f33	-0.04104538
137	0x3d129c9d	0.03579389
138	0x3c4bbd70	0.012435302
139	0x3b1df5b4	0.002410275
140	0xbc8afaf1	-0.016965361
141	0xbd3d854b	-0.046269696
142	0xbc149b5d	-0.009070245
143	0xbbc8a2dd	-0.0061229304
144	0x3cb5d7e5	0.022197673
145	0xbb9d08a4	-0.00479229
146	0xb8a16e69	-7.697644e-05
147	0xbcdce7a1	-0.026965918
148	0xbcd74590	-0.026278287
149	0xbd4d35fd	-0.050100315
150	0x3cce12ac	0.025155388
151	0xbc007947	-0.007841415
152	0xbb2b684f	-0.0026154702
153	0x3cad3acb	0.021146199
154	0xbb6ed2f3	-0.0036441654
155	0x3c716b2e	0.014735026
156	0x3be71b2c	0.0070527997
157	0x3baff2e5	0.0053695315
158	0x3c2e4fee	0.010639174
159	0x3d3493a1	0.044086102
160	0xbba13cc9	-0.0049205762
161	0x3b85ea7f	0.004086792
162	0x3ca9e627	0.020739628
163	0xbbcb5266	-0.006204891
164	0xbaec676f	-0.0018036197
165	0xbc31917d	-0.01083791
166	0x3b461c60	0.0030229315
167	0x3b43e2fd	0.0029889934
168	0xbc43e5af	-0.011956616
169	0xbc3d2fe4	-0.011547063
170	0xbc8435d2	-0.016138945
171	0xbb508744	-0.0031818906
172	0xbba81e57	-0.00513057
173	0x3a1428f9	0.00056518574
174	0x3d32382f	0.043510612
175	0x3bb250c6	0.005441758
176	0x3bbff5b9	0.00585815
177	0xbbf000be	-0.007324307
178	0x3c1c6e60	0.0095478
179	0x3c15e3f9	0.009148591
180	0xbb232da9	-0.0024899042
181	0x3c0fb4ec	0.0087711625
182	0x3c83f6a5	0.01610882
183	0xbbf765b0	-0.007549964
184	0xbaa4abe0	-0.001256343
185	0xbc07a62f	-0.008279367
186	0xbc34bcbc	-0.011031326
187	0xbd0c3e89	-0.034239326
188	0xbbfd1dae	-0.0077244854
189	0x3c3562d0	0.011070922
190	0x3d015546	0.031575464
191	0xbcf856c2	-0.030314807
192	0x3c1218fb	0.008917089
193	0x3cb28524	0.021792002
194	0x3abe4feb	0.0014519667
195	0xbc82b046	-0.015953194
196	0xbcd9acd0	-0.026571661
197	0x3bfa044b	0.0076299063
198	0xbbdfe272	-0.0068324143
199	0xbc0485de	-0.008088557
200	0xbd3aaa21	-0.045572404
201	0xbc21cf6f	-0.009876116
202	0x3cb44b9c	0.02200871
203	0xbd00200e	-0.03128057
204	0xbc41aa60	-0.011820406
205	0xbcd55f47	-0.026046408
206	0xbc465a4a	-0.0121064875
207	0xbc8a3160	-0.016869247
208	0xbcc72f86	-0.024314653
209	0xbc41f57d	-0.011838314
210	0xbca4572d	-0.0200611
211	0xbcfa9350	-0.030587822
212	0x3c9366a8	0.017993286
213	0xbc33266e	-0.010934455
214	0xbc73b130	-0.014873788
215	0xbcf664b9	-0.030077325
216	0xbd050b0e	-0.032481246
217	0xbc05f0f6	-0.008175125
218	0x3b9c7a7d	0.004775344
219	0xbcaa80ce	-0.020813372
220	0x3c81e3bd	0.015855664
221	0x3ca08781	0.019595863
222	0xbc0b02ba	-0.008484537
223	0x3cec3b66	0.028836917
224	0xbd50a037	-0.050934043
225	0xbc1a36e0	-0.009412497
226	0xbcffece3	-0.031240886
227	0xb9973e56	-0.00028847408
228	0x3c928034	0.017883398
229	0x3c5c4206	0.013443476
230	0xbcb7da62	-0.022443
231	0xbcc93f4f	-0.02456632
232	0x3cb3abe6	0.021932553
233	0xbc5b4c0f	-0.013384833
234	0xbc22d801	-0.009939195
235	0xbb594494	-0.0033152448
236	0x3c239ae7	0.009985662
237	0x3c97e37b	0.018541088
238	0xbb4be212	-0.003111009
239	0x3d177d76	0.036984883
240	0xbc2cd1a7	-0.010548032
241	0xbc478dfe	-0.01217985
242	0x3c7e46d0	0.015519813
243	0xbc6a0073	-0.014282334
244	0xb9ca1a24	-0.0003854792
245	0xbc2c2093	-0.010505813
246	0x3c48f894	0.012266297
247	0x3cac083e	0.021000024
248	0xbcf2beaf	-0.02963194
249	0x3b969578	0.004595455
250	0xbcaa653b	-0.020800224
251	0x3c958449	0.018251555
252	0x3c5d1e4f	0.013495996
253	0x3bafdfd6	0.0053672595
254	0x3c25882e	0.010103269
255	0x3d170ab7	0.036875453

encoder.0.attention.fc.bias f4 [32]
0	0x00000000	0.0
1	0x00000000	0.0
2	0x00000000	0.0
3	0x00000000	0.0
4	0x00000000	0.0
5	0x00000000	0.0
6	0x00000000	0.0
7	0x00000000	0.0
8	0x00000000	0.0
9	0x00000000	0.0
10	0x00000000	0.0
11	0x00000000	0.0
12	0x00000000	0.0
13	0x00000000	0.0
14	0x00000000	0.0
15	0x00000000	0.0
16	0x00000000	0.0
17	0x00000000	0.0
18	0x00000000	0.0
19	0x00000000	0.0
20	0x00000000	0.0
21	0x00000000	0.0
22	0x00000000	0.0
23	0x00000000	0.0
24	0x00000000	0.0
25	0x00000000	0.0
26	0x00000000	0.0
27	0x00000000	0.0
28	0x00000000	0.0
29	0x00000000	0.0
30	0x00000000	0.0
31	0x00000000	0.0
