model/mnist/tune_lr0.0005_ed64_nl6_nh2_fm2_ps4/temp_model.pt (torch, 875757 bytes, 106 tensors)

embedding.cls_token f4 [1, 1, 64]
-0.054250848 -0.0062181624 -0.00023922627 0.0078766085 0.0031978097 -0.013302344 0.0037481505 -0.00956167
-0.0035016623 -0.02713348 -0.022579676 0.0067788525 -0.009114245 0.046261545 -0.007885388 -0.0039265137
0.017079975 0.00839559 0.03026084 -0.024875067 -0.0031041587 -0.007655515 -0.030102931 -0.019862879
0.0033344745 -0.012332328 -0.0026313746 0.01443634 0.0040429267 -0.00150074 -0.006316761 -0.002837835
0.009172614 0.007038669 -0.0005758603 -0.0017871052 0.007074121 0.0154487165 -0.0067843315 0.0016877105
0.0060726176 0.0027889214 0.01030406 -0.006410395 0.0073776706 -0.030888373 -0.02352491 -0.00086313864
-0.010733532 0.026269065 0.02187902 0.045489863 0.0048056403 -0.01600314 0.05046714 -0.028808512
-0.0039769276 0.020894537 0.04053872 0.0070763524 0.0015372236 0.028577404 -0.00010558483 -0.07463045
00000000: 2336 5ebd bac1 cbbb d0d8 7ab9 e40c 013c
00000010: 5892 513b 13f2 59bc 88a3 753b 8da8 1cbc
00000020: 257c 65bb 0847 debc 03f9 b8bc 2321 de3b
00000030: ea53 15bc bf7c 3d3d b731 01bc fca9 80bb
00000040: 4eeb 8b3c a88d 093c 95e5 f73c ccc6 cbbc
00000050: 246f 4bbb 1ddb fabb 6c9a f6bc 7ab7 a2bc
00000060: 3387 5a3b 880d 4abc 2473 2cbb 6686 6c3c
00000070: 877a 843b 7ab4 c4ba d5fc cebb f9fa 39bb
00000080: bb48 163c a3a4 e63b 55f5 16ba 4d3d eaba
00000090: 07ce e73b 9d1c 7d3c 194f debb 2b36 dd3a
000000a0: cffc c63b 56c6 363b 5cd2 283c 4a0e d2bb
000000b0: 63c0 f13b 9d09 fdbc 50b7 c0bc 4144 62ba
000000c0: b2db 2fbc 3932 d73c a13b b33c 9453 3a3d
000000d0: a278 9d3b 0419 83bc a2b6 4e3d d4ff ebbc
000000e0: e350 82bb 052b ab3c ee0b 263d bfe0 e73b
000000f0: aa7c c93a 291b ea3c 6d6d ddb8 d9d7 98bd

embedding.pos_embedding f4 [1, 50, 64]
-0.05425084 -0.0062181605 -0.00023922672 0.007876606 0.003197811 -0.013302353 0.0037481473 -0.009561677
-0.003501663 -0.027133472 -0.022579668 0.0067788507 -0.009114241 0.046261527 -0.007885396 -0.0039265053
0.017079974 0.0083955955 0.030260844 -0.024875073 -0.0031041638 -0.0076555237 -0.030102922 -0.019862888
0.0033344727 -0.012332323 -0.0026313672 0.014436332 0.0040429253 -0.0015007373 -0.0063167517 -0.0028378349
0.009172615 0.0070386655 -0.0005758638 -0.0017871027 0.0070741097 0.015448714 -0.0067843273 0.0016877081
0.0060726223 0.00278892 0.010304063 -0.006410387 0.007377671 -0.030888375 -0.023524908 -0.0008631375
-0.010733524 0.026269069 0.021879014 0.045489866 0.004805641 -0.016003137 0.05046716 -0.028808502
-0.003976937 0.020894542 0.040538713 0.0070763566 0.0015372275 0.028577419 -0.00010558269 -0.07463045
0.019124739 -0.01358619 0.0035255754 -0.025372596 0.009848085 -0.014025065 0.0037207995 -0.012377634
-0.010446829 0.0019084564 -0.013719402 0.04868877 0.0012404099 0.06499092 -0.023872916 -0.0395447
0.008347525 0.028795363 -0.059154067 -0.019898545 -0.0024673077 0.017392939 -0.020793155 -0.015586224
-0.00011623742 -0.00084604044 0.015519717 0.010061861 -0.000999195 0.0012146981 0.008488002 -0.034327447
0.014705657 -0.021001918 -0.02334567 -0.013945328 0.018309632 -0.037900005 0.013257492 0.026453886
-0.016213022 0.0287219 0.013598951 -0.013978579 0.011665815 0.011371326 0.0038253628 0.023468466
-0.00856417 0.04027082 0.04746817 -0.031082647 0.011694932 0.011900265 -0.05449918 -0.022173157
-0.0029276365 -0.006150724 -0.013789147 0.009553956 0.018789519 0.024424836 -0.005080409 -0.020772755
0.017129363 -0.021081949 0.017803395 -0.034610108 0.01040109 -0.0109169325 0.013670715 -0.011119559
-0.014458333 0.013443113 -0.04234015 0.022790276 -0.008568955 0.021442324 0.0011098627 0.010220284
0.03439455 0.0071339332 -0.05544638 0.0074960957 -0.004096851 0.0098880865 -0.03821025 0.008870499
-0.020515347 -0.016880862 -0.013348672 0.005877047 0.019216504 0.022427827 0.008348374 -0.023016907
-0.0058125956 -0.036205653 -0.002048712 -0.00504158 0.02292856 -0.038910832 0.023895739 0.02010476
0.010410367 0.04492322 0.014381991 -0.03588794 -0.0064730654 -0.007463596 0.0034659335 0.016221454
-0.023630444 0.06168925 0.0038188216 -0.018828476 0.018680044 -0.011095914 -0.040511496 -0.023027232
-0.0008621837 -0.0004072029 -0.0031022776 -0.007992755 0.056099355 -0.0076515516 -0.008702682 0.021831611
0.0072800037 0.036029194 0.04364932 0.07349269 -0.018508993 0.057034593 -0.030301288 0.018724302
-0.07093057 0.0637856 -0.03613767 -0.0003882362 -0.06571957 -0.05387572 0.09335136 0.09558965
0.038163878 -0.08121178 -0.04274538 0.058862425 -0.07323694 -0.040069815 -0.03590149 0.051613797
-0.053756762 0.025612136 -0.057363354 -0.042374376 0.07535958 -0.06618507 -0.03090335 -0.0064059664
-0.086418115 -0.10405062 0.049241487 0.09493591 0.007387786 -0.017931823 -0.016941622 -0.029462695
0.056744516 -0.004466334 -0.0014734847 -0.04329472 -0.039916534 -0.07360408 0.048183847 0.049184527
0.036714837 0.017450461 -0.07081314 0.013404462 -0.00010205112 -0.015072609 0.021015014 0.06445684
-0.0051927348 -0.054003794 0.06360428 -0.03797534 0.10756585 -0.059629615 -0.00081201165 0.10593115
00000000: 2136 5ebd b6c1 cbbb efd8 7ab9 e10c 013c
00000010: 5e92 513b 1df2 59bc 7aa3 753b 95a8 1cbc
00000020: 287c 65bb 0447 debc fff8 b8bc 1f21 de3b
00000030: e653 15bc ba7c 3d3d bf31 01bc eaa9 80bb
00000040: 4deb 8b3c ae8d 093c 97e5 f73c cfc6 cbbc
00000050: 3a6f 4bbb 30db fabb 679a f6bc 7fb7 a2bc
00000060: 2b87 5a3b 830d 4abc 0473 2cbb 5d86 6c3c
00000070: 847a 843b 63b4 c4ba c1fc cebb f8fa 39bb
00000080: bc48 163c 9ba4 e63b 91f5 16ba 373d eaba
00000090: efcd e73b 9a1c 7d3c 104f debb 1636 dd3a
000000a0: d9fc c63b 50c6 363b 5fd2 283c 390e d2bb
000000b0: 64c0 f13b 9e09 fdbc 4fb7 c0bc 2d44 62ba
000000c0: aadb 2fbc 3b32 d73c 9e3b b33c 9553 3a3d
000000d0: a378 9d3b 0319 83bc a7b6 4e3d cfff ebbc
000000e0: f750 82bb 082b ab3c ec0b 263d c8e0 e73b
000000f0: cc7c c93a 311b ea3c 466c ddb8 d9d7 98bd
00000100: 7cab 9c3c 9c98 5ebc 570d 673b 31da cfbc
00000110: dd59 213c 63c9 65bc a8d8 733b 8fcb 4abc
00000120: 2d29 2bbc 2c25 fa3a 58c7 60bc e06d 473d
00000130: 4095 a23a f619 853d 2291 c3bc a0f9 21bd
00000140: 0fc4 083c 41e4 eb3c 894b 72bd 4602 a3bc
00000150: 8eb2 21bb a37b 8e3c 6856 aabc 5d5d 7fbc
00000160: 7dc4 f3b8 d0c8 5dba 6946 7e3c 81da 243c
00000170: 6cf7 82ba 8136 9f3a 4311 0b3c f09a 0cbd
00000180: ffef 703c 370c acbc 6b3f bfbc f27a 64bc
00000190: 15fe 953c 093d 1bbd f435 593c d2b5 d83c
000001a0: 2cd1 84bc 314a eb3c 22ce 5e3c 6906 65bc
000001b0: f921 3f3c cc4e 3a3c f0b2 7a3b f140 c03c
000001c0: bc50 0cbc 04f3 243d fc6d 423d 09a1 febc
000001d0: 1a9c 3f3c 54f9 423c 883a 5fbd 7ba4 b5bc
000001e0: 97dd 3fbb 038c c9bb e0eb 61bc 3288 1c3c
000001f0: 7aec 993c 9816 c83c 8f79 a6bb a02b aabc
00000200: e152 8c3c 0db4 acbc 6dd8 913c 54c3 0dbd
00000210: 5569 2a3c efdc 32bc 22fb 5f3c d02e 36bc
00000220: a5e2 6cbc 8140 5c3c dd6c 2dbd acb2 ba3c
00000230: cd64 0cbc d0a7 af3c d078 913a fa72 273c
00000240: 4de1 0c3d c5c3 e93b be1b 63bd cfa1 f53b
00000250: e13e 86bb a401 223c 5a82 1cbd 9255 113c
00000260: cd0f a8bc bc49 8abc 63b4 5abc 3e94 c03b
00000270: ee6b 9d3c 90ba b73c 9ec7 083c f48d bcbc
00000280: 9677 bebb 614c 14bd af43 06bb d733 a5bb
00000290: add4 bb3c f760 1fbd ffc0 c33c bdb2 a43c
000002a0: 3e90 2a3c 6901 383d 71a2 6b3c 3cff 12bd
000002b0: 021c d4bb 2e91 f4bb b724 633b dbe2 843c
000002c0: a294 c1bc dead 7c3d 3245 7a3b 2d3e 9abc
000002d0: e406 993c a3cb 35bc 62ef 25bd 9ba3 bcbc
000002e0: 2b04 62ba d97d d5b9 954f 4bbb 0bf4 02bc
000002f0: 70c8 653d deb9 fabb b295 0ebc 35d8 b23c
00000300: 198d ee3b 5993 133d a1c9 323d 5683 963d
00000310: 2ca0 97bc 1b9d 693d 683a f8bc b563 993c
00000320: 0c44 91bd 06a2 823d 1805 14bd 2e8c cbb9
00000330: fb97 86bd c9ac 5cbd ff2e bf3d 82c4 c33d
00000340: ba51 1c3d 5d52 a6bd c815 2fbd ba19 713d
00000350: 40fd 95bd 3f20 24bd 710d 13bd fd68 533d
00000360: 0d30 5cbd 8bd0 d13c d6f5 6abd c190 2dbd
00000370: 2056 9a3d 0a8c 87bd 0629 fdbc 24e9 d1bb
00000380: fbfb b0bd 7e18 d5bd 71b1 493d c26d c23d
00000390: 3e15 f23b c2e5 92bc 28c9 8abc c05b f1bc
000003a0: f06c 683d 535a 92bb f121 c1ba ce55 31bd
000003b0: 857f 23bd bcbd 96bd 6d5c 453d b775 493d
000003c0: 4c62 163d 45f4 8e3c 7b06 91bd 639e 5b3c
000003d0: 4704 d6b8 1bf3 76bc ae27 ac3c f301 843d
000003e0: d127 aabb 1533 5dbd f642 823d 088c 1bbd
000003f0: 7c4b dc3d 2f3e 74bd 2edd 54ba 6ef2 d83d

embedding.conv1.weight f4 [64, 1, 4, 4]
-0.03501549 0.008664248 0.021819502 -0.039605904 0.01917676 0.016575782 0.024135869 -0.014521974
-0.008710084 -0.007258625 0.03414719 -0.029254178 0.007869319 0.033163764 0.026861664 -0.056457207
-0.014695621 0.0032869785 0.011524748 -0.021760881 0.0052325292 0.009658466 0.012289228 0.02056119
-0.0038193963 -0.002953163 0.04062198 -0.0010568121 -0.051371038 -0.0046642423 -0.012386864 -0.027122976
0.034372866 -0.020431736 0.018729549 -0.036177866 0.014190381 0.017466962 -0.018174961 0.0136474585
0.019421382 0.021522935 -0.023238607 0.046059307 -0.006784406 -0.009476737 0.03268814 -0.025010405
0.008787357 0.02382199 0.0424721 0.006244332 0.02025939 0.0063552205 -0.025988383 -0.0019800595
-0.0063001732 -0.0037076438 0.0035867204 -0.018201333 0.008616932 0.006378526 -0.005855747 -0.0048585422
-0.03438735 -0.018414343 -0.006228297 0.021470983 -0.019504264 0.019255122 0.01891869 0.014095886
-0.025571898 0.011539171 0.013643298 -0.024357269 0.009590233 0.016361553 0.014940159 0.012081887
-0.0049940217 0.000626596 0.012695933 -0.0066923974 -0.007878195 -0.026946573 -0.010705597 -0.02265806
-0.015154523 -0.008815751 -0.00059428543 -0.020990197 0.016676908 -0.0047422424 -0.023763552 0.001529186
-0.0034637908 -0.02372721 0.010580887 -0.030982347 0.02112067 -0.0048793936 0.009204823 -0.024084551
-0.0037329998 -0.017950209 0.013749392 -0.011091792 0.03725206 -0.0014593953 0.0071989396 -0.015800504
0.0310309 0.0044656014 -0.0022757354 0.052388232 0.026512949 -0.0069993716 -0.016414415 -0.0075522726
0.014117012 -0.036720123 0.003259963 0.040720794 -0.0063095707 -0.03468796 -0.02177605 -0.00070014375
0.024879478 -0.0052628512 -0.0038272215 -0.018637018 -0.040100604 -0.0020172796 0.0064253216 -0.032784157
0.0007134292 0.002624355 -0.024907498 0.011573392 -0.0020982102 -0.013653443 -0.0035025217 -0.0020024283
0.01656529 0.0015088596 -0.019213708 -0.011756078 0.007200796 0.027311929 -0.030365625 -0.0024351324
0.013620477 -0.016493248 -0.014555844 -0.010517575 -0.0102997655 -0.046947252 -0.021816539 0.0016645836
-0.0026506984 0.00017144874 0.006084154 -0.0065038754 0.020568173 -0.009185679 0.012146368 0.006828358
-0.004937089 -0.017629182 2.06606e-05 0.014598781 0.02587979 0.02948172 0.03411931 0.029146569
0.0141581 -0.007920408 0.0023698064 -0.0043484746 0.008154104 -0.013482619 0.0070179654 -0.015446184
-0.0044552605 0.026291475 -0.018990885 0.0013679741 0.0019039831 0.002950092 -0.0016251714 0.027225161
0.0118191205 -0.01822343 -0.0081881555 -0.021656035 -0.026671426 0.013085151 -0.007264983 -0.014113447
-0.0071514547 -0.0042957133 -0.042975124 0.013000324 -0.01399455 -0.0034149995 0.0068844003 0.028996574
-0.028997434 -0.018925453 0.009531767 0.0035363368 0.0069608972 -0.033579025 0.029554335 0.010167383
-0.0030454765 0.02082362 0.0024680078 0.024311654 -0.011405885 0.0060004923 0.0149028655 -0.00067478674
0.016560663 0.012573463 0.0029428978 0.020764843 -0.019558713 0.0032524494 0.025545748 -0.00478549
-0.036626086 -0.002991543 0.004729184 0.0025215975 -0.055404887 0.010305445 -0.0030090257 0.021069929
0.0331761 -0.0032101595 0.03831867 -0.003727998 -0.0072498717 -0.03168436 0.001972178 -0.00723985
-0.015816247 0.02117399 -0.0001802263 0.00728016 0.014476997 0.025944619 0.0060741915 -0.019468173
00000000: 676c 0fbd 7df4 0d3c d0be b23c cd39 22bd
00000010: 9518 9d3c efc9 873c 96b8 c53c 93ed 6dbc
00000020: bdb4 0ebc c2d9 edbb eddd 0b3d 75a6 efbc
00000030: 51ee 003c bad6 073d fe0c dc3c ac3f 67bd
00000040: e7c5 70bc 596a 573b 4cd2 3c3c e043 b2bc
00000050: a375 ab3b 8b3e 1e3c c258 493c f16f a83c
00000060: d64e 7abb db89 41bb 3c63 263d bb84 8aba
00000070: 706a 52bd 80d6 98bb 46f2 4abc 0131 debc
00000080: 90ca 0c3d 7560 a7bc b66e 993c 3e2f 14bd
00000090: c67e 683c e016 8f3c a8e3 94bc 9799 5f3c
000000a0: 9719 9f3c de50 b03c e45e bebc afa8 3c3d
000000b0: b94f debb 5144 1bbc 00e4 053d 9fe2 ccbc
000000c0: d9f8 0f3c 5526 c33c 3af7 2d3d 419d cc3b
000000d0: 05f7 a53c 743f d03b 97e5 d4bc e3c3 01bb
000000e0: af71 cebb f1fb 72bb 2f0f 6b3b f61a 95bc
000000f0: 082e 0d3c f402 d13b 91e1 bfbb 6834 9fbb
00000100: c0d9 0cbd add9 96bc be16 ccbb eae3 af3c
00000110: 68c7 9fbc ebbc 9d3c 5efb 9a3c 6ef2 663c
00000120: 287c d1bc cb0e 3d3c 2488 5f3c e588 c7bc
00000130: 5a20 1d3c aa08 863c 92c7 743c 1bf3 453c
00000140: e4a4 a3bb 2542 243a 9a02 503c e64b dbbb
00000150: 8b13 01bc 0fbf dcbc 8766 2fbc 659d b9bc
00000160: ad4a 78bc f16f 10bc d2c9 1bba a2f3 abbc
00000170: 039e 883c d064 9bbb c8ab c2bc f86e c83a
00000180: c400 63bb 915f c2bc 755b 2d3c b1ce fdbc
00000190: 4105 ad3c 52e3 9fbb d3cf 163c f74c c5bc
000001a0: 58a5 74bb 510c 93bc 2145 613c 59ba 35bc
000001b0: 9e95 183d 2e49 bfba 15e5 eb3b 0f70 81bc
000001c0: 8434 fe3c 2e54 923b 8124 15bb 0b95 563d
000001d0: af31 d93c fc5a e5bb 8677 86bc 0e79 f7bb
000001e0: 0a4b 673c d767 16bd 1aa5 553b d9ca 263d
000001f0: 84c0 cebb f614 0ebd b063 b2bc da89 37ba
00000200: 0cd0 cb3c ff73 acbb 1fd2 7abb a9ac 98bc
00000210: 8840 24bd 5634 04bb 818b d23b ae48 06bd
00000220: 6c05 3b3a 5ffd 2b3b cf0a ccbc 539e 3d3c
00000230: 2082 09bb b1b2 5fbc 908a 65bb 2c3b 03bb
00000240: eeb3 873c edc4 c53a 1166 9dbc 919c 40bc
00000250: a8f4 eb3b 44bd df3c 55c1 f8bc be96 1fbb
00000260: 6c28 5f3c d91c 87bc a27b 6ebc e851 2cbc
00000270: 59c0 28bc c34b 40bd 99b8 b2bc 282e da3a
00000280: 57b7 2dbb ecc6 3339 955d c73b 761e d5bb
00000290: 967e a83c 887f 16bc 8f01 473c 6bc0 df3b
000002a0: 4ec7 a1bb 136b 90bc 4d50 ad37 ba2f 6f3c
000002b0: da01 d43c a683 f13c b1c0 0b3d c9c4 ee3c
000002c0: 60f7 673c 99c4 01bc c14e 1b3b a67d 8ebb
000002d0: cb98 053c 34e6 5cbc f6f6 e53b fe11 7dbc
000002e0: 6ffd 91bb 3861 d73c c692 9bbc 984d b33a
000002f0: 128f f93a 5556 413b b403 d5ba 4d07 df3c
00000300: fca4 413c 4d49 95bc 9d27 06bc ff67 b1bc
00000310: 097e dabc 1a63 563c 180f eebb 163c 67bc
00000320: c056 eabb 0ec3 8cbb af06 30bd 50ff 543c
00000330: 6649 65bc 2fce 5fbb 8996 e13b 398a ed3c
00000340: 078c edbc 8d09 9bbc 212b 1c3c e3c1 673b
00000350: 3d18 e43b 298a 09bd ef1b f23c 1895 263c
00000360: 9e96 47bb 4c96 aa3c 4dbe 213b 3c29 c73c
00000370: c0df 3abc c79f c43b 262b 743c 2ce4 30ba
00000380: 3aaa 873c ed00 4e3c a2dd 403b 081b aa3c
00000390: 9839 a0bc 0c27 553b 5145 d13c 9acf 9cbb
000003a0: 3c05 16bd c30d 44bb 45f7 9a3b 6341 253b
000003b0: 3cf0 62bd 2bd8 283c 1333 45bb d89a ac3c
000003c0: aae3 073d 8a61 52bb 0af4 1c3d 6d51 74bb
000003d0: 5590 edbb 76c7 01bd a83f 013b 433c edbb
000003e0: 1391 81bc 1375 ad3c 21fb 3cb9 698e ee3b
000003f0: ed30 6d3c cf89 d43c 030a c73b b87b 9fbc

embedding.conv1.bias f4 [64]
-0.00026372846 -0.0068696025 0.029509393 0.012044715 0.006296432 -0.015835777 -0.011398402 0.017159443
-0.022308176 0.006048552 0.017088322 -0.013192632 0.0069940365 -0.0156244505 0.019864487 0.026659472
-0.014748798 -0.025797503 0.025446817 0.02084473 -0.01893736 -0.027223408 0.017585466 0.035512254
-0.0008612907 0.013024171 -0.017834034 -0.026647292 0.022239372 -0.01613963 -0.018075267 0.01128202
-0.019367293 -0.021324059 0.01989898 0.014613958 -0.014726805 0.022561228 -0.013765337 -0.012382702
0.020723842 0.0009548096 -0.03001663 0.0078076962 -0.046624947 -0.023135765 0.019415166 -0.019578125
0.014039138 -0.018936325 -0.021777198 0.017484905 -0.030052936 0.01938747 0.020069957 0.024087792
0.006729519 -0.013478424 0.017888471 -0.03354655 0.005547891 -0.02681388 0.028927682 0.01967983
00000000: 0945 8ab9 671a e1bb afbd f13c 3257 453c
00000010: 4d52 ce3b 08ba 81bc 5dc0 3abc f691 8c3c
00000020: a3bf b6bc ef32 c63b cffc 8b3c e925 58bc
00000030: 3b2e e53b b2fd 7fbc d9ba a23c f764 da3c
00000040: f1a4 71bc 4955 d3bc d875 d03c 91c2 aa3c
00000050: 8622 9bbc a003 dfbc 650f 903c 4c75 113d
00000060: 3ec8 61ba 5563 553c ae18 92bc 6c4b dabc
00000070: 582f b63c 4237 84bc 9512 94bc 39d8 383c
00000080: 28a8 9ebc cbaf aebc 3003 a33c 626f 6f3c
00000090: b248 71bc 53d2 b83c 0288 61bc d1e0 4abc
000000a0: 0cc5 a93c 304c 7a3a 70e5 f5bc b4d7 ff3b
000000b0: cdf9 3ebd 3787 bdbc 8e0c 9f3c 4e62 a0bc
000000c0: 6a04 663c 5a20 9bbc 1866 b2bc 813c 8f3c
000000d0: 9331 f6bc 79d2 9e3c c069 a43c c353 c53c
000000e0: 4c83 dc3b 9cd4 5cbc d88a 923c 1b68 09bd
000000f0: 15cb b53b c8a8 dbbc bff9 ec3c 9837 a13c

encoder.0.attention.queries.weight f4 [64, 64]
0.061406046 0.013212764 -0.049544975 -0.049418062 -0.018861854 0.07639803 0.07371449 -0.03901586
0.030035935 0.016336879 -0.01586259 0.07885119 0.0032527829 0.04116373 -0.040170006 -0.09080178
0.034096807 0.02084612 -0.03699806 -0.070239626 0.048322678 0.013922889 0.011598958 -0.06594376
-0.03089161 -0.0031843195 0.06459015 0.030519867 -0.066660486 0.040584173 0.013605419 -0.07608392
0.068047434 0.081676126 -0.085455894 -0.032359663 0.06242259 -0.061814822 0.03551242 0.040864863
-0.1111912 0.016324867 0.033164937 -0.061639298 0.057859376 0.06958029 -0.068738334 0.041803684
-0.017637836 -0.0080547705 0.07416671 -0.06230325 0.07848513 -0.042302594 -0.056446973 -0.03942296
-0.0049991943 -0.03431396 0.0039950185 0.09409928 -0.002809813 0.06532499 -0.029751802 -0.06327584
-0.00806366 -0.056698777 0.05490039 0.050125133 0.010710586 -0.062018648 -0.07554743 0.05225077
-0.0028081783 -0.011988129 0.017873654 -0.057553425 0.006187212 -0.015601622 0.045731544 0.085273564
-0.025692554 -0.06195595 0.04468665 0.075197905 -0.041418616 -0.034986667 0.048618484 0.068006076
0.02328515 0.06830855 -0.08546523 -0.080711 0.07789574 -0.02928627 -0.0633654 0.07961288
-0.07501729 -0.05807795 0.09582538 0.0075078458 -0.045394395 0.028736638 -0.04565221 -0.02506028
0.103238344 0.00015577357 -0.021391975 0.071675 -0.14061391 -0.09780155 0.07642091 -0.060630746
0.047452718 -0.053086717 -0.07584608 0.03748165 -0.15589349 0.019951884 0.01916679 0.061498545
-0.0050909114 -0.015018147 0.03828011 -0.12474524 -0.038580984 -0.08084035 0.07892111 0.061755393
-0.06655226 -0.07265641 0.054423336 0.041551925 0.00045003253 -0.0049584634 -0.060778208 0.07818586
-0.01653415 0.0075878627 0.030320087 -0.047220036 -0.015590424 -0.055737916 0.052828666 0.0712906
-0.037841655 -0.08187392 0.008887229 0.0813801 0.008270882 -0.05935833 0.016338702 0.071331955
0.036239758 0.061405085 -0.07667903 -0.08313881 0.13656779 -0.042965848 -0.08784848 0.049038023
-0.061436363 -0.025286106 0.060897302 0.04574561 -0.023599682 0.045453813 -0.041775856 -0.01607387
0.108243346 -0.010193106 -0.022793405 0.049350914 -0.09080462 -0.0525448 0.020024044 -0.049910516
0.019091459 -0.04426115 -0.075874776 0.065366305 -0.09300888 0.003988852 0.056128163 -0.002900056
-0.047786947 -0.008678747 0.023792977 -0.08254573 -0.01896212 -0.04667983 0.050162435 0.089630246
-0.040181022 -0.04151528 0.076648094 0.054956354 0.007109622 -0.053412523 -0.07020408 0.06199745
-0.05555077 -0.04465958 0.035419915 -0.07015462 -0.019508356 -0.0032563834 0.06035755 0.08256767
-0.05026246 -0.030835897 0.06380003 0.050535895 -0.07254632 -0.093857594 0.052057948 0.07009067
0.04597505 0.030277736 -0.042720713 -0.054485977 0.09468827 -0.059259452 -0.069887266 0.065746896
-0.08939587 -0.049570978 0.099781975 0.04361891 -0.03775572 0.030496057 -0.043592416 -0.027971653
0.093937054 -0.040997148 -0.03163708 0.024682144 -0.052266374 -0.08000524 0.072540864 -0.048290562
0.021272836 -0.016687183 -0.108587205 0.04840267 -0.09632256 0.01145272 0.04108661 0.038799774
-0.03844676 0.026355492 0.043774035 -0.09176452 -0.0027004993 -0.062952586 0.04491818 0.041855156
00000000: e884 7b3d 597a 583c acef 4abd 986a 4abd
00000010: 2d84 9abc 9276 9c3d 9ff7 963d 18cf 1fbd
00000020: ec0d f63c ebd4 853c 43f2 81bc bc7c a13d
00000030: a42c 553b 4d9b 283d 4e89 24bd 49f6 b9bd
00000040: 18a9 0b3d 7bc5 aa3c 478b 17bd cbd9 8fbd
00000050: 00ee 453d d41c 643c 8e09 3e3c 860d 87bd
00000060: 6710 fdbc 04b0 50bb d747 843d cd04 fa3c
00000070: 4b85 88bd 973b 263d 43e9 5e3c e3d1 9bbd
00000080: 745c 8b3d d045 a73d 8003 afbd 918b 04bd
00000090: d4ae 7f3d 8a31 7dbd 7975 113d ea61 273d
000000a0: 36b8 e3bd babb 853c f5d7 073d 7d79 7cbd
000000b0: f4fd 6c3d 1c80 8e3d afc6 8cbd 573a 2b3d
000000c0: 397d 90bc 28f8 03bc b7e4 973d b131 7fbd
000000d0: d0bc a03d 7c45 2dbd f134 67bd f879 21bd
000000e0: 48d0 a3bb cb8c 0cbd a5e8 823b 20b7 c03d
000000f0: d724 38bb 1cc9 853d 0dba f3bc c396 81bd
00000100: 711d 04bc fa3c 68bd 3bdf 603d 0350 4d3d
00000110: 747b 2f3c 4407 7ebd 9cb8 9abd e704 563d
00000120: 6a09 38bb db69 44bc c56b 923c 24bd 6bbd
00000130: 19be ca3b f29d 7fbc 0051 3b3d e8a3 ae3d
00000140: 3179 d2bc 86c5 7dbd 5909 373d 5c01 9a3d
00000150: 91a6 29bd 2e4e 0fbd 2d24 473d c546 8b3d
00000160: 80c0 be3c 5ae5 8b3d 6508 afbd cf4b a5bd
00000170: cd87 9f3d c2e9 efbc b8c5 81bd 140c a33d
00000180: aaa2 99bd 25e3 6dbd 1940 c43d 6004 f63b
00000190: 79ef 39bd 1969 eb3c d0fd 3abd 374b cdbc
000001a0: a06e d33d 2657 2339 393e afbc 58ca 923d
000001b0: 18fd 0fbe 2e4c c8bd 9182 9c3d f257 78bd
000001c0: c85d 423d 7571 59bd 3155 9bbd 5c86 193d
000001d0: 8ba2 1fbe 2272 a33c ac03 9d3c e6e5 7b3d
000001e0: a9d1 a6bb ad0e 76bc 9bcb 1c3d 6f7a ffbd
000001f0: 1807 1ebd a08f a5bd 64a1 a13d 39f3 7c3d
00000200: 8d4c 88bd e2cc 94bd 01eb 5e3d 5a32 2a3d
00000210: 58f2 eb39 9b7a a2bb 92f2 78bd e81f a03d
00000220: a072 87bc 9ba3 f83b d561 f83c cc69 41bd
00000230: fa6e 7fbc 714d 64bd df62 583d ce00 923d
00000240: daff 1abd 84ad a7bd bd9b 113c 9caa a63d
00000250: 9882 073c b821 73bd bed8 853c 7d16 923d
00000260: 2470 143d e683 7b3d e509 9dbd ae44 aabd
00000270: 6dd8 0b3e f5fc 2fbd e7e9 b3bd 18dc 483d
00000280: b2a4 7bbd cf24 cfbc 736f 793d c05f 3b3d
00000290: 1f54 c1bc c72d 3a3d 291d 2bbd 59ad 83bc
000002a0: b0ae dd3d fc00 27bc 3cb9 babc 2f24 4a3d
000002b0: c6f7 b9bd 3739 57bd 7709 a43c f86e 4cbd
000002c0: b165 9c3c 2e4b 35bd 3c64 9bbd c5de 853d
000002d0: 717b bebd eab4 823b a5e6 653d de0e 3ebb
000002e0: 3fbc 43bd 4e31 0ebc 7de9 c23c bc0d a9bd
000002f0: 7356 9bbc 5933 3fbd 2077 4d3d 1090 b73d
00000300: db94 24bd ed0b 2abd adf9 9c3d ea19 613d
00000310: d5f7 e83b 17c7 5abd 28c7 8fbd 0af1 7d3d
00000320: 3489 63bd f7ec 36bd 7914 113d 3aad 8fbd
00000330: fdcf 9fbc 0c69 55bb 7a39 773d 3d19 a93d
00000340: 02e0 4dbd 909b fcbc 97a9 823d bafe 4e3d
00000350: 2a93 94bd 6938 c0bd b73a 553d b28b 8f3d
00000360: 5650 3c3d 0409 f83c eafb 2ebd b02c 5fbd
00000370: eceb c13d 0aba 72bd 0e21 8fbd 4fa6 863d
00000380: 2f15 b7bd f00a 4bbd 7e5a cc3d bea9 323d
00000390: bea5 1abd ded2 f93c f68d 32bd cf24 e5bc
000003a0: 1262 c03d a0ec 27bd e295 01bd 3532 ca3c
000003b0: 4415 56bd cad9 a3bd 4e90 943d 53cc 45bd
000003c0: 5f44 ae3c 8fb3 88bc f862 debd e141 463d
000003d0: c344 c5bd 30a4 3b3c 6f4a 283d 83ec 1e3d
000003e0: 5a7a 1dbd 79e7 d73c 674c 333d 09ef bbbd
000003f0: dcfa 30bb 49ed 80bd 20fc 373d 5070 2b3d

encoder.0.attention.queries.bias f4 [64]
-0.10709295 0.11450333 0.10762049 0.117230274 0.12225793 0.11149495 -0.10253284 -0.11528242
0.11207818 0.12072642 -0.104149416 -0.107771605 -0.113124564 -0.11233597 0.11036985 -0.11035067
0.11583637 -0.110752285 -0.11155567 -0.11009015 -0.11078129 0.11674196 0.10272082 0.111350276
-0.12396778 0.12013667 -0.10026276 0.11678079 -0.110086404 0.106453 -0.107752495 0.11479692
0.05942085 -0.06538601 0.0619112 -0.058767248 0.05881201 0.047156554 -0.051976204 0.020005187
0.05944935 0.037632864 -0.061802816 0.03993768 0.060566615 -0.059462868 -0.059426695 -0.049019486
0.058452837 0.06131843 -0.038592335 0.06048204 -0.05233324 -0.051528268 0.06378276 -0.041693036
-0.05943804 -0.056518633 -0.06379289 0.055885714 0.05717727 0.062184706 0.058603607 -0.058505487
00000000: 8c53 dbbd b980 ea3d 2268 dc3d 6d16 f03d
00000010: 5e62 fa3d 7757 e43d bdfc d1bd 3019 ecbd
00000020: 3f89 e53d 6a3f f73d 4a4c d5bd 5cb7 dcbd
00000030: daad e7bd 6710 e6bd 9709 e23d 88ff e1bd
00000040: 9e3b ed3d 18d2 e2bd 4d77 e4bd f276 e1bd
00000050: 4de1 e2bd 6916 ef3d 4b5f d23d 9d0b e43d
00000060: d2e2 fdbd 370a f63d 9056 cdbd c42a ef3d
00000070: fb74 e1bd 0804 da3d 57ad dcbd a61a eb3d
00000080: 4763 733d 1ae9 85bd 9996 7d3d edb5 70bd
00000090: dde4 703d 3b27 413d 00e5 54bd ebe1 a33c
000000a0: 2981 733d eb24 1a3d f324 7dbd b195 233d
000000b0: b314 783d 568f 73bd 6869 73bd a8c8 48bd
000000c0: 3e6c 6f3d 0929 7b3d ff12 1ebd 04bc 773d
000000d0: 615b 56bd 4e0f 53bd 89a0 823d 51c6 2abd
000000e0: 4d75 73bd 1580 67bd d9a5 82bd 6be8 643d
000000f0: b732 6a3d 64b5 7e3d 560a 703d 73a3 6fbd

encoder.0.attention.keys.weight f4 [64, 64]
-0.14911002 0.13270603 -0.059684217 -0.09567105 -0.07314929 0.04637396 -0.07732561 -0.0016869158
0.07873321 0.05975604 -0.11152457 -0.024516856 0.06429728 -0.12539424 0.05051722 -0.07646533
0.066411264 0.10103297 -0.0883021 0.03167239 0.059170425 0.057782844 -0.08742111 -0.063392095
-0.024221973 0.08349897 0.11124319 0.043803878 0.044531588 0.046589952 0.029257484 -0.0073595895
-0.0056448984 0.022982415 -0.043561652 -0.04746571 0.09710182 -0.06258666 0.051490523 0.07411578
-0.01085794 0.07683028 0.10703875 -0.0010098258 -0.09671194 0.06779201 0.188573 0.067614354
-0.08623682 0.07999837 -0.038553257 -0.11551708 -0.029741652 -0.10623516 -0.05878341 -0.014440449
-0.07620224 0.12140458 -0.102510035 0.052921657 0.08218589 0.09071364 -0.03830981 0.2707069
0.15610507 -0.15162456 0.068476185 0.064341635 0.09208282 -0.06535481 0.046323765 -0.05104831
-0.08973567 -0.11204778 0.11589126 0.05129775 -0.073450424 0.086440794 -0.07658782 0.047579207
-0.059086107 -0.11590977 0.082935005 -0.025409713 -0.062281873 -0.089420125 0.05258912 0.056263838
0.038675193 -0.10812512 -0.12931353 -0.08001575 -0.011176479 -0.07827906 -0.01754025 -0.009589082
0.020822065 -0.1163404 0.010045018 0.06384113 -0.05654871 0.081372686 0.003697928 -0.086249515
0.04706458 -0.077072464 -0.05014512 0.019684505 0.122488946 -0.11413948 -0.17003281 -0.049655728
0.066228725 -0.08825105 0.07427396 0.06543015 0.023531582 0.065230496 0.09371096 0.03129766
0.09866878 -0.11184255 0.10731122 -0.034611914 -0.11050495 -0.08425008 0.037704602 -0.26606652
0.14342566 -0.1206341 0.08794485 0.05236236 0.08966202 -0.073955454 0.05372903 -0.021608148
-0.07336112 -0.07575179 0.09379387 0.07040226 -0.073503435 0.1264796 -0.05553377 0.080813155
-0.1321356 -0.14587186 0.09749702 -0.02679775 -0.066364475 -0.07944827 0.086958975 0.06797762
0.050157484 -0.06907224 -0.12519528 -0.034144435 -0.00156515 -0.10829577 0.0058282027 -0.0152767
0.033679567 -0.09302474 0.02121552 0.03806976 -0.106014684 0.092148356 -0.06683333 -0.056108322
0.0432141 -0.112662934 -0.07750853 0.06216337 0.09604957 -0.078768924 -0.14574063 -0.045683935
0.110238016 -0.10188297 -0.0076434305 0.074082494 0.025134752 0.056013525 0.09826024 -0.031206934
0.09473754 -0.13127208 0.12930031 -0.08172919 -0.090717606 -0.07381142 0.08568572 -0.26242748
0.16389751 -0.14972074 0.0333454 0.06612644 0.07529026 -0.07174128 0.065469295 -0.033252932
-0.079216495 -0.06972935 0.072582185 -0.01245144 -0.018994138 0.0806798 -0.087344386 0.07789209
-0.12037076 -0.13237368 0.096737966 -0.034819443 -0.0185849 -0.057359315 0.101460814 0.07488195
0.039357163 -0.11138966 -0.09176873 -0.04751145 -0.0043819863 -0.077732 -0.024406947 -0.024519648
0.042395804 -0.08634442 0.03081362 0.030082114 -0.07671558 0.06218196 0.00076472625 -0.04244653
0.014425414 -0.099924594 -0.0782129 0.036596175 0.111576594 -0.08011885 -0.1731798 -0.055721126
0.059789326 -0.07452646 0.04729796 0.06166057 0.05601458 0.103005074 0.08250042 0.0086248275
0.12597482 -0.085537806 0.13300885 -0.07074729 -0.07600896 -0.08368251 0.0673733 -0.23961414
00000000: 4cb0 18be 17e4 073e 7077 74bd 2fef c3bd
00000010: 4ccf 95bd 9ff2 3d3d e45c 9ebd 801b ddba
00000020: e13e a13d c0c2 743d fe66 e4bd 93d7 c8bc
00000030: 4bae 833d 5967 00be 25eb 4e3d db99 9cbd
00000040: a102 883d 60ea ce3d bbd7 b4bd e8ba 013d
00000050: b05c 723d b4ad 6c3d d709 b3bd b7d3 81bd
00000060: 296d c6bc 8201 ab3d 78d3 e33d b26b 333d
00000070: c166 363d 1bd5 3e3d 64ad ef3c b628 f1bb
00000080: d7f8 b8bb 9e45 bc3c b46d 32bd 686b 42bd
00000090: 52dd c63d 6f2d 80bd bae7 523d 04ca 973d
000000a0: 80e5 31bc 3259 9d3d 2237 db3d 225c 84ba
000000b0: e910 c6bd 8ad6 8a3d 4819 413e 6579 8a3d
000000c0: ee9c b0bd 2fd6 a33d 05ea 1dbd 3894 ecbd
000000d0: c4a4 f3bc d291 d9bd dfc6 70bd a297 6cbc
000000e0: ec0f 9cbd f7a2 f83d c8f0 d1bd 61c4 583d
000000f0: 1351 a83d 13c8 b93d bfea 1cbd 189a 8a3e
00000100: 02da 1f3e 7843 1bbe 3e3d 8c3d 8cc5 833d
00000110: eb95 bc3d bed8 85bd fdbd 3d3d 0818 51bd
00000120: 56c7 b7bd 4e79 e5bd 6658 ed3d 971d 523d
00000130: 2d6d 96bd df07 b13d 13da 9cbd 6ae2 423d
00000140: 4604 72bd 1a62 edbd d4d9 a93d 0828 d0bc
00000150: 471b 7fbd e621 b7bd b067 573d e974 663d
00000160: e169 1e3d b470 ddbd c46a 04be 4cdf a3bd
00000170: 8d1d 37bc c650 a0bd 92b0 8fbc 861b 1dbc
00000180: 0993 aa3c e043 eebd dc93 243c 23bf 823d
00000190: 9f9f 67bd b9a6 a63d f058 723b 96a3 b0bd
000001a0: cac6 403d 2bd8 9dbd f864 4dbd 6641 a13c
000001b0: 7cdb fa3d f6c1 e9bd 151d 2ebe ce63 4bbd
000001c0: eda2 873d f7bc b4bd f21c 983d 3e00 863d
000001d0: 4ec5 c03c 9197 853d 88eb bf3d fa31 003d
000001e0: db12 ca3d b50d e5bd fcc5 db3d 39c5 0dbd
000001f0: 6b50 e2bd 4e8b acbd 2470 1a3d df39 88be
00000200: 2dde 123e 030f f7bd 6e1c b43d ea79 563d
00000210: b9a0 b73d f575 97bd f912 5c3d 9203 b1bc
00000220: 5b3e 96bd c123 9bbd 0017 c03d 0f2f 903d
00000230: f888 96bd de83 013e 6177 63bd 5e81 a53d
00000240: 8e4e 07be 6f5f 15be 85ac c73d f486 dbbc
00000250: 19ea 87bd c6b5 a2bd 8c17 b23d da37 8b3d
00000260: ef71 4d3d bf75 8dbd 3133 00be 09db 0bbd
00000270: b825 cdba 2cca ddbd 82fa be3b 204b 7abc
00000280: 96f3 093d c183 bebd 2ccc ad3c 09ef 1b3d
00000290: 3a1e d9bd 47b8 bc3d eadf 88bd d7d1 65bd
000002a0: 4501 313d d3bb e6bd cbbc 9ebd 059f 7e3d
000002b0: a3b5 c43d 9a51 a1bd 083d 15be 141f 3bbd
000002c0: 78c4 e13d 05a8 d0bd be75 fabb 90b8 973d
000002d0: 65e7 cd3c 706e 653d aa3c c93d afa5 ffbc
000002e0: c105 c23d 306c 06be 4d67 043e a261 a7bd
000002f0: 27ca b9bd 712a 97bd ff7b af3d e55c 86be
00000300: c0d4 273e 6550 19be 3095 083d 4d6d 873d
00000310: c831 9a3d 18ed 92bd c414 863d 3a34 08bd
00000320: 423c a2bd 43ce 8ebd f8a5 943d 2001 4cbc
00000330: 9899 9bbc 733b a53d 9de1 b2bd e385 9f3d
00000340: f284 f6bd f78c 07be 8e1e c63d d59e 0ebd
00000350: 5c3f 98bc 9af1 6abd b0ca cf3d b55b 993d
00000360: fa34 213d 4320 e4bd 3ef1 bbbd 5e9b 42bd
00000370: c496 8fbb f431 9fbd 14f1 c7bc 6edd c8bc
00000380: 39a7 2d3d 58d5 b0bd d86c fc3c c46e f63c
00000390: 0f1d 9dbd 83b2 7e3d e977 483a 6adc 2dbd
000003a0: 9258 6c3c 44a5 ccbd 162e a0bd dfe5 153d
000003b0: 4582 e43d 5a15 a4bd 0c56 31be d63b 64bd
000003c0: a7e5 743d 54a1 98bd 81bb 413d cb8f 7c3d
000003d0: 8b6f 653d 53f4 d23d fbf5 a83d 264f 0d3c
000003e0: 8bff 003e 722e afbd 7933 083e f5e3 90bd
000003f0: 96aa 9bbd bc61 abbd 03fb 893d 695d 75be

encoder.0.attention.keys.bias f4 [64]
-5.4169923e-06 -2.8634644e-05 -2.556686e-05 -3.8055707e-05 -0.00024920778 -0.00011420072 -4.79492e-05 4.077262e-06
-0.00012957836 -0.00014536928 2.7181319e-05 -2.837306e-06 3.8762697e-05 -5.2388334e-08 -0.00016558952 0.00017850021
-6.4426065e-05 0.00016455441 0.0001633514 1.6258562e-07 0.00017998822 -0.00011274595 -6.2369356e-05 -0.00031449404
0.0001693022 -0.00010272819 3.8423797e-05 -0.000101604644 -9.278207e-05 -0.00020729014 9.738251e-05 -0.00018422942
-4.6489105e-05 -3.5286677e-05 -0.00027733692 2.8607099e-05 -1.9047076e-05 8.8991413e-07 0.00010857836 -4.7546015e-05
-0.00017610479 -3.5286634e-05 0.0001991661 -0.00012418182 -0.00010695306 -0.00015644843 -4.847891e-05 -0.00016186474
-8.430229e-05 -7.864577e-05 -0.000171441 -0.0002427292 0.00015896645 6.56773e-05 -9.2095695e-05 0.0001300565
0.000112293645 2.53964e-05 0.00013263473 -0.0002456943 -5.0233364e-05 -4.2184593e-06 -0.00014684649 2.348031e-05
00000000: 9cc3 b5b6 6e34 f0b7 6a78 d6b7 019e 1fb8
00000010: 1aa8 82b9 0b7f efb8 101d 49b8 6acf 8836
00000020: 6ddf 07b9 456e 18b9 7003 e437 8c68 3eb6
00000030: 2195 2238 9501 61b3 19a2 2db9 c92b 3b39
00000040: 7b1c 87b8 3d8c 2c39 4f49 2b39 3293 2e34
00000050: 38bb 3c39 0572 ecb8 4bcc 82b8 ade2 a4b9
00000060: b786 3139 c76f d7b8 3d29 2138 9414 d5b8
00000070: ff93 c2b8 065c 59b9 d639 cc38 b52d 41b9
00000080: 4cfd 42b8 c800 14b8 8867 91b9 47f9 ef37
00000090: 49c7 9fb7 6fe2 6e35 90b4 e338 256c 47b8
000000a0: c5a8 38b9 bc00 14b8 3ed7 5039 ce36 02b9
000000b0: fd4b e0b8 4e0c 24b9 d555 4bb8 3cba 29b9
000000c0: 73cb b0b8 a0ee a4b8 d8c4 33b9 2085 7eb9
000000d0: 3bb0 2639 3bbc 8938 8023 c1b8 c75f 0839
000000e0: 317f eb38 5b0a d537 dd13 0b39 88d0 80b9
000000f0: aab1 52b8 4a8c 8db6 cefa 19b9 95f7 c437

encoder.0.attention.values.weight f4 [64, 64]
-0.06949222 0.01912072 0.029981272 0.0014442003 -0.036240615 -0.009597895 0.01012541 0.014850237
-0.026303792 -0.019378273 0.018035823 -0.004845468 -0.0019951533 0.0035747355 0.0040445295 -0.07915276
0.03348254 0.02963735 0.029019285 -0.0024537526 -0.04958416 -0.015657835 0.0048023686 -0.01616563
0.039119408 0.00059004506 0.029614503 0.01310706 0.0073013133 -0.025866367 -0.038426124 -0.005828876
-0.0012862944 -0.07463238 0.019313764 0.0102037955 -0.0169877 0.0497531 0.029356396 -0.005806071
0.007086087 -0.025118688 0.046509508 -0.011584546 -0.00255925 -0.028151847 0.027302822 0.025244715
0.018001901 -0.0026318666 -0.00510014 -0.0130108325 -0.008059285 -0.041820776 -0.0010893946 0.03018534
0.014893062 0.0064813737 0.023993187 0.041124202 -0.013014436 0.037243087 -0.0060118916 -0.03610879
0.021743204 0.0003988258 0.017576583 -0.034943692 -0.049501512 0.008513845 0.031791523 0.041813947
0.0032334544 0.010367811 0.008415814 0.0019026946 0.034620963 -0.022472627 0.011624318 -0.08039521
0.029147508 -0.01143705 0.0067665074 0.015243967 -0.018680586 0.018427169 -0.018278461 -0.015882926
-0.012422451 -0.03414412 0.0009472169 -0.008468993 -0.012373907 -0.013786769 -0.005603371 0.008579662
-0.002595185 -0.007983694 0.005963375 -0.011549156 -0.018889142 -0.044011317 -0.013767997 -0.0034774407
-0.0150866965 0.017951544 0.02800327 -0.044864316 0.0012900884 0.007984226 0.0031735997 0.015636949
0.0034693526 0.02519983 0.036137618 -0.0035106498 -0.024114987 -0.014614548 0.028569635 -0.010925631
-0.015633082 0.0046679187 0.009190151 -0.02520525 0.019522779 0.038113136 -0.027289992 8.038963e-05
0.032474115 0.013722922 -0.013787485 -0.001712573 0.012956526 0.01304097 -0.012005976 -0.01874759
0.016612638 -0.035420783 -0.010084241 -0.006854984 0.015775843 0.010188655 0.034069277 0.013309321
0.015408263 0.017926116 0.012417337 0.037978597 -0.0061316956 0.029308109 -0.009971117 -0.02504017
-0.012833616 0.040322825 0.029159235 0.051880743 -0.03339268 0.016479446 -0.0035533085 0.02401512
0.025488768 -0.020102132 -0.02664146 0.020239303 0.039244976 -0.0031082532 0.033974055 0.045649305
0.008834319 -0.031630244 -0.036171865 0.000979234 -0.016571933 0.0060122344 -0.020157993 0.009852162
0.0050545954 0.016271986 0.008759861 0.013524314 0.017129311 -0.0011303562 0.0102973785 0.008902241
-0.023078218 0.01939234 -0.020727994 0.009789087 4.916454e-06 -0.041851014 0.020522844 0.0060488055
-0.016227217 -0.025588728 0.016711676 -0.0014472523 -0.013544909 0.032959256 -0.015179679 -0.02336859
0.022481674 -0.0044685216 0.00088626926 0.027840912 0.0069723474 -0.0073832166 -0.023518957 -0.0359904
0.016218249 0.0127257705 -0.0076917773 -0.012321451 -0.029708456 0.050911408 -0.05230072 -0.037745316
-0.052655153 -0.021241087 0.0024294446 0.031309206 -0.045441378 -0.00011913111 0.0113053415 -0.058904763
7.7144185e-05 -0.0016952826 -0.022763701 -0.043385837 0.030435832 -0.027304815 0.07254353 0.015887033
-0.061152223 -0.037646327 0.032244656 -0.028013678 -0.0070222653 0.0035883018 0.030688155 0.04116405
-0.07349471 -0.016911762 -0.0017976498 -0.015286342 0.009085667 0.033577066 -0.011410296 -0.03042596
-0.01948328 0.0023684686 -0.031921025 -0.012767546 0.022287974 0.0042263158 -0.02132277 -0.018704128
00000000: f051 8ebd 0ea3 9c3c 499b f53c 524b bd3a
00000010: 0a71 14bd 7d40 1dbc 0ce5 253c 694e 733c
00000020: 0d7b d7bc 2fbf 9ebc ddbf 933c bbc6 9ebb
00000030: 1ec1 02bb 1c46 6a3b f987 843b d81a a2bd
00000040: fd24 093d 07ca f23c dab9 ed3c 23cf 20bb
00000050: c318 4bbd dc44 80bc 305d 9d3b c96d 84bc
00000060: ac3b 203d 41ad 1a3a 1d9a f23c ffbe 563c
00000070: db3f ef3b b4e5 d3bc b664 1dbd 2800 bfbb
00000080: e198 a8ba dcd8 98bd e637 9e3c d22d 273c
00000090: ca29 8bbc e8c9 4b3d d37c f03c db40 bebb
000000a0: 6832 e83b b5c5 cdbc c180 3e3d 1ccd 3dbc
000000b0: 17b9 27bb b49e e6bc 2baa df3c 01ce ce3c
000000c0: b978 933c 657b 2cbb 131f a7bb 632b 55bc
000000d0: 170b 04bc 434c 2bbd 04ca 8eba 3f47 f73c
000000e0: 0802 743c b461 d43b 5c8d c43c da71 283d
000000f0: 803a 55bc 358c 183d 67ff c4bb d0e6 13bd
00000100: ce1e b23c 7e19 d139 c4fc 8f3c 1e21 0fbd
00000110: 19c2 4abd a77d 0b3c d437 023d 1a45 2b3d
00000120: 5de8 533b c0dd 293c 7be2 093c d663 f93a
00000130: b6ce 0d3d 8418 b8bc ec73 3e3c 3ea6 a4bd
00000140: c1c6 ee3c 7762 3bbc 94b9 dd3b d5c1 793c
00000150: 0708 99bc 93f4 963c b6bc 95bc e91c 82bc
00000160: 8987 4bbc b4da 0bbd a64e 783a 88c1 0abc
00000170: edbb 4abc e6e1 61bc 7c9c b7bb b691 0c3c
00000180: fb13 2abb 0ace 02bc 6a68 c33b ac38 3dbc
00000190: 67bd 9abc 3645 34bd 2a93 61bc c6e5 63bb
000001a0: 312e 77bc 1e0f 933c 1d67 e53c a5c3 37bd
000001b0: 2f18 a93a 45d0 023c 2bfc 4f3b 0f19 803c
000001c0: 145e 633b e06f ce3c 0a05 143d ee12 66bb
000001d0: cb8c c5bc db71 6fbc de0a ea3c 6b01 33bc
000001e0: f310 80bc 57f5 983b 4992 163c 3e7b cebc
000001f0: 3cee 9f3c 851c 1c3d 438f dfbc db96 a838
00000200: 9403 053d 1bd6 603c e7e4 61bc 6a78 e0ba
00000210: 9c47 543c cba9 553c b7b4 44bc 8c94 99bc
00000220: 3a17 883c 6215 11bd 5f38 25bc c69f e0bb
00000230: 573c 813c 51ee 263c 3a8c 0b3d 570f 5a3c
00000240: f072 7c3c cad9 923c 1672 4b3c 728f 1b3d
00000250: 64ec c8bb 8f17 f03c e55d 23bc 0b21 cdbc
00000260: 1644 52bc 8c29 253d 59df ee3c e780 543d
00000270: c3c6 08bd e7ff 863c a0de 68bb 5bbb c43c
00000280: d2cd d03c 3aad a4bc 313f dabc e5cc a53c
00000290: 57bf 203d d6b3 4bbb 6128 0b3d c4fa 3a3d
000002a0: d2bd 103c b78e 01bd f328 14bd a459 803a
000002b0: ddc1 87bc 4702 c53b 6022 a5bc f66a 213c
000002c0: 05a1 a53b d44c 853c 8585 0f3c 1695 5d3c
000002d0: c552 8c3c 7628 94ba 56b6 283c b4da 113c
000002e0: 880e bdbc afdc 9e3c c1cd a9bc 6862 203c
000002f0: 05f8 a436 f86b 2bbd 861f a83c 0f35 c63b
00000300: f1ee 84bc 749f d1bc ede6 883c bbb1 bdba
00000310: 77eb 5dbc 4900 073d 30b4 78bc 7c6f bfbc
00000320: 7d2b b83c ad6c 92bb 8654 683a a012 e43c
00000330: 4a78 e43b e9ee f1bb d4aa c0bc ab6a 13bd
00000340: 22dc 843c c07f 503c 4e0b fcbb e9df 49bc
00000350: 265f f3bc 7b88 503d 4839 56bd d59a 1abd
00000360: eeac 57bd ca01 aebc 5137 1f3b 153e 003d
00000370: bd20 3abd 07d6 f9b8 0a3a 393c 1f46 71bd
00000380: 78c8 a138 3f34 deba f17a babc 59b5 31bd
00000390: 9154 f93c 59ae dfbc b491 943d 8625 823c
000003a0: c17a 7abd 0933 1abd f912 043d f17c e5bc
000003b0: 081b e6bb b729 6b3b ba65 fb3c a39b 283d
000003c0: 6584 96bd 898a 8abc 1e9f ebba 9173 7abc
000003d0: 0ddc 143c 1b88 093d 40f2 3abc dd3f f9bc
000003e0: 669b 9fbc 4f38 1b3b 9fbf 02bd f82e 51bc
000003f0: 4595 b63c e87c 8a3b 17ad aebc 6639 99bc

encoder.0.attention.values.bias f4 [64]
-0.01848556 -0.0052034473 0.012306106 0.007095174 6.4338004e-05 -0.018961834 0.0014611731 -0.0009639919
-0.0074959025 -0.015804736 -0.009665677 -0.005437352 -0.003844962 0.01109384 0.008405207 0.018741572
0.009009266 -0.009851778 0.021332813 0.006017439 -0.0071048965 -0.013820533 -0.006903174 -0.00104315
-0.00067328545 -0.0024342414 -0.009848448 0.0050761476 0.012275768 -0.010614877 -0.009148818 0.003727669
-0.020507127 -0.0029568959 0.019938584 0.011172336 -0.0038216873 0.025778996 -0.009607506 -0.00081065606
0.019930303 0.0046971645 0.0040275604 -0.004467105 -0.009049491 -0.024803506 -0.007970933 -0.0020581167
-0.0059103826 0.017060043 0.0014428105 0.026179204 -0.0047499845 -0.019800322 0.029809956 -0.004680625
-0.00065318856 0.01955137 0.020572789 -0.02836896 0.007829972 0.010311481 0.0097912215 -0.01755356
00000000: 076f 97bc ae81 aabb 8d9f 493c a27e e83b
00000010: 34ed 8638 d955 9bbc d584 bf3a 67b4 7cba
00000020: 30a0 f5bb ef78 81bc ca5c 1ebc d12b b2bb
00000030: c2fb 7bbb f0c2 353c feb5 093c ed87 993c
00000040: 9a9b 133c 5a69 21bc 27c2 ae3c f02d c53b
00000050: 31d0 e8bb 846f 62bc 0534 e2bb 4eba 88ba
00000060: 6c7f 30ba cb87 1fbb 635b 21bc d055 a63b
00000070: 4e20 493c 05ea 2dbc ede4 15bc e84b 743b
00000080: 90fe a7bc 7bc8 41bb 3e56 a33c 2c0c 373c
00000090: 4675 7abb 792e d33c cd68 1dbc 3582 54ba
000000a0: e044 a33c acea 993b a0f9 833b cb60 92bb
000000b0: 5144 14bc b930 cbbc 8498 02bc 78e1 06bb
000000c0: e2ab c1bb 81c1 8b3c b01c bd3a c575 d63c
000000d0: c2a5 9bbb 4934 a2bc 0234 f43c ee5f 99bb
000000e0: be3a 2bba 322a a03c 4488 a83c 0566 e8bc
000000f0: 4849 003c 7cf1 283c 5c6b 203c 7ccc 8fbc

encoder.0.attention.fc.weight f4 [64, 64]
-0.018606288 -0.023202952 -0.025471479 0.010223795 0.009149674 -0.003309181 -0.0048598223 0.026806256
-0.016555801 -0.0035019384 -0.040790267 0.023369653 -0.005982721 0.02439765 -0.0007627956 0.008180508
0.0018718666 -0.0035728712 -0.00075516506 -0.063447945 0.0076634726 -0.023562184 0.034631234 0.008036726
-0.005834103 0.00891383 -0.007979794 -0.014930363 -0.021413688 -0.03545925 -0.0020218163 -0.00551053
-0.020758051 0.010031663 0.026820974 0.006940007 -0.048891366 -0.04911878 -0.0375896 -0.004939231
-0.014352273 0.022739233 0.015487434 -0.012950906 0.08058856 0.024426872 -0.0035050793 0.0219743
-0.002190889 -0.010201664 -0.0054930793 0.01094558 -0.060649674 -0.046692062 0.03740765 0.014332767
0.0112304995 0.013616317 -0.00884385 -0.010801347 -0.017123412 0.003681284 0.010812518 0.009672175
-0.013377109 0.025878098 0.01252334 -0.026696114 -0.0035982763 0.027305553 0.050544754 0.0048225564
0.00024597338 0.0005280193 -0.011325057 -0.010101327 -0.030651331 -0.02617646 0.010809746 -0.004352457
0.008004736 0.011249041 -0.019826027 0.017103394 0.0044987835 0.012850491 0.022783497 -0.026734874
0.019633459 -0.0073436447 0.016736038 0.0049247965 -0.020276437 -0.019383388 -0.010172684 0.006918805
-0.029935757 -0.011180461 0.018998172 0.014613739 -0.017013319 -0.015310344 0.015373523 0.017157014
0.019495493 -0.029916516 -0.037263326 0.0029738324 -0.013322766 0.0050643226 0.0033530765 -0.0208541
-0.01050182 0.008925925 0.0028364467 -0.025764432 -0.013585794 0.0052695265 -0.014697782 0.027502034
0.015388499 -0.015996082 -0.024964847 -0.004783149 -0.03717069 0.025183091 -0.0032333306 0.009672916
-0.0050821854 -0.0133540435 0.008514991 0.015428689 -0.008355362 0.0052183145 0.009207551 0.00719994
0.035520863 0.003656405 -0.0116584785 0.02036394 -0.01843223 0.009086753 0.018809646 0.006564703
-0.0071100607 0.005532789 -0.020394633 -0.017451767 0.0019539353 -0.0022597236 -0.009819782 -0.022078702
-0.026487922 -0.005605758 0.0043192995 -0.013819205 0.026601173 0.01596069 0.013434614 -0.025130179
0.002807493 0.015773999 0.0024711913 -0.026502755 -0.013158898 -0.025519572 0.00039398903 0.02258925
0.026870476 -0.025635576 -0.013407416 -0.0008717351 0.0073612845 0.024469217 0.030902931 0.02042377
0.034218412 0.0035007736 0.013260003 0.02887951 0.009620415 -0.022325084 0.025424415 0.015605076
0.016316844 0.03842776 0.0025175044 -0.028258352 -0.007422155 -0.005975137 0.0016419768 0.011250002
-0.02429116 -0.030013394 0.009757606 0.036534566 0.0006165733 -0.0027615163 -0.0133044 0.05248917
0.011304481 -0.017422346 0.025400443 -0.011609003 0.0021999963 0.028031578 0.02213417 -0.013309749
0.026509605 -0.016216666 0.006703422 -0.026002603 -0.0078959055 0.03266062 -0.014379 0.0011012891
-0.02423206 0.010319854 0.04060086 0.005525285 0.0061539826 0.0280238 0.022113787 -0.026084883
0.0024208645 0.014162747 0.027194262 -0.0035459849 0.012181289 0.0066488483 -0.01660877 -0.024736961
-0.0063315276 0.03363714 0.021219317 0.00238706 0.01519589 -0.033411846 -0.0008987905 -0.008485977
-0.0064388043 -0.018948875 0.02977266 0.01735058 0.015352864 -0.032526772 -0.010453672 0.046748403
-0.010464984 0.010627455 0.0019579357 -0.0142131 -0.0039633876 -0.013738599 -0.01334359 0.022679461
00000000: 376c 98bc 1e14 bebc 90a9 d0bc b481 273c
00000010: 84e8 153c d8de 58bb 253f 9fbb cb98 db3c
00000020: 08a0 87bc c780 65bb b213 27bd b771 bf3c
00000030: b40a c4bb 95dd c73c 59f6 47ba 8a07 063c
00000040: 6c59 f53a d526 6abb 45f6 45ba fff0 81bd
00000050: de1d fb3b 7b05 c1bc 7bd9 0d3d 79ac 033c
00000060: 012c bfbb 500b 123c afbd 02bc 7b9e 74bc
00000070: c26b afbc b83d 11bd 7380 04bb ad91 b4bb
00000080: ca0c aabc d85b 243c a9b7 db3c 0069 e33b
00000090: 5042 48bd c630 49bd 8df7 19bd 46d9 a1bb
000000a0: cc25 6bbc a147 ba3c 02bf 7d3c 0930 54bc
000000b0: 9d0b a53d dd1a c83c 79b5 65bb 7203 b43c
000000c0: 0595 0fbb e124 27bc 4aff b3bb 1755 333c
000000d0: cb6b 78bd 2d40 3fbd c438 193d fbd3 6a3c
000000e0: 2100 383c f916 5f3c cce5 10bc 22f8 30bc
000000f0: 6646 8cbc b241 713b fd26 313c 0b78 1e3c
00000100: a92b 5bbc 4efe d33c b22e 4d3c cfb1 dabc
00000110: 0fd1 6bbb e5af df3c 0408 4f3d 8906 9e3b
00000120: fdf5 8039 c76a 0a3a bb8c 39bc 0980 25bc
00000130: 8018 fbbc 0470 d6bc 5c1b 313c 0e9f 8ebb
00000140: 4c26 033c e64d 383c 316a a2bc 6b1c 8c3c
00000150: 886a 933b de8a 523c 75a4 ba3c 1803 dbbc
00000160: 59d6 a03c f5a2 f0bb 041a 893c 3060 a13b
00000170: c51a a6bc e9c9 9ebc 54ab 26bc 25b7 e23b
00000180: d53b f5bc 412e 37bc 0ea2 9b3c 776e 6f3c
00000190: 845f 8bbc 3dd8 7abc 3be1 7b3c de8c 8c3c
000001a0: 03b5 9f3c 7b13 f5bc 6ea1 18bd a1e4 423b
000001b0: bb47 5abc 9ef2 a53b 4abf 5b3b 38d6 aabc
000001c0: d30f 2cbc 0b3e 123c aee3 393b ee0f d3bc
000001d0: f396 5ebc feab ac3b f7ce 70bc f24b e13c
000001e0: 0b20 7c3c 370a 83bc 1483 ccbc f6bb 9cbb
000001f0: 4b40 18bd c54c ce3c 49e6 53bb 267b 1e3c
00000200: 7688 a6bb ebca 5abc 7682 0b3c 9dc8 7c3c
00000210: eee4 08bc 65fe aa3b 45db 163c 79ed eb3b
00000220: 537e 113d 4ca0 6f3b 3403 3fbc 47d2 a63c
00000230: 30ff 96bc 9be0 143c b016 9a3c b81c d73b
00000240: 83fb e8bb 664c b53b a512 a7bc 02f7 8ebc
00000250: 980d 003b df17 14bb 27e3 20bc 65de b4bc
00000260: 33fd d8bc 82b0 b7bb e988 8d3b f269 62bc
00000270: b4ea d93c febf 823c db1c 5c3c cedd cdbc
00000280: ebfd 373b 7938 813c b6f3 213b 4e1c d9bc
00000290: 6b98 57bc 6c0e d1bc 5090 ce39 170d b93c
000002a0: 791f dc3c b301 d2bc c7aa 5bbc 2785 64ba
000002b0: ee36 f13b ab73 c83c 2528 fd3c c04f a73c
000002c0: 9b28 0c3d 3c6d 653b 7c40 593c b994 ec3c
000002d0: f29e 1d3c 18e3 b6bc dd46 d03c 6fac 7f3c
000002e0: e7aa 853c 6d66 1d3d b7fc 243b 0f7e e7bc
000002f0: 8c35 f3bb 15cb c3bb 9937 d73a ee51 383c
00000300: 41fe c6bc a6de f5bc 5ede 1f3c 45a5 153d
00000310: 89a1 213a 8efa 34bb b3fa 59bc e2fe 563d
00000320: 6e36 393c 4fb9 8ebc 9714 d03c b033 3ebc
00000330: d02d 103b 7ba2 e53c b852 b53c 2211 5abc
00000340: ac2a d93c d0d8 84bc 61a8 db3b 6903 d5bc
00000350: d45d 01bc 24c7 053d e695 6bbc 2159 903a
00000360: 5082 c6bc 9b14 293c 164d 263d 730d b53b
00000370: 59a7 c93b 2b92 e53c f927 b53c f7af d5bc
00000380: 5ea7 1e3b de0a 683c 80c6 de3c c163 68bb
00000390: 0794 473c 95de d93b 1d0f 88bc 2ba5 cabc
000003a0: b478 cfbb 19c7 093d 22d4 ad3c 3970 1c3b
000003b0: 2ff8 783c dcda 08bd cf9c 6bba c408 0bbc
000003c0: 9bfc d2bb ac3a 9bbc cbe5 f33c ce22 8e3c
000003d0: 948a 7b3c cb3a 05bd e145 2bbc 417b 3f3d
000003e0: 5375 2bbc c71e 2e3c b650 003b 10de 68bc
000003f0: 4edf 81bb dc17 61bc 139f 5abc 47ca b93c

encoder.0.attention.fc.bias f4 [64]
0.0 0.0 0.0 0.0 0.0 0.0 0.0 0.0
0.0 0.0 0.0 0.0 0.0 0.0 0.0 0.0
0.0 0.0 0.0 0.0 0.0 0.0 0.0 0.0
0.0 0.0 0.0 0.0 0.0 0.0 0.0 0.0
0.0 0.0 0.0 0.0 0.0 0.0 0.0 0.0
0.0 0.0 0.0 0.0 0.0 0.0 0.0 0.0
0.0 0.0 0.0 0.0 0.0 0.0 0.0 0.0
0.0 0.0 0.0 0.0 0.0 0.0 0.0 0.0
00000000: 0000 0000 0000 0000 0000 0000 0000 0000
00000010: 0000 0000 0000 0000 0000 0000 0000 0000
00000020: 0000 0000 0000 0000 0000 0000 0000 0000
00000030: 0000 0000 0000 0000 0000 0000 0000 0000
00000040: 0000 0000 0000 0000 0000 0000 0000 0000
00000050: 0000 0000 0000 0000 0000 0000 0000 0000
00000060: 0000 0000 0000 0000 0000 0000 0000 0000
00000070: 0000 0000 0000 0000 0000 0000 0000 0000
00000080: 0000 0000 0000 0000 0000 0000 0000 0000
00000090: 0000 0000 0000 0000 0000 0000 0000 0000
000000a0: 0000 0000 0000 0000 0000 0000 0000 0000
000000b0: 0000 0000 0000 0000 0000 0000 0000 0000
000000c0: 0000 0000 0000 0000 0000 0000 0000 0000
000000d0: 0000 0000 0000 0000 0000 0000 0000 0000
000000e0: 0000 0000 0000 0000 0000 0000 0000 0000
000000f0: 0000 0000 0000 0000 0000 0000 0000 0000
