model/mnist/tune_lr0.001_ed32_nl4_nh4_fm2_ps4/temp_model.pt (torch, 175623 bytes, 74 tensors)

embedding.cls_token f4 [1, 1, 32]
000000 8f 64 c7 3c 2f 4d a2 bc 49 0b 47 bc 4f ba 84 3d
       0.024339942 -0.019812195 -0.012148687 0.06480848
000010 b4 7b 51 3d 30 6c 74 3d 19 55 56 bd ad 82 f5 bc
       0.051143363 0.05967349 -0.05232725 -0.029969538
000020 70 c4 eb 3b 59 00 3d bb f3 4a b7 bd 58 99 1a 3d
       0.007195048 -0.0028839319 -0.08949842 0.037743896
000030 73 62 a2 3a 50 94 12 bd 90 2b d4 bc 36 02 5b 3d
       0.0012388959 -0.035785973 -0.025899678 0.053468905
000040 82 5f 68 bb b0 8b 49 3c 68 77 90 bd 70 67 85 3c
       -0.0035457318 0.0123013705 -0.07054025 0.016284674
000050 03 96 c9 3c be df 65 bd 86 36 0f bc b5 35 2e bc
       0.024607664 -0.05612158 -0.008741027 -0.010632922
000060 84 01 26 bc 54 46 a2 bc 91 5e 78 3c 64 af 95 bc
       -0.010132197 -0.019808926 0.015159265 -0.01827211
000070 c6 d6 06 bd 5d c4 f7 3c f3 b1 3b bb b1 98 90 ba
       -0.032919668 0.030245 -0.0028640002 -0.0011031834

embedding.pos_embedding f4 [1, 50, 32]
000000 86 64 c7 3c 32 4d a2 bc 41 0b 47 bc 51 ba 84 3d
       0.024339925 -0.0198122 -0.012148679 0.064808495
000010 b6 7b 51 3d 38 6c 74 3d 1a 55 56 bd b4 82 f5 bc
       0.05114337 0.059673518 -0.052327253 -0.02996955
000020 62 c4 eb 3b 71 00 3d bb f2 4a b7 bd 57 99 1a 3d
       0.0071950415 -0.0028839374 -0.089498416 0.037743893
000030 61 62 a2 3a 53 94 12 bd 8c 2b d4 bc 39 02 5b 3d
       0.0012388938 -0.035785984 -0.025899671 0.053468917
000040 a9 5f 68 bb b2 8b 49 3c 6b 77 90 bd 6d 67 85 3c
       -0.0035457409 0.012301372 -0.07054027 0.016284669
000050 05 96 c9 3c c2 df 65 bd 7e 36 0f bc b0 35 2e bc
       0.024607668 -0.056121595 -0.008741019 -0.010632917
000060 9a 01 26 bc 57 46 a2 bc 9f 5e 78 3c 69 af 95 bc
       -0.010132218 -0.019808931 0.015159278 -0.018272119
000070 c1 d6 06 bd 60 c4 f7 3c 1f b2 3b bb 70 98 90 ba
       -0.03291965 0.030245006 -0.0028640104 -0.0011031758
000080 20 29 21 3d 26 d4 da bc 48 db 90 3c d3 44 71 bc
       0.03934586 -0.026712488 0.017682686 -0.014725882
000090 7f 93 a0 3c c3 32 99 3d 0e a2 50 3c 9a 92 5d 3d
       0.019601582 0.07480385 0.012733949 0.05409489
0000a0 87 2a 52 bd 09 07 eb bc 46 a9 05 bd 96 eb 01 bd
       -0.05131009 -0.028689878 -0.032632135 -0.031718813
0000b0 9d 2e 4c 3d 68 1f 82 bd b8 37 18 bc d0 99 26 bc
       0.04984914 -0.063536465 -0.009290628 -0.010168508
0000c0 30 e3 dd 39 13 24 a8 3c 16 1a 46 3d 8c 65 db ba
       0.00042321673 0.020525014 0.04836472 -0.0016738637
0000d0 d8 9f 47 bd 9c 94 45 bc 06 bf f6 3c c2 56 35 3d
       -0.048736423 -0.012059357 0.030120384 0.04427219
0000e0 05 b7 73 3c 76 5e 50 3d 46 a1 97 3c b3 f1 e9 3a
       0.014875178 0.050871335 0.018509518 0.0017848521
0000f0 bd d2 40 bd 79 db f8 bc d9 27 1c 3d c3 b3 da bc
       -0.047075976 -0.03037809 0.03812394 -0.026697045
000100 27 dc 49 3d 3b cd e0 bb 3a 74 87 3c 1f a1 91 bc
       0.04928222 -0.006860403 0.016534913 -0.017777024
000110 ba 6c a1 3c 32 e3 52 3d aa dc e3 ba b6 3b 31 3d
       0.019705165 0.0514862 -0.0017384489 0.043269835
000120 24 7a 48 bd 0c c7 69 bd 3d 6d 91 bc 53 a0 82 bd
       -0.048944607 -0.05707459 -0.017752284 -0.06378236
000130 12 dc 63 3d 6b 6a 78 bd 83 0c a3 3a db 9e ae bc
       0.055629797 -0.060648363 0.0012439642 -0.021315983
000140 38 c0 e1 bc 35 2b a3 3c 84 2c 31 3d 05 7a 5b bc
       -0.027557477 0.019918064 0.043255344 -0.013395791
000150 95 10 1c bd 7e 64 b8 3b a2 65 1d 3d 89 9d ec 3c
       -0.03810175 0.005627214 0.038427003 0.028883712
000160 27 54 e8 3c 0b 4a f4 3c 28 91 31 3c 8d b8 d0 bb
       0.02836044 0.029820463 0.010837831 -0.0063696564
000170 5b 51 23 bd 04 c3 aa bc a7 23 5c 3d 14 33 93 bc
       -0.03987251 -0.020844944 0.05374494 -0.017968692
000180 cf 38 d8 3c f7 5d 00 bd 0c 6f d8 bd 1d 7e 87 3d
       0.026394276 -0.03133961 -0.105680555 0.06615851
000190 60 75 5d 3d 2e 1b a1 3d 95 39 34 be a7 92 80 bd
       0.054067016 0.07866512 -0.17600091 -0.06277972
0001a0 85 3b d9 3c 26 ce 42 bd f1 b1 45 bd c4 31 cc bd
       0.026517639 -0.04755988 -0.0482654 -0.099704295
0001b0 04 49 e6 bc 31 39 a8 bb fa 92 a4 3d 4a 53 8b bd
       -0.028110988 -0.005133771 0.08035846 -0.068029955
0001c0 9b 08 b6 bd 83 a7 dc bd c8 60 ea bc 81 89 1d 3d
       -0.0888836 -0.10774138 -0.028610602 0.038461212
0001d0 77 47 31 3d eb e7 fe 3d 85 76 d2 3c 17 b1 21 3b
       0.043281045 0.124465786 0.02569128 0.0024672204
0001e0 c5 c9 9a bc d4 36 a5 bd 83 31 1c 3d f3 25 a2 3d
       -0.01889504 -0.08067098 0.038133156 0.079173945
0001f0 c1 e0 80 3c 85 bb 88 bc 8a 67 3c 3e 54 38 2b 3d
       0.015732171 -0.016690979 0.18398872 0.041801766
000200 68 b9 6a bb c1 5a 66 bd cb 17 db bd 1b 0d 8d 3d
       -0.0035816077 -0.056238893 -0.106978975 0.06887265
000210 cd a0 74 3d 87 99 f8 3d 5f 0d 68 be 3b 05 46 bd
       0.059723664 0.12138658 -0.2266135 -0.048344832
000220 89 48 a6 3c 6f df 10 bd d0 e0 c4 bd e9 70 fe bd
       0.02029826 -0.035369333 -0.09613192 -0.1242388
000230 c2 83 9e bd 72 e1 2c 3d 35 54 0a 3e b3 23 c2 bd
       -0.077399746 0.04220719 0.13508685 -0.09479465
000240 c6 d3 0a be cb 20 d4 bd de 7b cf 3b ce 78 9b 3c
       -0.13557348 -0.10357817 0.006331905 0.018978503
000250 0b 17 4d 3d 62 73 25 3e 94 3b ad bc 2a 07 26 3c
       0.050070804 0.16157296 -0.021146573 0.010133544
000260 52 b2 b0 bd 9a 37 cd bd b7 4e 85 3d 9a a3 d6 3d
       -0.08627762 -0.10020371 0.06509154 0.10480423
000270 0b 61 ad bb d3 0a 4c bb 6a 30 9d 3e b5 86 3c 3d
       -0.0052911094 -0.0031134381 0.30701 0.046026904
000280 8b 0c db bb 6d a1 37 bd 04 02 cb bd 9d a1 c8 3d
       -0.006684845 -0.044831682 -0.09912494 0.0979645
000290 08 55 25 3d b2 ed 09 3e cd 53 3d be 5c fe 91 bd
       0.040364295 0.1346958 -0.18488999 -0.07128593
0002a0 39 8c 03 bc e8 e8 63 3c 09 db e8 bd 6c 5b fb bd
       -0.008029037 0.01391051 -0.11369903 -0.12273297
0002b0 ee 3c 58 bd 49 b4 35 bd 2d 22 08 3e 59 88 8a bd
       -0.052792482 -0.044361386 0.13294287 -0.067642875
0002c0 05 0f 01 be 3e 92 71 bd fd 69 2d 3c e5 59 78 bc
       -0.12603386 -0.058977358 0.010584352 -0.015158151
0002d0 3c 38 67 3d 42 32 1a 3e 4b 0c 95 bc d4 f8 bf 3c
       0.056450114 0.15058234 -0.018194338 0.02343408
0002e0 1a e1 ac bd 06 89 ea bd f7 39 73 3d 78 dc 7e 3d
       -0.08441372 -0.114519164 0.05938145 0.062221974
0002f0 e3 f2 b0 bc 0a 9d eb 3c 41 63 9b 3e 63 af 30 3d
       -0.021600192 0.028761405 0.30349162 0.04313601
000300 1f c6 cc bc 24 6c 5d bc a2 71 f1 bd 86 13 9b 3d
       -0.024996815 -0.013514552 -0.11789252 0.07572083
000310 55 19 da 3d 8a f3 0a 3e 34 a1 cb bd ca a7 3b bd
       0.10649363 0.13569465 -0.099428564 -0.045814313
000320 73 11 a9 bd 06 24 46 bc a0 a1 07 be 73 d8 16 bd
       -0.08255281 -0.01209355 -0.13245249 -0.036827516
000330 e1 59 46 3d 0e 09 3e 3d f5 36 33 3d 63 db c2 bd
       0.04842556 0.046395354 0.043753583 -0.09514501
000340 3c ce 2d bd 11 7b c6 bc 1d 4d 02 bd d1 fa 19 bd
       -0.04243301 -0.024228605 -0.031811822 -0.037592713
000350 72 1e f8 3b 81 51 00 3e d9 7e ac 3d 60 e2 b8 3d
       0.0075719887 0.12531091 0.08422632 0.090275526
000360 ce a7 03 3d 47 67 5a bd 6c d7 55 3d 57 71 66 bd
       0.032142453 -0.05332115 0.052207395 -0.056260433
000370 9b 41 32 bd c1 0e 09 3d 6d 89 22 3e 2e 77 2e bc
       -0.043519598 0.033461336 0.15872736 -0.010648532
000380 02 e8 31 3d 0e 6e 7f bc ce 2e 22 3c 0f f3 8f bc
       0.04343415 -0.015590204 0.009898854 -0.017571954
000390 4a 52 61 3c 78 37 b0 3d 71 d7 1c 3c be 02 44 3d
       0.013752529 0.0860433 0.00957285 0.047854178
0003a0 03 cf 57 bd 2e 7e 63 bc d9 03 27 bd 2b b4 44 bd
       -0.052687656 -0.013885064 -0.040775154 -0.048023384
0003b0 cc b7 51 3d af a7 85 bd e2 5d bd bb 99 de 3f bc
       0.051200673 -0.06526124 -0.005779014 -0.011710786
0003c0 93 75 4e bb d0 ec 66 3c c3 8f 30 3d 0c 74 18 3b
       -0.0031503185 0.014094546 0.04310585 0.0023262529
0003d0 e8 25 3a bd ee d8 a1 bb 69 0b 32 3d cb ea 41 3d
       -0.045446306 -0.00493919 0.043467913 0.047343057
0003e0 45 c7 c1 3c 98 ac 2f 3d 3b 03 c7 3c f4 43 3b bc
       0.02365459 0.042889208 0.024293533 -0.0114297755
0003f0 bb 21 43 bd fb 63 d3 bc 08 d7 28 3d d0 3b d7 bc
       -0.04763959 -0.02580451 0.041220695 -0.026273638

embedding.conv1.weight f4 [32, 1, 4, 4]
000000 25 1c 0d 3d 7f d5 74 bc 9d bc 90 bc 0f 1e c6 bc
       0.03445067 -0.01494348 -0.017668063 -0.024184255
000010 d6 91 34 3d 3c 66 33 bd e3 6a 62 bc c2 9c 1c 3b
       0.044084392 -0.04379867 -0.013819429 0.0023897146
000020 8d 5c e7 3b 74 f9 2a bd b4 b3 a8 bc 09 90 eb 3c
       0.0070605935 -0.041741803 -0.020593502 0.028755205
000030 76 db 16 bd 42 85 4f bd 1e 2a 93 bc ac 91 40 3d
       -0.036830388 -0.050664194 -0.017964419 0.047013924
000040 97 7b 37 bc a9 e1 1f 3d df 7b 7b 3d 35 ef 40 bb
       -0.0111989 0.039033566 0.06139743 -0.0029439454
000050 86 35 49 bc 97 5e 2a ba 15 bd 85 3d ef 12 bb bc
       -0.012280827 -0.00064990803 0.06530205 -0.022836177
000060 e2 fe 1e 3c 82 2c 79 3c a3 b7 ad 3c 4d 3c df bb
       0.0097043235 0.015208365 0.021205729 -0.0068126083
000070 81 8d a1 3c 8c 22 85 bd 90 10 a1 3c cb a6 df 3c
       0.019720795 -0.0650073 0.019661218 0.027301213
000080 1e 7c 8e 3c 36 35 7a 3c 54 5e 2c bd 28 7e a5 bd
       0.017393168 0.015271476 -0.042082146 -0.08080703
000090 93 d6 0c 3c 09 3e 9d 3c b7 df d0 bc 43 47 c5 bc
       0.00859608 0.01919462 -0.0254973 -0.024081832
0000a0 cc e7 13 3d 6e 74 83 3c bc a5 9e bd 00 d4 bb b6
       0.03610973 0.016046729 -0.07746455 -5.5977143e-06
0000b0 c1 fd 28 3d 06 fa db bc 6e a6 89 bd ec 5c 90 bc
       0.041257624 -0.026852619 -0.06721197 -0.017622434
0000c0 b1 d9 09 3d 7e b6 27 3c 67 5d 81 3c ea 3b 38 3d
       0.033654872 0.010236381 0.015791608 0.044979014
0000d0 bf 7c 8f 3c 23 01 0b 3c 3c 2e 9e bc fb 06 09 3d
       0.017515538 0.008484158 -0.019309156 0.033453923
0000e0 32 13 25 3d 11 0d b6 bc b4 97 ba 3b 18 00 25 3c
       0.04030151 -0.022223027 0.005694354 0.010070823
0000f0 d3 85 2a 3d 50 65 a1 3b 56 be 01 3b 58 04 de bc
       0.04163153 0.0049254075 0.0019797287 -0.02710168
000100 66 11 2c bc aa bd 2c 3d cc da a9 bc 44 1b ef 3a
       -0.010502195 0.042173065 -0.020734213 0.0018242379
000110 c9 fa b3 bc f6 95 08 3d 29 cd cb bc b2 f7 ae bc
       -0.02197017 0.03334614 -0.024878101 -0.021358345
000120 53 f3 84 bc 20 3a 32 3d 1f 3d 49 bb e2 12 3c bc
       -0.016229307 0.043512464 -0.0030706597 -0.011479111
000130 a5 c6 ba bb fe c6 71 3b 7c 22 86 bc 71 41 e3 bc
       -0.00569995 0.003689229 -0.016373865 -0.027741166
000140 1a b9 a8 bc 52 38 61 bd 33 70 94 3a b9 b5 89 3d
       -0.020596076 -0.05498535 0.0011324942 0.06724114
000150 0e 81 36 bc f6 00 e9 bc c4 0b 6d 3c 14 97 66 3d
       -0.0111391675 -0.028442841 0.014468137 0.056296423
000160 70 f1 71 bd 70 d8 49 3c d3 82 d6 3c 3b fd 12 3d
       -0.059068143 0.012319669 0.026185429 0.03588603
000170 5c 7d 59 bd 98 7f 16 3d ff 67 51 3d 66 2b 22 3d
       -0.053098068 0.036742777 0.05112457 0.03959217
000180 78 d1 e9 bc 06 28 72 3b 1e ae 5d bb c5 1c 78 3b
       -0.028542265 0.0036950125 -0.0033825706 0.0037858945
000190 be 6e c8 bb f0 10 06 3d 37 cd 88 bb 97 f1 74 bc
       -0.006116717 0.032730997 -0.004174854 -0.014950178
0001a0 22 e6 71 3a 29 71 63 3c a5 8c b4 3b 4e f2 ad bc
       0.0009227713 0.01388196 0.00550993 -0.021233704
0001b0 2e b7 02 3d f2 35 dd 3c 5f b3 bb bb fe 6c d8 bc
       0.031912975 0.027003262 -0.00572817 -0.026419159
0001c0 ab ea 6b 3c 63 2c 7e bd 6e 9b 3b bd 95 93 0b bd
       0.014399211 -0.06205405 -0.045802526 -0.034076292
0001d0 61 4a 10 3d 34 4f 0e bd cd d7 d6 bc 2a 90 c1 bc
       0.035227183 -0.034743503 -0.026225949 -0.023628313
0001e0 20 0c ea 3c 92 4c a6 bc ea e8 87 bc fb 9d c2 bc
       0.028570235 -0.020300183 -0.016590554 -0.023756972
0001f0 a1 d4 6f bc 51 2c 84 bc 25 75 84 bb e6 f5 fa bc
       -0.014638097 -0.016134413 -0.004042285 -0.030634832
000200 21 64 39 3d c1 f5 87 bc ef c4 3d bb e7 18 19 bc
       0.045261506 -0.016596677 -0.0028956493 -0.009344316
000210 2a ec e7 3c 56 3d b9 bc 26 91 8e 3b 54 a4 82 3c
       0.028310854 -0.022612255 0.004350799 0.015947498
000220 39 d0 a8 3b 25 9f 16 bc ae 10 07 3c 8e fd 6b 3c
       0.005151775 -0.009193216 0.008243723 0.014403714
000230 30 c9 27 3d 37 66 d1 bc f5 bc bc 3c 5e fb c4 3b
       0.04096335 -0.025561435 0.02303932 0.0060114106
000240 15 90 1f bc 7b c1 60 bc 83 36 ef bc 2e a5 5d bc
       -0.009738942 -0.013718004 -0.029200798 -0.013528151
000250 3b 2d 6e bc da 5d 87 3b 80 fa 28 bc e6 fc 8b 3c
       -0.014537151 0.004131061 -0.01031363 0.017088365
000260 74 bd 60 bd af c2 ad 3c fc dc a4 3c 85 11 99 bc
       -0.054868177 0.021210996 0.020124905 -0.018685112
000270 ea 42 3d bd 88 8d 7e 3d 83 b8 32 3d a1 0b d3 b7
       -0.046206392 0.062146693 0.043632995 -2.5158575e-05
000280 ef 17 82 3d 58 73 d9 3c 57 cb a3 3c 80 d0 e6 ba
       0.06352221 0.026544258 0.01999442 -0.0017609745
000290 08 b6 10 3c cb a2 98 3c b0 ff 92 bc 91 0d e5 ba
       0.008832462 0.018632313 -0.017944187 -0.0017475357
0002a0 bc f1 64 3b 17 f5 64 3d 9d bf 03 bc 12 55 02 bd
       0.0034934124 0.0558978 -0.00804129 -0.03181941
0002b0 39 57 75 3d 53 71 66 3c db 01 82 bd 4b 85 a7 bc
       0.059897635 0.014065105 -0.0634801 -0.020449301
0002c0 25 e6 50 bd f7 20 f0 bb c1 f4 20 3d 84 ad 14 bc
       -0.051000733 -0.0073281485 0.039295916 -0.0090745725
0002d0 25 d1 6e bc cc b9 40 bc d1 ac e3 3c 47 ef de bc
       -0.014576231 -0.011763047 0.027792366 -0.027213706
0002e0 ce 9f 1c bd b4 cb ea 3c ca df cb 3c f8 8c 1a bd
       -0.03823834 0.028661586 0.024886984 -0.037732095
0002f0 b0 55 b3 ba 5d b6 07 3d f8 40 76 3c 10 91 64 bd
       -0.0013682153 0.0331329 0.015030138 -0.055802405
000300 e4 d3 99 bb 46 61 c1 bc db f1 a1 3c 7c c2 56 3c
       -0.004694449 -0.023605954 0.019768646 0.013107892
000310 a5 f9 42 3c aa 8c 19 bd d3 41 2a 3c 1c e4 7e bc
       0.01190034 -0.037487663 0.01039167 -0.015557315
000320 91 cc 92 3c d0 00 0c bd 8b c4 04 bd 42 94 0e 3b
       0.01791981 -0.034180462 -0.032414 0.002175585
000330 fd 35 15 bc 1a fc 69 bd 3b 2f 20 bd 3e 3c a3 bc
       -0.00910711 -0.05712519 -0.039107542 -0.019926187
000340 d7 d4 9e bd e1 a0 d8 bc 63 24 22 3d 2e 59 e2 3b
       -0.0775544 -0.0264439 0.039585482 0.0069076037
000350 f2 9c 06 bd 6b 3c 69 bc 46 08 7a 3d 42 7b cf bc
       -0.03286452 -0.014235596 0.061043046 -0.025327329
000360 9a cf 91 bc a8 2c 92 ba d9 aa 7f 3c 63 a2 c8 bc
       -0.017799187 -0.0011152225 0.015604698 -0.024491495
000370 a1 8a 7b bc c7 31 82 bc 77 84 44 bc 55 fa 32 bd
       -0.015352876 -0.015892876 -0.011994473 -0.043695766
000380 bf fd be bc 6c ec c5 bc 39 ae 2b bd 5c a7 f9 3c
       -0.023314355 -0.024160586 -0.0419142 0.030475311
000390 aa fd d3 bc ab c4 4d 3c da 85 9a bb 85 f9 92 3c
       -0.025877792 0.012559096 -0.0047156634 0.017941246
0003a0 00 44 54 ba 96 95 03 3d 3d c4 10 bc d9 9c d3 3c
       -0.0008097291 0.03212508 -0.008835849 0.025831627
0003b0 9f 1b 15 3c c3 0d 2c 3d b4 81 ac 3a c4 48 63 3c
       0.009100824 0.04200531 0.0013161213 0.013872329
0003c0 64 87 11 bc 76 6a f0 3c 41 45 12 3d 62 64 a6 ba
       -0.008882377 0.02934764 0.035710577 -0.0012694711
0003d0 96 21 b3 3b 07 30 10 bc ff 21 87 3c 24 0c d6 3b
       0.0054666502 -0.008800513 0.016495703 0.006532209
0003e0 6b 5c 56 bc f5 1b eb 3c e2 7f 7b bc d7 84 52 3c
       -0.013083558 0.028699854 -0.015350314 0.012849054
0003f0 52 12 af 3a 16 c3 07 bb 62 0e 00 3d 6f 74 3f b7
       0.00133569 -0.0020715646 0.031263717 -1.14115965e-05

embedding.conv1.bias f4 [32]
000000 c2 16 4e bd 24 27 40 3d fb 9d 8a bd 7d b4 a0 3c
       -0.050314672 0.046912327 -0.06768414 0.019617314
000010 19 20 11 bd 81 ec d0 bc c7 cc 00 bd 39 c0 33 bd
       -0.035431 -0.025503399 -0.03144529 -0.04388449
000020 98 bd 06 3d 7e 0d 9f bc 7f 3d 7f 3d 7b c0 81 bd
       0.032895654 -0.019415613 0.062314507 -0.06335541
000030 ff 89 57 bd 75 34 15 bc 4e a2 85 3d 6b 9d 41 bd
       -0.052621838 -0.009106745 0.06525098 -0.047269266
000040 8e a6 0c bd 47 48 59 bd e8 8b 76 bc d6 f5 09 bc
       -0.034338526 -0.053047445 -0.015048005 -0.008420428
000050 09 47 c8 3c 10 ca 3f 3d 78 e1 90 3c 04 9e 15 bd
       0.024447935 0.04682356 0.017685637 -0.03652765
000060 bc cd 4a 3d aa 42 2d bd 09 04 55 bd 4d 2c 8e bc
       0.04951261 -0.042299904 -0.0520058 -0.017355109
000070 4d b6 31 3d 60 c2 e5 3c 4e f4 0c 3d b8 21 4c 3d
       0.043386746 0.028046787 0.034412675 0.049836844

encoder.0.attention.queries.weight f4 [32, 32]
000000 43 33 6f 3d 45 f4 68 bd a7 c0 e1 3d 34 40 a5 bd
       0.058398496 -0.05687358 0.11023074 -0.080688864
000010 0a ff 29 3d cf 26 21 bd d9 0c 6f 3d 86 1a f3 3d
       0.04150299 -0.03934365 0.05836186 0.11870293
000020 f8 9e b2 bd 07 89 94 3d e5 f5 2d bd d8 02 0a 3e
       -0.08721727 0.072526984 -0.04247083 0.13477647
000030 3f b5 cc 3d 26 97 55 bc ce dc cf bd 2a 18 61 bd
       0.099955074 -0.013036525 -0.10149537 -0.054954685
000040 84 56 77 3c 10 07 b3 3d 0a c7 73 3d aa 78 49 3d
       0.0150963105 0.087415814 0.05951599 0.04918734
000050 39 22 48 bd 96 c4 24 bd a7 54 e9 bc ce 45 db 3d
       -0.048860762 -0.04022654 -0.028482748 0.107066736
000060 b5 f1 21 bd e6 31 b9 3d 67 9b d5 3d b3 6e 4a 3d
       -0.03953715 0.090427205 0.10430031 0.049421977
000070 7e 66 87 bd 7e 54 7b bd d6 93 cd bd ce a2 99 bd
       -0.06611346 -0.061359875 -0.10037963 -0.07501756
000080 70 f0 a9 bc 27 8b 58 3d a4 c5 05 be b4 aa 2b 3d
       -0.020744532 0.05286708 -0.13063675 0.041910842
000090 59 f2 33 bd c3 4b 20 ba ba b7 59 bd c5 79 ac bd
       -0.043932293 -0.0006114805 -0.05315373 -0.08421663
0000a0 89 54 bd 3d 39 a6 dc bd 3a 5c ba 3c 59 f6 03 be
       0.092446394 -0.10773892 0.022749055 -0.12886943
0000b0 bf 0e fa bd 27 bb 39 3d 89 7c 0f 3e 68 6a 73 3d
       -0.12209844 0.045344498 0.1401235 0.05942765
0000c0 29 47 3b bd ee 8a 8c bd ca 21 2c bd b3 c7 f5 bc
       -0.04572216 -0.06862436 -0.04202441 -0.03000245
0000d0 44 b4 d2 3d 60 c3 0a 3d 3c f2 ea 3c 79 94 6a bd
       0.10288289 0.03387773 0.02867996 -0.0572705
0000e0 ff 42 d4 3d df f9 9b bd e0 2f f6 bd bb 78 77 bd
       0.10364341 -0.076160185 -0.1202085 -0.060417872
0000f0 aa ca a8 3d 8a 0b 4c 3d bf 12 13 3e c0 f1 b9 3d
       0.0824178 0.049815692 0.1436262 0.09079313
000100 59 30 4c 3d 2c d2 da bd 3e da 09 3e 43 ab bb bd
       0.049850795 -0.10684618 0.13462159 -0.09163525
000110 53 8f 81 3d d2 fb b0 3c 8f 78 0d 3d d1 81 b2 3d
       0.06326165 0.021604452 0.0345388 0.08716167
000120 78 07 07 be 28 c6 71 3d a3 e0 26 bd 7f 85 d4 3d
       -0.13186443 0.059026867 -0.040741574 0.10377025
000130 14 f8 11 3e f7 20 03 bc 89 1b 08 be d7 fa 43 bd
       0.1425479 -0.008003465 -0.13291754 -0.04784664
000140 84 19 cf bc 06 d0 ff 3d d1 d8 71 3d 2f 36 3e 3d
       -0.025280721 0.12490849 0.059044663 0.046438392
000150 c6 e8 47 bd 2e 1f 76 bd 6b 85 69 bd fd 8e d5 3d
       -0.048805974 -0.06008833 -0.057012003 0.104276635
000160 93 45 37 bd 22 02 ce 3d 32 f4 f3 3d b9 60 98 3d
       -0.044744086 0.100590006 0.11911811 0.074403234
000170 9f c1 a0 bd 73 0f 8b bd b4 ad ec bd 36 5f ba bd
       -0.0784943 -0.06790056 -0.11556569 -0.09100191
000180 9d bc 73 bd a9 66 a0 3d 73 a4 f4 bd 04 28 8c 3d
       -0.059506048 0.07832081 -0.11945429 0.0684357
000190 bb 71 70 bd 98 16 00 3d f6 e4 76 bd 23 5c 58 bd
       -0.05870221 0.031271547 -0.060276948 -0.052822243
0001a0 2d 1c a7 3d 52 69 c5 bd dd 8f 96 3d f2 de df bd
       0.08159671 -0.09639229 0.073516585 -0.10931195
0001b0 98 a8 19 be 00 9b 22 bc 37 0d 0c 3e fe 15 0a 3d
       -0.1500572 -0.00992465 0.13676916 0.03371238
0001c0 72 ca da bb c5 52 e6 bd 11 f2 f4 bd 0e 37 13 bd
       -0.0066769654 -0.11246256 -0.11960233 -0.035941176
0001d0 d9 6a f7 3d b1 aa ec 3c 6d 80 82 3d 28 7b d3 bd
       0.120809264 0.028889986 0.063721515 -0.103262246
0001e0 91 df ff 3c 22 41 b7 bd 6a 27 1f be d3 27 68 bd
       0.031234534 -0.0894797 -0.15542379 -0.056678604
0001f0 58 db 8a 3d 12 e2 b5 3d 1d e1 a9 3d 1e 9a dc 3d
       0.06780118 0.0888101 0.0829489 0.10771583
000200 a4 65 d0 bc 5d 9d 65 3d fb ff cf bd 7f ba 5d 3d
       -0.025439091 0.056058276 -0.10156246 0.054132935
000210 61 6c 8b bd ac 94 f2 3c 98 43 13 bd 0d b9 c3 bd
       -0.06807781 0.029611908 -0.035953134 -0.0955678
000220 89 84 99 3d db 2b 96 bd 8a bc 64 3d d0 87 f4 bd
       0.07495982 -0.073325835 0.055843867 -0.11939967
000230 ff 8d dd bd e6 71 85 3c 66 38 ec 3d 1b 55 8f 3c
       -0.10818099 0.016289663 0.11534195 0.017496636
000240 0b 3c 5d 3b 37 af df bd 1b f6 c0 bd f3 ab eb bc
       0.0033757712 -0.109220915 -0.09421941 -0.028768515
000250 72 20 80 3d a4 cf 76 3d 6d 64 24 3d 80 2f 99 bd
       0.062561885 0.060256615 0.040134836 -0.07479763
000260 ff 29 bd 3c cc 1c 09 be 4b 6a 14 be 37 49 1d bd
       0.023091314 -0.13389891 -0.14493673 -0.0383999
000270 bc 7d b9 3d ee 4f a4 3d 43 93 bd 3d c2 d7 84 3d
       0.09057185 0.08023058 0.092566036 0.06486465
000280 51 86 87 bd 50 4a 53 3d 67 19 0a be 86 54 8f 3d
       -0.06617416 0.05158454 -0.13486253 0.069985434
000290 08 53 a7 bd 86 c3 75 bc 76 6e 69 bd 63 45 c7 bd
       -0.08170134 -0.01500023 -0.05699011 -0.09730031
0002a0 c9 99 ab 3d a0 d7 a8 bd c3 83 8a 3d 3f b1 ac bd
       0.083789416 -0.08244252 0.06763413 -0.084322445
0002b0 8c 20 ef bd 2b 38 c8 bc ea 46 c3 3d a1 36 de 3c
       -0.1167613 -0.024440845 0.0953501 0.027125658
0002c0 a5 87 6a bc 82 a2 ad bd 8e 78 1b be 3d 91 32 bb
       -0.014314567 -0.084782615 -0.15182707 -0.0027247213
0002d0 9e f7 71 3d b3 c3 4a 3c da 93 f3 3c a6 8a b0 bd
       0.059074037 0.01237576 0.029733587 -0.08620195
0002e0 7e b5 a1 3d 0d c5 e7 bd de e7 1b be f6 c7 66 bd
       0.07895945 -0.11316881 -0.15225169 -0.05634304
0002f0 ea c2 28 3d 04 d5 95 3d 8a 3e e6 3d 08 85 f0 3d
       0.04120151 0.0731602 0.11242397 0.11744124
000300 c6 8d 1d 3d 78 07 a5 bd 34 f3 14 3e a1 79 9c bd
       0.038465284 -0.08058065 0.145459 -0.076403864
000310 d0 e8 4f 3d 2a 0e 57 bd d2 43 3f 3d f6 56 06 3e
       0.050759137 -0.052503742 0.046695538 0.1311911
000320 b2 b7 ec bd b0 c3 dc 3d 70 47 71 bd 79 57 0f 3e
       -0.115584746 0.10779512 -0.05890602 0.13998212
000330 cd 3e 10 3e 1c 1b 4d 3c 3f b0 cd bd 65 f6 4c 3c
       0.14086457 0.01251867 -0.10043382 0.012509917
000340 67 ad 49 38 b4 95 f8 3d 19 70 dd 3d 70 f5 8e 3d
       4.8083628e-05 0.121379286 0.108123966 0.06980407
000350 6a 31 16 be bd 09 a1 bd fc 14 65 bd c7 3b cf 3d
       -0.14667287 -0.078631856 -0.055928215 0.101188235
000360 fa 04 92 bd 0c f4 17 3e de bf 39 3e fc 48 bd 3d
       -0.071298555 0.1483919 0.18139598 0.09242436
000370 5e 69 4e bd 40 5b 84 bd 72 70 e5 bd f1 f9 c7 bd
       -0.050393455 -0.06462717 -0.11203088 -0.097644694
000380 9d b6 35 3d 95 0d f3 bc 13 e4 d3 3d 2e 43 a0 bc
       0.044363607 -0.029669562 0.10346236 -0.019563284
000390 7e 94 9d 3d 97 38 56 bc cb 71 14 3d fc 45 70 3d
       0.07694338 -0.0130750155 0.036241334 0.058660492
0003a0 d6 6d cf bd f8 0b 9b 3d 07 f2 aa bd 20 ff df 3d
       -0.101283714 0.07570642 -0.08346944 0.10937333
0003b0 96 e2 02 3e d8 b1 98 ba d5 52 f8 bd f0 2a 42 bd
       0.12781748 -0.0011649681 -0.12125174 -0.04740423
0003c0 72 2b e9 bb 3a 67 17 3d 64 b6 a5 3d cf 33 43 3d
       -0.007115775 0.03696368 0.08091429 0.04765683
0003d0 c8 25 b9 bd 1d 9f af bc 40 2e 1c bd cc 84 82 3d
       -0.09040409 -0.021438176 -0.038130045 0.06372985
0003e0 52 7c 83 bd b5 54 99 3d 6b db 1a 3e c2 f5 5c 3d
       -0.064201966 0.0748686 0.15122764 0.05394531
0003f0 19 80 c4 bd 48 df a5 bd 48 67 b7 bd 9e 58 4b bd
       -0.09594745 -0.08099228 -0.08955246 -0.04964506

encoder.0.attention.queries.bias f4 [32]
000000 7c 79 55 bd 21 5e 7e 3d a4 9b 78 bd 15 bf 7f 3d
       -0.05211781 0.062101487 -0.060695305 0.06243809
000010 e5 71 5c 3d 54 23 6f 3d ba 1f 89 bd ca e2 64 bd
       0.053819556 0.0583833 -0.066955045 -0.055880345
000020 31 3a bc bd 5d 34 a4 3d 6d c2 b8 bd 40 a8 b4 3d
       -0.09190787 0.080178 -0.09021459 0.08821154
000030 13 1c b8 bd 54 4b c4 bd 01 e6 bf 3d 84 c6 bf bd
       -0.0898973 -0.0958468 0.09370042 -0.09364036
000040 a9 39 ca bd 9e 58 f0 3d 0c ab eb bd 06 d2 e5 bd
       -0.09874279 0.117356524 -0.11507234 -0.112216994
000050 03 e3 ef 3d 32 26 ec bd 78 ba de 3d 79 ff f0 bd
       0.11713221 -0.11530723 0.1087541 -0.117674775
000060 75 ae 51 be 69 0f 44 be 79 4c 45 be 21 8a 41 3e
       -0.20476706 -0.19146504 -0.19267453 0.18900348
000070 85 6f 4a 3e 94 7e 41 be 0d 11 53 3e fe 16 4a be
       0.19769104 -0.18895942 0.20611973 -0.19735333

encoder.0.attention.keys.weight f4 [32, 32]
000000 87 9a 87 3d 7d 68 f4 bd 18 cd 8a 3d d2 b4 b5 bd
       0.066212706 -0.11933992 0.067774 -0.08872379
000010 6c 59 05 3e ce 37 0b be 09 da 9e 3c b5 f9 ca 3d
       0.13022393 -0.13595507 0.019391077 0.09910909
000020 a5 8d 9b bc 30 43 e0 3c 49 5b 8d bd dd 60 8e 3d
       -0.01898844 0.027375787 -0.06902177 0.06952069
000030 10 ca 26 3d 74 59 1f 3e 1a 6b 3b be 01 a5 61 3d
       0.040720046 0.15561467 -0.18302575 0.055089
000040 99 51 33 3c 4d 41 08 3e 73 df 69 3d 4c e8 e0 3d
       0.010944747 0.1330616 0.057097863 0.10981807
000050 48 7f db bd 9e 08 4a bc d8 2c b8 bd 2d a0 8a 3d
       -0.10717636 -0.012331156 -0.08992928 0.06768832
000060 b2 51 b3 bd d4 44 6b 3d 68 ab 18 3d 77 65 f4 3d
       -0.087558165 0.057438686 0.03727284 0.119334154
000070 4d 2b 1e bd 19 0a c2 bd 53 7e 90 bd c4 df 96 bd
       -0.038615514 -0.09474582 -0.070553444 -0.07366899
000080 6c 4d 8f bd c1 87 bb 3d 8f a7 f8 bd 8b 57 b2 3d
       -0.06997189 0.091567524 -0.12141334 0.08708104
000090 69 8c ca bd 27 92 0e 3e 4d 94 f7 bc 37 bf e1 bd
       -0.09890062 0.1392294 -0.030222083 -0.110227995
0000a0 08 fb 38 3d 52 56 0e bd b1 1a 82 3d 5f 94 bd bd
       0.045161277 -0.03475029 0.06352747 -0.09256815
0000b0 2d 6b 84 bd 88 73 09 be 18 86 4c 3e e0 3b 17 bd
       -0.06465755 -0.13422978 0.19973028 -0.036922336
0000c0 0b 5a 58 3a bc ec 09 be 71 23 76 bc 28 b0 08 be
       0.00082531635 -0.13469213 -0.015023098 -0.13348448
0000d0 71 59 df 3d 2c 72 1a 3d e8 f5 12 3e 9f e4 54 bd
       0.109057315 0.03770654 0.14351618 -0.051975843
0000e0 56 7e c3 3d f2 61 d5 bd f3 62 95 bd ac 12 f6 bd
       0.09545581 -0.10419072 -0.07294264 -0.1201528
0000f0 92 27 d2 3c 6f 3e 10 3d 4b 1f f2 3d b9 c7 a2 3d
       0.025653634 0.03521579 0.11822375 0.0794825
000100 a3 25 ed 3d 93 84 ba bd 28 9e f0 3d a7 03 de bd
       0.11579444 -0.09107318 0.11748916 -0.108405404
000110 ee 24 30 3e 6e 02 1b be 10 ea bc bc 6f fa f2 3d
       0.17201588 -0.15137646 -0.023060828 0.11864173
000120 79 0d 2e bd 28 f3 a8 3d b7 1d 94 bd ff 94 ba 3d
       -0.042493317 0.082495034 -0.0723223 0.0911045
000130 75 3e 9e 3d a7 78 df 3d 41 0f 2e be 17 8d 9d 3c
       0.077267565 0.109116845 -0.16998006 0.019232316
000140 ba d3 1c bd 2a 5a eb 3d 70 48 82 3d 23 8d bd 3d
       -0.038287856 0.11491807 0.063614726 0.09255435
000150 16 34 04 be 82 f2 d1 bb 0e 96 0e be f5 19 d4 3d
       -0.12910494 -0.006407083 -0.13924429 0.103565134
000160 e8 32 e7 bd 6d b0 ae 3d 63 4c e2 3d 5c f6 ea 3d
       -0.112890065 0.08529744 0.11049726 0.114727706
000170 f9 52 b6 bd 04 07 e9 bd c2 c7 b9 bd 7c 58 01 be
       -0.089025445 -0.11378291 -0.09071304 -0.1263141
000180 cf af f8 bd 1a ff 03 3e 19 52 e2 bd 4c dc c1 3d
       -0.12142908 0.12890282 -0.11050815 0.094658464
000190 e2 5a 19 be 80 8f 36 3e e3 bd a0 3c ea 3e c6 bd
       -0.14976075 0.17828178 0.019621795 -0.09679969
0001a0 27 c4 ae 3d 66 cc 9d bd f3 2b bd 3d 4a 13 e5 bd
       0.08533507 -0.077050015 0.09236898 -0.1118532
0001b0 b4 d8 b9 bd d2 9d f4 bd 4f d7 21 3e e3 8f 5d bb
       -0.09074536 -0.11944164 0.1580479 -0.0033807687
0001c0 30 f9 94 3b 21 1f 0d be 1e 14 be bd f5 f4 1b be
       0.004546307 -0.13781406 -0.09281181 -0.15230162
0001d0 bd 6b 11 3e e1 e6 22 3c 96 93 0b 3e 20 5e 01 be
       0.14201255 0.009942741 0.13630518 -0.12633562
0001e0 a6 24 b3 3d d1 63 f6 bd 97 cd d9 bd aa 7b 0a be
       0.087472245 -0.12030757 -0.10634916 -0.13523737
0001f0 36 e6 c0 3d 64 48 ba 3d fa 94 98 3d b8 07 d6 3d
       0.09418909 0.09095839 0.0745029 0.10450691
000200 e9 ff b1 bd a3 6d e1 3d 7a b0 bb bd e7 12 8e 3d
       -0.08691389 0.1100724 -0.091645196 0.06937199
000210 c7 af f6 bd 30 9f b6 3d 59 be be bb dd 91 af bd
       -0.120452456 0.08917081 -0.005821031 -0.08572743
000220 34 91 aa 3d 62 03 0b bd c5 57 af 3d b4 4a a4 bd
       0.083284765 -0.033938773 0.085616626 -0.08022061
000230 17 27 69 bd 63 b0 f8 bd 7a 80 3b 3e 0f bf 56 bd
       -0.056922045 -0.12143018 0.18310729 -0.0524283
000240 f9 33 c1 bc 3e 9f 1c be 8e 40 f1 bc 91 08 05 be
       -0.023584353 -0.15295121 -0.029449727 -0.12991549
000250 ad d0 c4 3d 6f f2 da 3b 2c cd c1 3d 26 9a c3 bd
       0.09610114 0.0066817324 0.094629616 -0.09550886
000260 ea c2 bf 3d a3 bb 58 bd 91 fd bc bd 3e a1 00 be
       0.09363349 -0.05291332 -0.092280515 -0.12561509
000270 e9 96 ce 3c 06 a3 bf 3d b3 a3 b7 3d dc a1 9f 3d
       0.025218444 0.09357266 0.0896677 0.07794544
000280 b9 34 09 be 86 f7 02 3e 65 dd 0d be f3 4f d9 3d
       -0.13399018 0.12789735 -0.13853987 0.10610952
000290 c5 d2 18 be cc b7 00 3e 4c da 32 bc b8 57 ab bd
       -0.14924152 0.12570113 -0.010916304 -0.083663404
0002a0 10 b6 88 3d ed f0 de bd 0a 68 e9 3d d3 ce fb bd
       0.06675351 -0.10885797 0.11396797 -0.12295308
0002b0 83 5e 63 bd 11 10 f6 bd 32 db 2d 3e 66 0d 0b bd
       -0.055510055 -0.12014783 0.16978148 -0.033948325
0002c0 13 e8 1a 3d a1 de cf bd 9a b7 97 bd cd 91 06 be
       0.03781898 -0.10149885 -0.07408066 -0.13141556
0002d0 ce c4 e3 3d af 0b 06 3b be 60 af 3d 6f 9d d8 bd
       0.11121522 0.0020453741 0.08563374 -0.10576903
0002e0 f3 69 cc 3d 76 88 de bd 7e 98 a8 bd 5c 99 e2 bd
       0.09981146 -0.108658716 -0.082322106 -0.11064407
0002f0 a1 dc 9f 3d 4a ab d9 3d cf f6 e0 3d e5 c3 87 3d
       0.078057535 0.10628374 0.10984575 0.06629161
000300 b8 28 0b 3e 01 d4 1c be d4 ce 03 3e dc 9c 12 be
       0.13589752 -0.15315248 0.12871867 -0.1431765
000310 c9 e1 46 3e 9b c2 38 be 16 90 2e bd 98 f1 ff 3d
       0.19422068 -0.18042986 -0.04261788 0.12497252
000320 d3 f8 d1 bd 51 a3 de 3d 94 a2 f4 bd 1c 65 e9 3d
       -0.102525376 0.10870994 -0.11945072 0.11396238
000330 6d 71 86 3d 7b 75 17 3e c7 5f 38 be a5 0a 86 bb
       0.06564603 0.14790909 -0.18005286 -0.0040906244
000340 a2 88 34 bd 99 e5 17 3e db 5c 90 3d 67 c8 fd 3d
       -0.044075616 0.14833678 0.07048961 0.12391739
000350 d4 1c 01 be dc 76 a1 3c 66 d9 fd bd b7 3e f8 3d
       -0.12608653 0.019709997 -0.12394981 0.12121337
000360 49 1b e4 bd 1c fb 01 3e dc c0 fc 3d be c8 06 3e
       -0.11138017 0.12693447 0.123414725 0.13162515
000370 06 e8 d0 bd 2d d9 26 be fa ae e9 bd a3 bd ee bd
       -0.10200505 -0.16293783 -0.11410327 -0.11657264
000380 ed c0 c5 3d 20 1b b6 bd 51 f2 cb 3d 14 fc cd bd
       0.09655938 -0.088918924 0.099583276 -0.10057846
000390 7c f5 03 3e 01 55 1a be ab 65 a0 3c 40 dc 9e 3d
       0.12886614 -0.15071489 0.019579729 0.07756853
0003a0 52 71 95 bc 18 3b 22 3d 4e 12 85 bd e9 85 c0 3d
       -0.018242512 0.039607137 -0.06497632 0.09400541
0003b0 9b 97 6e 3d e0 af f8 3d 7d 49 0e be 24 8f 96 3d
       0.05825005 0.121429205 -0.13895221 0.07351521
0003c0 dc 4b ee bc 75 dd e0 3d e8 c1 4b 3d 35 ee 0d 3e
       -0.029088907 0.109797396 0.04974547 0.138604
0003d0 74 02 a7 bd b7 92 cb 3c fe cb 0a be 85 fe 9c 3d
       -0.08154765 0.024850233 -0.1355438 0.07665733
0003e0 21 9c b6 bd d3 36 5a 3d 8d af f9 3d 2a 21 d5 3d
       -0.08916498 0.05327494 0.12191687 0.10406716
0003f0 27 2c 4c bd c6 0c b1 bd fd f5 7e bd 17 4a 78 bd
       -0.049846794 -0.086450145 -0.06224631 -0.060617533

encoder.0.attention.keys.bias f4 [32]
000000 fb e4 b2 3a 28 13 72 b8 06 a3 0c 3a e5 b5 4f ba
       0.0013648564 -5.7715137e-05 0.00053648686 -0.0007923528
000010 63 50 8e ba 27 2b 98 ba f9 17 3f 39 36 f9 d1 b8
       -0.0010857697 -0.001160954 0.0001822411 -0.00010012316
000020 e7 b3 4b 39 f4 9a 00 b8 0c cc 06 3a be be 68 ba
       0.00019426607 -3.066189e-05 0.00051420997 -0.00088785205
000030 3c ad b1 37 cb 97 3c 39 6a 16 6a b9 2e b3 34 38
       2.1180713e-05 0.00017985624 -0.00022324329 4.308222e-05
000040 a4 8e 7a ba 41 de 94 3a cd ec 01 ba a5 cb 9b b7
       -0.0009557998 0.0011357741 -0.00049562455 -1.857227e-05
000050 13 14 d2 3a a5 9b be ba 72 39 72 3a a5 b3 02 ba
       0.0016027711 -0.0014542235 0.00092401274 -0.00049858756
000060 90 76 94 3a 66 d6 86 3a 5e 09 ad b7 4a ee 19 ba
       0.0011326838 0.0010287284 -2.0627569e-05 -0.00058719947
000070 46 55 9c 3a 7c ca 41 3a 50 6c 01 bb e5 ef 9b b8
       0.0011927269 0.0007392538 -0.0019748397 -7.43566e-05

encoder.0.attention.values.weight f4 [32, 32]
000000 7a 0d 7e bc f0 d8 14 bb f6 73 04 3d 42 8d ca 3b
       -0.015506143 -0.0022712313 0.03233715 0.00618139
000010 4a e9 c2 3b af 8a ce bb aa 72 1c bd 0f f8 8b 3b
       0.0059482204 -0.0063031535 -0.03819529 0.0042715142
000020 44 70 04 bd 8d bb 4d 3d b9 f6 c9 bc d3 be e5 3b
       -0.032333627 0.05022769 -0.02465378 0.0070112734
000030 ab db 66 bc 1a 9b 8f 3b d0 2d 2d bb 62 29 3e bd
       -0.014090459 0.004382503 -0.0026425011 -0.046426184
000040 90 2b 09 3c e2 67 11 3c d1 c5 c7 3c 2e 50 82 3c
       0.0083722025 0.008874865 0.024386318 0.015907373
000050 d7 41 8d bc 07 98 34 3d ee b0 39 bc c8 ec ff 3c
       -0.017243309 0.044090297 -0.011333687 0.031240836
000060 d2 b4 03 3d c3 7d ca 3c e6 11 21 3d 96 15 37 bd
       0.032154866 0.024718171 0.03932371 -0.04469832
000070 7f 88 8c 3b c9 ec e8 3b 08 28 d5 ba 68 b9 52 bc
       0.0042887325 0.007108305 -0.0016262541 -0.012861587
000080 6d bb 74 3c 7e 5c c0 bc 95 c1 1a 3b bc a6 fe bc
       0.014937264 -0.023481604 0.002361392 -0.031085365
000090 fc 88 99 3d a6 e1 e7 bc 8f 3b fd 3c be 9b c7 bb
       0.07496831 -0.02830584 0.030912189 -0.006091564
0000a0 20 74 cd 3c 3b 77 08 3c ec ec 28 bd 40 f5 43 3d
       0.025079787 0.008329208 -0.04124157 0.04784131
0000b0 e3 ea 8a bb ed ce 8b bb b0 c9 a2 bc 5e 11 69 3c
       -0.0042394265 -0.004266611 -0.019871563 0.014225332
0000c0 98 55 fc bb 52 7e 1a 3d 4c 95 0d bd 40 57 0f 3d
       -0.0077006333 0.037718125 -0.03456621 0.034995317
0000d0 42 00 85 bb ae b2 b7 3b 4c fb b1 bc 8d 1c 49 bc
       -0.0040588686 0.005606017 -0.021726273 -0.012274873
0000e0 34 fc 82 bc 2a a4 7c 3c 8e 41 20 bd a3 ca e2 3b
       -0.0159894 0.015419999 -0.039125018 0.006921129
0000f0 b8 d1 b4 3c d5 35 1a bd 19 c8 47 3c 19 3d 54 3c
       0.022072658 -0.037648994 0.012193703 0.01295402
000100 5f 47 c2 bb 40 59 a3 bc 28 6e 09 bd 62 8d fd 3c
       -0.0059289183 -0.019940019 -0.03355232 0.030951206
000110 eb c8 75 3d 52 42 1c 3d e8 e6 68 3c 57 72 df bc
       0.060006063 0.038149185 0.014215209 -0.027276201
000120 a0 7c f6 3c bd 02 81 bb 7c 8a aa bc b2 9b e5 3c
       0.030088723 -0.003937094 -0.020817988 0.028028343
000130 b7 3a cf 3c a5 94 79 3a c4 9b 57 3c f6 af 66 3d
       0.025296552 0.0009520746 0.013159696 0.056320153
000140 79 fa 40 3b f7 80 23 3b 48 5a 0e bc b1 38 f1 bc
       0.0029446168 0.0024948695 -0.008688517 -0.029445978
000150 2d f9 2d 3d e4 d2 81 bc 08 99 34 bd 03 70 14 bd
       0.04247396 -0.01584763 -0.044091254 -0.036239635
000160 09 0a 24 3d 21 4d 63 bd b4 db 2a 3d 84 0e 89 bb
       0.040048633 -0.055493478 0.04171343 -0.0041826386
000170 ec a8 8f 3c 27 e1 9e bc 67 9e 31 bd 70 21 20 bc
       0.017536603 -0.01939447 -0.043363955 -0.009773597
000180 95 17 96 3d ce 6d 26 bd a8 89 92 3d a2 b9 47 bd
       0.07328717 -0.04063206 0.07155162 -0.048761018
000190 3e b0 54 bd 91 f1 c8 bb 13 1f c8 bc 7c 46 82 3d
       -0.05192589 -0.0061323126 -0.02442888 0.063611
0001a0 74 a4 95 bd 85 41 9f bc f3 32 cf bc 01 0c a9 bc
       -0.073067576 -0.019440422 -0.02529285 -0.020635607
0001b0 53 0a b2 3c f8 33 6c 3d a7 b4 11 3d 4b 46 4d bc
       0.021733439 0.05766675 0.035572674 -0.012528966
0001c0 71 5e 50 bd ca 16 eb bc 11 87 89 3d 78 20 c8 3c
       -0.050871316 -0.02869739 0.06715215 0.024429545
0001d0 97 e4 6c bd df 3b 19 3d 6c 4f da 3c 73 2a 72 3d
       -0.057835188 0.037410613 0.0266492 0.059122514
0001e0 8b 65 b2 bb 3e ce b0 3d 47 93 36 3d 5d b8 56 3d
       -0.005444234 0.086330876 0.04457405 0.052421916
0001f0 ba 7a ed bb 2f b2 76 bd 09 78 38 bd f6 f3 b1 bd
       -0.007247296 -0.060228523 -0.04503635 -0.0868911
000200 52 70 0b 3c 36 9f 21 3b 28 fc 00 bd 8c 8d 1f bd
       0.008510666 0.0024661548 -0.031490475 -0.03895335
000210 62 3b 82 bd 2f 46 63 3c 3f b9 1c bc c8 37 a8 ba
       -0.063589826 0.013871714 -0.0095656505 -0.0012834007
000220 35 fe d7 bc 54 e8 6c bc e8 4a e7 3a bb 23 9d bc
       -0.026366333 -0.014459688 0.0017646225 -0.019182077
000230 c1 b8 7f bb e9 fc 9d bc a2 95 a9 3d 4e bf 48 3c
       -0.0039020034 -0.019285636 0.08280493 0.012252642
000240 97 23 43 bd bf 00 a9 bc d0 16 52 3c 80 24 4b 3d
       -0.047641363 -0.020630239 0.012822822 0.049595356
000250 e7 bd d4 bc 57 2f 1c 3d 46 63 2f 3d bd 3b 65 3a
       -0.025969459 0.038131084 0.042819284 0.00087445584
000260 40 f6 99 bc 50 4d 9f 3c 3e b3 c0 bb 49 e7 dd 3c
       -0.018794179 0.019446045 -0.0058807423 0.027087824
000270 79 d5 76 bd d4 1a 83 bc 8f 7d 82 bc cc b3 38 bc
       -0.060262177 -0.016004004 -0.015929012 -0.011273336
000280 f9 32 d8 3c 83 e2 ae bb c1 df 4e 3d 78 61 6e 3c
       0.026391493 -0.005337061 0.050506357 0.014549606
000290 60 e0 d4 bc 47 c3 7b bd 56 08 ea 3c 35 d2 f1 3c
       -0.025985897 -0.061465528 0.028568428 0.02951918
0002a0 a5 02 31 3c 85 a3 4d bd 58 50 09 3d 4f 21 58 bd
       0.010803853 -0.050204773 0.033523887 -0.05276614
0002b0 fc 44 50 3d 21 b3 38 3a cb d0 8c bd 1c d7 98 3c
       0.05084704 0.0007045735 -0.068757616 0.01865726
0002c0 02 db 84 3c d5 b0 14 3d b9 fb 23 bc fa 5e 1c 3d
       0.016217712 0.036301453 -0.010008746 0.038176514
0002d0 7e ce 80 bc b3 d6 06 bc 15 8d ec 3b 75 45 1f 3c
       -0.015723463 -0.008229899 0.0072189667 0.00972115
0002e0 22 48 23 bd 9b 26 18 3d ae 3d 1b 3d 46 7e 24 bc
       -0.039863713 0.037146192 0.03790062 -0.010039872
0002f0 8f cc 0a 3c a9 1d 99 bc 2b 27 65 3c 61 8d 5d 3c
       0.008471622 -0.0186909 0.013986389 0.013522477
000300 a9 f0 52 bd 06 1d ab bb a9 ba cf bd ff be b2 3d
       -0.051499043 -0.0052219657 -0.101430245 0.08727836
000310 12 53 6e bd ce 42 a4 3d b0 45 01 3d 2f 6b 88 bd
       -0.05818469 0.080205545 0.0315606 -0.06661069
000320 43 90 2d 3d b5 90 3b bd e3 f0 42 3d 90 8a 03 3d
       0.042373907 -0.0457923 0.04759301 0.032114565
000330 c7 12 30 bd a3 46 9d bd 57 e2 72 bc 5c 03 09 3d
       -0.042986657 -0.076794885 -0.014824471 0.03345047
000340 12 cf 3e 3d e7 18 86 bc e9 cb 4a bd 08 f3 7a bd
       0.046584196 -0.016369296 -0.04951087 -0.06126693
000350 2c 53 4e 3d b5 f1 42 bd 49 f4 35 3d c2 43 b4 bc
       0.050372288 -0.04759379 0.04442242 -0.022004966
000360 d3 cf b2 3d 81 e1 e4 bc 4d b1 57 bd d6 72 d2 bd
       0.087310456 -0.02793956 -0.05265932 -0.102758095
000370 27 66 3c 3d 88 0a c3 3d a5 3b 5b 3d ce 6e c7 3d
       0.045995858 0.09523493 0.05352368 0.09737931
000380 07 69 28 bc 47 12 3d 3d 17 fa ec bd 9c f3 1f 3d
       -0.010278947 0.04616001 -0.11571138 0.039050683
000390 f7 7d c1 3d 26 de 3f 3d e0 9f b3 3c ea 2b 5c bd
       0.09447854 0.046842717 0.02192682 -0.053752817
0003a0 49 20 a3 3c 7d 9c 01 3d b0 c2 a0 3b de 7c 2e 3d
       0.019912856 0.03164338 0.004906021 0.04259955
0003b0 41 9e 6d bc 51 11 d4 bb ee e1 c7 3c a8 13 8f 3c
       -0.014503063 -0.006471791 0.024399724 0.017465428
0003c0 d7 d6 64 3b 8a 74 85 bc 6d 6d be bd 86 b2 1b bd
       0.0034918094 -0.016290922 -0.09298215 -0.03801205
0003d0 89 56 de 3c 85 81 c1 3c de e0 0b bd 2d 47 08 bd
       0.027140873 0.02362133 -0.034149997 -0.033271004
0003e0 e9 a6 a7 3d 24 61 a2 bd ef 7e aa bd a0 89 5d bd
       0.081861325 -0.07928684 -0.08324992 -0.054086328
0003f0 a1 5f 5e bc 3c a0 43 3d 2c 18 41 3d b7 91 3d 3d
       -0.013572604 0.047760233 0.047142193 0.046281543

encoder.0.attention.values.bias f4 [32]
000000 64 9e 00 3c 52 32 f8 bb ea 53 fb bc 1f f2 70 3d
       0.007850263 -0.007574358 -0.030679662 0.058824655
000010 35 55 b9 3c 03 21 a4 3b b0 b4 51 bd af fa 0d bd
       0.022623638 0.005008818 -0.051197708 -0.0346629
000020 06 2c 57 3c 03 f0 4a bc 97 8b 0c 3c d0 d1 94 bc
       0.013133055 -0.012386325 0.008578203 -0.018166453
000030 66 87 93 bb ca e8 c0 bc f7 c8 a5 3c 17 dd 58 bc
       -0.0045022247 -0.023548502 0.020237429 -0.013236306
000040 49 56 95 bc fd 77 97 bc b2 d3 17 bd fe 61 c8 3c
       -0.01822962 -0.018489832 -0.037067123 0.024460789
000050 e9 55 06 3d a5 f5 76 3c 65 5c 3e 3c 06 39 ce bc
       0.032796774 0.015073215 0.011618708 -0.025173675
000060 a4 aa 8e 3c d0 b9 1b bd 61 48 8f bc 92 2e 85 bc
       0.017415352 -0.038019 -0.017490568 -0.016257558
000070 f7 9b 12 3c 1f 15 02 3d 6b a4 1e 3c ec e8 f2 3c
       0.008948318 0.031758424 0.009682755 0.029652081

encoder.0.attention.fc.weight f4 [32, 32]
000000 70 11 ea bb 83 72 81 bb cb 03 bb bc cb 4c 1a bb
       -0.007143192 -0.0039504184 -0.022828957 -0.0023544307
000010 24 9a 53 3b 84 52 cd 3c ae 9f 10 bd ea 54 f7 3c
       0.003228792 0.02506376 -0.035308532 0.030191857
000020 63 4e ef 3b 62 07 2d bc 2b 48 dc bc fb a2 bc 3a
       0.0073030456 -0.010560842 -0.026889881 0.0014391834
000030 fe a0 fb ba 44 52 bb bc 53 00 76 3b a6 6e 38 bc
       -0.001919776 -0.022866376 0.0037536814 -0.011256849
000040 02 5c ac bc 4b 16 07 3d b5 d5 9b bb 7d 12 0e bb
       -0.021039966 0.032980245 -0.0047557005 -0.00216785
000050 c0 3d 4f 3c fc 15 4e 3c ae 69 aa bc 80 53 87 3c
       0.012649 0.012578484 -0.020802345 0.016519308
000060 41 ff d5 bc d9 de 97 3c 72 f7 ad 3c 7b f1 be ba
       -0.026122691 0.01853888 0.021236155 -0.0014567816
000070 40 7f 88 ba 81 e4 29 bd 01 55 2f bd 4f 87 08 3c
       -0.00104139 -0.041477684 -0.042805675 0.008333041
000080 30 91 87 bc 8b 83 6e bc 52 49 07 bc 99 1b e8 3c
       -0.016548723 -0.0145577295 -0.008257227 0.028333472
000090 e4 69 21 bd e0 1d 64 bd 5b 0b 77 3a 50 c1 fe 3b
       -0.039407626 -0.055692554 0.00094239943 0.0077745095
0000a0 18 78 69 bd c4 f0 5e bc 2c 89 0b 3c e6 c2 c7 bb
       -0.056999296 -0.013607208 0.008516591 -0.0060962318
0000b0 95 c7 59 bc 93 f2 69 bb 5a 51 98 bc 17 5d d4 3c
       -0.013292213 -0.0035697564 -0.018593479 0.025923295
0000c0 f6 3e 9c bc f0 96 f9 ba c2 5a 3b bc 00 30 0d 3c
       -0.01907299 -0.0019042175 -0.011435213 0.008617401
0000d0 8a 45 b9 3c 1c a8 cf bc ea 33 e1 bc ee 07 08 3d
       0.022616167 -0.025348715 -0.027490575 0.033210687
0000e0 0e a1 1a bc 00 7d 6f bc b4 e3 76 3b ad 2f 02 bb
       -0.0094378125 -0.014617205 0.0037672343 -0.0019864843
0000f0 2e 2d fc bc 72 bc ba 39 d0 e0 3c bc d8 89 d9 bb
       -0.030783262 0.00035617087 -0.011528209 -0.0066387467
000100 34 be 29 bc cf 4d ff bb 57 e0 3e 3c 22 a7 9d bc
       -0.010360289 -0.007791258 0.0116501665 -0.019244734
000110 1d 88 4f bd 6b 18 11 bc 8e 43 52 3c 4f 73 f6 bc
       -0.050666917 -0.008855919 0.012833489 -0.03008428
000120 5d de da bb 72 da 8e 3c b9 35 21 bc 18 95 a2 bb
       -0.00667934 0.017438147 -0.009839469 -0.004961621
000130 d9 35 99 3c 4a c7 c1 bc 9d 25 45 3c 9b 2a 46 3c
       0.018702434 -0.023654599 0.0120328935 0.012095119
000140 c5 a3 dc 3c 9c 6e e1 bc 27 29 8c bc 6f 8b 85 3c
       0.02693356 -0.027518563 -0.017109467 0.016301839
000150 b4 d2 b6 bc 9c cd a8 3c 14 93 b0 3c b3 d4 a6 bb
       -0.022317268 0.020605855 0.021554507 -0.0050912737
000160 ca ad ac 3c f4 26 1a bd fe bc db 3c 94 2a 80 bc
       0.021078963 -0.037634805 0.026823517 -0.015645303
000170 53 0b f7 3b b8 1f 0a 3b c6 f1 de bc b0 be a5 3c
       0.0075391917 0.0021076035 -0.027214896 0.020232528
000180 b7 23 64 bc bb 35 97 bb fd 69 70 3d a6 72 c7 3b
       -0.013924531 -0.0046145595 0.05869483 0.006086665
000190 8d 95 ca bc ae ac b6 bb 60 9a 91 bc 87 52 53 bc
       -0.024729514 -0.0055747842 -0.017773807 -0.012898094
0001a0 46 f6 7e ba ca 9f c0 bc 54 5f 82 3c 9e f1 00 bd
       -0.00097260287 -0.023513693 0.015914597 -0.031480424
0001b0 3d d1 b9 3c 35 0e 8a ba e5 38 37 3b bc 95 bc bb
       0.02268278 -0.0010532798 0.0027957496 -0.0057551544
0001c0 0a b8 82 3b 6e f6 93 bc 89 58 05 bd 50 2a 40 bb
       0.0039892243 -0.018061843 -0.032555137 -0.0029322095
0001d0 04 a1 8f 3c 02 b2 fe bb 2b 7a 2a 3d 10 c8 da 3b
       0.017532833 -0.007772685 0.041620415 0.0066766813
0001e0 6a ee 31 3d d4 3c 2d b9 e4 a1 ad 3b d5 0d 4d 3c
       0.04344026 -0.00016521226 0.00529884 0.012515505
0001f0 27 7f 91 bc de 09 04 bc 02 19 4d 3d 54 b0 ca 3b
       -0.017760826 -0.008058993 0.050072677 0.0061855707
000200 0b 76 a5 bb 2b 9d 99 3b bd 16 b9 bb 16 00 81 bc
       -0.005049472 0.0046879253 -0.0056484626 -0.015747111
000210 21 0f 27 bc 77 e7 ff 3b dd 51 66 3a 25 b3 a5 3b
       -0.010196478 0.007809575 0.0008786002 0.005056756
000220 6b b3 cd 3b ce 6c dd bc 70 cb ee bc 42 8d 9e bc
       0.006277492 -0.027029421 -0.029149741 -0.019354466
000230 d9 2c ec bb d0 ff 94 3c 19 a4 64 bb f5 a0 4e bc
       -0.0072074947 0.018188387 -0.003488785 -0.012611617
000240 49 0c 29 ba 9e 01 c3 bc ca 3a 8a bb 05 e5 85 bc
       -0.0006448669 -0.023804482 -0.004218434 -0.016344557
000250 22 8d 96 3b a2 b4 b4 bb ec 55 e7 bc 79 52 75 3c
       0.004594461 -0.005514697 -0.028239213 0.014973276
000260 0c 3b cf 3b 3e 70 b8 3b d4 55 53 bd d9 4e 83 bb
       0.0063241776 0.0056286147 -0.051595524 -0.004007202
000270 72 8c e9 bb 43 98 f6 ba 6d be 96 3c 0b 10 94 bb
       -0.007127338 -0.0018813688 0.018401349 -0.004518514
000280 66 a9 ba ba e1 a1 e6 bb a2 4e 35 3c 2b 7a 19 bc
       -0.0014241158 -0.0070383404 0.011066111 -0.009367506
000290 c0 0c ea bb 77 ff a2 bc 40 d5 a9 bb 8a 32 d3 bc
       -0.007142633 -0.019897206 -0.005182892 -0.025780935
0002a0 54 92 2d bc 83 24 19 3d d4 f4 ac 3c 9e ae d1 bc
       -0.010593969 0.037388336 0.021112837 -0.02559596
0002b0 f3 dc d4 3b 5c 4e b5 3b 7d 60 ac bc e6 b6 fd bc
       0.0064960658 0.005533023 -0.021042103 -0.030971002
0002c0 26 09 aa bb ce 89 cd bc 85 63 bc 3c 7c 21 23 bd
       -0.005189079 -0.025090124 0.022996673 -0.039826855
0002d0 98 93 30 bc 98 cd 63 3c fd 45 0a bd d5 84 36 bc
       -0.010777377 0.013903998 -0.033758152 -0.011140068
0002e0 ee 2f bb ba 7c bf 6c bc 65 63 d0 bc b4 1e 13 bb
       -0.0014281252 -0.01444995 -0.02543802 -0.002244872
0002f0 f9 08 ae 3c b0 ed 5c 3a 8c 9a 7b bb 3b 3c 1a 3c
       0.021244513 0.0008427752 -0.0038391678 0.009413774
000300 59 de 16 3d fc a5 f7 bb 14 ec be bc c0 14 ff ba
       0.03683314 -0.0075576287 -0.02330593 -0.001946114
000310 cf 7d af ba 30 cd 41 bc 65 dc c8 bc 4d ec 18 3c
       -0.0013388934 -0.011828706 -0.024519155 0.009333682
000320 26 4b b8 bc 77 45 aa ba 38 38 e5 3b d0 14 2f bc
       -0.022496771 -0.0012990673 0.006995227 -0.010686114
000330 0f 3b f7 3b e9 b0 eb 3c 2a 1c 56 3c 0d 50 ca bc
       0.007544882 0.02877088 0.013068238 -0.024696374
000340 29 63 c4 3c fb 67 96 39 e6 f2 69 3c c4 63 67 3d
       0.023973064 0.000286877 0.014279103 0.05649163
000350 94 6d 59 3c 70 ff 18 3c 47 c5 0f ba 76 d3 14 bc
       0.013270754 0.009338245 -0.00054844137 -0.009083619
000360 03 66 98 3c db 6c b1 bb 1d 55 a1 bc a8 60 9b 3c
       0.01860333 -0.005414588 -0.019693905 0.018966988
000370 bb 3f 86 bc c2 56 ab bc 55 38 d8 bb dd ba ac 3b
       -0.01638781 -0.020915393 -0.006598512 0.0052712993
000380 9e 1e f3 bc f2 20 00 3c 3e 90 61 bb be 96 5a 3c
       -0.029677685 0.007820355 -0.003441825 0.013341604
000390 7d 4b 9d 3a 9e 7e 23 bb 8a 31 ee 3c bc 8c fd 3b
       0.0012000647 -0.0024947296 0.029076356 0.007737724
0003a0 21 cd b1 3c 37 7f 68 3d b0 e3 a3 3c d0 9c d8 3c
       0.021704258 0.056761947 0.02000603 0.026441962
0003b0 c7 c1 87 bc 4c 4c dc 3b 0c 8a 99 3c cb 51 dc bc
       -0.016571892 0.0067229625 0.018742584 -0.02689447
0003c0 be b8 99 bb 6b 59 83 bc 37 35 62 bc b8 ce 4b 3b
       -0.0046912124 -0.016033849 -0.013806633 0.0031098556
0003d0 e7 f5 0c 3d b5 c9 b9 bc b8 a9 87 bb b4 04 82 ba
       0.0344142 -0.02267919 -0.004140105 -0.0009919615
0003e0 ed 2f 01 bc 97 5b f8 3b 55 73 82 bb 95 66 44 bc
       -0.007884962 0.0075792777 -0.003981034 -0.011987348
0003f0 eb dd ef 3a 14 b6 ca bc 69 56 b4 ba 10 f1 34 bd
       0.001830039 -0.024745025 -0.0013758662 -0.044175208

encoder.0.attention.fc.bias f4 [32]
000000 00 00 00 00 00 00 00 00 00 00 00 00 00 00 00 00
       0.0 0.0 0.0 0.0
000010 00 00 00 00 00 00 00 00 00 00 00 00 00 00 00 00
       0.0 0.0 0.0 0.0
000020 00 00 00 00 00 00 00 00 00 00 00 00 00 00 00 00
       0.0 0.0 0.0 0.0
000030 00 00 00 00 00 00 00 00 00 00 00 00 00 00 00 00
       0.0 0.0 0.0 0.0
000040 00 00 00 00 00 00 00 00 00 00 00 00 00 00 00 00
       0.0 0.0 0.0 0.0
000050 00 00 00 00 00 00 00 00 00 00 00 00 00 00 00 00
       0.0 0.0 0.0 0.0
000060 00 00 00 00 00 00 00 00 00 00 00 00 00 00 00 00
       0.0 0.0 0.0 0.0
000070 00 00 00 00 00 00 00 00 00 00 00 00 00 00 00 00
       0.0 0.0 0.0 0.0
