model/mnist/tune_lr0.001_ed64_nl6_nh4_fm2_ps4/temp_model.pt (torch, 875757 bytes, 106 tensors)

embedding.cls_token f4 [1, 1, 64]
0	0x3cf78454	0.030214466
1	0xbbf754af	-0.007547937
2	0xbd2c1817	-0.04201516
3	0xbc4bb57f	-0.012433409
4	0xbd0b6313	-0.03403003
5	0x3ca15e53	0.019698298
6	0x3cacbb6b	0.021085462
7	0xbd3b7654	-0.045767143
8	0x3d021dbe	0.031766646
9	0x3bf733c1	0.0075440113
10	0x3ccc5e38	0.02494727
11	0x3ca84dc4	0.020544894
12	0xbd9873f8	-0.07443994
13	0x3b4b8560	0.003105484
14	0x3ce21ab1	0.027600618
15	0x3a857ed9	0.0010184898
16	0xbc3d0b86	-0.011538392
17	0x3d44f413	0.04808433
18	0x3db99c76	0.09063046
19	0x3bdf3f3a	0.006812957
20	0x3db39c46	0.08770041
21	0x3d5ad683	0.05342723
22	0x3c7c4f84	0.015399817
23	0xbd43b72d	-0.047782112
24	0xbd87af93	-0.06625285
25	0x3d6ac928	0.057320744
26	0xbbd47884	-0.006484093
27	0xbb71759d	-0.0036843785
28	0x3d0a97d7	0.033836212
29	0xbd87263d	-0.0659909
30	0x3c726075	0.014793505
31	0xbd82cb89	-0.063864775
32	0x3bddb27c	0.0067656618
33	0x3cd57480	0.026056528
34	0x3bc4002f	0.005981467
35	0x3c8dbc7a	0.017301787
36	0x3c8abc85	0.016935596
37	0xbcbe0d4a	-0.023199696
38	0xbd8a10f4	-0.06741515
39	0x3c952597	0.0182064
40	0xbc90da66	-0.017682265
41	0x3c519579	0.012791985
42	0xbd5f136a	-0.054461874
43	0xbc961615	-0.018321076
44	0xbca54880	-0.020176172
45	0xbcb51944	-0.022106774
46	0x3be81abb	0.0070832646
47	0x3cbffc6b	0.023435792
48	0xbd1f07be	-0.038825743
49	0x3cd2d6f9	0.025737273
50	0xbda69515	-0.08133904
51	0x3d84e521	0.06489015
52	0x3d837431	0.06418646
53	0xbac60d8c	-0.0015110238
54	0x3da79782	0.08183195
55	0xbd6171bc	-0.055040106
56	0x39c9dad5	0.0003850075
57	0x3b6f0a15	0.0036474515
58	0xbc58c25a	-0.013229931
59	0x3be08a26	0.006852406
60	0xbc4b5643	-0.012410703
61	0xbd27efc2	-0.041000135
62	0xbd06f86c	-0.032951757
63	0x3d1141f9	0.035463307

embedding.pos_embedding f4 [1, 50, 64]
0	0x3cf78446	0.03021444
1	0xbbf754c9	-0.007547949
2	0xbd2c1819	-0.04201517
3	0xbc4bb577	-0.012433401
4	0xbd0b6310	-0.03403002
5	0x3ca15e4f	0.01969829
6	0x3cacbb6b	0.021085462
7	0xbd3b7656	-0.04576715
8	0x3d021dc0	0.031766653
9	0x3bf733b0	0.0075440034
10	0x3ccc5e3f	0.024947284
11	0x3ca84dc1	0.020544888
12	0xbd9873f6	-0.07443993
13	0x3b4b8540	0.0031054765
14	0x3ce21aab	0.027600607
15	0x3a857ef3	0.0010184929
16	0xbc3d0b7c	-0.011538383
17	0x3d44f40f	0.048084315
18	0x3db99c77	0.090630464
19	0x3bdf3f1e	0.006812944
20	0x3db39c47	0.08770042
21	0x3d5ad67e	0.053427212
22	0x3c7c4f8d	0.015399826
23	0xbd43b731	-0.047782127
24	0xbd87af8f	-0.06625282
25	0x3d6ac927	0.05732074
26	0xbbd47872	-0.0064840848
27	0xbb717573	-0.0036843687
28	0x3d0a97d0	0.033836186
29	0xbd87263a	-0.06599088
30	0x3c726092	0.014793532
31	0xbd82cb8a	-0.06386478
32	0x3bddb27f	0.006765663
33	0x3cd5747a	0.026056517
34	0x3bc40047	0.0059814784
35	0x3c8dbc76	0.01730178
36	0x3c8abc87	0.0169356
37	0xbcbe0d3c	-0.02319967
38	0xbd8a10f4	-0.06741515
39	0x3c952592	0.018206391
40	0xbc90da68	-0.01768227
41	0x3c519575	0.012791981
42	0xbd5f136d	-0.054461885
43	0xbc961618	-0.018321082
44	0xbca5487d	-0.020176167
45	0xbcb5193a	-0.022106756
46	0x3be81ac0	0.007083267
47	0x3cbffc69	0.023435788
48	0xbd1f07c2	-0.038825758
49	0x3cd2d700	0.025737286
50	0xbda69517	-0.081339054
51	0x3d84e520	0.064890146
52	0x3d83742f	0.06418645
53	0xbac60d58	-0.0015110178
54	0x3da79783	0.081831954
55	0xbd6171b9	-0.055040095
56	0x39c9d97d	0.0003849975
57	0x3b6f09ee	0.0036474424
58	0xbc58c261	-0.013229937
59	0x3be08a05	0.0068523907
60	0xbc4b5640	-0.0124107
61	0xbd27efba	-0.041000105
62	0xbd06f86e	-0.032951765
63	0x3d1141f9	0.035463307
64	0xbcd8bd01	-0.026457312
65	0x3c271b22	0.01019934
66	0x3bb926da	0.0056503834
67	0xbc9b2d8f	-0.018942622
68	0xbccd4dc1	-0.02506149
69	0xbd0a38fe	-0.03374576
70	0xbc082ba8	-0.00831119
71	0x3c07311e	0.008251457
72	0xbbc5d99a	-0.006037903
73	0xbcf00548	-0.029299393
74	0x3cec79c0	0.028866649
75	0xbca084bb	-0.01959454
76	0x3aa8854f	0.0012857112
77	0x3be5cfdc	0.007013304
78	0xbcef2f8a	-0.029197473
79	0xbc8a710f	-0.016899614
80	0x3c08a058	0.00833901
81	0xbb97da5c	-0.0046341848
82	0x394435f1	0.00018712111
83	0x3d1a640c	0.03769307
84	0x3abf7f0b	0.0014610005
85	0x3cb3b613	0.021937406
86	0xbb30e84c	-0.0026993928
87	0x3d308460	0.043094993
88	0x3bd9e2fb	0.0066493726
89	0x3c92c944	0.017918237
90	0xbb88b2cc	-0.004171705
91	0xbbe0552b	-0.0068460903
92	0xbb89dbe3	-0.0042071207
93	0x3cdf32ef	0.027245967
94	0x3c1dcf9d	0.009632018
95	0xbd651d1d	-0.055935968
96	0xbbad113d	-0.005281596
97	0xbc1d11a9	-0.00958673
98	0xbcc23c43	-0.023710376
99	0x3ace47c5	0.0015737942
100	0x3bddae71	0.00676518
101	0x3c39fefc	0.011352297
102	0xbd04efcb	-0.032455247
103	0x3c1f871e	0.009736804
104	0x3cd782d5	0.026307503
105	0x3bbd7978	0.0057823025
106	0x3b3e46ff	0.0029034016
107	0x3ca74f5c	0.020423584
108	0x39f965c8	0.00047568814
109	0xb9d41a4d	-0.00040455387
110	0xbb403169	-0.0029326326
111	0xbc1cf4c9	-0.009579846
112	0x3adf11bb	0.0017018834
113	0xbbc1b179	-0.005911049
114	0x3c9328bf	0.017963765
115	0xbc5cb3ff	-0.013470649
116	0xba1e520e	-0.0006039449
117	0xbb47892a	-0.0030446746
118	0x3c920bed	0.017827952
119	0xbb746adf	-0.0037295145
120	0x3c7a9de6	0.015296435
121	0x3be5caf4	0.0070127193
122	0xbb4289d0	-0.0029684193
123	0xbda1d3ec	-0.07901749
124	0x3cd0ffdb	0.025512626
125	0xbb58e5f3	-0.0033096045
126	0x3d2b0a38	0.041757792
127	0xbd075955	-0.033044178
128	0xbd00b304	-0.031420723
129	0xbce3a931	-0.027790638
130	0x3c497329	0.012295523
131	0xbd612020	-0.054962277
132	0xbd5f83ed	-0.054569174
133	0x3ccef875	0.025264958
134	0xbbeff256	-0.00732259
135	0xbd6a25d2	-0.057164975
136	0x3d07ead2	0.033182926
137	0xbac216ab	-0.0014807781
138	0x3bb61993	0.005557248
139	0xba586830	-0.0008255271
140	0xbca6ce7b	-0.02036213
141	0xbab85441	-0.0014063196
142	0xbbc0bf3c	-0.005882172
143	0x3bcfcc53	0.006341496
144	0xbb5939f5	-0.0033146117
145	0x3cc1f43d	0.023676032
146	0x3c2f509b	0.01070037
147	0xbac7a3ff	-0.001523137
148	0x3dec95ef	0.11552035
149	0x3d223052	0.039596863
150	0x3c95f885	0.01830698
151	0x3abbd112	0.0014329276
152	0xbc81287d	-0.015766377
153	0x3d31ffc6	0.043456815
154	0xbd3279d3	-0.043573212
155	0xbc33423d	-0.010941085
156	0x3d1af014	0.037826613
157	0xbd967383	-0.07346251
158	0xbd2df688	-0.04247144
159	0xbd67f0fe	-0.056626312
160	0x3dba1279	0.09085555
161	0x3c409830	0.011755034
162	0x3bfcc393	0.007713744
163	0xbcd023fb	-0.025407782
164	0x3d92eb0f	0.0717374
165	0x3c8a009a	0.01684599
166	0xbd0ff62b	-0.035146873
167	0x394bd1ca	0.00019437741
168	0xbd33c4fd	-0.043889035
169	0xbcdc7f03	-0.026916033
170	0xbd15a6fb	-0.036536198
171	0x3b333270	0.0027343296
172	0xbd2f7ce4	-0.042843714
173	0x3d67d192	0.056596346
174	0x3d6e3383	0.058154594
175	0x3c34ba43	0.011030736
176	0x3ccfa581	0.025347473
177	0xbc08baf3	-0.008345353
178	0x3d857b4c	0.06517658
179	0x3ce9859c	0.028506093
180	0xbbf694c7	-0.00752506
181	0xbb82a7ef	-0.0039873044
182	0x3c6e6ff0	0.014553055
183	0xbc515b58	-0.012778126
184	0x3d025096	0.031815134
185	0x3d448208	0.04797557
186	0xbd4d07d9	-0.050056312
187	0xbce3a532	-0.027788732
188	0xbc596ceb	-0.013270597
189	0xbcdc2ed7	-0.026877804
190	0x3b7988ba	0.003807588
191	0xbaeafd60	-0.0017928295
192	0xbd2f39d7	-0.04277977
193	0xbe0f7b3e	-0.14011857
194	0x3da3ab42	0.07991649
195	0xbda0ced2	-0.07851948
196	0x3b3e1625	0.0029004898
197	0x3db49119	0.08816738
198	0x3d6a3e90	0.05718857
199	0xbd790053	-0.060791325
200	0x3dc8c5e0	0.09803367
201	0x3d2ccb01	0.042185787
202	0x3d632ac0	0.05546069
203	0xbb20806a	-0.0024490603
204	0xbd45ac00	-0.048259735
205	0xbd83e8fb	-0.06440922
206	0x3ce4a5fc	0.027911179
207	0x3dd73b85	0.10509399
208	0xbc78af0b	-0.015178452
209	0x3da8e779	0.08247275
210	0x3c543c8a	0.012953887
211	0xbbe2eb72	-0.00692504
212	0x3dc02b91	0.0938331
213	0xba72ed50	-0.00092669297
214	0x3d8fcefa	0.070218995
215	0xbdad4d19	-0.08461971
216	0xbd05300f	-0.032516535
217	0x3cb2250d	0.021746183
218	0x3cb2e966	0.021839809
219	0xbcac2b20	-0.021016657
220	0x3d9b5c32	0.07585944
221	0xbcfcd27c	-0.030862086
222	0xbe6b7353	-0.22993211
223	0xbcb1ce4c	-0.021704815
224	0x3dddc6bb	0.108289205
225	0xbc813971	-0.01577446
226	0x3d38a5a5	0.045079846
227	0xbdb18e8a	-0.08669765
228	0x3e11d85d	0.14242692
229	0x3c3755fb	0.011189933
230	0x3cce37f9	0.025173174
231	0xbd96cede	-0.073636755
232	0xbda39e54	-0.07989183
233	0xbe0ec9dc	-0.1394419
234	0x3b29526b	0.0025836478
235	0xbd0bf332	-0.034167476
236	0xbdb6ef45	-0.08932356
237	0x3e1bf82b	0.15231387
238	0x3e04addc	0.12956947
239	0x3da0c97b	0.07850929
240	0x3d7c0cbf	0.061535593
241	0xbd047275	-0.032335717
242	0x3dac2562	0.08405568
243	0x3deaba25	0.114612855
244	0xbdcc9330	-0.09989011
245	0x3c3bad81	0.011454941
246	0xbd3dbbb4	-0.046321586
247	0xbc9b9ede	-0.018996652
248	0x3d6acdc9	0.05732516
249	0x3d9de18a	0.07709034
250	0xbde4f367	-0.11179238
251	0x3dd21681	0.102581985
252	0xbdf56dec	-0.119838566
253	0xbcac3b83	-0.021024471
254	0xbd5e4757	-0.054267254
255	0x3dac5ea3	0.08416488

embedding.conv1.weight f4 [64, 1, 4, 4]
0	0xbc4896d1	-0.012242989
1	0x3d6fcda5	0.058545727
2	0x3d494b68	0.04914418
3	0xbbe25d30	-0.0069080815
4	0xbc348a90	-0.011019364
5	0x3c956dcd	0.018240834
6	0x3aa2a242	0.0012407976
7	0xbd09e5ec	-0.033666536
8	0x3c879afc	0.016553394
9	0x3d144f50	0.03620845
10	0xbcfdd419	-0.030984925
11	0xbd23873e	-0.0399239
12	0x3b38a36f	0.0028173586
13	0xbb6852f7	-0.0035449842
14	0xbd21afa3	-0.03947414
15	0xbd107fda	-0.03527818
16	0xbd076e6c	-0.03306429
17	0x3a1ed368	0.00060587237
18	0x3c166e14	0.009181518
19	0xbd7cf0ec	-0.0617532
20	0xbcb79960	-0.022412002
21	0x3c1fce63	0.009753796
22	0x3cee38d0	0.029079825
23	0xbb9d2161	-0.004795239
24	0xbcb33a00	-0.021878242
25	0x398d13ae	0.00026908278
26	0x3c53e87a	0.012933845
27	0xbac6cebf	-0.0015167816
28	0xbccacb4c	-0.024755143
29	0x3cac7137	0.021050079
30	0x3cc53157	0.024071379
31	0xbca6768e	-0.020320203
32	0x3c5e5f7a	0.013572568
33	0xbb27cdc3	-0.0025604821
34	0x3b363f80	0.0027808845
35	0xbcda0ec8	-0.026618376
36	0xbc5a25c2	-0.013314666
37	0x39854811	0.0002542143
38	0x3c942ad7	0.018086834
39	0xbce1c58d	-0.02756002
40	0x3ceed067	0.029152108
41	0x3cafbc44	0.021452077
42	0x3ba505f0	0.005036108
43	0xbc85ed9c	-0.016348653
44	0xbc928679	-0.017886387
45	0xbc973a63	-0.018460458
46	0xbcb0ce01	-0.021582605
47	0x3c927c0f	0.017881421
48	0x3d05e888	0.032692462
49	0x3bf74bfb	0.0075468994
50	0x3d5949b3	0.0530488
51	0xbc767065	-0.015041445
52	0x3c8ded1c	0.017324977
53	0xbd4f637a	-0.050631978
54	0x3d08c661	0.033392314
55	0xbc93d878	-0.018047556
56	0x39d1002c	0.00039863714
57	0x3bdc6c64	0.0067267884
58	0xbbfb8782	-0.007676066
59	0x3ca4134e	0.020028736
60	0xb89d7571	-7.5082186e-05
61	0xbcc25db1	-0.023726316
62	0xbab9630d	-0.0014143899
63	0x3c8242ac	0.015900932
64	0x3b8bc624	0.0042655636
65	0xbb76b01f	-0.0037641597
66	0xbd0b83ec	-0.034061357
67	0x3b6fe296	0.0036603562
68	0x3c65feaa	0.014037767
69	0xbc5825b4	-0.013192583
70	0x3c90004c	0.017578267
71	0xbcabfeaf	-0.020995466
72	0xbcbdf45f	-0.023187814
73	0xbbee2cbd	-0.007268517
74	0x3ca03936	0.01955853
75	0xbcc8be3b	-0.024504771
76	0xbc9ea7b7	-0.019367082
77	0x3d969e52	0.07354416
78	0xbce77275	-0.02825282
79	0xbd2aaaba	-0.041666724
80	0x3cc0a977	0.023518307
81	0x3ca7cd21	0.020483555
82	0x3c660e99	0.014041566
83	0x3d6b0938	0.05738184
84	0x3ba2e312	0.0049709165
85	0x3b6bd2a4	0.0035983706
86	0x39044cbf	0.00012617091
87	0x3cd64dcc	0.026160143
88	0xbbf78c29	-0.00755455
89	0x3d0ed56a	0.034871496
90	0x3ca84e0c	0.020545028
91	0x3c8a1c51	0.016859205
92	0x3d26443b	0.040592413
93	0x3d405056	0.046951614
94	0x3cad5bc9	0.02116193
95	0x3cd51b46	0.026013982
96	0x3d0f6de4	0.03501691
97	0x3ce538b8	0.027981147
98	0x3c9fad89	0.019491928
99	0xbd6bf707	-0.05760863
100	0xb9fe54a9	-0.00048509732
101	0x3cd8309e	0.02639037
102	0xbce11552	-0.027475987
103	0xbcf71991	-0.030163558
104	0x3c39759f	0.011319547
105	0x3ca1ae2e	0.019736376
106	0xbcc53477	-0.024072869
107	0xbc85caa8	-0.016331986
108	0x3d2481db	0.040162902
109	0x3b829b84	0.003985824
110	0xbcaf05ba	-0.021365035
111	0xbbb228a5	-0.005436974
112	0x3d2fe263	0.04294051
113	0xbc5319d6	-0.012884578
114	0x3ae619ea	0.001755533
115	0xbc870208	-0.01648046
116	0x3d2bf277	0.04197928
117	0x3bcf7f34	0.0063323025
118	0xbb961022	-0.00457956
119	0xba7bd7e7	-0.0009607062
120	0x3d8bad11	0.06820119
121	0x3b363564	0.002780282
122	0xbcb0d119	-0.02158408
123	0xba3c4d94	-0.0007183191
124	0x3d14ad79	0.03629825
125	0x3c849af0	0.016187161
126	0xbd00f8e2	-0.031487353
127	0x3c508f94	0.012729544
128	0xbba49b72	-0.0050234133
129	0xbc9fa650	-0.019488484
130	0x3c8c58f1	0.017132254
131	0xbcb3fa80	-0.021970034
132	0xbc05313f	-0.008129417
133	0xb88a0d5a	-6.58284e-05
134	0xbcec5b34	-0.028852083
135	0x3b2d9295	0.0026485075
136	0x3bb7c3e8	0.0056080706
137	0x3b91ec2b	0.0044532022
138	0xbae69b2f	-0.0017593856
139	0xbc1792ed	-0.009251338
140	0x3d1ac44e	0.037784867
141	0x3c34e671	0.01104127
142	0xbcf65d3b	-0.030073753
143	0x3c088f2f	0.008334919
144	0x3b85bcb1	0.0040813317
145	0xbcbc23c8	-0.02296628
146	0xbcf2de67	-0.029647065
147	0x3cbcbb35	0.023038486
148	0xbba76b3d	-0.0051092193
149	0xb9131f95	-0.00014030778
150	0xbda3547e	-0.079751
151	0x3ce86370	0.028367728
152	0x3c5f3752	0.013624029
153	0xbbdd823a	-0.006759909
154	0xbd027c97	-0.0318571
155	0x3cfc1f13	0.030776536
156	0xbbfecf7f	-0.0077762003
157	0xbc1c7acd	-0.009550762
158	0x3cad57df	0.021160064
159	0x3d6c387b	0.05767105
160	0x3d938b3f	0.072042935
161	0x3bd2d4a8	0.006434042
162	0x3c6e4a6b	0.01454411
163	0xbcd43f4c	-0.025909089
164	0x3d23c2be	0.039980642
165	0xbc5a6eef	-0.013332113
166	0xbcdd776b	-0.027034482
167	0x3ba4b256	0.005026142
168	0x3bd05c9f	0.0063586975
169	0xbc8c3d94	-0.017119206
170	0xbb8b1ecb	-0.004245614
171	0xbb1ff962	-0.0024410118
172	0x3d3660d7	0.044525947
173	0x3cdd46d1	0.027011307
174	0x3d4c9cfe	0.049954407
175	0x3ce648d3	0.028110897
176	0xbc4141fc	-0.011795517
177	0x3b08241b	0.0020773474
178	0x3ae9dc35	0.0017842116
179	0x3c19a88c	0.009378564
180	0x3b1eeeca	0.0024251216
181	0xbcedde3d	-0.029036636
182	0xbc8f8c70	-0.01752302
183	0x3bb71a95	0.0055878856
184	0x3b633686	0.003466995
185	0xbd0403c0	-0.03223014
186	0xbc4b88d7	-0.012422762
187	0xbc262301	-0.0101401815
188	0xbd4057b9	-0.04695866
189	0xbd2a246e	-0.04153865
190	0xbd65fd70	-0.0561499
191	0x3c897801	0.016780855
192	0xbcbcf5c4	-0.023066409
193	0x3c28a428	0.010293044
194	0x3bcb087a	0.006196079
195	0x3ced8333	0.028993225
196	0xba69c717	-0.00089179113
197	0x3b5227d2	0.0032067192
198	0x3bd96fe0	0.006635651
199	0x3ce61105	0.028084287
200	0xbc90e30b	-0.017686388
201	0x3d8a519c	0.06753847
202	0x3c5b6e28	0.0133929625
203	0x3c89279a	0.016742516
204	0xbd885c13	-0.06658187
205	0x3d20cede	0.039259784
206	0xbc0afc0f	-0.008482947
207	0x3c8c5dea	0.017134625
208	0xbc94de83	-0.018172508
209	0xbc813f5f	-0.015777288
210	0x3d53a43b	0.051670294
211	0x3d3387db	0.043830734
212	0xbcf2cfc5	-0.029640088
213	0x3afe8a6d	0.0019419916
214	0x3c1e75e0	0.009671658
215	0xbcd47ffa	-0.02593993
216	0xbbda6c60	-0.0066657513
217	0xbb800814	-0.003907213
218	0x3d2156d2	0.03938944
219	0xbb840b4b	-0.0040296665
220	0x3d570f5d	0.052504886
221	0x3bf40e39	0.0074479845
222	0x3d3e6340	0.04648137
223	0xbc9b5cf7	-0.018965228
224	0xbcce4e7d	-0.02518391
225	0x3bc58c70	0.0060287043
226	0x3c8a2c84	0.01686693
227	0x3cf443c6	0.029817473
228	0xbb60d1d8	-0.0034304764
229	0x3cc70399	0.024293708
230	0x3d95d0cb	0.07315215
231	0x3cf307c0	0.029666781
232	0xbbaf76a3	-0.005354719
233	0x3d13afbd	0.03605627
234	0x3d106073	0.03524823
235	0x3b8bca0a	0.0042660283
236	0xbac26e55	-0.0014833907
237	0x3d42e4bd	0.047581423
238	0x3d61e3b4	0.055148795
239	0xbcbe05ed	-0.023196185
240	0x3d584dad	0.052808452
241	0x3d3c661b	0.045995813
242	0x3d1e2340	0.038607836
243	0xbc0ded52	-0.008662539
244	0x3ce4fbb7	0.027952058
245	0xbc8e3cb1	-0.017362924
246	0x3c253489	0.010083326
247	0x3b9fe216	0.0048792465
248	0x3c898c61	0.01679057
249	0x3d1316d2	0.035910435
250	0xbd034cf6	-0.032055818
251	0xbc13e1cf	-0.009026005
252	0xbc2beb82	-0.010493161
253	0xbd4a08a9	-0.049324665
254	0xbd433891	-0.047661368
255	0x3d188b79	0.037242386

embedding.conv1.bias f4 [64]
0	0xbc5a8bd2	-0.013339
1	0xbcdec001	-0.027191164
2	0x3d0756b3	0.033041667
3	0x3d239c9d	0.03994428
4	0xbc1f895f	-0.009737342
5	0x3cafb378	0.021447882
6	0x3c931ff4	0.017959572
7	0x3d13cfa4	0.036086693
8	0x3c066269	0.008202174
9	0xbb496eb0	-0.003073614
10	0x3c0b9182	0.0085185785
11	0xbd25a413	-0.040439676
12	0x3d55ecf2	0.05222792
13	0x3d2b96ce	0.041891865
14	0x3cad249d	0.021135623
15	0x3cf0d5a6	0.02939875
16	0xbd02053b	-0.03174327
17	0x3c3a16bd	0.01135796
18	0x3c7b44f3	0.015336263
19	0xbd0b96d0	-0.034079373
20	0xbca84ab8	-0.020543441
21	0xbb6998d7	-0.0035644078
22	0x3d1790a7	0.037003186
23	0xbc979c03	-0.01850701
24	0xbc1d06de	-0.009584157
25	0x3aabe046	0.0013113103
26	0xbc0cff4a	-0.0086057875
27	0xbd1a321f	-0.037645455
28	0xbcfa683b	-0.03056728
29	0x3cc89e11	0.024489434
30	0xbbc92566	-0.0061384914
31	0x3ccf1728	0.025279596
32	0xba8a2a84	-0.0010541235
33	0xbcfa04ba	-0.030519832
34	0x3d239030	0.03993243
35	0xbd221fad	-0.03958099
36	0x3c22a7b6	0.009927681
37	0x3d39fff0	0.045410097
38	0x3cdc1416	0.026865046
39	0xbd6d22d0	-0.057894528
40	0x3b6ff807	0.0036616342
41	0xbd1bd663	-0.038046252
42	0x3d38de30	0.04513377
43	0xbcfef31e	-0.031121787
44	0xbc4821b9	-0.012215071
45	0xbcf068e8	-0.029346898
46	0x3c6cf90b	0.014463673
47	0xbd670651	-0.05640251
48	0x3cd2ede3	0.025748199
49	0xbd23b605	-0.03996851
50	0x3cb3b7b1	0.021938177
51	0xbd4c771b	-0.049918275
52	0xbd44ca9f	-0.048044797
53	0x3ca2e23e	0.019883271
54	0xbc55cbf5	-0.013049115
55	0x3d2c5f3c	0.04208301
56	0x3d13674c	0.035987183
57	0x3c76fefa	0.01507544
58	0xbc18a0f5	-0.009315719
59	0x3be71338	0.0070518516
60	0xbc7c5516	-0.015401145
61	0xbbbce62b	-0.005764743
62	0xbc7ac7da	-0.015306437
63	0xbc34413e	-0.011001883

encoder.0.attention.queries.weight f4 [64, 64]
0	0x3dba5040	0.09097338
1	0xbe0c6c0e	-0.13713095
2	0x3d81900d	0.06326304
3	0x3ddaf65e	0.10691522
4	0xbca899ca	-0.020581145
5	0x3dd2aa3e	0.10286377
6	0x3d9fd0e0	0.078035116
7	0x3d8e30f9	0.069429345
8	0x3d35a8d6	0.044350468
9	0xbd90db5a	-0.07073088
10	0x3d12ef7e	0.03587293
11	0xbdf0f72c	-0.11765894
12	0x3be1a408	0.006886009
13	0x3d80ae3f	0.06283235
14	0x3d629a56	0.055322967
15	0x3dbf471a	0.093397334
16	0xbd8e01ed	-0.06933961
17	0x3decae5e	0.115566954
18	0x3de0410c	0.10949907
19	0xbd94b5b6	-0.07261221
20	0x3d54d743	0.051963102
21	0xbd320638	-0.043462962
22	0x3da308de	0.07960676
23	0xbde854ec	-0.113443226
24	0xbe0bf87f	-0.13669012
25	0x3dc0ba71	0.09410561
26	0xbd53f489	-0.05174688
27	0xbdf9fb5f	-0.12206148
28	0xbc13ad08	-0.009013422
29	0xbd18b61a	-0.03728304
30	0x3d1a6ff5	0.037704427
31	0xbc8f4f20	-0.017493784
32	0xbc52ff3a	-0.012878234
33	0xbd83ff43	-0.06445172
34	0x3dc7c15e	0.09753679
35	0xbd8c506b	-0.06851276
36	0x3dcb115e	0.09915422
37	0x3e055900	0.13022232
38	0x3d1e2270	0.03860706
39	0xbdab2115	-0.08355919
40	0x3cee188a	0.029064436
41	0xbd913efa	-0.0709209
42	0x3d4e9d22	0.050442822
43	0xbdb7e266	-0.08978729
44	0xbe06a444	-0.131486
45	0xbd3a1992	-0.045434542
46	0x3e142d45	0.14470394
47	0xbe0e7b5e	-0.13914248
48	0x3d70b0ca	0.05876235
49	0xbd1ae2b5	-0.03781386
50	0x3c71ff50	0.014770344
51	0xbd7a35be	-0.06108641
52	0xbcae7d8d	-0.021300102
53	0x3d72acc7	0.059246805
54	0x3d4239d1	0.04741842
55	0x3d9ee610	0.07758725
56	0x3da47aea	0.080312565
57	0x3dace1fe	0.08441542
58	0xbe2788ac	-0.1636073
59	0xbd7f680f	-0.062355097
60	0xbdf0b9b5	-0.11754171
61	0xbdf65912	-0.120287076
62	0xbdf054bb	-0.11734911
63	0xbd4c46cd	-0.04987221
64	0xbd6b43c8	-0.057437688
65	0x3de37fb7	0.11108344
66	0xbd699f0f	-0.057036456
67	0xbdcfd32b	-0.10147699
68	0x3ccea1d6	0.025223654
69	0xbdae2f2c	-0.08505091
70	0xbd5c8bd4	-0.053844288
71	0xbd5e4d3b	-0.05427287
72	0xbd0c5167	-0.03425732
73	0x3da91979	0.08256812
74	0x3bfb20ce	0.0076638227
75	0x3d79d85b	0.06099735
76	0xbd4cef59	-0.050032947
77	0xbd917662	-0.07102658
78	0xbd97b0a7	-0.07406741
79	0xbdf874b6	-0.12131636
80	0x3dee6896	0.11641042
81	0xbdefa795	-0.117018856
82	0xbd728cc6	-0.059216283
83	0x3e1f564f	0.15560268
84	0xbdb59609	-0.088665076
85	0x3d76fdbd	0.060300577
86	0xbde5d6b4	-0.11222592
87	0x3dd16f77	0.10226338
88	0x3e16ebbb	0.14738362
89	0xbd4d9277	-0.050188508
90	0x3d616e2a	0.0550367
91	0x3de83a4e	0.11339246
92	0x3c96cbe3	0.018407768
93	0x3d6a00c0	0.05712962
94	0x3c217a3f	0.009855806
95	0x3af95d4f	0.0019025
96	0xbd709d26	-0.05874362
97	0x3d9aa684	0.075512916
98	0xbdb93775	-0.09043781
99	0x3de29d3a	0.11065145
100	0xbe0f909b	-0.14020006
101	0xbd37ce05	-0.04487421
102	0xbcb3725e	-0.02190512
103	0x3deffc06	0.117179915
104	0xbd1d247a	-0.038364865
105	0x3d99f70d	0.07517824
106	0xbc74f6d7	-0.014951429
107	0x3d5f2f7a	0.054488637
108	0x3e0cde3f	0.13756655
109	0x3d83e321	0.06439806
110	0xbe021752	-0.12704208
111	0x3e099c31	0.13438489
112	0xbd33f872	-0.043938108
113	0x3d34cd00	0.044140816
114	0xbc92e44e	-0.01793113
115	0x3d497bb5	0.04919024
116	0x3d7e0ee6	0.062025927
117	0xbd95fea2	-0.07323958
118	0xbd895db1	-0.06707323
119	0xbd92fecd	-0.07177506
120	0xbda046cd	-0.07826004
121	0xbdeae2f8	-0.11469072
122	0x3d8b7566	0.06809501
123	0x3d46c79c	0.048530206
124	0x3dcc6f76	0.09982197
125	0x3de81caa	0.11333592
126	0x3e07f5cf	0.13277362
127	0x3d05fc5e	0.03271138
128	0xbd3bd263	-0.045854937
129	0x3e0b081a	0.13577309
130	0xbd5f09c6	-0.05445268
131	0xbdb80e2d	-0.08987079
132	0x3d3978a2	0.04528106
133	0xbdce9a74	-0.10088053
134	0xbd737469	-0.05943719
135	0xbd698f4d	-0.057021428
136	0xbd2170e1	-0.03941429
137	0x3db092ea	0.08621772
138	0xbcbfb134	-0.023399927
139	0x3dcc9b08	0.09990507
140	0xbd88cd61	-0.06679798
141	0xbdab0b94	-0.08351818
142	0xbd717671	-0.058950845
143	0xbdb939b1	-0.09044207
144	0x3dcac1a1	0.09900213
145	0xbde625a8	-0.11237651
146	0xbdbda190	-0.09259331
147	0x3de32407	0.11090856
148	0xbd874194	-0.06604305
149	0x3d955c9b	0.07293054
150	0xbdbfc27d	-0.093632676
151	0x3df454c3	0.119302295
152	0x3e0b64fd	0.13612743
153	0xbdbaf441	-0.09128619
154	0x3d6e1211	0.0581227
155	0x3d9657b7	0.07340949
156	0xbc9045a1	-0.017611327
157	0x3d6480d5	0.055786926
158	0xbd39c5d3	-0.045354676
159	0xbcebe46b	-0.028795442
160	0xbc70297e	-0.01465833
161	0x3d9ddd91	0.07708276
162	0xbe1a07ee	-0.15042087
163	0x3dafeb4b	0.085898004
164	0xbdf7ee81	-0.12106038
165	0xbd901528	-0.07035285
166	0xbd7abda2	-0.061216004
167	0x3d60044a	0.05469159
168	0xbca2008c	-0.019775651
169	0x3dba1c89	0.09087474
170	0xbd12d1e8	-0.035844713
171	0x3d916682	0.0709963
172	0x3ddbc77b	0.10731407
173	0x3d9327f8	0.07185358
174	0xbdcbbd93	-0.09948268
175	0x3de6baea	0.1126612
176	0xbd526162	-0.051362403
177	0x3d381492	0.044941492
178	0xbb07c5a2	-0.0020717164
179	0x3d350f04	0.044203773
180	0x3d09d34f	0.033648785
181	0xbda1cc34	-0.07900277
182	0xbd921a58	-0.07133931
183	0xbdc75b43	-0.09734204
184	0xbdb6dcfd	-0.08928869
185	0xbdfdb715	-0.12388436
186	0x3df8ea94	0.12154117
187	0x3cb4075e	0.02197617
188	0x3df580fe	0.11987494
189	0x3e03fa8c	0.12888545
190	0x3e0388b0	0.12845111
191	0x3bccdf5a	0.0062522115
192	0x3d7ab24a	0.061205186
193	0xbe020755	-0.1269811
194	0x3d8dc4e1	0.06922317
195	0x3dcf8ded	0.10134492
196	0xbcd3cba3	-0.025853937
197	0x3daa50cb	0.08316191
198	0x3d5fd489	0.05464605
199	0x3da1ea39	0.079060026
200	0x3d48fb79	0.049067948
201	0xbd9288b0	-0.07154977
202	0x3c9f2763	0.01942796
203	0xbda64544	-0.0811868
204	0x3d905f64	0.07049444
205	0x3d7e9a59	0.062158916
206	0x3db6e037	0.08929484
207	0x3dbf4be3	0.09340646
208	0xbe0736b4	-0.13204461
209	0x3df040ca	0.117311075
210	0x3de50528	0.11182624
211	0xbdd151fd	-0.10220716
212	0x3dc5c134	0.09655991
213	0xbd588fda	-0.052871563
214	0x3d8ffc68	0.070305645
215	0xbdb053b2	-0.086097136
216	0xbe2ac710	-0.16677499
217	0x3c2ee16b	0.010673861
218	0xbd47dbd1	-0.048793618
219	0xbdfbe223	-0.122989915
220	0xbcfbb996	-0.030728143
221	0xbd6f4749	-0.058417592
222	0xbd291c2b	-0.04128663
223	0x3cce01f1	0.02514741
224	0x3cf8706d	0.030327046
225	0xbd8bff57	-0.068358116
226	0x3de9a44d	0.11408291
227	0xbdad4ff0	-0.084625125
228	0x3e0332cd	0.12812348
229	0x3d9daddc	0.07699177
230	0x3d3003e7	0.04297247
231	0xbd9d11bf	-0.076694004
232	0x3ca01da5	0.019545386
233	0xbdb17065	-0.08664016
234	0x3b9b3c41	0.0047374074
235	0xbdea265b	-0.11433097
236	0xbdbe8b0e	-0.09303866
237	0xbd6948c2	-0.056954153
238	0x3e075202	0.13214877
239	0xbe0037b2	-0.12521246
240	0x3d3a8062	0.04553259
241	0xbcb780d9	-0.022400307
242	0xbbcf9a1e	-0.006335511
243	0xbd1b553e	-0.03792309
244	0xbc9fa7e6	-0.01948924
245	0x3d7b015d	0.061280597
246	0x3ce37291	0.02776459
247	0x3d02d35f	0.03193986
248	0x3dcc60f3	0.09979429
249	0x3dba512f	0.09097516
250	0xbdb38f3a	-0.08767553
251	0xbd8f13e8	-0.06986219
252	0xbdc82a9e	-0.097737536
253	0xbe07d6cd	-0.13265534
254	0xbddb1243	-0.106968425
255	0xbd4692ef	-0.04847997

encoder.0.attention.queries.bias f4 [64]
0	0x3d662d02	0.056195267
1	0xbd7a470b	-0.061102908
2	0xbd938590	-0.072032094
3	0x3d737e8c	0.059446856
4	0xbd7ea6d9	-0.062170837
5	0xbd88ff2d	-0.06689296
6	0x3d87c55e	0.06629442
7	0x3d6beeae	0.05760067
8	0xbd8abd79	-0.0677442
9	0xbd8d002e	-0.068848
10	0x3d8451cb	0.06460913
11	0x3d792d60	0.06083429
12	0x3ce3276d	0.02772876
13	0x3d84a7c4	0.06477311
14	0xbd6eecb6	-0.058331214
15	0x3d70f823	0.05883039
16	0x3da3bc0a	0.0799485
17	0x3d880bdb	0.06642886
18	0x3d83ed67	0.06441765
19	0x3d8d9848	0.06913811
20	0xbc87db85	-0.016584167
21	0xbda0f4a2	-0.0785916
22	0x3da3a9a6	0.07991342
23	0x3d838dde	0.064235434
24	0x3d8c50a6	0.0685132
25	0xbd90d46d	-0.07071767
26	0xbd93a219	-0.07208652
27	0xbd72898a	-0.0592132
28	0xbd8cd18a	-0.06875904
29	0x3d94f1d2	0.07272686
30	0xbd7f1d3b	-0.062283736
31	0xbd97bda8	-0.07409221
32	0x3d62934b	0.05531625
33	0x3d571d8b	0.05251841
34	0x3d558309	0.052126918
35	0xbd4f4485	-0.050602455
36	0x3d4a5ab8	0.049402922
37	0xbd4ae68e	-0.04953628
38	0x3d63b932	0.055596538
39	0x3d5e6249	0.05429295
40	0x3d5eb52b	0.054371994
41	0xbd60ed45	-0.054913778
42	0xbd595cfa	-0.053067185
43	0xbd84a79d	-0.06477282
44	0x3d680256	0.056642853
45	0xbd593ec7	-0.053038385
46	0xbd5cc222	-0.053896077
47	0xbd64184f	-0.055687245
48	0xbdab656c	-0.08368954
49	0xbda88719	-0.08228893
50	0xbdaf45d9	-0.08558244
51	0xbdb1233a	-0.08649297
52	0xbd981a55	-0.074268974
53	0x3da8fee9	0.08251745
54	0x3db159da	0.08659716
55	0xbda1ff90	-0.07910073
56	0xbdb40950	-0.08790839
57	0xbdb029dc	-0.08601734
58	0x3d94bf72	0.07263078
59	0xbda8f1e2	-0.082492605
60	0x3db2754c	0.08713779
61	0xbdb27ae4	-0.08714846
62	0x3daa5f83	0.08318999
63	0x3da26068	0.07928544

encoder.0.attention.keys.weight f4 [64, 64]
0	0x3e603d77	0.21898447
1	0xbdbf7c35	-0.093498625
2	0xbdfcff2e	-0.12353359
3	0x3d6ad959	0.057336185
4	0xbd6d8e3b	-0.05799697
5	0x3db76f30	0.08956754
6	0xbb44b9bd	-0.0030017935
7	0x3dc301ce	0.095218286
8	0xbdf63c55	-0.12023226
9	0xbe1efd23	-0.15526251
10	0x3d607930	0.054803073
11	0xbdc32b27	-0.09529715
12	0x3dac41f7	0.08411019
13	0x3e01ba20	0.12668657
14	0x3db89e70	0.090145946
15	0x3dc94d0b	0.09829148
16	0xbd9e1783	-0.07719328
17	0x3d990885	0.07472328
18	0x3dba230f	0.09088718
19	0xbdb9c55d	-0.09070847
20	0x3db36ef8	0.087614
21	0x3dc768aa	0.0973676
22	0x3d96ad06	0.0735722
23	0xbdc8c21c	-0.098026484
24	0xbdf42787	-0.11921602
25	0x3db528af	0.088456504
26	0xbe098965	-0.13431318
27	0xbda2ce80	-0.07949543
28	0xbd60791a	-0.05480299
29	0xbd6c7b7a	-0.057734944
30	0x3e22a87b	0.15884583
31	0xbdc0dfb3	-0.09417667
32	0xbda47e4f	-0.08031904
33	0xbdecf935	-0.1157097
34	0x3d934045	0.07189993
35	0xbd6ece93	-0.058302473
36	0x3d0578a6	0.032585762
37	0x3d95e687	0.0731936
38	0x3dadb03f	0.08480882
39	0xbdc45b82	-0.09587766
40	0xbda09812	-0.07841505
41	0x3adec34e	0.0016995461
42	0x3db8b276	0.09018414
43	0xbd816d63	-0.06319692
44	0xbc825046	-0.015907418
45	0xbd91872c	-0.0710586
46	0x3cb68d52	0.022284184
47	0xbd64a07c	-0.055817112
48	0x3e1397be	0.14413354
49	0x3da0616b	0.07831081
50	0xbccdff52	-0.02514616
51	0xbdb30dda	-0.08742876
52	0x3e0d5aaf	0.13804124
53	0x3cdc25e1	0.02687353
54	0x3d83295e	0.064043745
55	0x3d9a6169	0.07538111
56	0x3dbd83b1	0.09253634
57	0x3d6e797c	0.058221325
58	0xbe0a476e	-0.13503811
59	0xbdd657eb	-0.10465988
60	0xbd568d4d	-0.05238085
61	0xbd84a5b1	-0.06476916
62	0xbdadfbaf	-0.084952705
63	0xbd8733c1	-0.06601668
64	0xbe32deb0	-0.17467761
65	0x3d235ec8	0.039885312
66	0x3e103516	0.1408275
67	0xbdaf957d	-0.085734345
68	0x3d896bd1	0.067100175
69	0xbddacdfa	-0.10683818
70	0x3d3d717a	0.046250798
71	0xbdbc2feb	-0.09188827
72	0x3e379f6a	0.17931905
73	0x3e34e50d	0.17665501
74	0xbd6a44f9	-0.057194684
75	0x3dab0ee9	0.08352453
76	0xbd8a7aed	-0.067617275
77	0xbe0be80b	-0.13662736
78	0xbda5a978	-0.08088964
79	0xbd7b33a8	-0.06132856
80	0x3dba157b	0.09086128
81	0xbdd34558	-0.10315961
82	0xbda97065	-0.08273391
83	0x3db86fe9	0.0900572
84	0xbdbdd59b	-0.09269258
85	0xbdc444c4	-0.095834285
86	0xbd742926	-0.059609555
87	0x3e03315e	0.12811801
88	0x3d6b5a4d	0.057459164
89	0xbd838be1	-0.06423164
90	0x3da9eb49	0.0829683
91	0x3d912ddf	0.07088827
92	0x3ddcdee3	0.107847
93	0x3ca9c6c9	0.020724671
94	0xbe2175af	-0.15767549
95	0x3dc6f7a6	0.09715204
96	0x3dc265fb	0.094921075
97	0x3d92ad1f	0.071619265
98	0xbda49f2c	-0.08038172
99	0x3d9f16ec	0.07768044
100	0xbda1edcd	-0.07906685
101	0xbdb46369	-0.088080235
102	0xbd9b7d91	-0.07592309
103	0x3df05fd2	0.11737026
104	0x3d8c4bfe	0.06850432
105	0xbc2d3e96	-0.010574004
106	0xbddc8641	-0.107677944
107	0x3da22899	0.079179
108	0xbc89d142	-0.016823415
109	0x3d5692ff	0.05238628
110	0xbd73d9b8	-0.059533805
111	0x3e0a2e48	0.13494217
112	0xbe0f1e94	-0.13976508
113	0xbdcdd364	-0.10050085
114	0x3d44f06b	0.048080843
115	0x3d8dfd16	0.06933038
116	0xbe0c093d	-0.13675399
117	0xbb646dc9	-0.0034855476
118	0xbdf9e2c9	-0.12201459
119	0xbd5a6b7e	-0.05332517
120	0xbda4befe	-0.08044241
121	0xbdb62a3c	-0.08894774
122	0x3dadacb7	0.08480208
123	0x3e0a86b3	0.13527946
124	0x3d1ff7b5	0.03905459
125	0x3d879115	0.06619469
126	0x3dc4c441	0.09607745
127	0x3d9be598	0.07612151
128	0xbe25d363	-0.16193919
129	0x3db0968f	0.08622467
130	0x3dde4673	0.10853281
131	0xbdaaf503	-0.083475135
132	0x3d135dc5	0.035978097
133	0xbdf61ee3	-0.1201761
134	0x3c811391	0.0157564
135	0xbdc8225e	-0.0977218
136	0x3e28566e	0.1643922
137	0x3e3056e6	0.17220649
138	0xbd131919	-0.035912607
139	0x3dd1c8ab	0.102433525
140	0xbdbeff07	-0.09325986
141	0xbe017e4c	-0.12645835
142	0xbd915afa	-0.070974305
143	0xbd21d7f3	-0.039512586
144	0x3db1715d	0.086642005
145	0xbd5f123c	-0.05446075
146	0xbde826c4	-0.11335519
147	0x3d9164f3	0.07099333
148	0xbdef9c36	-0.11699717
149	0xbdf6f2a1	-0.120579965
150	0xbd5b4f6f	-0.05354255
151	0x3dd7d420	0.105385065
152	0x3d9b9c4d	0.075981714
153	0xbde54678	-0.111950815
154	0x3e09ae91	0.13445498
155	0x3d9b1390	0.075720906
156	0x3dc9aee0	0.09847808
157	0x3d2f56cc	0.042807385
158	0xbe36cf06	-0.1785241
159	0x3dd2519c	0.10269472
160	0x3e050e2c	0.12993687
161	0x3dd23d72	0.10265626
162	0xbdc859a8	-0.097827256
163	0x3d98e935	0.07466356
164	0xbd318dab	-0.043347996
165	0xbd97824f	-0.07397901
166	0xbda1805f	-0.07885813
167	0x3dd35ab1	0.103200324
168	0x3d96a50a	0.073556975
169	0x3cc9d1b3	0.024636125
170	0xbe106923	-0.14102606
171	0x3de0c12a	0.10974343
172	0x3ca0f707	0.019649042
173	0x3d5940c4	0.05304028
174	0xbcf4927c	-0.029855005
175	0x3da3f385	0.08005432
176	0xbe156fc6	-0.1459342
177	0xbdb067cd	-0.086135484
178	0x3ce167a1	0.027515234
179	0x3d9b863c	0.075939626
180	0xbddc7eab	-0.107663475
181	0xbd2392eb	-0.039935034
182	0xbdb6b282	-0.089207664
183	0xbd6c546d	-0.057697702
184	0xbd859d1c	-0.06524107
185	0xbdcdb1b4	-0.1004366
186	0x3e02464e	0.12722132
187	0x3e0869b5	0.13321574
188	0x3dae0a94	0.08498111
189	0x3d6cde32	0.05782909
190	0x3db38af6	0.08766739
191	0x3d9a9aa1	0.075490244
192	0x3e1df837	0.15426718
193	0xbd3c990c	-0.046044394
194	0xbdd9aa41	-0.106281765
195	0x3db39f14	0.08770576
196	0xbd268d41	-0.040662054
197	0x3dc50cd2	0.09621586
198	0xbd78f1d1	-0.06077749
199	0x3e00662e	0.12538978
200	0xbe4208af	-0.18948625
201	0xbe328da4	-0.17436844
202	0x3d7b5b6e	0.06136649
203	0xbdbac04a	-0.091187075
204	0x3ddf5f56	0.10906856
205	0x3dc3ba2b	0.09556993
206	0x3d8bc355	0.06824366
207	0x3d053ede	0.032530658
208	0xbdd536e8	-0.10410863
209	0x3db36fbd	0.08761547
210	0x3df1963d	0.11796234
211	0xbdda65d8	-0.106639564
212	0x3d8f4bff	0.06996917
213	0x3dd2db0c	0.10295686
214	0x3db4cb7b	0.08827873
215	0xbdce6958	-0.100786865
216	0xbd498504	-0.04919912
217	0x3df1c400	0.11804962
218	0xbdf665f3	-0.12031164
219	0xbdb3c29f	-0.087773554
220	0xbdd75022	-0.10513331
221	0xbd2aff24	-0.041747227
222	0x3e20e28b	0.1571142
223	0xbe0b4113	-0.13599043
224	0xbe019325	-0.12653787
225	0xbdae1ba9	-0.085013695
226	0x3dd27c86	0.10277657
227	0xbdaab6a3	-0.083356164
228	0x3c8c2cf6	0.017111283
229	0x3d8fd005	0.070220985
230	0x3dcbf8a8	0.09959537
231	0xbddd42fb	-0.10803791
232	0xbd8a0929	-0.067400284
233	0xbc292f56	-0.010326227
234	0x3da19330	0.07889402
235	0xbdc07b27	-0.093984894
236	0x3c577621	0.013150723
237	0xbd3d6b76	-0.04624506
238	0x3d086f2c	0.033309147
239	0xbdab7092	-0.083710805
240	0x3de09f8d	0.10967932
241	0x3d44e566	0.048070334
242	0xbc3f5e41	-0.011680187
243	0xbdd88b5a	-0.10573454
244	0x3ded685e	0.11592172
245	0x3c56e750	0.013116673
246	0x3da2da98	0.0795185
247	0x3d64506d	0.055740763
248	0x3db9ef11	0.090788014
249	0x3d3d4980	0.046212673
250	0xbde7e88e	-0.11323653
251	0xbe18493a	-0.14871684
252	0xbd6fff9c	-0.058593377
253	0xbdb41534	-0.08793107
254	0xbd8b305d	-0.06796334
255	0xbd980fab	-0.074248634

encoder.0.attention.keys.bias f4 [64]
0	0xb993f70b	-0.00028222086
1	0x3aa646be	0.0012685878
2	0x3a631105	0.0008661899
3	0xba404d6a	-0.00073357543
4	0x38fba928	0.000120001205
5	0x3a02b672	0.0004986293
6	0xbac5c233	-0.0015087783
7	0xba8511a5	-0.0010152353
8	0x3a97d11f	0.0011582709
9	0x38c0322d	9.1646194e-05
10	0xba0e5667	-0.0005429745
11	0xba3fe106	-0.0007319603
12	0xbb0383fd	-0.0020067685
13	0xb99c34a4	-0.0002979386
14	0x3a84e29d	0.0010138337
15	0xba305faa	-0.0006728122
16	0xb98d99f9	-0.00027008334
17	0x388876b8	6.5070984e-05
18	0xb9528606	-0.00020077088
19	0xb9aaae54	-0.0003255481
20	0x3a12daf2	0.00056020834
21	0xb85165d6	-4.9924325e-05
22	0x392ceb99	0.00016490965
23	0xb89e680c	-7.553407e-05
24	0x390d6086	0.00013482766
25	0x3906dffd	0.00012862678
26	0x39ff311c	0.0004867398
27	0x3987ebb4	0.0002592482
28	0xb9c2c519	-0.00037149413
29	0x3a154720	0.00056944974
30	0x3a1f02c7	0.00060657825
31	0x395f36fb	0.00021287419
32	0xb779f133	-1.4897715e-05
33	0xba35228c	-0.000690975
34	0x381f2a7d	3.7948124e-05
35	0x3994e9f1	0.0002840306
36	0xb9403abe	-0.0001833243
37	0x3a1a9efa	0.0005898323
38	0xba879381	-0.0010343642
39	0x39b3c301	0.0003428683
40	0xb9499c34	-0.00019227044
41	0x39d7242b	0.00041034943
42	0xb9018275	-0.00012350998
43	0x3902b568	0.00012465345
44	0xb93d7cd2	-0.00018070944
45	0x38740451	5.8178153e-05
46	0xb802d104	-3.1189076e-05
47	0xb8c3041d	-9.299091e-05
48	0xb992fe99	-0.0002803698
49	0x387b373d	5.9894508e-05
50	0xb994a113	-0.0002834877
51	0xb99a5a9c	-0.00029440678
52	0xb8da03f6	-0.00010395788
53	0x39ed5fb5	0.0004527547
54	0x399aeb54	0.00029548502
55	0x37ad24f1	2.064041e-05
56	0xb96e025e	-0.0002269833
57	0xb9df8529	-0.00042633087
58	0x39a00e77	0.00030528355
59	0x393fa9a7	0.0001827838
60	0x3a0f4cc1	0.00054664543
61	0xb9781183	-0.00023657647
62	0xb9278a31	-0.00015977841
63	0x39ee8d33	0.000455001

encoder.0.attention.values.weight f4 [64, 64]
0	0xbd3ab39c	-0.045581445
1	0x3c22264f	0.009896829
2	0xbcc8121c	-0.024422698
3	0xbcc146e0	-0.023593366
4	0xbb15bcef	-0.002284821
5	0xbc01b6c0	-0.007917106
6	0xbc524f08	-0.012836225
7	0x3d6da7d6	0.05802139
8	0xbb896571	-0.004193001
9	0x3c86535e	0.016397174
10	0xbcacf5b6	-0.021113258
11	0x3d263815	0.040580828
12	0xbc1ed26f	-0.009693726
13	0x3aa83093	0.0012831859
14	0x3c7e2f00	0.015514135
15	0x3bf4910f	0.0074635814
16	0xbc6f85ae	-0.014619274
17	0xbca90c53	-0.02063576
18	0x3d08bcb3	0.033383083
19	0xbd14e1c3	-0.036348116
20	0xbc5619f9	-0.013067716
21	0xbca8b73c	-0.020595185
22	0xbbc39daa	-0.0059697228
23	0x3d04ad78	0.032391995
24	0xbbbc3dd2	-0.0057446742
25	0x3d234de9	0.039869223
26	0x3d456f73	0.04820199
27	0xbc5f166e	-0.0136161875
28	0xbc6405a7	-0.013917363
29	0x3c5d6c2a	0.013514558
30	0xbc682d70	-0.014170989
31	0xbc971b83	-0.018445736
32	0xbc54a21b	-0.012978102
33	0x3c2980e8	0.010345675
34	0xbc82828c	-0.01593139
35	0x3c434dd9	0.011920416
36	0x3ce8b46c	0.028406344
37	0x3b003cdf	0.0019567532
38	0xbd1b4f02	-0.037917145
39	0x3b4081cd	0.0029374242
40	0xbc0e9b9c	-0.008704092
41	0xbcabfca3	-0.02099449
42	0xbc865059	-0.016395735
43	0x3ba48a9d	0.005021407
44	0x3bec7b1d	0.0072168247
45	0x384e5df5	4.920173e-05
46	0xbca835a7	-0.020533396
47	0x3cf8404c	0.030304097
48	0x3ccbbcaa	0.024870235
49	0xbdc58d50	-0.09646094
50	0x3c94256c	0.01808425
51	0x3c1bb256	0.009502968
52	0x3d5d6fab	0.054061573
53	0xbb1e9af9	-0.0024201258
54	0xbc3c7786	-0.011503106
55	0xbbbc6b9e	-0.0057501337
56	0xbc060bec	-0.008181553
57	0xbc43a5f0	-0.011941418
58	0xbcccb819	-0.024990128
59	0x3c7bb482	0.015362861
60	0x3b13fc5a	0.0022580833
61	0xbd205c49	-0.03915051
62	0x3c8a3dec	0.01687523
63	0x3c6504dc	0.013978209
64	0xbd038777	-0.03211161
65	0xbd61ff40	-0.055175066
66	0x3c473bef	0.012160285
67	0x3c822262	0.015885536
68	0xbca19471	-0.019724103
69	0x3d630a48	0.055429727
70	0xbd9b3b39	-0.07579655
71	0x3cf1e0d5	0.029526154
72	0xbca5ff90	-0.020263463
73	0x3d0dc01f	0.03460705
74	0x3c9cc9a0	0.019139111
75	0xbd426e8b	-0.047468703
76	0x3d192e10	0.037397444
77	0x3c61d31a	0.013783241
78	0xbc0eab3f	-0.00870782
79	0x3d2bba59	0.04192576
80	0xbd208cc1	-0.039196733
81	0x3d3563f2	0.04428477
82	0xbc6b4a94	-0.0143610425
83	0xbc3567d2	-0.011072116
84	0x3d2b2b20	0.041789174
85	0x3d19fa4f	0.03759223
86	0x3d4e61de	0.050386302
87	0xbd450bc2	-0.048106916
88	0xbc882a3d	-0.016621703
89	0x3c22bdc4	0.009932939
90	0xbc83dd9a	-0.016096879
91	0xbc7e2479	-0.015511625
92	0xbcf8ae7c	-0.030356638
93	0xbc9fdc64	-0.01951427
94	0x3c60c7e1	0.01371953
95	0x3c7cb5cb	0.015424202
96	0xbbe64cb6	-0.0070281876
97	0xbca0b441	-0.019617202
98	0xbc4513f9	-0.012028688
99	0xbcc9d972	-0.024639819
100	0x3d14b803	0.0363083
101	0xbafffc12	-0.0019530079
102	0x3c835256	0.016030472
103	0xbbaeb59d	-0.0053317086
104	0x3c2ffb9c	0.010741141
105	0x39ee26c7	0.0004542379
106	0x3cdfed9b	0.027334979
107	0xbc4d598e	-0.0125335585
108	0xbce3ca47	-0.027806414
109	0x3c893ee5	0.016753623
110	0xbc10bd9e	-0.008834271
111	0xbcbf4972	-0.023350451
112	0x3c7e0cfa	0.015506024
113	0x3c40ad6d	0.011760098
114	0x3d2a012b	0.04150502
115	0x3b8f905f	0.004381224
116	0x3b594f0c	0.0033158688
117	0x3ce83b5b	0.028348615
118	0x3c37e346	0.01122362
119	0x3cf1bf41	0.029510142
120	0x3d2ae6eb	0.041724127
121	0x3d35901d	0.04432689
122	0x39561aee	0.00020418662
123	0x3c32fc9b	0.010924484
124	0x3b5f82b6	0.003410501
125	0xbcabdff1	-0.020980807
126	0xbcf11c57	-0.029432459
127	0xbd307d7f	-0.043088432
128	0x3c5b98f6	0.013403168
129	0x3d0a72fe	0.03380107
130	0x3bf3154f	0.0074183117
131	0xbd1e4b61	-0.038646106
132	0x3cea3745	0.028590808
133	0xbd30952b	-0.043111008
134	0x3c93506f	0.01798269
135	0xbd2e26aa	-0.04251734
136	0x3cef534f	0.02921453
137	0xbceb3551	-0.028711947
138	0xbd469f76	-0.048491918
139	0x3d408f6a	0.04701177
140	0xbd988134	-0.074465185
141	0xbd749335	-0.0597107
142	0xbcbc73ae	-0.02300438
143	0xbd04e12a	-0.032441296
144	0x3d51fbe6	0.05126562
145	0xbcfa7573	-0.030573582
146	0xbd2af106	-0.041733764
147	0x3c53a685	0.012918119
148	0xbc97ce04	-0.018530853
149	0xbd4baf7e	-0.04972791
150	0xbda46b44	-0.08028272
151	0x3d3fa34d	0.046786595
152	0x3c548092	0.012970107
153	0xbcc79a7c	-0.024365656
154	0x3d5b6eb6	0.05357238
155	0x3dd04083	0.10168555
156	0xbae818ad	-0.0017707549
157	0x3c79ce84	0.015246991
158	0xbce1cb36	-0.027562719
159	0x3d14261a	0.03616915
160	0x3cf28f78	0.029609427
161	0x3cdee4b6	0.027208667
162	0x3aba954f	0.0014235171
163	0x3d3d0777	0.046149697
164	0xbcc48668	-0.023989871
165	0xbd561839	-0.052269194
166	0xbc92fec1	-0.017943742
167	0x3c16840d	0.009186757
168	0x3bd08f3c	0.006364731
169	0x3caf22e0	0.021378934
170	0xbd09df91	-0.033660475
171	0x3d8b7bc2	0.06810714
172	0x3d62c419	0.055362795
173	0xbc4b4665	-0.01240692
174	0xbd21d648	-0.039510995
175	0x3ca2e5b2	0.019884918
176	0xbd0d7a6e	-0.034540586
177	0xbc784139	-0.015152269
178	0x3cc2e5f2	0.023791287
179	0x3d2d3f94	0.04229696
180	0x3c14580a	0.009054193
181	0xbd289b1c	-0.04116355
182	0x3cad1a01	0.021130564
183	0xbdb3249f	-0.08747219
184	0xbd63475e	-0.055487983
185	0xbcc9016d	-0.024536813
186	0x3c5bde15	0.013419648
187	0xbc39bfdc	-0.011337247
188	0xbb1ac75d	-0.0023617365
189	0x3c743553	0.014905292
190	0x3d16886c	0.036751196
191	0xbd1f11d6	-0.03883537
192	0xbc697baf	-0.01425068
193	0x3d8f2db4	0.06991139
194	0x3d09e36e	0.03366416
195	0xbdd208f5	-0.10255615
196	0x3c17da6e	0.009268386
197	0xbc3e4775	-0.011613716
198	0xbd8a3060	-0.06747508
199	0x3b7d340b	0.0038635756
200	0xbb912271	-0.0044291546
201	0xbd650349	-0.055911336
202	0xbd26671f	-0.040625688
203	0x3c9d59b0	0.019207805
204	0xbaf2d133	-0.0018525481
205	0x3cd1a880	0.025593042
206	0x3c4e1745	0.01257879
207	0xbd00b21c	-0.03141986
208	0x3d81c4c8	0.06336361
209	0xbd752e15	-0.0598584
210	0x3bb27d4c	0.0054470655
211	0x3c4e08a6	0.012575304
212	0xbd76cca7	-0.060253765
213	0x39369930	0.0001741394
214	0xbd38acc6	-0.045086645
215	0x3d03ad29	0.03214756
216	0x3d43cc34	0.047802165
217	0xb9e35e4a	-0.00043367065
218	0xbc3854ae	-0.011250658
219	0x3cf3ec5d	0.029775793
220	0xbc56136b	-0.013066153
221	0xbc98a40f	-0.018632917
222	0xbb7ed794	-0.0038885819
223	0x3bdab608	0.006674532
224	0xbd66e0c1	-0.056366686
225	0x3cc238eb	0.023708781
226	0xbd58adce	-0.052900128
227	0x3d85d28a	0.06534298
228	0xbd087b13	-0.033320498
229	0xbd7a67bd	-0.06113409
230	0x389ea558	7.564825e-05
231	0x3ca83e60	0.020537555
232	0xbcdde7fc	-0.027088158
233	0x3d8ce744	0.06880048
234	0xbcfda6f6	-0.030963402
235	0xbb688789	-0.0035481176
236	0x3dd2ba9c	0.10289499
237	0x3d0d3f9e	0.0344845
238	0xbcc6af36	-0.024253469
239	0x3c7296d2	0.014806466
240	0x3cf1d6d6	0.029521387
241	0x3d0e4ef7	0.034743275
242	0x3cf66a7c	0.030080073
243	0x3c91ad47	0.01778282
244	0xbcfc4669	-0.030795293
245	0xbd8f35be	-0.069926724
246	0x3b686f8e	0.0035466882
247	0xbdbc8695	-0.09205357
248	0xbc7d2c2a	-0.015452424
249	0xbd3b2cb6	-0.045696937
250	0x3d1f9fed	0.038970876
251	0x3a193bbc	0.0005845388
252	0x3da44436	0.08020823
253	0xbacfa7c5	-0.0015842846
254	0x3ca7dc56	0.020490807
255	0x3bdcec66	0.006742048

encoder.0.attention.values.bias f4 [64]
0	0xbbae285e	-0.0053148707
1	0xbc7f41b8	-0.015579633
2	0x3ca36e36	0.019950014
3	0x3ca0903d	0.019600028
4	0xbc35660b	-0.011071692
5	0x3c8d09fa	0.017216671
6	0x3cbb18d3	0.022838986
7	0xbbccb315	-0.006246934
8	0x3cb713bf	0.022348283
9	0x3c2c2f82	0.010509374
10	0x3bb44f02	0.0055025825
11	0x3b09876d	0.002098526
12	0xbb530f93	-0.0032205328
13	0x3ad11aef	0.0015953461
14	0x3ccb8664	0.024844356
15	0x3c7fc1d9	0.015610182
16	0xbc400836	-0.011720708
17	0x3c9c80d0	0.019104391
18	0x3c0301cf	0.007996037
19	0xbcc5d924	-0.024151392
20	0x3b9745e4	0.004616486
21	0xbb8a977a	-0.004229483
22	0x3cd60db3	0.02612958
23	0xbcd35578	-0.02579759
24	0xbca44044	-0.020050175
25	0xbb519727	-0.0031980963
26	0xbbb46831	-0.0055055846
27	0xbc7f1314	-0.015568513
28	0xbbbde79a	-0.0057954313
29	0x3c4428e8	0.011972643
30	0xbc931e29	-0.017958717
31	0x3d04ba9e	0.032404535
32	0x3c2b5965	0.010458325
33	0x3ac19db6	0.0014771733
34	0x3c77bdd5	0.015120943
35	0xbc349dc6	-0.011023944
36	0x3c8a01a4	0.016846485
37	0x3b5955d2	0.0033162725
38	0xbc3ff43b	-0.011715944
39	0xbad36389	-0.0016127686
40	0x3b2db5e8	0.002650613
41	0xbcfadbb0	-0.030622333
42	0xbce1f10d	-0.027580762
43	0xbc83dc37	-0.016096218
44	0xbc668522	-0.014069827
45	0xbcf94efc	-0.03043317
46	0x3c45a5fd	0.0120635005
47	0xbc597d20	-0.013274461
48	0xbc902f14	-0.017600574
49	0xbc797484	-0.015225533
50	0xbb3feb7b	-0.0029284644
51	0xbbe15733	-0.00687685
52	0xbc57f766	-0.013181543
53	0x3ba3f187	0.0050031575
54	0xba8f93e0	-0.0010954104
55	0x3b4cda0a	0.003125789
56	0x3c40d995	0.011770626
57	0x3b989d0b	0.004657393
58	0xbba7ee92	-0.0051248753
59	0x3cd913ea	0.026498754
60	0xbc0b8293	-0.008515018
61	0xbc455dd6	-0.012046298
62	0xbc2a3061	-0.010387511
63	0x3ba5a681	0.005055249

encoder.0.attention.fc.weight f4 [64, 64]
0	0x3ca890f3	0.02057693
1	0x3c0068ef	0.007837518
2	0x3cb0bbdb	0.021573951
3	0x3c82eb8e	0.015981462
4	0x3c944d24	0.01810319
5	0xbca2d534	-0.019877054
6	0xbd13b446	-0.036060594
7	0x3ad676c6	0.0016362302
8	0x3b79c4f5	0.003811178
9	0xb9b7b927	-0.0003504243
10	0xbce74efb	-0.028235903
11	0xbb5bc626	-0.0033534854
12	0xbd5441cb	-0.051820558
13	0xbb171662	-0.0023054113
14	0x3cd95189	0.026528137
15	0xbb1c5736	-0.0023855693
16	0xbacc41dc	-0.0015583592
17	0xbc66dd0c	-0.014090788
18	0x3d097d82	0.03356696
19	0xbc3733f7	-0.011181823
20	0x3b4fe46e	0.0031721848
21	0x3bc51d95	0.0060154893
22	0x3bc6f4ab	0.006071647
23	0xbc4478e9	-0.011991718
24	0xbaba6ade	-0.0014222523
25	0xbc96bfe4	-0.018402047
26	0xbc9c5336	-0.019082647
27	0x3cb3efd5	0.021964947
28	0x3d48533c	0.048907503
29	0xbc9d4a08	-0.01920034
30	0x3bc864d8	0.006115537
31	0x3c978bb7	0.018499238
32	0x3cdf3995	0.027249137
33	0x3cabcf76	0.020972949
34	0x3c157954	0.009123165
35	0x3cade57e	0.021227594
36	0xbc5e2abb	-0.013559992
37	0xbcb1fb05	-0.02172614
38	0xbd37368e	-0.04472976
39	0x3c8cb73b	0.017177215
40	0xbc845f58	-0.016158745
41	0xbbf77b85	-0.0075525665
42	0x3c1e6d52	0.009669619
43	0xbced6c1e	-0.028982218
44	0x3cab0956	0.020878475
45	0xbb219247	-0.0024653838
46	0x3bf48710	0.00746239
47	0xbd023bcf	-0.03179532
48	0xbc0c8612	-0.008576887
49	0x3c628021	0.013824494
50	0x3bb2c065	0.005455064
51	0xbcb6f024	-0.022331305
52	0x3c938e58	0.01801221
53	0x3b7cf775	0.0038599644
54	0x3c11c52b	0.008897106
55	0xbc6c11b4	-0.014408518
56	0xbd030041	-0.031982664
57	0xbc572710	-0.013131872
58	0x3cd9f5ec	0.026606523
59	0xbc2df3fb	-0.0106172515
60	0x3c9b2ac4	0.01894129
61	0x3bdcd0c4	0.006738754
62	0x3b80137d	0.003908573
63	0x3d074409	0.033023868
64	0x3d0dd222	0.034624226
65	0x3d15c32e	0.03656309
66	0xb9439bf4	-0.00018654746
67	0xbc812adf	-0.015767513
68	0xbbab85ed	-0.005234471
69	0x3c12f87f	0.008970379
70	0xbc40d54f	-0.011769607
71	0xbba52f98	-0.005041074
72	0xbc44dc5c	-0.012015428
73	0x3c9280f6	0.017883759
74	0xbc79ed9e	-0.015254406
75	0x3ba590a5	0.0050526434
76	0x3c45d329	0.01207427
77	0xbc165159	-0.009174668
78	0xbc427954	-0.011869747
79	0xbbd10386	-0.006378594
80	0xbd031407	-0.03200152
81	0xbc7422d4	-0.014900882
82	0x3c918969	0.017765718
83	0xbc7cf71e	-0.015439777
84	0x3c64bfa6	0.013961708
85	0xbcc93b21	-0.024564328
86	0x3cbdea9b	0.023183158
87	0x3c905a46	0.01762117
88	0x3d02819c	0.031861886
89	0x3cae96a9	0.021312075
90	0xbd2445ea	-0.040105738
91	0x3c5a3b3d	0.013319788
92	0xbcb89713	-0.022532975
93	0x3caefbdd	0.021360332
94	0xbcc9f9fe	-0.024655338
95	0xbcce4564	-0.025179572
96	0xbd1cf24e	-0.038317017
97	0xbc295a06	-0.010336405
98	0x3c83fb8e	0.016111162
99	0x3b75a403	0.0037481792
100	0x3cdf8ae2	0.027287904
101	0x3c5919de	0.013250796
102	0x3c4e3298	0.012585305
103	0xbcc70df2	-0.024298642
104	0x3cd6b293	0.026208198
105	0x3c92181d	0.017833764
106	0xbcd816ec	-0.026378118
107	0xbcd26750	-0.025684029
108	0x3c6c46a3	0.014421138
109	0xbc39555c	-0.011311855
110	0x3ce50b34	0.027959444
111	0x3bba60b8	0.0056877993
112	0x3cac3c21	0.021024765
113	0x3b1fce82	0.0024384563
114	0xbbff7d05	-0.007796886
115	0x3c316bb6	0.010828903
116	0x3bcbd677	0.0062206346
117	0x3b90d082	0.0044193873
118	0xbcfb2f59	-0.030662226
119	0x3cc04052	0.02346817
120	0x3c940562	0.018068973
121	0x3cde2786	0.027118456
122	0x3d23396e	0.03984969
123	0xbcb5a4c5	-0.022173295
124	0xbccd6e18	-0.02507691
125	0x3ccee344	0.025254853
126	0x3c087cc4	0.008330528
127	0x3bc1b1cf	0.005911089
128	0x3ca831a0	0.020531476
129	0xbc01fbad	-0.007933539
130	0xbc1b0b5c	-0.0094631575
131	0x3c95265c	0.018206768
132	0x3d2c7034	0.042099193
133	0xbcb252a9	-0.021767931
134	0xbd047207	-0.032335307
135	0xbc37663b	-0.011193807
136	0x3cdab529	0.026697712
137	0xbb9b867d	-0.004746257
138	0xbce3b987	-0.027798427
139	0x3b152a37	0.0022760758
140	0xbc1a8e92	-0.0094334055
141	0x3c293250	0.010326937
142	0x3abfb705	0.0014626688
143	0x3c55e8bd	0.013055977
144	0x3ac9ec3d	0.0015405488
145	0x3d03c517	0.03217038
146	0xbc076854	-0.00826462
147	0x3c000810	0.007814422
148	0x3cadc4c5	0.021211991
149	0x3c572bf4	0.013133038
150	0xbcd25d4f	-0.025679259
151	0xbc1c5e0a	-0.009543905
152	0x3c1b1381	0.009465099
153	0x393605a6	0.00017358977
154	0xbcf7a175	-0.030228356
155	0x3cae8add	0.02130645
156	0xbcc0fcdb	-0.02355807
157	0x3c5d320e	0.0135007035
158	0x3c3718b9	0.011175328
159	0x3cdbffc0	0.02685535
160	0x3c62fc4f	0.0138541
161	0x3c0841f9	0.00831651
162	0xbb90ec95	-0.004422734
163	0x3b2b5638	0.002614392
164	0x3cd54ceb	0.026037654
165	0xbc8e33d4	-0.017358698
166	0xbb99e40e	-0.0046963757
167	0x3b166547	0.002294855
168	0x3b210139	0.002456738
169	0x3cf12710	0.029437572
170	0x3b137b42	0.0022503887
171	0xba774f9e	-0.0009434166
172	0x3ba55bc7	0.005046341
173	0xbd1119b4	-0.035424903
174	0xbbe60817	-0.0070200074
175	0xbc1aa972	-0.009439813
176	0x3c5f58e2	0.013632031
177	0xbc4d81cf	-0.012543156
178	0xbc8050e2	-0.015663568
179	0xbb1f3d92	-0.0024298173
180	0xbc285d2e	-0.010276122
181	0xbb7a19d0	-0.0038162358
182	0xbc5ce9c2	-0.013483467
183	0xbcd6f1e0	-0.026238382
184	0x3c296020	0.010337859
185	0x3b7f2fb0	0.0038938336
186	0xbc2e726b	-0.010647397
187	0xbd129979	-0.035790894
188	0x3c14b8ff	0.00907731
189	0xbc9a36af	-0.018824903
190	0xbc99f386	-0.018792879
191	0x3cf2e17e	0.029648539
192	0x3cb32375	0.021867493
193	0x3ca36200	0.019944191
194	0xbca8cbe2	-0.020605031
195	0xbc090698	-0.0083633885
196	0xbcdd847e	-0.027040716
197	0x3d37164d	0.044699002
198	0xbbae200a	-0.005313878
199	0xbd0a7dcf	-0.033811387
200	0x3d079167	0.03309765
201	0xbd1698d9	-0.03676686
202	0xbc37f2cd	-0.011227322
203	0xbc9e485b	-0.019321611
204	0x3cd9ae8c	0.026572488
205	0xbc8f8c92	-0.017523084
206	0xbc591fa0	-0.013252169
207	0xbcd48fcb	-0.025947472
208	0xbbfb570b	-0.0076702884
209	0x3c8f6f1f	0.017509041
210	0xbbaeb5ce	-0.0053317314
211	0xbd6614d4	-0.056172207
212	0xbc57343d	-0.013135013
213	0x3c1bbb1c	0.00950506
214	0xbbd19cf5	-0.0063968846
215	0x3bd6697c	0.0065433364
216	0x3c0388df	0.008028238
217	0x3d0f2ec2	0.0349567
218	0xbc4a7202	-0.012356283
219	0xbc74eee2	-0.014949532
220	0x3bb90501	0.0056463485
221	0xbc00e98b	-0.007868181
222	0xbd309fb4	-0.043121055
223	0x3a9a95dc	0.0011793929
224	0xbb8e2b14	-0.0043386314
225	0x3aab52ae	0.0013070905
226	0xbc0da7bb	-0.008645947
227	0x3cdda3dc	0.027055673
228	0x3ce24e6e	0.027625289
229	0xbb5998c4	-0.0033202628
230	0x3cd23b0a	0.025662918
231	0x399e37db	0.00030177724
232	0x3cced21d	0.025246674
233	0xba60253c	-0.000855047
234	0xbc3ad5f5	-0.01140355
235	0x3b350c46	0.0027625724
236	0xbb387901	-0.0028148296
237	0xbc7d058e	-0.015443219
238	0xbd07746f	-0.033070024
239	0xbbe1e1f7	-0.006893392
240	0xbb1792ae	-0.00231282
241	0x3c9ca84d	0.01912322
242	0x3cd925f4	0.026507355
243	0x3cb0bf0f	0.021575479
244	0x3cbbbd45	0.0229174
245	0xbd076d8f	-0.033063468
246	0x3c46a52b	0.01212434
247	0x3c18ebc9	0.009333559
248	0x3d036c69	0.03208581
249	0xbd056f67	-0.032576945
250	0x3cf24795	0.029575149
251	0x3d593e81	0.053038124
252	0x3ca410b0	0.020027488
253	0x3d5878ea	0.052849688
254	0xbb89a962	-0.0042011
255	0x3b8e7f9d	0.004348709
