model/mnist/tune_lr0.0001_ed64_nl6_nh2_fm2_ps4/temp_model.pt (torch, 875757 bytes, 106 tensors)

embedding.cls_token f4 [1, 1, 64]
000000 89 c1 b5 3b 5b 34 62 39 4c 7a 10 bb 6d 67 c9 ba
       0.005546753 0.00021572543 -0.002204555 -0.0015365906
000010 42 d9 5c 3b 61 d0 94 bb 3c 0b 91 b9 0b 0d 93 3b
       0.0033698832 -0.0045414423 -0.00027664925 0.004487639
000020 f3 4b 46 bb 2d 7c b0 3b ac 73 98 3b 9e 2f 33 bb
       -0.0030257672 0.0053858967 0.004652461 -0.0027341614
000030 61 eb bd bb 7a 2a 33 bb 1f 2f 1e 3b fa 2a 5e bb
       -0.0057958816 -0.002733855 0.0024136973 -0.0033900128
000040 19 6a af 38 b8 18 9a 3b 33 eb 53 3b a9 6c 84 bb
       8.3644125e-05 0.0047026537 0.0032336235 -0.0040412736
000050 28 c6 9c bb 56 42 4e bb fa 4f 4b 3b f9 63 92 b7
       -0.0047843643 -0.0031472645 0.0031023012 -1.745111e-05
000060 3f 0d 62 3b de f9 8f 3b fd f9 7d 3b 0f a9 ab 3b
       0.0034492759 0.0043938 0.003875374 0.005238659
000070 cf 16 f7 bb f2 e9 94 3b b3 0e c2 bb b8 df e3 3b
       -0.007540561 0.00454449 -0.0059221624 0.0069541596
000080 0f a8 0f 3b 96 3e 66 3a 8d 4b de 3b 2f 4d e0 3b
       0.002192024 0.000878313 0.0067839087 0.0068451385
000090 7c 58 94 bb f4 c4 c9 ba 97 d8 00 bc 8e 61 d0 ba
       -0.0045271497 -0.001539378 -0.007864139 -0.0015898214
0000a0 36 72 3e bb 1c 1a 14 bb 04 da 10 3a 03 13 28 bb
       -0.0029059774 -0.002259857 0.0005525651 -0.0025646097
0000b0 24 ce 18 3b 9d 47 4d bb b3 b8 91 3b 9a 65 93 bb
       0.0023316229 -0.0031323202 0.0044470667 -0.004498196
0000c0 87 83 98 bb f8 6a 97 bb 6a 46 93 3b d2 10 78 ba
       -0.004654351 -0.004620906 0.004494478 -0.00094629556
0000d0 86 98 6a bb f4 65 53 3b 2f da 09 bb 29 5d 44 39
       -0.0035796477 0.0032256814 -0.0021034589 0.00018726721
0000e0 a9 3c 17 39 ff 44 b1 bb 7c 79 04 bb 1b f8 5e bb
       0.0001442308 -0.0054098363 -0.0020214012 -0.0034022394
0000f0 1b 20 4f bc 7e 95 6f 3b 69 49 3f bc 3e 13 af 3b
       -0.012641932 0.003655761 -0.011675217 0.00534287

embedding.pos_embedding f4 [1, 50, 64]
000000 8c c1 b5 3b a7 34 62 39 46 7a 10 bb 6e 67 c9 ba
       0.005546754 0.00021572654 -0.0022045537 -0.0015365907
000010 42 d9 5c 3b 5e d0 94 bb 3f 0b 91 b9 0b 0d 93 3b
       0.0033698832 -0.004541441 -0.00027664934 0.004487639
000020 fb 4b 46 bb 30 7c b0 3b a9 73 98 3b a3 2f 33 bb
       -0.003025769 0.005385898 0.0046524596 -0.0027341626
000030 5e eb bd bb 78 2a 33 bb 29 2f 1e 3b fe 2a 5e bb
       -0.00579588 -0.0027338546 0.0024136996 -0.0033900137
000040 31 69 af 38 bb 18 9a 3b 36 eb 53 3b ac 6c 84 bb
       8.364244e-05 0.004702655 0.0032336242 -0.004041275
000050 23 c6 9c bb 47 42 4e bb 00 50 4b 3b 26 64 92 b7
       -0.004784362 -0.003147261 0.0031023026 -1.7451192e-05
000060 42 0d 62 3b e3 f9 8f 3b f3 f9 7d 3b 0b a9 ab 3b
       0.0034492766 0.0043938025 0.0038753718 0.0052386574
000070 cb 16 f7 bb f2 e9 94 3b b7 0e c2 bb bd df e3 3b
       -0.007540559 0.00454449 -0.0059221643 0.006954162
000080 18 a8 0f 3b 74 3e 66 3a 88 4b de 3b 2d 4d e0 3b
       0.002192026 0.000878311 0.0067839064 0.0068451376
000090 84 58 94 bb fc c4 c9 ba 9c d8 00 bc 8e 61 d0 ba
       -0.0045271534 -0.0015393789 -0.007864144 -0.0015898214
0000a0 3a 72 3e bb 18 1a 14 bb 06 da 10 3a 05 13 28 bb
       -0.0029059784 -0.002259856 0.0005525652 -0.0025646102
0000b0 2a ce 18 3b 9d 47 4d bb b1 b8 91 3b 98 65 93 bb
       0.0023316243 -0.0031323202 0.0044470658 -0.004498195
0000c0 83 83 98 bb f2 6a 97 bb 67 46 93 3b c5 10 78 ba
       -0.0046543493 -0.004620903 0.0044944766 -0.0009462948
0000d0 8e 98 6a bb ea 65 53 3b 30 da 09 bb de 5c 44 39
       -0.0035796496 0.003225679 -0.002103459 0.00018726612
0000e0 eb 3c 17 39 fe 44 b1 bb 7a 79 04 bb 1a f8 5e bb
       0.00014423176 -0.005409836 -0.0020214007 -0.0034022392
0000f0 1b 20 4f bc 83 95 6f 3b 6a 49 3f bc 3b 13 af 3b
       -0.012641932 0.0036557622 -0.011675218 0.0053428686
000100 7e d2 24 bc 40 da e2 bb 16 cc c1 bb 53 93 56 ba
       -0.010059951 -0.00692299 -0.0059142215 -0.0008185405
000110 13 fa 34 bc 56 1c ec 39 f1 7a 69 3a ad 40 31 3c
       -0.01104595 0.0004503454 0.00089065643 0.010818643
000120 7c 2c 1e 3c fd 7d 53 3b 42 61 1c ba 38 4e a0 3a
       0.009654161 0.003227114 -0.000596542 0.0012230342
000130 ab 89 5c bb 82 f0 d4 3b 1d bd 09 3c 40 eb 0a bb
       -0.0033651392 0.0064983973 0.0084069045 -0.0021197349
000140 8d f0 e9 bb 49 fe 4a bc c0 8b 3b 3b 8a 77 38 bb
       -0.0071392716 -0.012389728 0.0028617233 -0.0028147423
000150 e8 d0 ea 3b f4 b4 14 3c 35 eb fc ba 3e 2f 3e bb
       0.007166017 0.009076346 -0.0019296171 -0.0029019858
000160 90 93 2a bc 33 93 a0 bb 51 9e 14 bc 66 d7 9e bb
       -0.010411158 -0.00490036 -0.009070949 -0.004847455
000170 52 a8 45 3a 2f ec d5 3b 29 25 ab ba 5f ee f0 bb
       0.00075400353 0.0065283994 -0.0013057339 -0.007352635
000180 e7 0f ba 3a 8c 97 38 bc a1 d0 c8 3b d4 88 83 3b
       0.0014195413 -0.0112666 0.006128386 0.004014114
000190 61 52 8e 3b 6c ab 7e 3b a0 6b e3 ba 77 f6 b2 ba
       0.0043433164 0.00388595 -0.00173508 -0.0013653775
0001a0 8d 51 aa 3b a7 6c a5 bb 4e 92 0e 3c 63 05 6a bb
       0.00519771 -0.0050483528 0.008701874 -0.0035708777
0001b0 9d 28 b1 3b 0c 5f 6f bb 46 dd ba 3b e2 6b e2 3b
       0.005406453 -0.0036525158 0.0057026474 0.0069098333
0001c0 58 8a 2f bc 9f b6 2c 3c 91 60 9c 3b cb 1c 6f 3c
       -0.010714136 0.010541587 0.004772254 0.014594267
0001d0 9a 5d b4 ba 70 ee 2f bc aa e4 85 b9 f7 73 01 3b
       -0.0013760806 -0.010738 -0.00025538105 0.0019752958
0001e0 9a ab 58 bc cf d1 df 3b 72 d1 0c bc 05 80 05 3c
       -0.013224507 0.006830431 -0.0085948575 0.008148198
0001f0 06 64 55 bb d2 f4 d1 3b f2 72 bf b9 fb 4c 43 bb
       -0.003256084 0.0064073587 -0.00036516 -0.0029800523
000200 4a 20 14 bc 1e 40 9a bb 9d ad 9c bb 89 60 20 3a
       -0.009040901 -0.0047073504 -0.0047814385 0.00061179005
000210 6b 53 0e bc 30 a7 d7 3a 0b 8f 16 3b 2f b0 06 3c
       -0.008686881 0.0016453024 0.0022973444 0.008220716
000220 52 38 fa 3b b4 8c 4e 3b d8 ac b4 ba 28 1f 80 3b
       0.0076361084 0.003151697 -0.0013784422 0.003909964
000230 18 e7 25 bb 4a 20 f9 3a 3c b4 b5 3b 60 96 79 ba
       -0.0025314745 0.0019006815 0.0055451673 -0.0009521004
000240 aa 2d d2 bb 43 da 2a bc b4 76 2d 3b 1a 21 13 bb
       -0.006414135 -0.010428014 0.0026468458 -0.002245015
000250 16 61 a5 3b b2 d8 fb 3b cc 87 0e 39 9b 6b 8d bb
       0.005046974 0.007685744 0.00013592764 -0.004315806
000260 47 80 0c bc 7c 4d ce ba 0c cd 30 bb 1c 98 47 ba
       -0.008575506 -0.0015739645 -0.0026977686 -0.00076139136
000270 0f 12 6b b9 fc e8 9a 3b 22 0d af b9 94 4c f3 bb
       -0.00022418074 0.004727481 -0.00033388386 -0.0074249003
000280 93 40 01 3a 2e 22 10 bc 13 91 70 3a 31 96 85 3b
       0.0004930582 -0.008797212 0.0009176891 0.004076742
000290 29 4d e3 3a fe 9a b9 3a 22 be 98 bb 9c 61 e1 ba
       0.0017341721 0.0014160571 -0.0046613375 -0.0017195228
0002a0 4a 65 90 3b e3 ce 39 bb e6 41 e2 3b 2a b8 4d bb
       0.004406606 -0.0028352074 0.0069048284 -0.0031390288
0002b0 c3 3d 03 3b 04 25 ec ba b0 db ca 3b 14 5d 12 3c
       0.0020025827 -0.0018016403 0.0061907396 0.008933324
0002c0 32 09 2e bc 56 fe 04 3c d5 6c b9 3b 76 18 44 3c
       -0.0106223095 0.008117279 0.0056587257 0.011968723
0002d0 e9 9a 04 bb b7 08 39 bc 90 af 4f bb c0 f1 9f 3a
       -0.0020233935 -0.011293582 -0.0031690337 0.0012202784
0002e0 53 db 2b bc 65 c0 8a 3b 2c 4e 75 bb 76 e6 c7 3b
       -0.010489303 0.004234361 -0.0037430627 0.006100471
0002f0 ce 22 2d 3a 10 a4 2b bb 5a ed 27 3b 4f 34 b5 ba
       0.00066046126 -0.0026190318 0.002562365 -0.0013824793
000300 ae bf 9f 3b 4a 4f 29 3c 50 05 4d 3c e1 44 6d 3c
       0.004875145 0.010333845 0.012513474 0.014481754
000310 3a 97 02 3c b0 d0 85 3c 2b 99 f0 3c 80 40 06 bc
       0.007970626 0.016334862 0.029369911 -0.008194089
000320 ca ef d6 bb d3 b4 2d bc 68 46 37 bc d0 38 d4 3a
       -0.006559347 -0.010602194 -0.01118622 0.0016191248
000330 9f de 61 3c 87 68 95 bc ea be 58 bc 9f 03 10 3c
       0.013785987 -0.01823832 -0.013229111 0.008789926
000340 f4 bb 6c bb 5b b9 82 3a 8b 46 05 3c bf 63 73 bc
       -0.003612277 0.0009973453 0.008134495 -0.014855324
000350 d4 57 0c bc 13 cd 8d ba 97 94 88 39 d9 b4 01 bc
       -0.008565862 -0.0010818563 0.0002605065 -0.007916653
000360 f7 9a db 3b fe 7c 7f 3c d9 16 96 3b b7 38 3f 3c
       0.006701823 0.015593765 0.0045803604 0.011671237
000370 b3 c2 fd bb 24 cc a0 ba 56 02 42 3b 8f f4 26 bc
       -0.007744157 -0.001226787 0.0029603443 -0.010190143
000380 cb 2e 09 bc fe a8 a1 bb 93 a5 85 bc 46 5c 49 bb
       -0.008372973 -0.0049334755 -0.016314304 -0.0030725165
000390 d0 0b 6a bc 04 a8 5f bc 0b de a0 bc fa 1b 0e 3c
       -0.014285043 -0.013650898 -0.019637128 0.008673662
0003a0 18 34 1a bb 7b 35 2f 3c 10 85 f8 3b 5f df d8 3b
       -0.0023529585 0.010693903 0.0075842217 0.006618425
0003b0 8f 93 68 bc 67 6d 90 3b 7f 9d 7e 3c e1 9a 3d 3c
       -0.014195337 0.004407573 0.01554048 0.011572571
0003c0 da f2 84 bc c0 c6 15 bc 3e 3e 3e bb 33 c2 06 bc
       -0.016229082 -0.009141624 -0.0029028798 -0.008225012
0003d0 98 67 79 bc bb 6b ee bb d6 a7 b7 bc 55 47 16 bc
       -0.015222453 -0.007276026 -0.022418898 -0.00917228
0003e0 4c 5a 35 3b e0 48 03 bc 0a 27 f8 3c fe 0b 0a bb
       0.002767223 -0.00801298 0.030292053 -0.0021064277
0003f0 5d 55 2d 3c 69 57 f8 bb 1b c0 fa 3c 16 08 06 3b
       0.010579434 -0.0075787795 0.030609181 0.0020451597

embedding.conv1.weight f4 [64, 1, 4, 4]
000000 40 dc a1 3a e4 96 bd bc e9 d5 d0 3c ee df d4 3c
       0.0012348965 -0.02314324 0.025492625 0.025985684
000010 e6 c2 3b 3d 9d 38 70 ba c1 af f3 3b a5 cb c0 3b
       0.045840167 -0.00091637095 0.007436723 0.0058836513
000020 20 c8 6b 3c 98 5a ed bc b2 70 30 3c f6 a0 9d 3c
       0.014390975 -0.028973863 0.010769056 0.019241791
000030 59 f4 62 bd 6f d9 6c bc 0a 65 26 3c 42 66 57 bc
       -0.05540881 -0.014456137 0.0101559255 -0.013146939
000040 6d 76 6a 3b 88 47 9a bb 3e 12 d1 3c 71 3e 7e 38
       0.0035776154 -0.004708234 0.025521394 6.0616472e-05
000050 3a 13 09 3c 7f 7d f9 bb 28 5e 4e 3b f0 92 c7 bb
       0.0083664 -0.0076138373 0.0031489227 -0.0060905144
000060 77 61 44 bd f8 88 c4 3b 32 cc d7 bb e2 d2 bf 3c
       -0.047944512 0.0059977733 -0.0065856213 0.023415986
000070 bb 9a 43 bc 2a 31 70 bc 40 47 35 bc 2e 97 f9 3c
       -0.011938746 -0.014660159 -0.011064351 0.030467596
000080 41 25 8d 3b 79 3f f2 bc 24 ae ff bb 59 97 5c bc
       0.0043074195 -0.029571282 -0.0078027416 -0.0134638185
000090 45 ff 41 3c ef 7f 2e 3d 42 4a c2 b9 87 2c e1 bc
       0.011840646 0.042602476 -0.0003705789 -0.027487053
0000a0 97 4e 29 bc 2f d3 fa 3c fb 32 f2 bc df a7 08 3d
       -0.010333679 0.030618278 -0.029565325 0.03336322
0000b0 e9 a4 26 bc 99 de df 3c d6 f6 42 bd b2 e5 53 3c
       -0.010171154 0.027327823 -0.047598682 0.012933182
0000c0 66 24 9d b6 b7 fe f2 3c 5b b4 f8 39 23 fd 87 bc
       -4.683202e-06 0.029662473 0.0004743662 -0.016600197
0000d0 ad e3 e9 3c cd eb c7 3c 42 4d 19 3c 58 12 98 bb
       0.028550947 0.02440443 0.009356799 -0.0046408586
0000e0 b7 d0 8b 3c da d5 01 bc 21 00 93 bb e2 47 4c 3b
       0.017067296 -0.007924521 -0.0044860994 0.0031170775
0000f0 64 79 37 bd be f2 0c bc a9 44 03 bc f3 98 4f 3c
       -0.0447935 -0.008602796 -0.008011975 0.012670743
000100 69 a7 0b 3d ac 0c ce 3c 46 0c 53 bc 28 e3 fa bb
       0.0340952 0.025152527 -0.012881344 -0.0076564737
000110 6a 32 b3 bc 1f 3e c6 3c 62 bd d0 bb f4 51 95 bc
       -0.021874625 0.024199544 -0.0063702324 -0.018227555
000120 3e 15 33 bc 5b 7b 8a 3c a1 1b ae bc c5 fb ad ba
       -0.0109303575 0.016904524 -0.021253409 -0.0013273886
000130 19 72 0b bb ed 25 fd 3b 3a 7e a0 bb f2 ba 01 bc
       -0.0021277724 0.0077254684 -0.00489786 -0.007918106
000140 f9 3d bc 3c 9e 4b 8a bc ed 77 e6 3b 10 2c da bc
       0.02297877 -0.01688176 0.0070333392 -0.026632339
000150 ee 39 29 3b 89 9c bf bc 23 cb c0 3a fa d2 a7 3c
       0.0025821882 -0.023390071 0.0014708977 0.020486344
000160 fd f8 ac 3c 63 f6 6a 3c 37 f1 77 bc 1d 55 bb bc
       0.02111482 0.01434097 -0.015133194 -0.022867734
000170 33 e6 87 bc b3 6c 3c bd 12 27 b2 bb c0 7c 1a 3d
       -0.01658926 -0.0460021 -0.0054367865 0.037716627
000180 15 15 06 3d eb 34 9b bb 73 12 9f 3c dd 1e c6 bb
       0.03273495 -0.004736533 0.019417977 -0.0060461597
000190 81 11 2f 3c 70 66 3a bb bb 1f aa 3b c5 ab b9 bc
       0.010685326 -0.0028442405 0.005191771 -0.022664914
0001a0 51 09 e8 bb e0 57 c9 3b 12 53 35 bd d7 b7 75 bc
       -0.0070811887 0.0061445087 -0.044268675 -0.014997444
0001b0 66 72 e8 bc 5e dc 3e bd 75 68 99 3b 58 36 bb 3c
       -0.028374862 -0.046596877 0.0046816417 0.022853062
0001c0 4b 72 60 3c 03 ca 42 39 23 7f 43 bc 04 9c b6 3c
       0.013699125 0.00018576537 -0.011932167 0.02229119
0001d0 c5 bd 8a bc d3 6e 30 bc 4f 00 06 bc b2 44 93 3b
       -0.016936192 -0.01076861 -0.0081787845 0.004494273
0001e0 3b 26 9f 39 17 40 cc bc 6a 88 c9 bc 3e 48 bb 3c
       0.00030355327 -0.024932904 -0.02460118 0.022861596
0001f0 cc 2e d0 bb be b0 1e 3a c3 80 5d 3c f2 fb 93 3c
       -0.006353235 0.00060535583 0.013519469 0.018064473
000200 f6 3a 54 bb 41 4b 16 3c 91 b9 3f 3c 89 6f 80 bb
       -0.0032383776 0.009173215 0.011701957 -0.003919546
000210 20 0d 91 3c 81 8e 57 39 83 fb e5 bc 57 af 86 3c
       0.017706454 0.00020557085 -0.028074032 0.01644103
000220 7f 1a 03 bd 1d 6e f0 3a 0e 41 91 3c d5 28 3d bd
       -0.03200769 0.0018343363 0.017731216 -0.04618152
000230 02 33 2b 3c 72 d3 bb 3c 35 10 9a bc c4 d8 8d 3c
       0.010449173 0.022927973 -0.018806556 0.017315276
000240 13 8e b1 bc 6a 31 c8 3b 0f 65 2e bb 11 6c 92 3c
       -0.021674192 0.0061094062 -0.0026610529 0.017873796
000250 40 c9 3a bc 9a 08 a0 bc 56 1a 8f 3a 64 c2 9e ba
       -0.011400521 -0.019535352 0.0010917883 -0.0012112376
000260 f9 3e 5f 39 b6 45 4b 3c b4 04 51 3c b4 20 c0 3c
       0.00021290396 0.012406757 0.012757469 0.023453094
000270 26 fa 93 bc b5 61 0e 3d 69 ba c2 3c 87 b2 88 3b
       -0.018063616 0.03476115 0.023770528 0.0041716727
000280 af db 72 bc 77 ee ed bb 58 1f b6 39 31 33 1d 3b
       -0.014822884 -0.0072610932 0.00034737098 0.0023986811
000290 cf 5b 32 3c 78 4a 67 3c f1 17 15 3b 17 bd 46 bc
       0.010886147 0.014116876 0.0022749866 -0.0121300435
0002a0 df d7 96 bc 8c 8f 93 3c 89 5b 31 3c 53 2c e1 bc
       -0.018413482 0.018012784 0.010825046 -0.027486956
0002b0 57 8f 01 bb 91 99 bc 3b 36 36 ce 3b d5 35 fd ba
       -0.0019769275 0.005755611 0.0062930835 -0.0019318411
0002c0 50 56 39 bd 27 e8 15 3c d0 fe 48 bc de f4 0a bc
       -0.04524833 0.009149588 -0.012267783 -0.008481232
0002d0 b9 9a c5 3c e5 64 8c 3c 16 a4 99 bb a6 77 33 3c
       0.02412163 0.017137954 -0.00468875 0.010953819
0002e0 fd d5 cb bc d3 62 ba 3b ea 13 4b bb ef 62 02 3d
       -0.024882311 0.0056880503 -0.0030987212 0.03183263
0002f0 b1 ce 31 3a d9 42 ce 3a 48 6b e3 3c d5 cc 50 bb
       0.00067828136 0.0015736475 0.027761117 -0.003186037
000300 f9 8a de 3c c9 29 7e 3c 8a ac d1 bb e0 0c 3d bc
       0.027165877 0.015512892 -0.006398742 -0.011538714
000310 95 61 dc 3c 7c 1a 16 3b f0 7e 9d 3c 79 cd b4 bc
       0.026902 0.002290397 0.019225568 -0.022070633
000320 97 75 23 3c 6b 7a 39 b9 09 a5 ab bb 85 1c 13 bd
       0.009976766 -0.00017688579 -0.0052381796 -0.03591587
000330 7a 1e b6 bc 66 ee 5c bc 4b c5 64 3b 91 0e c9 bc
       -0.02223133 -0.013484573 0.0034907635 -0.024543079
000340 6d e8 ec 3c c7 50 95 3c 2d 3c 52 bb 63 a9 c4 3c
       0.028919423 0.018226994 -0.0032079325 0.024006551
000350 7e 86 a4 3b 80 e0 a4 bc 3f 44 3b 3c 0d b8 2a bc
       0.0050209155 -0.020126581 0.011429845 -0.010419858
000360 ef bc cc bb 4e aa cb ba c9 8e d1 bc ab f1 6c 3c
       -0.0062481086 -0.0015538426 -0.02558078 0.014461915
000370 29 57 e9 bc 5c a2 9d bc 12 95 a1 3c f0 14 7b bc
       -0.028483944 -0.019242458 0.019724403 -0.015324816
000380 b0 20 d4 3c 2c ea 37 bd c0 84 2c bc c7 d7 6b 3c
       0.025894493 -0.044901058 -0.010529697 0.014394707
000390 e8 fd 89 bb cd 04 e5 bc 5e 07 99 bc e4 ad 44 3c
       -0.004211176 -0.02795639 -0.01868027 0.012004349
0003a0 93 de e4 3b 0c 3a 20 3b 81 5a b6 39 1d 26 15 bc
       0.0069845407 0.002444866 0.00034781176 -0.009103325
0003b0 c0 12 c7 b9 7c 27 7a 3b 52 f9 5b 3c de dc 22 bb
       -0.00037970208 0.0038170507 0.013426142 -0.0024850885
0003c0 03 4e 54 3d 85 b6 8e bb 72 2b b4 3c 6e 90 4b bd
       0.05183221 -0.004355254 0.021993373 -0.049698286
0003d0 e9 a9 72 3c b4 d5 ca 3c 53 18 48 bc 97 4f 87 3c
       0.014811018 0.024760105 -0.012212831 0.016517444
0003e0 1e a9 2a bb 4c 8f 8a 3a ca 82 d8 3c 36 71 c5 3b
       -0.0026040743 0.001057127 0.026429553 0.0060254587
0003f0 6d 17 a4 bc 21 d9 0d 3d ab d9 86 bc c8 bf 2a bc
       -0.020030702 0.0346309 -0.016461214 -0.010421701

embedding.conv1.bias f4 [64]
000000 ca 81 dc 3b dc b8 44 3c 7f 52 88 bb ce 2a ba 3b
       0.0067293392 0.012006965 -0.004160225 0.0056813722
000010 c6 6a 4c 3b a8 13 be 3b 6f c5 ba b9 92 c0 5f bb
       0.0031191572 0.005800683 -0.00035623784 -0.003414188
000020 81 c2 93 bb 13 be cf ba df 98 18 bc 9f f3 0a 3c
       -0.0045092707 -0.0015849493 -0.009313791 0.008480935
000030 2e 5d 86 3b dd 29 1c bc 78 4d 69 bb 1b 8e 04 3c
       0.0041004634 -0.009531465 -0.0035599153 0.008090521
000040 34 e8 4d 3b d1 73 7c 3b 13 c8 0a 3b cf 4d 80 bb
       0.0031418921 0.003852118 0.0021176382 -0.0039155255
000050 ba 27 af bb 49 95 8d ba 11 a3 d4 bb 1b a0 0d 3c
       -0.005345312 -0.0010801937 -0.0064891656 0.008644129
000060 1f fd ee 3b 5e c5 3e 3c d6 f1 55 3b 79 0e 62 3b
       0.007293358 0.011643736 0.0032645366 0.003449349
000070 9b dc 81 bb 3c 8c dd bb d4 b7 8e bb 6b 5e aa bb
       -0.003963066 -0.006761102 -0.00435541 -0.005199244
000080 12 b9 15 bc fc d1 a2 3a 7c 7e e2 ba e4 fd 5c bb
       -0.0091383625 0.0012422199 -0.0017280127 -0.0033720667
000090 0d 0d d2 bb c1 c9 8d bb a0 0d 01 bc eb c3 60 bb
       -0.006410247 -0.0043270295 -0.007876784 -0.0034296464
0000a0 68 c5 ce 3a 5d af 4c 3c f1 fb 9b ba 4d 36 da 3b
       0.0015775384 0.012492982 -0.0011900646 0.006659305
0000b0 2c 36 55 bc 4d 82 2a 3c 79 32 b3 3b 3e 23 56 3c
       -0.013013404 0.010407043 0.0054686633 0.013069926
0000c0 a7 97 81 bb 54 3a 0b bc 86 0d d3 3a f6 24 7c bb
       -0.003954846 -0.008497793 0.0016102053 -0.003847418
0000d0 c1 d9 97 3b 01 ad ec ba 8e b1 80 bb c6 a7 0b 3a
       0.0046341126 -0.001805693 -0.003927416 0.00053274294
0000e0 5d 47 12 3c 04 9a 0f bc 78 42 9d 3c 4a 66 96 bb
       0.008928147 -0.0087647475 0.019196734 -0.0045898305
0000f0 8d 68 13 3c f6 55 b6 ba 0c 47 76 3b 15 20 41 3b
       0.008997095 -0.0013911116 0.0037578968 0.0029468585

encoder.0.attention.queries.weight f4 [64, 64]
000000 2c c3 4c 3d 4d be a4 bc 37 d6 1b bd 3d 8f 6b bc
       0.049990818 -0.020110274 -0.038046088 -0.014377412
000010 e7 b4 79 bc d0 8e 1f bd c6 85 3e bd 4a a5 6a bc
       -0.015240884 -0.038954556 -0.046514295 -0.014321635
000020 3a f1 92 b9 77 1e 31 3d e6 58 04 3c 02 79 7f 3d
       -0.00028027018 0.043241944 0.008077836 0.06237126
000030 53 2e 26 bd 7e 40 df 3c c5 3c ac bc c8 7a 3c 3d
       -0.040571522 0.027252432 -0.02102507 0.04601553
000040 df 80 e1 3c a4 2b d7 3c f3 a5 37 3d e2 d8 88 bc
       0.02752727 0.026265927 0.044835996 -0.01670498
000050 48 61 ee bc 2d b4 66 3c d4 4c 94 3a 35 7d 07 3d
       -0.029099122 0.014081043 0.00113144 0.03307839
000060 dd c5 88 bc b2 df 99 3c 75 04 83 3c 32 91 fb 3c
       -0.016695911 0.018783424 0.015993336 0.030708883
000070 89 d2 ce bc fa 8e 2b bc c4 e4 67 bd 76 e1 c1 bb
       -0.025246875 -0.0104711 -0.056614652 -0.0059167696
000080 e3 4f 40 bd be 4e a8 3d 30 5b 13 3d e3 43 66 3d
       -0.046951186 0.08218144 0.035975635 0.056217086
000090 3e e5 68 bd a6 1b 89 bd 36 ba 26 bd 0c bb 8e bd
       -0.056859247 -0.06694727 -0.04070493 -0.0696927
0000a0 06 ee 20 bc e3 b5 0a bc 4f 0e 32 3c b7 58 98 3c
       -0.009822374 -0.008466217 0.010867669 0.01859699
0000b0 d8 a8 8d bb 6a d4 21 bd 21 8a 42 3d b4 fe 51 bd
       -0.0043231063 -0.039509214 0.04749501 -0.051268294
0000c0 36 a7 1a 3c a3 d4 3e 3b 65 28 7c 3d f5 dd 16 bd
       0.00943928 0.002911844 0.06156196 -0.03683277
0000d0 a0 f8 15 3d c8 2b 3b bd 90 92 01 3c 7a dd cc 3c
       0.03661406 -0.04569605 0.007908478 0.025007952
0000e0 42 76 03 3d 2a 40 48 bd 69 6b 0f bd 81 c7 77 bd
       0.0320952 -0.048889317 -0.035014544 -0.060492996
0000f0 88 a5 95 3c cb 20 74 3c 69 90 8f bd f3 51 1b 3d
       0.018267408 0.014900397 -0.07009966 0.03791995
000100 fd 1b 4c 3d 98 59 87 bc b4 c8 23 bc 71 08 4b 3c
       0.04983138 -0.016522214 -0.009996582 0.012392149
000110 e4 8a 8c bb a1 d6 a3 bd 97 38 68 bd c0 8e 60 bc
       -0.004289018 -0.079999216 -0.056694593 -0.013705909
000120 3d fe 08 bd 76 80 a5 3d 4a 8a 07 3c af 49 75 3d
       -0.033445586 0.080811426 0.008272717 0.059884723
000130 4f ec 90 bd 18 8d 7e bb ba 31 04 bd a3 d4 9d 3c
       -0.07076322 -0.0038841423 -0.032273985 0.019266432
000140 d7 5b 7d 3d 06 dc 6c 3d 9e ca 39 3d fb 5e e2 bc
       0.061855163 0.05782702 0.045359246 -0.02763318
000150 f2 1f 78 3c 35 20 b4 bc 87 b6 b8 bc 48 0d 5e 3d
       0.015144335 -0.021988014 -0.022547973 0.054211885
000160 10 8f b1 3c af 5d 1d 3d 1e b5 09 3d cc af b2 3c
       0.021674663 0.03841942 0.033619992 0.021812342
000170 52 49 06 bd 34 90 dd bb 20 b0 7a bd 3d ea 54 bb
       -0.032784767 -0.006761575 -0.061203122 -0.003248825
000180 7e f0 37 bd 64 92 79 3d bf e0 cd 3d 90 51 a5 3d
       -0.044907086 0.060930625 0.100526325 0.080721974
000190 75 33 48 bc 8f 43 97 bc 6f 6c 9c bd 2c c2 7f bd
       -0.0122193 -0.018464832 -0.076378696 -0.062441036
0001a0 3d f1 d8 bb 5e 83 95 bb 61 dd f0 3c 95 a0 93 3c
       -0.0066205547 -0.0045627793 0.029402437 0.018020907
0001b0 ce f3 08 bb 61 d2 c4 bc f1 89 49 3d 71 95 7a bd
       -0.0020897272 -0.024026098 0.049203817 -0.061177675
0001c0 ef 1f 86 3d 7b bc 5e bd 53 db c1 3d 95 b7 5c bd
       0.065490596 -0.054378968 0.09465661 -0.053886015
0001d0 36 5f 02 3c d1 c9 e2 bb 24 80 6e 3d ec 62 23 3d
       0.00795727 -0.006921031 0.058227673 0.03988926
0001e0 10 15 54 3d 8e ff 88 bd aa 1f 6e bd f7 43 73 bd
       0.0517779 -0.06689368 -0.058135666 -0.05939099
0001f0 98 6c 80 3c 96 40 c5 3b 16 44 9d bc 98 2a 02 3d
       0.015676782 0.006019662 -0.019197505 0.0317789
000200 6b 68 42 3d fa 1e dc bc 72 23 25 bd 85 f2 58 3d
       0.047462862 -0.02687024 -0.040317006 0.05296566
000210 53 60 9f 3c 7c 48 a5 bd a1 49 7a bd ab 51 83 bc
       0.01945511 -0.08070466 -0.061105374 -0.016030153
000220 df 27 1c bd 29 55 17 3d e1 56 a7 3a 9a 64 3b 3d
       -0.03812396 0.03694645 0.0012766981 0.045750238
000230 5b b3 0a bd 76 04 3a bd 38 da 37 bd d5 8c 99 3d
       -0.033862453 -0.04541441 -0.044885844 0.07497565
000240 14 f8 dc 3d df 6e 57 3d c0 9b 21 3d a9 8b ac bc
       0.10789505 0.05259597 0.039455175 -0.021062689
000250 96 83 be 3c e6 76 21 bd e9 81 4e bd 41 32 86 3c
       0.023256104 -0.03942003 -0.05041686 0.016381385
000260 2f 83 e7 3c 6d dc 93 3d 13 b3 00 3d d4 76 14 3d
       0.028260795 0.07219777 0.03142078 0.036246136
000270 bc 2d 95 bb 00 f3 95 bb d1 4b 66 bd 6e f8 b2 3c
       -0.004552571 -0.004576087 -0.056224648 0.021846976
000280 f5 1f 8b bd 18 97 96 3d d2 4b 1b 3d a0 a2 20 3d
       -0.06793205 0.073530376 0.037914105 0.03921759
000290 64 e2 31 bd 1f 61 ba bd 2d 74 b9 bd b9 18 d0 bc
       -0.043428794 -0.09100556 -0.09055362 -0.025402414
0002a0 d7 b8 12 3c 2e 1a 8d bc ea 7e ad 3c f7 f0 62 3d
       0.008955202 -0.017224398 0.021178681 0.055405583
0002b0 25 fa 3f bd 75 b3 22 3b 72 4c 10 3d 31 d9 91 bd
       -0.046869416 0.0024826203 0.035229154 -0.07121504
0002c0 95 18 65 3d 76 8d 08 bd 1b 78 de 3c 0e 82 8d bd
       0.055931646 -0.033338033 0.02715688 -0.069095716
0002d0 cf 94 6c 3d 1c 26 da bc 54 64 27 3d 43 f4 8d 3d
       0.057759102 -0.0266295 0.040867165 0.06931355
0002e0 60 67 9f 3d cd c6 e4 bc 39 cb ae bc 97 3e 8a bd
       0.07783389 -0.027926827 -0.021337138 -0.06750219
0002f0 be 54 3e 3d 77 ae 1e bd b8 95 28 bd 76 5b 78 3d
       0.046467535 -0.0387406 -0.041158408 0.0606341
000300 7c 26 49 bd 47 c4 c1 3c 5d 92 21 3c 02 e1 ed bc
       -0.049108967 0.023653163 0.009861556 -0.029037956
000310 dc 89 ad bc 23 fd 55 3d 36 7f ba 3d 8f 58 3e 3b
       -0.0211839 0.052243363 0.09106295 0.0029044484
000320 e9 11 26 3d 7c 25 4b bd a7 eb fd bc 43 29 eb bc
       0.040544424 -0.049596295 -0.030996157 -0.028706199
000330 3c 7b 53 3d 36 99 53 3d fd e8 6f 3d f5 05 ee bc
       0.051631197 0.051659785 0.058571804 -0.029055575
000340 2c 6b 9b bd 25 91 4e bd 13 42 93 bd b5 86 1f 3c
       -0.07588801 -0.05043139 -0.07190337 0.0097367065
000350 06 40 56 3c be c0 e1 3c 5a 50 04 3c 0b 76 7d bd
       0.013076788 0.027557727 0.008075798 -0.061880153
000360 12 e0 19 bc a0 64 6a bd ae cd 2e bd f2 08 1e bb
       -0.009391801 -0.05722487 -0.04267662 -0.0024114219
000370 68 8d 28 3d e8 3c 27 bc c8 4a 85 3d 25 e9 f3 3b
       0.04115048 -0.010207392 0.06508404 0.0074435645
000380 36 a7 f7 3c b6 06 8e bd 1d 40 58 bd c2 42 86 bd
       0.0302311 -0.06934874 -0.05279552 -0.06555702
000390 07 6c c4 3c 66 72 a1 3d f1 99 9e 3c f0 9b 05 3d
       0.023977293 0.07883148 0.019360514 0.032619417
0003a0 00 cf 0a 3c a0 c1 06 3d da d5 e6 bc 62 e6 4f bd
       0.008472204 0.0328995 -0.028178144 -0.05075682
0003b0 a7 f3 54 3d c8 32 88 3c 58 75 31 bd 6b fe 71 3c
       0.051990177 0.016625777 -0.0433248 0.014770131
0003c0 b8 52 2a bd e1 a9 06 3d ff c8 78 bd 21 0d 07 3d
       -0.041582793 0.032876853 -0.06073856 0.032971505
0003d0 ca 6f 54 bd 14 27 36 bc 3c 04 0c bd c4 ba 93 bd
       -0.051864423 -0.011117715 -0.034183726 -0.07213357
0003e0 1a aa 0f bd ca a2 89 3d eb ac c2 3a d0 d9 18 3d
       -0.03507433 0.06720503 0.0014852559 0.037317097
0003f0 bd be f3 bc f2 1c 10 3c ea 8c 7a 3d 51 5f af bd
       -0.029754037 0.008795964 0.061169542 -0.08563102

encoder.0.attention.queries.bias f4 [64]
000000 64 0f 19 3c 87 f3 1a 3c 35 f1 6b 3c 03 c7 d0 bc
       0.009342048 0.0094574755 0.01440077 -0.025485521
000010 4d 9f c1 39 85 49 c4 3c 70 b6 76 bc 34 47 2b 3b
       0.00036930517 0.023960838 -0.015058145 0.002613497
000020 f4 30 67 3c 88 2e da bc 20 7a 7c bc 60 84 2c bb
       0.014110792 -0.026633516 -0.015409976 -0.002632402
000030 3b fd 47 3b b6 2d 5f 3b 12 f0 a8 3c 55 43 e1 3b
       0.0030515927 0.0034054345 0.020622287 0.0068744817
000040 e1 3f c9 3c 0b 25 f8 bb bb ea 4c 3c 79 ce d6 3c
       0.024566593 -0.0075727752 0.012507136 0.0262215
000050 3e 53 c8 bc 6b 06 c3 bc df b6 c8 bc c2 5f f4 3c
       -0.024453755 -0.023806771 -0.024501262 0.029830817
000060 87 ef c1 3c 05 96 b0 3b 65 7d ad bb 55 e6 2d bc
       0.023673786 0.0053889775 -0.005294489 -0.0106139975
000070 cd 6e b4 bc 87 cf 07 3d 77 74 ad bc b5 90 c4 3c
       -0.02202549 0.033156898 -0.021173699 0.023994783
000080 f2 e6 f8 bc 60 9f fb 3c ee 5b 11 bd d2 4a f7 3c
       -0.03038356 0.030715644 -0.03548806 0.030187044
000090 c0 26 86 3c b5 9a e9 bc a6 56 c4 bc e3 e7 63 3c
       0.0163759 -0.028516153 -0.023967098 0.013910267
0000a0 5c 28 99 bc 76 76 b0 3c 5b 05 a0 bc 9c d3 46 3c
       -0.018696003 0.021540862 -0.019533804 0.012135413
0000b0 47 38 9c bc 01 ae 02 3d c9 42 da 3c 7f 72 04 bd
       -0.019069804 0.031904224 0.026643174 -0.032335754
0000c0 f2 18 c5 3c c2 65 c0 bc 83 05 da 3c b6 3e 98 bc
       0.024059746 -0.023486022 0.026613956 -0.01858459
0000d0 8d 8e e6 3c ee 14 a9 bc 74 d7 d3 bc 2d 49 87 3c
       0.028144145 -0.020639863 -0.025859572 0.016514385
0000e0 8f fa bf bc 35 76 f0 3c b2 72 c9 3b fb 58 85 3c
       -0.023434905 0.02935324 0.006147706 0.01627778
0000f0 04 22 b5 3c 1c 90 c4 3c f7 31 1c bd 0e 5c 03 bd
       0.022110946 0.023994498 -0.038133588 -0.032070212

encoder.0.attention.keys.weight f4 [64, 64]
000000 2e 9c de bc db c7 aa 3c 46 cd 23 3d 0f ff 81 3c
       -0.027174082 0.020847252 0.039990686 0.015868692
000010 d6 d5 4e 3a ff 08 10 3c 10 99 e9 3c 69 4b 49 3b
       0.00078901404 0.008791207 0.028515369 0.0030715114
000020 6b ed e3 3d 82 44 80 bd 66 0c 05 3d de 8f 76 bd
       0.11129268 -0.06263067 0.032482527 -0.060195796
000030 37 d6 ae 3d b4 4d c5 3d f5 12 f9 bc 2b b7 35 bd
       0.08536952 0.09633961 -0.030404547 -0.044364136
000040 17 2c 22 bd 80 83 1b bd b6 8d 54 bc 71 37 19 3c
       -0.03959283 -0.037967205 -0.01297324 0.009351597
000050 f9 69 dc 3c cc fb a7 3d 7d c0 17 3d d2 0c 18 bd
       0.026906 0.08202323 0.037048806 -0.0371216
000060 6d 5e 02 3c d2 e4 94 bc 5f f1 38 bc d7 51 f4 bb
       0.007957083 -0.018175516 -0.011288016 -0.007456045
000070 90 31 93 3c 0e 53 81 3d b6 d2 36 3c 45 8e 14 3c
       0.01796797 0.063146695 0.011158636 0.009067123
000080 41 39 23 3d b2 76 36 bd 65 b2 9f 3c 00 ce e0 bc
       0.039849523 -0.04454679 0.019494245 -0.027441978
000090 ea aa 9b bc e3 78 60 3d 0e 52 93 3c 72 d8 ac 3d
       -0.019002397 0.054802787 0.017983463 0.08439721
0000a0 c9 dc 8b bc 20 44 9c bc b7 df 1b 3d 4a 3a 26 bc
       -0.017073052 -0.019075453 0.038055148 -0.010145733
0000b0 d0 ab 1a 3d a9 81 84 bc 25 2e d5 bb 7d 3b 66 bc
       0.03776151 -0.016175108 -0.006505745 -0.014052269
0000c0 c2 c4 b7 bc 86 96 0e 3d 2d eb 02 bd b1 a4 c5 b9
       -0.022432689 0.03481152 -0.031962562 -0.00037697473
0000d0 98 0f 2e bd 94 89 d4 3c ea 5b 48 bd c9 20 c1 bc
       -0.04249534 0.025944509 -0.04891578 -0.023575203
0000e0 b4 49 70 bd 1c dd 19 3d ab f6 c0 bd 3f d8 f4 3c
       -0.05866404 0.037564382 -0.09422048 0.02988827
0000f0 11 93 b0 bd 01 d6 b0 3c 26 34 eb 3c 17 b9 41 bd
       -0.08621801 0.02158642 0.02871139 -0.047295656
000100 76 37 61 bd 7c 54 06 3b 32 b6 df 3a a4 11 94 bc
       -0.054984532 0.0020497134 0.0017067848 -0.018074818
000110 12 a7 2f 3d 0d b6 b3 bc 1d e9 5f 3d 2f 7d f9 3b
       0.04288394 -0.021937395 0.054665674 0.0076138
000120 30 a7 57 3d 55 5f 40 bd d8 03 b5 3c b9 c3 ed bb
       0.052649677 -0.046965916 0.02209656 -0.007255998
000130 c0 08 b8 3c 50 8d a7 3d 0c e1 b0 3b aa be dd 3b
       0.02246511 0.0818125 0.0053979214 0.0067671137
000140 37 28 1d 3c 5a 77 8e 3c b1 20 16 3d c8 d1 11 ba
       0.0095921075 0.017390896 0.03665227 -0.0005562571
000150 df c0 c2 bc 73 96 85 3d 76 72 8f 3c 61 bb ad bc
       -0.023773609 0.065228365 0.017510634 -0.021207513
000160 74 6c 2d bd 4f c0 a6 3c b7 c6 31 bd a0 9d 5b b9
       -0.042339757 0.020355372 -0.0434024 -0.00020944187
000170 96 d5 4b 3d 35 22 3a 3c 91 31 04 3d 6e 2d b0 3c
       0.04976424 0.011360695 0.032273833 0.021506038
000180 66 d3 53 3d 5d b4 40 bd 8c 82 01 bd 52 bd d1 3c
       0.051715277 -0.047047008 -0.03161864 0.02560297
000190 d5 8b d7 bc 56 b7 d3 3c 3e ec 02 3c 88 80 56 3d
       -0.026311794 0.025844257 0.007990895 0.05236867
0001a0 ac 2d 5b bc cb d0 0a bd af 6e 0e 3d 82 50 da bc
       -0.013377588 -0.033890527 0.034773525 -0.026649717
0001b0 39 ef 17 3d 9b 1e 98 bd 1f 19 5a 3c bc e2 29 3c
       0.037093375 -0.074277125 0.013311653 0.010368999
0001c0 3f 86 98 bb 7f 2e 0d 3d 45 08 8a bc bd af 02 3d
       -0.0046546753 0.03446817 -0.016849646 0.03190588
0001d0 70 fe b7 bc 9a 14 52 3c ae a8 d3 bc d1 cb 85 bc
       -0.022460192 0.012822295 -0.025837269 -0.016332539
0001e0 46 ae 4a bd 16 85 94 3c b6 30 91 bd 6d 38 1d 3d
       -0.049482606 0.018129867 -0.07089369 0.03838389
0001f0 a0 7a 97 bd fa 9d 2a 3c 1d b4 6c 3c 71 7c 6b 39
       -0.07396436 0.010413641 0.014447239 0.00022457704
000200 38 ea cc 3c bf e1 2a 3c ba 50 36 3c 9e fa 6c 3c
       0.025014028 0.010429799 0.011127645 0.014464049
000210 55 3f 2b 3d c7 d0 0c 3d 0a f8 0b 3d aa 11 b2 3b
       0.041808445 0.034378793 0.034172095 0.0054342346
000220 72 a3 2a 3d 6f 91 7e bd 74 4d 88 3d 02 47 fc bc
       0.04165978 -0.062150415 0.06655398 -0.030795578
000230 45 a7 8e 3d 2f ae d1 3d 2d 25 56 bc 1f f7 ae 3c
       0.06965498 0.10238301 -0.013070387 0.02135807
000240 3c c9 30 3c 75 6b 8b 3c 79 4a e3 3c a9 99 49 bb
       0.0107901655 0.017019013 0.027745472 -0.0030761755
000250 a7 d0 b0 bb c8 62 7f 3d 5e 58 db bc 89 2c 20 bd
       -0.005395967 0.062350065 -0.026775535 -0.039104972
000260 59 d8 bf bc 66 02 08 bd 44 08 f9 3b 5a 3b 87 3c
       -0.023418592 -0.033205412 0.0075998623 0.016507793
000270 c4 ff c2 3b 81 d0 fa 3c 1a 79 2b 3d c8 f5 8d 3c
       0.0059509 0.030617 0.04186354 0.017329112
000280 06 74 34 bb 66 cd 84 bd b9 55 f2 bc 07 47 25 bc
       -0.0027534976 -0.06484489 -0.029581891 -0.010087735
000290 e5 44 8d bc 23 b3 e0 3c 89 8e 3d 3c 42 02 82 3d
       -0.017244766 0.027429169 0.011569628 0.06348087
0002a0 29 5d f5 bc a9 69 cb bc 48 be 82 3d 34 78 ba bc
       -0.029951649 -0.024830656 0.063839495 -0.022762395
0002b0 a7 fe a1 3b 3d 00 97 bc ee d2 81 3c e8 80 6d b7
       0.004943687 -0.01843273 0.01584765 -1.4156314e-05
0002c0 d2 99 0e bd 0e dd 6e 3c 65 d8 81 bd 46 a8 8d 3b
       -0.034814663 0.014579071 -0.06340102 0.0043230383
0002d0 3a ed d8 bb e4 4a a7 3c 61 1f 99 bc 38 7e 80 3a
       -0.0066200765 0.020421453 -0.01869172 0.0009803241
0002e0 21 99 39 bd 2c ee 28 bb 08 97 6c bd 78 70 f5 3c
       -0.04531205 -0.0025776727 -0.057761222 0.029960856
0002f0 98 56 4b bc 50 98 b7 3b 51 40 1e 3d 11 e6 af 3c
       -0.012410782 0.005602874 0.038635556 0.021472009
000300 35 95 a1 bb 0b fc d7 bc cc 45 b4 bc fc 87 19 bc
       -0.004931117 -0.0263653 -0.022005938 -0.0093708
000310 77 12 26 bb f8 bc 85 bd c1 40 77 bc 5a 64 c1 3a
       -0.0025340596 -0.065301836 -0.015091122 0.0014754639
000320 07 1d 40 bd 46 ac 47 3d cf e1 cd bc 22 0c 7e 3d
       -0.046902683 0.048748277 -0.025132088 0.06202329
000330 05 f9 63 bd 47 2f 68 bd 51 ef 69 3b a3 38 c0 3c
       -0.055657405 -0.056685712 0.0035695622 0.023464506
000340 df fc 56 3d f6 46 5f 3c e1 87 0e bb b3 42 f2 3c
       0.05248725 0.013627758 -0.002174847 0.02957282
000350 f8 a1 a0 3c c7 6d 9c bd ee d4 3e 3c b3 b3 e5 3a
       0.019608483 -0.07638126 0.011647446 0.0017524868
000360 ef d9 64 bc f5 84 1b 3d aa 4c d4 bc d3 60 9a bc
       -0.013967975 0.037968595 -0.025915463 -0.018844998
000370 fe 93 15 bd e5 80 89 bc 8d 7b 22 bc 1f f5 24 3d
       -0.03651809 -0.016785095 -0.009917152 0.04027283
000380 3c a2 9f ba 55 16 7c 3d af 86 86 3c ef 40 de 3c
       -0.0012179087 0.061544735 0.016421644 0.027130572
000390 dd c6 32 3b 47 c8 ac bc af 54 29 3c 49 97 4b bd
       0.0027279176 -0.021091593 0.010335132 -0.049704824
0003a0 ea c1 b9 3c 29 9d bd 3b aa 2a 9e bd a0 ff 4c bc
       0.022675473 0.005786557 -0.07722981 -0.012512118
0003b0 2e 59 79 bd 9b b2 5e 3d 21 32 ea bb 40 26 07 3b
       -0.060876064 0.05436955 -0.007147089 0.0020622164
0003c0 7d 22 e5 3c 4f 38 c6 bc b8 f3 74 3c 16 73 10 3d
       0.027970547 -0.024196772 0.014950685 0.035266005
0003d0 d7 ab 29 3d d8 48 5e bc 7a ea a6 3c a2 a6 1b 3d
       0.041423645 -0.013567172 0.020375479 0.03800071
0003e0 ac 98 ae 3c f6 e3 4e 3b 34 ba 62 bd 75 8a 4e bd
       0.021313034 0.003156898 -0.05535336 -0.05042501
0003f0 a7 65 10 3d b2 5a 89 3c f7 73 1c bd 74 1c 50 3c
       0.035253193 0.01676688 -0.03819653 0.012702096

encoder.0.attention.keys.bias f4 [64]
000000 2a 8a 23 b6 07 a1 9e b6 63 71 93 b6 0d 77 84 b6
       -2.4369315e-06 -4.727513e-06 -4.3941413e-06 -3.947766e-06
000010 76 37 c3 b5 7f 72 38 b5 12 3b 52 b6 e0 4f 03 33
       -1.4544773e-06 -6.8711955e-07 -3.1326822e-06 3.057346e-08
000020 84 4b 45 34 60 43 e1 b4 17 8e 3c 36 5b bd 03 b6
       1.8374527e-07 -4.1958538e-07 2.809689e-06 -1.963074e-06
000030 8e 1e 96 35 d1 85 16 34 ee b0 16 b6 a5 97 32 36
       1.1184763e-06 1.4018521e-07 -2.2454728e-06 2.6612336e-06
000040 7c 69 3f b4 66 7a 2c 34 90 56 70 36 39 0e 39 b6
       -1.7826636e-07 1.6063277e-07 3.5813173e-06 -2.7575427e-06
000050 85 d3 a3 35 d1 fa 0e b6 62 4e 69 36 4e 43 30 b6
       1.2206007e-06 -2.1305643e-06 3.476533e-06 -2.626522e-06
000060 7f 39 32 35 b9 e6 31 b6 fd 40 9e 36 bb 77 68 36
       6.6393835e-07 -2.6509354e-06 4.7163326e-06 3.4640386e-06
000070 da 3e ed 33 b1 96 19 36 7c 02 23 b5 69 4c ac 34
       1.1047605e-07 2.288649e-06 -6.0725847e-07 3.2093092e-07
000080 ff 76 44 b6 16 98 16 b6 88 be c0 33 f0 3c 28 b6
       -2.927554e-06 -2.2440267e-06 8.975354e-08 -2.506942e-06
000090 d8 f1 bc b4 22 83 91 36 2f ae 0b 36 23 0a 71 b5
       -3.5193693e-07 4.3366026e-06 2.0814002e-06 -8.9794247e-07
0000a0 20 e6 5c 35 54 64 da b5 3e 80 4a b5 b4 1a 75 b5
       8.229126e-07 -1.6271465e-06 -7.543748e-07 -9.130847e-07
0000b0 5f a4 9e 33 8b a6 61 34 1a 11 8d 35 3c ff e0 34
       7.387347e-08 2.1015346e-07 1.0510296e-06 4.190896e-07
0000c0 f0 30 bc 35 a1 f6 08 36 ff 4a 86 b4 87 69 f3 35
       1.4021334e-06 2.0409136e-06 -2.5014012e-07 1.8135623e-06
0000d0 fb a1 42 35 aa e5 12 36 39 11 2d 36 4a f4 14 b6
       7.2506344e-07 2.1889377e-06 2.5789034e-06 -2.2195914e-06
0000e0 48 f3 6b 35 1d c1 f2 b5 da 54 83 b5 20 77 55 b5
       8.789834e-07 -1.8086608e-06 -9.784956e-07 -7.9522033e-07
0000f0 c6 8e 43 b6 74 7b 11 b6 42 6f 77 36 14 10 24 34
       -2.914037e-06 -2.1678543e-06 3.6870629e-06 1.527954e-07

encoder.0.attention.values.weight f4 [64, 64]
000000 00 1d 8e bc 05 ec 3c bc 8d 59 cc 3b 1a 7e 94 bc
       -0.017347813 -0.011530881 0.006236261 -0.018126536
000010 4f 3a f9 bc 2b a0 10 3d 39 21 cb 3c db 3a 31 3c
       -0.030423312 0.035308998 0.024796115 0.010817255
000020 32 76 55 bc 3f 4b cb bb 56 2d e9 3a 40 05 5f bc
       -0.013028668 -0.0062040384 0.001779 -0.013612092
000030 7e 17 8a 3c 3d 92 db bc 78 0f da 3b e3 fd b7 3c
       0.016856905 -0.02680313 0.006654676 0.02245993
000040 ca 7a ed 36 76 be c7 bc 88 d2 c3 bb ba 97 95 3c
       7.077445e-06 -0.024382811 -0.005976025 0.018260825
000050 4a a6 f5 bc a8 e3 14 3c 9a fb 3d 39 72 22 3b b9
       -0.02998652 0.009087481 0.00018118173 -0.00017846542
000060 45 f4 3e bc 9a 94 ea 3b 65 76 f4 bb b9 69 1a bc
       -0.011654918 0.007158828 -0.007460403 -0.00942462
000070 e1 ca 61 bc 89 ae 6a 3b 18 89 b8 bc aa 16 89 3b
       -0.01378128 0.0035809597 -0.022526309 0.00418361
000080 df 16 96 3a cc 05 d2 3b 87 0c 28 bc 5b dd 24 bc
       0.0011450908 0.0064093824 -0.010256893 -0.010062541
000090 00 ab 8c 3b cb 08 d7 3c 2c df 96 bc a1 e9 05 bc
       0.0042928457 0.02624931 -0.018416964 -0.008173377
0000a0 c3 fe a3 3c 87 78 94 3c 35 db 16 3d 2f 26 d8 bb
       0.02001894 0.018123878 0.036830146 -0.0065963487
0000b0 25 7a ab bc 2b 79 3d 3d 22 e8 74 bc 66 61 2c 3c
       -0.020932266 0.046258133 -0.014947923 0.0105212685
0000c0 52 fa bc 3a ec 58 cf 3b 5a c5 53 bc 45 ac d3 3b
       0.0014417863 0.006327739 -0.01292547 0.006459745
0000d0 0d 43 23 3c 28 36 66 3b da ca d2 bc ed fb b8 3c
       0.009964717 0.0035127494 -0.025731493 0.022581065
0000e0 f8 67 22 bd 78 88 85 3c 8f 74 d1 bc 3c 14 39 3c
       -0.039649934 0.016300425 -0.025568275 0.011296328
0000f0 aa f0 e4 3a d4 f3 2f bc a6 ff f2 bc 18 cd 0c 3b
       0.0017466743 -0.0107392855 -0.029662918 0.002148455
000100 89 f6 2e bd 05 41 d3 bb dd e9 80 bb f6 34 79 bc
       -0.042715583 -0.00644696 -0.0039341287 -0.015210381
000110 67 9f c7 3c b1 a5 d2 ba 22 6c 69 3d 9c 58 84 3b
       0.024368001 -0.0016071108 0.05698789 0.0040388834
000120 f9 a1 9b 3c 38 3e 1d bc dc 3f e1 bc 65 42 9a bb
       0.018998133 -0.009597354 -0.02749627 -0.004707622
000130 9d fd 0a bc 18 c7 9f bb 29 c9 9b 3b ba da 23 3c
       -0.008483318 -0.0048760287 0.004754205 0.010000879
000140 f1 81 8e 3c 53 45 58 3d 81 64 d2 ba ae 81 6a 3c
       0.017395945 0.052800488 -0.0016051681 0.014313145
000150 b1 29 73 3c 6d 3f 99 bb 37 26 e2 3c 3c 27 51 3b
       0.014841483 -0.0046767504 0.027606113 0.0031914255
000160 52 17 08 bd d4 7a 20 3d 10 6e 85 3c 75 ea 01 3c
       -0.033225365 0.039179638 0.016287833 0.007929434
000170 a0 06 9e bc 80 58 e0 bc 66 b0 26 3b 8f eb 47 3b
       -0.019290268 -0.02738595 0.0025434732 0.0030505394
000180 e8 94 10 bd 16 6d d7 3b 4e e8 d1 bc 71 3f a4 bb
       -0.035298258 0.0065742834 -0.025623467 -0.0050124456
000190 25 42 a8 3a 61 a1 d7 bc d0 74 02 bd ca 5d 76 bc
       0.0012837095 -0.026322069 -0.031849682 -0.0150370095
0001a0 84 16 0a 3c d4 fd e6 bb e7 c4 2c bc 73 98 f1 bc
       0.00842822 -0.0070493016 -0.010544992 -0.029491639
0001b0 b7 61 de 3c 73 7e c4 bb 2a 9c 92 3c 3c 22 d0 bc
       0.027146203 -0.0059965192 0.01789673 -0.02540695
0001c0 96 11 ab 3c db 39 48 3c 0f d7 e8 3c 9f 47 aa bc
       0.020882409 0.012220825 0.02842286 -0.020786105
0001d0 5c ce 17 bc 9b e8 99 bb e0 3d 1c bd 33 a5 4f bc
       -0.0092655085 -0.004696918 -0.038144946 -0.012673664
0001e0 95 04 5b 3c 02 77 09 3c 11 88 e9 bb 4e 26 f5 3b
       0.013367792 0.00839019 -0.007126816 0.007481373
0001f0 75 85 d8 3c f9 1c 17 3c 79 82 0f 3d 70 ed ab bc
       0.026430825 0.009223216 0.035036538 -0.020987242
000200 b7 af 4e 3c 1f 8d d1 bb ea 7e 2d bc f4 b0 76 bc
       0.012615136 -0.006394997 -0.010589341 -0.015056837
000210 37 08 a7 bb fc 9a 84 bc 2e 7e 8c 3c 9b 19 30 bb
       -0.005097415 -0.016187184 0.01715001 -0.002687073
000220 cb e2 f9 3c a6 c6 5a bc 94 2c e4 3b 01 5c 95 3c
       0.030503651 -0.013353026 0.006963322 0.018232347
000230 5a 62 9e 3c 0b b2 7c 3c e9 81 1d 3d 1f 95 c1 bc
       0.019334007 0.015423308 0.03845397 -0.023630677
000240 72 a0 18 3a 0e 0e 27 3c c7 c0 98 bc 35 d6 99 bc
       0.0005822248 0.010196222 -0.01864661 -0.0187789
000250 b7 87 90 bc 7d c1 e3 bc 2e ce 7f 3b 5e ea d8 3a
       -0.017642839 -0.027802223 0.0039032805 0.0016549339
000260 1d e6 f1 3c c4 ac 6d b9 74 bf 8a bc a7 97 9c 3c
       0.029528672 -0.00022666442 -0.016936995 0.019115282
000270 c3 06 02 bd 7f 85 0d 3d 35 8d 3d 3c 81 10 ab 3c
       -0.03174473 0.03455114 0.011569311 0.020881893
000280 02 65 a2 bc 7a 67 b5 3c 35 08 2a bd f9 be 02 3d
       -0.019823555 0.022144068 -0.041511733 0.031920407
000290 5b 12 9f ba 95 75 4f 3c 80 75 24 3c a6 7a a8 3c
       -0.0012136208 0.012662311 0.01003778 0.020566296
0002a0 46 60 c5 bc 4f 55 6e bc 50 43 5d 3b b2 ce a8 bc
       -0.024093758 -0.014546706 0.0033762045 -0.020606373
0002b0 e6 01 12 3d 8a 45 37 3c ff a8 55 39 25 61 bb 3c
       0.03564634 0.011186013 0.00020376219 0.02287347
0002c0 c9 47 7f 3a c8 40 36 bc ae 83 02 3c ed 4f 0d 3d
       0.0009738175 -0.0111238435 0.007965965 0.03450005
0002d0 93 1b ca bb 9c 17 84 3c 2c 68 2c ba 9c f4 77 3c
       -0.006167838 0.01612454 -0.0006576802 0.015134003
0002e0 84 f4 09 3c 03 0d bb 3b cc a0 d8 3a 80 ab ed bc
       0.0084201135 0.005708338 0.0016527413 -0.029012442
0002f0 9f 9f 92 bc a6 c7 88 bb 62 5b 79 bb d8 c3 fa 3c
       -0.017898379 -0.0041741906 -0.0038048853 0.030610964
000300 9a 30 a0 3b d5 ad 63 bb 3e ba d8 bb 87 de c3 3b
       0.0048886063 -0.0034741063 -0.0066139987 0.005977455
000310 b3 a9 97 bc 77 df 87 3c 71 4e 81 3b b1 19 13 3c
       -0.018513536 0.016586049 0.0039461185 0.008978293
000320 9a 6c a4 bc 3a a7 b0 3c 46 45 77 3b 66 fb bf bc
       -0.020071317 0.021564115 0.00377305 -0.023435306
000330 79 1a 90 3c 03 8c d8 3c 9d dc bb ba 21 14 ad 3c
       0.017590748 0.02643395 -0.0014332716 0.021127762
000340 25 7e 22 bb cf e6 1a bc bb 4a dd 3b ad 70 38 3c
       -0.0024794426 -0.009454443 0.0067532933 0.011257333
000350 f0 71 8c 3c 6f bd 84 3c 1e 7a b4 3b e4 0a a7 bc
       0.017144173 0.01620361 0.0055077216 -0.020390935
000360 69 e1 cc bb f7 4c 7b bc 4d c7 05 bd 10 d0 d2 3b
       -0.006252457 -0.015338174 -0.03266077 0.0064334944
000370 31 25 c0 3b 77 37 66 bc b6 40 89 bb 25 57 b6 bc
       0.0058638086 -0.01405131 -0.0041886223 -0.02225835
000380 47 61 92 3c 02 0c 83 bc 8b 60 9a 3c e5 d7 c0 3b
       0.017868651 -0.015996937 0.018844863 0.0058851116
000390 8e c1 5d 3b ac 8d 04 bc ae f3 24 bc 54 45 f7 3c
       0.0033837291 -0.008090418 -0.010067863 0.030184425
0003a0 60 7d 44 bd 51 09 ea 3a f1 16 33 3c 29 81 fd 3c
       -0.04797113 0.001785556 0.010930763 0.030945377
0003b0 2d 54 5b 3b e0 f8 19 3d 74 38 9f bc ca 3d a0 bc
       0.003346692 0.03759086 -0.019436099 -0.019560713
0003c0 10 58 99 bc c8 8a 49 3d b2 52 ab 3b b5 33 dc 3c
       -0.01871875 0.049204618 0.005228364 0.026880125
0003d0 d7 3f d8 3c 8b 29 bd 3c b4 8d 1c bd aa a7 3e 3c
       0.026397629 0.023091098 -0.038221076 0.011636654
0003e0 44 82 0c bd d5 32 8c 3c d2 57 b7 bc bd ac 33 bc
       -0.03430392 0.017114082 -0.022380743 -0.010966477
0003f0 f3 e8 d9 3b f0 19 5e bc 4a 42 3e 3c 9b ee 97 bc
       0.006650084 -0.013555989 0.011612484 -0.018546393

encoder.0.attention.values.bias f4 [64]
000000 59 46 27 3c e4 6b 87 3b 97 2d 2f ba 89 ef 8a ba
       0.010209643 0.0041327346 -0.00066825136 -0.0010599951
000010 ae a6 bb 3b bb bf 8b bb 6c be 0e ba c9 a0 06 bb
       0.005726657 -0.0042647994 -0.0005445245 -0.0020542613
000020 70 45 38 bc 1a f7 de 3a 20 0f 51 3b a0 9a ce ba
       -0.011247024 0.0017010898 0.0031899884 -0.0015762635
000030 a4 25 93 bb 3e ac 95 bb b2 10 2b 3a 33 24 b2 ba
       -0.004490571 -0.004567652 0.000652562 -0.001359111
000040 38 c0 4f 3a df c8 98 3b 3f a9 39 3b 52 d0 9a bb
       0.0007925066 0.0046626176 0.0028329638 -0.0047245407
000050 60 a3 f0 bb 7c eb 17 bc 35 60 df 3a 8b 8b e6 39
       -0.0073436946 -0.009272452 0.0017042222 0.00043972986
000060 b5 c4 b2 3b 67 e4 bd 3b 9e aa 84 3b 43 d4 b8 3b
       0.005455578 0.00579505 0.0040486595 0.005640538
000070 56 3e 91 bb 1d 48 02 3b c5 f1 04 bc 12 3b e3 3b
       -0.00443248 0.0019879409 -0.008114283 0.006934532
000080 be 9b 81 3a df c1 ff 3a 1d a8 88 3b 72 df 53 39
       0.0009888334 0.0019512734 0.0041704313 0.00020205768
000090 83 2d c0 bb df bf 25 bb 37 cb 0b bc 9e 53 db ba
       -0.0058648004 -0.0025291366 -0.008532337 -0.0016733294
0000a0 35 92 42 bb 38 09 0b 3a b0 bd 16 3a 6a a7 c4 ba
       -0.0029689197 0.0005303803 0.00057503115 -0.0015003507
0000b0 3b f8 7e ba c4 8b ba 3a 6d 8a 4b 3b 62 b1 57 bb
       -0.000972632 0.0014232327 0.003105785 -0.0032912125
0000c0 a2 9a 67 bb 63 36 18 bc ef d7 80 3a fb 2e 08 bb
       -0.003533997 -0.009290311 0.0009829978 -0.0020779956
0000d0 f6 91 0f bb ea 1b 4f 3b f9 a7 08 bb fd be 17 ba
       -0.0021907068 0.0031602331 -0.0020852073 -0.00057886523
0000e0 c2 03 92 3b ae 0d 03 bc 10 88 85 3b fb 28 66 bb
       0.0044560144 -0.007998867 0.004075058 -0.003511964
0000f0 91 84 15 bc d7 d3 47 3b 44 b0 24 bc fb 3c b9 3b
       -0.009125845 0.0030491257 -0.010051791 0.0056530214
