model/mnist/tune_lr0.0001_ed64_nl4_nh4_fm2_ps4/temp_model.pt (torch, 597127 bytes, 74 tensors)

embedding.cls_token f4 [1, 1, 64]
0.0028983299 0.0010011641 0.00062972156 -0.0047304337 0.007472916 0.003467382 -0.0043287347 -0.00030560038
-0.007807118 -0.0006717553 0.00526824 0.0038973368 0.002916214 0.00060980266 0.005554273 -0.0003562556
-0.003917019 0.00074689736 0.00025732673 0.0040125465 0.0027000422 -0.011553035 0.0056094793 0.00010487869
0.00161369 -0.005843563 0.006373792 0.0047843037 -0.007817596 0.005825585 -0.005761124 -0.006295484
-0.0033518958 -0.0052253497 -0.0023162477 -0.0055770613 0.0030077037 -0.00014427584 -0.0102558555 0.0027272224
0.0031928602 -0.004586284 -0.0005478654 -0.0019367066 0.0071485117 -0.008432775 0.0042871526 -0.0013439888
-0.0059225066 -0.0065888544 -0.0012211652 -0.005645913 -0.002759298 0.0012348962 0.0034640376 -0.002097542
0.0023665898 0.0057364753 -0.003654079 0.0018105305 -0.001156511 0.0016326284 0.008294543 -0.00018870815
00000000: e8f1 3d3b 7e39 833a e613 253a c101 9bbb
00000010: 5ddf f43b 043d 633b 0fd8 8dbb fd38 a0b9
00000020: dad2 ffbb bc18 30ba 33a1 ac3b 766a 7f3b
00000030: f41d 3f3b 2adb 1f3a 9e00 b63b d1c7 bab9
00000040: 565a 80bb 6fcb 433a cfe9 8639 ae7b 833b
00000050: 31f3 303b f148 3dbc b9cf b73b 51f2 db38
00000060: 7482 d33a 5c7b bfbb 3edb d03b a6c5 9c3b
00000070: 6015 00bc 8de4 be3b d0c7 bcbb 594a cebb
00000080: 7bab 5bbb 6939 abbb 30cc 17bb c8bf b6bb
00000090: e51c 453b c048 17b9 2d08 28bc 33bb 323b
000000a0: 4e3f 513b 8a48 96bb a09e 0fba 17d9 fdba
000000b0: 103e ea3b 9f29 0abc 3e7b 8c3b c828 b0ba
000000c0: 9611 c2bb 51e7 d7bb 810f a0ba 5a01 b9bb
000000d0: 57d5 34bb 3edc a13a e804 633b ea76 09bb
000000e0: ca18 1b3b 0bf9 bb3b 4679 6fbb 534f ed3a
000000f0: 1296 97ba ebfd d53a d6e5 073c f5df 45b9

embedding.pos_embedding f4 [1, 50, 64]
0.0028983306 0.0010011635 0.00062972144 -0.004730435 0.007472917 0.0034673777 -0.0043287342 -0.00030559834
-0.007807118 -0.00067175727 0.005268238 0.0038973335 0.0029162136 0.00060980255 0.0055542705 -0.000356255
-0.003917017 0.0007468972 0.00025732548 0.0040125465 0.0027000438 -0.011553038 0.0056094825 0.00010487715
0.0016136924 -0.00584356 0.006373793 0.0047843014 -0.007817593 0.0058255857 -0.005761124 -0.006295482
-0.003351899 -0.0052253474 -0.0023162467 -0.005577058 0.0030077025 -0.00014427498 -0.0102558555 0.0027272217
0.0031928627 -0.004586287 -0.00054786366 -0.0019367068 0.0071485103 -0.008432776 0.0042871484 -0.0013439873
-0.0059225094 -0.006588854 -0.0012211665 -0.0056459126 -0.0027592992 0.0012348947 0.0034640385 -0.0020975443
0.0023665908 0.0057364753 -0.0036540772 0.0018105316 -0.0011565129 0.0016326235 0.00829454 -0.00018871091
-0.007538325 0.00054311997 0.010467489 -0.009500173 0.0054698954 0.0013104908 0.011993988 0.0038621014
-0.0064944476 0.008114308 0.010390464 -0.010092427 -0.0037933728 -0.005783868 -0.0042418023 0.012978892
0.008590738 0.013330297 -0.0029441707 -0.00011037159 0.0045164307 -0.011298966 0.01596494 -0.008148328
-0.005023333 -0.010497285 0.00639107 0.008891017 0.008874557 -0.010257004 0.0054433867 -0.023298303
0.0009902917 0.011635833 -0.009454393 0.012749638 -0.008979529 -0.0022228567 0.005293272 -0.011980892
0.0009921029 0.012984589 0.0005206729 -0.0070077283 -0.004575906 0.0053635347 0.0019072269 -0.0067845643
0.0015308775 -0.004037325 0.0042842855 -0.011149079 0.012890847 -0.0030027868 -0.0012748336 0.011835679
0.005787034 0.010226093 0.0064301346 0.0061451136 0.0067277034 -0.0059641344 0.004183409 0.008839167
-0.005307547 -0.0010464513 0.01415995 -0.007907391 0.0038823988 0.005880409 0.012531751 0.0068636616
-0.0065571126 0.0034245765 0.00852887 -0.008944253 -0.0009209598 -0.0036694796 -0.006899366 0.010438239
0.0072594634 0.013503166 -0.00021331853 0.0020131266 0.0066513163 -0.010628803 0.016321242 -0.0076580704
-0.0031981755 -0.013276811 0.004459059 0.006688632 0.00779666 -0.010754553 0.007276641 -0.022335848
-0.0010173685 0.009823847 -0.012710275 0.015152854 -0.0069060167 -0.003799002 0.006786423 -0.0129455775
-0.0013612303 0.014522964 -0.0014566189 -0.008267161 -0.0008343088 0.009203406 0.003232039 -0.006838291
0.0021632302 -0.0067543793 0.0028078626 -0.015564469 0.018438477 -0.0015271344 0.00048179264 0.008924244
0.006243008 0.00899891 0.007889093 0.008151773 0.0040638875 -0.0064849425 0.0041744336 0.0052195624
0.008936607 -0.010307254 0.019205965 0.0039667073 -0.00829324 0.011138805 0.009624549 0.019764267
-0.005692601 -0.013350767 -0.0036234779 0.002439519 0.012194524 0.009816938 -0.019610165 -0.0021662489
-0.0015895024 0.0039984267 0.011240213 -0.0028296101 0.014059286 -0.00028535162 0.0001500763 -0.0034121647
0.0066530053 -0.010663321 -0.007873351 -0.0044948133 0.00039281294 -0.01251364 0.017045127 -0.0036663602
-0.011052159 -0.007940594 -0.02112231 0.02390906 0.0063763815 0.002612785 0.0009671691 -0.0066335187
-0.017587729 0.0050955676 -0.0071741506 -0.0027962986 0.014211851 0.024933273 0.009828905 -0.0028088375
0.006282482 -0.014308281 -0.0051496564 -0.02651355 0.034641385 0.0023201057 0.013633828 -0.0056243585
0.008141002 -0.0031624981 0.01602513 0.020974044 -0.0067797247 -0.007043092 0.0046956087 -0.018202964
00000000: ebf1 3d3b 7939 833a e413 253a c401 9bbb
00000010: 5fdf f43b f23c 633b 0ed8 8dbb b738 a0b9
00000020: dad2 ffbb de18 30ba 2fa1 ac3b 686a 7f3b
00000030: f21d 3f3b 28db 1f3a 9900 b63b bdc7 bab9
00000040: 525a 80bb 6ccb 433a a4e9 8639 ae7b 833b
00000050: 38f3 303b f448 3dbc c0cf b73b 7ef1 db38
00000060: 8882 d33a 567b bfbb 40db d03b a1c5 9c3b
00000070: 5d15 00bc 8ee4 be3b d0c7 bcbb 554a cebb
00000080: 89ab 5bbb 6439 abbb 2ccc 17bb c1bf b6bb
00000090: e01c 453b 8548 17b9 2d08 28bc 30bb 323b
000000a0: 593f 513b 9048 96bb 829e 0fba 19d9 fdba
000000b0: 0d3e ea3b a029 0abc 357b 8c3b bb28 b0ba
000000c0: 9c11 c2bb 50e7 d7bb 8c0f a0ba 5901 b9bb
000000d0: 5cd5 34bb 31dc a13a ec04 633b f476 09bb
000000e0: ce18 1b3b 0bf9 bb3b 3e79 6fbb 5c4f ed3a
000000f0: 2296 97ba c1fd d53a d3e5 073c b3e0 45b9
00000100: 0e04 f7bb 2a60 0e3a d57f 2b3c 9da6 1bbc
00000110: cf3c b33b c6c4 ab3a 6f82 443c 4f1b 7d3b
00000120: 60cf d4bb e0f1 043c c43c 2a3c b55a 25bc
00000130: 3c9a 78bb 9a86 bdbb d1fe 8abb 6ba5 543c
00000140: 2bc0 0c3c 5167 5a3c fdf2 40bb 4c77 e7b8
00000150: 91fe 933b 4c1f 39bc e8c8 823c 9180 05bc
00000160: c59a a4bb cefc 2bbc 2e6c d13b a1ab 113c
00000170: 9766 113c fe0c 28bc 705e b23b 15dc bebc
00000180: adcc 813a 39a4 3e3c 99e6 1abc dce3 503c
00000190: e01e 13bc 59ad 11bb 2f73 ad3b 814b 44bc
000001a0: 7309 823a 50bd 543c c47d 083a 16a1 e5bb
000001b0: 7bf1 95bb 97c0 af3b eafb f93a 0d51 debb
000001c0: baa7 c83a 894b 84bb 3163 8c3b a0aa 36bc
000001d0: 2234 533c 67ca 44bb 5118 a7ba 70ea 413c
000001e0: 29a1 bd3b 588b 273c e1b3 d23b f35c c93b
000001f0: 1174 dc3b c96e c3bb fa14 893b 27d2 103c
00000200: eeea adbb 1429 89ba 23ff 673c 008e 01bc
00000210: d86f 7e3b 72b0 c03b f951 4d3c 91e8 e03b
00000220: 0cdd d6bb dc6e 603b acbc 0b3c eb8a 12bc
00000230: 916c 71ba a77b 70bb 1414 e2bb 2605 2b3c
00000240: cbe0 ed3b 623c 5d3c 42ae 5fb9 a9ee 033b
00000250: 49f3 d93b 6e24 2ebc 20b4 853c 8df0 fabb
00000260: 7b98 51bb fb86 59bc 4c1d 923b 502c db3b
00000270: 207b ff3b dd33 30bc e470 ee3b abf9 b6bc
00000280: 3959 85ba 33f4 203c c23e 50bc ad43 783c
00000290: de4b e2bb adf8 78bb a460 de3b b019 54bc
000002a0: 4f6b b2ba baf1 6d3c 05ec beba fd72 07bc
000002b0: 84b5 5aba e2c9 163c 9ed0 533b be13 e0bb
000002c0: fbc4 0d3b d753 ddbb 1e04 383b 1d02 7fbc
000002d0: 4a0c 973c 212a c8ba 1d99 fc39 fe36 123c
000002e0: 2692 cc3b 2a70 133c 4141 013c 048f 053c
000002f0: 5c2a 853b a47f d4bb b0c9 883b dd08 ab3b
00000300: d96a 123c c2df 28bc d455 9d3c 27fb 813b
00000310: 5fe0 07bc 897f 363c 49b0 1d3c ace8 a13c
00000320: 0089 babb 2dbd 5abc df77 6dbb 56e0 1f3b
00000330: 8acb 473c 39d7 203c 7fa5 a0bc a0f7 0dbb
00000340: da56 d0ba 3c05 833b df28 383c fb70 39bb
00000350: eb58 663c 3f9b 95b9 cd5d 1d39 a09e 5fbb
00000360: 7401 da3b 36b5 2ebc 3aff 00bc 3a49 93bb
00000370: 76f2 cd39 0306 4dbc 39a2 8b3c 5147 70bb
00000380: 1d14 35bc 4419 02bc b208 adbc efdc c33c
00000390: f7f0 d03b 423b 2b3b 9f89 7d3a fd5d d9bb
000003a0: 2414 90bc b8f8 a63b 2315 ebbb 1b42 37bb
000003b0: d3d8 683c dd40 cc3c 6a09 213c 7914 38bb
000003c0: 47dd cd3b 486d 6abc 73be a8bb f232 d9bc
000003d0: 20e4 0d3d ea0c 183b 6b60 5f3c 8a4c b8bb
000003e0: d661 053c ea41 4fbb 2247 833c c2d1 ab3c
000003f0: 7428 debb bdc9 e6bb 9fdd 993b 621e 95bc

embedding.conv1.weight f4 [64, 1, 4, 4]
0.009523334 0.010239858 -0.041760843 0.037282802 -0.0043582614 -0.0018279137 -0.00500531 0.017274192
0.010136748 0.0029940116 0.009999811 0.006353208 -0.018135706 0.013533329 -0.019999932 0.013128558
-0.030892968 0.018988699 -0.002529943 0.0012390316 0.015066149 -0.021349298 -0.0052870954 -0.0055563655
0.01646244 0.04974353 0.012541004 -0.0012900805 0.0055810246 -0.0044962973 0.029696148 -0.01622608
0.007771984 0.0152081335 0.014681555 0.0080254 -0.00766482 0.041381843 -0.030602934 -0.015346132
-0.034652006 -0.020644004 0.030913096 0.015502981 0.0135699045 0.024267705 -0.024632236 -0.0041895914
0.014142257 -0.0115816295 0.018355746 -0.0091392035 -0.01763054 0.020991597 0.017710032 0.0082262475
-0.008150634 -0.029459558 0.03458988 0.012719226 -0.025521684 -0.03231326 -0.020894872 -0.0018286963
0.009531099 -0.020385059 -0.004851409 -0.004235721 0.020347407 0.0005767115 -0.03401019 0.049473546
0.003241139 0.0041660983 0.020799646 -0.0034859998 -0.014777043 -0.035316564 0.0074295793 0.002126867
0.023244865 0.015044937 0.016258342 0.0016393143 -0.006969982 -0.023629298 -0.002952125 0.0009544546
-0.012329113 -0.009506237 -0.026882052 -0.011241321 0.028401481 -0.00038570116 -0.0071512326 -0.01527006
0.024101587 -0.020444369 -0.016408425 0.022896718 -0.013423385 0.013983335 -0.006945116 0.0126066515
-0.028629595 0.032677338 0.014656483 -0.015262739 -0.014479353 -0.0051061977 -0.002403976 0.013460325
-0.02232492 -0.008143547 0.008197755 -0.0054457714 -0.0076232473 0.022345422 -0.010850914 0.033164814
0.00042503106 -0.035278358 0.008641694 -0.013894871 -0.013214867 -0.008018825 0.0071588964 -0.016240537
-0.009496852 0.0058419635 -0.042488527 0.0012272096 0.004546017 0.025635218 0.001132042 -0.012109797
0.014735933 0.0050826455 -0.031814277 0.008981 -0.019741759 -0.03115109 0.018822724 0.0075284503
-0.051576193 -0.019381793 -0.00867747 0.0069738002 0.009617065 0.038884997 0.002205571 0.007735885
-0.019745156 -0.0030725182 0.028967222 0.014123708 0.013427235 -0.006124246 0.0023399338 -0.007486899
-0.01539905 0.015624521 -0.010170002 -0.0016985496 -0.008263253 -0.01759493 0.022715395 0.006660806
-0.0075795245 0.008622357 0.007540841 0.0074122385 -0.017947074 0.016773276 0.0034327717 -0.008092876
-0.0038038818 0.015174858 0.031768907 -0.019425387 0.020163206 0.021981303 0.031325832 -0.016677253
-0.018506896 0.016993344 -0.037360862 -0.016500363 0.0032288474 0.017762344 -0.008265083 -0.044200256
-0.03913997 0.01774374 -0.0069242213 0.044321407 0.010924507 -0.021450184 -0.012380763 0.019131918
-0.028775556 0.004596142 0.017290521 -0.00196073 -0.017127793 0.015613111 0.025941033 0.024767494
0.0388768 0.018457815 -0.005918391 0.01965317 -0.006059015 0.01435933 -0.013770628 0.007448161
-0.032103837 0.021944836 0.019633431 -0.010269116 -0.011643495 -0.009423993 -0.031811543 0.021717926
0.01484436 -0.0025278847 -0.013480236 -0.022819446 -0.029921867 0.027753282 0.015220329 -0.0059096934
0.00446563 0.0149716735 0.0064476156 -0.016390665 0.0072605545 -0.026611697 -0.019135822 -0.0022621555
-0.021506932 -0.03536124 -0.039468035 -0.0062292623 0.05238559 -0.019227918 -0.00085126515 0.009464545
0.024872335 -0.011333197 -0.017597614 0.00591449 -0.010362789 0.003799722 0.056641497 0.0047328193
00000000: c207 1c3c 14c5 273c 6b0d 2bbd dab5 183d
00000010: bfcf 8ebb 9b96 efba 9503 a4bb 9b82 8d3c
00000020: 9a14 263c 2e37 443b 3fd6 233c 922e d03b
00000030: 5591 94bc e5ba 5d3c e6d6 a3bc 2a19 573c
00000040: 4013 fdbc 308e 9b3c 66cd 25bb 0067 a23a
00000050: 02d8 763c b9e4 aebc 5f3f adbb 2c12 b6bb
00000060: 3ddc 863c dfbf 4b3d c978 4d3c eb17 a9ba
00000070: 07e1 b63b ad55 93bb 5645 f33c 8eec 84bc
00000080: 21ac fe3b 892b 793c e88a 703c f87c 033c
00000090: 2c29 fbbb 0280 293d 01b3 fabc 586e 7bbc
000000a0: 43ef 0dbd 9d1d a9bc 763d fd3c 3700 7e3c
000000b0: 4e54 5e3c 11cd c63c 8bc9 c9bc d748 89bb
000000c0: edb4 673c e0c0 3dbc ca5e 963c 99bc 15bc
000000d0: ec6d 90bc 92f6 ab3c a114 913c 62c7 063c
000000e0: 3d8a 05bc 2c55 f1bc 1eae 0d3d 4d64 503c
000000f0: da12 d1bc e95a 04bd b92b abbc deb0 efba
00000100: 5428 1c3c 91fe a6bc 91f8 9ebb cecb 8abb
00000110: 9baf a63c 742e 173a 454e 0bbd c6a4 4a3d
00000120: 4a69 543b c483 883b 0564 aa3c 5f75 64bb
00000130: 691b 72bc 1aa8 10bd d473 f33b e862 0b3b
00000140: 046c be3c 0a7f 763c 3730 853c 43de d63a
00000150: 7264 e4bb 3b92 c1bc 7078 41bb 5d34 7a3a
00000160: 0c00 4abc 0cc0 1bbc c037 dcbc 852d 38bc
00000170: 39aa e83c ef37 cab9 e354 eabb 462f 7abc
00000180: b170 c53c f37a a7bc f66a 86bc e691 bb3c
00000190: c2ed 5bbc 5c1a 653c db93 e3bb 218c 4e3c
000001a0: 9d88 eabc acd8 053d bf21 703c 9110 7abc
000001b0: cf3a 6dbc e451 a7bb 068c 1dbb b288 5c3c
000001c0: c0e2 b6bc 836c 05bc e04f 063c 7172 b2bb
000001d0: 6fcc f9bb bf0d b73c 08c8 31bc d4d7 073d
000001e0: b4d6 de39 0a80 10bd e495 0d3c 50a7 63bc
000001f0: 2b83 58bc 6461 03bc 2d95 ea3b e00a 85bc
00000200: af98 1bbc f16d bf3b 7308 2ebd 52da a03a
00000210: c1f6 943b f300 d23c 0761 943a 2c68 46bc
00000220: fc6e 713c 528c a63b b04f 02bd 0b25 133c
00000230: 78b9 a1bc 9230 ffbc 1d32 9a3c 38b1 f63b
00000240: 8f41 53bd 91c6 9ebc f22b 0ebc 7a84 e43b
00000250: e590 1d3c e045 1f3d 578b 103b 4f7d fd3b
00000260: 98c0 a1bc 4d5c 49bb ab4c ed3c 2067 673c
00000270: e8fd 5b3c e6ad c8bb 9359 193b a954 f5bb
00000280: 4c4c 7cbc fefd 7f3c 14a0 26bc dea1 deba
00000290: 9862 07bc 3e23 90bc a315 ba3c e442 da3b
000002a0: a95d f8bb c944 0d3c 2919 f73b 5de2 f23b
000002b0: be05 93bc 1c68 893c 5af8 603b fb97 04bc
000002c0: 8c4a 79bb f89f 783c 1d20 023d fd21 9fbc
000002d0: 4f2d a53c 2212 b43c 844f 003d bc9e 88bc
000002e0: c69b 97bc a035 8b3c b407 19bd c52b 87bc
000002f0: 129b 533b 5682 913c 456a 07bc 540b 35bd
00000300: 3c51 20bd 525b 913c 94e4 e2bb 5d8a 353d
00000310: b4fc 323c 4cb8 afbc afd8 4abc 8aba 9c3c
00000320: b7ba ebbc 3c9b 963b daa4 8d3c 977f 00bb
00000330: 964f 8cbc 22ce 7f3c 4a82 d43c 33e5 ca3c
00000340: 483d 1f3d d834 973c 10ef c1bb afff a03c
00000350: b48a c6bb 6543 6b3c 339e 61bc b40f f43b
00000360: 507f 03bd a8c5 b33c 4ad6 a03c cb3f 28bc
00000370: 5cc4 3ebc 1767 1abc d24c 02bd cbe9 b13c
00000380: c235 733c deaa 25bb 35dc 5cbc d9ef babc
00000390: b41e f5bc da5a e33c b05e 793c 1aa6 c1bb
000003a0: 6b54 923b c04b 753c 8546 d33b b745 86bc
000003b0: f2e9 ed3b c600 dabc bac2 9cbc ac40 14bb
000003c0: 4e2f b0bc f3d6 10bd 3ca9 21bd d71e ccbb
000003d0: 4692 563d de83 9dbc 7027 5fba 2e11 1b3c
000003e0: 11c1 cb3c e0ae 39bc df28 90bc 57ce c13b
000003f0: b0c8 29bc c204 793b ea00 683d c415 9b3b

embedding.conv1.bias f4 [64]
0.0052606277 0.002987232 0.006566245 0.002953356 -0.008751722 -0.008589516 0.009630041 -0.0016475333
-0.004023145 0.009279847 -0.005001028 0.000155425 0.0039960286 0.009309759 -0.0020266338 -0.004091863
0.0045737224 -0.004294788 0.0076644975 -0.007245384 0.005881025 0.0147558525 -0.007267818 0.010760908
-0.0077201696 0.0027716234 0.0030459503 -0.006768331 0.0035058802 -0.006089729 0.0075968853 0.00815985
-0.010129607 0.0007979241 -0.0057234806 0.00773827 0.00029042177 0.013579086 0.00063555944 -0.003314881
-0.019935058 -0.0023205294 0.0069500306 0.0046812324 -0.0033268852 -0.003187686 0.0027514608 -0.0027645323
0.0071209795 -0.0044711456 0.0015816506 -0.0022176853 0.00854718 -0.0003144936 0.008973772 -0.017199874
0.0054934123 -0.0059635257 0.011173087 0.006987206 -0.0067339614 -0.0007144539 -0.009009605 -0.007423495
00000000: 5861 ac3b 70c5 433b a829 d73b 178d 413b
00000010: 6263 0fbc 0bbb 0cbc 52c7 1d3c 0bf2 d7ba
00000020: 96d4 83bb 800a 183c aadf a3bb 95f9 2239
00000030: 1ef1 823b f687 183c 46d1 04bb 0915 86bb
00000040: 2adf 953b 4bbb 8cbb 7726 fb3b b06a edbb
00000050: 9db5 c03b 88c2 713c e026 eebb 854e 303c
00000060: 7af9 fcbb 20a4 353b 919e 473b e0c8 ddbb
00000070: e9c2 653b 598c c7bb 4bef f83b e4b0 053c
00000080: a7f6 25bc c82b 513a 098c bbbb 5091 fd3b
00000090: c043 9839 d17a 5e3c ac9b 263a 793e 59bb
000000a0: d94e a3bc 0614 18bb 15bd e33b 0665 993b
000000b0: df07 5abb 7fe8 50bb da51 343b 282d 35bb
000000c0: 1b57 e93b b082 92bb 634f cf3a 9656 11bb
000000d0: 7909 0c3c 9ee2 a4b9 ba06 133c c0e6 8cbc
000000e0: 1502 b43b ae69 c3bb 530f 373c eff4 e43b
000000f0: 90a8 dcbb 314a 3bba 069d 13bc ca40 f3bb

encoder.0.attention.queries.weight f4 [64, 64]
-0.00848355 0.046786856 -0.044832155 0.026174342 -0.06850579 -0.057338323 0.036674716 -0.08774264
0.009758095 0.074419886 -0.04438334 -0.03353352 0.004095092 -0.0503096 -0.06302344 0.011174779
0.07310029 0.04603774 0.06524213 -0.032113552 -0.023711527 0.052563205 -0.04846267 -0.059960857
0.007819812 0.041857928 -0.04056757 -0.028642895 0.0945133 -0.011842109 0.03470336 0.03918909
0.041745007 0.021862205 0.0026043695 0.07548205 -0.012064674 -0.0021935173 0.05960908 -0.014834413
-0.03751718 0.050337866 0.034430448 0.04526423 -0.07872094 0.064091556 -0.058005013 0.030050086
0.067402266 0.049545918 0.09978182 0.027151119 0.039288506 -0.044965032 -0.046008337 0.023042528
-0.03793355 -0.058316752 0.031651154 0.00146776 0.011211259 0.004922636 -0.015884396 0.053779047
-0.005035961 0.065522164 0.008093988 0.030916767 -0.03212551 -0.030690745 0.05429384 -0.06075947
0.03180303 -0.011944558 -0.043506823 -0.057756606 -0.006941919 0.0053697056 -0.054324426 -0.015599276
0.059164297 -0.009714423 0.032001693 -0.012252626 0.007806191 0.06992635 -0.0011938423 -0.042599425
-0.035899732 0.0609476 -0.0115519315 0.003589415 0.06709545 -0.03554807 0.0040697698 0.013048813
0.022481292 0.0015668968 0.025094155 0.0415449 -0.03774676 0.022013418 0.08314217 -0.060090948
-0.027234567 0.02656521 0.034133676 0.016416749 -0.04886551 0.052326914 -0.02600337 -0.032829963
0.029884813 0.021237439 0.01878054 0.064215876 0.0561431 0.007220059 -0.032075133 0.010951832
-0.015050758 -0.010720241 0.059169386 0.006405201 0.024208553 0.018925931 -0.035150617 0.0077392817
0.045124523 -0.037762225 -0.00653597 0.013446235 0.051639777 0.049034603 -0.018847024 -0.016127964
-0.041309375 -0.031093976 0.003556547 0.044560447 -0.02805454 0.038404502 0.031418916 0.0029471738
-0.04039706 -0.01031209 0.018075353 0.0022402357 0.055165295 -0.022023678 0.012292842 0.020396302
-0.0034097852 -0.0356054 0.04472274 -0.0015760743 -0.037983824 0.0047779283 -0.014056989 -0.029477412
-0.006835008 -0.036100045 0.0149479415 -0.029745195 0.033826593 0.030543327 -0.025709884 -0.01485854
0.049494542 0.0031496256 0.0035999937 0.0015693664 0.038489044 -0.014777504 0.032341197 -0.0054410677
-0.008380133 -0.04093427 -0.06933142 -0.053641807 -0.009063583 0.030757159 0.015992526 -0.029582296
0.0051626703 0.01623733 -0.005429552 -0.0050580166 -0.03344857 -0.0022971872 0.014547508 0.014845206
0.014714131 0.0006674047 0.008131716 -0.024984473 0.0009853378 0.0148482835 -0.0363657 0.0010159386
-0.01747332 -0.025173299 0.0064525413 0.017351082 0.01578347 0.021750707 0.014854611 -0.03166828
-0.027104901 0.004596057 0.019539738 -0.015390148 0.037242495 -0.037064902 0.015568512 -0.0067324582
-0.017952027 -0.028451554 0.021615515 -0.0059460592 -0.048532426 0.007640492 2.5015988e-05 -0.04815281
0.012149566 -0.021044731 -0.00041584292 -0.01058351 0.02658453 0.006767723 -0.039736617 -0.019823974
0.040021006 -0.024641145 -0.0044767787 -0.016411826 0.037391357 0.0019241824 0.026167607 0.011363142
-0.0029680792 -0.03701796 0.010408301 -0.047691036 0.018634295 0.028141627 0.011949397 -0.031062197
-0.029933231 0.013337601 -0.02416975 0.025848133 -0.012744291 0.02660127 0.027789839 -0.0073878905
00000000: 96fe 0abc 93a3 3f3d eca1 37bd 936b d63c
00000010: c34c 8cbd 97db 6abd 3a38 163d 6ab2 b3bd
00000020: 6be0 1f3c 7469 983d 4ecb 35bd 725a 09bd
00000030: 1f30 863b 7011 4ebd 6f12 81bd 6c16 373c
00000040: 9bb5 953d 1292 3c3d aa9d 853d 8089 03bd
00000050: ad3e c2bc 844c 573d cb80 46bd 8499 75bd
00000060: ab1e 003c 3873 2b3d 2e2a 26bd 81a4 eabc
00000070: 3090 c13d 6805 42bc 1c25 0e3d bd84 203d
00000080: d0fc 2a3d 5e18 b33c 12ae 2a3b 5596 9a3d
00000090: e9aa 45bc 1dc1 0fbb a728 743d 0a0c 73bc
000000a0: 9dab 19bd 142f 4e3d f106 0d3d fc66 393d
000000b0: 7238 a1bd 6f42 833d aa96 6dbd 992b f63c
000000c0: 330a 8a3d a9f0 4a3d 695a cc3d 066c de3c
000000d0: fcec 203d 412d 38bd 3d73 3cbd afc3 bc3c
000000e0: 3660 1bbd 8cdd 6ebd a4a4 013d da61 c03a
000000f0: 6eaf 373c 104e a13b fe1f 82bc 6b47 5c3d
00000100: b404 a5bb 7c30 863d a59c 043c 2945 fd3c
00000110: 0a96 03bd 286b fbbc 3863 5e3d ecde 78bd
00000120: e543 023d 1bb3 43bc 3634 32bd 3192 6cbd
00000130: 0a79 e3bb 5bf4 af3b 4a83 5ebd 1b94 7fbc
00000140: 4356 723d 3e29 1fbc 3514 033d 3dbf 48bc
00000150: 14cb ff3b 8c35 8f3d b37a 9cba bc7c 2ebd
00000160: 990b 13bd 31a4 793d 5044 3dbc 643c 6b3b
00000170: 5769 893d da9a 11bd b45b 853b b0ca 553c
00000180: b02a b83c 5560 cd3a 4292 cd3c fc2a 2a3d
00000190: 599c 1abd 7c55 b43c 7146 aa3d ed21 76bd
000001a0: 071b dfbc 499f d93c c1cf 0b3d 6b7c 863c
000001b0: 3327 48bd bf54 563d 0505 d5bc b678 06bd
000001c0: ffd0 f43c 23fa ad3c a6d9 993c 9d83 833d
000001d0: 4ff6 653d 3f96 ec3b 3761 03bd 506f 333c
000001e0: 7497 76bc f3a3 2fbc 995b 723d b8e2 d13b
000001f0: 0451 c63c 8e0a 9b3c 18fa 0fbd cd99 fd3b
00000200: 7ed4 383d 90ac 1abd b12b d6bb 994d 5c3c
00000210: 3b84 533d 82d8 483d 1365 9abc cb1e 84bc
00000220: 0534 29bd cbb8 febc f514 693b 0485 363d
00000230: a2d2 e5bc 0a4e 1d3d 1fb1 003d 5f25 413b
00000240: 6377 25bd 0af4 28bc c312 943c ebd0 123b
00000250: 01f5 613d 006b b4bc eb67 493c 2516 a73c
00000260: b476 5fbb f8d6 11bd 312f 373d 4794 ceba
00000270: ed94 1bbd 2b90 9c3b 494f 66bc 9d7a f1bc
00000280: 34f8 dfbb a4dd 13bd 36e8 743c 32ac f3bc
00000290: c18d 0a3d 0036 fa3c 899d d2bc 3c71 73bc
000002a0: caba 4a3d f369 4e3b dfed 6b3b 33b3 cd3a
000002b0: b0a6 1d3d 581d 72bc 3478 043d fc4a b2bb
000002c0: d34c 09bc b1aa 27bd a2fd 8dbd 83b7 5bbd
000002d0: 6c7f 14bc 70f6 fb3c c202 833c 9256 f2bc
000002e0: 9e2b a93b 2604 853c 62ea b1bb b8bd a5bb
000002f0: 5e01 09bd 688c 16bb ac58 6e3c 4f39 733c
00000300: 8a13 713c c5f4 2e3a e43a 053c 3dac ccbc
00000310: 7326 813a 3746 733c 33f4 14bd 3e29 853a
00000320: 3524 8fbc 3c38 cebc d76f d33b db23 8e3c
00000330: 564c 813c 8a2e b23c c160 733c 99b6 01bd
00000340: 190b debc 859a 963b cd11 a03c f626 7cbc
00000350: 968b 183d 5ed1 17bd 1213 7f3c f49b dcbb
00000360: 2110 93bc 3c13 e9bc 0513 b13c 29d7 c2bb
00000370: f0c9 46bd 185d fa3b 6dd9 d137 e23b 45bd
00000380: f90e 473c 0066 acbc 7e05 dab9 7566 2dbc
00000390: cdc7 d93c c6c3 dd3b ddc2 22bd e365 a2bc
000003a0: 11ed 233d 3adc c9bc f1b1 92bb 1872 86bc
000003b0: ae27 193d d934 fc3a 735d d63c 792c 3a3c
000003c0: 1b84 42bb 25a0 17bd 9487 2a3c ad57 43bd
000003d0: f3a6 983c 4589 e63c 67c7 433c 2676 febc
000003e0: 8936 f5bc f485 5a3c a4ff c5bc 77bf d33c
000003f0: 6ecd 50bc e8ea d93c 84a7 e33c 1e16 f2bb

encoder.0.attention.queries.bias f4 [64]
-0.054662198 -0.047385246 0.023288049 0.0263126 -0.04583935 0.044237483 -0.037757996 0.036592547
-0.038157452 -0.04022937 0.049175713 0.05381634 0.04669721 -0.04411902 0.049826905 0.050867684
-0.03186668 -0.0059336885 -0.008586354 -0.04357932 0.014939312 0.038810313 0.034278743 -0.021586806
0.022467917 0.023823773 0.03088626 -0.015627054 -0.03410388 0.016613055 -0.030124236 0.04211
-0.030743336 -0.0032563556 0.039463177 0.019284394 0.019247232 -0.028276898 -0.028137907 -0.017614236
0.01707071 -0.03297547 -0.030457845 0.025898745 0.013817734 -0.023645397 -0.029081764 0.010988301
-0.05482966 0.03515447 -0.033928227 -0.047915015 -0.048686855 -0.030611232 0.04087354 0.044911608
0.014055342 -0.03900582 -0.027089726 0.035916667 -0.034571953 0.020850975 0.032858517 -0.051382326
00000000: 78e5 5fbd 0817 42bd 94c6 be3c 868d d73c
00000010: 0bc2 3bbd 5d32 353d 21a8 1abd 11e2 153d
00000020: fd4a 1cbd 8dc7 24bd 796c 493d 866e 5c3d
00000030: 9345 3f3d 25b6 34bd 4c17 4c3d a25a 503d
00000040: a386 02bd 636f c2bb c7ad 0cbc 3b80 32bd
00000050: 04c4 743c 90f7 1e3d de67 0c3d d0d6 b0bc
00000060: a30e b83c 132a c33c 2f05 fd3c 4f04 80bc
00000070: 83b0 0bbd 1a18 883c 1ac7 f6bc 897b 2c3d
00000080: 73d9 fbbc 9568 55bb 24a4 213d 4efa 9d3c
00000090: 5fac 9d3c f4a4 e7bc 7881 e6bc bb4b 90bc
000000a0: e0d7 8b3c 4911 07bd bb82 f9bc 9b29 d43c
000000b0: c763 623c feb3 c1bc e13c eebc 4608 343c
000000c0: 1195 60bd 22fe 0f3d 53f8 0abd 8942 44bd
000000d0: de6b 47bd 68c4 fabc 036b 273d 3cf5 373d
000000e0: 6148 663c 91c4 1fbd 46eb ddbc 5b1d 133d
000000f0: 529b 0dbd aacf aa3c a796 063d 4676 52bd

encoder.0.attention.keys.weight f4 [64, 64]
0.0030441987 0.08255278 -0.022851022 -0.0970352 -0.027213177 -0.027226513 0.019015154 -0.021794554
0.0072326437 0.058676105 -0.028509414 0.06570521 0.008956318 -0.020524267 -0.012293007 0.03100508
-0.009669577 0.03428434 0.06518549 -0.052831974 0.011827464 0.02588185 -0.022614846 -0.03356852
-0.005095765 0.07100635 0.07928281 0.046842486 0.059779763 -0.036642864 0.0233124 0.015547217
0.015321309 -0.019077977 0.0022746725 0.005058276 -0.031442355 0.04139404 0.087825276 -0.04497887
-0.06814537 0.059640955 0.039020766 0.017182967 -0.019408181 -0.021129908 -0.0023703843 -0.09249221
-0.00943683 0.051884674 0.012681751 0.048340254 0.0057803034 -0.0350559 -0.0047218907 0.031834517
-0.0007054827 -0.06462761 -0.026362507 -0.030178994 -0.06605167 0.03273455 -0.00079692906 0.0082656015
-0.029663963 0.012288978 0.002384224 -0.09096353 -0.01961251 -0.003271897 0.012039951 -0.0033534695
0.008735068 0.01873056 -0.021266313 0.027338367 0.00015699244 -0.053335264 0.015429065 0.033191964
0.007604772 0.03427772 0.048099518 0.019423703 -0.026701013 0.04712583 -0.022235075 -0.014267995
-0.002785251 0.04022639 0.06725657 -0.020979168 0.048165824 -0.05923216 0.012955666 0.05750231
0.009395399 0.0027967417 -0.025572618 0.0020137024 -0.025559943 0.09129909 0.066798426 -0.033628393
-0.036202986 0.009973348 0.018491521 0.024430076 0.009357396 -0.057065826 -0.024845881 -0.098142296
-0.025495464 0.06521912 0.005322048 0.090636835 0.03945721 -0.04285863 -0.040056642 0.0061768196
0.016771121 -0.009109946 -0.021679068 -0.036560748 -0.0025386424 0.025276998 -0.005789615 0.013311362
0.018782616 -0.04453362 0.036720674 0.0947065 0.0025902807 0.03350084 0.018869191 0.0026598063
0.01695408 -0.04169186 0.031793017 -0.008929192 -0.012783714 0.009146809 -0.0015578785 -0.0027506512
-0.046772704 -0.052910894 -0.05143536 0.011839737 -0.005893571 0.0059517357 -0.01818841 -0.019792186
-0.013161409 0.0013201575 -0.07194335 -0.06136208 -0.008647934 0.05051558 -0.03095869 -0.005153128
-0.00968845 0.04596434 -0.011373362 -0.0057270452 0.008192384 -0.017481836 -0.025401004 0.04687908
0.026887512 -0.013268172 -0.03527986 -0.013657983 -0.06409121 0.060539566 -0.0087900385 0.05261701
0.027226351 0.003068706 -0.039553586 -0.047733176 0.0006563895 0.026438424 -0.0066970335 -0.02653731
-0.013916459 -0.012779777 0.021534922 0.028401053 0.014814691 -0.01922345 -0.013266205 -0.042586412
-0.023197806 -0.029437017 0.0387721 0.106555395 0.027403537 -0.021577885 0.015517357 -0.0246793
-0.019095877 -0.013669143 -0.0039818357 -0.035015557 -0.036965445 0.009978275 -0.011610822 0.02010714
-0.010543168 -0.048631206 -0.08282356 -0.019741554 -0.013000426 -0.022197558 -0.01934636 0.04565017
-0.0075153736 -0.02641759 -0.030624023 -0.018847862 -0.034024406 0.04606202 -0.000112002854 -0.005732108
0.009945982 0.014670313 -0.019357417 -0.04581379 0.024641544 -0.042151548 -0.019633248 -0.022771895
0.030145207 -0.026639 -0.03330863 0.015833983 -0.003865726 0.05994576 -0.018158248 0.04642705
0.043634266 -0.0054447493 -0.003975363 -0.03651515 0.0038239374 0.046690498 0.012675064 -0.017375391
0.023415262 0.028437192 0.01945631 -0.0069324463 0.016955141 -0.0072594234 0.0311076 -0.041411463
00000000: 2e81 473b 6f11 a93d 1132 bbbc 64ba c6bd
00000010: 2bee debc 230a dfbc abc5 9b3c 7e8a b2bc
00000020: d0ff ec3b 5b56 703d 938c e9bc 7490 863d
00000030: 85bd 123c 8222 a8bc 9c68 49bc 5efe fd3c
00000040: 256d 1ebc bc6d 0c3d f87f 853d 5766 58bd
00000050: fbc7 413c 2c06 d43c c542 b9bc 257f 09bd
00000060: 60fa a6bb c76b 913d 075f a23d e8dd 3f3d
00000070: a0db 743d d416 16bd a5f9 be3c c1b9 7e3c
00000080: 3a06 7b3c 6b49 9cbc ac12 153b e5bf a53b
00000090: b3c9 00bd cc8c 293d bddd b33d c33b 38bd
000000a0: cd8f 8bbd 134a 743d 3dd4 1f3d 4bc3 8c3c
000000b0: e8fd 9ebc a118 adbc 7358 1bbb 8e6c bdbd
000000c0: ef9c 1abc 0685 543d 1ec7 4f3c 6e00 463d
000000d0: b368 bd3b c796 0fbd 17ba 9abb e964 023d
000000e0: 24f0 38ba 7b5b 84bd 2ff6 d7bc f039 f7bc
000000f0: 1946 87bd aa14 063d 01e9 50ba 726c 073c
00000100: d701 f3bc b657 493c a440 1c3b 164b babd
00000110: 6aaa a0bc 536d 56bb 3743 453c e2c5 5bbb
00000120: 881d 0f3c d570 993c b136 aebc b6f4 df3c
00000130: 569e 2439 1476 5abd 30ca 7c3c 4cf4 073d
00000140: 7431 f93b cb66 0c3d 0004 453d 751e 9f3c
00000150: 15bc dabc 0407 413d 5526 b6bc 4fc4 69bc
00000160: c288 36bb 6dc4 243d d0bd 893d 81dc abbc
00000170: 8749 453d 6c9d 72bd 0044 543c 8b87 6b3d
00000180: 29ef 193c 8a49 373b ab7d d1bc 52f8 033b
00000190: 1663 d1bc 04fb ba3d 9dcd 883d edbd 09bd
000001a0: 9549 14bd 4167 233c 887b 973c 9521 c83c
000001b0: c34f 193c dbbd 69bd 9789 cbbc d4fe c8bd
000001c0: dddb d0bc 9a91 853d 9364 ae3b ce9f b93d
000001d0: e29d 213d 888c 2fbd 6f12 24bd eb66 ca3b
000001e0: 9763 893c e241 15bc 4d98 b1bc b9c0 15bd
000001f0: 5a5f 26bb b511 cf3c d0b6 bdbb e617 5a3c
00000200: 00de 993c e368 36bd 6b68 163d 7bf5 c13d
00000210: b3c1 293b 2d38 093d 9093 9a3c 2550 2e3b
00000220: 48e3 8a3c 15c5 2abd 6539 023d bf4b 12bc
00000230: c872 51bc 7fdc 153c ba31 ccba 4544 34bb
00000240: bc94 3fbd 18b9 58bd e2ad 52bd 75fb 413c
00000250: db1e c1bb c706 c33b dcff 94bc 3923 a2bc
00000260: f3a2 57bc 2309 ad3a 0957 93bd ce56 7bbd
00000270: 10b0 0dbc 6de9 4e3d 149d fdbc 92db a8bb
00000280: 4ebc 1ebc 1b45 3c3d 5657 3abc f0a9 bbbb
00000290: 5939 063c 1136 8fbc c415 d0bc 4704 403d
000002a0: 3343 dc3c bf62 59bc 9d81 10bd bcc5 5fbc
000002b0: 4142 83bd 56f8 773d 1804 10bc ef84 573d
000002c0: cc09 df3c 581c 493b f102 22bd dd83 43bd
000002d0: 8e11 2c3a 6595 d83c ca72 dbbb c664 d9bc
000002e0: dc01 64bc 4562 51bc 016a b03c 53a9 e83c
000002f0: 51b9 723c 7f7a 9dbc 7f5a 59bc 176f 2ebd
00000300: 5309 bebc e625 f1bc 7ecf 1e3d b739 da3d
00000310: 627d e03c 1bc4 b0bc 833c 7e3c 3e2c cabc
00000320: f56e 9cbc 8bf4 5fbc 0f7a 82bb 796c 0fbd
00000330: 1469 17bd eb7b 233c 513b 3ebc bbb7 a43c
00000340: 40bd 2cbc 8431 47bd 669f a9bd 0ab9 a1bc
00000350: bdff 54bc a7d7 b5bc 427c 9ebc acfb 3a3d
00000360: 8643 f6bb b469 d8bc 3bdf fabc d566 9abc
00000370: 2d5d 0bbd 87ab 3c3d 13e3 eab8 68d4 bbbb
00000380: 79f4 223c c15b 703c 7293 9ebc 3ea7 3bbd
00000390: 10dd c93c 1aa7 2cbd e8d5 a0bc 208c babc
000003a0: 15f3 f63c 083a dabc a16e 08bd 45b6 813c
000003b0: 1f58 7dbb af89 753d 9bc0 94bc 4a2a 3e3d
000003c0: d8b9 323d de69 b2bb c343 82bb e990 15bd
000003d0: 069b 7a3b 893e 3f3d 12ab 4f3c d656 8ebc
000003e0: 5dd1 bf3c 1df5 e83c d762 9f3c 9329 e3bb
000003f0: 82e5 8a3c 75e0 edbb 5ed5 fe3c 119f 29bd

encoder.0.attention.keys.bias f4 [64]
3.4385104e-07 5.9187932e-06 1.8663886e-06 -2.1480826e-06 2.5085374e-06 -9.524301e-06 -1.8350405e-06 1.0211214e-05
1.3281111e-05 8.045405e-06 -1.3239287e-06 -7.418869e-06 -1.7321216e-05 -1.1272515e-06 5.264622e-06 -1.090364e-05
7.2401403e-06 -2.0554576e-06 -1.8861899e-06 2.501351e-06 -1.4161384e-06 -8.09182e-06 -6.7511764e-06 2.81423e-06
-3.908926e-06 -1.7165313e-07 -3.538962e-06 1.1975054e-06 2.3378566e-06 -1.1541831e-06 2.4762471e-06 -8.553749e-06
1.5911886e-05 1.6298035e-06 -1.23050495e-05 -5.0743974e-06 -3.2466694e-06 3.8357293e-06 5.731512e-06 4.9472983e-06
-3.2711864e-06 3.6351366e-06 5.096998e-06 -1.1501687e-05 -6.443061e-07 1.1097854e-05 1.2797357e-05 -2.8544991e-06
-1.087454e-05 6.2479803e-06 -1.3601751e-05 -1.2176787e-05 -1.2268205e-05 -1.0173566e-05 1.3182237e-06 1.31412435e-05
2.3406567e-06 -1.3129028e-05 -3.3405588e-06 6.1311857e-06 -3.016774e-06 5.29784e-07 3.2532976e-06 -1.80504e-05
00000000: 879a b834 0c9a c636 a080 fa35 c727 10b6
00000010: 5858 2836 90ca 1fb7 834b f6b5 d550 2b37
00000020: f0d1 5e37 c0fa 0637 d8b1 b1b5 99ef f8b6
00000030: 074d 91b7 114c 97b5 c2a6 b036 c7ee 36b7
00000040: 55f0 f236 7ef0 09b6 fe28 fdb5 e2dc 2736
00000050: 2512 beb5 1ac2 07b7 2a88 e2b6 1adc 3c36
00000060: 6b29 83b6 a74f 38b4 e77e 6db6 f9b9 a035
00000070: 12e4 1c36 6ee9 9ab5 9a2d 2636 1282 0fb7
00000080: 847a 8537 9fbf da35 c971 4eb7 be44 aab6
00000090: 5be1 59b6 aab4 8036 5051 c036 f800 a636
000000a0: 8e86 5bb6 2cf3 7336 e106 ab36 5ff7 40b7
000000b0: 61f4 2cb5 ec30 3a37 3bb4 5637 ec8f 3fb6
000000c0: cb71 36b7 bea5 d136 1333 64b7 e74a 4cb7
000000d0: 8ad3 4db7 22af 2ab7 d2ed b035 3679 5c37
000000e0: 2d14 1d36 bf44 5cb7 5d2e 60b6 7cba cd36
000000f0: c873 4ab6 7b36 0e35 3a53 5a36 f06a 97b7

encoder.0.attention.values.weight f4 [64, 64]
0.027099112 0.033361237 0.011159818 0.0021434994 0.0077119516 -0.03445217 -0.019104807 0.0042669545
0.027391518 -0.009665892 -0.001518128 -0.013420245 -0.0050284537 -0.04082545 -0.0076978235 0.0039044518
0.014490431 0.012978657 -0.04162898 -0.0073672407 0.0063937358 0.030954076 -0.0029981988 -0.000858116
-0.008546676 -0.0076391464 -0.022658544 -0.0390542 0.066533245 0.028222624 -0.034076232 0.028826768
-0.009110098 0.024954466 0.023936197 0.016234674 -0.0037352026 -0.030363413 0.011343577 0.026931113
0.009487985 0.03918814 -0.020808838 0.026108997 -0.023997191 0.012838151 0.03772243 0.016079217
0.0006345619 -0.0076736026 -0.023303641 0.014367628 -0.01901725 -0.02526395 0.008536539 -0.005346532
-0.006331912 0.02363558 0.015484762 0.0028049038 0.0067002825 0.015404694 -0.0040234653 0.026498767
-0.023221718 0.013400565 -0.04047022 -0.022628233 -0.055791795 -0.0030990667 -0.002268918 -0.016819874
0.023933735 -0.0067567 -0.05306703 0.053740334 -0.01887204 0.053976204 -0.008785258 -0.00072106486
0.025873642 0.039103765 0.0028293398 0.0123619065 0.04484047 -0.005795703 0.026748167 -0.005016109
0.031249871 0.013303731 0.0046627903 -0.027107064 0.02985832 -0.007841052 0.01114832 -0.045274302
-0.016863694 -0.008726466 -0.0034252354 -0.0020069596 -0.017787006 0.010923233 -0.028044559 -0.0019533534
-0.0218982 -0.0036143204 0.004203165 -0.02967263 -0.010032905 -0.0051745484 0.031164702 -0.037481207
0.012130364 0.019847834 -0.011607764 0.013993659 -0.012243284 -0.046258442 -0.037953746 -0.024302455
-0.014827421 -0.012615566 -0.021627339 -0.020362297 0.005452528 -0.008425665 -0.019777242 0.025587387
-0.0032824848 -0.03343897 -0.012344937 -0.042436525 0.018480625 0.018190589 0.0007197172 -0.036719207
0.010437973 -0.016762905 -0.00972519 -0.020576416 0.0023212924 0.018428607 -0.007002859 0.015663372
-0.01077499 -0.01617109 -0.0063964454 -0.011762282 0.010829819 -0.040778585 0.0043567354 0.018576438
-0.024639761 0.0022667248 -0.0026029057 -0.012088337 0.03954335 -0.041313667 0.0043075387 -0.021788107
0.0050881244 0.022400714 0.026234336 -0.022131536 0.0046523185 0.035243165 -0.0055572437 0.015644081
0.032453712 -0.0064121364 0.00011565247 0.0071390257 0.042600766 0.0003627928 0.011194869 0.03445119
-0.026164224 -0.03773564 -0.029596435 0.036282048 -0.009312896 0.009186542 0.03200379 -0.007121312
0.0026208789 -0.025461828 -0.0006007307 -0.006857234 -0.0033375279 -0.017074587 -0.026533024 -0.021113226
-0.008942955 0.015309027 0.0155774895 -0.0071495366 -0.013176314 -0.036828138 -0.015486243 0.010123943
0.031677697 0.029643126 0.016791172 -0.030551905 -0.013955561 -0.011869548 0.016993558 0.011820202
-0.011392018 -0.024733996 -0.00065634906 -0.04901607 -0.00010651285 0.032638777 -0.0112965945 0.015064382
0.04045253 0.002929904 0.0059491475 -0.013491939 -0.046927553 0.043218423 0.001041937 0.025150023
0.014594235 -0.014405274 -0.030960973 0.0036839955 -0.009132565 0.0069314283 -0.025401378 0.042128738
0.017982738 -0.024456507 -0.0734876 -0.0018930207 0.03406854 -0.0030403102 0.007106946 0.015299107
-0.012124779 -0.03028788 -0.007282235 -0.01871029 0.020528512 0.0111448 -0.02181458 0.035879727
0.012826763 -0.01238156 0.012265732 0.010142928 -0.052376032 -0.008142485 0.0028018013 -0.001888674
00000000: f5fe dd3c cba5 083d abd7 363c f479 0c3b
00000010: 8ab4 fc3b b81d 0dbd af81 9cbc cfd1 8b3b
00000020: 2d64 e03c b15d 1ebc ecfb c6ba 96e0 5bbc
00000030: bac5 a4bb 9638 27bd 063e fcbb d5e1 7f3b
00000040: 4669 6d3c 6fa4 543c 2683 2abd e568 f1bb
00000050: 8b82 d13b 6793 fd3c 6e7d 44bb 31f3 60ba
00000060: 5b07 0cbc ce51 fabb 699e b9bc 4cf7 1fbd
00000070: 9542 883d 2233 e73c 8593 0bbd 1d26 ec3c
00000080: 8542 15bc 4f6d cc3c d815 c43c 94fe 843c
00000090: 4dca 74bb b1bc f8bc 69da 393c a39e dc3c
000000a0: 7e73 1b3c be83 203d 4c77 aabc 89e2 d53c
000000b0: c295 c4bc 1c57 523c d682 1a3d 90b8 833c
000000c0: ba58 263a d872 fbbb 47e7 bebc 3366 6b3c
000000d0: 10ca 9bbc 58f6 cebc d7dc 0b3c f631 afbb
000000e0: ed7b cfbb 679f c13c cdb3 7d3c 7ad2 373b
000000f0: 0b8e db3b f863 7c3c 46d7 83bb f113 d93c
00000100: 793b bebc 0b8e 5b3c 1ac4 25bd d85e b9bc
00000110: f085 64bd b619 4bbb 21b2 14bb d5c9 89bc
00000120: ae10 c43c 4f67 ddbb d05c 59bd d31e 5c3d
00000130: 8999 9abc 2716 5d3d 0bf0 0fbc d805 3dba
00000140: f6f4 d33c 452b 203d 726c 393b 9889 4a3c
00000150: a4aa 373d e1e9 bdbb f91e db3c 2c5e a4bb
00000160: bbff ff3c e4f7 593c 52ca 983b a20f debc
00000170: 6f99 f43c c177 00bc 71a7 363c 8c71 39bd
00000180: bb25 8abc 74f9 0ebc ea79 60bb 3287 03bb
00000190: 0eb6 91bc 5cf7 323c b4bd e5bc d503 00bb
000001a0: db63 b3bc 3cde 6cbb b4ba 893b 0414 f3bc
000001b0: 0e61 24bc 428f a9bb 1e4d ff3c e585 19bd
000001c0: 6fbe 463c ed97 a23c 7e2e 3ebc a945 653c
000001d0: 0e98 48bc 7e79 3dbd 6375 1bbd f115 c7bc
000001e0: b6ee 72bc 85b1 4ebc d12b b1bc d5ce a6bc
000001f0: 1fab b23b cd0b 0abc e203 a2bc a49c d13c
00000200: f51e 57bb 4df7 08bd 6b42 4abc ecd1 2dbd
00000210: ae64 973c 6e04 953c 67ab 3c3a e166 16bd
00000220: 0804 2b3c 5c52 89bc 6756 1fbc df8f a8bc
00000230: d320 183b 97f7 963c 3d78 e5bb 7950 803c
00000240: 9589 30bc 3c79 84bc 4699 d1bb 96b6 40bc
00000250: 8e6f 313c 7207 27bd f2c2 8e3b 9d2d 983c
00000260: 53d9 c9bc 558d 143b 8395 2abb 290e 46bc
00000270: 35f8 213d 8538 29bd 4126 8d3b f97c b2bc
00000280: 48ba a63b b481 b73c 64e9 d63c 324d b5bc
00000290: 7a72 983b 235b 103d 8a19 b6bb 0428 803c
000002a0: 2fee 043d e61c d2bb 728a f238 7dee e93b
000002b0: 247e 2e3d 3a35 be39 af6a 373c b11c 0d3d
000002c0: 5b56 d6bc b090 1abd 3974 f2bc 7c9c 143d
000002d0: 1e95 18bc 2683 163c 6816 033d e559 e9bb
000002e0: 0dc3 2b3b 5395 d0bc 5b7a 1dba a6b2 e0bb
000002f0: 6dba 5abb 01e0 8bbc c95b d9bc a5f5 acbc
00000300: 7985 12bc b7d2 7a3c ba38 7f3c a946 eabb
00000310: 77e1 57bc 1ad9 16bd 03ba 7dbc e5de 253c
00000320: 79c0 013d 24d6 f23c a48d 893c fd47 fabc
00000330: dea5 64bc 7e78 42bc 1336 8b3c 85a9 413c
00000340: 96a5 3abc f39e cabc d70e 2cba 13c5 48bd
00000350: a75f dfb8 3db0 053d 5a15 39bc 99d0 763c
00000360: 8db1 253d a203 403b 11f1 c23b 4b0d 5dbc
00000370: 1b37 40bd cd05 313d 9b91 883a 6c07 ce3c
00000380: a91c 6f3c 1904 6cbc dea1 fdbc 306f 713b
00000390: c1a0 15bc 0921 e33b 8d16 d0bc 2f8f 2c3d
000003a0: 8950 933c 0359 c8bc ab80 96bd 3c1f f8ba
000003b0: 748b 0b3d f13f 47bb 62e1 e83b 1ba9 7a3c
000003c0: 02a7 46bc 4a1e f8bc d19f eebb 5246 99bc
000003d0: 692b a83c ae98 363c 7db4 b2bc 9ff6 123d
000003e0: 5827 523c 07dc 4abc 35f6 483c 862e 263c
000003f0: 4088 56bd 0f68 05bc 6d9e 373b 628d f7ba

encoder.0.attention.values.bias f4 [64]
0.003840987 0.0007224363 0.00089228374 0.0002126286 0.003949236 0.0020133983 -0.0034622527 -0.0004543181
-0.007652914 -0.00038326945 0.00205223 0.0054525663 0.0029951907 0.0018275572 0.0060573304 -0.0019489086
-0.003946966 -0.0018376497 0.0002500694 0.00385381 0.0029758275 -0.008576715 0.0035916728 0.004903826
-3.4854205e-05 -0.0055495454 0.005718675 0.00080418587 -0.008656688 0.0052406187 -0.0041032988 -0.0056782975
-0.0041198563 -0.0045267357 -0.002412816 -0.004477622 0.0031886115 0.0029715933 -0.0071203867 0.0026548866
0.002204489 -0.0043856446 0.0010324862 -0.0017989477 0.0063741147 -0.009853603 0.00420041 -0.0007042325
-0.00461197 -0.0077578407 -0.0013881017 -0.0034486896 -0.0014369794 0.0025636323 0.0037733456 -0.005632913
0.0027664471 0.0046514287 -0.0032681953 0.002057836 -0.0017816001 0.0018298759 0.0066066864 -0.002770354
00000000: 12b9 7b3b e161 3d3a 26e8 693a 0ef5 5e39
00000010: 9868 813b 38f3 033b f6e6 62bb 8b31 eeb9
00000020: 4cc5 fabb 8ef1 c8b9 b57e 063b 71ab b23b
00000030: f64a 443b a58a ef3a 927c c63b 8572 ffba
00000040: 8d55 81bb 4bdd f0ba bf1b 8339 3490 7c3b
00000050: 1a06 433b 5a85 0cbc 4562 6b3b 46b0 a03b
00000060: 6b30 12b8 f6d8 b5bb b963 bb3b 00d0 523a
00000070: c8d4 0dbc 7fb9 ab3b f774 86bb 0311 babb
00000080: dcff 86bb 0355 94bb 5620 1ebb 04b9 92bb
00000090: 06f8 503b 10bf 423b 2252 e9bb 9bfd 2d3b
000000a0: 3079 103b 74b5 8fbb 7d54 873a abca ebba
000000b0: f3dd d03b 0271 21bc 98a3 893b 3e9c 38ba
000000c0: 0220 97bb 7c35 febb f7f0 b5ba 6903 62bb
000000d0: 0759 bcba 9d02 283b 3c4a 773b 4d94 b8bb
000000e0: 484d 353b 036b 983b 382f 56bb c2dc 063b
000000f0: 9484 e9ba 72d8 ef3a e77c d83b d48e 35bb

encoder.0.attention.fc.weight f4 [64, 64]
0.003388282 -0.04016789 0.0003558582 -0.012263703 -0.032728966 -0.0047161337 -0.009507093 -0.0049627637
0.032292053 -0.009455178 -0.036444016 0.01582416 -0.017116753 -0.00088384753 -0.002764079 0.0063919066
0.01755337 -0.019235656 -0.021213453 0.011367193 -0.003737445 -0.0007963843 0.0052318233 -0.018391091
0.023871757 -0.027650585 -0.015619488 0.03150383 0.017152939 -0.022042824 -0.005614468 0.01664621
0.0056874375 0.008817788 -0.03994308 -0.009629956 -0.017908247 0.01449396 0.0021436978 -0.018940702
0.014537147 0.024840329 -0.018777251 -0.012819957 -0.02295021 -0.020389754 -0.005733424 0.033290192
-0.0048255734 0.019308344 0.0038184705 0.0032311105 -0.0076264613 0.0046846075 -0.011834053 0.010008816
0.008253991 -0.0036046181 -0.0032280465 0.008972899 0.045914967 0.023264382 0.01395645 -0.019463543
0.044057097 -0.041018214 0.030107426 0.034043863 0.019730987 0.005603681 -0.00014906802 0.002612281
0.0016680902 0.03647371 -0.0046189474 0.034235287 0.0020678318 -0.012494727 0.00046797362 -0.008766061
-0.020050015 0.0033540472 -0.024574066 0.012970806 0.014437702 4.582691e-05 0.0048135924 0.022432106
-0.0081839785 0.0124300765 -0.000939667 0.013032646 0.030098151 -0.014339794 -0.023068018 0.032584973
0.015089093 0.0031072572 0.027375886 0.044800706 0.007773613 0.03563808 -0.014882609 -0.01783458
-0.0071879392 -0.017097423 0.0035628881 0.009033433 -0.0123614855 -0.024376545 -0.007370855 -0.0030956597
-0.014513016 -0.021415072 0.008214609 -0.0001683789 -0.01537582 0.008311453 -0.000513187 -0.012520737
-0.005900086 -0.017973533 -0.032194577 0.00980943 0.05472442 -0.0012434956 0.015427669 -0.01738448
0.026490256 -0.027069682 0.0048330356 -0.0032227172 -0.020526418 0.034833502 -0.026527764 -0.012937314
-0.012446412 0.018928835 0.0445199 -0.0072287107 -0.009226771 0.0028796897 0.014445553 0.033966385
-0.008709481 -0.035471488 0.0039123627 -0.0038942103 -0.011430559 -0.022700343 -0.009924363 0.00759122
-0.019622397 -0.008014655 -0.0064426563 -0.0007050472 0.0045608473 -0.006353369 0.010925096 0.014135761
-0.016565735 0.02636513 -0.0024298807 0.02304608 -0.0039088577 0.007949147 -0.017559266 -0.0120996
0.012850093 0.015048949 -0.0078044794 -0.0098946 0.029762214 0.04439609 0.00037314315 -0.024715733
-0.024291279 0.010211284 -0.01534928 0.021221973 0.0007094982 -0.0217739 0.004319937 -0.03134356
0.021222314 -0.00064884697 0.0038751932 0.0029932607 0.041860554 -0.014851861 -0.014365118 -0.010867091
-0.018280638 0.02185848 0.005912106 0.018731948 -0.007940079 0.0015684254 -0.015186831 -0.018868709
0.04001946 -0.009104013 0.015822243 0.00037937326 -0.0026835494 0.016761875 -0.00036483316 -0.02121356
-0.01448465 0.031034956 -0.0023818335 -0.010255731 0.029899634 0.007847962 0.04184066 0.0170443
0.03034945 -0.0036992782 0.010962937 0.006131309 -0.009009789 0.032151263 0.011574789 0.010589273
0.00069863035 0.022768127 0.022917738 -0.042249665 0.018636094 0.016090658 -0.0025259214 -0.020665765
-0.0015306984 -0.018902117 0.028321167 0.014263424 -0.014472954 0.0063454527 0.00025968815 -0.02819729
0.02063339 0.034271043 -0.040180128 0.025583038 0.017614786 0.035589404 0.0109987 -0.031019043
-0.005646897 0.004523642 -0.0017391313 0.012620462 -0.0062542944 0.00085734716 0.0077721723 -0.019921662
00000000: f00d 5e3b 1687 24bd 7b92 ba39 b3ed 48bc
00000010: cf0e 06bd cc89 9abb a3c3 1bbc ae9e a2bb
00000020: ac44 043d e4e9 1abc 5246 15bd aba1 813c
00000030: 6f38 8cbc 01b2 67ba 8d25 35bb 3373 d13b
00000040: 16cc 8f3c 1894 9dbc d6c7 adbc 773d 3a3c
00000050: ecef 74bb 72c4 50ba b76f ab3b eaa8 96bc
00000060: b48e c33c 7b83 e2bc e2e8 7fbc 290a 013d
00000070: 5284 8c3c 2793 b4bc 92f9 b7bb a25d 883c
00000080: af5d ba3b 7c78 103c 5b9b 23bd f7c6 1dbc
00000090: 51b4 92bc 1378 6d3c 487d 0c3b 8829 9bbc
000000a0: 372d 6e3c f27d cb3c c0d2 99bc cc0a 52bc
000000b0: 1402 bcbc 6a08 a7bc 72df bbbb 4c5b 083d
000000c0: d81f 9ebb 882c 9e3c 4e3f 7a3b 0ac1 533b
000000d0: 65e7 f9bb 5681 993b 9ee3 41bc 04fc 233c
000000e0: bf3b 073c 753b 6cbb a28d 53bb 1103 133c
000000f0: 5511 3c3d f294 be3c 98a9 643c 0272 9fbc
00000100: 3775 343d b702 28bd d9a3 f63c 9471 0b3d
00000110: e1a2 a13c 159f b73b 244f 1cb9 cd32 2b3b
00000120: d2a3 da3a 7565 153d 8a5a 97bb 4d3a 0c3d
00000130: 7684 073b afb6 4cbc 5b5a f539 869f 0fbc
00000140: ee3f a4bc 93cf 5b3b 8d4f c9bc 8183 543c
00000150: 1c8c 6c3c 4536 4038 57bb 9d3b 89c3 b73c
00000160: 1816 06bc 85a7 4b3c fc53 76ba e186 553c
00000170: 6690 f63c 75f1 6abc 24f9 bcbc d277 053d
00000180: 3e38 773c 20a3 4b3b 6543 e03c f280 373d
00000190: cbb9 fe3b 3cf9 113d 30d6 73bc d319 92bc
000001a0: ce88 ebbb e50f 8cbc 587f 693b f700 143c
000001b0: d487 4abc 52b1 c7bc 3787 f1bb 8de0 4abb
000001c0: 00c8 6dbc a96e afbc 9196 063c de8e 30b9
000001d0: ddea 7bbc c32c 083c 6687 06ba c723 4dbc
000001e0: 8255 c1bb 3b3d 93bc 76de 03bd bbb7 203c
000001f0: b726 603d cafc a2ba 55c4 7c3c e669 8ebc
00000200: 1802 d93c 3dc1 ddbc 715e 9e3b 3934 53bb
00000210: 0527 a8bc 93ad 0e3d c150 d9bc 07f7 53bc
00000220: 09ec 4bbc a510 9b3c 805a 363d d2de ecbb
00000230: e22b 17bc 2db9 3c3b 0aad 6c3c 5620 0b3d
00000240: 36b2 0ebc 8d4a 11bd 4733 803b 0236 7fbb
00000250: 3d47 3bbc 12f6 b9bc cc99 22bc c5bf f83b
00000260: 26bf a0bc e64f 03bc eb1c d3bb ebd2 38ba
00000270: 2973 953b ec2f d0bb 2dff 323c ae99 673c
00000280: ddb4 87bc affb d73c a23e 1fbb 22cb bc3c
00000290: e015 80bb 243d 023c 73d8 8fbc 673d 46bc
000002a0: 3289 523c de8f 763c b8bc ffbb f61c 22bc
000002b0: e3cf f33c add8 353d 6da2 c339 a678 cabc
000002c0: 81fe c6bc 3b4d 273c 8c7b 7bbc b4d9 ad3c
000002d0: 9efd 393a 2e5f b2bc 428e 8d3b 1b62 00bd
000002e0: 6bda ad3c 6217 2aba f4f6 7d3b 952a 443b
000002f0: f975 2b3d 3855 73bc ac5b 6bbc e20b 32bc
00000300: 47c1 95bc 8e10 b33c 57ba c13b be73 993c
00000310: 1b17 02bc a093 cd3a 30d2 78bc 8d92 9abc
00000320: 72eb 233d 0029 15bc a69d 813c 9ee6 c639
00000330: 7dde 2fbb 3350 893c 1447 bfb9 0fc8 adbc
00000340: 0751 6dbc 053d fe3c 8918 1cbb a707 28bc
00000350: 14f0 f43c bd94 003c 1d61 2b3d 7da0 8b3c
00000360: 699f f83c 976f 72bb e49d 333c 26e9 c83b
00000370: cb9d 13bc 0bb1 033d 2fa4 3d3c a17e 2d3c
00000380: 4a24 373a 3984 ba3c fbbd bb3c fc0d 2dbd
00000390: b9aa 983c 8ed0 833c ee89 25bb 404b a9bc
000003a0: b7a1 c8ba 9dd8 9abc cb01 e83c 23b1 693c
000003b0: f81f 6dbc 84ed cf3b c126 8839 01fe e6bc
000003c0: 5b07 a93c cb5f 0c3d eb93 24bd 8593 d13c
000003d0: e24c 903c 32c6 113d e433 343c a61b febc
000003e0: 9b09 b9bb 0f3b 943b 90f3 e3ba 0ec6 4e3c
000003f0: d3f0 ccbb 98bf 603a b5ad fe3b c132 a3bc

encoder.0.attention.fc.bias f4 [64]
0.0 0.0 0.0 0.0 0.0 0.0 0.0 0.0
0.0 0.0 0.0 0.0 0.0 0.0 0.0 0.0
0.0 0.0 0.0 0.0 0.0 0.0 0.0 0.0
0.0 0.0 0.0 0.0 0.0 0.0 0.0 0.0
0.0 0.0 0.0 0.0 0.0 0.0 0.0 0.0
0.0 0.0 0.0 0.0 0.0 0.0 0.0 0.0
0.0 0.0 0.0 0.0 0.0 0.0 0.0 0.0
0.0 0.0 0.0 0.0 0.0 0.0 0.0 0.0
00000000: 0000 0000 0000 0000 0000 0000 0000 0000
00000010: 0000 0000 0000 0000 0000 0000 0000 0000
00000020: 0000 0000 0000 0000 0000 0000 0000 0000
00000030: 0000 0000 0000 0000 0000 0000 0000 0000
00000040: 0000 0000 0000 0000 0000 0000 0000 0000
00000050: 0000 0000 0000 0000 0000 0000 0000 0000
00000060: 0000 0000 0000 0000 0000 0000 0000 0000
00000070: 0000 0000 0000 0000 0000 0000 0000 0000
00000080: 0000 0000 0000 0000 0000 0000 0000 0000
00000090: 0000 0000 0000 0000 0000 0000 0000 0000
000000a0: 0000 0000 0000 0000 0000 0000 0000 0000
000000b0: 0000 0000 0000 0000 0000 0000 0000 0000
000000c0: 0000 0000 0000 0000 0000 0000 0000 0000
000000d0: 0000 0000 0000 0000 0000 0000 0000 0000
000000e0: 0000 0000 0000 0000 0000 0000 0000 0000
000000f0: 0000 0000 0000 0000 0000 0000 0000 0000
