model/mnist/tune_lr0.0005_ed64_nl6_nh4_fm2_ps4/temp_model.pt (torch, 875757 bytes, 106 tensors)

embedding.cls_token f4 [1, 1, 64]
0	0x3cffe949	0.031239169
1	0x3d240f55	0.040053684
2	0xbc8d7743	-0.017268782
3	0x3ccce715	0.025012532
4	0x3c4feed0	0.012691215
5	0xbac06a85	-0.0014680183
6	0x3c07baf4	0.008284319
7	0x3c3ac38e	0.011399163
8	0x3cef27b2	0.029193733
9	0xbc8009e1	-0.01562971
10	0x3c040d68	0.008059837
11	0x3b655e52	0.0034998846
12	0x3d6bd81b	0.05757914
13	0xbcab98e7	-0.020946933
14	0x3cc946eb	0.02456995
15	0x3d0cf29d	0.03441106
16	0xbcb5fd41	-0.022215487
17	0xbc2e173d	-0.010625658
18	0x3c518955	0.01278909
19	0xbbf80802	-0.007569314
20	0xbc1677cf	-0.009183838
21	0xbcdb80ba	-0.02679478
22	0xbc6ed068	-0.014576055
23	0xbc09499d	-0.008379367
24	0x39b0fcf3	0.00033757798
25	0xbc653aff	-0.013991117
26	0x3c10f5e7	0.00884769
27	0xbcd92e78	-0.026511416
28	0x3cef9d89	0.029249923
29	0xba05b69b	-0.00051007577
30	0xbb6e2bbd	-0.0036341988
31	0xbd2b1046	-0.041763566
32	0xbb372517	-0.0027945691
33	0xb9b06383	-0.00033643478
34	0x3b9e44cc	0.0048299786
35	0xbca09803	-0.019603735
36	0x3a680af7	0.00088517315
37	0xbc9d00c0	-0.019165397
38	0xbc22cf7e	-0.009937165
39	0x3bd8dfcb	0.006618475
40	0x3b6fb54e	0.0036576572
41	0x3bc13a64	0.0058968533
42	0xbc5c0eae	-0.013431234
43	0x3cd89d36	0.026442152
44	0x3bda6618	0.0066650026
45	0x3b990e63	0.0046709045
46	0xb9476652	-0.00019016236
47	0xbccc4542	-0.024935368
48	0xbce06442	-0.027391557
49	0xbbb8e898	-0.0056429617
50	0xbc422e07	-0.011851794
51	0xbbff8755	-0.0077981153
52	0x3cd8039b	0.026368907
53	0x3c0f4084	0.008743409
54	0x38ca99bb	9.660745e-05
55	0xbb4e8719	-0.003151363
56	0x3c316494	0.010827202
57	0x3c2958d0	0.010336116
58	0xbd0406ab	-0.03223292
59	0x3c926a2d	0.017872894
60	0xbc03e4e6	-0.008050179
61	0xbc002b12	-0.007822769
62	0x3b34f45f	0.0027611477
63	0x3c09b575	0.008405079

embedding.pos_embedding f4 [1, 50, 64]
0	0x3cffe941	0.031239154
1	0x3d240fa8	0.040053993
2	0xbc8d7746	-0.017268788
3	0x3ccce713	0.025012529
4	0x3c4feec2	0.012691202
5	0xbac06a92	-0.0014680198
6	0x3c07bafd	0.008284328
7	0x3c3ac386	0.0113991555
8	0x3cef27b5	0.029193738
9	0xbc8009e5	-0.015629718
10	0x3c040d72	0.008059846
11	0x3b655e58	0.003499886
12	0x3d6bd817	0.057579126
13	0xbcab98eb	-0.02094694
14	0x3cc946e5	0.024569938
15	0x3d0cf29e	0.034411065
16	0xbcb5fd3d	-0.02221548
17	0xbc2e173d	-0.010625658
18	0x3c518951	0.012789086
19	0xbbf80803	-0.0075693144
20	0xbc1677d3	-0.009183842
21	0xbcdb80b8	-0.026794776
22	0xbc6ed068	-0.014576055
23	0xbc0949a6	-0.008379376
24	0x39b0fd5c	0.00033758103
25	0xbc653af6	-0.013991108
26	0x3c10f5eb	0.008847694
27	0xbcd92e6e	-0.026511397
28	0x3cef9d84	0.029249914
29	0xba05b68b	-0.00051007484
30	0xbb6e2bcb	-0.003634202
31	0xbd2b1045	-0.041763563
32	0xbb37251e	-0.0027945708
33	0xb9b0640b	-0.00033643874
34	0x3b9e44cd	0.004829979
35	0xbca09802	-0.019603733
36	0x3a680b27	0.00088517595
37	0xbc9d00c3	-0.019165402
38	0xbc22cf82	-0.009937169
39	0x3bd8dfcd	0.006618476
40	0x3b6fb560	0.0036576614
41	0x3bc13a6a	0.005896856
42	0xbc5c0eb3	-0.013431239
43	0x3cd89d37	0.026442153
44	0x3bda6620	0.0066650063
45	0x3b990e5c	0.004670901
46	0xb9476641	-0.00019016211
47	0xbccc4548	-0.02493538
48	0xbce06441	-0.027391555
49	0xbbb8e893	-0.0056429594
50	0xbc422e0a	-0.011851797
51	0xbbff875b	-0.007798118
52	0x3cd803a0	0.026368916
53	0x3c0f407b	0.008743401
54	0x38ca9a93	9.660902e-05
55	0xbb4e870b	-0.0031513597
56	0x3c316491	0.0108272
57	0x3c2958d6	0.010336122
58	0xbd0406b0	-0.03223294
59	0x3c926a2b	0.01787289
60	0xbc03e4ec	-0.008050185
61	0xbc002b14	-0.007822771
62	0x3b34f47c	0.0027611544
63	0x3c09b577	0.008405081
64	0x3cc59edf	0.024123607
65	0x3d1acedc	0.037794933
66	0xbc81af5b	-0.015830686
67	0x3c8ad1ce	0.016945746
68	0x3c537662	0.012906643
69	0xbd09aa9a	-0.033609964
70	0xbc45da7d	-0.012076017
71	0x3c152329	0.009102621
72	0x3c02a278	0.007973306
73	0x3c206488	0.0097895935
74	0xbc1bf6af	-0.009519263
75	0x3cd411a1	0.025887312
76	0x3d44b883	0.048027527
77	0xbd30897e	-0.043099873
78	0x3bd7a1c1	0.006580562
79	0xbc99f926	-0.018795561
80	0xbc592dd5	-0.013255556
81	0xbc1f2d48	-0.009715386
82	0x3c9e546d	0.019327367
83	0xbc64961d	-0.013951805
84	0x3c7ae737	0.015313915
85	0xbd229fcc	-0.039703175
86	0x3b9dfda2	0.004821495
87	0xbb6e4cba	-0.003636165
88	0x3c5bcbde	0.013415305
89	0xbc2ddb9f	-0.010611444
90	0x3d1274fd	0.0357561
91	0xbca2853c	-0.019838922
92	0xba893694	-0.0010468536
93	0x3c009e42	0.007850232
94	0x3ce6274d	0.028094912
95	0x3cce088b	0.025150558
96	0x3b0c4616	0.002140408
97	0x3d102677	0.035192933
98	0xbd2727e4	-0.040809527
99	0xbd831ea4	-0.064023286
100	0xbc22d333	-0.009938049
101	0xbc7dcba3	-0.015490445
102	0xbb5a518a	-0.0033312761
103	0xbb8be1e7	-0.004268873
104	0x3c3348fc	0.010942694
105	0x3c8b2ee0	0.016990125
106	0x3b9bfc41	0.0047602956
107	0x3cb7c867	0.022434426
108	0xbb1a73cf	-0.0023567562
109	0x3cb05c1a	0.021528292
110	0xbc3567bb	-0.011072095
111	0x3b7718bd	0.0037703954
112	0x3cc30a17	0.023808522
113	0xbd7bc1c6	-0.061464094
114	0x3c0e733e	0.008694468
115	0x3ccd25d4	0.025042452
116	0x3c3cd61f	0.01152566
117	0xbd44dd1f	-0.04806244
118	0xbceffbfc	-0.02929496
119	0xbd914681	-0.07093526
120	0x3c323272	0.010876285
121	0xbba9e3d2	-0.005184629
122	0xbbc6cb56	-0.00606672
123	0x3bb7e7e5	0.005612361
124	0xbc818201	-0.015809061
125	0xbc48120e	-0.012211336
126	0x3da5f27d	0.081028916
127	0x3c2cb75d	0.010541764
128	0x3c61f2b0	0.013790771
129	0x3d0360d2	0.032074757
130	0xbcefea30	-0.029286474
131	0x3c7ca913	0.01542117
132	0x3bd5a968	0.006520439
133	0xbd196f5c	-0.037459716
134	0xbcbafe5f	-0.022826372
135	0x3c40187d	0.011724588
136	0xbb9994be	-0.004686921
137	0x3bc0cc38	0.00588372
138	0xbb36b7d3	-0.0027880564
139	0x3d089bf3	0.03335185
140	0x3d64b1de	0.05583369
141	0xbce24493	-0.02762059
142	0x3c3a1f22	0.011359962
143	0xbd352c8a	-0.04423193
144	0xbc7ea261	-0.015541644
145	0x3a833b86	0.0010012246
146	0x3bd1cc5d	0.006402536
147	0xbcc7afe8	-0.02437587
148	0x3c1e930d	0.009678614
149	0xbcfa6035	-0.030563453
150	0x3cb66679	0.02226566
151	0xbc4c05a0	-0.012452513
152	0x3d05df7f	0.032683846
153	0xbc96f2b2	-0.018426273
154	0x3d463ae7	0.048396017
155	0x3a1cb045	0.0005977194
156	0xbc6d3d7b	-0.01447999
157	0xbb7f6a5c	-0.0038973307
158	0x3a953cb0	0.0011385884
159	0x3c59a181	0.013283134
160	0x3ce745e0	0.028231561
161	0x3cc5e0eb	0.0241551
162	0xbd4d7cea	-0.050167955
163	0xbd3289fe	-0.04358863
164	0xbc206e37	-0.009791902
165	0xbcbc5405	-0.022989282
166	0x3bc04b97	0.005868386
167	0xbc86dd0e	-0.016462829
168	0x3c11bee5	0.00889561
169	0xbbfce90d	-0.0077182115
170	0xbb2cbb85	-0.0026356888
171	0x3d187f9e	0.03723108
172	0xbaad4ab0	-0.0013221111
173	0x3cbc1aaf	0.022961942
174	0xbc47b829	-0.012189903
175	0xbb1f70de	-0.0024328749
176	0x3c223a53	0.009901601
177	0xbd9101c2	-0.070804134
178	0x3d3acaf1	0.045603696
179	0x3d05aeae	0.03263729
180	0x3c4bdf65	0.012443398
181	0xbd7da135	-0.061921317
182	0xbbece288	-0.007229153
183	0xbd85c568	-0.06531793
184	0x3cc0076b	0.023441037
185	0x3b102a0e	0.0021997723
186	0xbb91e38a	-0.0044521736
187	0xbcdc9bdc	-0.026929788
188	0xbcd4760d	-0.025935197
189	0xbd057024	-0.03257765
190	0x3d9ca259	0.07648153
191	0x3ca2e020	0.019882262
192	0xbd3283e8	-0.043582827
193	0x3c3f9879	0.011694067
194	0xbd8b69b1	-0.068072684
195	0xbcbb02ad	-0.022828424
196	0xbd51c9f3	-0.051217984
197	0xbd301b2b	-0.04299466
198	0xbdb1773b	-0.086653195
199	0x3d915835	0.07096902
200	0xbd343e00	-0.04400444
201	0xbd070973	-0.032967996
202	0x3d4183a5	0.047244687
203	0x3cbd52d4	0.023110785
204	0x3d1468bc	0.036232695
205	0xbaa1ec0d	-0.0012353674
206	0x3d635624	0.055502072
207	0xbd5f152e	-0.054463558
208	0x3c0e89c8	0.008699842
209	0x3d63150c	0.055439994
210	0xbde05618	-0.10953921
211	0xbd2c2f83	-0.0420375
212	0xbc5a30f3	-0.0133173345
213	0xba9da050	-0.0012025926
214	0x3d8d8cfd	0.06911657
215	0xbdace711	-0.0844251
216	0x3d8f4de9	0.06997282
217	0xbb1a4cb0	-0.0023544244
218	0xbb493546	-0.003070192
219	0x3d4f70f5	0.050644834
220	0xbdcf8879	-0.10133452
221	0xbd87cce3	-0.06630876
222	0xbccbadf1	-0.024863215
223	0x3b49129b	0.0030681256
224	0x3d928135	0.071535505
225	0xbcfac43e	-0.030611154
226	0xbc8fe3c5	-0.017564664
227	0x3c8b00e8	0.016968206
228	0x3c89e06e	0.01683065
229	0xbd40b218	-0.047044843
230	0xbc281b11	-0.010260359
231	0xbb99b1a2	-0.004690365
232	0x3cc57f19	0.024108456
233	0xbd131d98	-0.035916895
234	0xbc6ca301	-0.01444316
235	0x3dcd6c8c	0.10030469
236	0xbc16fece	-0.009216024
237	0x3d1f7ccb	0.03893737
238	0x3d3f1440	0.04665017
239	0xbda22d5c	-0.07918808
240	0xbd05eb5d	-0.032695163
241	0xbd2739dc	-0.040826663
242	0x3d94da73	0.072682284
243	0x3c95feb0	0.018309921
244	0x3cfc22f2	0.030778382
245	0xbd9d9580	-0.076945305
246	0x3a945024	0.0011315388
247	0xbc44ab2e	-0.012003703
248	0x3dc28efd	0.09499929
249	0x3d870539	0.06592793
250	0x3d7f77c1	0.062370066
251	0xbcd9f5f9	-0.026606547
252	0xbd901196	-0.07034604
253	0xbd8125eb	-0.063060604
254	0x3c13cfcd	0.009021712
255	0x3d1d58a6	0.03841462

embedding.conv1.weight f4 [64, 1, 4, 4]
0	0xbc0c942f	-0.008580252
1	0x3bab28aa	0.0052233534
2	0x3c630429	0.013855972
3	0x3d08310f	0.03324991
4	0xbc782e07	-0.0151476925
5	0xbc844417	-0.016145749
6	0x3c1b74ef	0.009488328
7	0x3b9cd6d6	0.0047863526
8	0xbd45dc24	-0.048305646
9	0xbc8cc0e0	-0.017181814
10	0xbcf2cfd2	-0.029640112
11	0x3bcae4e0	0.006191835
12	0xbc85c0cf	-0.01632729
13	0xbd2587a9	-0.04041258
14	0x3d3eaaa3	0.04654945
15	0x3ca3c634	0.019991972
16	0xbc98c34e	-0.018647816
17	0xbc00d5cd	-0.007863474
18	0xbc56b81c	-0.0131054185
19	0xbccc7b0b	-0.024961015
20	0xbc66212c	-0.014045995
21	0xbc943189	-0.018090026
22	0x3bf121b0	0.007358752
23	0x3aec2ed0	0.0018019322
24	0x3c0b42c6	0.008499807
25	0xbb812af9	-0.0039418903
26	0xbc98e5eb	-0.01866432
27	0xbc0f3619	-0.008740925
28	0x3cceb531	0.025232883
29	0x3c60543d	0.013691959
30	0x3a879fdd	0.0010347326
31	0x3c0b4985	0.008501415
32	0x3ca1d317	0.019753976
33	0xbc45f936	-0.012083342
34	0xbca2b259	-0.019860433
35	0xbc4731f9	-0.0121579105
36	0x3cda21c1	0.026627423
37	0xbc394684	-0.011308316
38	0xbd1a5516	-0.0376788
39	0xbcc7c398	-0.024385259
40	0x3c1f5432	0.009724664
41	0x3c1c1dda	0.009528602
42	0xbce431ed	-0.027855838
43	0xbc584eb3	-0.013202357
44	0x3b8ed1e0	0.004358515
45	0xbbb14ead	-0.00541099
46	0xbcfb2524	-0.030657358
47	0xbb01ee6f	-0.0019825955
48	0xbc89a84c	-0.016803883
49	0xbc2d03eb	-0.010560016
50	0xbcc01d82	-0.02345157
51	0x3d188e55	0.037245113
52	0xbcda0d6d	-0.02661773
53	0xbc1d4376	-0.0095986035
54	0xbc87a276	-0.01655696
55	0xbc4e4bc5	-0.012591307
56	0xbd36dcd6	-0.0446442
57	0x3ac29a31	0.0014846978
58	0x3b25edfb	0.002531885
59	0xbc432896	-0.011911532
60	0x3ce5b338	0.02803956
61	0x3d2ec47f	0.042667862
62	0x3cd12745	0.02553142
63	0x3c90cfff	0.017677305
64	0xbccb992b	-0.02485331
65	0xbcba07cb	-0.022708794
66	0x3b7eb85f	0.0038867218
67	0xbbbd0ce4	-0.005769359
68	0x3c949dd4	0.018141665
69	0xbc397594	-0.011319537
70	0x3bb45438	0.0055032037
71	0xbcaf3286	-0.021386396
72	0x3ad8094f	0.0016482266
73	0xbc52534c	-0.012837242
74	0xbcf80146	-0.030274045
75	0x3c547e3c	0.01296955
76	0x3bb7367f	0.0055912132
77	0xbcd2c7e7	-0.025730086
78	0x3ba343f6	0.004982467
79	0xbcc89e39	-0.024489509
80	0xbc477ed1	-0.0121762315
81	0xbc0b9263	-0.008518788
82	0x3c15f47b	0.009152527
83	0x3ca2672f	0.019824592
84	0x3c3ebf54	0.011642296
85	0xbd10b648	-0.035330087
86	0x3c30c879	0.010789984
87	0xbb8b7a89	-0.0042565507
88	0xbce11a89	-0.027478473
89	0x3cdd0f16	0.026984733
90	0xbc75b08e	-0.014995707
91	0x3c98318f	0.018578319
92	0xbcd9f39e	-0.026605424
93	0xbc076f83	-0.008266333
94	0x3ccf5c40	0.025312543
95	0xbc6cab20	-0.014445096
96	0xbc844b45	-0.016149173
97	0x3c4e1f0b	0.012580643
98	0x39f21e56	0.0004618044
99	0xbcbff0e3	-0.023430293
100	0x3c637800	0.013883591
101	0x3c1cd6fd	0.009572742
102	0x3c963a4e	0.018338349
103	0xbcce70c1	-0.02520025
104	0x3c89f3cd	0.016839886
105	0xbd299af0	-0.041407526
106	0xbc4c398d	-0.012464893
107	0x3baa3114	0.005193839
108	0xbb89320d	-0.0041868747
109	0xbbe5c19f	-0.007011607
110	0x3cb674dc	0.02227252
111	0x3ca1395e	0.019680675
112	0x3c92cfee	0.017921414
113	0xbce39f03	-0.027785784
114	0x3c02fb58	0.007994495
115	0x3a7ffeea	0.0009765463
116	0xbcfe4b51	-0.031041773
117	0xbc05d1bc	-0.00816768
118	0x3d0762c6	0.033053182
119	0x3c5320d7	0.012886248
120	0xbc4b3b41	-0.012404264
121	0xbb9eaa6c	-0.004842093
122	0x3cc7de43	0.024397975
123	0x3ca65dc3	0.020308381
124	0xbc332459	-0.010933959
125	0xbc42af22	-0.011882575
126	0x3d279c8f	0.04092079
127	0x3c14ee00	0.009089947
128	0xbcdbc75b	-0.026828459
129	0xbc2bad5a	-0.010478342
130	0xbd24b646	-0.040212892
131	0xbc7b8890	-0.015352383
132	0xbc5dc9c2	-0.013536872
133	0xbc214d3c	-0.009845074
134	0x3c3a1eb9	0.011359864
135	0xba17e848	-0.00057948055
136	0xbd132450	-0.035923302
137	0xbb7e50bb	-0.0038805443
138	0xbc5f4ac3	-0.013628664
139	0x3befce98	0.007318329
140	0x3ba3bb35	0.004996682
141	0x3cdde5b4	0.02708707
142	0x3cdab235	0.026696304
143	0x3cccf6ef	0.02502009
144	0xbcdddb3b	-0.027082076
145	0xbc315692	-0.010823863
146	0xbc8defba	-0.017326225
147	0x3c62b0b8	0.013836078
148	0xbbc04a22	-0.0058682123
149	0xbc6a70a1	-0.014309079
150	0xbbdd1a17	-0.006747495
151	0xbc059342	-0.008152785
152	0x3bb10ec6	0.0054033725
153	0xbca8f2c9	-0.020623581
154	0xbc67f258	-0.0141569
155	0x3c2b2938	0.010446839
156	0xbcd615d3	-0.026133453
157	0xbbb1f733	-0.00543108
158	0x3ad3a926	0.0016148433
159	0x3b9855c7	0.0046488973
160	0xbc0ee302	-0.008721115
161	0x3bb48f26	0.0055102287
162	0xb7c25c6a	-2.3169636e-05
163	0x3ce0801b	0.027404835
164	0x3c45857a	0.012055749
165	0xbb261aeb	-0.0025345634
166	0x3c2d90b8	0.010593586
167	0x3c727692	0.014798777
168	0x3c92d284	0.017922647
169	0xbc440e09	-0.011966237
170	0x3b306921	0.002691813
171	0x3c9e015e	0.019287761
172	0xbd1b824b	-0.037966054
173	0xbd3e9085	-0.046524543
174	0xbc807038	-0.01567851
175	0xbba8d341	-0.0051521366
176	0x3c43a9cc	0.011942338
177	0x3c4bdc71	0.012442694
178	0x3ca7c132	0.020477865
179	0x3ba43682	0.0050113807
180	0x3c0f0e83	0.008731487
181	0x3d0dfc04	0.03466417
182	0xbbcac5ed	-0.0061881454
183	0x3bd4dfb8	0.006496396
184	0x3b146cd7	0.0022647881
185	0x3d0dc726	0.03461375
186	0xbbca9719	-0.006182563
187	0xbb2bd405	-0.0026218903
188	0x3d08354f	0.033253964
189	0x3a1ab692	0.0005901839
190	0x3a96b9ea	0.0011499499
191	0xb9394a0e	-0.00017670562
192	0xba9d139e	-0.0011983996
193	0xbd0f4d47	-0.034985807
194	0xbd4a6de0	-0.04942119
195	0x3c9f302c	0.01943215
196	0x3a567e2c	0.0008182253
197	0x3bff3a3b	0.007788924
198	0xbcadfc48	-0.021238461
199	0x3cf50f8d	0.029914642
200	0xbc9c4f02	-0.019080643
201	0x3c6638cd	0.014051628
202	0xbc75d3a7	-0.015004075
203	0x3d1d7913	0.038445543
204	0xbcd01e2a	-0.025405008
205	0x3bea23b8	0.0071453713
206	0xbbc4774a	-0.0059956657
207	0x3c9e2f3e	0.019309636
208	0xbd096dcf	-0.033551987
209	0x3b94cd2e	0.004541061
210	0xbbdc112a	-0.0067159133
211	0x3cf3ae84	0.029746301
212	0x3c89d468	0.016824916
213	0xbb5ace06	-0.003338696
214	0x3c6fa9df	0.014627903
215	0x3d0f0e1b	0.03492556
216	0xbc135bdc	-0.008994069
217	0x39aba9a5	0.00032742057
218	0x3cf056b8	0.029338226
219	0x3bec4e39	0.0072114733
220	0xbc890501	-0.016726019
221	0x3b853792	0.0040654624
222	0xbc2442df	-0.010025709
223	0x3cbad669	0.022807317
224	0xba1598fc	-0.00057066954
225	0x3bfc6f31	0.0077036847
226	0x3d160f4d	0.036635686
227	0x3d0805b9	0.033208583
228	0x3b952199	0.0045511243
229	0xbc59d135	-0.013294508
230	0xbc03e464	-0.008050058
231	0x3b44d7b4	0.0030035796
232	0xbb498570	-0.00307497
233	0xbcb2ccb8	-0.021826133
234	0x3cf66385	0.030076751
235	0x3c019bab	0.007910649
236	0xbd25555d	-0.040364612
237	0x3bcd08b3	0.0062571405
238	0x3c1312e9	0.0089766765
239	0xbbc32aea	-0.0059560435
240	0xbd565535	-0.052327354
241	0x3cfb6d3c	0.030691735
242	0x3c69cf26	0.014270579
243	0xbb6a625c	-0.0035764193
244	0x3aceffc9	0.0015792783
245	0x3cb7a12e	0.022415724
246	0x3c350997	0.01104965
247	0x3c05111e	0.008121757
248	0x3ba508a0	0.0050364286
249	0x3caff5cb	0.021479508
250	0xbcd02b6c	-0.02541133
251	0x3c996098	0.018722817
252	0x3c9fd987	0.019512905
253	0xbc12a867	-0.008951283
254	0x3c8e0703	0.017337328
255	0x3cdcfaf5	0.026975134

embedding.conv1.bias f4 [64]
0	0xbce88475	-0.028383473
1	0xbca845b9	-0.020541059
2	0xbbedc04f	-0.007255591
3	0xbc48a171	-0.012245522
4	0xbcc51087	-0.024055732
5	0xbbb7091f	-0.005585804
6	0xbc9fcd39	-0.019507037
7	0x3c94fa98	0.018185899
8	0xbcfeb422	-0.031091753
9	0xbbc5db24	-0.0060380865
10	0x3c2384cb	0.009980391
11	0x3ca3c724	0.019992419
12	0xbcb675ee	-0.02227303
13	0x3c3b8dea	0.011447409
14	0x3bc3536a	0.0059608715
15	0x3bd4fdea	0.0064999955
16	0xbc35d924	-0.011099134
17	0x3ca90bfe	0.020635601
18	0xbcd3f1be	-0.025872108
19	0x39bf1565	0.000364463
20	0xbc9dd6bd	-0.019267434
21	0x3c646e80	0.013942361
22	0x3ca49fa0	0.020095646
23	0xbc9cd3e6	-0.01914401
24	0x3c92ce38	0.017920598
25	0xbb886599	-0.004162502
26	0xbcaeda64	-0.021344371
27	0x3cd20d2e	0.02564105
28	0xbd23ef1b	-0.04002295
29	0xbcb3d6c3	-0.021952992
30	0xbb6b34d2	-0.0035889638
31	0xbc8234f3	-0.015894389
32	0xbb458500	-0.0030139089
33	0xbc928fdb	-0.017890861
34	0x3c993cdd	0.01870578
35	0x3c33d315	0.010975619
36	0x3c8f628e	0.01750305
37	0xbc931893	-0.017956054
38	0xbc1158c0	-0.008871257
39	0xbc272573	-0.0102018
40	0x3c4dcdcc	0.012561273
41	0xbc8fe488	-0.017565027
42	0x3d035cf2	0.03207106
43	0x3bdfaa36	0.0068257106
44	0x3c0847d6	0.008317908
45	0xbbf58a3d	-0.007493286
46	0x3cf9c8c1	0.030491235
47	0xbc03abe3	-0.008036586
48	0x3b86ad0c	0.0041099843
49	0x3ca4c751	0.020114573
50	0x3d0296e3	0.031882178
51	0x3cbadccb	0.02281036
52	0x3bbf141b	0.005831254
53	0xbcbcc775	-0.023044327
54	0xbc787920	-0.015165597
55	0x3c0a0f0d	0.00842644
56	0x3c5196d9	0.012792313
57	0x3ab90f24	0.0014118892
58	0x3cc340de	0.023834642
59	0x3b4b8822	0.0031056483
60	0x3c310d42	0.010806384
61	0x3c87527b	0.016518822
62	0xbbc45b61	-0.0059923385
63	0x3c5070de	0.012722222

encoder.0.attention.queries.weight f4 [64, 64]
0	0xbe41360d	-0.18868275
1	0xbda9cbaf	-0.08290803
2	0xbc25de15	-0.010123749
3	0xbd931ebb	-0.07183596
4	0xbd73a377	-0.059482064
5	0xbe409ff0	-0.18811011
6	0xbd0cf9e9	-0.03441802
7	0xbdf0119f	-0.11722111
8	0xbe0b9251	-0.13630034
9	0xbe23b3f2	-0.15986612
10	0xbdc1ff65	-0.09472541
11	0x3d81f52e	0.063455924
12	0xbe08ba77	-0.1335238
13	0x3b282e1c	0.002566225
14	0xbdb85141	-0.08999873
15	0x3bf4364e	0.0074527627
16	0xbb862f0f	-0.0040949653
17	0xbceb5af1	-0.028729888
18	0x3dbf0752	0.09327568
19	0xbd7e7f31	-0.062133018
20	0xbd15f1c4	-0.03660752
21	0x3bd91637	0.0066249627
22	0x3d9d2060	0.07672191
23	0xbb9838eb	-0.004645457
24	0x3d8840e5	0.06653003
25	0xbd4fb3c2	-0.05070854
26	0x3d7111ee	0.05885499
27	0x3df8675e	0.12129091
28	0xbd57a506	-0.052647613
29	0xbdd26125	-0.10272435
30	0xbe431750	-0.19051862
31	0xbd008bca	-0.031383313
32	0xbde910b4	-0.11380139
33	0xbd014307	-0.031558063
34	0x3d4f107b	0.050552826
35	0x3b95ad8e	0.0045678085
36	0x3d703781	0.058646683
37	0xbd2bd251	-0.04194862
38	0x3c3d95a7	0.011571324
39	0xbdda7322	-0.10666491
40	0x3dcbc049	0.09948785
41	0xbda4f4fc	-0.080545396
42	0xbd1ec049	-0.038757596
43	0x3db314cc	0.08744201
44	0x3dc4aa23	0.096027635
45	0xbd4f88f2	-0.05066771
46	0x3b497a7f	0.003074318
47	0x3e122547	0.14272033
48	0xbc5f11bf	-0.013615071
49	0x3e0f5c98	0.14000165
50	0xbd6f6ff7	-0.058456387
51	0xbc32dbbe	-0.010916648
52	0x3cb8be39	0.022551643
53	0x3ce06b97	0.027395053
54	0xbde286a1	-0.11060835
55	0x3d8bee67	0.06832581
56	0x3dd2c02f	0.10290562
57	0x3c72f700	0.014829397
58	0x3c36b9c2	0.011152687
59	0x3d395b36	0.045253
60	0x3d65673d	0.05600666
61	0x3d60d2e3	0.054888617
62	0xbda5a456	-0.08087985
63	0x3c618f6c	0.013767105
64	0xbd35a2c4	-0.04434468
65	0xbc9255be	-0.01786315
66	0xbc269f6f	-0.010169848
67	0xbc32a12d	-0.010902685
68	0x3c724e38	0.014789157
69	0xbe068dbf	-0.1314001
70	0x3cb5ba18	0.022183463
71	0xbd47bcf2	-0.048764177
72	0xbd6e3352	-0.05815441
73	0xbdd6d544	-0.10489896
74	0xbdb3709a	-0.087617114
75	0x3d5781e4	0.052614108
76	0xbd5e9da5	-0.05434956
77	0xbb839291	-0.004015275
78	0xbd7b5c9f	-0.061367627
79	0x3d663d63	0.056210887
80	0x3c322619	0.010873341
81	0xbd91309d	-0.070893504
82	0x3dca320c	0.09872827
83	0xbd876890	-0.066117406
84	0xbca21344	-0.019784577
85	0xbc8cba32	-0.017178629
86	0x3d8a4c4c	0.06752834
87	0xbc9104f9	-0.017702566
88	0x3d4dda64	0.0502571
89	0xbcfff508	-0.03124477
90	0x3d9cd5a3	0.076579355
91	0x3c620cad	0.013796967
92	0x3d501c50	0.05080825
93	0xbbc6fdf9	-0.0060727564
94	0xbdcde7d5	-0.10053984
95	0x3bae5fec	0.0053214934
96	0xbc109f3f	-0.00882703
97	0xbd4bb1a6	-0.049729966
98	0x3d2314e9	0.039814863
99	0xbd5c4328	-0.053774983
100	0xbcb2fb45	-0.02184833
101	0xbd35ee0c	-0.044416472
102	0x3d8c8b5b	0.068625174
103	0xbd998cfe	-0.07497595
104	0x3d35c6cc	0.04437904
105	0xbcd72b52	-0.026265774
106	0xbd74b9be	-0.05974745
107	0x3dbe302e	0.09286533
108	0x3cea582a	0.028606493
109	0xbd6ba955	-0.057534534
110	0xbac16c46	-0.0014757
111	0x3e0d0ccc	0.13774413
112	0xbc9bb79e	-0.019008454
113	0x3d94805f	0.07251047
114	0xbd5620f3	-0.052277517
115	0x3c52327e	0.012829421
116	0x3da57850	0.080795884
117	0x3cd2dae3	0.025739139
118	0x3d9dcd81	0.077052124
119	0x3d4743c1	0.0486486
120	0x3c447ee7	0.0119931465
121	0x3d9b9385	0.075964965
122	0xbc875753	-0.016521132
123	0x3d41c0c3	0.047302973
124	0x3d4dfbb8	0.050288886
125	0x3d615eba	0.05502198
126	0xbd07bb40	-0.03313756
127	0x3d32597c	0.04354237
128	0x3ce64643	0.028109675
129	0xbd4f9e78	-0.050688237
130	0x3c8b9055	0.017036596
131	0x3d351c99	0.044216726
132	0xbc891223	-0.016732281
133	0xbd3150a9	-0.043289814
134	0x3cecb771	0.028896065
135	0xbd05d502	-0.032673843
136	0x3cd47ad8	0.025937483
137	0xbc93ed3c	-0.018057458
138	0xbd84b074	-0.06478968
139	0x3d257902	0.040398605
140	0x3d06dbd1	0.032924477
141	0xbcadfb42	-0.021237973
142	0x3c0bb818	0.008527778
143	0x3cd4b8d6	0.025967043
144	0xbcffc06c	-0.031219684
145	0xbc8e460a	-0.017367382
146	0x3d6471f4	0.055772737
147	0xbd6e0552	-0.058110543
148	0xbcf0263b	-0.029315105
149	0x3d221fb1	0.039581005
150	0x3d243f7d	0.04009961
151	0xbd5f23b6	-0.054477416
152	0x3b59c979	0.003323166
153	0xbd1d2bb7	-0.038371768
154	0x3d1ba350	0.037997544
155	0xbd434b3f	-0.047679182
156	0x3db27ef2	0.08715619
157	0x3d8b5f1f	0.06805252
158	0x3c8321cf	0.016007332
159	0xbc4afd6b	-0.012389521
160	0x3d00a8f7	0.031411137
161	0xbc575b9c	-0.0131444
162	0xbc86b852	-0.016445313
163	0x3c027758	0.007963024
164	0xbd5708f3	-0.05249877
165	0xbd4609fd	-0.04834937
166	0x3d3d0b21	0.04615319
167	0xbd0a1aa6	-0.03371682
168	0x3d0f1b6b	0.034938257
169	0xbd56242f	-0.0522806
170	0xbd76bc3c	-0.060238108
171	0x3d1565b5	0.03647395
172	0x3d0a59db	0.0337771
173	0xbc8566cf	-0.016284375
174	0xbb95911b	-0.004564417
175	0xbc303e46	-0.010757035
176	0xbc7a8729	-0.015291014
177	0x3d3f85d3	0.046758484
178	0xbd16caaa	-0.03681437
179	0xbd068f8b	-0.032851737
180	0x3c1c783a	0.009550149
181	0xbd02a25c	-0.03189312
182	0x3d833bb8	0.06407875
183	0x3c248ed5	0.010043819
184	0x3d2f6032	0.04281635
185	0x3ca025ff	0.019549368
186	0xbce587d0	-0.028018862
187	0x3bf79e0f	0.007556684
188	0x3c79ebcf	0.015253975
189	0x3d3d1c38	0.04616949
190	0xbd83cfd9	-0.06436128
191	0x3d6ed5dd	0.058309425
192	0xbbfb6b79	-0.007672724
193	0xbc1324fd	-0.008980987
194	0xbbf0c2ff	-0.007347464
195	0x3d8f2b98	0.06990737
196	0xbccc9aa4	-0.024976082
197	0xbc92fb76	-0.017942172
198	0x3d33e061	0.043915156
199	0x3c14d21d	0.009083298
200	0x3b50d9c0	0.003186807
201	0xbd17b9e6	-0.03704252
202	0xbd1588d2	-0.036507435
203	0x3d206a09	0.039163623
204	0x3b62e3bb	0.0034620601
205	0x3c286494	0.010277886
206	0x3c9f080a	0.019413013
207	0x3d1b36e2	0.037894137
208	0xbd64faba	-0.055903174
209	0xbd127ea8	-0.03576532
210	0x3d1dbb0f	0.03850847
211	0xbd4bedc3	-0.049787294
212	0xbd917ebc	-0.07104251
213	0xbc3461f1	-0.011009679
214	0x3c7f770e	0.01559235
215	0xbd1d5a9b	-0.038416486
216	0x3c61eaf6	0.013788929
217	0xbb29de86	-0.0025919988
218	0x3d3bf0ef	0.04588407
219	0xbd1172c2	-0.035509832
220	0x3d942005	0.0723267
221	0x3db0effb	0.08639523
222	0xbc887925	-0.016659329
223	0x3b896f51	0.004194178
224	0xb9f3f1be	-0.00046528684
225	0xbcc44ff8	-0.023963913
226	0x3c27619a	0.010216141
227	0xbcf9b83a	-0.030483354
228	0x3b26f61c	0.0025476282
229	0xbcf7797b	-0.030209294
230	0x3cea650c	0.028612636
231	0xbd0fa1ca	-0.035066403
232	0xbc0d84b7	-0.008637599
233	0xbd57500d	-0.052566577
234	0xbd632293	-0.055452894
235	0x3d78ce8f	0.060743865
236	0x3ce4f98f	0.02795103
237	0xbc285f2a	-0.010276595
238	0xbc893755	-0.016750017
239	0x3c8d6b77	0.017263157
240	0xbc8f8153	-0.017517721
241	0x3c9d0b90	0.019170552
242	0xbc690826	-0.014223134
243	0x3b420236	0.0029603369
244	0x3cfc75aa	0.030817825
245	0x3b4d2b83	0.0031306453
246	0x3d9ddc45	0.07708029
247	0x3d1fccc7	0.03901365
248	0xbba9598f	-0.005168147
249	0x3cfa9521	0.030588688
250	0xbc20fdd1	-0.00982614
251	0x3d5dee36	0.054182254
252	0x3c7030e6	0.014660096
253	0x3d3a5913	0.045495104
254	0xbd38d471	-0.045124475
255	0x3c8e5bf1	0.017377825

encoder.0.attention.queries.bias f4 [64]
0	0xbe361232	-0.17780378
1	0xbe2a582b	-0.16635196
2	0xbdfe5e86	-0.12420373
3	0xbdfe58c3	-0.12419274
4	0xbdb41cc0	-0.08794546
5	0x3dd2ef40	0.102995396
6	0x3d9493e2	0.07254769
7	0xbe0cbdd0	-0.13744283
8	0x3dbb5d92	0.091487065
9	0xbdf1032b	-0.11768182
10	0xbe06f5f3	-0.1317976
11	0x3ddb3841	0.10704089
12	0x3d7c463b	0.061590414
13	0xbdd696e0	-0.10477996
14	0xbe042eb0	-0.12908435
15	0xbe5d5891	-0.21615817
16	0x3d736bf9	0.059429143
17	0xbd556d68	-0.05210629
18	0xbd3aac8e	-0.045574717
19	0x3d5843e4	0.05279912
20	0x3d5259be	0.051355116
21	0x3d8584c7	0.06519466
22	0xbd849021	-0.06472803
23	0x3d7a6ce5	0.061139006
24	0xbd8a948b	-0.067666136
25	0x3d4c4e9b	0.04987965
26	0xbd3b4489	-0.045719657
27	0x3d5c1860	0.053734183
28	0xbd3d601b	-0.04623423
29	0xbd804e7b	-0.06264969
30	0x3d5dc943	0.054147016
31	0x3cece611	0.028918298
32	0xbd989505	-0.07450298
33	0xbda21801	-0.07914735
34	0xbd9f563d	-0.077801205
35	0x3da1bcfe	0.078973755
36	0x3d984052	0.07434143
37	0x3daae6d3	0.083448075
38	0xbda746f4	-0.0816783
39	0xbdad65c4	-0.08466676
40	0x3d9e6ba0	0.077353716
41	0xbda5a7aa	-0.0808862
42	0x3da5fc2a	0.08104737
43	0x3d699577	0.057027306
44	0x3da4aff6	0.080413744
45	0x3da64841	0.0811925
46	0x3da78a81	0.081807144
47	0x3d8b0f8f	0.06790077
48	0xbdd598fe	-0.104295716
49	0xbde5e8af	-0.112260215
50	0xbddb26ff	-0.10700797
51	0x3dea92b5	0.114537634
52	0xbdebd184	-0.11514571
53	0xbde0bcb6	-0.10973494
54	0xbddcb210	-0.1077615
55	0x3df43abe	0.11925267
56	0xbde3f116	-0.11129968
57	0xbdbcd408	-0.09220129
58	0x3dd82397	0.10553663
59	0xbde0b0c1	-0.10971213
60	0x3df41908	0.11918837
61	0x3ddb7fb6	0.10717718
62	0x3df81eb0	0.12115228
63	0x3dd4bb72	0.10387315

encoder.0.attention.keys.weight f4 [64, 64]
0	0xbdb0009d	-0.08593867
1	0x3b539eb0	0.003229063
2	0x3dc36265	0.09540252
3	0xbdef42d5	-0.11682669
4	0x3d1b3c44	0.03789927
5	0xbde4fb4e	-0.11180745
6	0x3db4531c	0.08804914
7	0xbe686714	-0.22695571
8	0xbdaf3dcc	-0.08556709
9	0xbcfc8af2	-0.030827973
10	0xbd36088e	-0.044441752
11	0x3c827e50	0.015929371
12	0xbd9463fb	-0.07245632
13	0xbcd91108	-0.026497379
14	0xbd8ad012	-0.067779675
15	0x3c959064	0.018257327
16	0x3dba1d7b	0.09087654
17	0xbb52de5a	-0.003217599
18	0x3e10763f	0.14107607
19	0xbd762122	-0.06009019
20	0xbc473b06	-0.012160068
21	0x3cbeb3a8	0.023279026
22	0x3cf74da6	0.030188393
23	0x3e012588	0.12611973
24	0xbcd2c618	-0.025729224
25	0x3d132827	0.035926964
26	0xbde5037b	-0.111823045
27	0x3da342da	0.07971735
28	0xbd1560de	-0.036469333
29	0xbe054dec	-0.13018006
30	0xbd84c1ae	-0.06482254
31	0xbcd099fb	-0.025464049
32	0xbdb48c66	-0.088158414
33	0x3d1dcff7	0.03852841
34	0x3cfa765c	0.030574016
35	0xbacc0a5b	-0.0015567051
36	0x3d85a5d7	0.06525772
37	0xbcaf5444	-0.021402486
38	0x3c70aa01	0.01468897
39	0xbbf3a966	-0.0074359654
40	0x3d5b2c3a	0.053508975
41	0xbccadac1	-0.024762513
42	0xbc134d1d	-0.008990553
43	0x3d13ffe5	0.036132712
44	0x3ce74929	0.028233128
45	0xbc81caaa	-0.015843708
46	0xbdbba474	-0.09162226
47	0x3e824e77	0.2545049
48	0xbc1189fd	-0.008882997
49	0x3d084bc6	0.03327539
50	0xbc4a4633	-0.012345838
51	0xbca69479	-0.02033447
52	0xbc48bc61	-0.012251944
53	0x3e3a0ed0	0.18169713
54	0xbd9d3c7d	-0.07677553
55	0xbc9046d4	-0.017611898
56	0x3bba06f6	0.0056770993
57	0xbc4feec7	-0.012691206
58	0xbc61b9e0	-0.013777226
59	0xbce05d5a	-0.027388263
60	0x3c8d85dd	0.017275745
61	0x38db7c7d	0.000104659215
62	0xbc52b726	-0.012861049
63	0xbd366d40	-0.044537783
64	0xbd8c750a	-0.06858261
65	0xbcdc4702	-0.026889328
66	0x3da2de2e	0.07952534
67	0xbdf2e1d7	-0.11859482
68	0xbc12094c	-0.008913349
69	0xbd1fd79b	-0.039023977
70	0x3d7ec7e1	0.062202338
71	0xbe67b493	-0.22627477
72	0xbd9d60c2	-0.07684471
73	0xbd010dbb	-0.031507235
74	0xbc431d06	-0.011908775
75	0xbb0d9a7e	-0.0021606977
76	0xbd9d137c	-0.07669732
77	0xbd0a76f9	-0.033804867
78	0xbdc92e40	-0.098232746
79	0xbd8555a1	-0.06510473
80	0x3cb2024b	0.021729609
81	0x3caab18b	0.020836612
82	0x3e17b81a	0.14816323
83	0xbd2b10ae	-0.041763954
84	0x3d12f18c	0.03587489
85	0xbc9d8529	-0.019228535
86	0x3d1dff80	0.038573742
87	0x3e008579	0.12550916
88	0xbd2150e0	-0.03938377
89	0xbc836972	-0.016041491
90	0xbdd3db03	-0.103445075
91	0x3c749132	0.014927195
92	0xbd6d1259	-0.057878826
93	0xbdc11d3e	-0.09429406
94	0xbd2958cf	-0.04134446
95	0x3c457741	0.012052358
96	0xbc88b926	-0.016689848
97	0x3d5a38e8	0.053276926
98	0xbce4f060	-0.027946651
99	0xbcea65df	-0.028613029
100	0x3d7ceba8	0.061748177
101	0x3d3f464e	0.046697907
102	0xbc19df4b	-0.009391616
103	0x3c2a661e	0.010400323
104	0x3d659ea1	0.056059483
105	0xbd050b18	-0.032481283
106	0x3b9cc3a1	0.004784063
107	0xbb62afc1	-0.003458962
108	0x3d940701	0.072278984
109	0x3c5f26fc	0.013620134
110	0xbde1e63d	-0.110302426
111	0x3e8a03e7	0.26956102
112	0x3d30914d	0.04310732
113	0xbc96aa35	-0.018391708
114	0xbd435b98	-0.047694772
115	0x3c8f4b1b	0.017491868
116	0xbda3c147	-0.07995849
117	0x3e2d9dcf	0.1695473
118	0xbd402dff	-0.046918865
119	0xbd486567	-0.04892483
120	0xbd59bbdb	-0.05315767
121	0xbd1cd5d2	-0.038289852
122	0xbbe83176	-0.0070859743
123	0xbd3b42fe	-0.045718186
124	0xbc9951cd	-0.018715763
125	0xbc71cd7c	-0.014758464
126	0x3d1f8a37	0.03895017
127	0xbcf81379	-0.030282723
128	0xbc890331	-0.016725155
129	0xbbcadc90	-0.006190844
130	0x3db2aadc	0.08723995
131	0xbdb8df6d	-0.0902699
132	0x3cd316c2	0.025767688
133	0xbcaceafa	-0.02110814
134	0x3da519e7	0.08061581
135	0xbe4fac53	-0.2028058
136	0xbd7b62cb	-0.061373513
137	0x3ce48dea	0.027899701
138	0xbd3db05e	-0.046310775
139	0xbd0e1227	-0.03468528
140	0xbcd14fea	-0.025550801
141	0xbccce7c1	-0.025012853
142	0xbdde3db6	-0.10851614
143	0xbcf4c16f	-0.029877393
144	0x3d686e7e	0.056746
145	0x3c857000	0.016288757
146	0x3da602f9	0.08106036
147	0xbd87e2ab	-0.0663503
148	0x3ceb11d4	0.028695025
149	0xbcc80a14	-0.024418868
150	0x3c132ad2	0.008982377
151	0x3da1d3e0	0.0790174
152	0xbca37a2e	-0.01995572
153	0x3cd1a1fe	0.02558994
154	0xbd8ff580	-0.07029247
155	0x3cda0ed8	0.026618406
156	0xbd606408	-0.054782897
157	0xbd967558	-0.073466
158	0xbcc9de63	-0.024642175
159	0x3cee7722	0.029109541
160	0x3d0facde	0.03507697
161	0x3d8d015e	0.068850264
162	0xbda4aee2	-0.08041169
163	0xbc9b785f	-0.018978296
164	0x3c66f55d	0.014096585
165	0x3cdf6e1d	0.027274186
166	0x3c8d33e0	0.01723665
167	0x3cccdacc	0.025006674
168	0x3d41cfb9	0.04731724
169	0xbc421819	-0.011846566
170	0x3b8fc512	0.0043875063
171	0xbd2f176b	-0.042746942
172	0x3cc3e8a4	0.023914643
173	0x3d7c30a4	0.061569825
174	0xbdf5e2f8	-0.120061815
175	0x3e32ea3b	0.17472164
176	0x3bdd5ecb	0.006755685
177	0xbc2b97ae	-0.010473175
178	0xbcab9843	-0.020946627
179	0xbd2f2a9d	-0.04276525
180	0xbd8da4ef	-0.06916224
181	0x3e070bc5	0.13188083
182	0xbd636c84	-0.05552341
183	0xbd02f70a	-0.031973876
184	0xbc6df85f	-0.014524548
185	0x3c01bbc4	0.007918302
186	0xbd1093b8	-0.035297126
187	0xbd4f4960	-0.050607085
188	0xbc8e085b	-0.017337969
189	0xbd59e2ea	-0.053194918
190	0x3cf11c33	0.029432392
191	0xbca98b72	-0.020696376
192	0xbd2b008f	-0.04174858
193	0x3cd2a154	0.025711693
194	0x3dcdf8f1	0.100572474
195	0xbd887a89	-0.06663997
196	0x3c8c6d17	0.017141862
197	0xbabb88d6	-0.0014307748
198	0x3d8a3baa	0.06749661
199	0xbe3acf4e	-0.18243143
200	0xbd21317e	-0.03935384
201	0x3ca00ac2	0.01953638
202	0xbc86c00e	-0.016449
203	0xbcaa5a99	-0.020795153
204	0xbd09c74e	-0.033637337
205	0x3b5c6cb6	0.0033634133
206	0xbdbe1df0	-0.09283054
207	0xbdcf63b3	-0.10126438
208	0x3dd42726	0.103590295
209	0x3cab32cd	0.020898247
210	0x3d9bda92	0.07610048
211	0xbd345693	-0.044027876
212	0x3d167ad5	0.036738236
213	0x3c73238b	0.014840017
214	0xba3fc3fa	-0.00073152746
215	0x3dd6355e	0.10459398
216	0xbd81856c	-0.06324276
217	0x3d3d9b4e	0.04629069
218	0xbdd09a7a	-0.10185714
219	0x3d0502b6	0.03247329
220	0xbcce1fa2	-0.025161568
221	0xbd1757a8	-0.03694883
222	0xbca49866	-0.0200922
223	0xbc2a358f	-0.010388746
224	0xbd1c9332	-0.038226314
225	0x3d71dc36	0.0590479
226	0x3c93abd6	0.018026274
227	0xbc9e9d78	-0.019362196
228	0xbc4aa08b	-0.012367378
229	0x3d167d61	0.036740664
230	0x3d5086dc	0.050909862
231	0xbbce25b8	-0.0062911175
232	0x3d1ebcff	0.03875446
233	0xbc370187	-0.011169798
234	0x3c131493	0.008977073
235	0xbcddce07	-0.02707578
236	0x3b008f9e	0.0019616853
237	0x3c70d30a	0.014698753
238	0xbdd29bff	-0.1028366
239	0x3e5ad346	0.21369657
240	0x3d213409	0.039356265
241	0xbcf08b9c	-0.029363446
242	0xbc5cd9cc	-0.013479661
243	0xbc7eebfb	-0.015559192
244	0xbd77acb8	-0.06046745
245	0x3d90abca	0.07064016
246	0xbc12d40b	-0.008961688
247	0xbcf58db6	-0.0299748
248	0xbd5475e8	-0.051870257
249	0x3d2bf4ef	0.041981634
250	0xbc8aa90c	-0.016926311
251	0xbd9941d8	-0.07483262
252	0xbcb7e7e8	-0.022449449
253	0xbd88bacd	-0.066762544
254	0x3bd6fe1d	0.0065610544
255	0xbd19c481	-0.037540916

encoder.0.attention.keys.bias f4 [64]
0	0x38bff526	9.153252e-05
1	0x3980c82b	0.000245632
2	0x39808936	0.00024516293
3	0x392fbdef	0.00016760056
4	0x390b1117	0.0001326244
5	0xb96b8af2	-0.00022463108
6	0xb941c7ac	-0.00018480298
7	0x39a71cd7	0.0003187421
8	0xb94341e5	-0.00018621197
9	0x396af539	0.00022407332
10	0x39910ae9	0.00027664684
11	0xb909027b	-0.00013066262
12	0xb961dba4	-0.00021539495
13	0x396fa6f7	0.00022855015
14	0x395ca55e	0.00021042439
15	0x39ae7b15	0.0003327957
16	0xb999e7b7	-0.00029355075
17	0x39a0cbdc	0.00030669465
18	0x3966ac61	0.00021998725
19	0xb9c488bd	-0.0003748591
20	0xb95796a9	-0.00020560123
21	0xb935338e	-0.00017280711
22	0x3927836b	0.00015975318
23	0xb9cd2a73	-0.00039132274
24	0x39378034	0.000175
25	0xb9a23218	-0.0003093637
26	0x395cafa3	0.00021046265
27	0xb9926c8f	-0.00027928172
28	0x39911d18	0.00027678232
29	0x39e2423c	0.00043155428
30	0xb905eba9	-0.00012771659
31	0xb9384dda	-0.0001757661
32	0xb7fdbe5d	-3.0248595e-05
33	0xb68d0199	-4.2023134e-06
34	0xb879e74e	-5.9581645e-05
35	0x389fd2fb	7.621009e-05
36	0x388edb4c	6.811935e-05
37	0x36458efd	2.9438518e-06
38	0xb8b82d6d	-8.782265e-05
39	0xb8ac2621	-8.208701e-05
40	0xb7caa437	-2.4156745e-05
41	0xb9139534	-0.00014074595
42	0x390dce93	0.00013523763
43	0x3885ba3b	6.376622e-05
44	0x390617d7	0.00012788117
45	0xb585f611	-9.980887e-07
46	0xb498e13d	-2.847609e-07
47	0x391055fc	0.00013764942
48	0x398dfa92	0.00027080305
49	0x3951d096	0.00020009498
50	0x39311461	0.00016887627
51	0xb9a7cf19	-0.00032007022
52	0x3972e698	0.00023164821
53	0x39845c8f	0.00025245963
54	0x398536a3	0.00025408444
55	0xb95f500f	-0.00021296761
56	0x394de350	0.00019635004
57	0x39884098	0.00025988068
58	0xb9673b41	-0.0002205195
59	0x391f0d63	0.00015168409
60	0xb983867d	-0.0002508647
61	0xb98b2584	-0.00026540097
62	0xb99654c6	-0.0002867339
63	0xb98198d3	-0.0002471866

encoder.0.attention.values.weight f4 [64, 64]
0	0xbe18b8f8	-0.1491431
1	0xbce8aad7	-0.028401775
2	0xbcd41d97	-0.025893016
3	0x3cb9f8b0	0.022701591
4	0x3c9f27ba	0.019428123
5	0xbd2ec73c	-0.042670473
6	0xbc4683d3	-0.01211639
7	0x3d154bd2	0.03644926
8	0xbd1c3873	-0.03813977
9	0xbc040917	-0.008058808
10	0xbd199bb2	-0.037502
11	0x3c81d494	0.015848435
12	0x3d251993	0.040307593
13	0xbcff0cd7	-0.031134052
14	0xbd04b761	-0.032401446
15	0x3bf4b413	0.0074677556
16	0xbc00f157	-0.00787004
17	0xbd4b0ddd	-0.049573768
18	0x3c58772a	0.013212005
19	0xbd8c016f	-0.06836211
20	0xbca8f8f4	-0.020626523
21	0x3c4510f6	0.01202797
22	0x3c9d239b	0.019182017
23	0xbdc8daca	-0.09807356
24	0x3c18f641	0.009336055
25	0xbcddfd4e	-0.027098324
26	0x3d05fb71	0.032710496
27	0x3d97d01b	0.0741274
28	0xbbca16cb	-0.006167268
29	0x3bc615e6	0.006045091
30	0xbccb0a8d	-0.024785304
31	0xbcc922c5	-0.024552712
32	0xbc8b185e	-0.016979393
33	0xbc8b53e9	-0.017007785
34	0xbb30ea27	-0.0026995034
35	0xbc9aefb7	-0.018913133
36	0xbbe64cbd	-0.007028191
37	0xbd17d439	-0.037067626
38	0xbc608511	-0.0137036005
39	0xbc5e1bf3	-0.013556468
40	0x3d2bb0aa	0.041916527
41	0xb9e6773d	-0.00043957858
42	0xbc8a0f4b	-0.016852995
43	0x3d129972	0.035790868
44	0x3d501bcc	0.05080776
45	0xbcc38280	-0.023865938
46	0xbc488262	-0.012238117
47	0xbcf17a2c	-0.029477201
48	0x3c8d26e7	0.017230464
49	0x3ba958a6	0.0051680384
50	0x3dc7783e	0.09739731
51	0xb9c8472a	-0.00038199994
52	0x3c9a0dc1	0.018805386
53	0xbd971533	-0.0737709
54	0x3ccc30b4	0.024925567
55	0xbd27a53e	-0.04092907
56	0x3d2443f3	0.040103864
57	0x3cb50bf8	0.022100434
58	0x3c38d0d3	0.011280256
59	0xbaf37d10	-0.00185767
60	0x3c627875	0.0138226645
61	0x3c7d300e	0.015453352
62	0xbb83729c	-0.0040114652
63	0xba4d0418	-0.00078207394
64	0xbc46c642	-0.012132229
65	0x3bc9df1e	0.006160631
66	0xbc4ad64c	-0.012380194
67	0xbc4bc989	-0.012438186
68	0x3ce1d10e	0.027565505
69	0x3d0a43f6	0.03375622
70	0xbc01a3f0	-0.007912621
71	0x3bc2432a	0.0059284167
72	0xbc7f7e66	-0.015594101
73	0x3b8ca01a	0.0042915465
74	0x3cf6e6d7	0.03013937
75	0xbbfa0ada	-0.007630688
76	0xbcb842ff	-0.022492884
77	0xbd313452	-0.043262787
78	0x3d44b8f0	0.048027933
79	0xbc0f435d	-0.008744088
80	0x3b50c685	0.0031856608
81	0x3d272e88	0.04081586
82	0xbc833e4d	-0.016020918
83	0x3d55782a	0.05211655
84	0x3c1b5f99	0.0094832415
85	0xbbcfcadb	-0.006341321
86	0x3bb497a8	0.005511243
87	0xbd1a0156	-0.03759893
88	0xbcc1cf6f	-0.023658482
89	0xbbaed162	-0.005335019
90	0x3c1d57a2	0.009603413
91	0x3bf82e21	0.0075738584
92	0xbd27582e	-0.04085558
93	0xbd4e6889	-0.05039266
94	0x3c0dd729	0.008657255
95	0x3cc90ac7	0.024541272
96	0x3c830833	0.01599512
97	0x3ccf2917	0.025288148
98	0x3bd7d14b	0.006586229
99	0x3cc5a3e5	0.024126003
100	0x3cd2f92b	0.025753578
101	0x3c809582	0.01569629
102	0xbd47e290	-0.04880005
103	0x3c577480	0.013150334
104	0x3c38f824	0.01128963
105	0x3b575bd2	0.0032861126
106	0x3d242b4a	0.040080346
107	0xbc79b628	-0.015241183
108	0x3d9199a5	0.071093835
109	0xbc4e828c	-0.012604367
110	0x3d40ea37	0.047098365
111	0xbcbba5f7	-0.022906287
112	0xbc52b39b	-0.012860204
113	0xbce78c28	-0.028265074
114	0x3cc7c9a8	0.02438815
115	0x3c9da423	0.019243306
116	0xbc827d39	-0.015928851
117	0xbd47c64c	-0.048773095
118	0xbc117fd8	-0.008880578
119	0x3bf840c5	0.0075760805
120	0xbd09c05e	-0.03363072
121	0xbcffa09c	-0.031204514
122	0x3d27b550	0.040944397
123	0x3c0f4bf8	0.00874614
124	0xbd2997d5	-0.041404564
125	0xbcdba78a	-0.026813287
126	0xbc2f3c35	-0.010695507
127	0xba42f4e8	-0.00074370066
128	0xbd3b35c6	-0.04570558
129	0xbc1a6be6	-0.009425139
130	0xbd749078	-0.05970809
131	0x3b569b23	0.0032746277
132	0xbcf6c818	-0.030124709
133	0x3c98ceaa	0.018653233
134	0xbd0b03b9	-0.033939097
135	0x3d834df3	0.06411352
136	0x3ca8c627	0.020602299
137	0xbd37c68c	-0.044867083
138	0xbc98c5de	-0.018649038
139	0x3b85a0af	0.004077993
140	0xbd256861	-0.040382747
141	0x3c139d40	0.009009659
142	0x3d92efe7	0.07174664
143	0x3c00a29f	0.007851272
144	0xbc3519fe	-0.01105356
145	0x3c96e218	0.018418357
146	0x3cbd7d67	0.023131086
147	0x3d88f9fe	0.06688307
148	0xbc40b007	-0.011760718
149	0x3d3ade6d	0.045622278
150	0x3cd120de	0.025528368
151	0xbc85143b	-0.016244998
152	0x3c2d0e8a	0.010562548
153	0xbc3a04a3	-0.011353645
154	0x3d3cbcc1	0.046078447
155	0x3c5afc85	0.013365869
156	0xbb33b42f	-0.002742063
157	0xbc912969	-0.017719941
158	0x3ba6670e	0.005078203
159	0x3c325171	0.010883675
160	0xbd1f2f1a	-0.03886328
161	0xbc03da13	-0.008047598
162	0x3ca486fc	0.020083897
163	0x3d2ba5d2	0.041906185
164	0xbcfa090f	-0.030521898
165	0xbd2533e9	-0.04033271
166	0xbd22d6fd	-0.03975581
167	0x3ca019ee	0.019543614
168	0xbd53783d	-0.05162834
169	0x3be477ba	0.0069722803
170	0xbd09e05e	-0.03366124
171	0x3cfc8991	0.030827316
172	0x3d469f5f	0.048491832
173	0x3b93999b	0.004504395
174	0xbbb0f42b	-0.005400201
175	0xbc91956a	-0.017771441
176	0xbd4749a9	-0.048654232
177	0xba82f051	-0.0009989833
178	0xbdb24e8d	-0.087063886
179	0xbcf7f791	-0.030269416
180	0x3d0d6802	0.034523018
181	0xbcbeb4a2	-0.023279492
182	0xbcad251c	-0.02113586
183	0xbc6eb2cc	-0.014568996
184	0x3aaef33e	0.0013347638
185	0xbc06e710	-0.0082338005
186	0x3cde6f77	0.02715276
187	0x3cf41ae0	0.029797971
188	0x3cafa524	0.02144105
189	0x3d3d86c6	0.046271108
190	0xbd1c48f8	-0.038155526
191	0x3c7980d3	0.015228468
192	0xbd9ad856	-0.07560794
193	0xbcf0dc30	-0.029401869
194	0xbd12787a	-0.035759427
195	0x3cf50d7e	0.02991366
196	0xbc5b4b64	-0.013384674
197	0x3c8ac9ee	0.01694199
198	0xbcc5dde3	-0.024153655
199	0x3d31ee6f	0.04344028
200	0xbd101d5c	-0.03518425
201	0xbcd5574d	-0.026042605
202	0x3d1ecaac	0.0387675
203	0xbcbb1201	-0.022835733
204	0xbd4af0c7	-0.04954603
205	0x3c782529	0.015145578
206	0x3d5df59f	0.05418932
207	0xbb7f1d63	-0.0038927428
208	0x3d20eac9	0.03928641
209	0xbc80507b	-0.015663376
210	0x3cae2d97	0.021261973
211	0x3c906033	0.017623996
212	0xbccb4ace	-0.024815943
213	0xbca1ba05	-0.019742021
214	0xbc8b3e71	-0.016997548
215	0xbd2986c4	-0.04138829
216	0xbacdc893	-0.0015700035
217	0x3c98172e	0.01856574
218	0xbb54e98a	-0.0032487833
219	0x3ba35b1c	0.0049852263
220	0x3bc33069	0.0059566987
221	0xbc926ed3	-0.01787511
222	0x3ce8666a	0.028369147
223	0x3be13bbe	0.006873577
224	0x3ba1ba4f	0.00493554
225	0xbd1dc7e6	-0.038520716
226	0xbccd8a13	-0.025090253
227	0x3c9affc4	0.018920787
228	0x3d055e99	0.03256092
229	0xbd46fa38	-0.04857847
230	0x3bb1efe4	0.0054302085
231	0x3c60e3bd	0.013726172
232	0x3cabd73a	0.020976651
233	0xbbea0124	-0.0071412493
234	0x3ba8b4b8	0.0051484965
235	0xbccb61ad	-0.024826849
236	0x3dc2f1d3	0.095187806
237	0x3cfb2135	0.030655483
238	0xbc9f01c6	-0.019410025
239	0xbd5f4b92	-0.05451543
240	0x3bc51ea3	0.006015615
241	0xbc8c0c03	-0.017095571
242	0xbd375741	-0.044760946
243	0xbc1250ba	-0.0089303795
244	0xbc4ab4e1	-0.012372226
245	0xbc4e33a9	-0.012585559
246	0xbc5251f5	-0.012836923
247	0xb89a97cf	-7.371569e-05
248	0xbc3c66e5	-0.011499141
249	0xbc9864e8	-0.018602803
250	0x3d49cf5b	0.049270015
251	0xbc8b412a	-0.016998846
252	0x3c6e208a	0.014534125
253	0x3c8f269c	0.017474465
254	0xbc2ff4ea	-0.010739544
255	0xbc7bf8ae	-0.015379114

encoder.0.attention.values.bias f4 [64]
0	0xbbcb0110	-0.006195195
1	0x3cbb214d	0.022843027
2	0xbc37a0b9	-0.011207753
3	0x3a52a8d9	0.00080360245
4	0x3b88155b	0.0041529364
5	0xbc2b0e9f	-0.010440498
6	0xbb211959	-0.0024581759
7	0x3c6a1174	0.014286388
8	0x3c722fcc	0.0147819035
9	0xbb423c76	-0.0029638088
10	0x3c949cb2	0.018141124
11	0x3c2007f1	0.009767518
12	0x3cdbba70	0.026822299
13	0xbcaf40c6	-0.021393191
14	0x3bec170f	0.0072048972
15	0x3c6b576d	0.014364106
16	0xbc812ff3	-0.015769934
17	0x3b9eb940	0.004843861
18	0xbbf859b4	-0.007579053
19	0xbc2c981c	-0.010534313
20	0xbc8fc4dd	-0.017549926
21	0xbcaaf8ea	-0.020870645
22	0xbc2f4981	-0.010698677
23	0xbc7ad4e3	-0.015309545
24	0x3ba846d2	0.0051353956
25	0xbc1361a8	-0.008995451
26	0xbc665fe7	-0.014060951
27	0x3b7f290b	0.0038934376
28	0xbb3c521d	-0.0028735467
29	0xbc8006a3	-0.015628165
30	0xbb23bbba	-0.002498372
31	0xbcbc42e1	-0.02298111
32	0xbbdedce7	-0.006801236
33	0xbc1551e7	-0.009113765
34	0x3bd4fb33	0.006499672
35	0xbc5c4f14	-0.013446588
36	0x3c83c1ce	0.016083624
37	0xbcabbe3a	-0.02096473
38	0xbc0352ea	-0.008015374
39	0x3ba198b8	0.0049315356
40	0x3c2ca9b0	0.0105385035
41	0xbaa6de24	-0.0012730998
42	0x3b4fd74e	0.0031714025
43	0x3c51ff46	0.01281721
44	0x3be20be3	0.0068983897
45	0x3bbc6fae	0.005750618
46	0x3c8465bb	0.01616179
47	0xbc72f6cd	-0.01482935
48	0xbc0fd11e	-0.008777885
49	0xb960662e	-0.0002140037
50	0x3b81e931	0.003964566
51	0x3a33a8bf	0.0006853453
52	0x3cae7c32	0.021299455
53	0xbb69d3b4	-0.0035679163
54	0xbc12ffdf	-0.008972137
55	0xbbc9a8cb	-0.006154155
56	0x3ca0409f	0.019562064
57	0x3c967503	0.018366342
58	0xbbb8e5ee	-0.005642644
59	0x3c542c24	0.012949977
60	0xbbf5c3f3	-0.0075001656
61	0x3bab4bec	0.0052275565
62	0x3b1d64fd	0.0024016493
63	0x3c29bec2	0.010360422

encoder.0.attention.fc.weight f4 [64, 64]
0	0x3cd5ad22	0.026083533
1	0xbc387a97	-0.011259696
2	0x3c349769	0.011022427
3	0x3cd3a00b	0.02583315
4	0x3bfffb2b	0.007811924
5	0x3c06e1cd	0.008232546
6	0x3be2a92c	0.0069171395
7	0xbc3f18dc	-0.011663642
8	0x3c040162	0.00805697
9	0x3cc19115	0.02362875
10	0x3bd1c04f	0.006401099
11	0xbb49499e	-0.0030714045
12	0x3bfabaa0	0.007651642
13	0xbc3d74ad	-0.011563462
14	0xbc38ae4d	-0.011272025
15	0x3c5120b3	0.012764144
16	0x3c5c9c70	0.013465032
17	0x3d12e0c4	0.035858884
18	0x3c80acae	0.01570734
19	0xbc65c573	-0.014024126
20	0x3c5e304e	0.013561321
21	0x3c4ede4b	0.012626241
22	0x3d223877	0.03960463
23	0xbcb4eec4	-0.022086509
24	0x3c8d4987	0.017246975
25	0xbc0b4467	-0.008500195
26	0xbd3b0c82	-0.045666225
27	0x3c9d8a57	0.019231005
28	0xbcd7bbac	-0.026334606
29	0x3ce01592	0.027354036
30	0x3d0edb6a	0.03487722
31	0x3c4e5d0f	0.012595429
32	0x3bce02f8	0.006286975
33	0xbb5996b3	-0.0033201396
34	0x3b446b20	0.0029971078
35	0x3b148772	0.002266374
36	0xbc80553f	-0.015665649
37	0xbd19daad	-0.03756206
38	0x3c20556e	0.009785993
39	0xbcf8091c	-0.030277781
40	0x3b0f1672	0.0021833447
41	0xbc40f8c5	-0.011778061
42	0x3c85314e	0.016258862
43	0x3c642a94	0.013926167
44	0x3cee0f87	0.029060138
45	0x3bd9681b	0.006634725
46	0xbd1907cc	-0.03736095
47	0xbc16733c	-0.009182747
48	0x3ca6755b	0.020319631
49	0x3b9b0b82	0.0047315964
50	0x3c144308	0.009049185
51	0x3c4ac032	0.0123749245
52	0xbd0373a6	-0.032092713
53	0x3bd54ad5	0.006509165
54	0xbbb0921b	-0.005388511
55	0x3c0fa7ed	0.008768064
56	0xbcb05b5b	-0.021527937
57	0xbd1ad5a6	-0.037801407
58	0x3c4e295c	0.012583103
59	0x3b3f2abe	0.0029169763
60	0xbcee6f18	-0.029105708
61	0x3c9590f6	0.0182576
62	0xb982dd0b	-0.00024960222
63	0xbb81a7b2	-0.0039567584
64	0xbb827eef	-0.003982417
65	0x3cb0f42d	0.021600807
66	0x38cea0c9	9.852794e-05
67	0xbc34d277	-0.011036507
68	0xbaf8d9a0	-0.0018985756
69	0x3b630d5b	0.0034645412
70	0xbb95f57c	-0.004576383
71	0x3c95a56d	0.018267358
72	0x3d0c509b	0.03425656
73	0xbb884a21	-0.0041592275
74	0x3bf13770	0.007361345
75	0xbc30fe46	-0.010802811
76	0x3cdcbaec	0.0269446
77	0x3b04d87f	0.0020270643
78	0xbcff087e	-0.03113198
79	0xbcd1c96a	-0.025608737
80	0x3cbad6f3	0.022807574
81	0xbbb23b15	-0.005439172
82	0xbc1a3819	-0.009412789
83	0x3b440d0a	0.0029914998
84	0x3c9124e4	0.017717786
85	0xbbdfb7f0	-0.006827347
86	0xbc8d1289	-0.017220752
87	0xbb3ddd25	-0.0028970924
88	0x3a8cdfa9	0.0010747808
89	0x3cba7ec0	0.022765517
90	0x3ce58a40	0.028020024
91	0x3c6a6130	0.014305398
92	0x3a522230	0.00080159586
93	0xbc000987	-0.0078147715
94	0xbaa9f072	-0.0012965335
95	0x3cc6ed93	0.024283206
96	0xbb3f5a4d	-0.002919811
97	0xbc23091c	-0.009950902
98	0xbbc1b104	-0.0059109945
99	0x3c636859	0.013879859
100	0x3d12dc09	0.035854373
101	0xbcb5d639	-0.022196876
102	0x3be8df85	0.0071067237
103	0xbb2fee27	-0.002684483
104	0xbbb5126d	-0.005525878
105	0xba135ea6	-0.00056217087
106	0x3ce3f857	0.027828379
107	0xbd25f369	-0.040515337
108	0x3cbe71bb	0.02324759
109	0x3cdc6245	0.026902327
110	0x3c57cade	0.013170926
111	0xbc3aaeb7	-0.011394194
112	0x3c0d59a0	0.008627325
113	0xbbd8ac13	-0.0066123097
114	0xbbaa137b	-0.0051903105
115	0x3b0674d4	0.0020516412
116	0x3be02a04	0.006840946
117	0x3bda8c47	0.0066695544
118	0xbc80fbe7	-0.015745116
119	0xbc765b40	-0.015036404
120	0xbaf758a0	-0.0018871017
121	0xbc1ba1f2	-0.00949906
122	0x3c19314d	0.009350133
123	0xbca13bd4	-0.019681849
124	0x3d22692f	0.039651092
125	0xbcf15407	-0.029459013
126	0xbcf19fc2	-0.029495124
127	0x3c09f68f	0.008420601
128	0xbaf5c237	-0.0018749897
129	0x3cf9792f	0.030453293
130	0x3c977341	0.018487575
131	0xbd47af6d	-0.048751283
132	0xbc11ef5e	-0.008907167
133	0x3cd4f8cf	0.025997547
134	0x3bbecba1	0.0058226143
135	0x3bd81681	0.0065944795
136	0xbcbaded0	-0.022811323
137	0x3cb602f8	0.022218212
138	0x3c43bfa0	0.011947542
139	0xbb48ce04	-0.0030640373
140	0x3b9c5910	0.0047713593
141	0xbd110ec7	-0.035414483
142	0xbacb3055	-0.0015502075
143	0x3cb2dae2	0.021832887
144	0xbb3393e6	-0.0027401387
145	0xbc047f6b	-0.008087019
146	0xbce5bb0c	-0.028043292
147	0x3cdb540e	0.026773479
148	0x3ba24af8	0.0049527846
149	0xbd1b94fb	-0.037983876
150	0x3cddb64b	0.027064463
151	0xbb9aacdb	-0.004720313
152	0xbc1bc5c1	-0.009507597
153	0x3be6e119	0.0070458767
154	0xbcc7fb02	-0.024411682
155	0x3d053c22	0.03252805
156	0x3bfe6f9b	0.0077647693
157	0x3c2e7929	0.010649004
158	0x3bc2965b	0.005938334
159	0xbcf562ab	-0.029954275
160	0x3be78130	0.007064961
161	0x3c948689	0.018130558
162	0xbccd1ba1	-0.025037589
163	0x3c8f9464	0.017526813
164	0x3d335117	0.043778505
165	0x3c87d2a4	0.016579933
166	0xbcc45013	-0.023963964
167	0x3c7a0561	0.0152600715
168	0x3d0851ef	0.033281263
169	0x3cb68773	0.022281384
170	0x3c28423b	0.010269697
171	0x3aee7ef7	0.0018195797
172	0x3c7afd35	0.015319158
173	0x3c87f608	0.016596809
174	0x3c8500b2	0.016235683
175	0xbc1fe2a4	-0.009758625
176	0xbb8db1d0	-0.0043241754
177	0xbd588f29	-0.052870903
178	0x3c3785b8	0.011201315
179	0x3cbcd3cd	0.023050213
180	0x3b520a05	0.003204943
181	0x3bf8b3ee	0.0075898087
182	0x3cd8417d	0.026398415
183	0xbd0744fc	-0.033024773
184	0xba7d09b8	-0.0009652632
185	0x3baa3382	0.0051941285
186	0x3d284eeb	0.041090887
187	0xbbb0c234	-0.0053942446
188	0x3b7e0c19	0.0038764535
189	0x3c22e13e	0.009941397
190	0xbc6fef2e	-0.014644427
191	0xbb610193	-0.0034333214
192	0x3cc926a1	0.024554553
193	0xbd17c10d	-0.037049342
194	0x391d212d	0.00014985046
195	0x3cc34f2b	0.023841461
196	0x3b3f0aa1	0.0029150622
197	0xbceb2373	-0.028703427
198	0x3bc01749	0.005862151
199	0x3c8dfd01	0.017332556
200	0xbd0e7cdd	-0.034787048
201	0x39bcaa04	0.00035984826
202	0xbc484d49	-0.0122254575
203	0xbc92b658	-0.017909214
204	0x3d506639	0.050878737
205	0xbae80c89	-0.0017703931
206	0xbcef1cc7	-0.029188527
207	0x3bbf21d8	0.005832892
208	0x3d2d6d84	0.04234077
209	0x3ca4e165	0.020127008
210	0xbba7a7ae	-0.0051164245
211	0x3c31519e	0.010822682
212	0xb9999d99	-0.00029299853
213	0x3c22b26b	0.0099302335
214	0xbcc7c4e1	-0.024385871
215	0x3bdce57b	0.0067412234
216	0xbc4fa924	-0.012674604
217	0xbcd77080	-0.026298761
218	0x3d089aed	0.033350874
219	0xbd12f17d	-0.035874832
220	0xbca1e26c	-0.019761287
221	0x3c4c0460	0.012452215
222	0x3aebc949	0.0017989065
223	0x3d1faf10	0.038985312
224	0xbd0497ef	-0.032371458
225	0xbc92ea72	-0.017934058
226	0x3a10eec6	0.0005528744
227	0xbc40ece5	-0.01177523
228	0xba2bb845	-0.00065505906
229	0xbc06d521	-0.008229525
230	0xbc346df5	-0.011012544
231	0xbc536658	-0.012902819
232	0xbcf5dcf7	-0.03001259
233	0xbb677bb3	-0.0035321533
234	0x3c2e11a5	0.010624324
235	0xbcc258bc	-0.023723952
236	0xbd0a381b	-0.033744913
237	0xbc25d780	-0.01012218
238	0xbb90a099	-0.004413676
239	0xbc8e0bd3	-0.017339623
240	0x3b76ec66	0.0037677526
241	0xbc0b657d	-0.008508083
242	0x3cf04ac1	0.02933252
243	0xbd0fbc20	-0.03509152
244	0x3b567224	0.0032721842
245	0xba689c50	-0.000887339
246	0xbc189952	-0.009313898
247	0x3c603a2b	0.013685743
248	0x3bed8dd7	0.0072495746
249	0x3c48913c	0.012241658
250	0xbcd82937	-0.02638684
251	0xbc5830c9	-0.013195225
252	0xbcc2d938	-0.023785219
253	0x3ccbb739	0.02486764
254	0xbc895490	-0.016763955
255	0xbc7f9c81	-0.015601278
