model/mnist/tune_lr0.0005_ed32_nl4_nh2_fm2_ps4/temp_model.pt (torch, 175623 bytes, 74 tensors)

embedding.cls_token f4 [1, 1, 32]
000000 e0 e8 9f 3b 7c 19 9b 3c 48 51 a5 3a c3 c2 b1 bb
       0.004880056 0.01893305 0.0012612725 -0.0054248287
000010 59 c7 ae bb 48 c6 8d bc ad cd 2c bc 7b b1 0c bc
       -0.0053338227 -0.017306462 -0.010547084 -0.0085872365
000020 a9 61 e7 bb af dd 72 3c 6b e2 83 3d c8 e2 76 bc
       -0.0070612025 0.014823361 0.0643967 -0.015068717
000030 31 26 14 3c fa 19 d2 bb 86 cd ac bc ca ff 74 bd
       0.009042309 -0.006411788 -0.021094095 -0.059814252
000040 dd 4b c9 bc 33 28 d8 3c 8d e0 48 3c f7 67 fe 3c
       -0.024572307 0.026386356 0.012260568 0.031055434
000050 4c d7 a7 3c b3 b4 13 bd df e9 70 3a 11 78 00 bd
       0.020488404 -0.036061 0.0009190123 -0.031364504
000060 84 34 12 bc 21 12 f4 bb db 3f 3f bb fe 00 66 3b
       -0.0089236535 -0.00744845 -0.0029182348 0.0035095806
000070 1a 7e c3 3c cb 7e 85 ba 69 83 ed 3a 54 08 d8 3c
       0.02386384 -0.0010184882 0.0018120828 0.026371159

embedding.pos_embedding f4 [1, 50, 32]
000000 ee e8 9f 3b 81 19 9b 3c 89 51 a5 3a bc c2 b1 bb
       0.0048800623 0.01893306 0.00126128 -0.0054248255
000010 43 c7 ae bb 4b c6 8d bc a3 cd 2c bc 7f b1 0c bc
       -0.0053338124 -0.017306468 -0.0105470745 -0.00858724
000020 a4 61 e7 bb aa dd 72 3c 6a e2 83 3d cb e2 76 bc
       -0.0070612 0.014823357 0.064396694 -0.01506872
000030 31 26 14 3c f4 19 d2 bb 8d cd ac bc c8 ff 74 bd
       0.009042309 -0.0064117853 -0.021094108 -0.059814245
000040 d8 4b c9 bc 35 28 d8 3c 90 e0 48 3c f9 67 fe 3c
       -0.024572298 0.02638636 0.012260571 0.031055437
000050 4b d7 a7 3c b5 b4 13 bd 24 ea 70 3a 12 78 00 bd
       0.020488402 -0.036061008 0.0009190163 -0.031364508
000060 87 34 12 bc 3b 12 f4 bb c1 3f 3f bb ff 00 66 3b
       -0.008923656 -0.0074484623 -0.0029182287 0.0035095809
000070 1a 7e c3 3c d2 7e 85 ba 38 83 ed 3a 4c 08 d8 3c
       0.02386384 -0.001018489 0.0018120771 0.026371144
000080 39 59 2a 3c 27 12 b8 bb db 0e b1 bc 3a 9a c9 bc
       0.010397249 -0.0056173983 -0.021613529 -0.024609674
000090 40 3f 0f bb d6 6b a3 bc e6 ca fd 3c 25 28 10 bb
       -0.0021857768 -0.019948881 0.030980539 -0.0021996584
0000a0 4f 5d 1a bb 95 13 97 ba 83 b0 93 bc 24 31 01 bd
       -0.0023554151 -0.0011526222 -0.018028503 -0.031541005
0000b0 36 cd 56 bc 19 a6 a3 bb a4 55 78 3d 9c b8 4a bc
       -0.01311045 -0.0049941656 0.06062855 -0.012373116
0000c0 2b f1 2c 3d 58 d1 05 bc 9d 71 85 3c 4e 67 0b 3c
       0.042222183 -0.008167587 0.016289527 0.0085085165
0000d0 bf 7d 0d 3c 76 13 b7 3a 4b 20 5e 3d 8a af 8c bc
       0.008635937 0.0013967592 0.054230016 -0.017173547
0000e0 55 75 11 bc f8 8a 6c bd fe 40 d6 ba 75 7a a5 3b
       -0.008878072 -0.05774972 -0.0016346273 0.0050499984
0000f0 33 d9 1c 3b 08 48 91 bc 0c 97 01 3d e5 51 d0 bc
       0.0023933172 -0.017734542 0.03163819 -0.025429675
000100 14 ae 2c 3c 36 5f 39 3b 76 9b 60 bc 4f 42 ca bc
       0.01053955 0.002828551 -0.01370894 -0.024689822
000110 66 c1 5d bb f8 cf 18 bc 58 2c a5 3c 36 6c 1c bb
       -0.0033837198 -0.009326927 0.020162746 -0.002386821
000120 34 ce 81 bb fe 86 10 bc dc b7 d1 bc 07 9f fb bc
       -0.003961349 -0.008821247 -0.025600366 -0.030715479
000130 c8 b8 2a bc eb b2 9a bb 23 b3 7b 3d 55 df 1f b9
       -0.010420032 -0.0047210357 0.061450135 -0.0001524662
000140 a1 c4 39 3d c2 1d 5a bc fd b4 86 3c bc 69 1e bb
       0.045353536 -0.013312759 0.016443724 -0.002417191
000150 91 67 0c bc 69 e5 43 3a 53 db 2e 3d ec 70 97 bc
       -0.008569614 0.00074728444 0.042689633 -0.018486463
000160 b8 76 bd bc d5 61 35 bd 28 9c 0b 3c 70 0e 5b 3c
       -0.023127899 -0.044282753 0.008521117 0.013370141
000170 05 cb 28 38 1d 9b ab bc 2a e4 2f 3d 26 0a da bc
       4.0243398e-05 -0.020947987 0.042942204 -0.026616167
000180 c3 c4 d7 bc 45 26 07 3c 1b 29 6d 3d f7 dc 77 3c
       -0.02633894 0.00824887 0.05790053 0.015128366
000190 f5 4f 3e bd ef 02 c3 3d 12 14 ae 3a 61 4b 0d bd
       -0.04646297 0.09522044 0.0013281128 -0.034495715
0001a0 e1 d3 40 bd e1 b8 29 3d 4d 4e 88 bd 3d 16 99 3c
       -0.047077063 0.04143608 -0.0665556 0.018687362
0001b0 94 a1 c2 3c 38 24 58 bd 21 2e fb 3c 6a 00 f5 bc
       0.023758687 -0.052768916 0.030661644 -0.029907424
0001c0 c5 6d 01 bd 9e 97 29 bd d8 49 5c 3d 2d c4 ad bc
       -0.031598825 -0.04140436 0.05378136 -0.021211708
0001d0 ae 93 df bb f6 35 8e bc 88 c7 ed 3b 50 23 63 bd
       -0.0068230247 -0.017359715 0.007256452 -0.0554536
0001e0 c9 55 84 bd 63 9d b5 bb d7 22 84 3d 81 86 18 3d
       -0.06461675 -0.0055424436 0.06451958 0.037237648
0001f0 44 72 4d 3c 4c d0 72 bd 3c 22 08 3c 02 a5 5c bd
       0.01253945 -0.05928068 0.008308943 -0.0538683
000200 bd 48 d3 bc b6 e8 25 3c 95 26 c1 3d 5e ba fe ba
       -0.02579152 0.010126283 0.09431187 -0.0019434204
000210 d9 c0 cc bd b4 66 49 3e 9f dd 19 3d 97 84 27 bd
       -0.0999772 0.19668084 0.03756487 -0.040897932
000220 2e 4a 5e bd 99 a7 4e 3d 2f 4c 52 bd 90 e5 cb 3c
       -0.054269962 0.050452802 -0.051342186 0.024889737
000230 8e 17 7f 3d 10 bb aa bd ac 5a 8c 3b 3a 83 79 bd
       0.062278323 -0.083364606 0.00428327 -0.060916163
000240 f8 ce ab bc 03 5d ae bc 14 7d e1 3d 2b 43 3b bb
       -0.020972714 -0.021284586 0.11010185 -0.002857397
000250 e0 9e de 3c 09 c3 2e bc c3 aa ae bc 8e fa e9 bd
       0.027175367 -0.010666617 -0.02132166 -0.11424743
000260 65 45 a8 bd 26 7c 30 bd 51 e3 d2 3d cc a3 2c 3d
       -0.08216361 -0.043087147 0.102972634 0.042148396
000270 e0 cd a9 3c ad 41 a8 bd 85 ec 74 3d 53 0f 3d bd
       0.020728052 -0.08215652 0.059795875 -0.046157192
000280 c8 a5 bd bb 78 52 c6 3b e1 93 85 3d a7 9f 45 ba
       -0.005787585 0.0060523115 0.06522346 -0.00075387437
000290 f8 15 95 bd 13 1f 1f 3e 3d 58 61 3b f4 f1 1f bd
       -0.07279581 0.15539198 0.003438487 -0.039049104
0002a0 75 5d 7e bd 0c 18 04 3d 6a 2d 39 bd 1c 38 d8 3c
       -0.062100846 0.032249495 -0.045209326 0.026393943
0002b0 1a 5f 14 3d 19 50 9f bd 3e 45 74 bc 9a c1 5c bd
       0.03622351 -0.07778949 -0.014909087 -0.05389557
0002c0 5e df d6 bc 1b 9c e9 bc c9 b1 b3 3d 5d 26 43 bc
       -0.026229557 -0.02851682 0.08774144 -0.011911002
0002d0 e9 ec d6 3c 5e b7 93 bc 71 80 2c bc cd be b5 bd
       0.026236014 -0.018031772 -0.01052867 -0.08874283
0002e0 aa 15 a2 bd 51 01 39 bd 90 44 a6 3d 13 5e 43 3d
       -0.07914288 -0.04516727 0.08118546 0.047697138
0002f0 10 cd 26 3d 76 8a a6 bd 83 4f 2a 3d 36 6f 24 bd
       0.040722907 -0.08131878 0.041579735 -0.04014512
000300 20 52 94 3b 96 79 4f 3c 70 82 51 3c 9f fa 34 bb
       0.0045263916 0.012663266 0.012787446 -0.0027615202
000310 cb e5 64 bb 95 79 a6 3c 54 59 94 bc 2e 5c 9e bc
       -0.0034927006 0.020321647 -0.018109001 -0.019331064
000320 39 09 f6 bc ea a5 d6 3c 2d 6a 05 bd ae af 22 3d
       -0.030033695 0.02620216 -0.03257196 0.039718322
000330 09 65 c4 ba 5f 96 a7 bd 6e 15 53 3c bf 1d 05 bd
       -0.0014983724 -0.08182978 0.012883527 -0.03249907
000340 f2 ce a0 bc 05 26 45 bc 84 d1 ea 3c 9a 9b f8 bc
       -0.01962993 -0.01203299 0.028664358 -0.030347634
000350 39 30 f2 b6 97 ae a3 ba c0 b3 4c 3c dc 20 57 bd
       -7.217776e-06 -0.0012487945 0.012494028 -0.05252157
000360 54 b8 ef bc 4b 4f 29 bd c5 9b 65 3d 75 63 51 3d
       -0.0292627 -0.041335385 0.056056757 0.05112024
000370 1e fc c5 3a c3 01 84 bd 45 8d 1d bb b5 67 38 bd
       0.0015105044 -0.064456485 -0.0024040502 -0.045020778
000380 eb 43 45 3c 83 fa fe ba e0 90 9d bc 4c 60 e3 bc
       0.012040119 -0.001945332 -0.01923412 -0.027755879
000390 53 76 e3 ba bc 3c 99 bc c4 4a c6 3c 9f 99 1c bb
       -0.0017353989 -0.018705718 0.024205573 -0.0023895276
0003a0 fa 97 e0 bb 28 ee 15 3b 44 87 8d bc dd 6d fd bc
       -0.0068540545 0.0022877548 -0.017276414 -0.030936176
0003b0 91 b8 45 bc 3c 73 be bb 3a 72 3c 3d 74 4e 48 bc
       -0.01206793 -0.005812077 0.046007372 -0.012225736
0003c0 12 27 11 3d ea f6 c0 bb c2 58 4b 3c a4 16 09 3c
       0.03543765 -0.0058888094 0.012411298 0.008367214
0003d0 09 7f c3 3b 98 7b 7f 3a 3b 50 8b 3d 41 d2 8f bc
       0.0059660715 0.0009745895 0.06802412 -0.017556312
0003e0 37 eb 00 bc 8e f6 83 bd 6d 8f 1a 3a 8c 49 15 3c
       -0.00786858 -0.06443511 0.0005896006 0.009111773
0003f0 48 c8 14 3b ca 09 9a bc c6 d6 b5 3c cd 0d f8 bc
       0.0022702385 -0.018803496 0.022197139 -0.030280018

embedding.conv1.weight f4 [32, 1, 4, 4]
000000 49 48 80 bd 0f 42 e2 bc 8c 49 9b 3c 4b cd 7c bb
       -0.06263787 -0.02761939 0.018955968 -0.0038574513
000010 8b b0 fc bc 58 4f 04 bd eb 08 16 3b 9e 98 a5 bc
       -0.030845901 -0.03230223 0.00228935 -0.020214375
000020 df fe 8b bc 4a 08 b8 bc a8 83 b2 3b 97 ff 33 bc
       -0.017089305 -0.02246489 0.0054478236 -0.01098623
000030 9a 62 8e bb 61 42 42 bc 26 20 90 3c 8b d9 e9 bc
       -0.0043452503 -0.011856646 0.017593455 -0.028546115
000040 cf 58 b1 bc 03 4c df bc 93 c3 99 3c ad 7a 1c bd
       -0.021648793 -0.027257925 0.018770015 -0.03820293
000050 9b 32 bc bb 5d f4 cb bb 4a 84 99 bc b0 12 9e 3c
       -0.0057433373 -0.0062241987 -0.018739838 0.01929602
000060 57 a1 02 bc e3 78 09 bb 98 33 09 bd 04 da 36 3c
       -0.007973037 -0.0020976595 -0.03349647 0.011160377
000070 ea 0d 37 bc d3 12 ce bc 29 34 f6 3b 5a 7e 71 3b
       -0.011172751 -0.02515546 0.007513542 0.0036848993
000080 87 38 4e 3d c9 9c 9f bb 5b 22 eb 3c 83 29 01 bd
       0.050346877 -0.004870985 0.028702905 -0.03153373
000090 02 4c 4d 3c 13 4d f8 3c 45 e6 04 3d fd bd df bc
       0.012530329 0.03031019 0.032446165 -0.027312273
0000a0 9b 3e 3b 3c 55 d8 08 3c c5 ed 3a bc 5d b8 7e 3c
       0.0114285005 0.008352359 -0.011409228 0.015546885
0000b0 96 a9 ed bc 33 17 1b bd 0f 04 27 bd 85 ae ca bb
       -0.029011529 -0.03786392 -0.040775355 -0.006185355
0000c0 47 2f 0e 3c 3d d7 50 3c 7a 23 37 3d 79 15 e0 3c
       0.008678264 0.012746629 0.044711567 0.027353989
0000d0 ac 2d 0a 3d 42 23 22 3a 6f ed a6 bc 59 64 9f 3c
       0.033734962 0.00061850634 -0.020376889 0.01945703
0000e0 b6 fc 82 3c 03 e9 18 bc 7f 47 3f 3d 7e ae ea 3b
       0.015989643 -0.009332898 0.046699043 0.0071619144
0000f0 0e f0 a9 bc dd 91 e0 bb d5 58 52 3c 28 16 bd 3b
       -0.02074435 -0.0068533258 0.012838562 0.0057704635
000100 79 82 9e bc 87 d3 88 bb 54 0e 72 bc e9 81 01 3d
       -0.019349324 -0.0041756066 -0.014773924 0.031618033
000110 8a f2 06 bd 7a 5e 05 3c 07 18 e0 3b de 5e e0 3a
       -0.032946147 0.008140201 0.006838802 0.0017118116
000120 ec 36 df bc f0 0b 32 3c a2 69 c8 bc e3 0f ad 3c
       -0.027247868 0.010867104 -0.024464432 0.02112574
000130 76 1c f9 bc 9c 64 6e 3c 30 c6 5d 3c 54 61 0e 3d
       -0.030409079 0.014550354 0.013536021 0.034760788
000140 57 2a 23 3c 25 ce 9b 3c f7 c0 87 3c 3e 0d 7c 3b
       0.009958825 0.019019196 0.016571505 0.0038460041
000150 af 3d d7 bb ef 13 f7 3b 44 83 67 bc df 1a fa bb
       -0.0065686326 0.007540218 -0.014130417 -0.007632598
000160 65 9e 9c bb 9e a4 c9 3b 41 5e 69 3c 87 b9 4c bb
       -0.0047796243 0.006153657 0.014243663 -0.0031238513
000170 16 a0 e5 3b 6c b0 23 bd 11 f4 0c 3c f3 1f c3 3b
       0.007007609 -0.03996317 0.008603112 0.0059547364
000180 95 ed d5 bc 85 fe 4a 3c c9 26 42 bb c6 0f 93 bc
       -0.026114265 0.012389784 -0.0029625169 -0.017951857
000190 94 f9 ca 3c 16 cf 61 3b 1a cb e2 3c 9c 53 93 bc
       0.024777211 0.0034455708 0.027684737 -0.017984204
0001a0 d7 e1 d2 3b 9f de 2b 3c 12 fd fb 3c d9 ca b3 bc
       0.0064356136 0.010490089 0.030760322 -0.021947311
0001b0 b6 d0 0b 3d c1 5c 97 3c bb aa dd 3c eb e5 82 3b
       0.03413459 0.018476846 0.02705895 0.0039946935
0001c0 5c dc 48 bd b2 17 91 bb c5 d5 a2 3c dd 9b 91 ba
       -0.049038276 -0.0044278735 0.019877324 -0.0011109073
0001d0 0d 46 95 bc 2b a3 d4 bc c8 6a 12 bc b9 45 6b bc
       -0.01822188 -0.02595671 -0.008936591 -0.014359885
0001e0 36 ea 3d bc ef 23 93 bc d8 0d 33 bc 32 45 a4 bb
       -0.011591485 -0.01796147 -0.010928594 -0.0050131315
0001f0 4c 83 4f bc b1 ec 27 3d db a3 43 3b 42 96 10 3c
       -0.012665581 0.04099721 0.0029852304 0.008824887
000200 f1 85 ea bb 8c 25 f9 3c 70 e1 2a 3d 4c d7 e5 bc
       -0.0071570803 0.030413412 0.0417189 -0.028056763
000210 d9 29 e4 ba a8 4e 2e 3d 58 64 bb 3c 01 bf b6 bc
       -0.0017407491 0.04255548 0.022874996 -0.022307875
000220 f6 b2 28 bc f0 d5 a2 3c 3f 85 77 3c 02 c0 98 ba
       -0.010296574 0.019877404 0.015107452 -0.0011653902
000230 9f be a7 3b a8 27 54 3c fd 7f c6 3c 0e 51 07 bd
       0.0051191594 0.012948908 0.024230951 -0.033036284
000240 ba 2f 38 bc e9 19 5b 3b 21 78 bb bb 36 a5 9b bb
       -0.011241848 0.0033432192 -0.0057211076 -0.0047499193
000250 f2 52 24 bb d9 1a e0 bb 59 9c 17 bc 3f 01 11 3c
       -0.0025073853 -0.006839138 -0.009253585 0.008850395
000260 99 5f 09 bd 44 59 48 bc db 23 30 38 e6 5d aa bc
       -0.033538435 -0.012228314 4.1995063e-05 -0.020796727
000270 35 2e 11 bd b7 19 25 3c 34 e1 8f 3b 50 6d dd bc
       -0.035444457 0.010076932 0.00439086 -0.027029663
000280 ff 1c e5 bc 20 8c a5 37 96 f4 51 3c 87 09 8e 3c
       -0.027967928 1.9734784e-05 0.0128146615 0.017338527
000290 97 8c d6 bb 76 65 58 bb d0 fd a7 3b 5f 06 30 bc
       -0.0065475213 -0.003301946 0.0051266924 -0.0107437065
0002a0 d9 69 0e bc ba 56 4d bb b9 96 a1 bc 69 49 36 3c
       -0.008692228 -0.003133221 -0.01972519 0.011125901
0002b0 84 0b 10 bd 64 1a af 3c 53 4b e5 3c 4e db c8 bb
       -0.035167232 0.021374889 0.027990019 -0.006129659
0002c0 d7 8c 8e 3a 1b c0 2c 3d 1c d8 58 3c fc 56 9a 3d
       0.0010875714 0.042175394 0.013235118 0.07536122
0002d0 fd 5c 8b bb 63 8c d5 ba f4 37 86 3b 4d 5b c0 3c
       -0.0042530284 -0.0016292449 0.0040960256 0.023481036
0002e0 05 95 2b bd fb f1 2a 3d 3e 2d 9c 3b b7 0d 9f bb
       -0.041890163 0.041734677 0.0047661355 -0.00485393
0002f0 d4 e5 29 bd f5 e3 0c 3c ae 84 e0 3b 8b 74 45 3c
       -0.041478947 0.008599271 0.006851754 0.012051712
000300 3f ed db 3c 42 1c 31 bb 21 77 fc bc 30 96 88 bc
       0.026846526 -0.00270249 -0.030818524 -0.016673177
000310 06 58 11 3d 35 6f b4 3c 19 2b b3 bc 55 fc a1 3b
       0.035484336 0.022025684 -0.021871137 0.0049434104
000320 05 1e 4b 3c 44 53 36 bc 54 a4 53 bc 5a 06 11 3c
       0.012397294 -0.0111282505 -0.012917597 0.008851612
000330 0d 6c 1e 3c 03 d7 2b bd fa 7d c6 bc eb e8 94 3b
       0.009669316 -0.041953098 -0.024229992 0.0045443675
000340 27 37 b9 bc d0 70 b0 ba 40 45 af bb 6d e2 5d bd
       -0.022609306 -0.0013461355 -0.0053488314 -0.054171015
000350 d2 54 48 bc 64 39 1f 3c d5 67 c5 3a bf af 1f bd
       -0.012227254 0.009718273 0.0015060852 -0.038985964
000360 75 5a 03 3d e5 64 58 bc 53 87 b4 3b 7c 77 89 bc
       0.03206869 -0.013207649 0.005509296 -0.016780607
000370 54 5a 16 3d 67 ef 23 bb 94 7e 35 3a ac f2 31 bd
       0.036707237 -0.002501452 0.00069234637 -0.04344432
000380 30 ab e8 3c 1f 78 af ba 81 a3 04 bd 6a 56 db bc
       0.028401941 -0.0013387239 -0.032382492 -0.026774604
000390 23 df 62 bb 96 f0 a4 bc 49 bc fe bb 9a 56 14 bc
       -0.0034617863 -0.020134252 -0.00777391 -0.009053851
0003a0 fd 70 1f 3d 31 6c 1d bd 5e 8f 41 bd a0 a6 10 3c
       0.038926113 -0.038433257 -0.047255866 0.008828789
0003b0 bd d3 15 3b fe 86 18 3c d2 66 15 bc 20 31 14 3d
       0.0022861802 0.009309528 -0.009118753 0.03617966
0003c0 88 0f 06 bd fb c7 a6 3c 0c eb 5c 3d cf 13 d5 bc
       -0.032729656 0.02035903 0.053935096 -0.026010422
0003d0 b2 70 17 bc ed e1 4a 3c 4b 40 05 3d 59 9d 44 bc
       -0.009243177 0.0123829665 0.032532018 -0.012000405
0003e0 e0 a1 82 3c 2b e5 07 3d e3 aa be 3c a3 20 eb b9
       0.015946329 0.033177536 0.023274845 -0.0004484701
0003f0 7b d3 4b 3c 5f c1 6b bc 2f 94 5b bc cd 81 29 bd
       0.012440558 -0.014389365 -0.013402029 -0.041383553

embedding.conv1.bias f4 [32]
000000 16 30 cb bc fa 3a 15 bd f0 f3 05 3d 7c 20 ea b9
       -0.024803203 -0.036433198 0.03270334 -0.0004465616
000010 ab 4a 15 bd 8b 31 39 3d 92 53 08 3d 03 b7 90 bc
       -0.036448162 0.045213263 0.033282824 -0.017665392
000020 2f f6 d0 3b 03 1b 80 bc cb 77 8b bd ca f6 66 3c
       0.0063770036 -0.01563788 -0.06809958 0.014096925
000030 b4 38 c4 3c 5c 55 e9 bc 18 0f bd 3c df d9 d5 3c
       0.02395282 -0.028483085 0.023078486 0.026104866
000040 8b 26 ee 3c 11 5b d1 bc 2d b1 a1 3c b5 b5 06 bd
       0.029071113 -0.02555612 0.019737804 -0.032888133
000050 a6 ff 63 3c 35 ea 86 bb 10 9a 0c 3c be 93 da bc
       0.013915932 -0.004117275 0.008581653 -0.026681777
000060 7f 41 8e bc 8d 07 84 b9 92 14 3f 3d af 22 4f ba
       -0.017365215 -0.00025182628 0.046650477 -0.00079015916
000070 0f a2 51 3c 69 61 22 bd 60 c0 82 3b cb 6b aa bb
       0.012794985 -0.03964368 0.003990218 -0.005200838

encoder.0.attention.queries.weight f4 [32, 32]
000000 17 e1 6b bc f4 a6 b6 3c 40 ca d6 bd b3 bd 51 bc
       -0.014396927 0.022296406 -0.10487795 -0.0128015755
000010 0b 86 69 3d 11 a5 02 be 46 94 e6 bd 1b 4d 14 bb
       0.0570126 -0.1275828 -0.1125875 -0.0022628966
000020 24 ba 58 39 a3 13 2b bd f2 56 ae 3d 72 85 a4 bc
       0.00020668708 -0.041766774 0.08512677 -0.020083163
000030 50 a9 38 bd a7 5e 2c 3d db 98 8d bd cf 67 17 be
       -0.045083344 0.042082455 -0.069139205 -0.14785694
000040 9c de c3 bd e7 a2 2c 3d 7e fd f4 3c e3 06 f6 3d
       -0.09563944 0.042147543 0.02990603 0.12013032
000050 42 84 19 bb a1 cf c4 bc 3c e9 0b bd 14 b2 ca 3c
       -0.002342478 -0.024024786 -0.034157977 0.024743117
000060 d3 dc e4 bb 66 84 8e bb cd e5 0c be 6b fd 9d bc
       -0.006984332 -0.004349279 -0.13759537 -0.019285878
000070 a5 ed ab 3c 78 4f be 3d 67 8a 99 bc f5 51 35 3d
       0.020987341 0.09292501 -0.018742753 0.044267613
000080 88 f2 fe bc 8e 83 ad 3c b8 42 11 be c0 76 30 3d
       -0.031121507 0.021180894 -0.14185607 0.043082
000090 73 e2 b6 3d 7c 72 ca bd 65 68 4e bd e8 02 d4 3c
       0.089299105 -0.098851174 -0.050392527 0.025880292
0000a0 b3 f5 ab 3c 6d 7a 6c bd 67 99 02 3e 45 7b bd bc
       0.020991182 -0.05773394 0.12753831 -0.023130069
0000b0 7c 18 9e bd 49 3a a1 3d 47 b1 cf bd 83 5f 02 be
       -0.07719514 0.07872445 -0.10141235 -0.12731747
0000c0 cd bc a0 bd 4b 8d 22 3d 32 54 da 3c 46 65 c6 3d
       -0.07848511 0.03968553 0.026651476 0.09687285
0000d0 f1 27 f7 3c fa 4e 40 bd 50 da 3d bd 89 e9 ed bb
       0.030170413 -0.046950318 -0.046350777 -0.0072605056
0000e0 46 77 9a bc 2a 7c 5d 3d 27 23 1a be 9e 96 84 bd
       -0.018855702 0.05407349 -0.15052472 -0.064740404
0000f0 6a f8 26 3d 82 13 a3 3d dd 9b 81 bd b4 64 17 3d
       0.04076425 0.07962705 -0.06328557 0.036961272
000100 b4 ab 1b 3d 12 9f 0d 3c 36 2a ad 3d c0 d9 b6 bc
       0.038005546 0.008643882 0.08455317 -0.022320628
000110 7a e7 c2 bd 3b 8f c4 3d a1 d4 b9 3d 89 67 01 3c
       -0.09516807 0.095976315 0.09073759 0.00789822
000120 17 4b 68 3b fb 1a cc 3c 0c c3 13 be a3 5d 97 3c
       0.0035445148 0.024915209 -0.14429873 0.018477267
000130 1a fb fd 3c 16 2d 36 bd e2 d6 d8 3d f6 39 c8 3d
       0.031003524 -0.04447659 0.10587861 0.0977668
000140 70 f2 98 3d 02 eb ce bc 28 dc 32 bd 70 73 b9 bd
       0.07468116 -0.025258545 -0.04366699 -0.09055221
000150 6a 10 21 bc 64 e0 b1 3c a0 9a 13 3b b7 15 a5 3b
       -0.009830574 0.021713443 0.0022522584 0.005037989
000160 73 70 58 3d d7 df 6a bc ae 63 20 3e 5f 05 06 3d
       0.052841615 -0.014335594 0.15663025 0.032719966
000170 04 bb 46 bc 84 fe a1 bd 84 76 26 3d 6e 0d f9 bc
       -0.012129549 -0.07909873 0.04064037 -0.030401912
000180 50 1b c7 3c 34 22 12 bd 37 0a e4 3d eb fa 4c bd
       0.024305016 -0.03567715 0.11134761 -0.05004398
000190 de 17 c1 bd f3 1f f7 3d 28 55 c7 3d 7f cc 21 bd
       -0.094283804 0.12066641 0.09733039 -0.039501663
0001a0 7a 44 2f bd f3 9c 63 3d 8a 79 01 be e6 b1 8d bc
       -0.042789914 0.0555696 -0.1264402 -0.017296743
0001b0 15 99 63 3d 9e 19 90 bd 9e e3 89 3d 51 5f fa 3d
       0.055565912 -0.07036136 0.06732868 0.122252114
0001c0 37 6d a1 3d 83 af 0f bd 0a e4 60 bc 57 2b e5 bd
       0.07882159 -0.03507949 -0.013726244 -0.11189907
0001d0 80 d7 43 bc 6d be dd 3c 13 2f f4 ba 7a 02 13 3b
       -0.011953235 0.027068341 -0.0018629752 0.0022431896
0001e0 5d 9f 96 3c 24 b1 49 bd 7b bb f6 3d 0c 34 c2 3d
       0.018386537 -0.0492412 0.12047478 0.094825834
0001f0 c6 2b 54 3c 5b b2 fb bd b1 45 61 3d 5c d4 25 bd
       0.0129498895 -0.12289878 0.054998104 -0.040485725
000200 f2 ff ac bb 01 23 96 bc d7 7e 0a be 79 08 f0 3c
       -0.0052795345 -0.018327238 -0.13524948 0.029300915
000210 45 61 87 3d 4c e0 1f be a1 7d a2 bd 2d ec 3d 3d
       0.066103496 -0.15612906 -0.07934118 0.046367813
000220 4d af 4a 3d 09 b3 93 bd 7f 95 de 3d f4 ab 00 bd
       0.049483586 -0.072118826 0.10868358 -0.031413987
000230 de 6f 80 bd 0c 2d c8 3b 6a 1f 76 bd 31 95 bb bd
       -0.06271337 0.0061088856 -0.060088553 -0.091593154
000240 15 71 be bd f4 9f 94 3d 56 e0 ad 3b 1c 4d b0 3d
       -0.092989124 0.07257071 0.005306284 0.086084574
000250 71 d3 46 3c 4f e5 98 bc 99 4b b9 3c c2 52 e6 bc
       0.0121353725 -0.01866403 0.022619056 -0.028115634
000260 43 7a 48 bc 01 ad 51 3d f4 97 29 be 65 76 64 bd
       -0.012236181 0.05119038 -0.16561872 -0.055776972
000270 df 7d 13 3d dd 85 9a 3d f9 ec 81 bd 28 67 0a 3d
       0.036008712 0.07545064 -0.06344027 0.033789784
000280 a9 ac 2d bc ec 5a 06 bc b1 a7 e7 3d ee 92 90 bd
       -0.010600247 -0.008200388 0.113112815 -0.070592746
000290 89 e7 80 bd 55 52 c6 3d e1 0a ab 3d cc 59 3f bc
       -0.06294162 0.09683672 0.08351684 -0.011679124
0002a0 5c ee a3 bc 52 ae 1f 3d 88 ca f3 bd 8a ba 2c 3c
       -0.02001112 0.038984604 -0.11903864 0.010542521
0002b0 85 f9 82 3d 23 3f 8d bd 2f 4d ad 3d f0 c0 be 3d
       0.06395248 -0.06896808 0.08461987 0.09314144
0002c0 0f 6b 81 3d a6 d3 be bd 05 b3 ed 3c bd 84 9e bd
       0.06319248 -0.093177125 0.029016027 -0.077401616
0002d0 19 0c a6 3c 2a b3 38 3d 8e 23 e3 3c 0c 64 e2 bb
       0.02026944 0.04509274 0.027726915 -0.006908899
0002e0 67 d1 a7 3c 15 5b 17 3c c0 0f f5 3d 0f b0 07 3d
       0.020485593 0.009238024 0.11965895 0.033126887
0002f0 77 11 89 3b 4b d3 4d bd d7 f4 38 3b 59 2c d0 bb
       0.00418299 -0.050250333 0.0028222108 -0.006352943
000300 de 63 04 3d 14 94 62 3b a6 56 fb 3d b7 ae 7d bd
       0.032321803 0.0034573125 0.12272386 -0.0619342
000310 e5 89 c8 bd 91 c5 0c 3e 84 45 95 3d c3 6c 87 bc
       -0.09791926 0.1374724 0.0728865 -0.016531354
000320 08 25 6f bd 6c f3 b2 3c 5d 11 01 be ec 19 07 3c
       -0.058384925 0.021844588 -0.1260428 0.008245926
000330 35 fa 85 3d 6a b0 1b bd 7d b6 d1 3d e5 01 bc 3d
       0.06541864 -0.03801004 0.10239885 0.09180049
000340 fe e0 94 3d 51 01 c3 bc dc 9b 71 3c e2 f5 b3 bd
       0.07269476 -0.023804339 0.014746632 -0.08787133
000350 5e ad db bc b5 e3 20 3d 08 17 f0 3b 98 44 82 bc
       -0.026816066 0.03927966 0.0073269643 -0.015901849
000360 34 94 36 3b 31 42 d9 bc bf b1 1a 3e b8 f3 af 3d
       0.0027859332 -0.02652082 0.15106867 0.085914075
000370 f6 fd 06 bd 1e 54 a8 bd c8 2d 5e 3d 76 7f 7f bd
       -0.03295704 -0.08219169 0.05424288 -0.062377416
000380 b4 08 b5 bc de 86 91 3b 8f ca 02 be 6b f1 c4 3c
       -0.022098877 0.0044411262 -0.12772582 0.024040898
000390 14 60 48 3d e3 4a f6 bd 3f 4f c8 bd 91 b9 07 3d
       0.048919752 -0.12026002 -0.0978074 0.033135954
0003a0 38 d0 bb 3c 27 30 14 bd a3 54 ee 3d 02 4d 23 3c
       0.022926435 -0.036178734 0.11637237 0.009967091
0003b0 61 e4 5b bd e1 22 0b 3d d6 b0 99 bd 4e 69 fc bd
       -0.053684596 0.03396881 -0.07504432 -0.12324773
0003c0 9e 75 e1 bc e8 96 eb 3c 6f 54 35 bc 4d 86 de 3d
       -0.027521905 0.028758481 -0.011067494 0.108654596
0003d0 3e bc 74 ba c2 a4 46 bd db 83 f7 bc 51 f5 81 3c
       -0.00093359116 -0.04849697 -0.03021424 0.015864046
0003e0 4d d7 45 3c 79 d3 47 3c dc d9 19 be 25 fb 79 bd
       0.0120752575 0.012196415 -0.15024513 -0.061030526
0003f0 1e 1f 6b 3b 8c 6b 5f 3d e2 72 d4 bc 3d 7a 52 3d
       0.0035876702 0.054545924 -0.025933687 0.051386107

encoder.0.attention.queries.bias f4 [32]
000000 63 c6 9b bd 3c 54 ae bd 19 e4 a3 3d 5c e1 b4 3d
       -0.07606199 -0.0851216 0.080024906 0.088320464
000010 b1 39 af bd c5 23 a9 3d 3c 29 9c 3d 9a fd a9 bd
       -0.08555926 0.082587756 0.07625052 -0.08300324
000020 06 bc ac 3d fb d5 a9 bd fb cb b0 bd fe 51 a8 bd
       0.084343 -0.08292767 -0.08632656 -0.08218764
000030 a9 a5 ab 3d 3e 21 a2 3d 3c fa a9 3d 89 6e a7 3d
       0.083812065 0.07916497 0.082996815 0.0817538
000040 fa 7a fa bd 2b a9 f0 bd 20 96 e7 3d ca f7 f0 bd
       -0.12230487 -0.11751016 0.11307931 -0.11766012
000050 31 d4 ef bd d3 a9 e3 3d 05 d7 f9 bd 8b 62 f3 3d
       -0.11710394 0.11116376 -0.12199215 0.1188403
000060 df 62 f2 bd 01 8e ea 3d ed cb 04 be a4 37 ed bd
       -0.118352644 0.11452866 -0.12968417 -0.11582878
000070 31 c5 e8 3d 98 3d ed bd 02 e7 e6 bd 3e b7 fb bd
       0.11365736 -0.11584014 -0.1127453 -0.1229081

encoder.0.attention.keys.weight f4 [32, 32]
000000 e8 bd 7f 3d 4c 9e b5 3d a7 a3 26 be 33 35 5a bd
       0.062436968 0.08868083 -0.16273366 -0.05327339
000010 e1 65 3e 3e 4f ea 8c bd 0e a1 e7 bb 24 2f 02 3e
       0.18593551 -0.06880628 -0.0070687598 0.12713295
000020 22 47 74 bd 13 3d bb 3d 17 bf 46 3e 28 d6 22 bd
       -0.05963815 0.09142508 0.19408832 -0.039755017
000030 35 33 5f bd 8a 19 83 3d 46 fa 01 bc 20 0d 2c bd
       -0.054492194 0.064013556 -0.007933205 -0.042004704
000040 6e e9 0c bd 35 64 dd 3d dd 96 e2 bc c9 c1 04 3e
       -0.034402303 0.108101286 -0.027659828 0.12964548
000050 a8 df 9c bd 0d a4 aa 3d 58 cd df 3d ab 6b 73 3d
       -0.076598465 0.083320715 0.10927838 0.059428852
000060 99 8f ca 3d 05 02 c2 bd ab bc a9 bc 50 2f c7 3d
       0.0989067 -0.094730414 -0.020719847 0.09725821
000070 35 65 a1 bd d2 a5 fe 3b 21 f6 43 bb 82 4b 54 bd
       -0.07880632 0.007771232 -0.0029901343 -0.051829822
000080 5d 45 bf 3d c4 8d 95 3d 69 31 d2 bd 83 e6 cd bd
       0.09339402 0.0730243 -0.102633305 -0.10053732
000090 71 32 18 3e dc 37 03 bd d9 be 10 bd 64 02 18 3e
       0.14862992 -0.032035694 -0.035338257 0.14844662
0000a0 23 9e 70 bd 5c 6a 8b 3d e7 a0 57 3e 62 74 87 bd
       -0.05874456 0.06807396 0.21057473 -0.06613995
0000b0 60 b0 e9 bd 51 26 e6 3c 46 ff 25 bd 94 8f 81 bc
       -0.11410594 0.028094443 -0.04052665 -0.015815534
0000c0 c8 a5 3d bd 96 a9 7f 3c 50 50 78 bc 88 de ea 3d
       -0.04630068 0.015604397 -0.015155867 0.11468226
0000d0 a4 fd 86 bc fc 83 be 3d ed 62 ea 3d 77 af 3e 3c
       -0.016478367 0.09302518 0.1144465 0.011638514
0000e0 c3 f4 05 3d 1c 51 a1 bd c0 8e 95 bc 2e d4 52 3d
       0.032704126 -0.078767985 -0.018256545 0.05147188
0000f0 c1 63 26 bd 6e ae 09 3d 52 47 4d bd 72 09 12 3d
       -0.040622476 0.033613615 -0.050116844 0.03565354
000100 6b 7f b9 bd 2d ba a3 bd 5a 89 00 3e c0 13 5e 3d
       -0.09057506 -0.079944946 0.12552395 0.054218054
000110 1c 80 58 be ac 4c dd 3b 27 53 c1 3c c7 e1 f4 bd
       -0.2114262 0.0067535248 0.02359922 -0.11957126
000120 d5 0b 2a 3d ad 90 c9 bd 2d f8 54 be 63 df 20 3d
       0.04151519 -0.09842048 -0.20797797 0.03927554
000130 0c c8 bb 3d f3 cb 56 bd 41 45 b4 3c 45 25 72 3d
       0.09169015 -0.052440595 0.02200568 0.059117574
000140 98 72 87 b9 e1 d5 12 bd 5f 30 40 3c 94 21 88 bd
       -0.00025834586 -0.035848502 0.011730283 -0.066470295
000150 b9 7a 1e 3d 61 aa c4 bd 73 00 01 be 8e 0a 11 bd
       0.038691256 -0.0960281 -0.12597828 -0.035410456
000160 bc 37 3e bd cd 42 c9 3d d9 28 72 3c fb 8d 92 bd
       -0.04643987 0.09827194 0.014780247 -0.07155987
000170 e2 70 54 3d f9 6c 54 bd f9 ea ce bb d7 21 f2 3c
       0.051865466 -0.051861737 -0.006314632 0.029557152
000180 02 e4 bc bd 74 00 9c bd 3e 48 1f 3e ef 31 af 3d
       -0.092231765 -0.07617274 0.15554902 0.08554446
000190 79 3f 04 be e4 d8 9c 3d 46 35 17 ba 16 bc f8 bd
       -0.12914838 0.07658556 -0.0005768131 -0.121452495
0001a0 fc 87 55 3c 59 3b 5b bd e7 3a 58 be d7 79 82 3d
       0.0130329095 -0.053523395 -0.2111622 0.06370895
0001b0 97 f7 d7 3d 65 56 74 bd 8a 5c 25 3d fb a7 51 3d
       0.10545271 -0.059652705 0.040371455 0.05118559
0001c0 09 26 55 3d 7a b8 04 bd 00 ee c5 3c af 9d 86 bd
       0.052038226 -0.032402493 0.024161339 -0.065730445
0001d0 10 63 8e 3c 83 ee b2 bd 38 8f fc bd 7c 25 ac bd
       0.017381221 -0.08736899 -0.12332004 -0.08405587
0001e0 5a e3 13 bd dc 45 85 3d 96 40 53 3d d1 86 23 bd
       -0.03610549 0.06507465 0.051575266 -0.039923493
0001f0 c8 d5 2a 3d 88 9b 77 bd 18 7a a3 3c d5 d4 bf 3c
       0.041707784 -0.06045106 0.01995568 0.023416916
000200 01 df b9 3d 43 45 62 3d b5 a6 0b be 2a 92 74 bd
       0.09075738 0.055241834 -0.13637812 -0.059709705
000210 a3 b3 0d 3e 91 46 9b bd 77 6b 96 3c b2 a1 19 3e
       0.13838057 -0.07581819 0.01836179 0.15003088
000220 2a 43 53 bd 69 b9 3d 3d 4d 29 39 3e e9 85 ab bd
       -0.051577725 0.0463194 0.18082161 -0.08375151
000230 4e fc bb bd ba 6a 01 3d ae a8 61 bd 8b 2a 66 bd
       -0.09178983 0.031595923 -0.055092506 -0.056192916
000240 cf 52 10 bd 1d 21 9b 3c 3d 10 1a bd 95 8b 9a 3d
       -0.035235222 0.018936688 -0.037613142 0.075461544
000250 50 4b c5 3b fb 4b 86 3d b7 c1 ad 3d d5 c9 88 3d
       0.006020941 0.06557461 0.08484214 0.066791214
000260 66 a8 ce 3c 43 35 80 bd d9 b6 71 bd c7 7f 84 3d
       0.025226783 -0.06260159 -0.059012268 0.06469684
000270 a6 64 8a bd f4 a7 32 3d f9 cd bc bc ba 68 59 bd
       -0.067574784 0.043617204 -0.023047434 -0.05307839
000280 85 81 ea bd 6b e6 30 bd 5b 13 03 3e 0f 8e 8a 3d
       -0.11450485 -0.043188494 0.12800352 0.06765377
000290 9c 8a 1f be fe 63 66 3d e5 e5 f2 3b fd a3 ca bd
       -0.15580219 0.056247704 0.0074126595 -0.098945595
0002a0 b0 ea 60 3d ff bb 6b bd 78 97 53 be 66 1e 9b 3d
       0.054911315 -0.057552334 -0.2066325 0.075741574
0002b0 a6 a8 86 3d f4 f9 6c bd a1 5c db 3c 90 ee e9 3c
       0.06575136 -0.05785556 0.026777567 0.028556138
0002c0 7b 4b 11 3d 30 97 37 bd 0c 15 d1 3c 70 b4 80 bd
       0.035472374 -0.044821918 0.025522731 -0.06284416
0002d0 8a 81 61 3d d6 52 e8 bd 4b 36 11 be 1c ab 9b bd
       0.05505518 -0.11343925 -0.14180867 -0.07600996
0002e0 04 a9 75 bd ce c8 d5 3d c2 a9 62 3d db 3f 9b bd
       -0.05997564 0.10438691 0.055337675 -0.07580539
0002f0 af a0 99 3d 70 5a 08 bd cc aa 16 3c e0 56 8c 3d
       0.07501351 -0.033289373 0.009195995 0.068525076
000300 2e 72 e0 bd e0 bf 7b bd 24 1d 8b 3d d0 d9 a2 3c
       -0.10959278 -0.061462283 0.067926675 0.019879252
000310 94 98 24 be c6 a6 84 3c ab b9 28 3c e5 9a c2 bd
       -0.16073829 0.016192805 0.010298173 -0.095022
000320 db 65 17 3d 92 9e 8a bd fc 9a 5d be c3 e6 90 3c
       0.03696237 -0.06768526 -0.21641153 0.01768816
000330 99 f2 09 3e bd 1f 8c bd 0d fd be 3d 07 ce aa 3b
       0.1347145 -0.06841991 0.09325609 0.0052125487
000340 08 d8 7a 3c 04 cc ac bc fd 4c 6e 3d 40 ef 40 bd
       0.015310295 -0.021093376 0.05817889 -0.047103167
000350 ba 01 79 3d d1 c9 bb bd bd 94 bb bd 0b e7 af bd
       0.060792662 -0.09169353 -0.09159229 -0.0858899
000360 b5 e9 20 bd 2f c2 86 3d 2d 5e 61 3d f5 53 b1 bd
       -0.03928538 0.06580006 0.055021454 -0.08658592
000370 05 ce 0a 3d c9 ba 74 bd ab 14 e9 bb b9 15 62 3d
       0.03388788 -0.059748445 -0.0071130595 0.055196498
000380 1a 40 a8 3d ba b4 c8 3d d5 1f 03 be 46 d7 32 bd
       0.082153514 0.09800096 -0.12805112 -0.043662332
000390 20 e7 e4 3d f6 de 48 bd 6a 9f c8 bb 2e 81 e8 3d
       0.11176896 -0.049040757 -0.0061225193 0.11352764
0003a0 0b 00 1d bd 4a 07 0d 3d 07 38 58 3e 23 6d 7d bd
       -0.03833012 0.03443078 0.21115123 -0.06187166
0003b0 e6 fe ab bd 3e 7a 8e 3d f0 f6 02 bd 5a 70 77 bd
       -0.083982274 0.069569096 -0.03197378 -0.06040988
0003c0 61 d7 49 bd ab 3c 55 3d 27 6f 19 3a cf ba 80 3d
       -0.049277667 0.05205981 0.000585305 0.06285631
0003d0 bb 26 4b bc ef f8 b2 3d 04 4f bb 3d 8d 54 4f 3d
       -0.012399371 0.087388866 0.091459304 0.050617743
0003e0 54 fc df 3c f3 9e 77 bd c5 f5 98 bd f2 3b 94 3d
       0.027342 -0.06045432 -0.07468752 0.07237996
0003f0 9a 7e 9f bd 85 8d 85 3d 16 78 df bc 98 0e 71 bc
       -0.07787819 0.06521133 -0.027278941 -0.014712952

encoder.0.attention.keys.bias f4 [32]
000000 43 1a 42 37 c6 f5 0c 39 0e de 0f b9 71 21 a7 b8
       1.1569416e-05 0.00013442998 -0.00013720265 -7.9694095e-05
000010 a2 09 5f 38 02 0f 29 b9 50 b0 b7 b9 5d 70 12 b7
       5.3176314e-05 -0.00016122687 -0.00035035843 -8.72844e-06
000020 91 7a 1b b9 0a 3c b4 37 9e f7 18 39 ad ff 9d 37
       -0.00014827611 2.148563e-05 0.00014588094 1.8834917e-05
000030 2b 45 2f b9 ae 7b 8b b8 80 d8 b3 b8 f9 f0 2f b9
       -0.00016715068 -6.6510736e-05 -8.5757114e-05 -0.0001677907
000040 28 eb 13 3a 2c b8 da 39 1c d0 ac b8 63 0e 12 39
       0.0005642646 0.0004171742 -8.2403625e-05 0.00013929004
000050 56 a7 98 39 c9 f9 35 b8 e6 77 bc 39 8c 2f d5 38
       0.00029116374 -4.3386393e-05 0.00035947486 0.00010165488
000060 cd db c6 39 67 cb 3c b8 36 92 9a 39 a0 1a a5 39
       0.00037929267 -4.5012126e-05 0.00029482105 0.0003149109
000070 aa 52 d5 b7 ff d5 c0 38 74 72 f6 b8 c8 13 c5 37
       -2.5430072e-05 9.195133e-05 -0.00011751513 2.3493441e-05

encoder.0.attention.values.weight f4 [32, 32]
000000 d8 80 10 bd a2 f7 3d bc b7 c3 72 bb d9 2a 5f 3c
       -0.035279125 -0.011594685 -0.0037042925 0.0136210555
000010 fa 8b 95 bb 9d ef c9 3c fb c4 54 3d 5d 08 7b bc
       -0.0045638056 0.02465039 0.051945668 -0.015321818
000020 bf f6 12 3d 66 dc 2e bd 70 22 86 bc f4 2e ee 3b
       0.035879847 -0.042690657 -0.016373843 0.007268781
000030 9c c2 39 bd 8a b7 ff bb 59 e4 bf 3c 4c 6f 43 3c
       -0.04535161 -0.007803862 0.023424314 0.011928391
000040 3b f7 96 3c f5 40 c2 3b cb 06 58 3d b4 3e a8 bc
       0.018428436 0.0059281536 0.052740853 -0.020537712
000050 90 c4 5a 3c cc bf e0 bc 0d 4a 3b bd 7b ab e3 bc
       0.013352528 -0.027435206 -0.045724917 -0.02779173
000060 21 f8 c7 bc dd 93 9c bc d9 d1 cb ba 56 ee 02 bd
       -0.02441031 -0.019113475 -0.001555021 -0.031965576
000070 d5 31 8c 3c f7 33 93 3a 3b d2 02 3b bb ec b2 bc
       0.017113606 0.0011230697 0.0019961733 -0.021841398
000080 29 94 28 bc 84 e6 a6 3c 38 19 8c 3c bc 0a 22 bd
       -0.01028923 0.02037359 0.017101869 -0.03956102
000090 f4 66 d0 bb 7a c6 8a bc 4c 9f 07 3d 6f 38 94 bc
       -0.006359929 -0.016940344 0.0331109 -0.018093316
0000a0 46 f2 ec 3b 0b ed 8a 3b 9a 17 c0 3c ca 69 c9 bb
       0.0072310297 0.0042396835 0.023448754 -0.0061466442
0000b0 53 25 3f bc fb b5 1e bc ee 8b 1c 3c 15 f3 aa 3b
       -0.011666614 -0.009686942 0.009554846 0.005216966
0000c0 ab 06 ff bc 18 68 8c bc 5d 4b 4f 3d 24 b3 15 bb
       -0.03113111 -0.01713948 0.05060898 -0.0022842372
0000d0 94 73 06 3c a0 cd a1 bc a2 61 cd bc e4 52 65 bd
       0.008206267 -0.01975137 -0.025070969 -0.055987254
0000e0 ad 7f 25 bc 08 7c a9 3c a3 5b d6 bc 50 2e c8 bc
       -0.010101241 0.020689026 -0.026166743 -0.024436146
0000f0 92 d6 96 3c 20 72 10 bc ca 6a 1c 3c 38 25 b3 ba
       0.018412862 -0.008816272 0.009546945 -0.0013667708
000100 24 5f 2e 3c 4b a0 6e b9 bc 30 a9 bc 32 33 af bc
       0.0106428005 -0.00022757163 -0.020653121 -0.021386717
000110 f9 b9 64 3c 48 59 c4 bb 51 f9 1b 3d a9 2a 1f 3c
       0.013960355 -0.0059920885 0.038079564 0.009714761
000120 84 78 3f 3b 55 51 eb ba d9 19 4a bc ee 6a 60 bb
       0.002921612 -0.0017953316 -0.012335264 -0.0034243423
000130 b0 49 9e 3b 88 e0 fe bb f4 0b 96 3c 8b a1 42 bb
       0.0048305616 -0.007778231 0.018316247 -0.0029698338
000140 16 d6 2d 3d c5 cc 2e bc bb ff 59 3d 27 56 43 3d
       0.042440496 -0.010668938 0.0532224 0.047689583
000150 a4 a8 f1 bb 8f 6f a4 bc ba 36 b0 bc 5d 8a 00 3d
       -0.00737484 -0.020072727 -0.02151047 0.031381954
000160 63 d3 5d 3d ab 08 b9 ba b8 66 46 bc b8 e1 ec 3b
       0.054156672 -0.0014116963 -0.012109451 0.007229056
000170 58 f0 6d 3c 65 a1 0e 3c ae 86 dd 3c 48 3f 15 bd
       0.014522634 0.008705472 0.02704176 -0.036437303
000180 92 95 c2 3c 6b f6 16 3d fe 28 d0 bc a6 f3 0f bd
       0.023752961 0.036856096 -0.025410172 -0.03514447
000190 e0 42 d1 bc f7 dc 92 bc 62 8a 62 bc 5d b5 a7 bc
       -0.025544584 -0.01792763 -0.013826938 -0.020472223
0001a0 a1 6f 11 bd d6 02 13 3d b0 7e bd 3b 27 6e c7 3c
       -0.03550685 0.035891376 0.0057829246 0.024344517
0001b0 6a 20 93 3c 85 9d 1f 3d 4d 32 7f bc 27 84 d2 bc
       0.017959792 0.03896858 -0.0155759575 -0.02569778
0001c0 85 78 e8 bc be c0 6a bb 44 df e5 bb ea 8e e2 3c
       -0.02837778 -0.003582045 -0.0070151407 0.027656037
0001d0 cd 3f db bb e8 27 64 3c a2 40 a0 3c 97 32 ba 3c
       -0.0066909553 0.01392553 0.01956207 0.022729201
0001e0 c9 2e 04 3d de b6 53 3a a8 eb cb bc 2a 5f 30 bc
       0.03227118 0.00080762606 -0.024892643 -0.010764876
0001f0 da 7e c4 3b 2c 4c 2d 3c ee d6 0a 3c 19 23 29 bd
       0.005996567 0.010577243 0.008474095 -0.041293237
000200 3e c8 a1 bb ed d0 10 3c b0 3b ff 3c 66 68 85 bc
       -0.004937201 0.008838874 0.03115639 -0.016285133
000210 21 7f ac 3b ef 9f 12 3c f0 31 11 bc 3b 03 b6 3c
       0.0052641784 0.008949264 -0.008862004 0.022218337
000220 14 dc ab 3a 1c 2d 73 bb 19 6e 00 3d 00 25 79 bd
       0.0013111853 -0.0037105745 0.031354997 -0.0608263
000230 a9 22 13 38 f3 bb aa 3c e6 75 33 bc 6e 01 65 bb
       3.507981e-05 0.020841574 -0.010953402 -0.003494348
000240 c1 d2 83 bc 8b 0b 5a bc 79 40 69 bc d7 e0 37 3d
       -0.016091706 -0.013308416 -0.014236563 0.04489216
000250 74 16 a0 bc 1e f9 87 bd cd db 96 bc bf fd 41 bd
       -0.019541956 -0.06639312 -0.018415356 -0.04736113
000260 f8 d5 d2 bc b5 d3 62 3c 29 00 00 3d ce 18 ac 3c
       -0.025736794 0.01384442 0.031250153 0.021007922
000270 cb be c1 bb 51 01 2b 3d 19 76 d6 bc e6 2b 0b bd
       -0.005912637 0.041749302 -0.02617936 -0.03397741
000280 1b 57 d2 bb 3d 82 04 3c 91 bb 75 bc ae c0 64 3c
       -0.006419075 0.008087692 -0.014998333 0.013961954
000290 57 f9 13 3d 9a 1a 46 3b 34 f4 ae bb 53 c0 57 3d
       0.03612646 0.0030228258 -0.00533917 0.05267365
0002a0 0d 70 e1 bc 80 03 04 3d cf 78 40 bb 26 70 f6 bb
       -0.02751925 0.0322299 -0.0029368883 -0.0075206934
0002b0 a7 74 8e 3c e0 38 5c 3c 5d 61 e5 3c 40 d7 a4 bd
       0.017389609 0.013441294 0.028000528 -0.08048868
0002c0 48 39 86 3c 4c d8 f9 3c 04 1f 71 3d a9 fd 7b 3d
       0.016384736 0.030498646 0.05886747 0.061521206
0002d0 54 59 b8 bc e3 1d 2b 3d af 54 d3 3c 4a e2 fd 3c
       -0.022503532 0.04177655 0.025797216 0.030991692
0002e0 df 86 33 3c d0 6b ab bc f3 6d b8 bc f0 e8 34 3d
       0.010957449 -0.020925432 -0.022513365 0.04416746
0002f0 b5 5b 41 3c 94 dc 31 3d db fd 29 3d 06 2d be bc
       0.01180165 0.04342325 0.04150186 -0.023214828
000300 ff 57 bc bc 97 1b 13 bd 93 c9 0a bd 41 ac b3 3c
       -0.022991179 -0.035914984 -0.033883642 0.021932723
000310 d0 02 e1 3c 11 91 2d bd 8d 0f 57 3a 1b 08 af ba
       0.027467161 -0.042374674 0.00082039164 -0.0013353856
000320 2a b9 00 bb ba ab 59 bc 93 94 97 3c 4f 14 73 bb
       -0.0019641616 -0.013285572 0.018503463 -0.0037090962
000330 fd 35 5d 3c c2 5f 26 bd c1 0d b3 bc f4 16 44 3c
       0.013501641 -0.040618666 -0.021857144 0.011968363
000340 48 28 46 3d 6d b9 23 3d 78 d6 03 3d ba 1a 1a 3c
       0.04837826 0.039971758 0.032186955 0.009405786
000350 ff 9e b0 3b f0 85 15 bc 80 4e 8f bb 4a dd 2b 3d
       0.0053900476 -0.0091261715 -0.0043733716 0.041959085
000360 92 30 24 3b c6 40 08 3d f6 2d b8 bc 3d 07 8e bc
       0.0025053364 0.033264898 -0.022482853 -0.017337436
000370 ec 82 9b 3b b5 a3 ca 3c dd 8e 53 bc 99 45 15 3d
       0.0047458317 0.024736265 -0.012912479 0.036443327
000380 18 b8 ac bb 70 34 c3 bc b2 05 d9 3c 6b 6a ff 3c
       -0.005270969 -0.023828715 0.026491974 0.031178674
000390 5b 02 22 3a e1 61 86 bc 94 e9 40 bc f0 fe 59 bd
       0.00061801606 -0.016404094 -0.011774439 -0.053221643
0003a0 fd 16 b1 3c d2 f8 60 bc 54 b6 36 bb e0 b8 01 3d
       0.021617407 -0.013731198 -0.0027879672 0.03167045
0003b0 eb f6 c2 bc e6 f1 38 bd 29 6a 10 bc ab 71 7a 3c
       -0.02379938 -0.045152567 -0.008814373 0.01528589
0003c0 06 4f 0c 3d 30 55 85 bd fa f5 8c bc 90 56 aa bc
       0.03425505 -0.06510389 -0.017207135 -0.02079323
0003d0 d4 78 50 bc 16 2f 28 bc dc f2 ed bb 39 6a 4c bd
       -0.01272412 -0.010265132 -0.007261617 -0.04990599
0003e0 a2 3b 5d bd 35 5c 17 3d 11 b8 0c 3d dc 8c 8f bc
       -0.05401195 0.03695317 0.034355227 -0.017523222
0003f0 b8 b7 33 bc d9 b0 5d bc 6b 49 0a bd 1d fb 4d 3d
       -0.010969095 -0.013530933 -0.033761423 0.05028831

encoder.0.attention.values.bias f4 [32]
000000 b9 b0 67 3a ed 3d be 3b f0 ec 44 3c 11 b9 57 bc
       0.00088382844 0.005805722 0.012019381 -0.013166682
000010 c7 06 45 bc d1 a6 39 3c 92 32 b9 3a 4f 2f 27 bc
       -0.012025542 0.011331276 0.0014129451 -0.01020415
000020 7a f8 10 bc 90 3d 23 3c 12 81 76 3b 9e 3b 92 bc
       -0.008848304 0.009963408 0.0037613553 -0.017850693
000030 8a f6 86 3c 6f 58 29 bc 91 12 e2 bb 6f b3 a0 bc
       0.01647498 -0.010336026 -0.006899186 -0.01961681
000040 93 35 20 bc fa 9d cf 3b 7b df f9 3c 3f 41 2b 3c
       -0.009778398 0.006335971 0.030502072 0.010452568
000050 3b 13 3a 3c ed 49 c7 bc 91 fd f3 3b 33 f8 0b bd
       0.011357124 -0.024327243 0.007445999 -0.034172248
000060 53 b4 b3 bc 57 89 4b bc c4 42 40 3c df 08 c5 3b
       -0.021936571 -0.012422881 0.011734668 0.0060130204
000070 cb 5f 5a 3c 7c eb 54 bc 2d 7c cf 3a 31 ad c7 3b
       0.013328503 -0.012995597 0.0015829854 0.006093644

encoder.0.attention.fc.weight f4 [32, 32]
000000 c5 70 2c 3d c6 51 30 bc 66 6f 7a bc 75 30 65 bc
       0.042099733 -0.010761684 -0.0152853485 -0.013988604
000010 bd 0c 65 3b 3b 31 1b bc 1e 2f b2 3c 74 16 40 3d
       0.003495022 -0.009472187 0.021750983 0.046896413
000020 d4 9c f7 bb 54 36 0c 3c 2e b2 19 bc 90 24 30 ba
       -0.007556537 0.008557875 -0.00938086 -0.00067193154
000030 61 45 22 bc ea 8e 77 bb 5c 21 2c 3d 56 5f 82 3c
       -0.0099042365 -0.0037774392 0.042024 0.0159146
000040 e0 1c cd 3c b7 93 2e bc 9e fd 21 bc 5d 92 23 bd
       0.025038183 -0.010655335 -0.009887127 -0.039934505
000050 b7 ee 53 3b e0 33 7c 3c a3 af 7f bc 35 47 d3 bc
       0.003233833 0.015393227 -0.01560584 -0.02579079
000060 ca e4 7e 3b ce 95 ad bb 0a 94 3e 3c 0f e8 c7 3a
       0.0038893693 -0.005297399 0.011631975 0.0015251654
000070 bd 2d d8 bb 17 98 56 bc f3 96 dc bc 98 4c 9c bc
       -0.0065972493 -0.0130977845 -0.026927447 -0.019079491
000080 40 24 e9 bc ce 30 b9 bc 39 7f ae 3b f4 96 9b bc
       -0.028459668 -0.02260628 0.0053252247 -0.018992878
000090 73 57 66 bc fe 73 81 3c 93 fa c3 b9 fc 19 bb bb
       -0.014058935 0.01580238 -0.0003737999 -0.0057098847
0000a0 14 61 bb 3c 46 3b 39 3d a5 32 4d 3b 2f 1c 96 bc
       0.022873439 0.045222543 0.0031310704 -0.018323986
0000b0 96 3f 2e 3c 44 26 b5 bc cb 8b 46 3c 92 40 b6 bb
       0.010635277 -0.022112973 0.01211829 -0.0055618966
0000c0 ed ab ba 3b 45 5d 24 3d e9 cd fa bc 93 18 ac 3c
       0.0056967647 0.04012801 -0.030615764 0.021007812
0000d0 f2 62 4d 3b c5 90 4b 3b 85 2e d5 bb 66 3d ab 3c
       0.0031339494 0.003106163 -0.0065057897 0.0209033
0000e0 d2 96 2f bc 7d 34 c6 39 0c 64 13 3d ae af 7c bc
       -0.010717111 0.0003780461 0.035984084 -0.015422745
0000f0 c4 01 4d 3a cf 92 42 bc 06 74 cd 3b 73 03 a8 bc
       0.00078203925 -0.011875822 0.0062699346 -0.020509457
000100 6e a7 1c bc fe a8 b5 bc 94 f0 4e bc 66 4f cb bc
       -0.009561403 -0.022175308 -0.0126306005 -0.024818134
000110 42 60 87 bb 7d 75 7c 3c d0 f4 84 bc 5e de 72 3b
       -0.004131348 0.015408871 -0.016230017 0.003705881
000120 85 f4 e9 ba 86 f7 d3 bc 42 10 b3 3b d3 79 b8 3c
       -0.0017849362 -0.025874864 0.0054645846 0.022519028
000130 d0 ad 56 3c cc 13 8a bc ed 26 14 bc 08 62 90 bb
       0.013102964 -0.016855143 -0.009042484 -0.0044062175
000140 96 e2 28 3c bd 0b b3 3b 70 f1 b7 3c fc 68 f8 bb
       0.010307929 0.005464046 0.022453994 -0.0075808745
000150 d7 4c c7 bc 95 a5 e6 3c 66 ee 30 bc 2b cf d1 3b
       -0.024328632 0.028155128 -0.010799026 0.00640287
000160 36 0e 07 bd 75 00 77 bc 87 bc 1a bc eb 3f 7a bc
       -0.032972537 -0.015075793 -0.0094443625 -0.015274028
000170 4b db d3 bc 9d 95 84 3b af 7b d6 ba 2e 31 3a bc
       -0.025861403 0.0040461556 -0.0016363765 -0.011364264
000180 f3 79 c7 3c 78 0f 8d 3b e9 5d b9 bc e3 d3 02 bc
       0.024350142 0.0043048225 -0.022627788 -0.007985088
000190 f0 13 0e bb 46 3b 85 3a be 23 82 bc 41 5d 4d 3d
       -0.0021679364 0.001016476 -0.015886184 0.050137762
0001a0 ce 4f 06 bd 20 41 5a 3c 05 4f b9 3c b7 0f 3a bd
       -0.03279095 0.013321191 0.022620687 -0.045425143
0001b0 b0 34 b3 3b 7a 9c 14 3c 73 5e ec bb 60 58 33 bc
       0.0054689273 0.00907051 -0.0072134077 -0.010946363
0001c0 b4 7e 97 3b 16 af 19 bc 64 5c 0b bd 87 cb 82 bc
       0.0046232585 -0.009380123 -0.034023657 -0.01596619
0001d0 17 75 9a 3c 10 54 b3 3b cd 06 9e bc c0 6b b4 ba
       0.01885466 0.0054726675 -0.019290352 -0.0013765022
0001e0 be cf c3 bc 39 66 bd 3b d5 d7 e8 bc 08 e2 94 bb
       -0.02390277 0.005780008 -0.02842323 -0.0045435466
0001f0 77 9c e0 bc b9 7b a3 bc b5 c0 f6 bc 0d a3 ab 3b
       -0.027418358 -0.019956456 -0.030121187 0.005237943
000200 ef 85 87 3c ab d5 9a 3c 27 a8 34 3d 2c aa fc bc
       0.016543357 0.018900713 0.044105675 -0.030842863
000210 e6 02 78 bb fb 2e cd bb 2b 80 1d 3d cf 5f 51 3b
       -0.0037843524 -0.006261704 0.03845231 0.0031947976
000220 af 36 9c 3b cb de be bb 5d 5f ee bb 02 13 04 3c
       0.004767261 -0.005824899 -0.007274552 0.008061172
000230 a9 33 2e bc b8 eb 83 ba 09 85 3c 3c bd 7b 16 bc
       -0.010632434 -0.0010064756 0.011506327 -0.009184775
000240 d9 50 ac 3b a7 da 52 bc 52 ab 31 3c a5 f3 8a bc
       0.005258661 -0.012869514 0.010844069 -0.016961882
000250 61 8f 20 39 3d ce a6 bc 0e 24 06 bd a3 31 0c bc
       0.00015312202 -0.020362014 -0.03274923 -0.008556756
000260 32 94 dc bb 1d 9b a0 bc ae 22 c0 3c 33 90 b0 3a
       -0.0067315334 -0.019605214 0.023454037 0.0013470709
000270 65 44 46 3c 6b b6 fb 39 62 22 f7 bb 34 05 26 3c
       0.012101267 0.00048010363 -0.0075419405 0.010133076
000280 b2 e7 79 b9 c9 84 17 bb ef 15 2e 3c 3e 65 42 bb
       -0.00023832804 -0.0023119918 0.010625347 -0.0029662396
000290 d1 30 19 3b 59 bb a9 b9 12 23 f8 bb a4 19 c1 bc
       0.0023375044 -0.00032373777 -0.00757254 -0.023571797
0002a0 62 46 86 3c 2a be 6b bb 6b cb cf 3c 77 f7 3e bc
       0.016390983 -0.00359715 0.025365552 -0.01165568
0002b0 0b fa 90 3c 98 1a bc 3b dc 49 99 bc c3 5d 1c bb
       0.017697355 0.005740475 -0.018711977 -0.0023859597
0002c0 4b a8 b3 bb 0a d9 54 bc 29 14 80 bc 2d 0a a6 ba
       -0.0054827086 -0.012991199 -0.015634613 -0.0012667828
0002d0 6a e1 9d 3b 8d 78 a6 3c a7 cc 2a 39 c5 d3 20 3c
       0.004818131 0.020321155 0.00016288702 0.009816115
0002e0 1b 00 88 3c 6c 44 d9 3b d2 83 02 bd 92 39 1a bd
       0.016601613 0.006630471 -0.031863995 -0.03765256
0002f0 e7 e1 9c 3a 81 83 7d ba 45 d3 1c 3d fd 8d 33 3c
       0.001196918 -0.00096707797 0.03828742 0.010959146
000300 15 07 3f 3d d2 0b f7 3b d2 7c 61 3c 7c 14 b9 bb
       0.046637613 0.007539251 0.01376267 -0.005648194
000310 8a af 50 3b 58 6d 42 3d 4f 3b 5f 3c 83 88 03 3d
       0.003184291 0.04746756 0.01362498 0.03211261
000320 cb 5c ea 3b c1 ea c2 3c c8 60 93 bc ce ce c3 3c
       0.007152175 0.02379358 -0.017990485 0.023902323
000330 fc 8a e7 3c e9 dc 54 bc 75 fb 69 3c e5 85 49 bd
       0.028264515 -0.012992122 0.014281143 -0.049199957
000340 81 f5 57 bc 8f 0d c9 3c 15 fc 32 3c a1 6b c4 3b
       -0.013181091 0.024542598 0.010924359 0.0059942757
000350 bc 3d 44 3b 7d 5d bb bb 84 2e 24 bc 3b f0 7d 3c
       0.0029944023 -0.005717932 -0.010020856 0.01549917
000360 dd a0 97 3c 60 75 45 bc 65 61 3e bc e1 06 ef bb
       0.018509323 -0.01205191 -0.0116199 -0.007294521
000370 c5 ee 9e 3b d2 cf a3 3a 9c 65 cd 3c 50 f2 95 3c
       0.004850241 0.0012497848 0.025072865 0.01830402
000380 bb 81 a4 3c 50 68 f5 bc 6b e6 64 3c ec 0f 59 3c
       0.020081392 -0.029956967 0.013970952 0.013248425
000390 26 c7 b2 ba 57 ed 93 3c b7 47 f6 3a ab 98 99 3a
       -0.0013639673 0.018057508 0.0018789683 0.0011718472
0003a0 67 69 8c bc 14 9a 3f 3b c9 4a 3a 3b 04 52 59 3c
       -0.017140104 0.0029236125 0.0028425923 0.013264183
0003b0 e3 23 e9 39 78 3d 2a bb 22 56 a1 3c a9 e8 99 3c
       0.0004446796 -0.002597658 0.019694392 0.018787699
0003c0 fc 6e 89 bb 49 9b d6 bc bf 93 23 3d 85 6f 68 bc
       -0.0041941386 -0.026197093 0.039935824 -0.014186745
0003d0 63 2c 9b 3b f7 a8 90 bb 49 bd 21 bc c0 fb 02 bd
       0.004735516 -0.0044146734 -0.009871789 -0.03197837
0003e0 52 b9 b7 bc 81 02 fe bc 04 95 dd 3c 1c 8e c5 3b
       -0.022427235 -0.031007053 0.027048595 0.0060289036
0003f0 e1 a2 81 3c 57 fb 81 3c 8e 08 54 3b f2 ad 59 3c
       0.015824737 0.015866918 0.0032353732 0.013286101

encoder.0.attention.fc.bias f4 [32]
000000 00 00 00 00 00 00 00 00 00 00 00 00 00 00 00 00
       0.0 0.0 0.0 0.0
000010 00 00 00 00 00 00 00 00 00 00 00 00 00 00 00 00
       0.0 0.0 0.0 0.0
000020 00 00 00 00 00 00 00 00 00 00 00 00 00 00 00 00
       0.0 0.0 0.0 0.0
000030 00 00 00 00 00 00 00 00 00 00 00 00 00 00 00 00
       0.0 0.0 0.0 0.0
000040 00 00 00 00 00 00 00 00 00 00 00 00 00 00 00 00
       0.0 0.0 0.0 0.0
000050 00 00 00 00 00 00 00 00 00 00 00 00 00 00 00 00
       0.0 0.0 0.0 0.0
000060 00 00 00 00 00 00 00 00 00 00 00 00 00 00 00 00
       0.0 0.0 0.0 0.0
000070 00 00 00 00 00 00 00 00 00 00 00 00 00 00 00 00
       0.0 0.0 0.0 0.0
