model/mnist/tune_lr0.0005_ed32_nl6_nh4_fm2_ps4/temp_model.pt (torch, 254829 bytes, 106 tensors)

embedding.cls_token f4 [1, 1, 32]
00000000: f4d9 3e3d e177 bdbc 4f73 8cba b116 49bc
00000010: 72b7 16bd 279f ebbb e513 febb 1add cbbc
00000020: aced 68bc cef6 283c 89af bd3b cd98 aaba
00000030: c80a 19bc 32fb 083c aaf2 c7bb 2752 22bb
00000040: 0425 c83c ada8 d33a 166f 773c 4af7 293c
00000050: 526a b63a d27e 293b fdbc 00bc 6ca4 2abb
00000060: f09e 7db8 2693 ad3b 3d06 d93c 667a 1f3b
00000070: a746 b1bc 0884 0a3b 5dd0 82bb f9f6 06bc
0.046594575 -0.023128452 -0.0010715517 -0.012273476 -0.03679604 -0.0071906033 -0.0077538365 -0.024885703
-0.014216822 0.010312749 0.0057887477 -0.0013015509 -0.009340949 0.008360671 -0.006101926 -0.0024768205
0.024431713 0.0016148292 0.015102169 0.0103739 0.0013917184 0.0025862944 -0.007857558 -0.0026037944
-6.0467923e-05 0.0052970825 0.026492232 0.002433443 -0.021640135 0.0021135826 -0.003992124 -0.008237594

embedding.pos_embedding f4 [1, 50, 32]
00000000: f5d9 3e3d e677 bdbc 3a73 8cba b316 49bc
00000010: 6db7 16bd 379f ebbb e513 febb 1bdd cbbc
00000020: aaed 68bc d6f6 283c 87af bd3b b498 aaba
00000030: c60a 19bc 36fb 083c abf2 c7bb 0a52 22bb
00000040: 0025 c83c aba8 d33a 176f 773c 47f7 293c
00000050: 6d6a b63a a87e 293b eebc 00bc 43a4 2abb
00000060: aa9f 7db8 2b93 ad3b 4006 d93c 507a 1f3b
00000070: a746 b1bc f183 0a3b 6dd0 82bb f1f6 06bc
00000080: 5af8 263c 15d2 6c3b 7be6 acba 296e f33b
00000090: 9367 783c 82cc 26ba 47e1 183c c2f1 0e3d
000000a0: c107 643c 2333 63bc 2be0 85bc 639a 91bc
000000b0: b1ec a53c b6c7 643c bebc 6fbb 6cf6 15bb
000000c0: b424 983c 6120 a8bc fb81 723c 50f5 81bc
000000d0: 15cd 3ebc a56b 75bc 55c6 aa3c e56a d9bb
000000e0: b98d 8b3c 6dce b3bc 9ff5 d6bc f7d9 813c
000000f0: a8e1 173b 349f 8b3c 5f40 333c 3e90 acbc
00000100: 91cb 313c 644b 6f3c 10e8 9e3b 5846 bcbb
00000110: e52a c3bb 04b0 963c c2ff 38bc 80eb 6f3c
00000120: ce94 15bb 5be3 133c 5053 3b3b 938d 3abb
00000130: e39c 103a 7373 a63b 8a79 a53b c0d5 19bc
00000140: d250 683c 1103 96bb bd0f f238 c7bc f2ba
00000150: aa6e c1b8 e468 d83a 6425 c03b a9fa b5bc
00000160: ae46 2d3b 70ad 0bbc 33fb d6bb 1268 4b3c
00000170: 365b 7dbc 3650 2f3c f5ae 033c 5c6c b5bc
00000180: 16c6 e6ba e59a 783d 0dcf edbc 7920 3f3c
00000190: f368 dfbc 2716 713d 80f6 cdbc 3792 e2bc
000001a0: 018d 5ebd 5d30 f73c dc1e 87ba 0176 123c
000001b0: f638 3fbb 7ff1 b5bb e2d4 6b3b 0b51 903a
000001c0: f735 aabc 8720 493d 0862 80bd 094c 50bb
000001d0: 4972 ba3b cb1b 0f3d 9ae9 e43b 2d25 a3bc
000001e0: 0a7a c8ba c68a 243d 97c0 da3b 0db6 0c3d
000001f0: df3f 98bc 6558 18bd 156b 2bbc d895 03bd
00000200: e20e fd3c 40a2 e63c e350 04bd 4317 0f3c
00000210: 2d27 61bd 8c5d 653d 5517 00bd 8551 e6bd
00000220: 550e b9bd 4006 5f3c 8141 b23c 9ec7 ccbc
00000230: 18f9 ddbc b438 1d3d 80e2 0ebd f2f6 8e3a
00000240: 7507 2bbd 1f55 9a3d 37d9 abbd c27f 33bc
00000250: a849 603d 39f4 3e3d 59eb aa3a db24 bfbc
00000260: eb70 1a3c d5b1 483d 33ea a43b 3070 533d
00000270: 00f7 f5bc 8787 29bd 9252 30bd 2a78 dbbc
00000280: 1dcb 4b3c 9c0a 643d f53d 83bd d772 a53c
00000290: b087 85bc 0dca 493b 2352 5ebb f810 e8bd
000002a0: b56d 6bbd 2a3c 3e39 3fcc 8dbb 8c5d 8abc
000002b0: ab4b febb c334 003d 2413 2c3d 32da 1e3d
000002c0: d714 30bd be69 8b3d 550f 15be 2d2f 99bc
000002d0: ed6e f43c 1f91 f53c 9561 3b3d f78b 60bc
000002e0: 2ae9 183d 5424 253d 7c95 32bc 5710 423d
000002f0: f405 d4bb a65f 8dbb 8153 54bc 7786 39bd
00000300: 6797 85bb b1b4 163c 5e46 6dbc 44af 6dbc
00000310: 1d06 013c e7ed 003b 2c09 343b bba1 49bd
00000320: b4c9 1fbc d951 a8ba 8291 423c 0925 65bc
00000330: 13e0 dbba 64fc 7b3c 588c 063d 866a da3c
00000340: 73d2 a53b c52d 2a3c 495b f5bc 436d 3abc
00000350: 001d c73c f520 1b3c 93d8 3d3d 11db 1cbd
00000360: 9a93 a23c e994 323c 709b dbbb 29eb 9a3c
00000370: e471 1dba e0b3 803c 03ee 093c 73cb bbbc
00000380: e60f 023c 89b0 2c3b 0f86 3dbb bc91 003c
00000390: 9e10 8a3c b2b1 98bb 8ea8 383c b1a7 113d
000003a0: 2d11 773c cee6 7cbc 93d7 96bc 9d9c 98bc
000003b0: 8e0d a53c 49ea 743c 1434 92bb 9356 d5ba
000003c0: daa6 a83c 6823 b0bc e272 8a3c 0f4c 82bc
000003d0: d335 2cbc 42b3 86bc f2f7 c03c df76 05bc
000003e0: 2d17 963c e671 babc e31d d9bc 6528 713c
000003f0: fb40 a13b e34a 823c 2b20 2d3c 7bb1 b0bc
0.04659458 -0.023128461 -0.0010715493 -0.012273478 -0.036796022 -0.0071906107 -0.0077538365 -0.024885705
-0.01421682 0.0103127565 0.0057887468 -0.001301548 -0.0093409475 0.008360675 -0.0061019263 -0.0024768137
0.024431705 0.001614829 0.0151021695 0.010373897 0.0013917215 0.0025862847 -0.007857544 -0.002603785
-6.04686e-05 0.005297085 0.026492238 0.0024334379 -0.021640135 0.0021135772 -0.0039921314 -0.008237586
0.010191048 0.003613596 -0.0013191247 0.0074289036 0.015161413 -0.00063628715 0.009331054 0.034898527
0.013917864 -0.013867172 -0.016342243 -0.017773813 0.020254465 0.01396363 -0.0036581005 -0.0022882475
0.018572189 -0.020523252 0.014801498 -0.015864044 -0.011645575 -0.014979278 0.020846525 -0.0066350573
0.017035352 -0.021949017 -0.026240168 0.015851004 0.0023175273 0.017043687 0.01094064 -0.021064874
0.010851757 0.014605377 0.0048494413 -0.0057456903 -0.005956041 0.018394478 -0.011291446 0.01464355
-0.002282429 0.009026374 0.0028583594 -0.0028465732 0.0005516542 0.0050796806 0.005049889 -0.009389341
0.014179425 -0.0045780023 0.00011542391 -0.0018519395 -9.22357e-05 0.0016510752 0.0058638323 -0.02221425
0.0026439833 -0.008525237 -0.006560707 0.012414949 -0.015463641 0.010700276 0.0080373185 -0.022146396
-0.0017606642 0.060694594 -0.029029394 0.011665457 -0.027271723 0.058859017 -0.025141954 -0.027657611
-0.05433369 0.030174429 -0.001030888 0.008939267 -0.0029178238 -0.00555247 0.0035985042 0.0011010481
-0.020777686 0.049103286 -0.06268698 -0.0031783602 0.0056898934 0.034938615 0.0069858553 -0.019915188
-0.001529516 0.040171407 0.0066757905 0.034353305 -0.018585144 -0.037193675 -0.010462542 -0.032125324
0.030890886 0.028153539 -0.032303702 0.008733573 -0.054969 0.055997416 -0.03127225 -0.11246017
-0.09035937 0.01361233 0.02175975 -0.024997529 -0.027096316 0.038384154 -0.034883976 0.0010907336
-0.04175516 0.07535767 -0.0839104 -0.010955753 0.054757744 0.046619628 0.001304011 -0.023333004
0.009426336 0.04899772 0.0050328015 0.051620662 -0.030025005 -0.041389015 -0.043047495 -0.026790697
0.012438563 0.05567418 -0.06408302 0.020196361 -0.016300052 0.0030790598 -0.003392347 -0.113313615
-0.05747767 0.00018142225 -0.0043273265 -0.01689031 -0.007760485 0.031300317 0.04201044 0.038782306
-0.042988624 0.06807278 -0.1455663 -0.018699253 0.02983805 0.029976426 0.04574736 -0.013705245
0.037331738 0.04031785 -0.010899898 0.047378864 -0.006470436 -0.0043143807 -0.012959362 -0.04529425
-0.0040768865 0.009198354 -0.014482109 -0.014507119 0.007874993 0.001967305 0.0027471287 -0.049226504
-0.00975268 -0.0012841775 0.011875512 -0.013985881 -0.0016775153 0.015379999 0.032848686 0.026662122
0.005060488 0.010386889 -0.029950755 -0.011378589 0.02430582 0.009468307 0.04634912 -0.038294856
0.019845773 0.010899761 -0.006701879 0.018910961 -0.0006006046 0.015710771 0.008418563 -0.02292416
0.007938361 0.002635034 -0.0028919016 0.007847246 0.016853627 -0.004659855 0.011270655 0.035560314
0.015079779 -0.0154358875 -0.01841334 -0.018629367 0.020148065 0.014948436 -0.0044617746 -0.0016276411
0.020587374 -0.021501258 0.016900484 -0.015905408 -0.01051088 -0.016442899 0.02355573 -0.008146017
0.018321598 -0.02275939 -0.026503509 0.014719103 0.0049210764 0.01590485 0.0105667515 -0.021569004

embedding.conv1.weight f4 [32, 1, 4, 4]
00000000: 5460 2f3b 1a18 1ebd 520e abbc 1b8c 08bd
00000010: 8e76 923b dbbb 6b39 ac91 45bc 48af 59bb
00000020: e149 5c3c a597 bc39 7f04 9abc 613c dd3b
00000030: 45ad 293d 39b6 34bd c6ac 0c3d aa48 efbc
00000040: acdd fb3a 40c6 c7bc 2f10 a0bb 71f5 4dbc
00000050: 89e9 293c 18fb 3bbc f84c 5f3c 8067 883a
00000060: febe a7bb da34 d4bb 0795 f03b a45c 153b
00000070: e52b aebb 6ded 80bc a980 a93a 78a8 493c
00000080: 4aa4 3cbb 1a63 9fbb 00c5 5b3b b8ac d43c
00000090: c7ee 93bc b8f8 013d cba3 8bbc a54f b13c
000000a0: 7616 213c 9fbe f63b 2837 92bb 12ef 433c
000000b0: a23a 513c 4cfa 983c dfd7 203c c482 6b3c
000000c0: 7db3 3c3d 8ddb 0dbb b1ed 3c3c 8618 34bd
000000d0: 9ae9 073c 36a8 0ebc 7901 9f3c 634b dabc
000000e0: 18fe d63c 4d1a af3b 9d15 0fbc ba69 22bd
000000f0: 4e8e 543d 1303 12bd d915 6fbc 6067 eebc
00000100: 2251 a53c 8e78 bcbc d405 02bd 658a 7b3c
00000110: a657 09bc 2e78 ad3b 1813 e2bc 791e fa3a
00000120: 9d8c 2a3c bca3 f8bc f59c 7cbb 2eed 11bc
00000130: 0df8 01bd 3c50 85bc cd13 07bd c36d b4bb
00000140: cd2f c03c 274e 9d3b 84fc 29bb 532b 66bc
00000150: 2b76 d93c 870a dc3b 6519 ebbc 7950 563a
00000160: 179f 003d 80df ec3b d6ce 2bbd d25e 853c
00000170: e9f8 063d 5227 6ebc 41bc 0fbd 0d90 55bc
00000180: 238e 463c 2a9d 4bbc 6334 aa3c 1d92 9d3c
00000190: 683d d9bb be3e acbc b095 c0bc 3ceb 323b
000001a0: 9c42 ea38 eaf6 43bc 3e1d 60bc 39a3 fc3b
000001b0: 30fa c8bc da46 e6bc eebf cabb 47b1 07bd
000001c0: c5a4 34bc d3e7 2c3c b11c cc3a bd1f dabc
000001d0: b658 b3bc 97f0 063c fc68 f73c 743e 47bd
000001e0: d897 243c 5720 c03b 5b54 0ebc 37f0 00bc
000001f0: 9351 0a3d affd a33c 57a3 8e3b b018 1cbd
00000200: 02af f8bc 9088 c5bc 5796 1cbb a788 ae3c
00000210: da72 3abc 5a44 44bc 1e52 433a 0ee9 a43b
00000220: 25ff f2b9 c343 0a3c b0f3 e9ba 909c 123c
00000230: ceca fabb 8c47 92bc 11f0 543c e6b7 a1bb
00000240: 3501 053d d183 6b3c 6f1f a0bc 184b b93c
00000250: 1b49 273c 986d 2e3c 9d42 b4bc 5c1a 25b9
00000260: 3c70 3abb 6929 d33c 3519 04bc 83de c83a
00000270: 8b0c 153d 08ba 333c cd91 a6bc 8bf3 eb3c
00000280: e58a 2ebb 8a6b 0dbc 1492 b7ba a376 1c3d
00000290: fb17 e1bc ff41 773c bf74 c3bb 0e69 9e3c
000002a0: a1fd 00bd d333 ee3c 81a8 d7bb 2539 36bc
000002b0: 5ee7 69bc 1780 d53b a5b9 1e3d ddec 9e3c
000002c0: a679 053c 24b9 ba3c b22a 913c 9a46 043d
000002d0: ecf0 083b 28c0 623c ebc3 093c 8dab c2ba
000002e0: a7a5 1d3c d778 9e3b 0f60 203d 03fa d8bc
000002f0: c9ab 4a3d 2307 4c3c 6552 8e3c 4f8d 11bd
00000300: 3460 4fbc 85b1 28ba 961e a3bc efcb f5bb
00000310: 3c79 54bc 268e ab3b 7637 b5bc 1949 2cbc
00000320: 9b86 99bb f809 303d 49d6 c7bc b196 f3bc
00000330: 7278 4b3c bea1 ba3b 0b10 d7bc 1434 ffbc
00000340: 1cf2 4c3c bfb6 35bc a285 04bd 9377 97bb
00000350: a94f 723c 154f 98bc f1d0 07bd 05c7 c9bb
00000360: bd40 c7bb 5c55 da3b b14c 12bd 7e65 d43b
00000370: 0312 4439 1dce aabc 1d10 f8bc 479a 0ebc
00000380: 35d8 b93b 3583 10bc 38e1 cf3c 8ec3 3b3d
00000390: 0e47 7f3c 18d2 fabc 3b2d bc3c 68b2 d83c
000003a0: b68c 983c 620a 81bc 7ae9 cd3b f7e3 ec3c
000003b0: b19e 5fbc 98cf 07bc 59c7 403d 855f 023d
000003c0: d96d e1bb 0c6f 71bc 7515 bbbb a5ff a33b
000003d0: 7b57 193d 638e d2bc e6ef eebb 2e8a 4a3c
000003e0: aceb 6bbc dfc4 09bd 93f2 023c cee0 db3c
000003f0: 0b48 52bc 937f 14bc 6f3b 5a3b 5b1a 25bc
0.0026760297 -0.038597204 -0.020880852 -0.03333674 0.004469699 0.00022481328 -0.012058657 -0.0033216048
0.0134453485 0.00035971138 -0.018800972 0.0067515825 0.04142501 -0.044119094 0.034344457 -0.029209454
0.0019215844 -0.024386525 -0.0048847417 -0.012570725 0.0103706205 -0.01147344 0.013629191 0.0010406822
-0.0051192036 -0.006476027 0.007341984 0.0022790814 -0.005315291 -0.015738213 0.001293202 0.0123082325
-0.0028784447 -0.0048641087 0.003353417 0.025961265 -0.018058194 0.031731337 -0.017045876 0.021644423
0.009832015 0.007530048 -0.0044621415 0.011958854 0.012770327 0.018674038 0.009817093 0.014374439
0.04606961 -0.0021645755 0.011531279 -0.0439687 0.008295441 -0.008707097 0.019409882 -0.026647275
0.026244208 0.0053437115 -0.00873318 -0.03965161 0.051893525 -0.035647463 -0.014592611 -0.029102027
0.020180289 -0.023006704 -0.03174384 0.01535282 -0.008382713 0.0052938676 -0.027596995 0.0019082568
0.010409501 -0.030351512 -0.0038545702 -0.008906646 -0.0317307 -0.01627361 -0.032977868 -0.0055062487
0.023460293 0.0048005763 -0.0025937865 -0.014048415 0.026545605 0.006715122 -0.028698632 0.00081754435
0.03140172 0.0072287917 -0.0419453 0.016280565 0.032952223 -0.014535742 -0.035091642 -0.013034833
0.012118849 -0.012427608 0.020776933 0.019234711 -0.0066296346 -0.021026012 -0.023508877 0.0027300855
0.000111703965 -0.011960724 -0.013678847 0.0077098873 -0.024533361 -0.028109957 -0.0061874306 -0.03312805
-0.011025612 0.010553318 0.0015572516 -0.026626462 -0.021892887 0.008236072 0.030201428 -0.048643544
0.010045968 0.00586323 -0.008687104 -0.007869772 0.0337692 0.020018427 0.0043529677 -0.03810948
-0.030356888 -0.02411297 -0.002389332 0.021305395 -0.011379922 -0.011979187 0.0007450896 0.005032665
-0.00046347934 0.008439007 -0.0017849114 0.00894846 -0.0076535707 -0.017856382 0.012996689 -0.0049352525
0.032471854 0.014374689 -0.019546239 0.022618815 0.010210301 0.010646246 -0.02200442 -0.00015745446
-0.0028448245 0.025776582 -0.00806265 0.0015325103 0.036388915 0.010969646 -0.020333195 0.028802654
-0.002663308 -0.008631596 -0.0014005327 0.03819908 -0.027477255 0.015091418 -0.005964845 0.019337203
-0.03149188 0.029077446 -0.0065813665 -0.011122023 -0.014276354 0.0065155136 0.038751263 0.019400055
0.008146679 0.02279336 0.017720554 0.032293893 0.0020895554 0.013839759 0.008408527 -0.0014852152
0.009622014 0.0048361826 0.03915411 -0.026486402 0.049480233 0.012452873 0.017373273 -0.035535153
-0.012657214 -0.0006435144 -0.019912045 -0.0075011174 -0.012968358 0.0052354513 -0.022121172 -0.010515475
-0.0046852357 0.042978257 -0.024394171 -0.029734941 0.012418853 0.0056955507 -0.026252767 -0.031152762
0.012508895 -0.011090933 -0.032354005 -0.0046224087 0.0147895 -0.018592397 -0.033158246 -0.006157758
-0.0060807155 0.0066630077 -0.03571767 0.0064818254 0.00018698726 -0.020850236 -0.03028112 -0.008703775
0.005671526 -0.008820345 0.025375947 0.045840792 0.015580906 -0.030617759 0.022970786 0.026452258
0.018621784 -0.015752021 0.006283936 0.028917296 -0.013648675 -0.00828924 0.047065113 0.031829376
-0.00687955 -0.014735948 -0.005709345 0.0050048404 0.037436944 -0.02570266 -0.0072917817 0.012362046
-0.01439945 -0.033635017 0.0079924045 0.026840594 -0.012834559 -0.009063619 0.0033299585 -0.010077084

embedding.conv1.bias f4 [32]
00000000: 17c3 9cbc a2ac 8a3d 66ea 603c 3595 bab9
00000010: a2f8 06bc 4fbc f53c 478d bebc 4610 94bc
00000020: 1a75 1ebd 15bc 443c 804b 663c ef8c bdbb
00000030: d066 15bc 1911 fcbb 3c17 f53b a44c 98bc
00000040: 07e4 c1bd 6a4c 2a3d c407 92bd 01be 733a
00000050: aa6a a93c 2aff 1c3d 6653 be3b 4bfe 0abc
00000060: 2e0b 34bc 5c31 933d 6464 073c 5c5a 3ebc
00000070: aad3 86bb 68a3 313c 3162 22bc 1607 ea3a
-0.019135995 0.06771208 0.01372776 -0.00035587852 -0.00823799 0.02999702 -0.023260726 -0.018074166
-0.038685896 0.012007733 0.014056087 -0.005784623 -0.009118751 -0.007692468 0.0074795764 -0.018591233
-0.09467321 0.04157678 -0.071303874 0.0009298027 0.020680744 0.03832928 0.0058082817 -0.00848348
-0.010988994 0.07187149 0.008263681 -0.011618223 -0.004114588 0.010842182 -0.009911106 0.0017854895

encoder.0.attention.queries.weight f4 [32, 32]
00000000: d63b e8bd b062 453d d2c0 c1bb b806 a33b
00000010: ccbf 053d db87 dc3d 0d21 603d 9021 6abd
00000020: 0f84 91bd f260 6b3c a6ca f4bc e4fe 17bc
00000030: d645 863c 560b e23a 14b2 c63b 299c b9bc
00000040: 0389 f0bc 2a00 c93d 8d97 dbbd 11ee 9438
00000050: 6c90 253d bf08 263d 660d 9a3d 900f 18bd
00000060: 1b9a ecbc 8b53 8c3d eb2a be3a f935 b33c
00000070: 98e1 a63c f92a 21bd 0392 c1bd 835f 4a3d
00000080: 6529 d83d 7f1a aebd d2f6 4abc e490 b7bb
00000090: 2a7d 0e3d 1b06 92bd dba7 c4bc 56ac 2dbc
000000a0: 1c6f 473d ae68 8c3c 6542 ee3c a9f3 403c
000000b0: 04b8 b4bd a53f c3bc 7587 3bbd f40c 9a3a
000000c0: b590 5b3d ecc5 75bd 6e53 023e 7215 e6bb
000000d0: 8594 54bc 778d 54bd 5945 7fbd 688b 313c
000000e0: 980e e03c 19f5 99bd bab8 ba3c aeb0 553b
000000f0: 3acb 8fbd c90b a13b e8f6 803d ff63 0fbd
00000100: b4ae b23d 1960 7cbd 99cc c13b dfe2 9dbd
00000110: 0faf 7bbd 80e3 f2bd 558b a5bc 1f8e b3ba
00000120: 11d8 5a3d b015 3e3d 4eb7 0a3b 9d30 26bc
00000130: 299e 64bd 8279 59bd 90b1 833d 8abe 1cbb
00000140: 9f85 8e3d c58f 81bd 209b d13d 843a 113d
00000150: 56cb 2bbd fdd2 8ebc bf32 54bd 1f75 0f3c
00000160: ae8c 9fbc d2e6 c9bd 57f8 9cbb 45f0 b3bc
00000170: 1a88 2ebd cd76 3e3d 5f73 653d 094e 88bc
00000180: 3c81 a4bd 17ee 2c3d 7cde 443c 6f87 cfbc
00000190: 8c3f 003c 721e 833d 5798 e13c 5209 5abd
000001a0: a35a b2bc 5a3f b13d a90a 343d 4d00 583d
000001b0: 259c 873c 9260 b1bc 6142 613d b916 f7bc
000001c0: 9821 26bd 65dc 8c3d 76cb 95bd 9804 cdbb
000001d0: 1da3 203d 3612 8a3d 6114 4f3d 6f38 293c
000001e0: 508b 2fbd f87a 8b3d 4ce2 9d3c 696f a1bc
000001f0: a22d c63c 38d0 b53b 88cf 7bbd 3070 adbb
00000200: 24a5 b3bd 98c5 763d 1a54 963c 6596 d23c
00000210: 1463 233d b473 a33d 918d 2a3d e104 44bd
00000220: cb48 c9bd d349 1e3b 88d6 2cbd ca7c b73c
00000230: 3d6b 453d b5d5 713c a996 f4bb 33b1 84bc
00000240: d62f d2bd 3f5b a23d 9c7c dbbd e54d 0dbd
00000250: 588d b03d f192 593d 97fb e03d 92ee 7c3c
00000260: 4246 67bd 4744 a33d 5c18 8038 fd95 c8bc
00000270: f020 013d 03d0 2b3c 83d5 72bd 1e71 133d
00000280: a93b 91bd dbba bd3d e679 ddbb bc5e 773c
00000290: 91fb 6e3d 7600 d83d b6b7 ae3c 9662 bd3c
000002a0: a656 24bd c909 23bd b507 2fbd fb38 40bb
000002b0: d444 873c e18e 18bb 9862 0cbd 2a04 73bc
000002c0: d867 80bc 1605 983d 7668 febd 2bfd 0dbd
000002d0: b8b7 da3c 7668 c93c b117 1d3d a508 3fbd
000002e0: c64b 0b3c a438 7a3d 8ee2 03bc 2a0e 223d
000002f0: 55cd e43a b0d6 07bc 039d 88bd 35d3 fd3b
00000300: 4437 163d fef9 61bd 26cd 443c 8bd0 e8bb
00000310: 5476 23bd bb9a 9ebd 658e d2bc 2395 9fbd
00000320: be76 173d 3cc3 c23c d242 803d 3671 f73c
00000330: 94d0 78bd fe64 5abd e81e dc3a b61f 9b3c
00000340: d3bf 683d 2b20 61bd 5dc0 113d cfd5 483d
00000350: 2d57 10bd a39b 1f3c 0ac2 c0bc f2e7 0ebc
00000360: 62ed 563c 1d1e 22bd 8bf2 283d 1f76 883c
00000370: 6893 eebc 661b b0bc 7cec 173d 1c17 22bc
00000380: 353c cfbd b312 d33c fb96 463c f71d 5d3d
00000390: 72dc 6abc 922b 8e3d f99e 483d cacc 3dbd
000003a0: 6067 debc c8f4 153b b4db 823c f525 68bb
000003b0: cfbb ce3c d25e c53c c534 b13c 8d4f 08bd
000003c0: abb2 7dbd 085a a33d b18f 06be d0fb 99bb
000003d0: 2d82 633d ef0b c23d 9eb0 d23d f1a0 243d
000003e0: 8803 35bd efd3 a13d a576 4abd 65f8 c9bb
000003f0: 6ef5 763c a035 43bd 85c0 2fbd 003d a83c
-0.11339538 0.04818982 -0.0059128786 0.004975166 0.032653615 0.107681 0.05471902 -0.057160914
-0.07105266 0.014366375 -0.029881787 -0.009277079 0.016390722 0.001724581 0.006063709 -0.02265747
-0.029362207 0.098144844 -0.107222654 7.101533e-05 0.040420935 0.040535685 0.07522087 -0.037124217
-0.028882077 0.06851872 0.001450864 0.021876322 0.020371243 -0.039347623 -0.09451678 0.049407493
0.105547704 -0.085011475 -0.012387948 -0.005601989 0.034787335 -0.07130071 -0.024005821 -0.01060017
0.048689947 0.017139759 0.029084394 0.011776843 -0.08824161 -0.023834059 -0.04578348 0.0011753128
0.0536048 -0.060003206 0.12727138 -0.0070215994 -0.012974863 -0.051892724 -0.062321994 0.01083646
0.027350709 -0.07517452 0.022793163 0.003260653 -0.07021184 0.004914735 0.06297094 -0.035007473
0.08724728 -0.061615083 0.0059142825 -0.07709288 -0.061446246 -0.118597984 -0.02020804 -0.0013698972
0.053428713 0.0464074 0.0021166387 -0.010143426 -0.055814896 -0.053094395 0.06430352 -0.002391728
0.0695908 -0.0632625 0.10234666 0.035456195 -0.041941963 -0.017434591 -0.051806208 0.008755951
-0.019476261 -0.098584786 -0.0047903466 -0.021965155 -0.042610265 0.046500016 0.05601823 -0.016638773
-0.08032462 0.042219248 0.012015935 -0.025333134 0.007827651 0.06402291 0.027538462 -0.053231545
-0.021771735 0.086546615 0.04395548 0.05273466 0.016553948 -0.021652494 0.054994944 -0.030162202
-0.04055938 0.068779744 -0.07314198 -0.006256651 0.039218057 0.06741755 0.050556544 0.010328396
-0.042857468 0.06810564 0.019272946 -0.019706445 0.024191681 0.0055485032 -0.061477214 -0.005292915
-0.087717324 0.060247034 0.01835065 0.02570648 0.03988941 0.07981053 0.041638914 -0.047856215
-0.09828337 0.002415289 -0.04219678 0.022398371 0.048197974 0.014760424 -0.007464249 -0.016197776
-0.1026303 0.0792756 -0.10717127 -0.034498114 0.08620709 0.05311865 0.10985487 0.015437739
-0.056463487 0.07972007 6.108053e-05 -0.024485582 0.031525552 0.010486606 -0.059285652 0.03599655
-0.070914574 0.092641555 -0.006758916 0.01509827 0.05834538 0.10546963 0.021327835 0.023118299
-0.040121697 -0.039804254 -0.04273196 -0.0029330838 0.016512312 -0.0023278522 -0.034273714 -0.014832536
-0.015674517 0.07422845 -0.12422268 -0.034665268 0.026698932 0.024585944 0.038352672 -0.046639103
0.0085019525 0.061089173 -0.00804962 0.03956429 0.0017456213 -0.008290932 -0.066705726 0.007746125
0.0366738 -0.05517005 0.012011802 -0.0071049384 -0.03990777 -0.07744356 -0.025702665 -0.077921174
0.036978476 0.023774736 0.06262745 0.03020535 -0.06074579 -0.05331897 0.0016793879 0.01893602
0.056823563 -0.05496232 0.035583843 0.04903203 -0.035239387 0.0097416965 -0.023530025 -0.008722292
0.01311812 -0.0395795 0.041246932 0.016657887 -0.029123023 -0.02149744 0.037090763 -0.009893205
-0.101189055 0.025765752 0.0121209575 0.053983655 -0.014334785 0.06941904 0.048979733 -0.04633788
-0.027148902 0.0022881497 0.015973903 -0.0035423015 0.025236038 0.024093065 0.021631608 -0.03327899
-0.06193797 0.079761565 -0.13140751 -0.004699208 0.055544067 0.094749324 0.10287593 0.04019255
-0.04419282 0.07901751 -0.049429554 -0.006163644 0.015073163 -0.047658563 -0.04290821 0.0205369

encoder.0.attention.queries.bias f4 [32]
00000000: 2636 0d3d 7d88 95bc 5e3b 10bd a114 663c
00000010: 1951 bd3c df64 1c3c 349a 86bc ccb8 f33c
00000020: e179 793c ef8f 5a3d 4553 4cbd 7954 57bd
00000030: c3c4 45bd e833 5b3d fd8e 633d e6ef 4f3d
00000040: 1848 5cbd 8e20 01bd f20d d03c 28a9 52bd
00000050: fcba aebc b5ce 5dbd 76b8 68bd 934c 443d
00000060: e286 be3d 50ff d0bd cea0 d83d 181b cb3d
00000070: c239 d5bd 1c89 bd3d 435b cc3d ff79 bf3d
0.034475468 -0.01825356 -0.035212867 0.014043004 0.02310996 0.009545534 -0.016430952 0.029751204
0.015226812 0.053359922 -0.0498841 -0.052570794 -0.04828335 0.0535163 0.055556286 0.050765894
-0.05377969 -0.031525187 0.025397275 -0.05143085 -0.021329395 -0.05415221 -0.05681654 0.04792459
0.093030706 -0.10204947 0.10577546 0.09917277 -0.10411407 0.09254667 0.09978344 0.09349441

encoder.0.attention.keys.weight f4 [32, 32]
00000000: 456a f5bd 3eb2 64bd 9459 473d 7591 02bd
00000010: 6a81 86bd 6296 6a3d 1cbb afbd 5195 083d
00000020: ad00 dfbd e2ff b43d b1bd 8a3d d731 b13c
00000030: 6ef9 26bd 7454 c0bd 4c51 d63d 0c10 9bbc
00000040: 48a8 74ba 451c 1bbc 2aff b2bc d74f 943d
00000050: 38ce f13c f106 153e 52c5 8e3d b754 693d
00000060: 3f2a a5bd 3ca1 fabc a2dd 883d 7489 97bd
00000070: ba33 59bd 9efe 473d 855a 37bd 9de5 9f3d
00000080: a21f 823d ed84 883d 08e2 4fbd 6297 993c
00000090: 1f84 bb3d 36db 20bd 3843 943d bc1f 11bd
000000a0: 61db 043e 19f0 a8bd 909c 15bc 566b 31bd
000000b0: ff6c ed3c c9a0 423d 1a0f 05bd a190 423d
000000c0: 137c d7bc 3aca 8abd 2f02 c03c c3e7 9abc
000000d0: 59f5 64bd d1b2 87bd 31e9 ebbc 289b 4abd
000000e0: d82f 443d c0c7 c33c 3f0f a3bd bc64 e63c
000000f0: c830 3a3d e612 84bd c197 e43d 2623 8bbd
00000100: 4f10 293c 897c 81bc 4020 b9bc 29eb 3cbd
00000110: daf8 143d 6c07 0dbe 7719 413d 94bf 63bd
00000120: 9ec5 5c3d 7e50 eebd fe0c 14bc 9582 d33a
00000130: 37fd 21bb 899e 3e3c dd92 20bd c548 07bc
00000140: 870e 9d3c 3f7b 55bd 4c98 613d 86c1 253b
00000150: 9e5e 4dbc 73c7 e3bd ddf7 db3c 5a66 23bc
00000160: cca7 6d3c 05f3 cbbc 70a5 22bd 689c 383d
00000170: 9a9d cb3c df75 42bd e6de ebbc e744 c1bc
00000180: a102 93bd 236b cdbd 26aa af3c d009 34bd
00000190: cb14 37bd a2f9 68bd 4e53 06bd c14f 72bc
000001a0: 70a4 853b 4067 3c3d bf5d 513d 7e96 f03c
000001b0: 7075 db3b b696 febb c4ab 7b3c d938 14bd
000001c0: b771 fa3c 5679 e7bd 967c 843d 2ba0 583d
000001d0: 0236 803d 5aa3 133d c9d1 6f3d e4aa 0c3d
000001e0: 9697 babd f1c7 78bd cff0 353d b5c9 fdbb
000001f0: 22b8 06bd a20d 1a3d 149d 28bd 9a1b 353d
00000200: b75d b4bd 5e93 69bd b308 533d e28d dbbc
00000210: 1980 56bd 327c 6d3d 9f91 a0bd 1440 6ebc
00000220: 4f9b bebd 8acd b93d 9ad2 a63d 953d 993d
00000230: 4a47 7dbd 4b45 68bd 414f 8f3d c4e4 53bd
00000240: 7c09 b83c 1b37 a5bc 9ec3 613c c60f 243d
00000250: 5e43 843d 6693 063e 0bd2 723d 1a33 833d
00000260: 7bf2 7cbd 218d c2bc b237 893d 3669 1dbd
00000270: 4f84 b7bd 4567 4c3d fc28 95bd 7ef1 813d
00000280: 18ed 333d f639 14bd 974f fd3c 1081 5dbc
00000290: 643c 05bd e2a9 103e 2cda dcbc 2ab1 0a3b
000002a0: b0e2 f6bd 0473 6a3d 2189 373c 5bc2 4e3d
000002b0: e638 b1bc d6e5 15bd a4a0 b63c a9b3 0fbd
000002c0: f165 383c 2a08 9c3d 4de2 59bd 94c0 8e3b
000002d0: a93c 3b3d b51d a73d 3f15 00bb 2edc 6a3d
000002e0: 59e8 2cbd c7cf 1abb 587b 993d 43d1 c5bc
000002f0: f529 d6bc 5211 aa3c 1d01 17bd 58fd 8aba
00000300: 0ef2 9e3b e260 4abc 0ebd 08bd 7291 75bc
00000310: c4c1 e73c df3a 1ebe 429e 373d 8f7f 31bc
00000320: 8f57 bc3d 5ce3 0cbb 2e98 e5bb 5f50 50bc
00000330: 3386 823c 4032 81bc 3230 553c 3dcf 6f3c
00000340: 2b33 ef3c 70e6 8dbd 5291 bb3d cc23 d63b
00000350: 5747 07bc 1284 4cbd f815 183d 0730 0fbc
00000360: 9059 bf3c 4a1a b4bc c357 02bd 3949 383c
00000370: c660 b4bc 060e d33c ef7e c33c 6770 ddbc
00000380: 2927 abbd 2cd0 5fbd 6df8 133d b17e f7bc
00000390: 8b71 83bd fa20 883d f709 91bd 71cc 073c
000003a0: fd52 a3bd 030b a03d 5676 2d3d 56c9 f53c
000003b0: cd0e 79bd 3290 9ebd 8659 b53d 42be 33bd
000003c0: f892 a83c 96f4 9abc 9d51 06bd 9da4 e93c
000003d0: 13e3 013d 4fa4 f03d a70e 063d eeda af3c
000003e0: d822 9ebd 95d8 edbb 04af 753d a0b3 75bd
000003f0: 9663 2ebd 9386 5d3d c869 6fbd 56d6 553d
-0.1198316 -0.055834047 0.048669413 -0.031877 -0.065676525 0.057272322 -0.0858061 0.033345524
-0.10888801 0.08837868 0.06774462 0.02163021 -0.04076522 -0.09391108 0.10464725 -0.01892855
-0.0009332937 -0.009467189 -0.021850187 0.07241791 0.029517278 0.14553429 0.069712296 0.056965556
-0.080646984 -0.03059446 0.06682898 -0.07399264 -0.053027846 0.048826806 -0.04476406 0.07807467
0.0635369 0.066659786 -0.05075267 0.018748943 0.091560595 -0.039271556 0.072393835 -0.035430655
0.12974311 -0.0824892 -0.009131566 -0.043315254 0.028982637 0.047516618 -0.032485105 0.04750121
-0.02630428 -0.06776853 0.023438541 -0.01890934 -0.055898044 -0.066259034 -0.028797718 -0.049464375
0.04789719 0.02389896 -0.07961892 0.028124206 0.045456678 -0.06448917 0.11161757 -0.067938134
0.01031883 -0.015806453 -0.022598386 -0.046122704 0.036370136 -0.13772362 0.047143426 -0.055602625
0.0538994 -0.116364464 -0.009036301 0.0016136939 -0.0024717578 0.011634477 -0.03920256 -0.008257096
0.019171966 -0.05211949 0.055076882 0.002529235 -0.0125347655 -0.11122026 0.026851589 -0.009973133
0.014505338 -0.024896154 -0.039708555 0.045071036 0.024855424 -0.047475692 -0.02879281 -0.023592426
-0.07178236 -0.100302 0.021443438 -0.04395467 -0.044697564 -0.056878693 -0.03279429 -0.014789523
0.0040784404 0.045996904 0.051114794 0.029368635 0.0066973493 -0.007769431 0.015360776 -0.036187027
0.030571802 -0.1130244 0.064690754 0.052887123 0.06260301 0.036044456 0.058549676 0.03434266
-0.09110944 -0.060737554 0.044419106 -0.0077449926 -0.032890446 0.037610658 -0.041165426 0.044215776
-0.08806937 -0.057025306 0.051521968 -0.026801053 -0.052368257 0.05797977 -0.07840275 -0.014541645
-0.093069665 0.090724066 0.08145638 0.07482449 -0.061835565 -0.056706708 0.06997538 -0.05173184
0.02246546 -0.020167878 0.013779549 0.040054105 0.06458162 0.13142166 0.059282344 0.06406231
-0.061754685 -0.023748936 0.06700076 -0.038430415 -0.08960783 0.049903173 -0.07283208 0.06344889
0.043927282 -0.03618809 0.03092174 -0.01351954 -0.032528296 0.14127305 -0.026959501 0.0021162727
-0.12054956 0.057238594 0.011202128 0.05047832 -0.021633577 -0.03659614 0.022293396 -0.035083447
0.0112547735 0.07618745 -0.053194333 0.004356453 0.045712147 0.08159963 -0.0019543914 0.057338886
-0.04221377 -0.002362238 0.07494229 -0.024147635 -0.026143054 0.020760212 -0.036866296 -0.0010604067
0.0048506325 -0.0123522 -0.03338342 -0.01498829 0.028290637 -0.15452145 0.04482866 -0.010833635
0.09196388 -0.0021497821 -0.0070066666 -0.012714474 0.015933132 -0.015771031 0.013011979 0.014636812
0.029199203 -0.06928718 0.09158577 0.006535029 -0.008256755 -0.04993064 0.037130326 -0.008739478
0.023358136 -0.021985192 -0.031821977 0.011247926 -0.022018801 0.025763523 0.023864238 -0.027031137
-0.083570786 -0.054641888 0.03612559 -0.030211778 -0.06418141 0.06646915 -0.07081979 0.008288489
-0.07974813 0.078146 0.042349182 0.030003231 -0.06080513 -0.07742347 0.08854966 -0.043882616
0.020577893 -0.018915456 -0.032792676 0.028520877 0.031710695 0.117500894 0.032728817 0.021466698
-0.0772149 -0.0072584846 0.05998136 -0.059985757 -0.04257544 0.054083418 -0.05845049 0.05220636

encoder.0.attention.keys.bias f4 [32]
00000000: ac69 9238 534b 7137 563e 67b7 6a2b 4ab7
00000010: 705d e337 94f8 b937 a22a 73b8 81cc 1b37
00000020: aa40 3638 e789 9838 c987 0637 2384 a0b7
00000030: 4a30 aeb7 29f9 6b38 4403 9637 7def ce37
00000040: bf21 a538 7217 cbb7 c06e 07b7 b58c 5bb9
00000050: 4323 25b8 eded a438 96af a438 10d9 3139
00000060: 53a4 8538 4449 36b8 803d 9d37 9f9b ebb7
00000070: 4bba 0839 7aaf 5c38 6a0c 4b38 f7a7 2639
6.9815054e-05 1.4382257e-05 -1.3783187e-05 -1.2050246e-05 2.7104019e-05 2.2169472e-05 -5.797542e-05 9.286335e-06
4.3452404e-05 7.273611e-05 8.018637e-06 -1.9135017e-05 -2.0764903e-05 5.6260415e-05 1.7882914e-05 2.4668634e-05
7.874099e-05 -2.4210403e-05 -8.072413e-06 -0.00020937885 -3.9371906e-05 7.8644465e-05 7.852835e-05 0.00016960897
6.372542e-05 -4.3460415e-05 1.8744497e-05 -2.808665e-05 0.0001303937 5.2615513e-05 4.8410533e-05 0.00015893565

encoder.0.attention.values.weight f4 [32, 32]
00000000: fa5d 02bd 7f1e c2ba dcfb 11bd 0b85 303c
00000010: 581e 5e3c f3b1 0e3c 484e 8b3c 9615 88bc
00000020: aa97 23bd 78a1 8abc 1477 16bd fe26 fb3b
00000030: 9d5f 3c3d ea82 acbc 2d81 01bb d65e 753c
00000040: e35e e9bc 75f3 113d cf87 6bbc 0d6b d8bc
00000050: 71eb ba3b 6baf 9d3c e478 dfbc 27f1 91bc
00000060: 7250 bd3c 8d76 ce3b 17c3 59bd 6ca0 0b3c
00000070: c266 fd3c ca5c 243c 9056 c73b 5749 54bd
00000080: 0873 743c 9007 103c fbf6 00bd 862a 433d
00000090: 1b19 d63c 017e c13c 0037 92bc 8663 cf3c
000000a0: d3c0 0dbd 9bab 46bc f2b5 4abd ca7d 9bbb
000000b0: 3064 2cbc 9bf2 343d 0edb b33b 9c59 8bbc
000000c0: e94e a1bb bfc2 1a3d 200a cbbc 3a19 27bd
000000d0: 9cac 693c 93fe 4b3d b076 a3bc 62df dcbc
000000e0: ee66 0c3b 03de 8f3c 50fd 04bd 27e4 5f3c
000000f0: 8200 e4bc 8df3 62bc 4b1b 9cbb 3e91 03bc
00000100: 19a7 15bc 786e e8ba c773 543c ab33 1fbd
00000110: e992 173d debe d03c 282e 2e3c 5415 f6bc
00000120: 5baa 333d 24e5 90bc d106 193c 14fe e33c
00000130: 20b4 cbbc f2eb fbbc c4e2 3d3d 21e4 0bba
00000140: 0dd3 ef3c ae64 20bc 06d0 27bd 8f81 7abb
00000150: 579e ed3b b50d 59bc ec5a d13b b3d5 13bc
00000160: 2e65 80bc f23d b93c 16d8 1bbc f226 c5bc
00000170: 7673 953c 9eb1 f2bb 0dc2 c63c 604f 22bd
00000180: cc40 08bd 6930 7c38 4714 f73c 0c93 9dbd
00000190: 4788 03bd 7006 84bc 5bda ceba 1028 28bd
000001a0: 81fc 75bc 1ab6 61bb 69a8 773c a718 d0bb
000001b0: 5e1a 74bb 29fb 6e3a a8b8 a6bc 4b62 f33c
000001c0: 4ffd 223c 0108 63bd 20dc 42bd 81b8 4d3d
000001d0: 5150 2ebb 710c f6ba 9c14 eebc f428 2ebc
000001e0: 7b52 b03a dc46 0f3c 5eca b23c 5cf7 b43c
000001f0: b077 81bc 362a c8bc d42a a43c b8f2 df3b
00000200: 557f 3fbd 08f3 39bd b077 6d3d 38a2 30bd
00000210: 7aa6 cfbd b4eb 503c 9313 15bd 8d3d 633c
00000220: e915 4ebd 6efd 123d 10fb a43d b309 093d
00000230: 1a0c 9cbc 9e0b 69bd 7dba 17ba 4e1f b3bc
00000240: a13e 773c 05ad 6dbc 3f43 bf3c ab50 4b3d
00000250: 793f 0d3b 1aad 003e 51cb 18bc 7963 1f3b
00000260: 247a 18bd 74c3 4a3b 1efd aa3b a2b8 ffbc
00000270: f4b6 8abc a8d2 cebc 7458 96bd 27c3 e13c
00000280: f371 82bd 626e 393b 5cda 0c3c 8a75 b9bc
00000290: d9fd 6dbc 7a9c 96bc 2600 ccbc 4c6d 9e3c
000002a0: 9400 8cbc f4b1 813c 22b2 aa3b b423 bc3c
000002b0: 44bb 7ebc 8e4d 1dbd f40a af3b 00b0 14bd
000002c0: df6c 6e3c 0a8f 80bb 4823 04bd cd9c ce38
000002d0: 9faa 5d3c b623 003d f865 3e3c ccb2 903c
000002e0: 33dc d13c ff68 8e3c 00a3 3fbb 9670 c3bb
000002f0: aa8d 843c 85a7 053d e729 44bb acb2 e23c
00000300: 04bc 883b 717f c5bc 0bee 28bd c0d2 81bb
00000310: ae48 08bc 9ae6 01bb 7c8c 373c f9bf 28bd
00000320: 7e9e 973c 620c e83c 7858 393d 6602 4fbc
00000330: 40c9 d2bc f727 f53c 3b60 03bc 8c2f 74bb
00000340: f693 96bc 554e 6dbc a362 013d b004 2a3c
00000350: bf74 6d3c 6859 433d 43d5 9fbc b6ba 953c
00000360: 0b1d 6eba 41ba a5bb 57b0 703c e0df 24bb
00000370: 0cd8 cd3c 5ee0 9abc fde4 05bd 0cd6 a53c
00000380: 6daa 5e3c 9354 41bd 1f87 a73c 0fdb b5bc
00000390: 9288 8bbd 0fac 47bd a843 96bc 4833 d5bd
000003a0: 6733 123d 8430 153d 9abf 1bbc fe17 7a3c
000003b0: af46 63bb 68fa 32bc 9640 02bb a36d b13c
000003c0: 22ef 193d 9861 48bc dfd6 923c 290c b73c
000003d0: 7858 973c afa1 4fbd 470f bcbb 4681 f43c
000003e0: 6c8a 85bd e834 5dbc 1b5b dc3c 9973 9cbc
000003f0: 1d97 a4bb 8ac2 d1bb 674d ccbc 1fb0 a83c
-0.031827904 -0.0014810114 -0.035640582 0.010773907 0.013557039 0.008709419 0.0170051 -0.016611855
-0.03993956 -0.016922697 -0.036734655 0.0076645603 0.04598962 -0.021058518 -0.0019760833 0.014976224
-0.028487628 0.03563257 -0.014375641 -0.026418233 0.0057043363 0.019248685 -0.027279325 -0.017815186
0.023109648 0.0063007534 -0.053164568 0.008522134 0.030932788 0.010031888 0.006083317 -0.051827755
0.014920004 0.008790866 -0.03148554 0.047647975 0.026135018 0.023619654 -0.017848492 0.025316011
-0.03460772 -0.012125875 -0.049489923 -0.00474522 -0.010521933 0.04417668 0.00548876 -0.017010503
-0.004922737 0.03778338 -0.024785101 -0.040795542 0.014262345 0.049803328 -0.019954056 -0.026961986
0.0021423656 0.017561918 -0.03246814 0.013665236 -0.027832273 -0.013852012 -0.0047639958 -0.008030234
-0.0091340775 -0.0017733118 0.012967057 -0.038867634 0.03700534 0.025481638 0.010631122 -0.030039467
0.043863636 -0.017687388 0.009340004 0.027831115 -0.024866164 -0.030752156 0.04635884 -0.0005336423
0.029275442 -0.009789629 -0.04096987 -0.0038224196 0.0072515416 -0.013247897 0.0063890126 -0.009023118
-0.015673246 0.022612546 -0.009511968 -0.024066422 0.018243533 -0.0074064275 0.024262452 -0.03962648
-0.03326492 6.0126567e-05 0.030161036 -0.076940626 -0.032112386 -0.01611635 -0.0015781628 -0.04105383
-0.015013815 -0.0034440816 0.015115836 -0.006350595 -0.0037247161 0.0009116405 -0.020351723 0.029709956
0.009948089 -0.055427555 -0.04757321 0.050224785 -0.0026598165 -0.0018772018 -0.029062562 -0.010629881
0.0013452315 0.008744922 0.021825012 0.022090606 -0.015804142 -0.02443419 0.020039953 0.0068343543
-0.046752293 -0.04539779 0.05797547 -0.043123454 -0.10139175 0.0127515085 -0.03639562 0.013869655
-0.050313864 0.03588622 0.08055699 0.033456516 -0.01904874 -0.056895845 -0.0005787982 -0.021865513
0.0150906155 -0.014506583 0.023347495 0.049637478 0.0021552725 0.12566033 -0.009325818 0.0024320765
-0.037225857 0.0030939253 0.005218162 -0.03121597 -0.016932942 -0.025246933 -0.0734109 0.027558876
-0.0636939 0.0028294553 0.008596983 -0.022639055 -0.014525854 -0.01838516 -0.024902415 0.019339226
-0.01709012 0.015831925 0.0052092234 0.022966243 -0.015547577 -0.03840404 0.005341882 -0.03630066
0.014552324 -0.0039233016 -0.03226021 9.852052e-05 0.013529449 0.031284057 0.011620991 0.017663382
0.025617694 0.01738405 -0.0029241443 -0.005964349 0.016180832 0.032630462 -0.0029932202 0.027673088
0.004172804 -0.02410862 -0.04124264 -0.003961891 -0.008318109 -0.0019821287 0.011202928 -0.041198704
0.018508192 0.028326217 0.045250386 -0.012634849 -0.02573073 0.029926283 -0.008018549 -0.0037259785
-0.0183811 -0.014484008 0.031588208 0.010377094 0.0144931665 0.047692686 -0.01951087 0.018277507
-0.0009083307 -0.0050576036 0.01469048 -0.0025157854 0.025127433 -0.018905815 -0.032689083 0.020243667
0.013590437 -0.047199797 0.020450173 -0.022199182 -0.06813158 -0.048748072 -0.018342808 -0.10410172
0.035693552 0.03642322 -0.009506131 0.015264509 -0.0034679582 -0.010923959 -0.0019874922 0.021658724
0.03758157 -0.012230299 0.017924724 0.022344666 0.018474802 -0.050691303 -0.005739126 0.029846799
-0.065205425 -0.013501383 0.026898911 -0.01909809 -0.005022897 -0.0064013647 -0.024939252 0.020591794

encoder.0.attention.values.bias f4 [32]
00000000: e8f9 d43c 4186 3a3c 0352 193b 6ee6 d3bb
00000010: c013 d1bc 2069 313b f246 2abc d20f 1abd
00000020: 277b a8bc 9714 dd3b a25f 013c d1ec 14bc
00000030: 0ff3 eabb 806d 3c3c 3e98 35bc ce4b 41bb
00000040: 426c e23b 31ca 0f3d ca41 ccbb 0e20 b03b
00000050: a06c 9e3b 7ccd 1a3c 7050 62bc 1558 e6bb
00000060: a16a a2bb 8684 c83c 773a 543c d7c8 deba
00000070: fe98 60bc 996f bd3b bd81 acbb 3c87 4abc
0.02599807 0.011384548 0.002339483 -0.0064666783 -0.025522113 0.0027070716 -0.010392891 -0.037612744
-0.020566536 0.0067468393 0.007896336 -0.009089665 -0.007170088 0.011500716 -0.011083661 -0.0029494646
0.006909878 0.035104934 -0.0062334286 0.005374915 0.0048347265 0.009448405 -0.013813123 -0.007029543
-0.004956559 0.024477255 0.012953392 -0.0016997111 -0.013708351 0.0057811257 -0.0052644894 -0.012361344

encoder.0.attention.fc.weight f4 [32, 32]
00000000: 10be a53b 40cc e5bc 47d3 983a ac37 e93c
00000010: 5788 a93c 3489 89bb 03f3 f43c adb7 133d
00000020: c44a 25bc ce5b 213b ee93 f33c bb21 68bc
00000030: f982 edbc 6647 ea3c 2134 2dbd e58c cb3c
00000040: 424f 5b3c eb8d 75bb 8256 1f3c cd94 8a3c
00000050: 706d 1bbc e0f2 c1ba 377a 5cbc 94ca 8b3b
00000060: 74a9 51bb c0d1 5e3c 450f a53c 586c 9dbb
00000070: bd7a bc3b 125d 5dbc 4be8 91bc 81d3 cebc
00000080: 558a 5e3b 772f 8cbc 0a56 983c 1c58 05bc
00000090: db98 80bc bbfa c5bc 153b 3b3c d3bb 8bbc
000000a0: 04e1 193c d037 32bb 5820 ac3c cf0f 13bc
000000b0: 2a3e e53c 7dbc 24bd 9883 963b b982 9bbc
000000c0: ea6f 963c c25d 2cbc 40ac f23b 9dc9 a4bc
000000d0: 6acd e9bc 3dd9 b43c 9bb5 06ba 2a3c adbc
000000e0: ca2b 283d b96f 813c 67b5 bbbc 5091 ebbc
000000f0: 9d2f 0fbc 6998 273d 7ff0 81bb 7e34 38bd
00000100: a2f1 90bc 712f 9e3c ea9e 0c3c 9bd1 ce3b
00000110: 4168 4cbc ef64 a83b 5507 ef3b 84b6 0dbc
00000120: 296e c73b 3974 423b 9417 b0bc 05d0 53bc
00000130: 74bf 4a3b 92ab 2dbb 1834 c13b 475a 9b3a
00000140: 0917 91bc 4191 04bd 0772 e6bb 69bb 733b
00000150: 8fdd 29bc 97ec 943c 9223 8c3c 638e 003c
00000160: 33ed e93c a503 bebc a4dc 0abd aba5 a8bc
00000170: 246d 01bc 6e71 273b 589c 143a b5b2 0ebc
00000180: cd30 1abb 598c 8abc f3e5 f7bc 7d4d b8b9
00000190: 4c6a 533c 74a4 08bc 6ed0 a9bc 0fe9 c4bc
000001a0: 02bd f33c 0579 48bd 4011 e83c a401 bbbb
000001b0: 7df8 dbbb f796 5bbc c4c5 aa3b c388 f9ba
000001c0: adf9 afbc b2f9 aa3c 0053 7ebc f25b ed3b
000001d0: 3e39 04bd 25e6 ffbc e9a2 7d3b 444f b73c
000001e0: 8e42 d5bb 4de0 1cbc 108e 9fbc ca49 9c3b
000001f0: 75ff 733c dd66 673d 6714 61bc a914 fdbc
00000200: e498 9cbc ab8c 9dbc 9e2a 2e3b 0691 a03c
00000210: f6e2 a63b 34c4 1abb 0d21 c73b 8b22 06bc
00000220: 99ae 823b 62b7 bebc a41b 073c 8c5e fcbc
00000230: c604 723c fcb3 14bc 50e9 02bc 9935 1abc
00000240: 3744 ef3a 6e5d ee3b 73ca 6ebc 68ff 06bd
00000250: 048b 2dbd 8791 7dbc c7f0 513c 46c6 0cba
00000260: b425 debb 8bca bc3c 52e1 f9ba fe6f 7abc
00000270: a328 9abc 5d3b 983a e6dc 45bd eadd 303c
00000280: de70 43bb 6b03 59bd d49b 9fbb 3375 a63b
00000290: a1f0 853c 7b69 46bb 9b3f cd3c ca74 4abd
000002a0: c884 a2bc 3ef4 c83a 3c51 c5bc 82c0 c83c
000002b0: 8c23 563c 7024 f2bc 8609 d4bb cf82 003d
000002c0: 8931 02bd 1980 a53c 9de2 aa3c e09a d93c
000002d0: 98ea 753b 2617 02bd 3205 37bc cfa8 bbbc
000002e0: f053 e8bc 0e7c 4dbc 3aa0 1f3c bf77 00bd
000002f0: 4228 803b f576 e5bc 44ea 04bd 12f4 313c
00000300: a679 49bd 55db babb ea3c ea3b 6647 22bd
00000310: 5cbd fc3a def1 8b3c 261b 5fbc 75bc 85bb
00000320: 2d7e 31ba 0e83 d5bb d70d 67bc 9904 d33a
00000330: b358 173b 1a4e 95bc 4b9e fa3c fade 9d3c
00000340: 96a0 87bc ddad 70bc 3eeb e3bb c31f 69bb
00000350: d015 a03b 2290 1dbd 8e3e 3338 0adb 6abb
00000360: a29a 893c bde3 c33a cef1 233c eedf 973b
00000370: 2e60 c9bc 6a46 7fbc c676 783b ddd7 b2bb
00000380: 866d 5abc 99dd 9fbb 5c67 273b 85c9 0f3d
00000390: 9871 6d3d b798 073c 1e68 253c a12c 7fbb
000003a0: 86bb 0e3c 92a8 223c 0f6b dd3c 6ecd 823c
000003b0: 75a2 ed3b d2a0 803c bed4 6abc b24f 68bd
000003c0: 1d33 a1bb d0f5 2cbd 5b74 443b 2a6e 763c
000003d0: 98cd 773c bce8 3eba 35af 12bc ddeb a1bc
000003e0: 3575 4b3d 50ae 3e3c 3982 e53c 4d49 a7bc
000003f0: f416 90bc 5d41 083d 07d1 9ebc 95e6 fcbc
0.0050580576 -0.028051496 0.0011659645 0.02846893 0.020694895 -0.004197264 0.029901033 0.03606384
-0.010088626 0.002462137 0.029733624 -0.014168198 -0.028993117 0.028598499 -0.042286042 0.024847457
0.013385596 -0.0037468623 0.009725215 0.016916657 -0.009486541 -0.0014797114 -0.013456873 0.0042660926
-0.003199187 0.013599813 0.020148883 -0.0048041753 0.005751936 -0.013510959 -0.017810961 -0.025247337
0.0033956964 -0.017112477 0.018595714 -0.008138683 -0.015697887 -0.02416741 0.0114276605 -0.017057335
0.009392027 -0.0027193911 0.021011516 -0.008975937 0.027983744 -0.04021882 0.004593324 -0.018983232
0.018363912 -0.0105204005 0.0074057877 -0.020115668 -0.028540332 0.022076244 -0.00051387557 -0.021146853
0.041057386 0.015800344 -0.022913648 -0.028755814 -0.008739379 0.040916834 -0.003965437 -0.044971935
-0.017693345 0.019309731 0.00858281 0.006311608 -0.012476028 0.0051389853 0.007294575 -0.008649472
0.00608613 0.0029671325 -0.021495618 -0.012928014 0.003093687 -0.002649997 0.0058961026 0.0011852466
-0.01771118 -0.032365087 -0.007032636 0.0037190563 -0.010367765 0.018179221 0.017106805 0.007846448
0.028555488 -0.023195097 -0.033901826 -0.02058681 -0.007899556 0.0025549787 0.0005669049 -0.008709599
-0.0023527623 -0.016912626 -0.030261016 -0.00035152948 0.012903761 -0.00833999 -0.02072927 -0.024036912
0.029753212 -0.04894354 0.028328538 -0.0057069827 -0.0067129717 -0.013402692 0.005211564 -0.001903795
-0.02148136 0.020871017 -0.015522718 0.0072436268 -0.032281153 -0.031237671 0.0038701838 0.022376664
-0.006508178 -0.009574962 -0.01947692 0.0047695385 0.014892449 0.056494582 -0.013737774 -0.03089364
-0.019115873 -0.019232115 0.0026575695 0.019600403 0.005092974 -0.0023615481 0.006076938 -0.008186947
0.003988099 -0.023280803 0.008246336 -0.030806802 0.014771646 -0.009076115 -0.007990196 -0.009412193
0.0018254583 0.0072743213 -0.014574635 -0.032958418 -0.042368904 -0.015476591 0.012813753 -0.0005370121
-0.006779397 0.023045799 -0.0019064343 -0.01528549 -0.018818205 0.0011614371 -0.04830637 0.010795096
-0.0029821913 -0.052981775 -0.004870871 0.005079889 0.016350092 -0.0030275274 0.025054744 -0.049427785
-0.019838706 0.0015331579 -0.024086587 0.024505857 0.0130699985 -0.02955839 -0.006470862 0.03137475
-0.03178552 0.020202683 0.02086001 0.026563108 0.0037523862 -0.031760357 -0.011170672 -0.022907643
-0.028360337 -0.012541784 0.009742791 -0.0313642 0.003911049 -0.028010825 -0.032449976 0.010861414
-0.04918828 -0.005702416 0.007148375 -0.039618872 0.0019282508 0.017083105 -0.013617313 -0.0040813037
-0.0006770816 -0.006515867 -0.014102421 0.0016099393 0.002309364 -0.018225718 0.030593058 0.019271363
-0.016556066 -0.01468989 -0.0069555333 -0.003557191 0.0048854128 -0.038467534 4.2735184e-05 -0.0035836124
0.016797367 0.0014945191 0.010006381 0.004634849 -0.024581995 -0.015580753 0.0037912591 -0.005457862
-0.0133317765 -0.0048787114 0.0025543785 0.035104293 0.05796966 0.008276156 0.010095624 -0.0038936513
0.008711701 0.009927886 0.027028589 0.015967097 0.0072520324 0.015701685 -0.014332948 -0.05671663
-0.0049194233 -0.042226613 0.002997658 0.015040914 0.015124701 -0.0007282605 -0.008952905 -0.019765789
0.049672324 0.011638239 0.028016197 -0.020420695 -0.01758907 0.03326546 -0.019386781 -0.030871669

encoder.0.attention.fc.bias f4 [32]
00000000: 0000 0000 0000 0000 0000 0000 0000 0000
00000010: 0000 0000 0000 0000 0000 0000 0000 0000
00000020: 0000 0000 0000 0000 0000 0000 0000 0000
00000030: 0000 0000 0000 0000 0000 0000 0000 0000
00000040: 0000 0000 0000 0000 0000 0000 0000 0000
00000050: 0000 0000 0000 0000 0000 0000 0000 0000
00000060: 0000 0000 0000 0000 0000 0000 0000 0000
00000070: 0000 0000 0000 0000 0000 0000 0000 0000
0.0 0.0 0.0 0.0 0.0 0.0 0.0 0.0
0.0 0.0 0.0 0.0 0.0 0.0 0.0 0.0
0.0 0.0 0.0 0.0 0.0 0.0 0.0 0.0
0.0 0.0 0.0 0.0 0.0 0.0 0.0 0.0

encoder.0.fc1.weight f4 [64, 32]
00000000: f775 113d cd61 d0bc 53fd f9bc d169 bbbc
00000010: c6a1 6c3c 0de7 213d c8da 50bd 83a7 b5bc
00000020: 13f7 d1bb fcb8 133d e28b d53d eca5 6ebc
00000030: 225d b8bc bdce cd3c 971e fc3b 7bef 8dbd
00000040: 095b 85b7 79c7 153c 6f5c 023d 2cde 5c3c
00000050: 8fad 073d d751 94bc 20cd 9d3c 2e36 c23c
00000060: ff3f 0f3b 3a8f 473c bbde 88b8 7473 bf3a
00000070: 2d7a 813c 623c 12bc fe7d 86bc b2c8 04bd
00000080: 3ad5 ce3b 87e8 71bd d370 2bbd 5c1c 8d3d
00000090: a2b2 ae3c 02ae 5e3d f850 dd3a d6ac 153d
000000a0: 2927 3dbd c280 423c 9a98 66bd ef09 c7bc
000000b0: 327d 6b39 4bf9 e23c 5b10 81bd a28f 19bd
000000c0: 56d5 963d c170 423d 539c 4c3d 5e44 98bc
000000d0: badd 68bd a804 b33c ded3 46bc 46c2 f9bc
000000e0: 3dea e93a e609 6cbc 765b ccbb 154b 53b9
000000f0: 3162 60bc ed33 7dbd d7f5 32bd beda ec3a
00000100: fbab 543d cfa3 2fbc 8434 833b 4ac3 ebbc
00000110: a65d 52bc 4a15 3ebb e8c3 2bbd 99f9 ecbc
00000120: 1b18 ccbc 79a5 623c e261 863d 9032 b7bc
00000130: d74c 34bd ad67 bbbb 19c7 92bc c8fe a8bc
00000140: dc2e efbc 08a4 603c 2dcb c23c b3bb 453d
00000150: 6d6b 8c3d caa3 5bbd f377 52bc c066 f53b
00000160: c0a0 84bc c2d6 183c 5f7a 36bc 4fa4 3ebc
00000170: d4a0 06bc deec 0fbd 42d6 5e3d 57ef 0e3c
00000180: e455 50bb b45b 1ebd 498d 33bc ee30 0c3d
00000190: c81b 91bc 8f27 cb3b fc98 90bd a7e6 753c
000001a0: 28cf 94bc 8669 403d f9e9 843d d7ad 6bba
000001b0: 5a53 423d 90c8 933c ce72 97bc 9cdb f23c
000001c0: f8ec 623c 9970 163b 5759 26bc df12 09ba
000001d0: f816 8bbc 3f4a b83c 73d3 17bd e89d 3dbb
000001e0: 1e9c fb3c eb28 babc 2a0b 09bd 2dad 4e3d
000001f0: b8e0 4abd a827 173d 45b4 4abb c180 cdbb
00000200: dc7a c0bc 1962 f13c 0059 993c fa54 103d
00000210: bcd3 62bc f501 17bd 887a 8d3d 909e 6b3d
00000220: 40c4 e93c c4a3 22bd 91d2 43bc ec94 03bc
00000230: f342 06bc 366e b93c 895a dbbc 0bbe 093b
00000240: 9a93 2d3c 6751 583a e381 5a3c 62b1 25bc
00000250: d408 0cbd 89c4 c6bc 93a6 023d 7ccc 10bb
00000260: 8b36 83bc d93a bb3c f7ce 34ba c16a 4bbb
00000270: a993 52bc 2d10 a0bc 8cde 533c 511a a6bb
00000280: 7ead d83c 6414 9cbb 0cb1 973c 63f3 3fbc
00000290: 543e 073b f3ad b7bc 64b3 67bd 5207 90bb
000002a0: 0bd0 77bd 2c1b 413b a750 133c 904a 26bd
000002b0: 985a cfbb 8f42 4abc 9542 923c 2217 683c
000002c0: 2c02 013c 5630 50bc cf91 323c c2d6 6dbb
000002d0: 4d17 1bbc f4d9 07bd e012 f5bc e822 abbc
000002e0: 51bc ad3c ba18 043d 7548 853a a647 803c
000002f0: 29a7 04bc 1370 363a d3f3 18bc 854c 9ebc
00000300: 14d0 7c3c 5b85 d5bc 8e59 85bd cd68 a53d
00000310: 66c9 c83c 38a9 a33d df45 85bd 3c2a a83b
00000320: 6c8a 36bd 6e5d 86bb fef5 d5bd 7cc8 283d
00000330: f8b9 d33b 3587 133a 0ead 2bbd 6af3 243c
00000340: 1dc9 393d 5bdf b0bb ab61 243d 14d7 91bd
00000350: 729f 943c d6e0 e33c 7bfb 1cbd d9dc 1ebd
00000360: bef6 63bd 0cd4 23bd 05a6 1f3d 2158 a2bc
00000370: 8d2d 0b3c 7861 12bd b03b 663c 9a0e 98bd
00000380: 4a8c 2f3b 7f55 c33b 6f37 71bc a4a9 b7ba
00000390: 4f41 8739 0205 c5bc b981 653a c2bf 93bc
000003a0: 63da 6abd 3eb9 c9bb 625c 0d3d 5fc9 2cbd
000003b0: 4114 403d 1595 f4bb 6e0f 0b3d e2da 35bd
000003c0: dc04 813c e26a 5dbb 3bff 023d b49b d1bc
000003d0: 5bef 8d3c 816c bebc 5dcb 5dbc 8fc0 a03b
000003e0: 2452 01bd d203 a13c e65b 50bd 8b39 213d
000003f0: abf4 78bd 4dcf 983c c0e4 29bd 82cb d4bc
0.03551289 -0.02543726 -0.030516302 -0.022877606 0.014442867 0.039526988 -0.050989896 -0.022174602
-0.0064076274 0.036065087 0.10427071 -0.014565926 -0.022505347 0.025122995 0.0076940763 -0.06930443
-1.5897227e-05 0.009141796 0.031826433 0.013480704 0.033124503 -0.01810543 0.01926285 0.023707476
0.0021858213 0.012180144 -6.526472e-05 0.0014606551 0.015805328 -0.008925529 -0.0164175 -0.03241796
0.0063120397 -0.059059646 -0.041855644 0.06890175 0.021325413 0.054365166 0.0016885092 0.036541782
-0.046179924 0.011871519 -0.056297876 -0.024296729 0.00022457985 0.027706763 -0.06301948 -0.037490495
0.07364909 0.04747081 0.04995377 -0.018587288 -0.05685208 0.021852806 -0.012135474 -0.030488145
0.0017846298 -0.014406657 -0.006236489 -0.00020150498 -0.013695286 -0.0618171 -0.043691482 0.0018070561
0.051921826 -0.010720207 0.004004063 -0.028779645 -0.01283971 -0.0029004388 -0.041934878 -0.028927611
-0.024913838 0.013833397 0.065616384 -0.022362977 -0.044018593 -0.005719146 -0.017917203 -0.020629302
-0.029197149 0.013710983 0.023778522 0.048274707 0.06856427 -0.053623 -0.012845981 0.0074890554
-0.016189933 0.009328546 -0.011137574 -0.011635854 -0.008217055 -0.035138004 0.05440355 0.008724055
-0.0031789476 -0.038661674 -0.010958978 0.03422635 -0.017713442 0.006199784 -0.070604295 0.015008605
-0.018165186 0.046975635 0.06489939 -0.0008990443 0.04744277 0.018039972 -0.01848736 0.029645734
0.013850443 0.0022955297 -0.010153136 -0.0005228947 -0.016978726 0.02249634 -0.037066888 -0.002893323
0.03071409 -0.02272459 -0.033457913 0.050458122 -0.049530715 0.036903054 -0.0030930203 -0.006271452
-0.023496084 0.029465722 0.018719196 0.03523729 -0.013844427 -0.0368671 0.069081366 0.057524264
0.028535962 -0.03970696 -0.011952058 -0.008031111 -0.008194673 0.02263556 -0.026776569 0.0021017815
0.010594273 0.0008251876 0.0133366315 -0.010113092 -0.034188107 -0.024263637 0.03189714 -0.0022094538
-0.016017219 0.02285521 -0.0006897295 -0.0031038972 -0.012852588 -0.019538963 0.012931477 -0.005069055
0.026449915 -0.004763173 0.01851704 -0.011715743 0.0020636516 -0.022421813 -0.056567565 -0.004395404
-0.06050114 0.0029465659 0.008991397 -0.040598452 -0.0063279383 -0.01234497 0.017854014 0.014165672
0.007874053 -0.012706837 0.010899021 -0.0036291336 -0.009466005 -0.03316684 -0.029916227 -0.020890668
0.02120796 0.032250144 0.0010168689 0.015659165 -0.008096495 0.00069594494 -0.009335476 -0.019323597
0.015430469 -0.026064565 -0.06511222 0.0807663 0.024510097 0.0799126 -0.065074675 0.005131988
-0.044565603 -0.004100493 -0.1044731 0.04120682 0.006461378 0.00056277524 -0.041913085 0.0100678
0.045357812 -0.00539772 0.040132206 -0.07121101 0.018142436 0.027817171 -0.038325768 -0.038784835
-0.055655234 -0.039997146 0.038976688 -0.019817414 0.008494747 -0.035737485 0.014052317 -0.0742466
0.00267865 0.0059611197 -0.014722689 -0.0014012349 0.00025797865 -0.02405024 0.0008754987 -0.018035773
-0.057337176 -0.006156116 0.03451193 -0.04218423 0.046894316 -0.007464061 0.03395026 -0.044398196
0.015749387 -0.003378563 0.031981688 -0.02558694 0.017326048 -0.023245098 -0.013537255 0.0049057673
-0.031572476 0.019655142 -0.05086889 0.039361518 -0.06078021 0.018653536 -0.04147792 -0.025975946
