model/mnist/tune_lr0.001_ed64_nl4_nh4_fm2_ps4/temp_model.pt (torch, 597127 bytes, 74 tensors)

embedding.cls_token f4 [1, 1, 64]
000000 ca da d5 3c ce 80 ae bc 04 8c 4d 3c a6 2c 96 bc
       0.026105303 -0.021301653 0.012545589 -0.018331837
000010 d7 19 31 3d 13 5c ae bc 41 97 57 3b aa 39 05 bc
       0.043237533 -0.021284139 0.003289655 -0.008131424
000020 a5 d6 57 bd 68 7e 31 3d 62 3d d3 3c 2a 9a 1e be
       -0.052694935 0.04333344 0.025786106 -0.15488496
000030 a8 95 b4 3c 13 a5 9d bc 04 fc c5 3c 2a 1b 88 3d
       0.022044018 -0.019243753 0.024168022 0.06645806
000040 a7 e1 a2 bb 5c 3c 05 bd 68 67 d3 3c 19 05 ed 3a
       -0.0049707475 -0.032528266 0.025806144 0.0018083184
000050 3f 4d 29 3d 79 96 e7 bd 65 25 db 3c f2 17 12 bc
       0.041333433 -0.11307997 0.02675123 -0.008916842
000060 cc 8e 05 bc d3 ba 13 3d 95 ad 02 3b c3 23 98 3d
       -0.008151721 0.03606684 0.0019939889 0.07428696
000070 fb af 1e 3a e3 7e 8a 3c c5 51 26 bc bb 63 00 3e
       0.0006053445 0.016906207 -0.010151331 0.12538044
000080 dd 04 0e bc eb 7a f7 3b 92 f8 bb ba 4a 5d af 3c
       -0.008668152 0.0075524948 -0.0014341047 0.021406788
000090 d7 f5 cf 3c 93 9b 9a bc f3 1d 98 3c 62 52 dd bb
       0.02538578 -0.018873012 0.018568968 -0.0067542056
0000a0 1a e3 42 3c 14 9e 62 bd 5b a0 79 bd 9d e2 99 bc
       0.011894966 -0.055326536 -0.060943943 -0.018784815
0000b0 21 36 fe 3b 21 e4 61 bd ac dc c4 bb f2 81 89 bc
       0.0077579175 -0.0551492 -0.0060077514 -0.016785596
0000c0 03 1d dd 3b e0 c5 6e 3c b0 7b d8 3c 0b be ba bc
       0.006747843 0.014573544 0.026426166 -0.022795698
0000d0 e6 75 b4 bc fa 46 9d bc 52 60 80 3c dc 08 75 bb
       -0.022028875 -0.019198883 0.01567093 -0.0037389314
0000e0 9c de 5c bc 12 92 7d ba b9 6b 94 3c e4 33 26 3c
       -0.013480809 -0.000967295 0.018117772 0.010144208
0000f0 c9 29 a8 bc f3 8d 16 3d 7b 5d 25 3d ad fc 1f bd
       -0.020527737 0.036756467 0.040372353 -0.03905933

embedding.pos_embedding f4 [1, 50, 64]
000000 c4 da d5 3c ca 80 ae bc 07 8c 4d 3c a0 2c 96 bc
       0.026105292 -0.021301646 0.012545592 -0.018331826
000010 d9 19 31 3d 1e 5c ae bc 1b 97 57 3b b1 39 05 bc
       0.04323754 -0.02128416 0.0032896462 -0.0081314305
000020 a7 d6 57 bd 60 7e 31 3d 63 3d d3 3c 2c 9a 1e be
       -0.052694943 0.04333341 0.025786107 -0.154885
000030 aa 95 b4 3c 1b a5 9d bc 01 fc c5 3c 28 1b 88 3d
       0.022044022 -0.019243767 0.024168016 0.06645805
000040 a2 e1 a2 bb 5f 3c 05 bd 6b 67 d3 3c df 04 ed 3a
       -0.004970745 -0.032528277 0.02580615 0.0018083117
000050 3b 4d 29 3d 74 96 e7 bd 57 25 db 3c da 17 12 bc
       0.04133342 -0.113079935 0.026751203 -0.0089168195
000060 c6 8e 05 bc cf ba 13 3d 5b ad 02 3b cc 23 98 3d
       -0.008151716 0.036066826 0.0019939754 0.07428703
000070 b8 af 1e 3a e3 7e 8a 3c bc 51 26 bc be 63 00 3e
       0.0006053406 0.016906207 -0.010151323 0.12538049
000080 cf 04 0e bc ea 7a f7 3b 80 f8 bb ba 40 5d af 3c
       -0.008668139 0.0075524943 -0.0014341027 0.02140677
000090 c8 f5 cf 3c 93 9b 9a bc eb 1d 98 3c 70 52 dd bb
       0.025385752 -0.018873012 0.018568953 -0.006754212
0000a0 00 e3 42 3c 16 9e 62 bd 55 a0 79 bd a0 e2 99 bc
       0.011894941 -0.055326544 -0.06094392 -0.018784821
0000b0 0f 36 fe 3b 2e e4 61 bd a6 dc c4 bb f4 81 89 bc
       0.007757909 -0.05514925 -0.0060077487 -0.0167856
0000c0 01 1d dd 3b e5 c5 6e 3c af 7b d8 3c 13 be ba bc
       0.0067478423 0.014573549 0.026426164 -0.022795713
0000d0 eb 75 b4 bc e2 46 9d bc 4f 60 80 3c f4 08 75 bb
       -0.022028884 -0.019198839 0.015670924 -0.003738937
0000e0 a8 de 5c bc 8a 91 7d ba c3 6b 94 3c dc 33 26 3c
       -0.01348082 -0.0009672871 0.018117791 0.0101442
0000f0 c9 29 a8 bc f1 8d 16 3d 81 5d 25 3d ab fc 1f bd
       -0.020527737 0.03675646 0.040372375 -0.039059322
000100 93 5d 91 3c 72 5d 06 3e f8 3a 88 bc 78 df f1 bc
       0.017744815 0.13121584 -0.016629681 -0.029525504
000110 a4 5e 3a bd 3a c7 a1 3c f9 7c df bb c2 d5 a8 3d
       -0.045500413 0.019748319 -0.006820318 0.08243896
000120 13 89 3a bd 7a bc a3 bc b4 a7 a9 bd b0 11 00 3c
       -0.04554088 -0.019987334 -0.0828394 0.007816717
000130 8f 3e bf ba 26 bc 10 bc 6a e1 cc 3c 9f e4 87 bc
       -0.0014590787 -0.008833921 0.02500983 -0.016588507
000140 fe 7f f3 3c 4f 4e fa 3b 80 43 0f bd 77 72 b6 3d
       0.029724117 0.0076387296 -0.034976482 0.08908551
000150 47 f9 96 bd bb 42 72 3c 30 2c ad bc ac 1e c8 3d
       -0.07371765 0.014786418 -0.021139234 0.09771475
000160 67 d6 a3 bc 86 71 3b bd 4c 0b d1 3c b5 1b 9c bd
       -0.019999696 -0.04576256 0.025518082 -0.07622472
000170 30 68 4b 3c 54 03 45 3c a1 cf 00 bc 43 03 87 3c
       0.012414977 0.012024719 -0.007862003 0.016481047
000180 1d 23 9d 3d ac a9 80 3b d4 31 44 3d 2f 51 d1 3c
       0.07672713 0.0039264765 0.047899082 0.025551407
000190 cd 6b 87 3d 50 71 ce 3c 8c a7 05 bd ce ee 3b 3d
       0.06612358 0.025200516 -0.03263049 0.04588204
0001a0 b1 06 a8 bc ec 61 8e bd 6c 16 63 3d a3 a7 19 bd
       -0.020511003 -0.06952271 0.055441305 -0.037513386
0001b0 d6 10 11 3d 2c 90 de bc 6c 69 99 bc 56 f6 8b bc
       0.035416447 -0.027168356 -0.018727027 -0.017085236
0001c0 f0 d9 46 bd 3a 8d 9a ba f7 11 9c bb 84 72 3a 3c
       -0.048547685 -0.0011791356 -0.0047628838 0.011379842
0001d0 97 8a aa 3d c7 20 71 3d 12 6f 5c bd 57 f8 a4 bd
       0.08327215 0.05886915 -0.053816862 -0.080551796
0001e0 f0 38 c9 bc 99 b6 1d 3d 15 04 68 bc 20 21 11 3b
       -0.024563283 0.038504217 -0.0141611295 0.0022144988
0001f0 4b 89 02 3d 6a 12 e2 3c a2 a8 f7 ba 3a c0 02 3d
       0.031869214 0.027596671 -0.0018894861 0.031921603
000200 79 02 09 3c 8d 25 07 3e 61 5a 93 bc 50 dd e8 bc
       0.008362406 0.13197918 -0.017987432 -0.028425843
000210 03 cd 21 bd 57 0b c9 3c 70 6f 95 bb aa 59 90 3d
       -0.039502155 0.02454154 -0.0045604035 0.07048352
000220 39 ec 1b bd e8 ef a0 3b 64 5f a6 bd 70 32 01 3d
       -0.038067076 0.0049114116 -0.08123663 0.03154224
000230 35 de e8 b8 b5 74 f6 3a bb 2f e3 3c 12 63 b4 bc
       -0.00011104011 0.0018803092 0.02773272 -0.022019897
000240 41 77 c7 3c 95 38 81 3c 5a 72 17 bd 9d 92 cc 3d
       0.024348857 0.01577405 -0.03697429 0.09988902
000250 14 88 91 bd 2b 1c 98 3c 09 33 05 bd 03 b4 cf 3d
       -0.07106033 0.018568119 -0.032519374 0.101417564
000260 5d f2 97 bc b8 3d 55 bd 91 b2 98 3c f4 0a a3 bd
       -0.018548185 -0.052060813 0.018639835 -0.079610735
000270 7b a5 c9 3b e8 e6 15 3c 26 5c 40 bc 88 28 47 b9
       0.00615376 0.009149291 -0.01174072 -0.00018993218
000280 51 b3 ab 3d 85 a3 ff 3a 29 8d 22 3d fd e0 b2 3c
       0.08383811 0.0019503689 0.039685402 0.021835798
000290 e2 96 84 3d 8b 33 8a 3c 55 44 f7 bc 7a 3f 55 3d
       0.06474091 0.01687028 -0.03018395 0.05206249
0002a0 8f 10 85 bc 91 0c 84 bd 5c 65 6b 3d 7b 8c 22 bd
       -0.016243247 -0.06447709 0.05746971 -0.039684754
0002b0 0f 07 fd 3c 6b ec f9 bc c3 51 a9 bc 27 ff 93 bc
       0.030887155 -0.03050824 -0.02066887 -0.018066002
0002c0 e5 a9 56 bd 38 bf cc bb 9a 59 d8 3a 71 70 19 3c
       -0.052408118 -0.006248381 0.0016506196 0.009365187
0002d0 1f 0d ae 3d 61 ab 77 3d 25 a1 9b bd 58 34 95 bd
       0.084985964 0.060466174 -0.07599095 -0.072853744
0002e0 a3 2d d5 bb 23 2f 1f 3d 65 de db bc b0 a7 35 3c
       -0.0065056845 0.038863312 -0.026839444 0.011087343
0002f0 e2 20 21 3d 04 fe 03 3c 8e 2d c9 3a a2 be 0f 3d
       0.039338 0.0080561675 0.0015348659 0.03509391
000300 82 38 8c bd 80 23 5c 3e fb ba 87 3d c2 87 81 3c
       -0.068467155 0.21497917 0.066274606 0.015811805
000310 54 5a 7f bd 20 f3 fd bc da d5 9c bc 27 9e c2 3c
       -0.062342003 -0.03099972 -0.019144941 0.023757054
000320 db 36 e1 bc 67 1b 19 3d 61 c2 21 bd a2 6c f3 3d
       -0.027491977 0.03737965 -0.039492015 0.118859544
000330 31 78 1e bd e6 7d 22 3e 48 96 93 bc 96 b2 de ba
       -0.038688842 0.15868339 -0.018015996 -0.0016990479
000340 0a f7 f9 3c 54 81 34 3c e9 b8 2e bc 5b 88 70 3d
       0.030513305 0.011017162 -0.010664203 0.05872379
000350 1a 2c 8e bd 5b df 1f 3c 10 fa 4b bd 81 f3 a2 3d
       -0.069420055 0.009757842 -0.049799025 0.07956601
000360 52 8d 05 bd d3 6a 76 bd eb b3 b8 3c 58 9a 03 be
       -0.032605477 -0.06016047 0.02254673 -0.12851846
000370 07 c5 0a 3d 72 bf 72 bd 11 ff 94 bb 38 2e 87 3c
       0.033879306 -0.059264608 -0.004547008 0.016501531
000380 cc 57 af 3d a2 1c 82 bb d9 e5 46 3c ba d9 96 bd
       0.08561668 -0.0039706985 0.012139761 -0.07365747
000390 6c 2c 2c 3d 2b ce 65 bd d9 df e2 3c 51 9b 52 3d
       0.04203455 -0.05610482 0.02769463 0.051417653
0003a0 bb d8 40 bd 3d a4 44 bc 49 1a ac 3c c4 8d 98 bd
       -0.04708169 -0.012002048 0.021008627 -0.07448915
0003b0 1c 67 89 ba 03 c8 76 bd ff 78 85 3b b6 ea 12 bd
       -0.0010483 -0.06024934 0.0040732617 -0.03586837
0003c0 2e a2 43 bc 1a 39 8f 3c 3d 32 90 3d d1 2b 0c 3d
       -0.011940522 0.017483283 0.07040832 0.034221474
0003d0 04 db 65 3d b8 6e bd 3d 8f 21 ea bd 3a f2 b9 bc
       0.056117073 0.092496336 -0.11432182 -0.02269851
0003e0 48 5b 62 3d ca b7 10 3d 14 6e 95 bd 1e bc 4b bd
       0.055262834 0.035331525 -0.07296386 -0.04973995
0003f0 dc 96 ce 3d 84 50 a2 bd 02 19 c2 bc 9a 4b ec 3d
       0.10087368 -0.079255134 -0.023693565 0.11537857

embedding.conv1.weight f4 [64, 1, 4, 4]
000000 4e b7 c1 3c 72 f8 8c 3a 59 5e 1b 3d 65 39 1c bd
       0.023646977 0.0010755195 0.037931774 -0.038140673
000010 b4 7f 7f 3c 3d 35 74 bc d1 d6 d4 bc 36 f2 7d bc
       0.015594412 -0.014905271 -0.025981339 -0.015499642
000020 7f 90 c2 3c 12 f5 eb bb a9 02 d6 bc 5e 5a 27 bd
       0.023750542 -0.0072008455 -0.026124315 -0.040857665
000030 d9 70 3d 3d b9 c3 d4 bc f9 70 52 bc 0a fb 7b bc
       0.046250198 -0.025972234 -0.012844318 -0.015379677
000040 ec 2e 6d 3b 6c be 0b 3d 0a 6f 2b 3c c6 80 98 bc
       0.0036191298 0.034117147 0.0104634855 -0.018616091
000050 b0 e0 a9 3c c1 04 0d 3c d9 ca 40 3d 80 a8 0a bd
       0.020737022 0.00860709 0.04706845 -0.0338521
000060 7f d5 d1 3c ad 96 48 3c e6 91 00 3d b7 8d 18 bd
       0.025614498 0.012242955 0.03138914 -0.037244525
000070 86 f1 ea 3c 20 4f 5f 3b 94 ae b5 bb 2c 3a f9 bc
       0.02867962 0.0034074262 -0.005544493 -0.030423246
000080 fd 6c c7 bc 62 fc f4 bb bc 34 d2 bc 63 2b 91 ba
       -0.024343962 -0.0074763754 -0.025659911 -0.0011075552
000090 1f 88 01 3d 72 df ad 3c 50 9a 88 3c ae 71 b4 3c
       0.031623956 0.021224711 0.016675144 0.022026863
0000a0 95 b7 b1 bc bd 13 60 bc ea 37 98 3b 7c c1 d8 39
       -0.021693984 -0.013676581 0.0046453374 0.00041342888
0000b0 f4 0a e6 3b 00 f9 57 ba 2f ca e3 3c c4 b2 43 3c
       0.0070203487 -0.0008238703 0.02780637 0.0119444765
0000c0 3e ca 55 3c 4f 31 b6 ba 91 0f ec 3a 1b ff a7 bc
       0.013048707 -0.0013900193 0.001801001 -0.020507386
0000d0 79 22 78 3c 7a 45 0d 3c be 58 c0 3c 29 4f e6 bc
       0.015144938 0.008622522 0.023479816 -0.028113918
0000e0 00 12 14 3d 91 80 cc 3c a6 d2 9e 3c 09 b0 87 bb
       0.03614998 0.024963649 0.019387554 -0.004140858
0000f0 b0 3a 80 bc d9 98 1c bd 97 a7 d1 bc 31 6b 0d bd
       -0.015652984 -0.038231704 -0.025592608 -0.034526054
000100 de e7 db bc f6 29 1c bc 04 be b4 bc 04 d3 d3 3a
       -0.026843961 -0.009531489 -0.022063263 0.001616091
000110 a8 30 ae bb 0e b5 ed bc 26 5b e3 3b a9 f1 13 3d
       -0.005315859 -0.029016998 0.006938356 0.036119137
000120 af 0f e8 bc 69 7e 8d 3c e6 f5 a5 bb 43 fe 56 3c
       -0.028327791 0.017272191 -0.005064714 0.013122144
000130 93 f7 eb bc 74 2f 00 bc cc e7 e9 3c 8a a3 be 3c
       -0.028804576 -0.007823814 0.028552912 0.02327134
000140 99 e7 0c 3c 46 1b 7d b9 cb b7 8c 3c 36 9f 80 3c
       0.008600139 -0.0002413812 0.017177483 0.015700918
000150 8c 67 fd 3c 26 27 be bc da fb af bc f1 08 cb bc
       0.030933164 -0.023212027 -0.021482397 -0.024784537
000160 12 13 3b 3d fc 8c 11 bd 40 82 07 3d 25 aa 08 bd
       0.045672484 -0.035534844 0.0330832 -0.033365387
000170 6d 5f 1e 3d f6 6f 82 37 c6 2d 0b 3d 6b 31 cd bc
       0.038665224 1.5549344e-05 0.0339792 -0.025047978
000180 c6 4c 00 3b 7d be 1a 3c 34 0f d6 bc 29 2b ef bc
       0.001957701 0.00944483 -0.026130296 -0.029195385
000190 da 0a 4c bc c9 13 b0 bc 1a 92 da 3a a1 0b 09 bd
       -0.012453759 -0.02149381 0.0016675622 -0.033458356
0001a0 58 da 5c bb 27 4f 70 bc 3e 98 66 bd 52 fa 05 bd
       -0.003369948 -0.014667309 -0.056297533 -0.032709427
0001b0 a6 d1 4f 3d 41 05 b8 3c af 63 b1 3b 49 5f c8 3c
       0.050737046 0.022463443 0.0054134945 0.024459498
0001c0 b2 7c 42 38 63 29 99 3c 0d 59 84 bb fc f0 f3 3b
       4.6369336e-05 0.018696493 -0.004038936 0.007444499
0001d0 dc 3e 43 bd f3 8f 39 3d 3f 5d a8 3b 72 af d4 bb
       -0.04766737 0.045303296 0.005138069 -0.0064906413
0001e0 88 51 2a bb 65 c0 7e 3c 97 47 83 3c 6f 44 fd bc
       -0.0025988538 0.0155488 0.016025348 -0.03091642
0001f0 04 00 b8 bb fe 39 06 3d c1 d0 f8 3b cd 15 26 3d
       -0.0056152362 0.03277015 0.007593245 0.040548135
000200 22 d2 b7 3c 07 86 b0 3b 5d ae 10 bc 97 43 c5 3c
       0.022439066 0.005387071 -0.008830634 0.02408008
000210 07 c7 d8 bc ba 43 44 bd f2 63 23 bd 3b 57 f1 3c
       -0.026462091 -0.04791615 -0.039890237 0.02946054
000220 90 76 47 bd 79 b2 08 bd b5 2e 32 bc 2a 6e 92 bc
       -0.048697054 -0.03337333 -0.010875394 -0.017874796
000230 17 da 9b bd ea c0 17 bd d1 9b cc 3b 3d fb b8 3c
       -0.07609957 -0.03704921 0.0062441607 0.022580737
000240 c8 60 1b 3d d0 e7 eb 3b 7a 7c de bc 85 c1 60 bd
       0.037934095 0.007199265 -0.027158964 -0.054872055
000250 e3 44 62 3c 63 65 c3 bb 1b df 0e bd cb df 09 bd
       0.013810369 -0.005963014 -0.03488074 -0.03366069
000260 6c 98 34 bb c7 e5 13 bd 70 0e 9c bc f3 b4 97 3b
       -0.002755667 -0.036107805 -0.019049853 0.004629725
000270 72 0c 3a bd 22 92 83 bc 02 5c 1f bc 55 58 3d 3d
       -0.045422025 -0.016060892 -0.009726526 0.046226818
000280 18 42 d5 3c b2 60 a6 3c c7 2d c7 3c 2b 3b 4d bb
       0.026032493 0.02030978 0.02431382 -0.0031315784
000290 e2 69 51 bc 65 43 83 bb 33 33 07 bd 5e 88 0a bd
       -0.012781592 -0.004005837 -0.03300781 -0.033821456
0002a0 0d 82 63 bc ab 5f 05 bc f3 aa d8 bc d6 96 07 bd
       -0.013885987 -0.008140485 -0.026448702 -0.033102833
0002b0 27 21 ed 3c 69 87 39 bb 29 a2 83 bc 45 2e 17 3d
       0.028946472 -0.002830947 -0.016068535 0.03690936
0002c0 28 00 73 3c dc cc a3 bc 5b c5 1c bd fb 78 0a bd
       0.01483158 -0.019995145 -0.03827415 -0.033806782
0002d0 56 ae 7f 3d 69 1b 8b 3c a5 15 8a bc 4b aa bd 3b
       0.06242212 0.016980844 -0.016856024 0.005788123
0002e0 ca ac 26 3d 7e f4 15 3a 04 e2 2c bc a6 37 08 3d
       0.04069213 0.0005720331 -0.010551933 0.033256195
0002f0 3b 2f b4 3c 68 b5 7c 3c 4a a6 fb bb 61 08 e0 3c
       0.021995177 0.01542411 -0.0076797353 0.027347745
000300 a9 44 ff bb 78 f5 63 3c 96 6e 13 bc 8b 6e 95 bb
       -0.0077901674 0.013913505 -0.008998534 -0.004560297
000310 56 11 92 ba 65 63 8d 3c ff b6 f1 3c 79 08 91 bc
       -0.0011144083 0.017259309 0.029506205 -0.017704235
000320 93 2d 74 3b 0f bd 5c 3b 33 23 0b bd f3 8e 3f 3c
       0.003725861 0.0033682024 -0.033969115 0.011691797
000330 f9 1c c6 3c d7 9e d2 bc 27 7b 87 bc 8b 34 6c bd
       0.024183737 -0.025710506 -0.016538216 -0.057667296
000340 00 21 e8 3c a3 87 35 bc 4c f8 16 3d a5 bb 1a bc
       0.028336048 -0.011079702 0.036857888 -0.009444152
000350 79 7c fc 3c d7 4c 42 3c 46 7f a8 ba 49 25 3b 3b
       0.030821072 0.01185914 -0.0012855313 0.002855616
000360 4f d1 4a 3d c4 88 b4 3c d4 30 1b bc 4b 00 79 3c
       0.04951602 0.022037871 -0.009472091 0.015197824
000370 b0 cb 5e 3a 1e eb 1b bd c3 a3 ea bc 55 60 96 3b
       0.000849898 -0.038066022 -0.02864254 0.0045891204
000380 64 68 9c bb c5 5e 21 bd 21 13 43 bd 91 48 da bc
       -0.0047731865 -0.03939702 -0.047625665 -0.02664593
000390 cd 5f 14 3d 92 9b c5 bc df e3 05 bd b7 72 d7 bc
       0.036224175 -0.024122033 -0.032688018 -0.026299817
0003a0 87 00 30 3d dc 88 84 bd 10 85 eb bc 07 4d f2 bc
       0.042969253 -0.06471416 -0.028749973 -0.029577745
0003b0 0c fe 8f 3d bd 25 4b 3d 60 bd 19 3d a0 c8 47 3d
       0.070308775 0.049596537 0.037534118 0.048775315
0003c0 bf 09 f6 bb 80 42 d3 3c e1 e2 c1 3c 08 a0 42 3d
       -0.007508486 0.025788546 0.023667755 0.0475159
0003d0 7c 00 fd bc b7 e6 51 bc 96 7c f7 bc 99 89 c8 bc
       -0.03088402 -0.012811354 -0.030210774 -0.024479674
0003e0 cf cd 35 3c 4f e8 08 bd b7 5f 67 bd 4b 4a 90 bb
       0.011096432 -0.03342467 -0.056487765 -0.0044033877
0003f0 bd be 7c 3d 4c 6a e2 bc 00 81 c4 bc 96 66 2e bc
       0.06170534 -0.027638577 -0.023987293 -0.010644576

embedding.conv1.bias f4 [64]
000000 ae 63 f7 bc e6 8a d2 3c 83 c1 c4 3c 00 25 ed 3c
       -0.030198898 0.025700998 0.024018055 0.028948307
000010 98 6d bc bc 11 14 6c 3c 58 90 73 bd 24 77 ba 3c
       -0.023001477 0.014409081 -0.05946383 0.022761889
000020 7a ae 2f bd 5c cb 64 bd 42 3a ab bc f2 5f 76 3d
       -0.042891003 -0.055858 -0.020901803 0.060150094
000030 7d 96 41 bd 4c da 66 3d 12 a7 81 bc 2f 42 21 bd
       -0.047262657 0.056360528 -0.015826736 -0.03936976
000040 d2 3f 14 bd ba 41 53 3d 6e 42 ec 3c 26 3e 19 3d
       -0.036193676 0.051576354 0.02884027 0.037412785
000050 6e ba 10 3d ec 51 0b bd 42 73 0d bc dc 61 9c 3c
       0.035334043 -0.034013674 -0.008633437 0.019089632
000060 da 39 81 bc c6 00 a1 bd 54 25 1a 3d eb 4b f9 3c
       -0.015774656 -0.07861476 0.037633255 0.030431708
000070 63 e7 6e 3d 88 a5 65 bd f0 6a 65 3d 9d 0d 94 bc
       0.058326136 -0.056066066 0.056010187 -0.018072898
000080 76 a6 01 3b b3 c6 99 bc 79 fb 67 bb c1 eb f8 bc
       0.0019783056 -0.018771505 -0.0035397692 -0.030385854
000090 96 10 3b bc b1 9c 22 3d 50 42 30 bc 5b ee 23 3d
       -0.011417529 0.039700214 -0.010757998 0.040022235
0000a0 bf fa a0 bc e2 13 2f bc 31 e2 e3 bc 30 b5 04 3d
       -0.019650815 -0.010685893 -0.027817817 0.032399356
0000b0 af 84 0d bd 54 cf 1c 3c d6 f6 ab ba b1 27 3e 3c
       -0.034550365 0.009570915 -0.0013119827 0.011606143
0000c0 fc f5 62 3d e7 51 b1 3c fe 96 4f 3c 88 4d e8 3c
       0.05541037 0.0216455 0.012670277 0.028357282
0000d0 7a cb fb bc 7c 56 26 3d 4f e7 6a bc 12 2d e3 3b
       -0.030736674 0.04060982 -0.014337375 0.006932863
0000e0 b8 b4 a1 bb f9 4a 1b bd a3 49 d5 bb bb 09 21 bd
       -0.0049348734 -0.037913296 -0.0065090223 -0.03931592
0000f0 be b0 3c 3d c8 30 9a bc 9a de 30 bd 54 b5 be 3c
       0.046066992 -0.018822089 -0.04318104 0.023279823

encoder.0.attention.queries.weight f4 [64, 64]
000000 90 7e 65 3d 65 34 5a 3c d7 2f c8 3d 1f 1f 60 bd
       0.056028903 0.013318156 0.0977475 -0.05471718
000010 70 60 4d bd 55 12 88 bd 52 5b 50 3d 91 ee c1 3d
       -0.050140798 -0.066441216 0.05086834 0.09469331
000020 2d 9a b2 bd 98 60 6f 3d 00 c2 3e be 47 99 7e bd
       -0.08720813 0.05844173 -0.18628693 -0.062157895
000030 8d 13 ce bd d4 29 ed bd 75 04 a4 3d 53 72 0f 3d
       -0.10062323 -0.11580244 0.080086626 0.035021137
000040 8f ed b4 3d 91 80 8c 3d 02 6c 7d bc 96 e3 f2 3d
       0.08834373 0.068604596 -0.015467646 0.11859815
000050 8e 4c 88 3d 7c 2e 57 3d 65 7f 1b be 3b 94 03 3e
       0.06655227 0.052534565 -0.15185316 0.12849514
000060 07 a2 6c bc 6a 77 89 3d b3 08 01 bd 52 77 50 3d
       -0.014442927 0.067122295 -0.031502437 0.050895043
000070 03 ea 8a bd 87 62 93 3d f9 9c bf bd 72 ee 47 3e
       -0.067829154 0.07196527 -0.09356112 0.19524553
000080 4c 46 20 3e 8c 87 8a bd 1f 7c d0 3d 7f 96 7b 3d
       0.15651816 -0.06764135 0.10179924 0.06142282
000090 03 9c c9 3b 91 cb f3 bc 2c 05 8e bd 73 63 de ba
       0.0061526312 -0.029760154 -0.0693458 -0.0016966894
0000a0 f5 ee 16 be fd 50 69 bd 65 e5 d4 3c 6b d7 95 bc
       -0.14739592 -0.056962002 0.02598829 -0.018291196
0000b0 c0 02 f3 3c ea a7 90 bd 0c be 29 3e 74 7f 00 be
       0.029664397 -0.07063277 0.16576403 -0.1254862
0000c0 82 16 e7 3c 5d 82 38 bb 2b 65 cb 3d b2 41 22 3d
       0.028208975 -0.0028153874 0.09931406 0.039613433
0000d0 fe 68 34 bd ac e4 8f bc d9 dc 64 3d 4a a8 0c be
       -0.04404544 -0.017565094 0.05587468 -0.13736072
0000e0 a5 c9 a2 3d 5a cc ec 3c 79 6e 6f bb 42 13 c0 3d
       0.07948617 0.028906036 -0.0036534353 0.09378673
0000f0 7a a6 54 bb 12 15 ac 3b 50 9b b4 3c c1 a2 cd 3b
       -0.003244786 0.005251535 0.022046715 0.0062755053
000100 43 59 11 3d 37 c0 1c 3d de 0f b6 3d fc ee ac ba
       0.035485517 0.038269248 0.08889745 -0.0013193781
000110 85 b4 37 bc d6 a3 92 bd 33 c6 70 3c 09 28 59 3d
       -0.011212473 -0.071601555 0.014695692 0.053016696
000120 15 ff 9a bd aa 4f 52 3c 25 18 11 be 0a d1 fd bc
       -0.07568184 0.012836376 -0.14169367 -0.030983467
000130 eb b3 00 be 26 fd a3 bd 2a e6 99 3d 28 f3 4f 3d
       -0.12568633 -0.080072686 0.075146034 0.050769
000140 6b e1 d6 3d 62 f0 78 3d 42 84 bc 3c e5 f7 c4 3d
       0.10492214 0.060776122 0.023012284 0.09617595
000150 a6 73 4d 3d d9 fa 79 3d 27 42 ff bd 9a e1 dd 3d
       0.05015912 0.061030243 -0.124637894 0.10834046
000160 f7 21 81 3a bf d6 42 3d ae 43 d8 3c fa af 43 3c
       0.0009852041 0.04756808 0.02639946 0.011943812
000170 12 5c c5 bc 03 d4 cf 3d be e9 86 bd d7 9c 15 3e
       -0.024091754 0.1014786 -0.065875515 0.14610611
000180 bd 98 17 3e 99 ff a8 bd c2 e5 27 3e 90 88 a8 3d
       0.14804359 -0.082518764 0.1639624 0.08229172
000190 f6 7e 09 3d 53 20 ea bc 17 e7 7b bd a2 c5 70 39
       0.033568345 -0.028579867 -0.06149968 0.00022961808
0001a0 e4 dc 36 be ad 65 97 bd d9 44 e7 3c 1e 35 31 bd
       -0.178577 -0.0739244 0.028231071 -0.043263547
0001b0 c2 f4 f8 3c 24 4e 39 bd 31 0d 23 3e f3 91 05 be
       0.030390147 -0.045240536 0.15923001 -0.13043956
0001c0 b6 dd 3a 3d 6a f6 8f bc 47 2e c2 3d 5e 70 56 3d
       0.045621596 -0.017573554 0.09481483 0.052353255
0001d0 4e da 52 bd 69 2d d7 3b 6a 73 d8 3c 79 e6 e8 bd
       -0.051477723 0.0065666926 0.026422221 -0.11372084
0001e0 67 9a 8e 3d 6f 98 02 3d 45 6d 12 bc 8a de 06 3e
       0.06963044 0.031883653 -0.008937185 0.1317083
0001f0 14 e6 05 3c 76 d0 71 3d 75 d2 f8 3c e8 51 ac bc
       0.008172531 0.059036694 0.030373791 -0.02103515
000200 63 59 3b bd e5 f5 d7 bc b0 c7 c1 bd 7e 01 b7 3c
       -0.045739543 -0.026362369 -0.094619155 0.022339579
000210 87 1d 87 3d d6 f8 6e 3d 1f 94 07 bd 09 8d ba bd
       0.06597429 0.058342777 -0.033100244 -0.091089316
000220 3d 32 4d 3d ed ed 3d bd 92 62 49 3e cd 60 8f bb
       0.05009674 -0.04636948 0.19666508 -0.004375553
000230 14 36 cb 3d 96 87 24 3e d8 c2 b4 bd 9b 59 02 bd
       0.09922424 0.16067347 -0.08826226 -0.031823736
000240 4b 3e 83 bd f2 12 56 bd 3c cc aa 3c e6 25 0a be
       -0.06408366 -0.05226416 0.02084934 -0.1349102
000250 42 f0 83 bd 27 4d 61 bd af 63 3d 3e f1 7f da bd
       -0.0644231 -0.05500522 0.18495058 -0.10668934
000260 a3 03 9d 3b 73 75 51 bd 0f 86 e7 bc a8 6d 01 bd
       0.0047916933 -0.0511374 -0.028262166 -0.031598717
000270 ae 6c e9 3c 11 91 a7 bd fb b0 f5 3d 2f d6 11 be
       0.028494205 -0.08181966 0.11996647 -0.14241861
000280 82 85 49 be 47 19 d6 3d 5f 86 ff bd ab a3 8b bd
       -0.19679835 0.1045404 -0.12476801 -0.068183266
000290 79 c8 d6 b9 27 ec 06 3d c3 6d c2 3d 18 9c 2c 3d
       -0.00040966625 0.032940056 0.09493592 0.04214105
0002a0 e6 ec 14 3e d3 a0 c4 3d 08 4b 53 bc 60 4a 17 3d
       0.14543495 0.09600987 -0.012896307 0.036936164
0002b0 86 44 89 bd 5d 20 b2 3d 4e 60 38 be 21 e6 0c 3e
       -0.06702523 0.08697579 -0.18005487 0.13759662
0002c0 cb 05 92 3c b1 cb ba 3c 0c 7a 97 bd fa 91 17 bc
       0.017825028 0.022802206 -0.073963255 -0.009251112
0002d0 78 09 77 3d 02 b8 62 bb c3 dc 21 bd 46 50 cc 3d
       0.060311764 -0.003459454 -0.039517175 0.099762484
0002e0 75 2a ae bd d8 81 22 bd e0 54 ce 3c 6b 3d cf bd
       -0.08504192 -0.03967461 0.025186956 -0.101191364
0002f0 1b d3 13 bc 5e e8 d9 bc 06 d3 eb bb cf fc 26 3c
       -0.009022499 -0.02660006 -0.007196787 0.01019211
000300 3c c4 10 bd f0 9a dc 3c 7e 0c 10 be 79 34 02 3d
       -0.035343394 0.026929349 -0.14067265 0.031788323
000310 e5 5c cc 3b 02 aa 4c 3d 78 00 78 bd f7 52 fd bd
       0.00623666 0.04996682 -0.060547322 -0.1236934
000320 f0 e6 96 3d 49 1d 29 bd 5c 31 2b 3e bc c8 dd 3c
       0.073682666 -0.041287694 0.16718048 0.027073257
000330 b1 d1 c2 3d 1b a9 c8 3d 12 ad b5 bd 74 07 3d bd
       0.09512652 0.09797879 -0.08870901 -0.046149686
000340 df c2 08 be e1 ea 66 bd d6 c2 4c 3c 72 62 23 be
       -0.13355587 -0.05637634 0.012497624 -0.15955523
000350 9a 7f 78 bd db ef bf bc 98 22 1d 3e 8b 58 ad bd
       -0.060668565 -0.023429802 0.15345228 -0.08464154
000360 9f ff 37 3d 0c fe 9a bd b1 80 96 3c 52 24 bd bc
       0.044921514 -0.07567987 0.018371912 -0.023088608
000370 96 8d f2 3c 52 3b b3 bd 2f 5a d1 3d 72 11 27 be
       0.029608529 -0.08751549 0.10222279 -0.16315249
000380 50 a1 45 be db c9 73 3d 27 15 07 be 83 a5 71 bd
       -0.19299817 0.059518676 -0.13191663 -0.058995735
000390 54 47 14 bd d1 3a 91 3c 5a 7c 3d 3d 58 8f 24 3d
       -0.036200836 0.017728241 0.04626117 0.040175766
0003a0 ee a2 20 3e 03 19 9b 3d 8e 83 80 bc 1c dc 21 3d
       0.15687153 0.0757313 -0.01568773 0.039516553
0003b0 27 bc 26 bd 1c 3d 96 3d bc 00 16 be 0b eb ef 3d
       -0.04070678 0.073358744 -0.14648718 0.11714753
0003c0 8d 4c 8f bd 87 fa fe 39 46 69 ec bd e1 a1 ee bc
       -0.06997023 0.00048633313 -0.11543517 -0.029129924
0003d0 49 3a 67 3d b7 8b 71 bb 95 63 ad bd 42 07 c7 3d
       0.05645207 -0.0036856958 -0.084662594 0.09718181
0003e0 89 35 de bd d1 a1 04 bd 9a 91 38 3c 47 06 c2 bd
       -0.10850055 -0.032380883 0.011265183 -0.094738536
0003f0 9a 4f a9 3c f7 60 9c bc 2a ef 04 bd 9f 94 2f 3d
       0.02066784 -0.019089205 -0.032454647 0.042866345

encoder.0.attention.queries.bias f4 [64]
000000 a6 fb 1f be 16 c8 1d be ff f1 21 3e 96 81 1f 3e
       -0.1562334 -0.15408358 0.1581497 0.15576777
000010 5f e4 1b 3e 30 36 1c be b2 b3 1d be f1 be 1e be
       0.15223835 -0.15255046 -0.1540058 -0.15502526
000020 b4 39 21 3e 95 9c 1e be 34 00 1f 3e e4 cc 1a 3e
       0.15744668 -0.15489419 0.15527421 0.15117222
000030 ed cf 1d be c4 bf 1f be 5d 4e 21 be 7f 74 1e be
       -0.15411349 -0.15600497 -0.1575255 -0.15474127
000040 39 bf 0c be e7 b3 07 be 4e 38 0f be f8 e9 10 be
       -0.1374482 -0.13252221 -0.13986322 -0.14151752
000050 93 5d 08 be f7 fa 07 3e d4 b1 06 3e 45 ab 0b 3e
       -0.13316946 0.13279329 0.13153774 0.13639553
000060 79 89 0c 3e d4 09 17 3e ee 55 0f 3e 99 04 14 be
       0.13724317 0.14749843 0.13997623 -0.14454879
000070 fe 58 07 be d1 c8 0a be 1e f6 09 3e eb 6e 03 be
       -0.13217542 -0.13553168 0.13472793 -0.1283528
000080 2b 07 26 be 28 55 20 3e ae 3d 17 3e 27 79 2c 3e
       -0.16213672 0.15657485 0.14769623 0.16843091
000090 b7 fb 27 3e c7 fe 22 3e 57 24 27 3e cc d4 1d 3e
       0.16404615 0.15917502 0.16322456 0.15413207
0000a0 32 ad 26 3e ff 21 24 be e8 ae 26 3e a5 92 1f be
       0.16277006 -0.16028593 0.16277659 -0.15583284
0000b0 47 3d 2a 3e 16 8d 2e 3e 5d 01 21 3e c0 71 2a 3e
       0.16624938 0.17046008 0.15723176 0.16644955
0000c0 13 ee 1f be 37 9e 1f 3e 68 7a 20 3e 43 e9 14 be
       -0.15618162 0.15587698 0.15671694 -0.14542107
0000d0 fe 56 18 be 21 dd 17 3e 12 90 2b 3e ee b7 1a 3e
       -0.14876935 0.14830448 0.16754177 0.15109226
0000e0 76 6b 0e 3e 36 39 0d 3e e7 b7 2a be 9b 46 24 be
       0.1390818 0.13791355 -0.16671716 -0.16042559
0000f0 26 51 21 3e a6 4b 1e be a0 de 0a 3e c9 58 18 3e
       0.15753612 -0.15458545 0.13561487 0.14877619

encoder.0.attention.keys.weight f4 [64, 64]
000000 c3 ed bd bd 0a b5 c7 3b 90 b3 ba 3a 8c e8 6f 3d
       -0.09273865 0.0060945796 0.0014244188 0.058571383
000010 4a 1b ea 3c 15 9d 38 be 4a ef 0a 3d df 7c 13 be
       0.028577466 -0.18028672 0.03391961 -0.14403103
000020 90 be 56 3e fc df f4 3d 8f 89 b3 3e 6a 41 9b bd
       0.20971131 0.11956784 0.35065886 -0.07580836
000030 04 05 cc 3d 3c b9 ad 3c 30 4c 92 bd 1c 0b be 3c
       0.09961894 0.02120649 -0.07143438 0.023198657
000040 ea 8f 76 3d 86 65 e7 bd db 64 ff bc 32 8f ea bd
       0.06019584 -0.11298661 -0.031176021 -0.114530936
000050 e9 01 08 be 96 ce a8 bc 89 48 67 bc d1 23 8c bd
       -0.13281979 -0.02060632 -0.014116415 -0.06842769
000060 56 ae 53 3d 9b d1 b7 3d 03 a5 bf bc d2 d3 ff bd
       0.05167993 0.08975526 -0.023394113 -0.124915734
000070 ac 8f 0a be db 30 b4 3d d4 da ff bd cf 27 39 3e
       -0.13531369 0.08798381 -0.1249291 0.18081592
000080 8b 5e 0d be ee be 34 3d c7 5a e5 bd ab 8a 96 be
       -0.13805597 0.044127397 -0.11198955 -0.2940267
000090 89 4d cc bc 70 b1 95 be 5d 5e 36 3e 41 11 fc bd
       -0.024939315 -0.29236937 0.17809434 -0.123079784
0000a0 1d 86 4d 3e ee 30 23 3e f4 5c d6 3d 94 3f bf bd
       0.20070691 0.15936634 0.10466948 -0.093382984
0000b0 7c 97 2c 3d 67 44 4d bd 8e 86 f2 bc 40 c9 99 bd
       0.042136654 -0.05011406 -0.029605176 -0.075090885
0000c0 0e 1c 12 be e4 60 c6 bc 01 65 0b 3d 7c 64 1e bd
       -0.14268515 -0.024216123 0.03403187 -0.038670048
0000d0 52 b2 cb 3d 72 2d 64 be 2f 62 6d 3d 0b e3 60 3d
       0.09946121 -0.22282961 0.057954963 0.054904025
0000e0 50 a6 fd 3d b2 c5 b4 3d 1e 6c a8 bd 0b 39 25 3d
       0.12385237 0.0882677 -0.08223747 0.040337604
0000f0 ec 11 94 bd 2c 33 8b be f1 de f9 3d cf 88 00 3e
       -0.07229981 -0.2718748 0.12200726 0.12552188
000100 1e 38 36 bd 92 e6 3c 3d 71 35 24 bd 81 f3 9d 3d
       -0.04448711 0.046118326 -0.04009003 0.0771246
000110 c8 87 36 3d d2 7e 37 be 65 a0 a9 3d 05 55 d9 bd
       0.044563085 -0.17919472 0.08282546 -0.10611919
000120 0d c9 4f 3e 28 41 17 3e 68 6c db 3e 59 43 64 bd
       0.20291539 0.14770949 0.42856145 -0.05572829
000130 17 2d f0 3d 2e cc 7e 3b a0 6a d7 bc d3 bb 8e 3d
       0.1172735 0.0038879025 -0.02629596 0.069694184
000140 57 40 82 3d 29 21 dc bd 86 bb bf bc f8 51 28 be
       0.06359928 -0.10748512 -0.023404848 -0.16437519
000150 76 e0 01 be f8 0b 59 3d f1 7d 4f bc fd fa 3c bd
       -0.12683281 0.05298993 -0.012664304 -0.0461378
000160 f9 38 99 3c 3e 97 98 3d 3c ba 87 bd d0 8b 07 be
       0.018703924 0.07450722 -0.06627318 -0.13236928
000170 46 f3 04 be 9d 6e 9d 3d a0 e8 b5 bd 46 08 ff 3d
       -0.12983426 0.076871134 -0.0888226 0.1245275
000180 f4 d4 5d be 7d 0f f5 3c d7 d5 0e be 7a 0f 85 be
       -0.21663266 0.029914612 -0.13948761 -0.2598837
000190 45 f7 77 bd f9 b2 91 be d7 49 23 3e 43 13 d7 bd
       -0.06053855 -0.28456858 0.15946136 -0.10501721
0001a0 7d 8e 5f 3e 45 7a 3b 3e 8c e7 e5 3d 8a 65 84 bd
       0.21831699 0.18308361 0.11225805 -0.064646795
0001b0 fe aa 09 3d 4e fe 29 bd 2f e0 2b bb 61 f8 32 bd
       0.033610336 -0.04150229 -0.0026226153 -0.043693904
0001c0 ed 85 eb bd 67 a8 e5 bc 62 bf b5 3c 9d f9 41 bd
       -0.11500154 -0.028034402 0.022185985 -0.04735719
0001d0 af 6c 1f 3e 77 67 7b be 70 15 29 3d 2c 35 9d 3d
       0.15568803 -0.24551187 0.04128021 0.07676157
0001e0 a5 65 c7 3d f1 f1 11 3e 62 85 0c bd 59 ce 8b 3c
       0.09736184 0.1425245 -0.03430689 0.017066168
0001f0 94 0b 75 bd fa 53 88 be 26 9d fe 3d 39 81 08 3e
       -0.059825495 -0.2662657 0.124323174 0.13330545
000200 44 76 05 3e db fa 7a bd 72 08 15 3d 63 c3 ae bd
       0.13033396 -0.06127439 0.036385007 -0.08533361
000210 53 32 39 bd e9 c7 3c 3e 3b 1e 6f bd 06 1a 04 3e
       -0.04521401 0.18435635 -0.05837844 0.12900552
000220 cb ca 17 be 2c 11 f4 bd 24 c7 d6 be db d4 04 3e
       -0.14823453 -0.11917338 -0.41948807 0.12971823
000230 22 38 bb bd 3b 37 e1 bc 3c 97 85 3d 36 58 a5 bc
       -0.09141566 -0.027492156 0.06522986 -0.020183664
000240 c7 59 aa bd e0 2b 01 3e e9 76 ad 3c c9 38 14 3e
       -0.08317905 0.12614393 0.021174865 0.14474787
000250 35 cf e0 3d e1 17 66 3c dc 88 bb bc ab b2 18 3d
       0.109770216 0.014043779 -0.022892408 0.037279766
000260 0e a0 32 3a 1a 03 cb bd 14 f8 ae bb 01 bb 8d 3d
       0.0006814011 -0.09912701 -0.005339632 0.06920434
000270 a5 6e 0e 3e c8 ea 95 bd dc e1 ce 3d ad 68 e1 bd
       0.13909395 -0.073201716 0.10101673 -0.110062934
000280 0c fd 38 3e 7a ae aa bc 9f b4 de 3d 00 f9 9b 3e
       0.1806528 -0.02083515 0.108742945 0.3046341
000290 59 5e 10 bc f5 bc 98 3e 08 9b 03 be 3d 21 11 3e
       -0.008811557 0.29831663 -0.12852108 0.14172836
0002a0 24 00 19 be 4d a6 00 be a6 b4 d6 bd e2 b4 95 3d
       -0.1494146 -0.12563439 -0.10483675 0.07309891
0002b0 5f 2b 8f bd 77 bd 9c bc 7a 7c 82 3c 1f 1f 4c 3d
       -0.06990694 -0.019133313 0.015928496 0.049834367
0002c0 58 bf f4 3d 5d 28 ba 3c 74 f2 6c bd 73 a2 12 3b
       0.119505584 0.022724325 -0.05784841 0.002237466
0002d0 ed ba ec bd 37 81 81 3e 5c b6 33 bd 11 29 f7 bd
       -0.11559091 0.25293896 -0.043875083 -0.1206838
0002e0 8d d9 f9 bd b5 2c bd bd ea 2d e5 3c 8f ee 12 3d
       -0.12199698 -0.09237043 0.027975995 0.03587204
0002f0 f5 c0 8b 3d f3 35 86 3e 45 8e 17 be 88 29 05 be
       0.06823913 0.26213035 -0.14800365 -0.13004124
000300 c7 9d b3 3d a4 bc 81 bc 1f 1e 05 3d df 1b 11 be
       0.08770328 -0.015837021 0.03249943 -0.14170788
000310 51 7b d2 bc d7 6b 1a 3e b9 44 9d bd ef 85 28 3e
       -0.025693567 0.150802 -0.076791234 0.16457342
000320 88 d7 47 be 9d 65 11 be da 85 ca be 1b e9 9a 3d
       -0.19515812 -0.14198919 -0.39555246 0.075639926
000330 3b 66 f7 bd 3c 6c 64 bd 94 99 6a 3d 16 62 8b bd
       -0.12080046 -0.055767283 0.05727537 -0.06805818
000340 e6 62 8b bd 08 e2 0d 3e 20 a7 1e 3d 25 e5 e9 3d
       -0.06805973 0.13855755 0.0387336 0.11420659
000350 70 c0 10 3e 42 bf ef bc b1 7f d3 3c b2 32 a0 3d
       0.14135909 -0.029266004 0.025817724 0.07822169
000360 a0 ff 43 bd 87 2c 9f bd e1 cf ab 3d a5 7b b1 3d
       -0.047851205 -0.07772165 0.08389259 0.086661614
000370 c9 57 20 3e 76 51 80 bd c5 27 e0 3d 3a 80 39 be
       0.15658487 -0.062655374 0.109450854 -0.18115321
000380 fb 9b 2c 3e 89 4d f0 3c 1f a0 a9 3d 4c ca 90 3e
       0.16856377 0.029333847 0.08282494 0.2827934
000390 42 f6 40 3d c3 16 a1 3e 16 55 25 be 2d 03 13 3e
       0.04710985 0.31462678 -0.16145739 0.1435668
0003a0 3b b4 38 be 7b ca 06 be dd 34 b8 bd 0f 0a aa 3d
       -0.18037502 -0.13163178 -0.08994458 0.083027
0003b0 ea 26 b0 bd 4d 95 c9 3c cf 0c 0c 3c 48 c5 7c 3d
       -0.08601172 0.024607325 0.008547976 0.06171158
0003c0 56 a4 04 3e 96 d4 0c 3d 75 68 b9 bc 0c 00 bc ba
       0.12953314 0.034382425 -0.022632817 -0.0014343276
0003d0 b8 53 d4 bd f3 8e 6e 3e 77 28 78 bd f3 dd 2b bd
       -0.103675306 0.23296718 -0.060585465 -0.041959714
0003e0 3d 58 1c be ab 53 ed bd 0a aa d4 3d bb 81 20 bd
       -0.15268035 -0.11588224 0.10383995 -0.03918622
0003f0 72 e3 90 3d e3 7f 89 3e a1 68 d8 bd 38 ee c2 bd
       0.07074632 0.26855382 -0.105668314 -0.09518093

encoder.0.attention.keys.bias f4 [64]
000000 81 71 3a b8 44 6b b1 b6 73 f4 12 39 3c ce 87 39
       -4.4451564e-05 -5.2874984e-06 0.0001401471 0.00025902863
000010 ff 4f fa b8 ef a2 98 39 26 71 6e 39 a7 04 f6 b8
       -0.000119358294 0.00029113094 0.000227396 -0.00011731061
000020 02 76 81 39 09 32 3b b8 88 78 66 b8 fd 1c 62 b8
       0.0002469272 -4.4630873e-05 -5.4948527e-05 -5.3909596e-05
000030 ae da b8 b8 cd 91 e9 38 7f 5d be b8 55 e0 a5 38
       -8.814536e-05 0.00011137463 -9.077321e-05 7.909598e-05
000040 d8 b7 8d 39 53 5e 4e ba a9 6c 79 ba 98 dc 17 39
       0.0002703059 -0.0007872332 -0.0009514788 0.0001448266
000050 39 57 c6 36 14 4e 80 3a 28 17 61 3a 7b 2d 33 3a
       5.911014e-06 0.0009788894 0.00085865194 0.0006835085
000060 01 c6 e1 39 e9 bc 50 3a aa 3a 6c 3a 88 09 b3 b9
       0.0004306287 0.000796272 0.0009011427 -0.00034148642
000070 36 36 e5 38 e1 b9 e5 ba 7b c9 43 3a 8e 08 29 3a
       0.000109296685 -0.001752671 0.00074686826 0.0006448113
000080 d3 04 48 39 4b a5 b4 b9 5d f0 6d 39 0c af 88 39
       0.00019075283 -0.00034455428 0.00022691624 0.00026070361
000090 68 27 43 39 6e 2b 9c b4 12 90 93 38 22 bd 0f 39
       0.00018611329 -2.9088864e-07 7.0363414e-05 0.00013708
0000a0 21 60 90 b9 fc ec 2a 39 54 07 9d b9 4f e2 bb b8
       -0.00027537442 0.00016300747 -0.00029950833 -8.959008e-05
0000b0 19 c0 e6 b8 bb 19 40 b9 9d 09 ac b9 10 55 c3 39
       -0.000110030356 -0.00018320132 -0.0003281356 0.00037256675
0000c0 72 b2 a1 39 82 87 bb b9 bd 7b bd 39 6a e5 4c b6
       0.00030841265 -0.0003576838 0.0003614108 -3.0531905e-06
0000d0 39 b0 9a 39 59 29 95 b8 6c ca e5 35 59 67 39 b8
       0.00029504465 -7.112575e-05 1.7120742e-06 -4.4203687e-05
0000e0 6f 1f dc b7 be 82 9d 37 04 99 3e b9 00 e5 c0 b9
       -2.6240681e-05 1.877674e-05 -0.00018176815 -0.00036791712
0000f0 b4 ac 2c b9 6f b9 21 b9 c7 b9 0d b9 a6 f3 a5 39
       -0.00016467535 -0.00015423236 -0.00013516015 0.00031652785

encoder.0.attention.values.weight f4 [64, 64]
000000 f4 4b 01 be 25 2c f2 3d 0f 52 0b 3d 82 bf ea 3c
       -0.1262663 0.11824826 0.034013804 0.028655771
000010 f1 03 be 3d ed 4d 83 bd 6b 13 8e 3c 35 d4 7f 3d
       0.092780955 -0.064113475 0.017343244 0.062458236
000020 3c f5 40 3d 53 f8 18 bc 4e 49 0c 3e 63 28 a4 3c
       0.047108874 -0.009336549 0.13699839 0.02003879
000030 bb 8d 03 3d 7b 5b 99 3d a1 39 36 bc 5e d1 3a bd
       0.032117587 0.07488152 -0.011122138 -0.045609824
000040 b7 e0 e7 3b 3e 2a ab 3b eb 24 04 bc 2e 7e 2c 3d
       0.0070763486 0.0052235415 -0.008065443 0.04211252
000050 a0 e8 71 bc c9 b6 87 bd 82 a4 e1 3c 90 f2 6c 3c
       -0.014764935 -0.066266604 0.027544264 0.014462128
000060 23 ad 7f bd af 89 9a 3d 14 9b 88 bd 76 d9 09 bd
       -0.062420975 0.07545792 -0.06670204 -0.033654653
000070 82 8f e6 bc 6d fe c0 3c 7f f6 8f bd 8e c7 55 3c
       -0.028144602 0.02355882 -0.07029437 0.013048066
000080 77 c2 25 be f2 37 0b 3d ac 7d 67 3c 03 e5 86 bd
       -0.16187464 0.0339889 0.014129084 -0.06586649
000090 1d 15 5f bc 60 44 05 be 62 1c 05 3d 58 78 1d bc
       -0.013615874 -0.13014364 0.03249777 -0.009611212
0000a0 0b 26 a5 3d 83 a7 b8 3c bd 2e 2b 3d 09 f8 00 bc
       0.08063897 0.022540813 0.04179262 -0.007871636
0000b0 d4 47 1b bd a8 b6 33 3d 6b 22 03 be 99 83 7c bc
       -0.037910298 0.043875366 -0.12806098 -0.015412235
0000c0 85 8a 93 bc f3 bd 63 3c 27 d3 3a 3d ce 72 a6 3d
       -0.018010387 0.013900268 0.045611527 0.08127366
0000d0 1e e1 3d 3c 2b ea ba bd 43 fd 99 bd e3 f4 92 3c
       0.011589317 -0.09126695 -0.07519009 0.017939037
0000e0 45 9f cb 3d 1a 73 4d 3d 56 6d cb bb 99 0b ae bc
       0.099424876 0.050158598 -0.006208102 -0.021245765
0000f0 7b e4 0d 3d ad 5e 19 bd d1 93 71 3c 6a d9 9f 3d
       0.034641724 -0.037443805 0.014744715 0.0780514
000100 a3 69 71 bb 38 a4 26 be cd e8 06 3c 50 37 ea bc
       -0.0036836646 -0.16273582 0.008234215 -0.028590828
000110 4f e7 94 3d d9 39 ce bb 34 f8 90 bd 5e 77 8f bd
       0.07270681 -0.006293517 -0.07078591 -0.07005189
000120 5c cc 72 3c 12 09 1a bd e6 1c 06 bd 12 18 82 bd
       0.014819231 -0.037606306 -0.032742403 -0.06352247
000130 d8 42 ca 3b f9 66 73 bd 02 b0 4c bc d7 c9 5a 3d
       0.006172519 -0.059424374 -0.012493135 0.053415146
000140 5a 93 e0 bc de 2a bd 3c 9c 2d 70 bc f9 b1 ba bc
       -0.027414013 0.02309173 -0.014659312 -0.022789942
000150 11 26 09 bc 1a 27 9e bc 9f e9 85 3c 57 4f 9a bc
       -0.008370892 -0.019305754 0.01634675 -0.01883666
000160 5c 12 44 3a 91 2e dd 3d 4e 74 a5 bd ca 54 88 bb
       0.00074795424 0.107998975 -0.08078824 -0.0041604983
000170 48 16 96 bc 85 28 5a 3d c6 5e 77 bd 01 1f 61 3d
       -0.018321171 0.0532613 -0.060393117 0.05496121
000180 ca fe 85 3c de 10 1f bd 05 73 0f 3c cf 46 ba bc
       0.016356844 -0.038834445 0.00875545 -0.022738842
000190 aa c4 d8 3c 60 4e fc bc 41 1d 3f bd f0 fe f1 bc
       0.026460964 -0.03079909 -0.046658758 -0.029540509
0001a0 c6 51 e8 3c f3 6e b9 3b 8d 24 86 3c e6 d5 8d bd
       0.028359305 0.005658978 0.01637485 -0.069255635
0001b0 5e 8d 05 bd ac 18 96 3d be 25 ad 3b d4 1e a5 bc
       -0.03260552 0.073289245 0.0052840402 -0.020156302
0001c0 db 5c b2 bb bb 6f 03 3d 63 17 a7 bc 8e 63 43 bc
       -0.005443198 0.032088976 -0.020396894 -0.011925591
0001d0 e7 25 00 bd 2c 4a c9 bc 0d f5 8a 3d 53 6f ae 3c
       -0.031286146 -0.0245715 0.06785021 0.021293318
0001e0 6c 49 62 bd 78 ff f7 bc 0d a1 01 3d fc eb 15 3c
       -0.0552458 -0.030273184 0.03164773 0.009150501
0001f0 46 f1 90 bd 03 7b 88 ba 63 40 18 3d fb c9 d1 bc
       -0.07077269 -0.0010412637 0.03717078 -0.025609007
000200 b7 86 d6 bc e2 12 1f bd 85 1b 81 bc 09 06 8d 3a
       -0.026187284 -0.038836367 -0.015760193 0.0010759245
000210 57 7c 2f 3d 94 9e fe 3c 19 a2 ab bb 9c 9f f4 bc
       0.04284319 0.031081475 -0.0052378294 -0.029861264
000220 a9 65 ca 3c 94 5d bb 3b 1a 54 72 3d ef e9 0f 3d
       0.024706678 0.0057179425 0.059162237 0.035135206
000230 ac 6b 18 3d 43 fc 08 ba 1f 9e 2e bd 6f 15 11 bc
       0.03721206 -0.0005225578 -0.042631265 -0.008855208
000240 19 84 e6 bc 23 38 d4 bc 61 0e d5 bc 61 8f cc bb
       -0.028139161 -0.025905674 -0.026007833 -0.006242678
000250 3c 31 14 bd 08 7e 85 bb 5f 0c 15 3d 0a c4 32 bd
       -0.036179766 -0.004073862 0.03638875 -0.04364399
000260 49 48 2e 3b 9b 12 ae 3c c9 fd b4 3c 0b 82 1e bd
       0.0026593378 0.021249106 0.02209367 -0.038698237
000270 46 00 a4 bc 59 9b 45 3c 7d eb 20 3d 17 55 d8 bb
       -0.020019662 0.012060964 0.03928708 -0.0066019404
000280 58 14 1f bd b7 b1 ee 3c ad 72 21 bd 62 49 27 bc
       -0.03883776 0.029137475 -0.039416004 -0.010210367
000290 ff d4 4c bc 3a 60 15 bd 34 9a a3 3d b3 c3 c5 bc
       -0.012501954 -0.036468722 0.07988396 -0.024141168
0002a0 bb f7 39 3d 59 32 0c 3d d2 67 b8 3c 63 40 f2 3a
       0.04540227 0.034227703 0.022510443 0.0018482324
0002b0 23 92 a0 bb 59 b3 b9 3c 4c 19 92 bd 63 bb 33 bd
       -0.0049002334 0.022668527 -0.07133731 -0.043879878
0002c0 2f 20 3f bd 9d c9 9b 3b bd 7b 68 ba 75 77 46 bd
       -0.046661552 0.004754259 -0.0008868536 -0.048453767
0002d0 d1 f7 1d 3d ca d9 1c 3c 1c e3 a2 bc 2c 5d 01 3d
       0.038566414 0.009573409 -0.019883685 0.031582996
0002e0 53 36 cd bc be 11 13 39 d5 41 75 bc 08 a3 7b 3c
       -0.025050318 0.00014025622 -0.014969309 0.015358694
0002f0 e4 18 08 bd 12 95 8c bc 14 68 5b 3b 2c ce b2 3b
       -0.033226863 -0.017160926 0.0033478783 0.0054567065
000300 4c 21 8a 3c 8a 52 9f 3c 2b 42 a5 bc a3 1b de ba
       0.01686158 0.019448537 -0.020173153 -0.0016945492
000310 16 ff a2 bc f2 b4 1f 3c f3 91 9e bc a9 be 34 3c
       -0.019897025 0.009747731 -0.019356703 0.011031785
000320 70 22 29 bb e0 d1 82 3c fd a4 95 bd 7a 22 d0 bc
       -0.002580788 0.015969217 -0.0730686 -0.025407065
000330 c3 08 3f bc ae 27 95 bc 87 15 c1 bc 6c 97 45 bc
       -0.011659804 -0.018207397 -0.023569835 -0.012060028
000340 b3 7c 49 3c 61 50 a3 3c 2b 5a 03 3c 0b c3 84 bc
       0.012297797 0.019935789 0.008017103 -0.016206285
000350 83 f0 1a bc b7 b9 9f bc b5 5f ae 3c 67 48 5a 3d
       -0.0094567565 -0.019497735 0.021285871 0.053291705
000360 18 0e 00 3d a7 d0 4f bd 86 88 85 3d 43 dc 9e bb
       0.03126344 -0.050736096 0.065201804 -0.0048480346
000370 00 87 1a 3c 26 07 94 bb d5 de 1c 3c 02 b3 c1 3b
       0.009431601 -0.0045174537 0.009574612 0.005911232
000380 36 bb a0 3d a4 a1 c4 3c c7 e5 e8 bc 2f 08 09 3c
       0.07848208 0.024002858 -0.028429879 0.0083637675
000390 87 5c 91 bb e8 c1 2f 3d e8 a9 58 bc 26 66 2b 3c
       -0.004436079 0.042909533 -0.013224103 0.010461366
0003a0 88 de b7 3b f2 9e 92 bb 4d 48 da 3c 87 60 b1 bc
       0.0056112446 -0.004474514 0.026645804 -0.021652473
0003b0 a7 bf b4 bb 8b ac 41 3c 55 51 c6 3c 54 eb 0c 3d
       -0.005516011 0.011820923 0.024208704 0.034404114
0003c0 05 2b 59 3c 17 32 f8 39 4a 3e 67 bc 07 c8 5d 3c
       0.013254886 0.00047339566 -0.014113972 0.01353646
0003d0 fd 7e 37 bc 6e 13 8d bb 8b 96 1e 3d 65 98 d6 3c
       -0.01119971 -0.0043052947 0.038717788 0.026195714
0003e0 5d c1 b8 3c 1e 07 87 bc 14 e9 3f bc 1f 4a 72 bc
       0.02255314 -0.016482886 -0.011713285 -0.01478818
0003f0 5e bb 12 3d 5b d3 2c bd 23 3e 4c bc 1f 49 8d bc
       0.03582322 -0.04219375 -0.012465986 -0.01724678

encoder.0.attention.values.bias f4 [64]
000000 93 54 8c b9 10 19 f0 bb 8f 8c d3 3c 17 23 2b 3c
       -0.00026765894 -0.0073272064 0.02582386 0.010445378
000010 3f f0 22 3c 31 f5 e4 bc 7b a4 45 bc 97 5c 99 3a
       0.009944974 -0.027948948 -0.012063141 0.0011700568
000020 fd 96 2c bd fb d2 e5 3b bf c8 20 3b 78 f6 c5 bc
       -0.04213618 0.007013676 0.0024533716 -0.024165377
000030 92 7d 20 bc 65 e2 0e 3c da 0e 18 3c 04 f2 6a 3c
       -0.009795563 0.008720969 0.009280885 0.014339928
000040 86 4f 91 bb ee 57 89 bc 3e 05 a9 3c 01 f3 29 3c
       -0.0044345288 -0.016765561 0.020632382 0.010372878
000050 12 ad fb 3c 16 6c 04 bd 8f e2 5b bb b6 5c 7f 3b
       0.030722175 -0.03232964 -0.0033551787 0.0038965172
000060 59 0e 36 3c 27 7b 71 bc ba 2c b1 3c d4 35 52 3d
       0.011111819 -0.014738834 0.021627773 0.051320866
000070 14 f1 9b 3c 72 ef 2d bc 6b 73 dd 3c 70 d5 df 3c
       0.019035853 -0.01061617 0.027032575 0.027323455
000080 69 d9 62 bc 90 cc 91 bc 9d aa 6a bc 99 44 99 bc
       -0.01384578 -0.017797738 -0.014322904 -0.018709468
000090 27 0d 25 bc e7 c5 63 ba 03 d0 88 3c b9 d3 bb b9
       -0.010073937 -0.00086888525 0.01670075 -0.00035825165
0000a0 f5 aa b1 ba 14 ff 1d bc 7d 15 af bc e9 fc cf 3c
       -0.0013554977 -0.009643335 -0.021372551 0.025389152
0000b0 39 1f 37 3c 5d 60 c7 bc bc d4 dd 3b 8d 72 82 bb
       0.011176878 -0.024337942 0.0067697447 -0.0039809407
0000c0 c0 04 07 3d 96 33 e4 3b 14 19 b4 3c 05 23 38 3b
       0.032963514 0.0069641573 0.021984614 0.0028097045
0000d0 6f 75 e4 bc 34 f6 cb bb 33 ec 21 3c e9 6e 4d bc
       -0.027888028 -0.006224418 0.009882974 -0.01253865
0000e0 90 88 e2 bb 42 b9 54 bc e1 df 58 3b d8 ff 57 3b
       -0.006913252 -0.012983622 0.0033092427 0.0032958891
0000f0 43 6d 8a bb 01 49 ed bb 33 91 1c bc a1 2e a5 bc
       -0.004224451 -0.0072413688 -0.009556103 -0.020163836
