model/mnist/tune_lr0.0001_ed32_nl6_nh4_fm2_ps4/temp_model.pt (torch, 254829 bytes, 106 tensors)

embedding.cls_token f4 [1, 1, 32]
0.0026795259 0.00077415776 -0.006868891 -0.000650791 -0.0010505907 -0.0019847339 -0.007902435 0.0050092
0.0038359596 -0.005684938 0.0026852102 0.0039896644 -0.008415221 0.00031385547 0.002984419 0.0016230553
-0.0030522028 -0.0021641809 0.0040012393 0.004995627 -0.008267016 0.0041745724 -0.0034017959 -0.0031081138
0.0043296 0.0031136163 -0.0069862166 0.007842132 -0.008812842 -0.0035155625 -0.0048088315 -0.0004865903
00000000: fc9a 2f3b d9f0 4a3a 6f14 e1bb d899 2aba
00000010: f9b3 89ba 4f12 02bb 3779 01bc 3724 a43b
00000020: b964 7b3b b748 babb 5afa 2f3b bbbb 823b
00000030: ffdf 09bc f88c a439 3e96 433b b3bc d43a
00000040: 7707 48bb eed4 0dbb d41c 833b 5bb2 a33b
00000050: 6172 07bc daca 883b aaf0 5ebb 7fb1 4bbb
00000060: 51df 8d3b d00d 4c3b a2ec e4bb 497c 003c
00000070: bd63 10bc 5a65 66bb 6793 9dbb 0b1d ffb9

embedding.pos_embedding f4 [1, 50, 32]
0.002679526 0.00077415654 -0.0068688933 -0.0006507929 -0.0010505894 -0.001984732 -0.007902432 0.0050091986
0.0038359594 -0.0056849397 0.00268521 0.003989663 -0.008415224 0.00031385577 0.0029844197 0.0016230558
-0.0030522041 -0.0021641825 0.004001241 0.00499563 -0.008267022 0.0041745696 -0.003401795 -0.003108113
0.0043295976 0.0031136156 -0.00698622 0.00784213 -0.008812841 -0.0035155637 -0.004808831 -0.00048658744
-0.0050148196 0.0003462211 0.024353217 0.0037695002 0.004433257 0.0048949947 0.014709252 -0.010926226
-0.009693044 -0.010812728 -0.00888996 -0.005187603 0.019199418 -0.0016320833 -0.001518206 0.0055159237
0.0057898625 0.012582637 -0.0046284376 -0.0029943045 -0.0006565475 -0.0034693906 0.0046364637 0.006542425
0.009065863 0.0024092696 0.0013935933 -0.018910814 0.002414426 0.008340577 0.004597586 7.2297815e-05
-0.0047176075 -0.0024097634 0.023512982 0.0040626978 0.0029118275 0.0019989053 0.00902561 -0.013193753
-0.009311053 -0.009524851 -0.008873748 -0.0061282855 0.020130673 -0.0014650017 -0.0033219936 0.0060640206
0.004406017 0.013549339 -0.0038421194 -0.0026254142 -0.0015909242 -0.0027633316 0.0046860655 0.011407246
0.00830537 0.0050676106 0.0015224401 -0.018504066 0.0023016108 0.00840501 0.0051172376 0.0011251526
0.0056550675 -0.013543618 0.0020955815 0.002784912 -0.010404054 -0.0022787217 -0.017454423 -0.024097504
0.003036261 -0.008170236 -0.0011479962 -0.0066335066 0.0013736279 0.0026317933 -0.004269645 0.0065245023
-6.6677545e-05 0.003106821 -0.0007764709 0.0076552154 0.0026907763 0.0018121498 8.793041e-05 0.03728609
-0.0067544687 0.014028591 -0.0022760776 -0.027012795 -0.0032378938 0.0023290701 0.0010944525 0.0031222205
0.02203322 -0.0033570733 -0.010957125 -0.0033093288 -0.015450701 0.015620023 -0.0061437744 -0.016545946
0.030054957 -0.01603949 0.012040002 0.011198664 -0.029233579 0.007813912 0.01862603 -0.0029922782
0.0054308088 -0.04289494 -0.0036776687 0.019219888 0.024596768 0.0034312767 -0.01493197 0.03069643
-0.0045966534 -0.007689308 -0.0022480164 -0.032967187 -0.021932967 -0.0041838856 -0.025014661 -0.011422363
0.018044084 -0.0034405587 -0.011134674 -0.003648556 -0.013568518 0.016643215 -0.008708046 -0.017476296
0.026988676 -0.004681055 0.008939516 0.010576615 -0.024856362 0.0065427567 0.013983606 -0.004269659
0.007901914 -0.029551215 -0.008330396 0.020521747 0.027696798 0.005648024 -0.007767705 0.030271396
-0.011304174 -0.0066537033 -0.0018082074 -0.023001868 -0.014295443 -0.0027736498 -0.014385285 -0.010278796
0.008993609 -0.012134879 -0.00039192612 -0.002810575 -0.011381206 8.236389e-05 0.0021292963 -0.009341737
0.0037951185 -0.003258266 0.005584127 -0.00026457736 -0.00952269 0.0051099104 -0.0052024676 0.0013758912
0.0047459463 0.0030038608 -0.004241482 0.01091347 0.0022238584 -0.00049234787 -0.0032210608 0.012638952
-0.0029761535 0.0051816264 -0.008824927 -0.02349401 -0.0030463666 -0.002136729 -0.00045075134 -0.002392698
-0.007445235 0.0013043226 0.028730009 0.003726522 0.0059611355 0.0037122522 0.013857078 -0.01052966
-0.011044054 -0.0119842235 -0.009159955 -0.005334647 0.018876972 -0.0020170326 0.0003107495 0.0054624598
0.005780354 0.015061961 -0.0043346793 -0.0043346193 -0.0022841939 -0.0028526688 0.004983103 0.00083150883
0.009827343 0.0032374007 0.0016068497 -0.01916566 0.0024823549 0.008251578 0.0024736614 0.000604053
00000000: fd9a 2f3b c4f0 4a3a 7414 e1bb f999 2aba
00000010: eeb3 89ba 4712 02bb 3479 01bc 3424 a43b
00000020: b864 7b3b bb48 babb 59fa 2f3b b8bb 823b
00000030: 02e0 09bc 028d a439 4196 433b b7bc d43a
00000040: 7d07 48bb f5d4 0dbb d81c 833b 62b2 a33b
00000050: 6772 07bc d4ca 883b a6f0 5ebb 7cb1 4bbb
00000060: 4cdf 8d3b cd0d 4c3b a9ec e4bb 477c 003c
00000070: bc63 10bc 5f65 66bb 6693 9dbb a91c ffb9
00000080: 5b53 a4bb 0285 b539 6680 c73c b809 773b
00000090: db44 913b 3166 a03b 13ff 703c ea03 33bc
000000a0: 93cf 1ebc de27 31bc 32a7 11bc c5fc a9bb
000000b0: 1948 9d3c a1eb d5ba 8afe c6ba ecbe b43b
000000c0: e3b8 bd3b 6827 4e3c 26aa 97bb 183c 44bb
000000d0: 281c 2cba b75e 63bb 7aed 973b d761 d63b
000000e0: fc88 143c d6e4 1d3b 3ba9 b63a daea 9abc
000000f0: 593b 1e3b eaa6 083c 59a7 963b 989e 9738
00000100: 2996 9abb 1fed 1dbb 4c9e c03c 6120 853b
00000110: 5cd4 3e3b 1100 033b 27e0 133c 9c2a 58bc
00000120: 638d 18bc 1f0e 1cbc 3263 11bc c9cf c8bb
00000130: 15e9 a43c 4d05 c0ba ceb5 59bb b1b4 c63b
00000140: 5960 903b 0cfe 5d3c 11cc 7bbb 240f 2cbb
00000150: 8f86 d0ba 0319 35bb 918d 993b 75e5 3a3c
00000160: 3f13 083c 330e a63b 9d8c c73a d795 97bc
00000170: 9fd6 163b 2bb5 093c 80ae a73b db79 933a
00000180: 254e b93b 0de6 5dbc 0656 093b 1283 363b
00000190: c475 2abc 9b56 15bb 94fc 8ebc 2168 c5bc
000001a0: 02fc 463b 74dc 05bc 5c78 96ba e35d d9bb
000001b0: 4e0b b43a 2a7a 2c3b 61e8 8bbb 7ecb d53b
000001c0: 3cd5 8bb8 cf9b 4b3b 148c 4bba 9ad8 fa3b
000001d0: bc57 303b a885 ed3a 4867 b838 4db9 183d
000001e0: 9754 ddbb 2dd8 653c 3f2a 15bb f049 ddbc
000001f0: d832 54bb 50a3 183b bb73 8f3a 2b9e 4c3b
00000200: 037f b43c 5802 5cbb 8385 33bc 53e1 58bb
00000210: f024 7dbc 20eb 7f3c b751 c9bb 5d8b 87bc
00000220: d035 f63c 4065 83bc 6e43 453c 9a7a 373c
00000230: 427b efbc ec05 003c 9e95 983c 191a 44bb
00000240: edf4 b13b 9bb2 2fbd 0b05 71bb 0773 9d3c
00000250: 297f c93c 45df 603b 39a5 74bc 1477 fb3c
00000260: 869f 96bb 97f6 fbbb 7553 13bb 9a08 07bd
00000270: c4ac b3bc fa18 89bb 8ceb ccbc dd24 3bbc
00000280: 30d1 933c ff7a 61bb 356e 36bc 9d1c 6fbb
00000290: 7d4e 5ebc 5a57 883c 31ac 0ebc 732a 8fbc
000002a0: 5b17 dd3c 8963 99bb 0c77 123c 8a49 2d3c
000002b0: 929f cbbc 9f64 d63b 7f1b 653c 7fe8 8bbb
000002c0: 0877 013c 6415 f2bc 377c 08bc 391d a83c
000002d0: 65e4 e23c 0f13 b93b 3b88 febb b8fb f73c
000002e0: 2435 39bc 4f07 dabb 5f01 edba 6a6e bcbc
000002f0: 6f37 6abc 1fc6 35bb 42b0 6bbc 6568 28bc
00000300: ee59 133c 5fd1 46bc 6f7b cdb9 a031 38bb
00000310: 3d78 3abc c7ba ac38 aa8b 0b3b 160e 19bc
00000320: 86b7 783b a288 55bb 0dfb b63b f9b6 8ab9
00000330: 0f05 1cbc 0971 a73b 7679 aabb 3f57 b43a
00000340: e283 9b3b 6cdc 443b 21fc 8abb 69ce 323c
00000350: 27be 113b e810 01ba 6f18 53bb 9b13 4f3c
00000360: 920b 43bb a2ca a93b 6d96 10bc 8376 c0bc
00000370: 8da5 47bb 5d08 0cbb d252 ecb9 d0ce 1cbb
00000380: 28f7 f3bb cef5 aa3a 325b eb3c aa38 743b
00000390: a155 c33b 4249 733b cc08 633c 9884 2cbc
000003a0: 1ff2 34bc 7a59 44bc a313 16bc 43ce aebb
000003b0: e1a3 9a3c 3130 04bb 18ec a239 6ffe b23b
000003c0: 2069 bd3b 71c6 763c ed09 8ebb 6c09 8ebb
000003d0: 6ab2 15bb d7f3 3abb 4c49 a33b 9df9 593a
000003e0: dd02 213c 922a 543b ee9c d23a 4d01 9dbc
000003f0: 01af 223b a031 073c 271d 223b 5059 1e3a

embedding.conv1.weight f4 [32, 1, 4, 4]
0.024822287 -0.051348712 -0.029048376 -0.01896498 -0.011562447 -0.017512612 0.020423625 0.02625547
0.0047742464 -0.0065062316 0.0046916176 0.0076418985 0.004368535 0.010575359 0.018103382 -0.0060589635
0.014711039 -0.010537916 -0.0026047542 0.024586176 0.02530941 -0.004735178 -0.025549093 -0.016924318
0.006583912 -0.009937519 -0.00061196357 -0.0092874495 0.029104423 -0.007464083 -0.003207646 -0.041197233
-0.0060494905 -0.005926792 0.009695552 0.03775699 -0.012221415 -0.019729212 0.005778436 -0.024240661
0.00083775376 -0.052678563 0.0076070144 0.008179334 -0.025987428 0.010180066 -0.0031001286 -0.01502195
0.03626906 0.012371655 -0.0066233464 0.016705535 0.008490279 -0.029357456 -0.018230563 0.00090099196
0.016576303 0.0049561905 0.015132153 -0.03427325 0.011960046 0.0095409425 0.0035113369 0.022834042
0.00087778055 0.0031469932 0.0029935474 -0.0035869083 -0.024353893 -0.023388024 0.01675637 -0.034493517
-0.01927646 -0.009017683 0.011544123 -0.0022336273 0.015153089 -0.00014513565 -0.0008615099 -0.022720486
0.0049351193 -0.020265568 0.004829627 0.026520137 0.0001933764 -0.03506474 -0.009144726 0.009206229
0.0049988017 0.055646654 -0.012519599 -0.015583281 -0.014418317 -0.018678619 -0.002071979 -0.024525082
-0.028929593 -0.023870088 0.016031986 0.0703621 -0.030088708 -0.024459515 -0.007763735 0.010822971
-0.03268632 0.0009114517 0.02305521 -0.00227665 -0.024819687 -0.018164147 0.020140603 0.014881138
-0.030817641 0.018184364 0.0125549 -0.036828417 -0.060353402 -0.020440785 0.021934303 -0.004423168
0.006862631 -0.0016386901 -0.0018399466 -0.0076242066 0.048082195 0.01608408 -0.0058549577 -0.022575038
-0.008602201 -0.0047740857 -0.03384169 0.00084375404 0.0465946 -0.016833808 -0.02264043 0.02497675
-0.008166873 0.014191363 -0.0030833445 -0.036166683 -0.0017463212 0.006795141 0.010437942 -0.0026119484
-0.012303888 -0.031411882 -0.016346402 -0.014372437 -0.017057044 0.023501579 -0.0063113854 -0.019278146
-0.0015102458 0.008640708 0.024060111 -0.011818822 0.017054645 0.027625846 -0.03134119 0.050398372
-0.02298252 0.009272824 -0.021447185 0.010764336 0.009277544 -0.029740477 0.00096886075 -0.021300698
0.010470926 0.0023848803 0.004291062 0.012959496 0.027680459 -0.011457833 -0.03314756 0.011732574
-0.034770552 0.007878548 -0.028212495 0.026780766 -0.012887604 -0.020091314 -0.014031502 0.008860567
-0.028138902 0.024275081 -0.0024881184 -0.0027833248 0.006203109 -0.006528779 -0.009715029 -0.0050959787
-0.03510173 0.0060127247 -0.0073715257 -0.01605961 0.032798138 -0.011113687 0.008989132 -0.015018943
0.00078362325 0.009292907 -0.0041617625 0.027226752 0.004636452 -0.029488044 -0.021272745 0.025283478
0.0031002145 -0.005862563 -0.017388413 0.023091167 0.024191028 0.009008836 0.020776937 -0.006364593
-0.045950357 0.0025887508 -0.016487094 0.042635683 -0.024982806 -0.038615804 -0.016781706 -0.0035053927
0.023784779 -0.0044472846 0.013802024 -0.024000196 -0.0074514244 -0.01324795 -0.00079058367 -0.006618572
-0.0054661855 -0.0011146761 -0.016529253 -0.043928266 0.009342742 0.010310341 -0.021030493 -0.0214011
-0.007194951 -0.0061625573 -0.007359948 0.008410245 0.031867646 0.0029227643 0.018620156 0.013364566
-0.007175945 0.00094027264 -0.022563467 -0.008629584 0.026296435 0.0077674557 0.00072664354 0.02084226
00000000: 1c58 cb3c 0753 52bd dcf6 edbc 725c 9bbc
00000010: 6b70 3dbc 9c76 8fbc 724f a73c b615 d73c
00000020: 4871 9c3b 3a32 d5bb 24bc 993b e468 fa3b
00000030: ed25 8f3b 4544 2d3c 8b4d 943c 458a c6bb
00000040: 9206 713c 39a7 2cbc 86b4 2abb f368 c93c
00000050: ae55 cf3c 8d29 9bbb 554c d1bc dea4 8abc
00000060: dbbd d73b fad0 22bc 2e6c 20ba 632a 18bc
00000070: 666c ee3c 4495 f4bb 5f37 52bb 6ebe 28bd
00000080: ce3a c6bb 8935 c2bb 18da 1e3c 13a7 1a3d
00000090: 543c 48bc 289f a1bc 0959 bd3b 5a94 c6bc
000000a0: b49c 5b3a 7ac5 57bd 4344 f93b 9d02 063c
000000b0: 96e3 d4bc 4bca 263c 872b 4bbb a01e 76bc
000000c0: de8e 143d 7bb2 4a3c a808 d9bb 0cda 883c
000000d0: d01a 0b3c 0c7f f0bc 4358 95bc 8c30 6c3a
000000e0: 07cb 873c 8a67 a23b daec 773c 1b62 0cbd
000000f0: 12f4 433c 9d51 1c3c 751e 663b 750e bb3c
00000100: db1a 663a c93d 4e3b 642f 443b 5612 6bbb
00000110: d181 c7bc 3e98 bfbc a844 893c 1349 0dbd
00000120: abe9 9dbc e7be 13bc 9023 3d3c 0c62 12bb
00000130: a944 783c 8e2f 18b9 f3d6 61ba 5020 babc
00000140: c8b6 a13b fa03 a6bc d941 9e3b c240 d93c
00000150: 15c5 4a39 0ba0 0fbd c3d3 15bc b9d5 163c
00000160: fdcc a33b bfed 633d 011f 4dbc 0551 7fbc
00000170: ce3a 6cbc e703 99bc 0aca 07bb d3e8 c8bc
00000180: c1fd ecbc 348b c3bc 8355 833c 011a 903d
00000190: 987c f6bc 525f c8bc ee66 febb d552 313c
000001a0: 17e2 05bd 7dee 6e3a 48de bc3c d933 15bb
000001b0: a852 cbbc facc 94bc e8fd a43c 04d0 733c
000001c0: 4775 fcbc 60f7 943c 11b3 4d3c 65d9 16bd
000001d0: 2135 77bd 6f73 a7bc 91af b33c 39f0 90bb
000001e0: ecdf e03b 51c9 d6ba 5d2a f1ba 7bd4 f9bb
000001f0: d6f1 443d c3c2 833c f2da bfbb 49ef b8bc
00000200: 3ff0 0cbc ef6f 9cbb 959d 0abd 602f 5d3a
00000210: fbd9 3e3d 0ee7 89bc 6c78 b9bc 0b9c cc3c
00000220: 59ce 05bc e482 683c f011 4abb 8423 14bd
00000230: d1e4 e4ba c6a9 de3b e703 2b3c 392d 2bbb
00000240: 3f96 49bc bfa9 00bd e4e8 85bc 5f7a 6bbc
00000250: 37bb 8bbc 6286 c03c bdcf cebb 34ed 9dbc
00000260: 71f3 c5ba c291 0d3c b619 c53c bba3 41bc
00000270: 2fb6 8b3c 994f e23c 9f5f 00bd 866e 4e3d
00000280: d645 bcbc 0bed 173c 02b2 afbc e65c 303c
00000290: d700 183c 4da2 f3bc 25fb 7d3a cd7e aebc
000002a0: 3f8e 2b3c a74b 1c3b 099c 8c3b 1154 543c
000002b0: 21c2 e23c a3b9 3bbc bcc5 07bd fb39 403c
000002c0: 916b 0ebd 0615 013c e41d e7bc 5663 db3c
000002d0: 8726 53bc 8a96 a4bc 63e4 65bc e92b 113c
000002e0: 8e83 e6bc 89dc c63c b30f 23bb 7168 36bb
000002f0: 7343 cb3b 5eef d5bb c92b 1fbc 2bfc a6bb
00000300: d5c6 0fbd 6406 c53b d78c f1bb 718f 83bc
00000310: 5757 063d 2f16 36bc 2747 133c 0312 76bc
00000320: 116c 4d3a 4741 183c 655f 88bb a30a df3c
00000330: 61ed 973b e990 f1bc 2e44 aebc 4c1f cf3c
00000340: f82c 4b3b be1a c0bb 2572 8ebc b029 bd3c
00000350: 432c c63c cc99 133c 6534 aa3c 138e d0bb
00000360: 7136 3cbd 08a8 293b f10f 87bc c1a2 2e3d
00000370: bea8 ccbc 9b2b 1ebd ca79 89bc bbba 65bb
00000380: 4cd8 c23c 87ba 91bb e221 623c 0f9c c4bc
00000390: 142b f4bb ee0d 59bc 2c3f 4fba 9be0 d8bb
000003a0: b01d b3bb 531a 92ba 5b68 87bc 20ee 33bd
000003b0: 4d12 193c b4ec 283c 2448 acbc 5c51 afbc
000003c0: a0c3 ebbb 47ef c9bb b82b f1bb 20cb 093c
000003d0: a687 023d d98b 3f3b 4c89 983c 0df7 5a3c
000003e0: 3124 ebbb a17c 763a 05d7 b8bc 1963 0dbc
000003f0: 9f6b d73c 2486 fe3b 397c 3e3a 63bd aa3c

embedding.conv1.bias f4 [32]
0.0060071577 -0.013748359 -0.0023370318 0.0019351548 -0.0069902674 -0.0020228035 -0.00017497584 -0.0050520836
0.0013906987 -0.0029684764 -0.0035689047 -0.0036247852 0.004544395 -0.0016629185 -0.0049786326 0.0056226747
0.004176369 0.007686276 -0.0048115975 0.004983762 0.0037835045 -0.0058616325 0.0027008108 0.0077492436
0.0006742708 0.0062989146 -0.0040605464 -0.0072237365 0.0026605988 0.004659036 0.006205139 0.002514929
00000000: b1d7 c43b cc40 61bc e328 19bb 05a5 fd3a
00000010: 9d0e e5bb 0391 04bb b879 37b9 f38b a5bb
00000020: 1b48 b63a c58a 42bb 49e4 69bb ce8d 6dbb
00000030: 26e9 943b 49f6 d9ba cc23 a3bb 6a3e b83b
00000040: ecd9 883b 28dd fb3b 9baa 9dbb d34e a33b
00000050: acf4 773b f012 c0bb 1600 313b 5eed fd3b
00000060: 8cc1 303a 2067 ce3b 550e 85bb 18b5 ecbb
00000070: 715d 2e3b d4aa 983b 7b54 cb3b 82d1 243b

encoder.0.attention.queries.weight f4 [32, 32]
0.04256378 -0.022155233 -0.01642568 -0.04142792 -0.020861754 -0.025924679 -0.017791139 0.04130543
0.022112485 -0.057067752 0.059713654 -0.0019619574 -0.016328275 0.033264052 0.050182804 -0.020200955
-0.0459956 -0.031372074 0.05280259 -0.00092664926 -0.02952629 0.017592764 -0.09409024 -0.0073706782
0.07465591 0.035117343 -0.03694146 0.0350183 -0.045109574 -0.048388362 -0.014982887 0.006743664
0.051184364 -0.0038509208 -0.00304484 0.016316786 -0.0023597276 -0.03342911 -0.051366094 0.06695929
0.07397079 -0.053954042 0.044784427 0.07853855 -0.079945944 0.021588452 0.082684316 -0.018300086
-0.0064609777 -0.051315986 0.059165563 0.061424326 -0.035019595 0.04932424 -0.065367386 -0.039542597
0.044146128 0.037861023 -0.016843766 0.050446194 -0.085681565 -0.0149190845 -0.07291759 0.027344568
0.019255478 -0.04879166 -0.005486499 0.0030513634 -0.01976155 -0.033846885 -0.027230239 0.048691787
0.011538024 -0.048379067 0.06408988 0.08459553 -0.027045028 0.05377377 0.044400897 -0.009244551
-0.033969056 -0.057230376 0.049564183 -0.0063432693 -0.0314395 0.017929083 -0.029773915 -0.020901538
0.06998207 0.04403383 -0.05301926 0.038081788 -0.03725722 -0.02626169 -0.057394303 0.053010665
-0.0392633 0.03368231 0.019566605 0.040924832 0.04731639 0.014521397 0.042158823 -0.02694965
-0.062825315 0.027014447 -0.04718162 -0.039746564 0.018012475 -0.008875913 -0.039281588 -0.030706959
0.06003403 0.024406053 -0.03173496 -0.04980825 0.06341198 -0.06360236 0.036594264 0.011543117
-0.05251314 -0.052768316 0.040607445 -0.077597015 0.044661753 0.015482452 0.060404148 -0.009119107
-0.03024888 0.019917058 0.00052352366 0.025460573 -0.002588521 0.04223697 0.050787427 -0.032856047
-0.035298575 0.060363706 -0.051310662 -0.068041086 0.005463984 -0.021897892 -0.032073144 0.032939825
0.0040914044 0.038065135 -0.029237147 -0.038717583 0.059437968 -0.036263682 0.0265675 -0.0212718
-0.022770675 -0.06244062 0.043159574 -0.038427692 0.032838322 -0.0058909818 0.05321811 -0.04259079
0.00087708345 -0.04291436 -0.01812545 0.00041043197 -0.014198786 0.0015343932 -0.035460692 0.07719141
0.082962416 -0.037442915 0.05043293 0.08398634 -0.008189888 0.052160744 0.016339412 0.0043892246
-0.07243429 -0.04235148 0.031562895 0.011988178 -0.026661023 0.03317923 -0.034635212 0.00045147337
0.028550958 0.041797716 -0.028271593 0.026820797 -0.04313578 -0.03050504 -0.072795585 0.049627583
0.039845273 -0.03811665 -0.04485151 -0.022983937 0.003272073 -0.005752757 -0.02874655 0.056712173
0.055145252 -0.010069302 0.037071228 0.056002174 -0.028266862 0.0037743773 0.046729542 -0.013258605
-0.0044658477 -0.030557923 0.049683154 0.0113443285 -0.049435426 0.036728863 -0.04830075 -0.0038815907
0.06377935 0.04422797 -0.030364431 0.04419434 -0.06493702 -0.027642027 -0.048237268 -0.018396713
-0.004253286 -0.016796399 -0.009717324 -0.027987083 -0.013555977 -0.004352581 -0.0053527285 0.02568094
0.036478706 -0.0015188913 0.019416876 0.027795056 -0.049285315 0.011259146 0.03128225 -0.010796483
-0.0016054821 -0.02221113 -0.005847003 0.008264629 0.014652397 0.006152014 -0.04775345 -0.041473065
0.021847831 -0.017101604 -0.024620006 -0.014263803 -0.034758504 -0.005960301 -0.046380688 -0.021910762
00000000: 5c57 2e3d e47e b5bc 268f 86bc 53b0 29bd
00000010: 45e6 aabc fe5f d4bc b9be 91bc e22f 293d
00000020: 3e25 b53c e0bf 69bd 4e96 743d 2f94 00bb
00000030: e0c2 85bc e33f 083d 7c8c 4d3d 797c a5bc
00000040: e265 3cbd 0180 00bd 8747 583d 61ea 72ba
00000050: 1ee1 f1bc b31e 903c 62b2 c0bd bb85 f1bb
00000060: 33e5 983d 34d7 0f3d ee4f 17bd 596f 0f3d
00000070: d1c4 38bd e032 46bd c87a 75bc f4f9 dc3b
00000080: b2a6 513d bb5f 7cbb f08b 47bb c8aa 853c
00000090: a9a5 1abb f6ec 08bd 4165 52bd f421 893d
000000a0: ff7d 973d eafe 5cbd e06f 373d d2d8 a03d
000000b0: b3ba a3bd 44da b03c 6556 a93d 10ea 95bc
000000c0: 9cb6 d3bb b630 52bd 9757 723d 1398 7b3d
000000d0: b570 0fbd 3708 4a3d 56df 85bd 6bf7 21bd
000000e0: 92d2 343d 2914 1b3d f0fb 89bc aba0 4e3d
000000f0: d179 afbd 2d6f 74bc d155 95bd b701 e03c
00000100: aabd 9d3c c4d9 47bd 17c8 b3bb 62f9 473b
00000110: f9e2 a1bc 08a3 0abd f311 dfbc 0a71 473d
00000120: fb09 3d3c 2129 46bd 8e41 833d 6c40 ad3d
00000130: 898d ddbc e241 5c3d b7dd 353d 7576 17bc
00000140: 2323 0bbd 666a 6abd d003 4b3d 33db cfbb
00000150: b5c6 00bd 03e0 923c 6de8 f3bc b439 abbc
00000160: c252 8f3d d15c 343d b92a 59bd a6fb 1b3d
00000170: 079b 18bd c122 d7bc 4a16 6bbd b621 593d
00000180: 8ed2 20bd 76f6 093d 254a a03c cca0 273d
00000190: d5ce 413d 27eb 6d3c bbae 2c3d 83c5 dcbc
000001a0: 8faa 80bd 674d dd3c 8441 41bd 4bcd 22bd
000001b0: e68e 933c 476c 11bc bbe5 20bd 298d fbbc
000001c0: 3ee6 753d 34ef c73c 84fc 01bd bc03 4cbd
000001d0: 24de 813d f441 82bd dee3 153d 581f 3d3c
000001e0: 0518 57bd 9723 58bd fe53 263d 2feb 9ebd
000001f0: 3eef 363d 1caa 7d3c 576a 773d 4f68 15bc
00000200: 80cc f7bc 1929 a33c 143d 093a b192 d03c
00000210: 2da4 29bb ac00 2d3d 7a06 503d 1094 06bd
00000220: 3d95 10bd ef3f 773d 212b 52bd 2059 8bbd
00000230: 380b b33b 3563 b3bc 215f 03bd e9eb 063d
00000240: 3011 863b 30ea 1b3d be82 efbc 5496 1ebd
00000250: 3a75 733d 3a89 14bd 16a4 d93c 3342 aebc
00000260: 9189 babc bcc1 7fbd 18c8 303d 5b66 1dbd
00000270: 7a81 063d 2309 c1bb 3cfb 593d ae73 2ebd
00000280: 13ec 653a f8c6 2fbd d37b 94bc 3f2f d739
00000290: 06a2 68bc b11d c93a 3b3f 11bd 8816 9e3d
000002a0: 33e8 a93d be5d 19bd c392 4e3d 0801 ac3d
000002b0: e12e 06bc 81a6 553d 3bda 853c 7cd3 8f3b
000002c0: 6e58 94bd bf78 2dbd 1848 013d 106a 443c
000002d0: 3868 dabc f2e6 073d a7dd 0dbd bbb3 ec39
000002e0: b3e3 e93c 1534 2b3d d499 e7bc 4ab7 db3c
000002f0: 25af 30bd b5e5 f9bc da15 95bd 4b46 4b3d
00000300: cc34 233d 3420 1cbd 38b6 37bd cf48 bcbc
00000310: 4770 563b a081 bcbb e37d ebbc 064b 683d
00000320: fddf 613d b7f9 24bc 00d8 173d 8962 653d
00000330: e88f e7bc 8b5b 773b 7a67 3f3d 9f3a 59bc
00000340: 3f56 92bb 9c54 fabc 9080 4b3d 90dd 393c
00000350: cd7c 4abd 0171 163d 02d7 45bd 4962 7ebb
00000360: bf9e 823d 6328 353d d4be f8bc 2005 353d
00000370: b3fd 84bd 8871 e2bc 7194 45bd b4b4 96bc
00000380: 265f 8bbb 9a98 89bc 6935 1fbc 2b45 e5bc
00000390: e319 5ebc 19a0 8ebb f165 afbb d660 d23c
000003a0: b26a 153d 8915 c7ba 2410 9f3c 75b2 e33c
000003b0: 66df 49bd 4878 383c d121 003d bbe3 30bc
000003c0: 0a6f d2ba 1ef4 b5bc 3798 bfbb 5e68 073c
000003d0: 9b10 703c d596 c93b 1f99 43bd a9df 29bd
000003e0: 39fa b23c aa18 8cbc e5af c9bc bab2 69bc
000003f0: ef5e 0ebd a14e c3bb adf9 3dbd 337e b3bc

encoder.0.attention.queries.bias f4 [32]
0.03774096 0.030690948 0.034282263 -0.030034287 -0.028624805 0.025585085 0.018943178 0.021583732
0.029680008 -0.018944819 -0.044632476 -0.017844705 0.031997226 0.0381931 0.025607193 0.013619036
0.050740324 -0.051113825 -0.05186634 0.037021205 0.044703644 0.03326975 0.03611917 -0.039384965
0.07477224 -0.049045708 -0.0594882 0.065260865 0.077980235 -0.023314081 -0.06890558 -0.08339421
00000000: 4496 1a3d 956b fb3c 8f6b 0c3d 770a f6bc
00000010: 917e eabc d097 d13c b92e 9b3c 5ed0 b03c
00000020: 7d23 f33c 2a32 9bbc 8bd0 36bd 0f2f 92bc
00000030: 860f 033d 5e70 1c3d 2dc6 d13c 6122 5f3c
00000040: 16d5 4f3d bb5c 51bd cd71 54bd 8ca3 173d
00000050: 2b1b 373d dd45 083d b2f1 133d 2152 21bd
00000060: 3022 993d 27e4 48bd e6a9 73bd 7da7 853d
00000070: 1ab4 9f3d 2cfd bebc 5e1e 8dbd 95ca aabd

encoder.0.attention.keys.weight f4 [32, 32]
0.04964899 -0.034640215 0.034554135 -0.052700974 -0.009433168 0.025668025 0.024956904 -0.05442917
0.047943197 0.03231723 -0.010391622 0.02936425 0.013792251 0.00978812 0.063251086 -0.044837747
-0.07716466 -0.0552443 0.048371498 -0.028754566 0.050619904 0.036441687 0.0049364693 -0.02073108
0.0772662 0.02040368 0.036958106 -0.014038003 -0.01865005 -0.06723391 -0.024758384 -0.021058956
0.017754883 -0.03556162 0.01104549 0.00075203006 0.050977424 0.022007965 0.030882165 0.0009727163
0.062977605 0.077293456 0.016835777 0.040132795 0.022273116 0.022393849 -0.004754115 -0.023303183
-0.109377176 -0.045320492 0.0308168 -0.0391787 0.029509392 0.020128097 -0.046478976 -0.024843104
0.034525845 0.075763725 0.021818735 -0.019293169 -0.038152106 -0.02994423 -0.021139674 -0.06138239
0.06568557 -0.06945012 0.046385042 -0.036272954 0.015473173 0.032054227 0.010478284 -0.02484182
0.029737279 -0.0006904153 -8.241943e-05 0.03622153 -0.009961992 0.022689104 0.020669542 -0.0019703177
-0.08931268 -0.021816358 0.070223376 0.0034936578 -0.0074025593 0.03851039 -0.016123772 0.029477356
-0.0077224467 0.045215204 0.019910553 -0.034311056 -0.0656721 -0.026716892 -0.0043903287 -0.061683863
-0.037181422 0.049291264 -0.020017272 0.03355443 -0.02009572 0.024118664 -0.052064247 -0.007669065
-0.0417892 -0.078900605 -0.03281703 -0.050127245 -0.07859934 -0.044908606 -0.015013598 0.0104355505
0.11577034 0.09858869 -0.03161158 0.029671941 -0.032512914 0.0065246765 0.03194793 -0.0039194096
-0.037559167 -0.032332595 -0.04231191 0.018809374 0.019889405 0.04272045 0.048310023 0.045128353
-0.0027200638 0.017863074 -0.021556579 0.035709064 -0.0064094397 -0.044461176 -0.028399259 -0.006470801
-0.021327008 -0.012637721 -0.019528657 -0.034659408 -0.05222565 -0.04870023 -0.060144015 0.009969896
0.04036631 0.029225197 -0.04310855 0.040628888 -0.03742889 -0.02011735 0.025408547 0.01940076
-0.05951016 -0.06935007 -0.045817677 0.053029556 0.047155563 0.048085395 0.0036798893 0.015098885
0.054325715 -0.08162273 0.04644203 -0.054572493 0.05747674 0.05774623 0.026242133 0.00788926
0.027948314 0.02571512 0.03982329 0.02254461 0.013676318 0.035387762 0.009651069 -0.014667912
-0.08203946 -0.046720974 0.01175542 0.0012542461 0.025791207 -0.010788523 -0.020797556 -0.020459117
-0.0012492284 0.047636606 0.014407204 -0.01996746 -0.03400059 -0.054394774 -0.031239316 -0.029305182
0.020781165 -0.01274519 0.038974978 0.023759598 0.03942458 -0.0047791977 0.04735267 0.022316817
0.03759573 -0.00074326707 0.012141546 0.018086817 0.03033352 0.031591248 0.055781692 -0.039340403
-0.11111919 -0.0008449256 0.025207208 -0.04662041 0.053161934 0.030093225 -0.025525847 -0.016000919
0.038233176 0.016759822 0.033021454 0.016519926 -0.039993327 -0.047265206 -0.022704504 -0.020627536
0.050590146 -0.016426422 0.027805675 -0.006596792 0.003647729 0.024323031 0.021335296 -0.0023925665
0.03378429 0.018853607 -0.004508164 2.951276e-05 0.02914543 0.021142561 0.0021448676 -0.038444523
-0.07573333 -0.032817703 0.04791912 -0.01164632 0.0141675845 0.011943672 -0.048283864 -0.011200076
0.013349098 0.023257121 0.012344927 -0.010529694 -0.04180127 -0.038142826 0.03435754 -0.0090239
00000000: bd5c 4b3d e6e2 0dbd a388 0d3d fadc 57bd
00000010: 938d 1abc c045 d23c 6c72 cc3c 1ff1 5ebd
00000020: 1660 443d 125f 043d 9f41 2abc 4c8d f03c
00000030: e5f8 613c 5a5e 203c c989 813d c9a7 37bd
00000040: 8108 9ebd d947 62bd 3121 463d b28e ebbc
00000050: d156 4f3d e143 153d 1bc2 a13b 3ad4 a9bc
00000060: be3d 9e3d 9e25 a73c 6261 173d a7ff 65bc
00000070: fdc7 98bc efb1 89bd 18d2 cabc d583 acbc
00000080: b072 913c 10a9 11bd 25f8 343c e223 453a
00000090: b4cd 503d 0c4a b43c 98fc fc3c e3fd 7e3a
000000a0: 67fa 803d 084c 9e3d 2feb 893c 4962 243d
000000b0: 1c76 b63c 4e73 b73c 68c8 9bbb 51e6 bebc
000000c0: 2401 e0bd fba1 39bd 8473 fc3c d879 20bd
000000d0: aebd f13c aee3 a43c bd60 3ebd c483 cbbc
000000e0: f96a 0d3d 032a 9b3d 34bd b23c b50c 9ebc
000000f0: 6245 1cbd 9a4d f5bc 1c2d adbc 1a6c 7bbd
00000100: 2886 863d dd3b 8ebd 3efe 3d3d f392 14bd
00000110: 3183 7d3c 4b4b 033d 1cad 2b3c 1381 cbbc
00000120: 989b f33c fdfc 34ba 98d8 acb8 075d 143d
00000130: 9f37 23bc 80de b93c 2c53 a93c 7220 01bb
00000140: 91e9 b6bd 38b8 b2bc 46d1 8f3d daf5 643b
00000150: 2b91 f2bb 12bd 1d3d 0016 84bc 7f7a f13c
00000160: 940c fdbb 9433 393d 751b a33c c089 0cbd
00000170: 187f 86bd 62dd dabc bfdc 8fbb 38a8 7cbd
00000180: 8c4b 18bd a3e5 493d 43fb a3bc 5f70 093d
00000190: c89f a4bc 8194 c53c 5241 55bd c84c fbbb
000001a0: 272b 2bbd a496 a1bd 266b 06bd 3a52 4dbd
000001b0: b1f8 a0bd 16f2 37bd 98fb 75bc dff9 2a3c
000001c0: 0019 ed3d dee8 c93d 257b 01bd 9212 f33c
000001d0: 432c 05bd f4cc d53b d5db 023d 646e 80bb
000001e0: a4d7 19bd 2f6f 04bd 414f 2dbd 1e16 9a3c
000001f0: 1bef a23c a3fb 2e3d bbe0 453d 82d8 383d
00000200: 1943 32bb 9555 923c 6c97 b0bc ab43 123d
00000210: 4706 d2bb ec1c 36bd 90a5 e8bc 0309 d4bb
00000220: fab5 aebc 720e 4fbc 90fa 9fbc 06f7 0dbd
00000230: 90ea 55bd e479 47bd 9259 76bd c658 233c
00000240: 2557 253d ae69 ef3c 9792 30bd 7a6a 263d
00000250: 094f 19bd 24cd a4bc 9625 d03c 58ee 9e3c
00000260: edc0 73bd 6907 8ebd 51ab 3bbd 8535 593d
00000270: 3126 413d 31f5 443d 4c2a 713b 5061 773c
00000280: a484 5e3d d129 a7bd 003a 3e3d 6887 5fbd
00000290: bb6c 6b3d 5087 6c3d bef9 d63c f441 013c
000002a0: ddf3 e43c 84a8 d23c bf1d 233d 79af b83c
000002b0: a312 603c c2f2 103d 841f 1e3c af51 70bc
000002c0: 4e04 a8bd 7e5e 3fbd ce99 403c 8465 a43a
000002d0: 1548 d33c 58c2 30bc a35f aabc e199 a7bc
000002e0: 26bd a3ba 9a1e 433d 320c 6c3c cc92 a3bc
000002f0: 3444 0bbd 0ecd 5ebd 98e9 ffbc 6c11 f0bc
00000300: 433d aa3c 34d1 50bc 3aa4 1f3d 7da3 c23c
00000310: ab7b 213d d19a 9cbb e0f4 413d c2d1 b63c
00000320: fbfd 193d cfd7 42ba 56ed 463c ce2a 943c
00000330: 017e f83c d365 013d 587b 643d 6723 21bd
00000340: 7592 e3bd ff7d 5dba 597f ce3c 0bf5 3ebd
00000350: 54c0 593d 1186 f63c 951b d1bc 5c14 83bc
00000360: 649a 1c3d e54b 893c 8141 073d cc54 873c
00000370: 0bd0 23bd 2999 41bd ccfe b9bc 14fb a8bc
00000380: 9d37 4f3d b490 86bc bac8 e33c e729 d8bb
00000390: bd0e 6f3b 1841 c73c 5cc7 ae3c 9bcc 1cbb
000003a0: 6561 0a3d e172 9a3c 38b9 93bb 2b92 f737
000003b0: 66c2 ee3c 2a33 ad3c e890 0c3b 0178 1dbd
000003c0: 131a 9bbd db6b 06bd d746 443d 35d0 3ebc
000003d0: 281f 683c 64af 433c 4dc5 45bd 8680 37bc
000003e0: 2db6 5a3c b885 be3c 6042 4a3c bd84 2cbc
000003f0: cf37 2bbd a73b 1cbd 7eba 0c3d fbd8 13bc

encoder.0.attention.keys.bias f4 [32]
2.239843e-06 -1.5961634e-05 -6.7358787e-06 2.235226e-06 -7.523195e-06 -1.9064606e-05 8.08859e-07 3.0244203e-06
6.0459615e-06 -7.3054986e-07 -7.246845e-06 -2.1194564e-06 8.94955e-06 1.4410268e-05 8.234706e-06 -8.716918e-07
-2.0951095e-06 1.0162577e-05 4.8928678e-06 7.0289025e-06 6.269118e-06 1.9590232e-06 -1.5138229e-06 2.1725239e-06
-3.5570426e-06 1.2013647e-06 -5.554889e-07 -2.5645663e-06 3.9704264e-06 2.1097698e-08 5.026171e-06 4.5299325e-06
00000000: 3650 1636 59e5 85b7 c204 e2b6 e400 1636
00000010: c16f fcb6 eeec 9fb7 5e20 5935 25f7 4a36
00000020: 6ade ca36 011b 44b5 ed29 f3b6 fc3b 0eb6
00000030: 0626 1637 a1c3 7137 cb27 0a37 34fe 69b5
00000040: b599 0cb6 f07f 2a37 6a2d a436 d0d9 eb36
00000050: 505b d236 c377 0336 8f2e cbb5 adcb 1136
00000060: 87b5 6eb6 943e a135 e81c 15b5 ea1a 2cb6
00000070: b439 8536 543a b532 7ba6 a836 d3ff 9736

encoder.0.attention.values.weight f4 [32, 32]
-0.012408778 -0.011212432 0.0020660073 0.046269868 0.0060684467 0.0029730925 -0.051685892 -0.020714529
-0.031322364 -0.0069005345 -0.025492238 -0.03687158 -0.039710138 -0.014842604 -0.0046767206 -0.031271126
-0.017547341 -0.026602121 -0.008382007 -0.028915834 -0.019765418 0.017600473 0.027140066 0.020253062
0.008018283 -0.0019430681 -0.019972226 0.028781088 0.017592674 -0.0168075 0.00665547 -0.00030368622
-0.007722188 -0.02403837 0.021865707 0.008994858 -6.969351e-05 0.013597037 0.01858544 0.0079006655
-0.02592573 0.0059429244 0.012227391 -0.010023388 0.019822843 0.025800522 -0.009297993 -0.034196313
0.047768276 -0.0018145934 0.019188857 0.0047629555 0.0154095655 0.0044744266 -0.0044389167 0.011812913
0.04007393 -0.016204754 -0.0066294316 -0.026051922 0.0029106743 -0.019531809 0.01616174 0.0032831936
-0.016036455 -0.006396652 -0.033341113 0.017801218 -0.013351842 -0.017498259 -0.04879651 -0.032663107
-0.0083588315 -0.0048752064 -0.024810648 0.028972194 -0.0036322232 -0.011781675 -0.030590571 -0.0147975935
-0.0266682 0.032905143 -0.024717046 -0.07822253 0.0041881143 0.0066709616 0.01899518 -0.010590649
-0.03171412 -0.0048278403 0.01458715 0.016346183 -0.009859432 -0.032827906 0.008088879 -0.00056280365
0.008601787 -0.01979432 -0.014050084 -0.025088174 -0.008535383 -0.0057552382 0.008373491 0.001716576
0.006185089 0.028997349 0.010593156 0.018442573 0.03411892 -0.02423121 -0.020548 -0.023998642
0.038592473 0.025314184 0.0020314136 -0.0033895643 0.018922286 0.0049064322 -0.020896148 0.021906288
0.013466861 -0.0057791118 -0.0026180975 0.024893729 -0.0217212 -0.0035020744 0.013344876 -0.0043112477
0.0033206237 0.044800963 0.018255543 -0.01766111 0.004865605 -0.010896923 0.00740432 0.03922176
-0.022708444 0.015800886 0.0107917795 -0.0038432183 -0.009542229 0.00903286 0.0046588043 0.006468218
-0.00041652878 -0.026067523 0.021884872 -0.021738738 -0.0145161515 -0.0010111432 -0.01655629 0.006172921
0.0063994415 0.020912303 0.0144378245 -0.009744631 -0.01844389 0.026598483 -0.025433712 -0.018620355
0.02725207 -0.003806387 0.01521491 -0.016639221 -0.011004664 0.01799041 -0.014707615 0.014993035
-0.002338358 0.022361543 0.014368434 0.03918917 0.005604002 0.0011665106 0.022119487 0.00042230776
0.012083952 0.027270552 -0.019187218 0.00030623566 0.007951054 0.003227453 -0.025602661 0.010830866
0.029059667 0.023769 0.022187863 -0.007383821 -0.012810783 0.0045205355 0.03193266 -0.028010573
-0.035028677 0.006424201 0.020473508 0.015007136 -0.024358284 -0.03929057 0.0015584248 -0.031661626
-0.025538832 0.03888917 -0.020399392 0.016188802 0.029694797 -0.016079359 0.03320337 0.008233281
0.015751483 0.013483008 -0.015504935 0.012394337 -0.0058392254 -0.007625128 0.036864355 0.031180637
-0.00026191052 -0.0082409 0.0127832815 0.017860577 -0.024136487 0.0093681095 0.009148281 0.005035984
-0.028975299 0.023371063 0.014061915 -0.015617485 0.004909982 0.03528842 0.013400935 -0.009265125
-0.0034658823 0.011732266 0.006035211 0.022644784 0.012366263 -0.018161574 -0.016121553 -0.00016558582
-0.012505042 -0.004837195 -0.0056401137 -0.010795231 0.0139968665 -0.03758088 0.0059289285 0.009592408
-0.011131042 0.032567065 -0.006459227 -0.022984272 0.0067322846 -0.0018595615 -0.030422665 0.042407833
00000000: 304e 4bbc 59b4 37bc da65 073b 7985 3d3d
00000010: d2d9 c63b 37d8 423b 96b4 53bd 84b1 a9bc
00000020: e14b 00bd e11d e2bb 19d5 d0bc a706 17bd
00000030: 19a7 22bd 652e 73bc 2d3f 99bb 2716 00bd
00000040: 71bf 8fbc b1ec d9bc af54 09bc e6e0 ecbc
00000050: 16eb a1bc de2e 903c d854 de3c c0e9 a53c
00000060: 1e5f 033c 8cae feba cb9c a3bc 51c6 eb3c
00000070: 831e 903c e2af 89bc 2116 da3b 1338 9fb9
00000080: 680a fdbb 1eec c4bc b61f b33c 2b5f 133c
00000090: 6b28 92b8 1bc6 5e3c 7e40 983c cb71 013c
000000a0: 3262 d4bc ddbc c23b 6555 483c 2339 24bc
000000b0: 8463 a23c 9e5b d33c 9c56 18bc 6f11 0cbd
000000c0: aba8 433d a7d7 edba f331 9d3c 9112 9c3b
000000d0: 6778 7c3c 369e 923b 5574 91bb f38a 413c
000000e0: 9024 243d d5bf 84bc b43b d9bb d76a d5bc
000000f0: 03c1 3e3b 2c01 a0bc a065 843c d92a 573b
00000100: e25e 83bc 029b d1bb b190 08bd dcd3 913c
00000110: afc1 5abc 8258 8fbc d9de 47bd c0c9 05bd
00000120: 7bf3 08bc 32c0 9fbb b33f cbbc 1857 ed3c
00000130: 980a 6ebb ed07 41bc 1499 fabc 9b71 72bc
00000140: 4577 dabc 8bc7 063d 677b cabc 2233 a0bd
00000150: 733c 893b 1598 da3b c89b 9b3c 6784 2dbc
00000160: aae6 01bd dc32 9ebb f1fe 6e3c 6ee8 853c
00000170: 7489 21bc 8e76 06bd 3887 043c 1d89 13ba
00000180: 82ee 0c3c b327 a2bc 5332 66bc b785 cdbc
00000190: fed7 0bbc 7096 bcbb f730 093c bcfe e03a
000001a0: 49ac ca3b d98b ed3c eb8e 2d3c e114 973c
000001b0: 48c0 0b3d 8880 c6bc 4754 a8bc cd98 c4bc
000001c0: 2413 1e3d b15f cf3c 7721 053b 7423 5ebb
000001d0: e902 9b3c 23c6 a03b 662e abbc d174 b33c
000001e0: 1ca4 5c3c b45e bdbb 6394 2bbb efed cb3c
000001f0: a8f0 b1bc 0f83 65bb 77a4 5a3c 5e45 8dbb
00000200: d29e 593b 3781 373d a68c 953c 08ae 90bc
00000210: a76f 9f3b 0289 32bc f09f f23b ffa6 203d
00000220: 0f07 babc dc70 813c 01d0 303c 81de 7bbb
00000230: 0257 1cbc 90fe 133c e2a8 983b 58f3 d33b
00000240: 8c61 dab9 8f8b d5bc e747 b33c 7015 b2bc
00000250: 27d5 6dbc 5688 84ba 0fa1 87bc 3746 ca3b
00000260: 68b2 d13b 4750 ab3c a08c 6c3c f2a7 1fbc
00000270: a417 97bc 10e5 d93c 5c5a d0bc b789 98bc
00000280: bc3f df3c 9474 79bb f547 793c fa4e 88bc
00000290: e84c 34bc a060 933c 35f8 70bc 59a5 753c
000002a0: 233f 19bb 8e2f b73c 9569 6b3c d384 203d
000002b0: c7a1 b73b 9ae5 983a ed33 b53c 3069 dd39
000002c0: c5fb 453c 7e66 df3c 832e 9dbc 418e a039
000002d0: 2345 023c ad83 533b acbc d1bc f273 313c
000002e0: 8a0e ee3c 35b7 c23c 52c3 b53c fbf3 f1bb
000002f0: 52e4 51bc 0021 943b d2cb 023d 6e76 e5bc
00000300: 3b7a 0fbd 1b82 d23b 0fb8 a73c 7ee0 753c
00000310: 068b c7bc 26ef 20bd 0f44 cc3a 9faf 01bd
00000320: d036 d1bc 404a 1f3d a01c a7bc 619e 843c
00000330: 8142 f33c dcb8 83bc 4200 083d e2e4 063c
00000340: 4109 813c d6e7 5c3c 6908 7ebc 9e11 4b3c
00000350: f956 bfbb 36dc f9bb 14ff 163d 896e ff3c
00000360: 0951 89b9 d704 07bc f870 513c 5850 923c
00000370: e2b9 c5bc b37c 193c ace2 153c e504 a53b
00000380: 9b5d edbc ac74 bf3c f263 663c 7be0 7fbc
00000390: eae3 a03b 978a 103d 988f 5b3c c0cc 17bc
000003a0: db23 63bb b138 403c 05c3 c53b 8e81 b93c
000003b0: de9b 4a3c 95c7 94bc 5911 84bc 1ba1 2db9
000003c0: f3e1 4cbc 5581 9ebb b4d0 b8bb 7bde 30bc
000003d0: 1d53 653c 69ee 19bd 7547 c23b 7a29 1d3c
000003e0: f95e 36bc 0b65 053d eca7 d3bb 8349 bcbc
000003f0: 7f9a dc3b 88bc f3ba f438 f9bc d6b3 2d3d

encoder.0.attention.values.bias f4 [32]
0.0026019786 -0.00047243864 -0.007930102 -0.00069513114 -0.0013058041 -0.0018786403 -0.009146545 0.0036284737
0.005999159 -0.0061186324 0.0024332148 0.0041657947 -0.007391458 0.0004051716 0.0029579645 0.0013522854
-0.0036817146 -0.0023667188 0.004090176 0.005160643 -0.00652117 0.0050630625 -0.0030841378 -0.0019537837
0.0046499167 0.0033835706 -0.0082560815 0.008331807 -0.0092592705 -0.003437328 -0.0058201123 -0.0011209
00000000: f585 2a3b a4b1 f7b9 42ed 01bc 7639 36ba
00000010: 8427 abba b53c f6ba 64db 15bc b0cb 6d3b
00000020: 9894 c43b cf7e c8bb 9276 1f3b 3881 883b
00000030: 0b34 f2bb 366d d439 69da 413b 2b3f b13a
00000040: ec48 71bb f41a 1bbb e206 863b 9c1a a93b
00000050: 8aaf d5bb 0ce8 a53b 3f1f 4abb 0d0b 00bb
00000060: 545e 983b e5be 5d3b 8444 07bc 2282 083c
00000070: 32b4 17bc cb44 61bb a4b6 bebb 2aeb 92ba

encoder.0.attention.fc.weight f4 [32, 32]
-0.01863547 0.009453374 -0.013096677 0.016344082 -0.011343275 0.025811044 -0.012990875 -0.0009331478
-0.042845953 -0.004808 -0.015499035 0.013262008 0.02423407 -0.005525272 0.011564631 0.0005728339
0.011994017 0.018487478 -0.015173139 0.022260353 0.004863603 1.0479145e-05 0.010083736 -0.0027528917
-0.034160662 -0.035966247 0.007598903 0.027670724 0.0017923529 0.037460234 -0.0056565413 -0.030935721
-0.019182887 -0.012759862 -0.0038163438 0.031563688 0.018032894 -0.006489242 0.0069765034 -0.010014704
-0.01116194 0.02199358 0.0071222363 -0.0011132472 -0.059415195 0.022284882 0.00788394 0.00020398393
0.01809984 0.030017585 0.01620831 -0.023323974 0.00073605624 0.00024280879 0.011056915 -0.03503934
0.029378742 -0.003861862 -0.022139022 -0.01056814 0.03458659 0.005385333 -0.040662378 -0.041685596
-0.02414138 0.018822046 0.03360895 -0.016609255 0.010152195 0.0033088254 -0.008668244 0.009892527
0.010295747 -0.011172192 0.014688747 0.024915103 -0.042342592 -0.0413213 0.0040530744 -0.0021139313
0.00048530882 0.002547363 -0.006575404 0.01086217 -0.011734714 0.013862424 -0.017316299 -0.00904019
0.041119702 -0.030488035 0.020251278 -0.004327033 0.03145352 0.014501735 -0.0031038907 -0.034145042
0.00024574602 -0.014858456 0.016873533 -0.0026328352 0.0022532416 -0.0028233007 0.030477112 0.008163357
-0.020694803 0.0050959564 0.029469801 0.010167864 0.024638593 -0.0142438 -0.0142129045 -0.023082444
0.0012702545 0.010338178 -0.0079449145 -0.025922429 -0.0052278596 -0.013742326 -0.022503741 -0.0026658478
0.02794519 -0.0011267165 0.013513525 -0.0001353231 0.029960591 -0.0073618516 -0.01294054 -0.019672245
0.002797793 0.015911005 0.021090424 0.010801244 0.0019371326 -0.029019713 0.029826857 0.03494522
-0.016690394 0.012328888 -0.023422066 0.0034147247 0.022260094 -0.011462322 -0.0134804435 -0.0026381712
0.0092192795 -0.0022738958 0.013029627 -0.015881734 -0.0112503 0.0269626 -0.0031140905 0.0128318
0.01005908 -0.012207829 -0.014877822 -0.01580059 0.071039386 0.015881194 -0.031570733 -0.025236685
-0.006119331 0.039707515 0.038540278 -0.006638 0.024432467 -0.013815262 0.027097166 0.039896276
-0.014929417 0.00024737802 -0.0013798274 -0.000842457 -0.023951516 -0.0046428572 -0.014609797 0.008883013
-0.012896323 0.00981644 -0.020011902 -0.011672455 0.011991266 0.0047925552 0.014546396 -0.007976102
0.018765308 -0.019563926 0.0011613282 -0.0021205975 -0.051184535 0.0006743752 -0.0021124445 0.007232213
-0.026631795 -0.040452283 -0.0008995953 -0.016545184 0.009547914 0.01744842 -0.014438176 -0.01308793
0.012152589 0.02227745 0.011704681 0.0046345578 -0.022207703 -0.032619715 -0.04104551 -0.023381544
-0.016061202 0.016740985 -0.019913446 -0.00358645 -0.016477758 -0.0030673582 0.034291185 -0.0023070218
-0.0027093412 -0.019953936 0.019641986 -0.001573978 -0.026175179 -0.011243494 -0.018082142 0.0030701335
0.0057252347 -0.038573183 -0.00063575833 -0.004257649 0.021032639 0.013150923 0.008336649 -0.01999119
0.0112591535 -0.019750105 -0.0016993365 -0.002265133 0.016277695 0.030710446 0.018651491 -0.005852914
-0.008755697 -0.001455745 -0.00901229 0.022769438 -0.017587874 0.04268774 0.022357678 0.010061354
-0.015168573 -0.0016638107 -0.010003159 -0.036448956 -0.019165758 -0.017912766 -0.02063631 0.0011052109
00000000: 6aa9 98bc 53e2 1a3c 7293 56bc 06e4 853c
00000010: 25d9 39bc af71 d33c aed7 54bc 7d9e 74ba
00000020: 3d7f 2fbd 6d8c 9dbb aaef 7dbc e548 593c
00000030: 8786 c63c 570d b5bb 9479 3d3c 3b2a 163a
00000040: 8e82 443c 0d73 973c c298 78bc 585b b63c
00000050: dc5e 9f3b 96cf 2f37 4136 253c dc69 34bb
00000060: 0dec 0bbd 5851 13bd 3800 f93b b7ad e23c
00000070: 62ed ea3a e76f 193d 825a b9bb e96c fdbc
00000080: 6e25 9dbc bd0e 51bc a01b 7abb ed48 013d
00000090: b8b9 933c b5a3 d4bb 279b e43b b714 24bc
000000a0: 92e0 36bc e12b b43c a661 e93b 61ea 91ba
000000b0: 595d 73bd c98e b63c a42b 013c 85e4 5539
000000c0: 1e46 943c 70e7 f53c 4ac7 843c eb11 bfbc
000000d0: e6f3 403a 7d9a 7e39 1028 353c 6985 0fbd
000000e0: b0ab f03c 4b17 7dbb e55c b5bc fe25 2dbc
000000f0: abaa 0d3d 7377 b03b 988d 26bd 84be 2abd
00000100: 25c4 c5bc b130 9a3c 8aa9 093d 2210 88bc
00000110: 6455 263c e1d8 583b 4005 0ebc 4414 223c
00000120: 7eaf 283c 920b 37bc 12a9 703c c21a cc3c
00000130: 6d6f 2dbd 8640 29bd a7cf 843b e289 0abb
00000140: 0c71 fe39 a9f1 263b 7d76 d7bb 3ef7 313c
00000150: f542 40bc 381f 633c e9da 8dbc 4e1d 14bc
00000160: 226d 283d 0bc2 f9bc 02e6 a53c c9c9 8dbb
00000170: 68d5 003d af98 6d3c a56a 4bbb acdb 0bbd
00000180: 79d7 8039 e270 73bc 5d3a 8a3c a58b 2cbb
00000190: 1fab 133b 2007 39bb 23ab f93c 9abf 053c
000001a0: 2688 a9bc fbfb a63b a76a f13c 1d97 263c
000001b0: e0d6 c93c d45e 69bc 3edd 68bc 6517 bdbc
000001c0: ab7e a63a 7661 293c 632b 02bc 465b d4bc
000001d0: 774e abbb 7e27 61bc c459 b8bc 81b5 2ebb
000001e0: 50ed e43c 55ae 93ba d567 5d3c 85e5 0db9
000001f0: ea6f f53c b03b f1bb 8f04 54bc b027 a1bc
00000200: 2d5b 373b cc57 823c d3c5 ac3c b3f7 303c
00000210: 62e7 fd3a c0ba edbc 7457 f43c b822 0f3d
00000220: 4bba 88bc 1bff 493c a2df bfbc 93c9 5f3b
00000230: cd5a b63c 77cc 3bbc 14dd 5cbc 2be5 2cbb
00000240: 760c 173c a405 15bb 377a 553c 691a 82bc
00000250: 2e53 38bc ace0 dc3c c515 4cbb 783c 523c
00000260: d7ce 243c 5903 48bc 1cc2 73bc 3d70 81bc
00000270: 197d 913d 4719 823c 5050 01bd 2abd cebc
00000280: ab84 c8bb 59a4 223d 69dc 1d3d 9483 d9bb
00000290: 9926 c83c 6959 62bc e0fa dd3c 476a 233d
000002a0: 839a 74bc 84b2 8139 53db b4ba 55d8 5cba
000002b0: f835 c4bc 1c23 98bb ee5d 6fbc 0f8a 113c
000002c0: 194b 53bc 22d5 203c 00f0 a3bc d33d 3fbc
000002d0: 0477 443c de0a 9d3b 0254 6e3c 32ae 02bc
000002e0: b4b9 993c 8744 a0bc b537 983a b9f9 0abb
000002f0: e0a6 51bd 8ec8 303a f070 0abb 33fc ec3b
00000300: ec2a dabc 4bb1 25bd d2d2 6bba c489 87bc
00000310: db6e 1c3c fdef 8e3c 198e 6cbc c26e 56bc
00000320: a71b 473c 337f b63c fec4 3f3c 7ddd 973b
00000330: eeec b5bc 409c 05bd 561f 28bd a78a bfbc
00000340: c892 83bc 6424 893c 8621 a3bc a50a 6bbb
00000350: 5dfc 86bc bb05 49bb ea74 0c3d 6731 17bb
00000360: 348f 31bb 7076 a3bc 3be8 a03c f04d ceba
00000370: 546d d6bc a236 38bc 0021 94bc 4b34 493b
00000380: c09a bb3b eafe 1dbd 05a9 26ba c083 8bbb
00000390: a44c ac3c f876 573c 7196 083c 90c4 a3bc
000003a0: 5078 383c f9ca a1bc 45bc deba a072 14bb
000003b0: cd58 853c 7994 fb3c 03cb 983c cdc9 bfbb
000003c0: 0e74 0fbc b2ce beba 49a8 13bc f986 ba3c
000003d0: 7214 90bc 57d9 2e3d 7327 b73c 61d8 243c
000003e0: 9b85 78bc 3914 daba 4ae4 23bc 804b 15bd
000003f0: 8201 9dbc cbbd 92bc 7b0d a9bc b9dc 903a

encoder.0.attention.fc.bias f4 [32]
0.0 0.0 0.0 0.0 0.0 0.0 0.0 0.0
0.0 0.0 0.0 0.0 0.0 0.0 0.0 0.0
0.0 0.0 0.0 0.0 0.0 0.0 0.0 0.0
0.0 0.0 0.0 0.0 0.0 0.0 0.0 0.0
00000000: 0000 0000 0000 0000 0000 0000 0000 0000
00000010: 0000 0000 0000 0000 0000 0000 0000 0000
00000020: 0000 0000 0000 0000 0000 0000 0000 0000
00000030: 0000 0000 0000 0000 0000 0000 0000 0000
00000040: 0000 0000 0000 0000 0000 0000 0000 0000
00000050: 0000 0000 0000 0000 0000 0000 0000 0000
00000060: 0000 0000 0000 0000 0000 0000 0000 0000
00000070: 0000 0000 0000 0000 0000 0000 0000 0000

encoder.0.fc1.weight f4 [64, 32]
0.003749407 0.041403525 -0.013055653 -0.03868537 0.014349463 0.0010827641 -0.02567722 -0.024588268
0.049902905 0.027980033 -0.009050256 -0.04273599 0.06549732 0.006646054 0.057151433 -0.017291883
0.04307599 0.0021814024 -0.05133013 -0.027419982 0.035652667 0.029556349 -0.024135059 0.04593935
-0.033178944 0.029577432 -0.00012575935 -0.000783293 -0.045105558 -0.019956138 -0.0037480034 -2.787337e-05
0.03924212 3.135257e-05 -0.012266259 -0.033148047 -0.0034831206 -0.030860059 -0.0021369602 -0.011940773
0.00424052 0.013217996 0.05009056 0.010625819 0.004970746 0.058051746 0.021453222 -0.019349126
-0.010112116 -0.01354127 -0.015687468 0.029975064 -0.052105192 -0.009383583 -0.006983301 -0.006058285
-0.024110476 0.045272477 -0.029590521 0.003887427 -0.013385081 -0.0057191513 -0.0018954135 0.038663745
0.01757768 0.008150269 0.0027999752 0.011754689 0.012729767 0.018762564 0.0014829129 0.004171765
0.014154371 -0.0019943856 -0.07080564 -0.010301496 -0.021359298 -0.00058404607 0.006440483 -0.008111422
0.048957318 0.0039041252 -0.029961664 -0.03565769 0.008370098 -0.050419062 -0.032083213 0.023272472
0.004790201 -0.037511315 -0.012499864 -0.026932543 -0.014501846 0.0017292874 -0.004673051 0.012052926
0.018642392 -0.02588816 -0.001023893 0.008544775 0.00035796224 -0.039205257 -0.03149348 0.015428736
0.02342033 -0.012879986 -0.002659435 -0.015083963 -0.00085331174 -0.00039532952 0.027972259 0.0020675065
0.014560398 -0.013699157 0.021708425 0.058060426 -0.010893923 0.030280124 0.010261141 -0.013115195
-0.008351731 0.008229596 0.004744185 0.03081083 -0.004225587 -0.020904917 -0.017796064 -0.0065764203
-0.0006367529 0.0067613544 0.024294784 -0.017172731 0.002733283 0.016304243 0.057565264 -0.03242674
-0.009618789 0.029771922 -0.018999008 0.014470925 0.05231955 0.033284243 0.00497292 -0.007808577
0.031670563 0.019872976 0.0048508635 -0.02582336 0.025101123 -0.011851145 0.025675483 0.028782286
0.017840113 -0.02798235 0.02037689 -0.04482607 -0.011993066 0.020357879 0.019707058 -0.007790467
0.0319026 -0.0039160545 0.017082516 0.015266542 0.022199212 -0.009960705 0.027019896 0.0028456938
0.0027439934 0.061840814 -0.005934283 0.029178245 0.022616046 0.0034610392 -0.040759873 0.0173159
-0.005538027 -0.016506521 -0.031912435 0.013366315 -0.0044256076 -0.086435564 0.020585569 -0.02263671
0.005309626 -0.031021668 -0.034883514 0.010822051 0.04974398 0.022553883 0.02025063 0.024379259
0.0039636265 -0.006221989 -0.021740112 -0.011771417 0.025805991 -0.039639488 -0.008098949 -0.03451885
-0.040904157 -0.019051254 0.003624028 0.033073407 0.005182894 0.009131537 -0.010490897 0.012063332
-0.0060994932 -0.0044086818 -0.0028160883 0.011467757 -0.0031334409 0.06308209 0.04259313 -0.032503095
0.037765376 0.04468797 0.03245529 -0.0063099177 -0.079752356 -0.0140880225 0.0067674504 -0.0070563788
-0.033951677 0.009585572 0.013279381 -0.011363699 0.02003538 0.02920496 0.010822536 0.0121207675
0.028955935 0.024670942 -0.04155355 0.004128511 0.025618508 -0.002774387 0.053734574 -0.0057797064
-0.004774267 -0.00034156276 -0.032466907 -0.024552187 -0.010317891 -0.0005975981 -0.032592636 -0.026985528
0.024807053 0.0063378396 -0.0269434 0.013678063 -0.022766532 0.0047490667 -0.027073551 0.014954722
00000000: 9cb8 753b be96 293d 61e7 55bc 8d74 1ebd
00000010: 031a 6b3c 89eb 8d3a 0959 d2bc 566d c9bc
00000020: fd66 4c3d 6236 e53c 8647 14bc ef0b 2fbd
00000030: 7523 863d 24c7 d93b 9f17 6a3d b5a7 8dbc
00000040: 7370 303d dcf5 0e3b 8b3f 52bd df9f e0bc
00000050: 8808 123d 2820 f23c e3b6 c5bc e62a 3c3d
00000060: a5e6 07bd 5f4c f23c 45de 03b9 e755 4dba
00000070: 9bc0 38bd 0e7b a3bc 10a1 75bb 9bd1 e9b7
00000080: 58bc 203d 9180 0338 6bf8 48bc 3fc6 07bd
00000090: 1145 64bb 3cce fcbc 3e0c 0cbb 3ba3 43bc
000000a0: 0ff4 8a3b 4b90 583c c22b 4d3d ea17 2e3c
000000b0: a4e1 a23b abc7 6d3d abbe af3c 0f82 9ebc
000000c0: 4aad 25bc 34dc 5dbc 0183 80bc 448e f53c
000000d0: 416c 55bd 9abd 19bc 2dd4 e4bb 9484 c6bb
000000e0: 5583 c5bc a26f 393d d267 f2bc 34c4 7e3b
000000f0: 194d 5bbc b867 bbbb 866f f8ba e05d 1e3d
00000100: 11ff 8f3c b588 053c ca7f 373b bd96 403c
00000110: 8390 503c f3b3 993c 4d5e c23a 4db3 883b
00000120: bce7 673c 3db4 02bb 8c02 91bd 9bc7 28bc
00000130: b2f9 aebc ab1a 19ba b00a d33b c5e5 04bc
00000140: 7887 483d 5adc 7f3b 2a72 f5bc cc0d 12bd
00000150: bc22 093c 3884 4ebd b069 03bd e9a5 be3c
00000160: 1ef7 9c3b 77a5 19bd 3bcc 4cbc a3a1 dcbc
00000170: 2799 6dbc 42a9 e23a 6520 99bb a379 453c
00000180: eeb7 983c 6813 d4bc 2634 86ba 62ff 0b3c
00000190: e1ac bb39 b195 20bd 4fff 00bd cfc8 7c3c
000001a0: fedb bf3c 9406 53bc ea49 2ebb ba22 77bc
000001b0: c8b0 5fba 3b44 cfb9 1426 e53c 017f 073b
000001c0: bc8e 6e3c 6e72 60bc ded5 b13c c5d0 6d3d
000001d0: 6d7c 32bc 060e f83c 581e 283c 1de1 56bc
000001e0: b3d5 08bc 6dd5 063c 1c75 9b3b fe66 fc3c
000001f0: cb76 8abb ca40 abbc 0dc9 91bc 037f d7bb
00000200: c4eb 26ba 5a8e dd3b db05 c73c d4ad 8cbc
00000210: e120 333b 7a90 853c 8ec9 6b3d e7d1 04bd
00000220: 2098 1dbc 3fe4 f33c cfa3 9bbc 7517 6d3c
00000230: 064d 563d 0f55 083d e0f3 a23b 17df ffbb
00000240: feb8 013d a7cc a23c fef3 9e3b 838b d3bc
00000250: dfa0 cd3c 4e2b 42bc 6455 d23c d4c8 eb3c
00000260: 6e25 923c 3e3b e5bc 70ed a63c 8b9b 37bd
00000270: 917e 44bc 91c5 a63c b270 a13c 2c47 ffbb
00000280: 4dac 023d 3f52 80bb a2f0 8b3c 8520 7a3c
00000290: 1fdb b53c 3a32 23bc d458 dd3c d27e 3a3b
000002a0: 92d4 333b cb4c 7d3d 6074 c2bb 3707 ef3c
000002b0: 4945 b93c 9ad2 623b d3f3 26bd 13da 8d3c
000002c0: 5678 b5bb af38 87bc 9db6 02bd 63fe 5a3c
000002d0: b004 91bb 2105 b1bd 11a3 a83c 9f70 b9bc
000002e0: 5ffc ad3b 2721 febc 04e2 0ebd f94e 313c
000002f0: 58c0 4b3d ecc2 b83c a6e4 a53c 03b7 c73c
00000300: 4fe1 813b d4e1 cbbb 5218 b2bc e7dc 40bc
00000310: 1667 d33c 045d 22bd 74b1 04bc a363 0dbd
00000320: 1e8b 27bd 6011 9cbc 1a81 6d3b fb77 073d
00000330: 44d5 a93b 719c 153c 03e2 2bbc 48a5 453c
00000340: 42de c7bb b476 90bb 1f8e 38bb 42e3 3b3c
00000350: 6a5a 4dbb 2f31 813d 2276 2e3d f721 05bd
00000360: deaf 1a3d bc0a 373d d7ef 043d 6dc3 cebb
00000370: 3455 a3bd 73d1 66bc 7dc1 dd3b 3239 e7bb
00000380: ea10 0bbd ce0c 1d3c c391 593c cf2e 3abc
00000390: 3d21 a43c 3e3f ef3c 0251 313c 2f96 463c
000003a0: ff34 ed3c b71a ca3c 0e34 2abd 7648 873b
000003b0: e8dd d13c 7dd2 35bb c918 5c3d b163 bdbb
000003c0: 7471 9cbb c713 b3b9 05fc 04bd ab21 c9bc
000003d0: 5f0c 29bc 21a8 1cba db7f 05bd c110 ddbc
000003e0: 2938 cb3c a7ad cf3b 68b8 dcbc f419 603c
000003f0: e180 babc 0f9e 9b3b 5ac9 ddbc a604 753c
