model/mnist/tune_lr0.0001_ed32_nl4_nh2_fm2_ps4/temp_model.pt (torch, 175623 bytes, 74 tensors)

embedding.cls_token f4 [1, 1, 32]
000000 9c 4b 8b 3b 89 74 11 bc 9c 95 7c bb 33 fb 21 bc
       0.0042509567 -0.008877882 -0.0038541323 -0.009886551
000010 f3 d0 a5 bb fa 3d cf 3b b3 0e bf bb 7c eb 5d 3b
       -0.005060309 0.006324527 -0.0058306097 0.0033862283
000020 de 3c 0e 3c 2e 2c ab bb b9 82 0f bc 31 a3 05 3c
       0.008681504 -0.0052237725 -0.008759194 0.008156584
000030 4b d3 58 3c be 2a 26 3b 30 4e cc 3b 98 55 3d bc
       0.01323397 0.0025355066 0.0062349066 -0.011556052
000040 41 d5 43 bb a4 14 04 bb 67 4f 98 ba a0 c9 3b bb
       -0.0029881748 -0.0020153904 -0.0011620343 -0.0028654113
000050 fe 24 9e 3a 83 16 f7 ba b8 f3 07 39 49 02 0c 3b
       0.0012065468 -0.0018851314 0.00012965396 0.0021363667
000060 62 65 04 3b 41 c9 e9 b9 bc a1 2f 3b 00 b1 12 bb
       0.002020203 -0.0004459117 0.0026799282 -0.0022383332
000070 74 50 18 3b f8 20 6a bb 0a c1 dd 3a de 2c ad bb
       0.0023241313 -0.0035725217 0.0016918492 -0.0052848896

embedding.pos_embedding f4 [1, 50, 32]
000000 9c 4b 8b 3b 89 74 11 bc 93 95 7c bb 33 fb 21 bc
       0.0042509567 -0.008877882 -0.0038541302 -0.009886551
000010 fe d0 a5 bb f4 3d cf 3b b3 0e bf bb 6b eb 5d 3b
       -0.005060314 0.006324524 -0.0058306097 0.0033862244
000020 e1 3c 0e 3c 34 2c ab bb b8 82 0f bc 35 a3 05 3c
       0.008681507 -0.0052237753 -0.008759193 0.008156587
000030 4c d3 58 3c bd 2a 26 3b 2d 4e cc 3b 98 55 3d bc
       0.013233971 0.0025355064 0.006234905 -0.011556052
000040 3d d5 43 bb 9e 14 04 bb 75 4f 98 ba a7 c9 3b bb
       -0.0029881739 -0.002015389 -0.001162036 -0.002865413
000050 05 25 9e 3a 7a 16 f7 ba b8 f3 07 39 4d 02 0c 3b
       0.0012065476 -0.0018851303 0.00012965396 0.0021363676
000060 60 65 04 3b 6e c9 e9 b9 b3 a1 2f 3b fc b0 12 bb
       0.0020202026 -0.000445913 0.002679926 -0.0022383323
000070 7b 50 18 3b f1 20 6a bb f7 c0 dd 3a dc 2c ad bb
       0.002324133 -0.00357252 0.001691847 -0.0052848887
000080 f1 fc 11 bb e5 05 12 3c c8 47 4e 3b 28 14 fd 3a
       -0.002227601 0.008912538 0.003147589 0.0019308375
000090 24 aa 03 3c 05 b4 69 bc 7c 1b a9 bb 47 17 1c bb
       0.00803617 -0.014264111 -0.005160747 -0.0023817585
0000a0 52 d4 e1 ba c8 62 47 3b be cd 18 3b 0c 1b 0d bb
       -0.0017229414 0.0030423868 0.0023315991 -0.0021531014
0000b0 fb 6c c1 ba 8d 20 59 bc 52 3b 42 3b 77 4b d8 bb
       -0.001475721 -0.01325239 0.0029637408 -0.006600793
0000c0 5f 7c e2 3b c5 4f ab 3b 88 de 9f bb 0d 1f 45 bb
       0.006911799 0.005228015 -0.0048788227 -0.0030078322
0000d0 52 7e 39 bc dd 7c 01 bb e8 65 c4 ba 36 1e b0 bb
       -0.011321621 -0.0019758262 -0.0014983984 -0.005374695
0000e0 cd 56 54 bb 8b fd 75 3b 3a 01 48 3b 85 be 30 3c
       -0.003240037 0.0037535157 0.003051831 0.010787611
0000f0 09 15 7f bc fb 11 5f bc 9c 64 c8 bb 02 36 d5 3b
       -0.01556898 -0.013615127 -0.006115509 0.0065066824
000100 1f 56 91 bb 1d 23 ff 3b 7a 0e 40 3b 56 94 fe b9
       -0.0044353153 0.0077861683 0.0029305504 -0.00048557174
000110 7e 67 da 3b 10 1a 4d bc ed 9e a1 bb c0 ab 4d bb
       0.0066651693 -0.012518421 -0.0049322755 -0.0031382889
000120 ec 04 38 bb d4 db 0f 3b 2e 31 fc b7 5a d7 e6 ba
       -0.0028079106 0.0021951096 -3.0063642e-05 -0.0017611787
000130 34 5d e6 ba 59 52 77 bc d0 db 3d 3b eb a0 cf bb
       -0.0017575384 -0.015095317 0.002897013 -0.0063363216
000140 18 31 b9 3b de 7c 30 3c bd a8 a1 bb e4 91 66 ba
       0.0056516044 0.010771958 -0.0049334452 -0.0008795543
000150 e3 f6 07 bc f6 d9 22 bb 65 f6 35 ba c1 97 9e bb
       -0.0082986085 -0.0024849153 -0.00069413177 -0.004839868
000160 46 be 74 bb 18 f8 6a 3b f2 c5 81 3b 62 65 1b 3c
       -0.0037344857 0.0035853442 0.0039603645 0.009484621
000170 10 4a 8b bc e2 e8 3e bc 78 94 cd bb b4 9b df 3b
       -0.01700309 -0.011652203 -0.0062738024 0.006823981
000180 9e 36 9e bc a0 36 1e bb f9 87 9a ba 5b 28 05 bc
       -0.019313153 -0.0024141446 -0.0011789791 -0.008127297
000190 5d 00 21 bc 88 3a 7e 3b 5c 9e 25 bb b2 f8 47 bb
       -0.009826747 0.0038792212 -0.0025271391 -0.0030513224
0001a0 f0 ea 54 bc 23 81 86 bb 55 c0 50 bc 6f 38 6c 3b
       -0.012995467 -0.0041047498 -0.012741168 0.003604438
0001b0 da f2 71 bb ee b0 bf bc 6d 27 dd 3a a0 3d 9d bb
       -0.0036918432 -0.023399796 0.0016872712 -0.004798606
0001c0 93 13 08 bc 89 43 16 3d 03 2f b8 bb 3c 9f 86 3c
       -0.008305448 0.0366855 -0.0056208386 0.01643335
0001d0 33 b4 79 3c 32 c8 e4 bb 10 1d 99 3b 71 30 7c bb
       0.015240717 -0.006981873 0.004672654 -0.0038481022
0001e0 4a 53 1d bc c2 17 c4 b9 f3 3c 41 3c ed b5 a9 bb
       -0.009602377 -0.00037401734 0.011794317 -0.005179158
0001f0 0a 37 be bc 59 33 dc 3b c9 2f fb bb fb 2f 08 3c
       -0.023219604 0.0067199883 -0.0076656085 0.008312221
000200 71 d1 09 bd 71 15 98 bc bd 74 4a bc 7b fd 35 3c
       -0.033647005 -0.018564912 -0.012356934 0.011107798
000210 15 c0 44 bd 5b c8 bc 3c 0a c7 7e 3b 0d 32 c3 3a
       -0.048034746 0.023044756 0.003887596 0.0014892236
000220 03 8e f7 bc e8 0c 48 bc cf 05 6c bc 7f 7e 88 3c
       -0.030219084 -0.012210108 -0.014405682 0.01666188
000230 ad 1f ad bb c5 e5 e4 bc c3 20 11 3b 43 b5 65 bb
       -0.005283317 -0.027941594 0.0022144772 -0.0035050667
000240 f4 a4 2a bd 3d 0d 20 3d 6c a9 f8 bb b4 d3 3e 3d
       -0.041661218 0.039075125 -0.007588556 0.046588615
000250 f6 47 44 3d eb b5 41 bc 0a 0c d6 3b f7 8b cd 3a
       0.04792019 -0.011823158 0.006532197 0.0015681972
000260 66 72 08 bd 17 74 53 bc 6a 9a 9d 3c 6f f0 01 bd
       -0.033312224 -0.012906096 0.01923867 -0.031723436
000270 b5 0f 81 bc 78 3a 3a 3d 33 e5 29 bc d6 19 09 3c
       -0.01575456 0.045465916 -0.010369587 0.008367976
000280 db 4d 34 bc 40 45 10 bc e5 70 d4 ba 82 a8 8a 3c
       -0.01100489 -0.008805573 -0.0016207962 0.016926054
000290 db 97 4e bd 71 f7 aa 3c 7d 3a 86 bb 0d 49 56 3c
       -0.05043779 0.020869942 -0.004096328 0.01307894
0002a0 09 6c b2 bc e4 21 8f bc 87 00 6b bc 92 b0 47 3c
       -0.02178003 -0.017472215 -0.014343387 0.012188094
0002b0 53 14 8e 3b af b3 ab bc a7 ef 43 3c 03 de c9 bb
       0.004335919 -0.020959703 0.011958993 -0.006160499
0002c0 f6 a5 13 bd fc bf f4 3c 03 e2 bd bb 54 6f 08 3d
       -0.036046945 0.029876702 -0.005794765 0.033309296
0002d0 2a f3 26 3d 9b 86 27 ba c7 78 c1 3b a1 f3 fd 3b
       0.040759243 -0.0006390602 0.0059042904 0.00774999
0002e0 3f 81 d2 bc 02 46 3f bc 2c e6 c1 3b 68 07 db bc
       -0.025696395 -0.011674406 0.005917331 -0.02673693
0002f0 5c 0d e3 3b 09 32 9b 3c 84 1f 27 bc 51 0a 1d 3b
       0.006929083 0.018944757 -0.010200385 0.0023962448
000300 d6 05 74 3b a5 6e 0a 3c f4 7d eb 3a 7b 6b 48 3c
       0.0037234924 0.008449231 0.0017966614 0.012232657
000310 fc b3 2a bc 0a 83 50 bc a4 35 aa bb 28 8c ab 3b
       -0.010418888 -0.012726555 -0.0051943827 0.005235214
000320 9b f8 65 bb 46 01 ca ba a6 56 35 3b 94 9b 2a 39
       -0.0035090807 -0.0015411756 0.0027670055 0.00016270421
000330 78 99 13 3a e7 fe 24 bc 19 49 c3 3b b3 f1 e2 bb
       0.00056304736 -0.010070539 0.0059596417 -0.0069257854
000340 4f 5c ab 3a 6f f9 f7 3b 24 90 9e bb 34 a0 cf ba
       0.0013073775 0.0075675766 -0.0048389602 -0.0015840591
000350 07 67 b9 bb 3a 90 f5 b9 81 3c c8 ba 09 aa 95 b9
       -0.005658034 -0.000468375 -0.0015276821 -0.0002854618
000360 57 1c dc bb b2 f1 35 ba e0 43 e1 3a ac 8e db 3b
       -0.0067172456 -0.00069406175 0.0017186366 0.0067003574
000370 f6 2c 0f bb 2d 41 55 bc 6f 02 ca bb 87 14 a3 3b
       -0.0021846867 -0.013016027 -0.006164841 0.0049768123
000380 dd 2d 2a bb aa 35 1f 3c 7f f3 59 3b 0e b6 02 3b
       -0.0025967278 0.009717384 0.0033256707 0.0019944939
000390 9c a3 1c 3c db c3 77 bc 9f b8 a9 bb cf 54 52 bb
       0.009560492 -0.015122379 -0.0051794793 -0.0032094007
0003a0 5e 98 ef ba 72 9a 53 3b 1f 11 28 3b 14 95 1a bb
       -0.0018279662 0.0032288102 0.002564497 -0.0023587393
0003b0 72 be bd ba f6 e7 49 bc 39 b4 4d 3b e4 c0 df bb
       -0.0014476313 -0.01232337 0.0031387939 -0.0068284143
0003c0 45 9b f6 3b 1f cc 9c 3b a3 23 a0 bb 6d bf 5f bb
       0.007525834 0.0047850753 -0.0048870607 -0.0034141198
0003d0 98 a8 58 bc 1f 2a fb ba a6 5d ef ba 74 99 8e bb
       -0.01322379 -0.0019162333 -0.0018262162 -0.004351789
0003e0 2d b5 38 bb 4c 85 7d 3b ea 9e 43 3b 20 c0 4b 3c
       -0.002818416 0.0038684187 0.0029849359 0.012435943
0003f0 7c 68 74 bc 78 39 76 bc 8d 73 c6 bb 62 c4 d2 3b
       -0.014917489 -0.01502835 -0.006056255 0.006432102

embedding.conv1.weight f4 [32, 1, 4, 4]
000000 4e 5e 30 bd 7f 68 87 bc b3 a2 8f 3c 5a a0 32 bc
       -0.043058686 -0.01652932 0.017533636 -0.010902489
000010 e7 46 20 3c ce 97 35 3a 39 54 9c bb 53 49 7d 3b
       0.009782529 0.0006927223 -0.0047707823 0.003864844
000020 01 2f 8a bc a4 87 9c 3c 4a ec 0d bc 3b 66 a6 3a
       -0.016868116 0.019107647 -0.008662293 0.0012695262
000030 e9 3f f5 bc b7 a0 d1 3b ee 9b a8 ba 0f 40 be 3b
       -0.029937701 0.0063973325 -0.0012863853 0.005805976
000040 45 74 0b bc 25 39 cf 3b ce e5 f8 bc 9f 29 0f 3c
       -0.008511608 0.006323951 -0.030383017 0.008737951
000050 f6 b9 07 bc 82 e4 53 bc 27 e9 8e 3b 9b 9c a3 bc
       -0.008284083 -0.0129328985 0.00436129 -0.019972136
000060 88 25 8f bb 41 a8 ea ba 4c 9d c6 3b 7b 8a ac 3c
       -0.0043684877 -0.0017902927 0.0060612317 0.021062126
000070 1d c1 00 3d 89 51 85 3b ef 7b 21 bc 0c e8 1c 3c
       0.031434167 0.0040685576 -0.009856208 0.009576809
000080 4e cb 36 bc b3 43 99 3c e8 0e 97 3c a0 08 b2 3c
       -0.01115687 0.01870904 0.018439725 0.021732628
000090 cd 11 a5 3c 3c 84 98 ba f4 b6 cd bc 98 25 14 bd
       0.02015009 -0.0011636089 -0.025111653 -0.036168665
0000a0 98 20 55 bc e2 98 b3 3b 74 7a 99 bc 98 46 12 3c
       -0.013008259 0.0054808715 -0.018735148 0.008927964
0000b0 3d 05 53 3c a3 8a ad 3c 8a 9c 43 3c a8 1f cf 3c
       0.012879667 0.021184271 0.011939177 0.02528365
0000c0 ce 0e 34 bc dc cf 03 bd 14 94 ae bc aa b0 27 3c
       -0.010989858 -0.032180652 -0.021310844 0.010234991
0000d0 c8 6e ea bc 47 95 fa 3c 84 ff 02 3c 8c 53 4b 3c
       -0.028617278 0.03058876 0.00799549 0.012410056
0000e0 63 0a d3 bb 37 6f 19 bc a8 a9 b2 bc 1a 5f 02 3d
       -0.006440447 -0.009364895 -0.021809414 0.031828977
0000f0 59 59 38 bc 26 33 20 3c a7 0c 04 3c 2d 37 b6 bc
       -0.011251771 0.00977782 0.008059657 -0.022243107
000100 a3 c5 12 3b 99 a5 b4 3c 10 75 07 3d 98 4a 05 37
       0.0022395633 0.02205162 0.033070624 7.9447855e-06
000110 9e 26 11 bb 58 d0 a6 bc c6 cc c7 bc 00 11 02 bc
       -0.0022148262 -0.020363018 -0.024389636 -0.007938623
000120 f6 1a 75 3c 60 28 2b bc 34 6f b8 3b cb 9b 04 bd
       0.014960041 -0.010446638 0.005628491 -0.03237514
000130 a4 7d 5c bc fd 99 8d 3b f1 12 8d 3c f9 3f 70 bc
       -0.013457689 0.0043213353 0.017220946 -0.01466369
000140 7a 68 02 3c 17 35 37 3c d4 6c 21 bb 30 95 04 3d
       0.0079594795 0.011182091 -0.0024631517 0.03236884
000150 e8 56 6e bb b5 26 04 bc 50 41 07 bd 2d f4 a8 bc
       -0.0036367718 -0.008065869 -0.03302127 -0.020624245
000160 4d e4 10 3c bb 3e d3 3b 5b b3 c9 bc 4c db 9d 3c
       0.008843494 0.006446687 -0.024621656 0.019269608
000170 1a bc 7f bc 5c 59 ec bc 97 8d b2 3c 0d a3 9a 3c
       -0.015608812 -0.028851204 0.02179603 0.018876577
000180 10 6d b0 bc c8 76 59 3c 3a 5a 8b 3b e2 79 0a bd
       -0.02153638 0.013272949 0.004252699 -0.033807643
000190 24 7f f0 b6 fc 81 6f 3c d2 5f e7 3c 95 f4 68 bc
       -7.1673585e-06 0.014618393 0.028243933 -0.014218469
0001a0 08 21 43 3c d1 46 de bc 1c e8 fa 3b 3f bc fa bb
       0.011909731 -0.027133377 0.007657064 -0.007651835
0001b0 96 08 14 3d 75 05 69 bd ca 57 c6 3b 7e 07 08 bd
       0.036141 -0.05688997 0.0060529457 -0.03321027
0001c0 b8 27 24 bd 6c 8f fe 3b 8e 8c 8b bc 45 32 d1 3c
       -0.04007694 0.007768562 -0.017034795 0.025536666
0001d0 09 bf 8a bc 8c b6 e5 bb c4 d8 95 b9 92 c7 cc 3c
       -0.016936796 -0.0070102867 -0.00028580998 0.024997506
0001e0 49 83 b4 bc 9b 4c 80 3b e0 83 00 3d 62 01 2d 3d
       -0.022035258 0.003915382 0.031375766 0.042237647
0001f0 d7 c2 2f 3a c3 50 b6 bb 2b a0 8a bc 50 2d cb 3c
       0.00067047536 -0.0055638268 -0.016922077 0.02480188
000200 73 e5 c0 bc c8 73 2d bc 18 7b f7 3a 6b 4a 09 bd
       -0.02354691 -0.010586686 0.0018881289 -0.033518236
000210 0f 55 16 bc 31 76 f4 bc cb 78 07 3d 1e c8 c0 3b
       -0.009175553 -0.029841514 0.03307418 0.005883231
000220 45 5e a5 3b 54 6a f2 bb 08 c4 24 bc b1 c4 4a bd
       0.005046638 -0.007397929 -0.010056503 -0.049503986
000230 96 82 0c ba 04 0c ad 3a e0 02 d9 3c 64 d1 3e 3c
       -0.0005360035 0.0013202433 0.026490629 0.011646602
000240 94 02 c9 3c d6 89 d3 3c ce 99 ff 39 e2 b5 3f 3c
       0.024537362 0.025822561 0.00048751984 0.011701079
000250 49 15 43 3c 22 65 d9 ba 25 21 88 3a d6 64 bc 3b
       0.01190693 -0.0016585926 0.0010385854 0.0057493253
000260 b5 e2 95 bb cb aa d5 bc bd 94 ab 3b 7d 8d 3e 3c
       -0.0045741447 -0.026082417 0.005236237 0.011630413
000270 09 fc 2b 3c 31 51 11 bd 6c 09 e9 bb 4b 8c b0 3c
       0.010497102 -0.03547782 -0.007111719 0.021551272
000280 da 67 a5 bc 43 0e 4a 3a 14 27 be ba ab 81 c1 bb
       -0.020191122 0.00077078136 -0.0014507496 -0.00590535
000290 a7 82 0b bb 1e ca 2f 3c 35 9d 7d 3a 6f 1d 8b 3c
       -0.0021287592 0.010729341 0.000967461 0.016981808
0002a0 3a 3f 58 bc d0 83 54 bd 41 81 13 bc c8 e1 aa 3c
       -0.013198668 -0.05188352 -0.0090029845 0.020859614
0002b0 44 1f 3d 3d c3 8d cc bc 51 fe 9e 3a cd 2c bb bc
       0.046172395 -0.024969941 0.0012130236 -0.022848511
0002c0 9c 1b e2 3c ea 66 0b 3c 7e 94 c8 bc b7 92 b8 bc
       0.027601056 0.008508423 -0.02448487 -0.022530897
0002d0 be 99 41 bc ce 93 71 bb 87 f9 17 bc de 27 cc 3a
       -0.01181644 -0.003686178 -0.009275801 0.0015575846
0002e0 1f 04 08 3c 3e a4 79 bb b8 ba 79 3b de f9 82 3c
       0.008301764 -0.003809228 0.0038105678 0.015988287
0002f0 21 29 f4 bb b0 d8 b7 bb d0 97 0b bd fd 8b c9 bc
       -0.007451192 -0.005610548 -0.034080327 -0.024602884
000300 11 ea 04 3c 8d 4e bf bc ef 1d 9e bc 22 2c bc 3b
       0.008112446 -0.023352886 -0.019301383 0.0057425657
000310 8a b6 cc b9 63 5c 04 bc 56 19 92 3b ee 75 cb 3c
       -0.00039045914 -0.008078667 0.0044585867 0.024836507
000320 c8 ea 90 3c ec 97 95 3b c9 95 12 3c 52 ef 89 bc
       0.017690077 0.0045652296 0.008946844 -0.01683775
000330 83 24 77 bc 1b 93 5f bc d1 28 8a 3b 73 ca f0 bc
       -0.015084389 -0.0136459125 0.0042162915 -0.02939341
000340 d5 50 1a bc 9e 5b aa 3c 62 c0 4e 3d e2 99 20 bd
       -0.009418686 0.02079564 0.05047644 -0.039209254
000350 fe 10 8f bc bf 66 ed bb 3a c0 5d 38 43 16 89 3c
       -0.017464157 -0.0072449143 5.286953e-05 0.016734248
000360 f5 95 ea 3b ae 40 5b 3d de b7 95 3c d8 15 8e bc
       0.0071589896 0.05352848 0.018276151 -0.0173444
000370 8c 3b 78 bc 7e fa d5 bc 20 f7 02 bc 36 e2 a7 bc
       -0.015150916 -0.02612042 -0.0079934895 -0.020493608
000380 a1 8a a7 3c 4b 6c e9 bc e2 14 bc bc e8 24 0c 3c
       0.020451846 -0.02849402 -0.022959176 0.008553721
000390 a7 af 4f 3c 4a 2b 02 3d 77 aa 8d bc 74 5e 5d 3b
       0.012676156 0.031779565 -0.017293198 0.0033778222
0003a0 94 09 d0 bc 06 39 f8 3c 88 f8 05 bd 8c 2e 17 3d
       -0.025395192 0.030300628 -0.03270772 0.036909625
0003b0 a6 d7 ed 3c 1f 6e 18 bc 2b f4 45 3c 2c 40 4b bc
       0.029033493 -0.009303599 0.01208214 -0.0124054365
0003c0 1b 95 ad 3b 79 b0 0d bb 97 93 39 bc cd 50 af 3a
       0.005297316 -0.0021620078 -0.011326692 0.0013375521
0003d0 3b 05 11 3b b0 b3 ab bb 16 6e 63 bc c1 60 27 bd
       0.0022128362 -0.0052399263 -0.013881227 -0.040863756
0003e0 bd 90 5e bb 1f 82 2d bd 80 f6 75 3a 46 e2 05 bd
       -0.0033960782 -0.04236042 0.00093827397 -0.032686494
0003f0 82 05 65 bb e7 61 e8 bc f3 08 55 3b 47 b1 66 3d
       -0.003494591 -0.028366996 0.0032506555 0.05632141

embedding.conv1.bias f4 [32]
000000 af 2a 0f 3b c1 db 86 ba a1 ad a1 3b 39 3a 09 bb
       0.002184551 -0.001028888 0.0049340283 -0.0020939244
000010 35 79 0d bc 5e 02 4d 3c da d0 b0 bb 4c 57 fd 3b
       -0.008634855 0.012512771 -0.005395991 0.007731354
000020 e7 44 02 bc 79 08 89 ba 40 58 c9 bb 3e a2 45 bb
       -0.007950998 -0.0010454796 -0.0061445534 -0.0030156518
000030 54 b5 b8 bb 39 3d fe ba 41 54 dd 3b 54 2e a6 bb
       -0.0056368504 -0.0019396908 0.0067544286 -0.0050714407
000040 3b 3d 38 bc 3e b2 87 3b 98 1c b4 bb 30 81 14 3c
       -0.011245067 0.004141121 -0.0054965727 0.009064004
000050 c0 99 82 3c 9c 19 91 bb 54 11 ff 3a c8 e7 f2 3a
       0.015942454 -0.0044281017 0.001946012 0.0018532211
000060 15 76 d1 bb 6a 99 07 bc 71 f9 d6 3a 6c 63 a4 bc
       -0.0063922503 -0.008276323 0.0016401244 -0.02006694
000070 68 08 a1 bb ea 67 2f 3b da af fd bb cc 5f 04 3c
       -0.004914332 0.0026764818 -0.0077419104 0.00807948

encoder.0.attention.queries.weight f4 [32, 32]
000000 ed ab ca 3b 2a 1e 86 bd ae 15 81 bc 10 87 18 bd
       0.006185046 -0.06548722 -0.015757408 -0.03723818
000010 21 54 4a bd 6d f3 a2 3d 05 1f 21 bd a9 f2 a7 3c
       -0.049396638 0.07956586 -0.039336223 0.020501452
000020 64 b0 ab 3d 0c 27 18 bd 14 50 a2 bc 2f 53 b7 3c
       0.08383253 -0.037146613 -0.019813575 0.022378532
000030 fa 4b 39 3d 09 8d 48 3d 7c 86 15 3c 2a 06 9e bd
       0.045238473 0.048962627 0.009126302 -0.077160195
000040 c3 d4 31 bc 21 4f e7 bb 3a 06 50 bd ab b5 30 bc
       -0.010853949 -0.0070589934 -0.050787188 -0.0107855005
000050 73 d1 d2 3c a2 15 4a bd 82 ff 80 bd 84 c8 ec 3c
       0.025734639 -0.049337037 -0.06298734 0.028904207
000060 99 38 c5 bb a5 bf f7 bc 26 12 01 3d 90 77 89 bd
       -0.00601871 -0.03024275 0.03151145 -0.06712258
000070 0d 9c 36 ba bf 72 74 bd 62 23 54 3d 8e 31 ff bc
       -0.00069660024 -0.059679743 0.051791556 -0.03115156
000080 d8 e4 7d 3d 8b ed 6a bd c6 ab 07 3d d4 d8 fe bc
       0.06198582 -0.057355445 0.0331228 -0.031109251
000090 c9 c9 ca bc a1 cb 8d 3d 1f ff f7 bb d5 64 a9 3c
       -0.024754422 0.06923605 -0.0075682546 0.020677963
0000a0 3e f1 6e 3d 15 af d5 bc 6b ff eb bc 01 c7 73 3d
       0.058335535 -0.026084462 -0.028808316 0.059515957
0000b0 db 0e 02 3d 9c c0 75 3d 7a 75 5a 3d ad 53 6e bd
       0.03175245 0.05999814 0.05333469 -0.05818527
0000c0 82 a6 6b bd c5 ce 61 bd 54 91 50 bd 01 0f db 3b
       -0.05753184 -0.05512883 -0.050919846 0.006685138
0000d0 2e bb 98 3c 3e 20 63 bd fb 72 2d bd 2a 1e 4b 3d
       0.018643942 -0.05545067 -0.042345982 0.049589314
0000e0 6d cc bf bc 14 75 65 bd 4a 38 40 3d 71 40 74 bc
       -0.023412907 -0.056019858 0.04692868 -0.014907942
0000f0 e0 3b 99 3d 7e b9 38 bd 08 c9 97 3d 60 17 24 bd
       0.074821234 -0.045098774 0.074113905 -0.040061355
000100 9b d4 06 bd 18 06 7a 3d d4 e4 32 bc ca 4c a7 3d
       -0.0329176 0.061040968 -0.010918815 0.08168943
000110 a4 99 6d 3d bf 21 64 bd a4 f2 36 3d d5 75 82 bd
       0.05800785 -0.055696245 0.044664994 -0.06370131
000120 37 d5 5d bd ef 14 4e 3d bc 38 5a 3d da 3d 66 bd
       -0.054158416 0.050312933 0.053276762 -0.05621133
000130 55 a8 19 bd 04 61 7f bd f5 9e 84 bd 67 6f 61 3d
       -0.03751405 -0.06234838 -0.06475631 0.055037882
000140 ce ae 30 3d 9f 4e 12 3d 53 0b 97 3d e9 87 51 bd
       0.043135457 0.03571951 0.07375207 -0.051155005
000150 58 05 ea bc f0 19 68 3d 4c 12 0b 3d 5d 2c 27 bd
       -0.028567001 0.05666536 0.033952996 -0.040813792
000160 33 4d 40 3d 32 9f 80 3d 21 37 cf bc 0b 1b 61 bc
       0.046948623 0.06280364 -0.025294842 -0.013739358
000170 72 fb ab bc 80 93 48 3d 50 c4 82 bd 47 6e d6 3c
       -0.020993922 0.048968792 -0.063851 0.026175631
000180 3e 94 17 bd 71 4c 9e 3c 89 6d 21 bc 96 bf e1 3c
       -0.03700661 0.01932356 -0.009852775 0.027557176
000190 7e 24 33 3d a3 30 4c bd a4 55 a9 3c fe 1d 04 bc
       0.043735974 -0.04985107 0.02067072 -0.008063791
0001a0 81 8d 9b bc f6 b6 04 3d 84 a9 20 3c af 27 d0 bb
       -0.018988373 0.032401048 0.009806041 -0.006352387
0001b0 88 e4 06 bd d2 de 0f bd e4 94 0a bd 98 38 54 3d
       -0.032932788 -0.035124607 -0.0338334 0.051811785
0001c0 6b a0 52 bc 7b 66 5a 3d cb a3 a9 3c c9 5a 4a bc
       -0.012855629 0.05332039 0.020707985 -0.012350746
0001d0 99 26 ba bd db 31 34 3d 30 73 91 b9 8b a2 d5 bc
       -0.09089393 0.04399286 -0.00027742377 -0.026078483
0001e0 38 21 4a 3d f1 c4 b3 3c 63 41 1b bd 45 80 57 3d
       0.049348086 0.021944495 -0.037904155 0.05261256
0001f0 da bc bc bc d7 30 02 3d ff fe 71 bd 2a a9 12 3d
       -0.02303927 0.03178486 -0.059081074 0.03580586
000200 f2 b4 59 3d de 14 22 bd 12 7c 1a bd 39 a8 87 bd
       0.05315108 -0.03957068 -0.03771598 -0.06623883
000210 4d f1 d7 bc ca 2b 5a 3d 7a 8e ec bc 08 9d d1 3c
       -0.026360178 0.053264417 -0.028876532 0.025587574
000220 85 40 51 3d c5 60 a8 bc 74 c8 8a bc 93 60 f3 3c
       0.05108692 -0.020553956 -0.016941287 0.029709136
000230 a4 7f c5 3b 9c 18 a0 bb 1d 00 b5 3c 7c 6b 4c bd
       0.006027179 -0.004885746 0.02209478 -0.049907193
000240 ea 96 70 3c 2d 28 eb bc fb 82 01 bd ea c2 bf bc
       0.014684418 -0.02870568 -0.031619053 -0.023408372
000250 62 f6 18 3c ca 3f 3f bd 0b 1e 45 bc 7f 6f 4e 3d
       0.009336086 -0.046691693 -0.012031089 0.0503993
000260 fd 27 49 bd 8a e0 1c bc 6a c7 c3 3c 56 b4 22 3b
       -0.0491104 -0.009575019 0.023898799 0.0024826727
000270 5c 7a 0b 3c a9 e0 7f bc 5d 2e 3b 3d 72 77 84 bc
       0.0085130595 -0.015617528 0.045698512 -0.016170237
000280 76 2d 0e 3d 8d 97 5e bd 3c d5 da 3c ee 79 9d bd
       0.034711324 -0.05434375 0.026713006 -0.07689272
000290 70 7b f0 bb e9 e6 51 3d 5f 30 45 bd 1f fb 51 3d
       -0.0073389336 0.051245604 -0.048141833 0.05126488
0002a0 d2 31 d1 3c 70 4e ae bd 6b 63 bb bd fa d3 28 3d
       0.025536451 -0.085110545 -0.09149822 0.04121778
0002b0 8c f5 3e 3d 9d d8 36 3d 94 20 86 3d 8e 00 c9 bc
       0.04662089 0.044640172 0.065491825 -0.024536397
0002c0 52 2a 97 bb ae f8 ad bc 63 e7 d0 bc e0 17 6e 3c
       -0.0046131993 -0.021236744 -0.025500959 0.014532059
0002d0 a8 95 f2 3c 27 af 46 bd 8f 0d cc bc 1e 01 2f 3d
       0.029612377 -0.048506882 -0.024908809 0.042725675
0002e0 6f b7 3b 3b cd 19 38 ba 00 c5 bc 3c f3 13 1e bd
       0.002864327 -0.00070228876 0.023043156 -0.038593244
0002f0 ce 1d f3 3b 7f d0 18 bd 45 83 29 3d 81 4f 39 bd
       0.0074193245 -0.037308212 0.041384954 -0.045241836
000300 b7 a8 94 3c d5 60 20 bd 80 e3 83 3c 19 e0 ee bc
       0.018146856 -0.039154846 0.016099691 -0.029159592
000310 cb 98 9a bc 2c c5 15 3d 22 ba b3 bc 7b f3 4a 3d
       -0.018871685 0.03656499 -0.021939341 0.049548607
000320 1d ca 7a 3d 7a 86 3d 3c 86 20 93 bc 56 5b 51 3d
       0.061227906 0.011567706 -0.017959844 0.051112495
000330 47 96 f3 3c 44 e1 f5 bb ca a9 53 bc ee 35 25 bd
       0.029734744 -0.0075036604 -0.012918899 -0.040334634
000340 32 be 01 bd 04 bb 61 bc 77 64 35 bd 8d 4c 37 bc
       -0.031675525 -0.013777498 -0.044285264 -0.011187685
000350 40 58 db bb 0c fb e9 bc 7d 13 6a bc 6a 89 64 3c
       -0.00669387 -0.028562091 -0.014286873 0.013948778
000360 38 ce 86 bc 46 24 60 bd c2 50 0a 3c ae a4 00 bc
       -0.016455755 -0.054722093 0.008442106 -0.007851763
000370 d4 c2 12 3c 82 72 32 bc f4 eb ec 3c ee 1d 0b 3c
       0.008957583 -0.010891559 0.028921105 0.0084910225
000380 b4 63 52 bd fe db 80 3d 37 fc 5e 3d 73 9c 64 3c
       -0.051364616 0.0629196 0.05443975 0.013953316
000390 52 ee ca 3b 73 a8 26 bd 59 c6 36 bb 75 c2 1e bd
       0.006192961 -0.04068799 -0.002788922 -0.038759667
0003a0 3d 88 61 ba 37 ef 02 3c d2 a1 99 3c 82 f8 14 bd
       -0.000860337 0.007991604 0.01875392 -0.036369808
0003b0 e6 95 9a bd b1 dc 22 bd e3 df 32 3b 5b 72 04 3d
       -0.07548122 -0.03976125 0.0027294091 0.03233562
0003c0 b2 67 82 3d b0 41 8d 3c be 58 1e 3d ca 4f 0c 3d
       0.063674346 0.017243236 0.03865885 0.03425578
0003d0 8c 1b 4d bd 0b 85 4e 3d 26 63 94 3c c7 ee 31 bc
       -0.0500751 0.05041985 0.018113684 -0.010860152
0003e0 9a e0 0e 3d b8 2e 39 3d 93 cd 37 bd 08 bb 0a 3d
       0.034882165 0.04521057 -0.044873785 0.033869773
0003f0 6e 6c 69 38 24 08 4f 3c 1a 7b f5 bc c0 2a 2f 3a
       5.5652512e-05 0.012636218 -0.029965926 0.00066820905

encoder.0.attention.queries.bias f4 [32]
000000 ef 35 2a 3d f8 6f 0c 3d 3d 23 66 bd 57 19 ca bc
       0.04155534 0.03428647 -0.05618595 -0.024670286
000010 30 1a 98 3c 5c 79 21 3d 66 15 8b 3c 6b dc d9 bc
       0.018567175 0.039422378 0.016977977 -0.026594361
000020 5d bc 83 3c b6 85 d8 3c 92 28 84 bd 1c b6 53 3d
       0.01608103 0.026430946 -0.06453051 0.051687345
000030 56 26 45 bd fb 47 26 3d c2 67 a3 bc d1 a9 b4 bc
       -0.048132263 0.04059599 -0.019946937 -0.022053631
000040 88 76 14 bd 12 13 00 3d 1e ed 90 bd cb 08 8f 3d
       -0.036245853 0.031268187 -0.070764765 0.06984099
000050 12 46 17 bd 57 49 8d bd 45 62 a3 bd e5 99 19 3d
       -0.03693206 -0.06898754 -0.07977728 0.03750028
000060 eb 4f 18 bd ce 7f 65 bd 48 5e 7b bd 63 9d 72 3d
       -0.03718559 -0.056030087 -0.06136921 0.059232127
000070 6f 2f 1f bd 8b 73 b8 3d 94 a5 31 3d bc 4f 79 bd
       -0.038863596 0.09006413 0.0433708 -0.060867056

encoder.0.attention.keys.weight f4 [32, 32]
000000 a4 64 f9 3c e5 96 74 bd 1f 37 29 bd 53 07 66 3d
       0.030443497 -0.059714217 -0.041312333 0.05615933
000010 e0 23 86 bc 3f 5d dc 3d 48 e8 0d 3d 15 c1 e9 bc
       -0.016374528 0.10759973 0.03464535 -0.028534451
000020 72 58 ab 3c 44 54 0e bd c0 3e 2d 3d 80 55 4f 3d
       0.020916197 -0.03474833 0.04229617 0.05061865
000030 e2 81 f0 3b 81 b7 0a bc 8e 5a 03 bd 4e c4 2d b9
       0.007339702 -0.008466602 -0.03206878 -0.00016571695
000040 b0 d5 de 3a 0c ed da 3d 86 5f 68 3d 6f bd 18 3d
       0.001700094 0.10689744 0.056731723 0.037290033
000050 c6 90 a7 3d 7e 7d 4e 3d a7 7d f4 bb c9 f6 87 bd
       0.0818191 0.050412647 -0.007461268 -0.066388674
000060 4b 7e 04 bb a7 07 33 bb e3 59 0f bd 40 fd 5f bd
       -0.0020216878 -0.0027317794 -0.034997832 -0.054684877
000070 22 fe 49 bd 55 1a 91 3d 3d 8c 91 3c c6 72 85 bc
       -0.049314626 0.070851006 0.017767066 -0.01629008
000080 c4 0e 30 3d e2 7f 9d bd d8 b1 85 bd e4 93 0b 3d
       0.04298283 -0.07690407 -0.06528062 0.034076586
000090 c5 e8 e5 bc e5 e7 f7 3c 45 bc 7f 3d 55 52 91 3c
       -0.028065095 0.030261943 0.062435407 0.017739454
0000a0 94 44 61 3d 61 47 dd bc f2 0c 8c 3c d8 af 9d 3d
       0.05499704 -0.027011575 0.017096017 0.07699555
0000b0 6a 98 84 3c 9d e4 35 bd 96 25 96 bd 80 09 23 3d
       0.016185958 -0.044407476 -0.07331388 0.03980398
0000c0 07 c0 aa 3d 61 18 42 3c 39 b3 23 3d c7 0b b4 3c
       0.083374076 0.011846633 0.039965842 0.021978272
0000d0 10 d1 60 3d 4d 3f 55 3d e8 f2 1d bd a2 69 42 bd
       0.054886878 0.05206232 -0.03856173 -0.04746402
0000e0 a8 5c 11 bd 05 26 1e 3d 07 97 58 bd ad 7a 63 bd
       -0.035488755 0.038610477 -0.052878406 -0.055536915
0000f0 90 d8 98 bd 23 99 4e 3d e1 41 30 3d 86 6a c4 bc
       -0.07463181 0.05043901 0.043031577 -0.023976576
000100 c1 73 32 bd c6 09 6b 3d ce c9 63 3d 1e 00 12 bd
       -0.043567423 0.057382368 0.055612378 -0.035644643
000110 5e 46 1d bc 66 35 8c bd 1f ad 82 bd b7 b7 1f bb
       -0.009599296 -0.068461224 -0.063806765 -0.0024370977
000120 ca 4e d5 bc 25 ff 2f 3b 8b 66 0d bc 5f 3d 43 bd
       -0.026038546 0.002685496 -0.008630405 -0.04766595
000130 e9 68 b4 bc 4e 8a 00 3d 32 38 16 3d c3 da 80 bd
       -0.022022681 0.031381898 0.036674686 -0.062917255
000140 31 c7 9e 3b 4f a0 db bd ca ab 92 3b 3c 0b 4c bd
       0.004845523 -0.10723936 0.0044760453 -0.0498154
000150 23 3a d4 bd 5b 01 04 bd 37 39 42 3d c8 87 02 3d
       -0.10362651 -0.032227855 0.047417846 0.031867772
000160 ee 29 2f 3d 87 3a b4 39 d1 77 9b ba 10 4f f3 3c
       0.042764597 0.00034375882 -0.001186127 0.029700786
000170 8f ad 81 3c 36 49 33 bd 07 dd de bc 22 ab 1f 3d
       0.01582983 -0.04377099 -0.027205003 0.038981564
000180 5b ea 8c bd 7d ae ab 3c ba bd 17 3d 88 33 26 bd
       -0.06880637 0.020957226 0.03704617 -0.040576488
000190 53 cf 84 bc cc f1 f9 bc d6 b2 22 bd ac 1d 4a 3d
       -0.016212141 -0.030510806 -0.039721332 0.049344704
0001a0 80 12 1b bd d3 76 03 3d c6 5f c1 3b 6b 1c 04 bd
       -0.03785944 0.03209574 0.0059013097 -0.032253664
0001b0 89 d9 62 bd db 58 cf 3c fb eb 45 3d bf 3b 2b bd
       -0.05538324 0.025310924 0.04832075 -0.041805025
0001c0 e1 17 03 bd 46 af 17 3a 76 8a 2c bd 7c 25 81 bc
       -0.032005195 0.00057863106 -0.042124234 -0.015764944
0001d0 24 90 c5 3a 49 66 81 bc 90 01 0f 3d 62 67 81 3d
       0.0015072864 -0.015795844 0.0349136 0.06318547
0001e0 c4 45 cb 3c be 1c d5 bc a5 f7 ec bc 68 2f 3e 3b
       0.02481354 -0.026014682 -0.02892668 0.0029019956
0001f0 18 87 28 3d 35 93 95 bc 93 de 49 bc ec 43 3d 3d
       0.04114446 -0.01825867 -0.012321132 0.046207353
000200 fb 81 1e 3d 7e 8f ec bc e3 41 a9 bb 06 89 0c 3d
       0.038698178 -0.028877016 -0.005165325 0.034310363
000210 08 54 80 3c 29 13 20 3c 09 93 82 3d 06 fa 08 bd
       0.01566507 0.009770193 0.06375701 -0.033441566
000220 a4 64 00 3d fd d0 d9 bc 33 c2 73 bc 08 ed 18 bc
       0.03134598 -0.026588911 -0.014877844 -0.009333856
000230 21 5f 5d 3d 8f 8d b5 bc 73 31 23 bd 2f c2 fe 3c
       0.0540458 -0.022162227 -0.03984208 0.031098453
000240 36 b0 8f 3d 00 1e 90 3c 5c b0 dc 3c 57 74 87 bc
       0.070160314 0.01759243 0.026939563 -0.016534967
000250 5e 73 4d 3c 3c c3 ec 3c 03 b4 2c bd 01 82 a2 bc
       0.012539713 0.028901689 -0.04216386 -0.019837381
000260 a5 4d a3 bb b0 18 79 3c 49 43 12 bd 05 6f ce 3c
       -0.004983621 0.01520364 -0.0357087 0.025199423
000270 72 b4 cc bc 9a 1d 98 3c 2f 5c 47 3d ab 12 f5 bc
       -0.024988387 0.018568803 0.048671898 -0.029916128
000280 26 1f 91 3c d0 7a a2 bd 86 7a 66 bd 96 bf 19 bb
       0.017715048 -0.07933581 -0.05626919 -0.0023460141
000290 43 f5 d9 bc 43 07 84 3d 56 78 3e 3d 3e 60 e1 bb
       -0.026606208 0.064466976 0.04650148 -0.006877928
0002a0 c7 f8 cc 3b d8 06 4d bd 87 3d 79 bb 6b 74 b0 3c
       0.0062552425 -0.050055355 -0.0038031058 0.021539887
0002b0 73 50 05 3d a0 4d 3a bd 78 04 22 bd 5c 0e 05 3d
       0.032547425 -0.045484185 -0.039555043 0.032484397
0002c0 e7 c5 ad bc 42 c5 d6 3d 7e 43 10 3d 59 55 d4 3d
       -0.021212531 0.10486843 0.035220616 0.10367841
0002d0 41 9e 4b 3d c6 97 d3 3c 06 bf 0b bb b8 41 0c 3b
       0.04971147 0.025829207 -0.0021323576 0.0021401476
0002e0 e1 8b 3a bd d0 cb dc 3c 2c 64 5f bc 4d 9a c5 bc
       -0.045543555 0.026952654 -0.013634723 -0.024121428
0002f0 60 82 1c bd 43 f6 d2 3c 91 7b 3c 3d f8 15 ac bc
       -0.038210273 0.025752192 0.04601628 -0.02100657
000300 cf b2 fe 3c d6 46 e3 bc 97 b0 d8 bc 31 da 06 3c
       0.031091122 -0.027743738 -0.026451392 0.008230732
000310 13 8a d3 3c 4b cc d6 3a 5a fb fb 3c c7 a5 ec 3c
       0.025822675 0.0016387788 0.030759502 0.028887643
000320 2f 50 7c bc 14 d4 78 bd f3 1c 18 3d 0c 32 7d 3b
       -0.015399977 -0.06074913 0.037136983 0.0038634567
000330 fd a9 06 bd df 40 20 bd a1 bc b7 bc c8 83 d8 3c
       -0.032876957 -0.039124366 -0.022428812 0.026430026
000340 b9 7c 3c 3d 01 2e 82 3b 61 79 7c 3c 05 93 d9 bb
       0.046017382 0.0039727692 0.015409798 -0.0066398405
000350 c4 9a 81 3d d4 c7 a4 3c 31 66 ef 3c 65 dc aa bc
       0.06328347 0.020114817 0.029223533 -0.020857045
000360 1e 4e b0 3c 11 32 81 3c 60 ad 68 bd 64 84 d9 3c
       0.021521624 0.015770944 -0.05680597 0.026552387
000370 c9 c4 5f bd e9 c5 cf bc d5 f3 12 bb fc a2 32 bd
       -0.05463103 -0.025362926 -0.0022423167 -0.043612465
000380 6e 32 8d bc 21 b9 e5 3c 8a a8 f6 3c 0d 97 e3 bc
       -0.01723596 0.028042378 0.030109663 -0.027781988
000390 c5 f7 c6 bc 4f eb b4 bd 3a 81 83 bd 60 76 4e 3b
       -0.024288068 -0.08833944 -0.064211324 0.0031503662
0003a0 39 c4 04 bd 15 57 e8 3b 1b 22 2a 3a 9b 7a 01 bd
       -0.032413695 0.007090459 0.00064900675 -0.031611066
0003b0 51 68 e3 3b e4 d7 f9 3b 79 a0 74 3d 1e d2 d6 bc
       0.0069399257 0.007624613 0.05972335 -0.026223239
0003c0 57 45 9a bc ce 3f d0 bd 80 e2 53 bc 19 8f 90 bd
       -0.018831892 -0.1016842 -0.01293242 -0.07058544
0003d0 c9 69 98 bd 64 71 86 bc 63 ff 09 3d da 5e 6e 3d
       -0.07442052 -0.01641149 0.03369082 0.058195926
0003e0 6d 90 78 3b bc 10 03 3d 81 a3 42 3c 0b eb 80 3d
       0.0037927881 0.03199838 0.011879803 0.06294831
0003f0 a8 56 2a 3d aa cd 16 bd ab e3 e8 bb c6 c4 df 3b
       0.041586548 -0.03681723 -0.0071072183 0.006828877

encoder.0.attention.keys.bias f4 [32]
000000 24 f8 56 b8 e7 4a a3 b7 91 d0 00 38 cf d4 26 37
       -5.1252675e-05 -1.9465993e-05 3.071182e-05 9.943919e-06
000010 d0 88 db b6 7a fd c9 b7 86 d6 26 b7 45 b2 31 36
       -6.5426357e-06 -2.4079101e-05 -9.944319e-06 2.6478822e-06
000020 64 4c 13 b7 16 fc f6 b6 9d 46 70 38 f8 24 2f b8
       -8.779669e-06 -7.360718e-06 5.7286223e-05 -4.175768e-05
000030 f6 84 0d b7 f9 25 02 b6 7f ec db 36 e4 59 9f 37
       -8.435212e-06 -1.9393613e-06 6.5542404e-06 1.8996136e-05
000040 e9 38 77 38 52 c8 0a b8 90 56 51 38 a4 7b c9 b8
       5.894239e-05 -3.3088327e-05 4.99101e-05 -9.607457e-05
000050 b2 e1 11 38 e7 66 cc 38 d6 23 11 39 57 56 de b7
       3.478089e-05 9.746645e-05 0.00013841628 -2.6504667e-05
000060 8e 53 3b 38 b1 7f 5d 38 b7 be fb 38 b3 30 7a b8
       4.466209e-05 5.2809428e-05 0.00012004136 -5.965e-05
000070 5a 40 21 37 6a 51 3c b9 1f 68 79 b8 6f eb fb 38
       9.611331e-06 -0.00017959406 -5.9463197e-05 0.000120124656

encoder.0.attention.values.weight f4 [32, 32]
000000 2b 79 28 ba 68 4d 15 3d 18 45 a4 bc 9f 3b 23 bd
       -0.0006426747 0.036450773 -0.020052478 -0.03985178
000010 33 2f 4f bc ed 92 e2 3a b2 47 54 3c 04 20 07 3d
       -0.0126455305 0.0017286219 0.012956547 0.032989517
000020 dc 31 0d bc 5f 91 d3 bc c3 11 d6 bb 42 ad 09 bd
       -0.008617844 -0.025826154 -0.006532879 -0.033612497
000030 97 7a 98 bb a5 75 92 3b a2 30 71 bc 6e 7a ed ba
       -0.0046532857 0.0044695907 -0.014721068 -0.0018118152
000040 48 b4 76 3c 5c cb 5a bc ec 8c 1e bd 80 20 be 3a
       0.015057631 -0.013354149 -0.038708612 0.0014505535
000050 c7 b1 2c 3d c2 b7 b0 bc ba df 56 bc 61 bf f1 bc
       0.04216173 -0.021571998 -0.013114864 -0.029510202
000060 2d e2 a2 bb 45 d5 1f 3b 94 54 1e bd 6f 59 f8 ba
       -0.00497081 0.0024388593 -0.03865488 -0.0018947552
000070 3f a0 a1 3c d5 c7 40 3b 0d d4 57 bc 1c 04 59 3c
       0.019729732 0.0029415984 -0.013173115 0.013245609
000080 e1 ba e5 3a c5 47 f4 3b 52 8a db bb a5 8f ca bc
       0.0017527008 0.0074548447 -0.0066998387 -0.024726698
000090 17 2b 53 3c 93 8c 0c bd 91 95 33 bc 7d 11 1d bc
       0.012888691 -0.03431375 -0.010960952 -0.009586689
0000a0 bc bf 83 bc 9a f5 1f 3d 9c 47 86 3a fc a0 79 bd
       -0.016082637 0.039052583 0.001024473 -0.060944542
0000b0 b4 57 32 bd f4 73 03 3d c5 df 32 3c 64 c9 20 bd
       -0.04354067 0.032093003 0.010917609 -0.03925456
0000c0 d0 86 ae 3c e0 77 34 bc 4c df 63 bc 83 de 89 3b
       0.021304518 -0.011014909 -0.013908219 0.0042074337
0000d0 52 c4 2b bc 05 ee 61 3d be 62 8c bb 7d b9 ea 3c
       -0.010483818 0.055158634 -0.004284232 0.0286529
0000e0 41 fe c9 3c c3 91 1c 3c 60 62 b0 3c 88 f0 02 bb
       0.02465737 0.009556237 0.021531284 -0.0019979794
0000f0 87 9b 17 bd 49 79 8d bc 24 27 71 3c cb 90 80 bc
       -0.037013557 -0.017269747 0.0147188045 -0.015694043
000100 f6 25 03 3c 0f d7 33 3c 2f ab 92 3c c2 ab 7c bc
       0.008004656 0.010976567 0.017903892 -0.01542181
000110 4a fb 15 bc c0 91 f8 3c 2d 9b 09 bb b0 bb 8b b9
       -0.00915415 0.030342937 -0.0020997033 -0.00026651984
000120 59 34 97 bb 3a 68 4d 3a e9 43 a8 bb 18 78 ff 3c
       -0.0046143946 0.00078356604 -0.0051350486 0.031185195
000130 35 9b ba 3b 7f 58 82 3c 6f 87 92 bb 7a 02 69 3b
       0.0056947717 0.015911339 -0.0044717113 0.0035554455
000140 ce ad b6 3a 22 fe 20 bd 6f 1a 07 bb f4 97 18 bd
       0.0013937296 -0.03930486 -0.002061512 -0.03725429
000150 a5 74 f3 ba 08 dc f8 bc a5 ef 5e 3c c4 60 18 bc
       -0.0018574191 -0.030378357 0.01360694 -0.0093004145
000160 a1 cf 4d 3b b6 d7 de bc af d5 42 bc 6a 34 3b bb
       0.0031404274 -0.027202468 -0.011891766 -0.0028565177
000170 d5 14 3f 3d d0 27 cc bc 27 61 d5 3c 27 f8 b8 3b
       0.046650726 -0.024921328 0.026047302 0.0056448164
000180 d8 78 93 bc 24 3a 9f 3a f3 a8 98 bc ec d1 98 bc
       -0.018001959 0.0012148065 -0.018635249 -0.018654786
000190 2f 36 f6 bb a6 2a 88 3c 5a c5 fc 3b af 35 94 3c
       -0.0075137834 0.016621899 0.007713956 0.018092005
0001a0 70 7a ce 3b 2f 21 0b 3d f8 80 a5 bc ef ce 0c 3c
       0.006301217 0.033967193 -0.020203099 0.008594259
0001b0 8b 70 9a bb db 56 f8 3c ea 10 ed 3c d4 0d 60 bc
       -0.004713123 0.030314853 0.02893873 -0.013675172
0001c0 0d 2f 06 3c 73 73 c3 3c 8a 4d 90 bc ab a1 ba bc
       0.008189929 0.023858761 -0.017615099 -0.022782167
0001d0 6a 59 be bc 5d 70 72 3c 9e e5 69 3c 44 50 09 3d
       -0.023235995 0.014797297 0.014275936 0.033523813
0001e0 c1 6e c1 3c 84 4a 84 bc 6d 77 72 3c b5 da 6e bc
       0.023612382 -0.016148813 0.014798981 -0.014578511
0001f0 25 bc a6 bb bd 41 32 3d 54 38 b2 bc 5c b6 9b bc
       -0.0050883465 0.043519724 -0.021755375 -0.019007854
000200 43 6f aa bc ae 36 1a ba c6 a6 8e 3b f5 d1 ea 3c
       -0.020805007 -0.00058827817 0.004353377 0.028664568
000210 66 87 60 3a 85 8a 36 3c 02 d7 00 bb 97 e5 f6 3c
       0.0008565098 0.011141424 -0.0019659405 0.030138774
000220 5e 95 dd bb e1 06 bf 3c b1 c3 84 bc 00 4b 20 3c
       -0.0067621907 0.02331871 -0.016206594 0.009783506
000230 55 55 1c 3c 98 f2 ec 3b 4a e5 4b bc f0 b2 50 3c
       0.009541829 0.007231068 -0.0124448035 0.0127379745
000240 6d 60 41 bc 67 b1 6b bb 15 eb cd 3c 34 b4 a9 bc
       -0.011802775 -0.0035963894 0.02513651 -0.02071581
000250 a4 1b 67 3c 9b d7 a0 bb 8f 1d 6a bb 4a a1 07 bc
       0.014105711 -0.0049085147 -0.0035723185 -0.0082782
000260 e9 55 be bc f9 a4 2e 3c 27 e6 93 38 05 7e 2a bc
       -0.023234325 0.01065945 7.0523754e-05 -0.010406022
000270 f3 2b 0e 3d 8b 93 23 3c a7 42 a8 3c c4 67 71 bc
       0.034709882 0.009983907 0.020539595 -0.014734212
000280 38 60 d3 3c 28 f4 0c 3d c3 1e 5d 3c 81 3f 75 3d
       0.025802717 0.034412533 0.013496104 0.059875015
000290 a0 15 f3 3c c9 93 d5 3c e1 32 c5 ba b2 17 9f 3c
       0.029673398 0.026071446 -0.001504507 0.019420478
0002a0 3d 90 20 3c 96 0c 47 3b 63 ce bc bc ab e3 2a 3c
       0.009800014 0.0030372492 -0.023047632 0.010430257
0002b0 0d 75 c1 3c 20 3a 2b bb 91 b0 ba 3c 1c 24 56 ba
       0.023615384 -0.0026127174 0.022789272 -0.0008168833
0002c0 ad ec 89 3c 9b 93 ce bb a2 48 84 bc dd 36 c2 3c
       0.016836489 -0.006304217 -0.016147915 0.023707801
0002d0 40 d5 f9 3b bb b5 18 bc 3f f1 80 bc 8c a1 df 3c
       0.0076242983 -0.009320672 -0.015740035 0.027298711
0002e0 c3 be ea bc 56 2d d6 3b 70 90 a9 3c 94 9d 35 bc
       -0.028655415 0.006536166 0.020698756 -0.011084933
0002f0 71 7f a8 3c d5 21 c8 bc 82 44 d8 bb 2b 09 1a 3c
       0.020568581 -0.024430195 -0.0065999636 0.0094016
000300 c1 41 69 3b 5c 12 aa bc a1 cd 1d 3d 7c 97 c7 3b
       0.003559217 -0.020760708 0.03852618 0.0060910564
000310 8c 20 47 3c 28 7a 0a 3d f3 2a 79 3c f4 1b 75 3c
       0.012153756 0.033807904 0.015207994 0.014960278
000320 d6 5f f7 3b 6d 7e 7a 3c bc b5 cf 3b ed 4b 2c bb
       0.0075492663 0.015288931 0.006338803 -0.0026290372
000330 5b 8b 5b bc dc 42 22 3b 37 10 32 3c 67 e9 35 3d
       -0.013399924 0.002475909 0.010868124 0.044412043
000340 bf 8e 5e bb 41 66 06 bb f7 e2 c8 3c f9 6e 76 3a
       -0.0033959595 -0.0020507725 0.024522288 0.00094006915
000350 39 8c c1 bc f1 9f 92 3b 10 61 d5 bc 7e 7b ef b9
       -0.023626434 0.004474633 -0.02604726 -0.0004567764
000360 59 49 5a 3c 20 f1 48 3c 72 ec a4 3c df fb 61 3b
       0.0133231515 0.01226452 0.020132277 0.0034482402
000370 e5 a0 35 3d e8 b1 6a 3c f6 80 67 bc 26 dd 7c 3c
       0.044342894 0.014324643 -0.014129868 0.015433585
000380 59 7c 86 bb 09 5a f6 bb 24 7a 2b bc 08 1b 8e 3c
       -0.004104179 -0.0075180572 -0.010466132 0.017346874
000390 34 8f 7e 3c cd 06 0c 3c b6 72 d0 bb 27 a8 9d bc
       0.015537072 0.008546543 -0.006361331 -0.01924522
0003a0 db e7 e5 bc 35 4c 96 3b ad 8f be 3c 83 d2 cd bb
       -0.028064659 0.0045867213 0.02326187 -0.0062811985
0003b0 bc 9d 91 3b 2a 40 3e bb 8a 41 83 3b 8c 4a 93 3c
       0.004443852 -0.0029029944 0.0040056156 0.017979883
0003c0 e8 b4 13 3c 15 4a 57 bb 9f a1 04 bc d5 5f 03 bd
       0.009015299 -0.0032850553 -0.008095174 -0.032073814
0003d0 1f 8f 98 bc 0e 84 4c 3a de 67 a6 3c 50 4e f1 3b
       -0.018622933 0.000780166 0.0203132 0.007364072
0003e0 e0 14 0f bb 03 b4 58 3c 60 7b 15 3d 45 2a 25 bd
       -0.002183251 0.013226512 0.036494613 -0.040323514
0003f0 66 34 a5 bb 52 02 ba 3c 98 a3 72 bc d9 b0 b2 3c
       -0.005041647 0.022706185 -0.014809512 0.021812843

encoder.0.attention.values.bias f4 [32]
000000 fd 2a 96 3b 34 de 44 bc 95 61 5e bb 62 2c 25 bc
       0.0045827613 -0.012015868 -0.0033932675 -0.0100813825
000010 ce 4f a8 bb 9b d5 e5 3b 49 72 af bb 60 78 80 3b
       -0.0051364666 0.007013989 -0.0053542 0.0039206
000020 ad 00 c7 3b b0 00 a8 bb cf 09 61 bc 86 fb f6 3b
       0.0060730786 -0.005127035 -0.013735249 0.007537308
000030 40 ee 39 3c 92 79 3a 3b ff c4 d0 3b 18 eb 37 bc
       0.011348307 0.002845381 0.00637114 -0.011225484
000040 1f ae 59 bb 1f 7b f0 ba 81 f5 13 bb d7 1b 05 bb
       -0.0033215357 -0.001834724 -0.0022576752 -0.0020310783
000050 47 a5 e7 3a 78 d2 33 bb c3 85 03 3a 23 51 08 3b
       0.0017673158 -0.0027438682 0.00050171855 0.0020800314
000060 e0 dd cf 3a 18 b5 a4 ba 38 a1 0c 3b 3f 94 7f bb
       0.0015858971 -0.0012566177 0.0021458399 -0.0038998274
000070 d9 9a 1a 3b dd 4f 53 bb f3 80 24 3a 2e 96 9f bb
       0.0023590832 -0.0032243647 0.00062753184 -0.0048701977

encoder.0.attention.fc.weight f4 [32, 32]
000000 b4 8f a1 ba b0 9b 08 3d 2d 51 1c 3b 52 a7 f4 bb
       -0.0012326152 0.0333516 0.0023852095 -0.007466235
000010 a6 17 18 bd 4d 87 91 3c a2 4e ca 3c 44 4d de 3c
       -0.037131928 0.017764712 0.024695698 0.027136452
000020 8e ce 97 bc 75 8e 42 3c 00 73 59 bd 2f 8c cb 3b
       -0.01853111 0.011874785 -0.05308819 0.0062117795
000030 ce 54 65 3c 6f 47 c1 bc 42 8f 91 3b d7 46 3f bb
       0.01399727 -0.023593633 0.0044421265 -0.002918651
000040 e4 b8 b0 bc b3 3f 2d 3c 3c fc 31 3c b0 c3 41 bb
       -0.021572538 0.010574269 0.01086336 -0.0029566102
000050 21 a6 58 3c b2 b1 05 3d 46 d8 18 ba e3 66 6a 3c
       0.013223202 0.032640167 -0.0005830567 0.014306757
000060 06 da 05 3c eb d8 b1 3b 4a 2a 1e 3d 4b b2 de bb
       0.008169657 0.00542747 0.03861455 -0.0067961565
000070 8d 2e 45 3c 30 aa 9b bc 09 4d 99 39 a0 1e 28 bc
       0.012035024 -0.01900205 0.0002923983 -0.010261208
000080 5e e6 f0 bc 14 93 8f bc c2 27 00 3d f7 3e 1d 3b
       -0.029406723 -0.017526187 0.031287916 0.0023993829
000090 84 5b 98 bb 09 52 d5 bc 75 17 99 bc b8 89 2d 3b
       -0.0046495814 -0.026040094 -0.018687943 0.0026479792
0000a0 1b d0 2a 3c a0 79 c7 bc ad 87 a9 bc 09 d2 ce bb
       0.010425593 -0.024349988 -0.020694578 -0.0063116592
0000b0 fd 3b 79 3c e3 82 ec 3c 69 c2 dd 3c 42 b2 5b bc
       0.015212056 0.028871005 0.027070241 -0.013409199
0000c0 52 d6 7a bb 50 cf b5 3c 4b bc 38 3c b3 76 16 3a
       -0.0038274718 0.02219358 0.011275361 0.00057397335
0000d0 d0 1a c4 ba 69 a7 85 bc 0e 3d ca bc b9 41 60 3c
       -0.0014961604 -0.016315179 -0.024687316 0.0136875445
0000e0 27 69 ae 3c 59 8f 00 3d fc 58 34 bb 79 81 c2 bb
       0.021290375 0.031386707 -0.002751886 -0.0059358445
0000f0 1b 21 58 3b 17 b3 b1 3c f7 93 7b 3c 4c 75 04 3b
       0.0032978717 0.021691842 0.015355102 0.0020211516
000100 dd 39 26 bd 76 83 84 3c a3 88 f9 bc d5 c7 5b 3c
       -0.040582526 0.016175967 -0.030460661 0.013414343
000110 c4 46 29 bc 10 77 c6 3a dd 7c 3b 3c f3 ad 8b bb
       -0.010331813 0.0015141685 0.011443344 -0.0042626797
000120 87 4f ec bc 50 f7 a7 3c f9 fa 58 bb b1 5b 10 3a
       -0.028846515 0.02050367 -0.0033108576 0.0005506827
000130 96 50 a2 3b 4f ed 0b bd d3 d1 98 bc 1e 41 dd bc
       0.0049534542 -0.034161862 -0.01865474 -0.02700859
000140 e2 64 04 bc f3 89 3c bb 83 18 6d 3b 07 91 80 3a
       -0.008080693 -0.0028768748 0.003617794 0.0009808847
000150 33 58 56 3b 90 34 dc bb f9 30 8b bc e7 65 87 bb
       0.003270638 -0.006720133 -0.016991125 -0.0041320208
000160 dc 5d 54 3a 64 f0 8f bc 04 7a 57 bb 9b 6e 2d 3d
       0.00081011443 -0.017570682 -0.0032879123 0.04234181
000170 33 26 f9 bb d4 41 5b bc e7 9f 1d bc 74 fc af 3a
       -0.0076034307 -0.013382394 -0.009620643 0.0013426677
000180 3b c7 0e 3d 63 b6 6f bc 94 6d 22 bc 74 17 28 bd
       0.03485797 -0.014630887 -0.009913821 -0.04103799
000190 77 22 05 bc 60 86 87 3b 65 90 3e bb 02 f2 b7 bc
       -0.008125893 0.004135892 -0.0029077765 -0.022454266
0001a0 68 be 89 bc be c1 f3 bb ef 40 17 3d 41 05 c7 bb
       -0.016814426 -0.0074388674 0.03692716 -0.0060736244
0001b0 20 13 c2 bb 85 d7 eb ba 32 62 04 bb b3 19 5d bc
       -0.00592269 -0.0017993307 -0.002020013 -0.013494897
0001c0 17 52 58 bb 06 b2 ca bc a7 ed b0 bb b4 0e ac bc
       -0.0033007914 -0.024743091 -0.005399424 -0.021003105
0001d0 98 94 b0 3b 4a b1 64 bc f7 0b 1a 3a 19 4c 0e 3d
       0.0053888075 -0.013958285 0.00058764167 0.03474054
0001e0 bc 4f 46 bc dc e1 c2 3a 54 c2 a7 bc 02 bf 93 3c
       -0.012103971 0.0014868337 -0.020478405 0.018035416
0001f0 bd 97 8d 3c a2 b0 d3 bc 62 7b b8 3a 44 98 ac 3c
       0.017284269 -0.025841061 0.0014074857 0.0210687
000200 dd c3 77 3c e2 90 fa bb a6 19 23 bc d3 07 aa 3c
       0.015122381 -0.007646666 -0.0099548455 0.020755684
000210 1c 7d 90 3c 6d 59 40 3c 67 34 21 3d c7 20 de bc
       0.017637782 0.011740071 0.039356615 -0.027115239
000220 0a 44 6b 3b 27 45 06 bc de d1 a8 3c 32 31 81 3c
       0.0035898709 -0.008195198 0.020607885 0.015770528
000230 72 02 fc 3a 00 7d fc 3a 97 11 da 3c 89 92 53 3c
       0.0019226803 0.0019263327 0.026619716 0.012913355
000240 63 b8 92 38 f7 24 20 3c f3 9b 27 bc 8b 67 11 3c
       6.996167e-05 0.009774438 -0.010230052 0.008874784
000250 42 94 c1 3c eb aa 9c 3b 57 49 ca bc fe e6 ac bc
       0.023630265 0.004781117 -0.024693174 -0.02110624
000260 2b 7d ad 3b 4f 8e 82 bc 05 37 15 3c f4 51 17 3d
       0.005294462 -0.015936999 0.009107356 0.03694339
000270 6b 59 d4 bc 37 1a ab 39 97 3a a8 3b a2 d6 a9 3c
       -0.025921544 0.00032635193 0.0051339376 0.020732228
000280 3b ed ae 3c 54 fd 02 bd 7d b8 ab 3c 53 6f ac 3b
       0.021353355 -0.031979874 0.020961994 0.0052622943
000290 1b 8b 64 3c d0 b2 e5 bc ad 6e a0 3c 5e 5f 1f 3b
       0.013949181 -0.028039366 0.019584024 0.0024318318
0002a0 80 1d 70 bc d8 1d 49 3b 26 9a 18 3d 10 11 ee bc
       -0.014655471 0.0030687954 0.037256382 -0.02906087
0002b0 6c d7 5e bb 5b 87 28 3b 33 06 c7 3c c7 81 c9 bc
       -0.0034002913 0.0025715444 0.024294948 -0.024598015
0002c0 6e 66 a8 3c f0 c7 e3 3c 02 80 06 bb 47 97 3c bc
       0.020556655 0.027805299 -0.0020523076 -0.011510677
0002d0 69 48 cf bc 50 7c c2 b9 c9 c6 b3 3c af 25 96 3c
       -0.025303083 -0.00037095184 0.021945374 0.018328516
0002e0 04 00 37 3d 90 b5 c9 bb 4d ce 0f 3d 49 33 22 bd
       0.04467775 -0.006155677 0.035108853 -0.03959969
0002f0 a7 17 29 bd 9d a6 8e 3c 3c c3 1a 3c 09 50 bb 3c
       -0.041282322 0.017413432 0.009445962 0.022865312
000300 39 89 aa 3b 7c 11 d6 bc f5 3b bf bc 97 85 80 bb
       0.0052043465 -0.026131384 -0.02334402 -0.003922175
000310 45 48 ea ba a2 11 c7 bc fa 68 0c bc 49 34 dd 3c
       -0.0017874321 -0.0243004 -0.00856995 0.02700247
000320 bd b4 30 3d 4a ea ce bc d8 d8 b9 3c 77 99 9e bc
       0.043141115 -0.025258202 0.022686407 -0.019360287
000330 dc f2 de bb e7 85 14 3a 2d 59 c4 bc e6 bc 28 bd
       -0.0068038534 0.0005665705 -0.023968304 -0.041195773
000340 0b 04 c9 bb e4 41 e4 bc 7b f1 aa bb 5e 25 97 3c
       -0.006134515 -0.02786345 -0.005216775 0.018450435
000350 8c 4c 50 3c 30 e2 97 3c 6d d0 ad bb 37 6d 65 bc
       0.012713563 0.018540472 -0.0053043873 -0.01400309
000360 94 2b 24 3b 3f d8 83 bb be c2 c2 3b 29 e2 af 3c
       0.0025050389 -0.0040235813 0.0059436252 0.021470146
000370 87 16 03 bd 0f 88 83 bc 5e f0 31 bd 1c bf f4 bb
       -0.032003906 -0.016056089 -0.043442123 -0.007469071
000380 23 75 6f 3c 54 e6 70 3c c1 a0 bf bb 39 18 00 bc
       0.01461533 0.014703352 -0.005848021 -0.007818275
000390 72 c6 35 bc 5e 47 2e bb 62 09 a0 bc aa 3d bd bc
       -0.011094676 -0.002659283 -0.019535724 -0.023100693
0003a0 bc 00 5c bc e6 e6 81 bb 57 5a 0d bb ed 38 48 3b
       -0.013427909 -0.003964293 -0.002156874 0.0030551509
0003b0 9e d6 61 3c 08 a7 97 3c 46 c4 12 bd a4 6c 85 bb
       0.013784079 0.018512264 -0.035831712 -0.004071789
0003c0 2f 04 27 3d 1e 8f 19 3d 64 55 89 bc 2d bf 02 3d
       0.040775474 0.037490003 -0.01676435 0.0319206
0003d0 2d bf 0e bc 46 66 c7 3c 3d 66 6c bb fd 64 69 bc
       -0.008712572 0.02434076 -0.003607168 -0.014245269
0003e0 92 a3 b1 bc d6 da 20 bd 77 3f 37 bc 56 07 00 bc
       -0.021684442 -0.0392712 -0.011184565 -0.007814249
0003f0 42 b9 56 bc 27 05 39 3c 74 54 34 3c b1 54 1c 3d
       -0.013105692 0.011292732 0.011006463 0.038166706

encoder.0.attention.fc.bias f4 [32]
000000 00 00 00 00 00 00 00 00 00 00 00 00 00 00 00 00
       0.0 0.0 0.0 0.0
000010 00 00 00 00 00 00 00 00 00 00 00 00 00 00 00 00
       0.0 0.0 0.0 0.0
000020 00 00 00 00 00 00 00 00 00 00 00 00 00 00 00 00
       0.0 0.0 0.0 0.0
000030 00 00 00 00 00 00 00 00 00 00 00 00 00 00 00 00
       0.0 0.0 0.0 0.0
000040 00 00 00 00 00 00 00 00 00 00 00 00 00 00 00 00
       0.0 0.0 0.0 0.0
000050 00 00 00 00 00 00 00 00 00 00 00 00 00 00 00 00
       0.0 0.0 0.0 0.0
000060 00 00 00 00 00 00 00 00 00 00 00 00 00 00 00 00
       0.0 0.0 0.0 0.0
000070 00 00 00 00 00 00 00 00 00 00 00 00 00 00 00 00
       0.0 0.0 0.0 0.0
