model/mnist/tune_lr0.001_ed64_nl4_nh2_fm2_ps4/temp_model.pt (torch, 597127 bytes, 74 tensors)

embedding.cls_token f4 [1, 1, 64]
00000000: 2b4a 9ebc 496c 5cbc e1bb e33d 9ebb a53d
00000010: 4fac 2fbc 0857 0ebb dc42 5cbc 2170 fe3c
00000020: b12b bd3c af94 ecbd 85cf 103c d9cf 73bd
00000030: 0499 1dbe c19a 0dbc 0fea e53c 3455 c13c
00000040: 2693 4e3c 3e6f bc3b dd65 913d d790 8f3c
00000050: 2500 88bb bb3f b6bc fc45 12b9 d084 21bc
00000060: 3a5b 2abc f290 2fbd b1be bb3c 047a 67bd
00000070: 358c 163c b68f 41bc ab46 48bb 6b3b d23b
00000080: 9bcc 473c 2ec1 bdba 86c2 a03c 15a2 4b3d
00000090: 38e7 79bb 2987 5f3c 223d 913c 16c4 b1bc
000000a0: 5714 373c 77ec 273d 9dc5 69bc 6df7 b13c
000000b0: d330 11bd 51f1 1e3d cf5e 8a3b fbe4 923b
000000c0: 1bba 393c 4737 89bc 550d 4cbc 712c 7ebc
000000d0: 0170 0e3b 4d85 393c 8358 a5bc c363 9abc
000000e0: e2da c9ba 85ce bdbc 1f73 8e3c ac34 19bc
000000f0: 1655 61bb cbf1 f5bb fe2b 40ba 8a3a 22bc
-0.019322475 -0.013453552 0.111198194 0.08092426 -0.010722234 -0.0021719355 -0.013443675 0.031059327
0.023092123 -0.11551797 0.008838539 -0.05952439 -0.15390402 -0.008642853 0.02806571 0.023600198
0.012608325 0.005750566 0.07099507 0.01752512 -0.004150408 -0.022247186 -0.00013949716 -0.009858325
-0.010397727 -0.04286284 0.022918077 -0.056512848 0.009188701 -0.0118140485 -0.00305597 0.0064157746
0.012194778 -0.0014477128 0.019624006 0.04971512 -0.0038132202 0.013643065 0.017729346 -0.021699946
0.011174283 0.040996995 -0.014268306 0.021724427 -0.035446953 0.038804356 0.004222728 0.004482863
0.011335875 -0.016749991 -0.0124543505 -0.015513525 0.002173424 0.011323285 -0.020183807 -0.018846398
-0.0015400315 -0.023169765 0.017388878 -0.009350937 -0.003438299 -0.0075056306 -0.0007330774 -0.009901652

embedding.pos_embedding f4 [1, 50, 64]
00000000: 2c4a 9ebc 496c 5cbc debb e33d a0bb a53d
00000010: 55ac 2fbc 0357 0ebb db42 5cbc 2770 fe3c
00000020: a92b bd3c aa94 ecbd 8dcf 103c d9cf 73bd
00000030: 0499 1dbe b69a 0dbc 13ea e53c 4255 c13c
00000040: 3893 4e3c 2e6f bc3b da65 913d d990 8f3c
00000050: 1c00 88bb bd3f b6bc 0f47 12b9 c984 21bc
00000060: 385b 2abc ee90 2fbd 9dbe bb3c fb79 67bd
00000070: 1e8c 163c c28f 41bc 9246 48bb 463b d23b
00000080: 9bcc 473c 75c1 bdba 86c2 a03c 10a2 4b3d
00000090: 13e7 79bb 2d87 5f3c 283d 913c 0dc4 b1bc
000000a0: 6014 373c 74ec 273d 96c5 69bc 6cf7 b13c
000000b0: ce30 11bd 4df1 1e3d d85e 8a3b dae4 923b
000000c0: 0eba 393c 4337 89bc 5f0d 4cbc 692c 7ebc
000000d0: 3b70 0e3b 4385 393c 7e58 a5bc bf63 9abc
000000e0: 92da c9ba 7ace bdbc 2073 8e3c b334 19bc
000000f0: 5e55 61bb caf1 f5bb 382c 40ba 713a 22bc
00000100: d5f8 4f3d 7269 6e3b dd67 0b3d b6d2 643d
00000110: e81c a1bc 9749 3ebd 0c24 a6bc 53e3 25bd
00000120: d9bd 843d 9a71 e63c 4eab 2bbd e848 9abc
00000130: 2763 613c 5d73 bb3c d34a 3a3d 1653 8d3c
00000140: 316a 80bd 3b44 8cbc e035 b03b 7249 893b
00000150: ff85 9fbd c208 74bb 0042 80bc 9fb4 613b
00000160: eaf1 b73c e9bb b1bd 2d26 1c3d 52d9 323d
00000170: 9e11 063d 76ac 4bbc 53be 26bd ae63 2cbd
00000180: 678d 143d 68d5 cabc eb8b b8bc 2302 5fbd
00000190: 4498 8cbd b3ab 4ebd 4a9e d7bb 3cfe a8bc
000001a0: b5a2 2a3d abcf fc3c db67 823a 7451 2b3d
000001b0: 273e f73c e9a9 4fbd b346 013c c5e1 5bbd
000001c0: 227e 793c fcc2 9fbc 1f83 c43c 7c54 013d
000001d0: 187c 9e3c e161 223c ddd5 4fbd 479a 24bd
000001e0: c73c 603c f3c3 21bd f30f ef3c 986a af3d
000001f0: 28ce 2e3d c255 a43c d9a5 bdbc 73d1 34bc
00000200: 9e57 603d 3657 c8bb 36cc e63c 88fc 513d
00000210: a164 c7bc d909 25bd e1b2 89bc 689f 27bd
00000220: 53c6 873d d10d e63c 88ac 1fbd 56d8 d4bb
00000230: 869c 9a3b 6728 eb3c f469 263d 4b62 923c
00000240: b794 5ebd 0d04 bebc 3931 cd3b 4565 c8b8
00000250: 23a5 8abd e688 433b 805d c9bb 3cae a63c
00000260: 4169 053d 44f0 a7bd df8b 003d ae23 323d
00000270: 1f4d 073d b16b 32bc 338f 3fbd dd72 33bd
00000280: 6109 0e3d 4760 c2bc 0d9c 86bc c6b8 46bd
00000290: 447a 8abd 217d 5cbd 7340 d6bc 64e3 90bc
000002a0: 9075 103d d0fd a23c 3d53 1d3c 3010 5d3d
000002b0: b5f1 083d e05e 48bd 8d68 e83b c842 6ebd
000002c0: a0ae 6e3a 60df 5cbc 0cb8 2c3d 877a 033d
000002d0: d2fa 803c ce94 c13b 4dd3 51bd 871f 06bd
000002e0: 5e78 733c 0d0a 39bd 3f0a 023d bd90 963d
000002f0: 30c4 1c3d 1903 443c 9e16 80bc 0779 a9bb
00000300: e830 033c 3438 c5bd 48c8 a83c 1104 cd3c
00000310: f5dc 88bd 84a6 eb3d 49e7 813d 872e 8a3b
00000320: a4e1 34bd d057 69bd 45ca a23d f875 153c
00000330: d2f9 b2bd 42f7 d9bd 3489 b639 ce03 8a3d
00000340: d3d4 593c c615 d23c 15f7 a3bd 4210 1bbd
00000350: 3d1d 723d 560a 683d f891 bf3d 0a97 e23c
00000360: 3ae7 b8bc a8f0 433c c11c c93c 6a7f a9bc
00000370: 226f adbb bd2c fabc f44d 52bc 50a0 0f3d
00000380: 509b a3bd ee21 87bb 3727 9aba 64a9 5f3d
00000390: 2587 003d 81ee 783c 26a6 15bd ebc9 b13d
000003a0: e5c0 f4bd 63b9 cabd 992c a03d 98ea db3d
000003b0: c295 d3bc 6996 973a aab4 1b3d 5a20 903b
000003c0: 056e 63bd c625 ed3d 7b13 163d 18fd eabb
000003d0: 73f8 4a3d 93e1 2abd 4e3b 143d 9fe6 943d
000003e0: b0e1 bfbc 7b79 36bd 7c51 13bd 2ce0 8abd
000003f0: 5064 ecbc a9a7 283c dd85 e1bd 90eb 1bbd
-0.019322477 -0.013453552 0.11119817 0.08092427 -0.0107222395 -0.0021719343 -0.013443674 0.031059338
0.023092108 -0.11551793 0.008838546 -0.05952439 -0.15390402 -0.008642843 0.028065717 0.023600224
0.012608342 0.0057505583 0.07099505 0.017525123 -0.0041504037 -0.02224719 -0.00013950116 -0.009858319
-0.010397725 -0.042862825 0.02291804 -0.056512814 0.00918868 -0.01181406 -0.0030559641 0.0064157574
0.012194778 -0.001447721 0.019624006 0.0497151 -0.0038132116 0.013643068 0.017729357 -0.02169993
0.011174291 0.040996984 -0.0142683 0.021724425 -0.035446934 0.03880434 0.004222732 0.0044828476
0.011335863 -0.016749984 -0.01245436 -0.015513518 0.0021734375 0.011323276 -0.020183798 -0.01884639
-0.0015400222 -0.023169745 0.01738888 -0.009350943 -0.0034383158 -0.00750563 -0.0007330808 -0.009901629
0.050774414 0.0036378768 0.0340346 0.055865012 -0.019667104 -0.0464569 -0.02028086 -0.040499996
0.06481523 0.028130341 -0.041911416 -0.018833593 0.01375655 0.022882158 0.045481514 0.017251533
-0.062702544 -0.017122379 0.005377516 0.0041896636 -0.077892296 -0.0037236665 -0.015656471 0.0034439934
0.02245422 -0.08678419 0.038122345 0.043664284 0.032731645 -0.012431255 -0.04070885 -0.04208725
0.036267664 -0.024759963 -0.022527656 -0.054445397 -0.0686498 -0.050456714 -0.006580149 -0.02062904
0.041659076 0.030860743 0.0009949164 0.041825727 0.030181004 -0.05069915 0.007890391 -0.053682107
0.015227826 -0.019502155 0.023988305 0.03157471 0.019346282 0.009911031 -0.050741065 -0.040186193
0.013686365 -0.039493512 0.02918241 0.08565253 0.042677075 0.020060424 -0.023150371 -0.011036265
0.05477106 -0.006113912 0.028173547 0.051266223 -0.024339976 -0.040292595 -0.016808929 -0.040923506
0.06629624 0.02808276 -0.038982898 -0.006495516 0.004718366 0.028705789 0.04062839 0.017869135
-0.054341044 -0.023195291 0.0062619713 -9.555606e-05 -0.067697786 0.0029836236 -0.0061451793 0.020346753
0.03257108 -0.08200124 0.03138339 0.043491058 0.033032533 -0.010889933 -0.046767425 -0.043810714
0.034676913 -0.02372755 -0.016431833 -0.048516057 -0.067616016 -0.05383027 -0.026153779 -0.017686553
0.035268366 0.019896418 0.009602365 0.053970516 0.033433635 -0.048918605 0.0070925415 -0.058169156
0.00091050006 -0.013480991 0.04216771 0.032099273 0.0157446 0.0059076315 -0.051226903 -0.03274491
0.014860241 -0.0451756 0.031748053 0.073518254 0.038273036 0.011963629 -0.015635785 -0.0051718983
0.008007266 -0.096298605 0.020603314 0.025026353 -0.06682769 0.1150637 0.06342942 0.0042169723
-0.0441605 -0.05696851 0.07948736 0.009122364 -0.08739056 -0.10642864 0.0003481597 0.06739007
0.01329537 0.025645148 -0.080061115 -0.0378573 0.059109915 0.056650482 0.09354013 0.027659912
-0.022571195 0.011959232 0.024549844 -0.020690639 -0.005292789 -0.030538911 -0.012835968 0.035064995
-0.07988608 -0.004123918 -0.0011760955 0.054604903 0.031378884 0.0151935825 -0.036535405 0.08681091
-0.11950854 -0.09898641 0.07821006 0.107381046 -0.025828246 0.0011565211 0.03801409 0.004398388
-0.055524845 0.1157947 0.03663967 -0.0071712844 0.049553346 -0.04171903 0.03618937 0.0727055
-0.023423046 -0.044549447 -0.03596638 -0.06781039 -0.028856426 0.01029388 -0.110118605 -0.038066447

embedding.conv1.weight f4 [64, 1, 4, 4]
00000000: 1bda 403b 5d24 67bd 4cb7 ddbc 302c 3d3c
00000010: 25ed 803b f9af 6cbd a254 babb 0962 233d
00000020: 9d2d 2e3c 9c45 69bd 2c69 dbbc 1bb8 043d
00000030: 78c0 aa3c b53b 84bd 6028 90bc 8688 403d
00000040: 0eff 563b 8a7a e83c 07c1 1e3d 3651 1e3d
00000050: b41b 3fbb ae88 f43b 6109 13ba 7479 a1bc
00000060: cb0c 97bc dd44 f73c c61b 0d3d 5af8 16bd
00000070: 34cd 29bd 0e50 80bc c9f7 a0bb 1cd1 95bd
00000080: 5bb1 953a 94b3 41bb 8ad3 0bbd acbb 34bd
00000090: f701 d63c cffd dd3b 87d0 f9bc ce85 a2bb
000000a0: 4aae 353c c574 0bbc 56e4 2bbd 7949 e1bb
000000b0: 7058 d73c 7193 123c 65ba 05bd eb9c 9b3c
000000c0: 2463 25bc 015f 943c f456 c4bb 2995 9a3c
000000d0: d3fe 02bd f92d 9cbc 9a00 5b3c 86a1 ecbc
000000e0: 9e75 febb 0fd0 6f3c ee31 44bc a69e 713a
000000f0: 9caa 473b 4df0 a53c c39c b4bc 5f28 523c
00000100: 22ac 8f3c e75e 2ebc 0093 ecbc c38b 21bd
00000110: 3484 9e3c 6043 663b 6cc3 cdbc 29b5 2d3c
00000120: 05f2 143d ea2b ecbb 8652 e4bc c77a f5ba
00000130: cbdc 223d 2870 42bc c4fe dfbc e56b f43c
00000140: b4a5 173d 069b f83c 4a4e 7c3c 9a49 ac3c
00000150: aa51 4e3b 6def 1ebd 5ca9 c83c 5363 6fbc
00000160: 3f1a b83b 55a6 0dbd 9a79 e03c a9d4 eebb
00000170: c25e a3bc 266f 60bc 4168 073d 62e5 9fbc
00000180: dc3d b23c 5b10 28bb 5c33 073d e713 933d
00000190: abd1 5fbc 61af bd3b 749a b2bc 1e20 b73c
000001a0: efa6 093c 7fd5 3b3c 7dd2 aabb 0611 a3ba
000001b0: 79c9 d8bb b29e ffbc f889 9abc 0786 c83c
000001c0: def3 773b 919c 20bc 4357 56bb 6c83 0abc
000001d0: 792c 4b3c bfc9 a63b da80 893c 7565 98bc
000001e0: 7c4b 073d 373b babc 720c 3d3c fc2d 763b
000001f0: 86e4 a33b 65db f7bc 1942 c13c 498d 67bb
00000200: 85be 54bd 3e3e 30bd dda6 37bd 36bc 3c3d
00000210: 36c5 f3bc 09ab 7ebc e503 583c 3377 ac3c
00000220: 582b 4dbd fd98 943c 831d 533d 578f e4bc
00000230: 886f 18bc a2ea 073d efc5 ff3c 5fd3 a73c
00000240: d4dd 1fbc 09a3 0bbd 181b 1cbd 9a03 89bc
00000250: 0a98 aebc b806 86bc 7f41 a0bc a2f9 b0bc
00000260: fbf3 1dbd 00ad 763c 87e7 34bc c97b 88bb
00000270: f2a4 65bc 597e 833b a87e 563c 0b36 f3bc
00000280: 2f46 3e3d 36e7 49bd 0141 90bc 5e9d c2bc
00000290: 68f9 8c3c 0a86 21bc c9e8 9ebc af93 c2bb
000002a0: a550 023d 2ab6 10bd 4c6f 383c 209b 5d3c
000002b0: 8f4c e33c 79df 9bbc 6e30 1dbb 5014 463d
000002c0: aebd d9bc 6880 c53b b79a 023d f33f b33c
000002d0: 0d71 aabc 9e7e 5c3b e4dd f93c 013f b6bb
000002e0: f808 74bc e001 453c 5687 063c ebc4 903c
000002f0: da96 cebc b8a4 d83c 3a1b 293d b0d4 4c3c
00000300: 2243 12bd 8a98 543c 80ed 613c e056 f93a
00000310: cfaa 9cbc 9a83 ca3c 24c8 273d 23e7 11bc
00000320: a90b 083d 2834 a4bb 3513 663c 867e 883b
00000330: d8f9 3f3d e585 dcba ed98 d93c cc4b 933c
00000340: 51ec a9bc 8bbb a9bc 687e 193d 976a 99bc
00000350: dac7 dfbc 7857 a93b f7b2 3b3d bc46 9e3b
00000360: fef0 4dbc 00a5 843c fadc 983c f694 343c
00000370: 45d6 48ba cb6f 163d 5eb6 8b3c 32ab 7a3c
00000380: 451e 61bc 618f 36bd dc59 8d3b 85ee 13bd
00000390: 9f86 80bb 57f0 92bc 2acf c63c 33a0 d2bc
000003a0: 2197 653c 9ad9 e0bb a0e5 45bc 700c 5abc
000003b0: 2ca3 b33c 4975 253c e0fb b639 a65c 343d
000003c0: 8bcd 51bc c873 c7bc 8af8 a7bc 5874 e0bc
000003d0: be2a 13bd 7304 623c b386 7ebc c976 b9bc
000003e0: c35c fdbc a202 463d e648 96bc 9951 97bc
000003f0: 1469 283c 6915 8a3d 94bc 2dbd 806d 173b
0.0029426876 -0.056431163 -0.027064942 0.01154618 0.00393452 -0.057785008 -0.0056863585 0.039888415
0.010630992 -0.05695115 -0.026783548 0.03240214 0.02084373 -0.06456701 -0.017597377 0.0470052
0.0032805833 0.028378744 0.038758304 0.038651668 -0.00291608 0.0074625826 -0.00056090025 -0.019711234
-0.018438717 0.030184204 0.034450315 -0.03685794 -0.041455463 -0.015663173 -0.004912351 -0.07315275
0.0011420654 -0.00295565 -0.034137286 -0.04412429 0.026123984 0.006774641 -0.030494941 -0.0049597984
0.011088917 -0.008511727 -0.041965805 -0.0068752137 0.026287287 0.008946286 -0.032648463 0.018995723
-0.010094438 0.018111708 -0.005991811 0.018869953 -0.0319813 -0.01906489 0.013366843 -0.028885614
-0.007765486 0.014637007 -0.011974795 0.0009217061 0.0030466681 0.020256186 -0.022047406 0.012827008
0.017538134 -0.010642744 -0.028878689 -0.039439928 0.019350149 0.0035135373 -0.025117598 0.010602274
0.03636362 -0.0072073834 -0.027871381 -0.0018728607 0.039761346 -0.01186756 -0.027343161 0.029836604
0.03702326 0.030347358 0.015399525 0.02103119 0.003148178 -0.038802553 0.02449482 -0.014611083
0.005618363 -0.034582455 0.027401734 -0.0072885347 -0.019942645 -0.013698375 0.03305841 -0.019518558
0.021758012 -0.0025644514 0.033007964 0.071815304 -0.013660829 0.005788729 -0.021802165 0.022354182
0.0084016165 0.011464476 -0.0052130804 -0.0012440986 -0.0066158143 -0.031203602 -0.018864617 0.024477972
0.0037834565 -0.009802953 -0.003270582 -0.008454185 0.01240074 0.005089968 0.016785074 -0.018603066
0.033030972 -0.022733314 0.011538612 0.003756403 0.0050016074 -0.030255983 0.023591088 -0.0035332015
-0.051939506 -0.04302811 -0.044836868 0.04607793 -0.029757123 -0.015543708 0.013184522 0.021052932
-0.050090164 0.018139357 0.051541816 -0.027900381 -0.009303935 0.033182748 0.031222312 0.020486532
-0.009757478 -0.03409103 -0.038111776 -0.01672535 -0.021312732 -0.016360626 -0.019562481 -0.02160341
-0.038562756 0.015055895 -0.011041529 -0.004165147 -0.014016377 0.0040128645 0.013091721 -0.029688856
0.04645365 -0.049292766 -0.017609121 -0.02375668 0.01720877 -0.009858618 -0.01939811 -0.0059380154
0.03181519 -0.035329975 0.011257004 0.013525754 0.027746467 -0.019027459 -0.0023985165 0.048359215
-0.026579704 0.00602727 0.03188583 0.02188108 -0.02080586 0.0033644806 0.030501314 -0.00556171
-0.014894716 0.012024373 0.008210978 0.017672023 -0.025218416 0.026445732 0.04128573 0.0125018805
-0.035708554 0.012975821 0.013789535 0.0019023083 -0.019124417 0.024720956 0.040962353 -0.008905205
0.033214245 -0.0050111003 0.014042665 0.0041654734 0.04686913 -0.0016824572 0.026562179 0.017980479
-0.020742567 -0.02071931 0.037474066 -0.018727584 -0.027316976 0.005167898 0.04582497 0.0048302095
-0.012569664 0.01619196 0.018660057 0.011021843 -0.0007661323 0.036727708 0.017054733 0.015299605
-0.013740127 -0.04457033 0.0043136906 -0.03611614 -0.003922298 -0.017936869 0.024268705 -0.025711155
0.014013083 -0.0068618776 -0.012078673 -0.013308629 0.021928392 0.010098764 0.00034901407 0.04403367
-0.012805353 -0.024347201 -0.020504255 -0.027399227 -0.035929434 0.013795006 -0.0155350445 -0.022639649
-0.030928021 0.048342355 -0.018345308 -0.018471526 0.010278959 0.06742365 -0.04241617 0.0023106039

embedding.conv1.bias f4 [64]
00000000: c04c 2dbd 90e3 2fbd 1bca 85bd a829 f5bc
00000010: dbb7 f1bb 3f4c 1e3d 6043 5b3d 13b9 da3c
00000020: 469b 56bd 24f7 43bd b3ca 013d 756b 563d
00000030: 8db5 443d b6b2 3d3c 7303 39bd d41d 31bd
00000040: bd3a 2e3d b4a8 0d3d 613c 5dbd 76b7 2dbd
00000050: 7c20 643d dab7 2d3d eb5b d43c 1499 33bc
00000060: e998 5ebd d4b6 e83c 6587 88bd 016c 37bd
00000070: 8285 52bd a38f 403d 1fcb 2a3d fb87 653d
00000080: 361d 34bd 1081 783d 3db4 35bd 365b a73c
00000090: bf8d 963c 605e 2d3d f7e9 c1ba 2af6 223d
000000a0: a820 4abd 2184 babc 6224 7c3d 9347 3ebd
000000b0: da05 39bd 430b 153d a6dc db3c b9a8 423d
000000c0: 2840 5ebd 44aa 023d 7b3c d53c 0ea5 4cbd
000000d0: 1312 2a3d de90 41bd 5b75 193d 0850 ef3c
000000e0: cc3a 20bd f651 b7bb 2731 43bd d842 ac3b
000000f0: 6abd 87ba 774c c7bc 19bc fbbc 0108 253c
-0.042309523 -0.04294163 -0.06532689 -0.02992709 -0.0073766536 0.038646933 0.05353105 0.026699578
-0.052394174 -0.047843114 0.03168745 0.052348573 0.048024703 0.011578253 -0.045169305 -0.043241337
0.042536486 0.034584716 -0.05401266 -0.04241129 0.055695042 0.042411663 0.025922736 -0.01096179
-0.054345045 0.028407492 -0.066664495 -0.044780735 -0.051396854 0.047011983 0.041697618 0.056037884
-0.04397317 0.06066996 -0.04436134 0.020429235 0.018378137 0.04232633 -0.0014794458 0.03978554
-0.04934755 -0.022768082 0.061558135 -0.046454977 -0.045171596 0.036387693 0.026838612 0.047524188
-0.054260403 0.03190066 0.026029816 -0.049962096 0.041521143 -0.047257297 0.037465435 0.029212967
-0.039118573 -0.0055944873 -0.047654297 0.005256992 -0.0010356132 -0.024328453 -0.03072934 0.010072709

encoder.0.attention.queries.weight f4 [64, 64]
00000000: a763 8a3d 393e 553d ca99 643d 32c0 993d
00000010: 8ccb 42bd aae6 93bd d3c8 9fbd 84ad 02be
00000020: 652e aa3d baef 8f3d 9429 79bd 9ed2 7dbd
00000030: b523 753c da80 0e3d 2ad6 543d 4824 903d
00000040: 21e1 fe3b f4d3 02bd bc97 ce3b fc58 593d
00000050: 2de6 0dbe 10cd 63bd 60e1 20bd 5bb7 b23d
00000060: a06f 893d 15b7 d6bd 3b4c fc3c 4bdf f43b
00000070: 38fa 3b3d 2e91 97bc 6452 bfbd dba8 abbd
00000080: 3aa7 903c cbb5 20bd de66 97bc 04c4 2abe
00000090: adf1 c5bd d854 a9bd 481e 9fbb f96d 95bd
000000a0: e95d ab3d b5f7 8d3d 620e 80bd 472c e03d
000000b0: 4c62 c43d 1fdc 263a 2738 9d3b 96b0 b2bd
000000c0: 4cb6 b13c 703e 74bd d90a 83bd 7b0a 5c3d
000000d0: 276a a5bd b8f8 df3c c527 34bd f5a1 d6bd
000000e0: 89f3 973d a92c 13bd 8bab 843d e1c2 90bd
000000f0: 7995 7f3d 9d2c f43c 3fdc 07bd 3e6e 35bd
00000100: daad bc3d 7b4a 973d 074f 313d c071 8c3d
00000110: c793 07bd 81c4 c3bc b2a4 04be cebd 23be
00000120: 5a96 8e3d a539 873d 4392 40bd 46e7 44bd
00000130: d14b 32bd a58e baba aae6 5f3d c38f 8d3d
00000140: 8a2d 45bc ff2c e5bc 1f06 0a3c 8295 dd3d
00000150: 68d4 dbbd d590 2cbd 6e56 8fbd 13ed 883d
00000160: 1bc7 333d 1988 62bd 9fc0 8e3d 84b2 823d
00000170: a07b f73c cf17 fdbc ca3f 9abd dd1b 3dbc
00000180: 0856 ac3c b8c5 a8bd 4d55 8939 9171 05be
00000190: ae84 04be c758 a2bd 33a3 913c 678a 8abd
000001a0: 6eb9 b03d b863 653d 1045 27bd 2a60 ad3d
000001b0: 1351 e43d 9402 aabc f77e 0f3c 32d5 f9bd
000001c0: 3de3 b53d d70f 94bd e10e 1dbd 68b5 4e3d
000001d0: 152a e0bd 217e 3c3c de6e e3bd 42fa cbbd
000001e0: 4679 f03d 9dc6 0abc bf4d 8a3d b2fd acbd
000001f0: eaf9 9f3d 22da 2f3d 81c4 ba3c d6bb 7fbd
00000200: 6b93 743d 8639 5e3d 1869 1c3d cef6 a83d
00000210: 24dc 4bbd eb80 52bd bf75 b1bd 5209 19be
00000220: 6ec2 863d ba7c 933c 06f1 9bbd a2c8 883a
00000230: 2f3a 0a3b 72e1 21bc d183 653d 58f2 033d
00000240: 6934 123d f9a7 cfbc 08ac 043d 6ac9 763d
00000250: 3531 e8bd ba6c 32bd e0c8 d1bc c6c8 a33d
00000260: be37 593d a101 d8bd 6e2c b13b 9fe1 c93c
00000270: cabf 963d a767 91ba 311d 0dbd a93d 22bd
00000280: ed98 753c b982 cabd f033 b93c 04dc 06be
00000290: abb2 efbd 2f84 cabd c85f 0e3d cdf1 26bd
000002a0: e2e2 813d 3235 783d ce1c 78bd a0ae 993d
000002b0: 2740 f63c f594 84bb fbb0 21bd 874c a4bd
000002c0: 6253 a43c 3bd3 8abd 5bf4 8abd ea91 543d
000002d0: 3bf8 babd 3318 d13c 55a3 c7bd 5e7e eebd
000002e0: 4f3a c03d 9845 0a3c 831f 193d 9549 6dbd
000002f0: 22cf e73d cfd5 033d d0fb 84bc 64a8 19bd
00000300: 87f5 d23d 40d3 223d 84fb 953c 0183 b33d
00000310: 02ee 27bc c134 bebd ed79 c0bd f55d 04be
00000320: 7310 853d 845b 94bb b687 76bd 842a 0dbd
00000330: 45cf 10bd 3d75 97bc 738e be3c 5ea8 823d
00000340: 2aa1 bcbb 45be fbbc f153 f9bb 6453 b03d
00000350: a0f2 b8bd a3c1 94bd ff49 03bd 6969 a83d
00000360: 3be2 873d 3fd3 c8bd f1eb a43d 7edc d23c
00000370: 4ab5 503d bef3 65bc 90f9 77bd bbcf 2ebd
00000380: b9ff 2d3d 3ad7 8abd 66d5 013c c78f 27be
00000390: 849a 03be e0c3 d6bd f60b 133d 93ba 94bd
000003a0: f9a8 cb3d 24ff 3a3d 93e2 9cbd ee7e bd3d
000003b0: 73cd f93d cf80 c7bc 6187 2cbc e9d3 babd
000003c0: 62f2 a13d 8036 9fbd 7109 cfbd f8e1 2b3d
000003d0: 1c2b 12bd aba8 093d f41a 36bd 3a4b 97bd
000003e0: e835 903d 2412 c53b bfb0 c53d 1eba a2bd
000003f0: 2ae5 fd3d b828 033c 6708 5e3c 16ae 30bd
0.067572884 0.052061293 0.055810727 0.075073615 -0.0475574 -0.0722173 -0.07801976 -0.12761503
0.0830963 0.07028146 -0.060830668 -0.06196844 0.0149621265 0.03479085 0.051962055 0.0703817
0.0077783023 -0.031940416 0.0063047092 0.053063378 -0.13857336 -0.055615485 -0.039277434 0.087263785
0.06710744 -0.10484139 0.030798068 0.0074729077 0.045892924 -0.018501844 -0.09341887 -0.08381816
0.017657865 -0.03923587 -0.018481668 -0.16676337 -0.096652366 -0.08268136 -0.0048559047 -0.07296366
0.08367521 0.06932012 -0.06252743 0.10945945 0.09589061 0.0006365198 0.0047979536 -0.08725087
0.021693371 -0.059629858 -0.063985534 0.053720932 -0.080768876 0.027340278 -0.04398324 -0.104801096
0.074194975 -0.035931263 0.06478032 -0.0706842 0.062398408 0.02980643 -0.033169027 -0.04429459
0.09212847 0.07387253 0.043288257 0.068576336 -0.033099916 -0.023897411 -0.12953451 -0.15990373
0.06962271 0.06602792 -0.047014486 -0.048072122 -0.043529335 -0.0014233185 0.054663338 0.06912186
-0.012034783 -0.027975557 0.008424311 0.10819532 -0.10733873 -0.04213031 -0.06998907 0.06685843
0.043891054 -0.055305574 0.06970333 0.063817054 0.030210316 -0.030895142 -0.07531698 -0.011542288
0.021037117 -0.08240837 0.0002619423 -0.13031603 -0.12941238 -0.07927089 0.017778015 -0.067646794
0.08629118 0.056003302 -0.040837348 0.084656075 0.11148276 -0.020753182 0.008758298 -0.12198867
0.08881233 -0.07229584 -0.038344268 0.05046597 -0.109455265 0.011504681 -0.111051306 -0.09959842
0.11741881 -0.008470205 0.0675311 -0.08446826 0.07811339 0.042932637 0.022798778 -0.062434994
0.0597109 0.054254077 0.038186163 0.08250199 -0.04977049 -0.051392477 -0.086650364 -0.14944962
0.06580053 0.01800381 -0.07614331 0.001043577 0.002109181 -0.0098804105 0.056033913 0.03221354
0.035694513 -0.02534865 0.032390624 0.060250677 -0.113375105 -0.04356072 -0.02560848 0.07997279
0.053031676 -0.10547186 0.0054069078 0.024643717 0.073607996 -0.0011093513 -0.034451667 -0.039609585
0.014990074 -0.098882146 0.022607774 -0.13169867 -0.11704 -0.09888493 0.034759313 -0.040757943
0.063421026 0.060597606 -0.060574345 0.0750401 0.030059887 -0.0040460774 -0.039475422 -0.08022409
0.020059291 -0.0677857 -0.06784888 0.051896967 -0.091293775 0.025524234 -0.0974795 -0.116451964
0.093861215 0.008439444 0.037383568 -0.0579315 0.11318804 0.032186326 -0.016233355 -0.037514105
0.10300737 0.039752245 0.018308409 0.087652214 -0.010249617 -0.09287406 -0.093982555 -0.12926467
0.06497278 -0.004527511 -0.060188018 -0.034464374 -0.035353918 -0.01848852 0.023261284 0.0637977
-0.005756517 -0.030730376 -0.0076088835 0.086096555 -0.09030652 -0.07263496 -0.03205299 0.082232304
0.06634947 -0.09805917 0.08052815 0.025739904 0.05095414 -0.014035163 -0.060540736 -0.042678576
0.042480204 -0.067793325 0.007924413 -0.1636344 -0.12851912 -0.10486579 0.03590008 -0.07262149
0.09944338 0.045653477 -0.07660403 0.092527255 0.121973895 -0.024353413 -0.010530324 -0.0912245
0.07907559 -0.07774067 -0.10109223 0.041963547 -0.035685644 0.03360812 -0.0444593 -0.07387395
0.07041532 0.0060141254 0.09652852 -0.07945655 0.12397225 0.008005314 0.013551808 -0.04313477

encoder.0.attention.queries.bias f4 [64]
00000000: ef21 e6bd a9cb e6bd f34d debd 3328 e6bd
00000010: 1cb2 edbd 4433 e1bd d0ea e3bd bc72 edbd
00000020: 5e0c ea3d 96a0 e0bd b97c f23d 07da e23d
00000030: b3c8 f23d dd7c e83d 008b e43d b865 eb3d
00000040: 215d e5bd 0dc7 e2bd 61a5 e03d 49a0 ebbd
00000050: e985 e93d 4a88 e2bd eff8 e63d 9b33 eabd
00000060: 706f ee3d 6483 f3bd 0a70 ea3d 96dc e9bd
00000070: 8cab e53d 902a e93d fed4 e83d 0f4f ecbd
00000080: 6dec c1bd c59e c73d 2a25 d2bd c4c5 cc3d
00000090: 1e52 cdbd e67e d03d 5ae8 cc3d 6c43 c83d
000000a0: f2ab ccbd 888f c93d 8699 d23d 66a2 c33d
000000b0: e129 bf3d 1b37 c93d 0eda c8bd 6723 c6bd
000000c0: b278 d43d dede c9bd 79ee c93d e330 cd3d
000000d0: caf1 d2bd 0f8a c6bd b3ee cc3d 4727 cabd
000000e0: df3d d0bd 142a d73d 9963 cdbd 7ce5 cf3d
000000f0: c7a0 cabd 54b0 ce3d 9184 cabd 2a98 d03d
-0.11236941 -0.11269314 -0.108547114 -0.11238136 -0.11606237 -0.10996106 -0.11128771 -0.115941495
0.1142814 -0.10968129 0.11840195 0.11076742 0.118546866 0.11351941 0.11159325 0.11494011
-0.111994036 -0.11073122 0.109690435 -0.11505181 0.114024945 -0.11061151 0.11277949 -0.11435624
0.11642349 -0.11890295 0.11447151 -0.114190266 0.112143606 0.11385071 0.1136875 -0.11538517
-0.09468923 0.0974708 -0.10260995 0.09998658 -0.10025428 0.10180454 0.10005255 0.09778485
-0.099937335 0.098418295 0.102831885 0.095524594 0.0933416 0.09824964 -0.09807216 -0.09674721
0.10374583 -0.09856962 0.09859938 0.1001909 -0.10300024 -0.09694301 0.10006466 -0.09870773
-0.10168051 0.10506073 -0.10028762 0.101511925 -0.09893947 0.10092226 -0.09888566 0.10185273

encoder.0.attention.keys.weight f4 [64, 64]
00000000: 9c1a 933d 0fdd 4bbe f59d 5a3d c19b 993c
00000010: 9287 f03c dd79 743c cc27 01bd c51d 583e
00000020: 0bf8 00be e40c f23d c7da 263e f991 c8bd
00000030: 87fc abbd 0cb0 9cbd 0d56 2f3b 47c6 993d
00000040: f878 9fbd 99db a9bd ec0e 673d 433b 923d
00000050: 388c 003e 1910 173e ac3b 9f3d 275e 113e
00000060: 8a2f e43d 1c90 a7bc 09ae 073e cffc e43d
00000070: c110 003d e472 9abd d5b8 e1bd 9b60 95bd
00000080: c493 893d 9c6c d2bc 7753 c73d fe89 b63d
00000090: bbe2 f63d fddf a5bd acef 06be d73e c13b
000000a0: 1315 7e3b fd38 dabd 18b9 15bd 9e3d 9d3d
000000b0: 2c4b 853d efc4 c1bd 584a f73d 9cff 13bd
000000c0: eeda c83d 402f a13e ff9b d13d 3a4c f03d
000000d0: dcbe 033e 4e6e 3e3d 4f33 e93c 787b d93b
000000e0: 58fe cd3d a04a fc3d 54d1 3d3d 2c94 23be
000000f0: f2ff e2bd 09ca df3d e1de c0bc c08a c9bd
00000100: e5da bc3d c60c 90be f9cd 963d 850d e8bc
00000110: 31a8 23bd b93f d8bc 3372 36bd 4cbd 693e
00000120: 8b73 eebd 6d57 ce3d 4d7e 223e 979a b4bd
00000130: e7c6 c3bd b102 debd e859 cc3c 86cc 053d
00000140: 3e97 7dbd 1f14 b4bd 8498 9f3b cc59 1c3d
00000150: 8e8e 193e 9531 473e 0bd4 a43d 7f43 2b3e
00000160: 6153 9b3d d363 aa3c d7a9 693d 4db8 a23d
00000170: 03d2 523d 971a 9cbd 75f1 ffbd c227 89bd
00000180: 9eb7 b83d e5f9 a9bc 041a 833d e88a 163e
00000190: 4d9f 0a3e 1f6a 91bd 7f0a f2bd fe6c 45bd
000001a0: f445 40bd 6264 dfbd 66ff f3bb be58 793d
000001b0: d6e5 ca3d 51df dcbd 8dbc 1b3e a041 b0bd
000001c0: d6f4 c53d 08f5 873e 54b5 fa3d 9e56 953d
000001d0: 8d95 f03d c0eb 923d 1cd0 563d 099c 533d
000001e0: 62b9 c73d fb31 6c3d d34b 6f3d 7f38 18be
000001f0: 3ff7 3cbe 8c05 d93d 5c26 54bc aa82 a1bd
00000200: 56f1 e83d 4e1f 62be 4eb1 1c3d bedc ad3b
00000210: dfb3 733c 0e63 ff3c f7d2 90bb 095c 603e
00000220: 3ed7 fcbd 545c fb3c 21a5 063e 969c c2bd
00000230: b73e 89bd a4d6 81bd 983f 3c3d f2c3 973d
00000240: 5569 dcbd f27d 5abd 1b48 ad3c d8ac bb3d
00000250: 1a51 e33d 705a 283e ffdc 453d 4825 0e3e
00000260: 0972 1e3d 11b0 053d cbe2 563d f228 f43d
00000270: d82d c93c 20a0 63bd a10a adbd 3150 4b3c
00000280: 8e79 3f3d b423 9dbc 5ffe d63d 5017 0f3e
00000290: b203 c83d fe27 94bd bd96 c4bd 07fd abbc
000002a0: b9f0 383c ac16 a6bd e6de 75bd 6e98 cf3d
000002b0: fc78 133d d6b8 c4bd 8bc9 f53d af07 16bd
000002c0: 164b 5f3d dbda a93e 2e70 9e3d 813a 813d
000002d0: 5cbd 8d3d 884d 8e3c 015d a03d 60e1 f1bc
000002e0: fd9c ed3d 885c 193e 8eb7 5c3d 019e 17be
000002f0: ac26 d7bd aef6 623d a599 07bd 505d 9abd
00000300: 6e0a d43d 88b4 8cbe 8311 aa3d 4dde 80bb
00000310: 84c0 0cbd 9c5f 82bc 97d8 3ebd cb8a 3c3e
00000320: ab0a fcbd e486 893d 05a2 1b3e df1d 86bd
00000330: 49a7 a9bd 357c c7bd 947f bf3c 00af 803d
00000340: 6934 91bd bcd7 f1bd df4a 063d e111 0b3d
00000350: cc99 193e 88f9 293e e4f1 b23d 2808 f43d
00000360: 4db7 e93d 4f9a b4bb 36ec bb3d 89b6 ae3d
00000370: 7085 413d cab7 8ebd 5ccb bfbd 8c39 74bd
00000380: 02c5 9a3d d80f 4bbd 5342 893d 165a 113e
00000390: 59b9 053e 9134 1cbd 2689 0cbe 8660 bcbc
000003a0: 304e eebc a920 e8bd f3ba 0dbd 9591 dd3d
000003b0: fdda 6b3d 5407 c5bd a5d7 073e 8a63 f2bc
000003c0: a5a6 ea3c e284 a13e c156 dc3d e1b4 dd3d
000003d0: 49d1 dd3d 931d d53b 3b35 943d 29b1 2f3d
000003e0: 13b6 d63d a14b d83d 1f6a c83c 4cfe 0fbe
000003f0: 919a 2fbe 7bfb b73d 3650 18bd a9dd b6bd
0.0718281 -0.19908546 0.053373296 0.018751027 0.02936152 0.014921633 -0.031532094 0.21105106
-0.12594621 0.11818865 0.16294394 -0.09793467 -0.08397775 -0.07650766 0.002675417 0.075085215
-0.07786745 -0.08293838 0.056410715 0.071402095 0.12553489 0.14752235 0.077750534 0.14196073
0.1114188 -0.020454459 0.13249983 0.11181032 0.031265978 -0.07541445 -0.11021582 -0.07293817
0.06717637 -0.025686555 0.097327165 0.08913039 0.12054964 -0.08099363 -0.13177365 0.0058973837
0.0038769885 -0.10655401 -0.036553472 0.07677768 0.065084785 -0.0946139 0.12074727 -0.03613244
0.098073825 0.3148136 0.10234832 0.11733289 0.12865776 0.046491913 0.028466849 0.006637033
0.10058278 0.12318921 0.04634221 -0.15974492 -0.11083974 0.10927207 -0.023543777 -0.098409176
0.09221438 -0.28134745 0.07363505 -0.02832676 -0.03995532 -0.026397573 -0.044542503 0.22826117
-0.11643132 0.10075269 0.15868492 -0.08818548 -0.09559422 -0.10840357 0.024945214 0.032665752
-0.061911814 -0.087929 0.004870476 0.038171574 0.14995787 0.19452508 0.080482565 0.16724966
0.07584263 0.020799553 0.057046738 0.07945309 0.051469814 -0.07622259 -0.12497226 -0.06697036
0.09019397 -0.020749042 0.064014465 0.14701426 0.13537331 -0.07100319 -0.11818408 -0.048199646
-0.046941712 -0.109078184 -0.0074462174 0.060875647 0.09907119 -0.10784782 0.15208645 -0.08606267
0.096658394 0.26554132 0.12241617 0.072919115 0.117472745 0.07173872 0.052444562 0.05166248
0.09752156 0.057664853 0.05842192 -0.14865302 -0.18453692 0.10596761 -0.012948599 -0.0788625
0.11374156 -0.22082254 0.03825503 0.0053058555 0.014874428 0.031175163 -0.00441968 0.21910109
-0.12345742 0.030683674 0.13148929 -0.09502523 -0.06701415 -0.063397676 0.045959085 0.074104205
-0.10762278 -0.053342767 0.021152547 0.09163827 0.11099453 0.16440749 0.04830646 0.13881409
0.03868297 0.032638613 0.05246238 0.11921872 0.024557993 -0.05557263 -0.08449293 0.012409256
0.046746783 -0.019182064 0.10497736 0.13973737 0.0976633 -0.072341904 -0.095990635 -0.020994676
0.0112878615 -0.08109793 -0.060027026 0.101364955 0.03600405 -0.09605567 0.12001332 -0.03662842
0.054514967 0.33174786 0.0773624 0.06309987 0.06920883 0.017370954 0.07830239 -0.029526412
0.11602209 0.14976704 0.05388599 -0.14806367 -0.10505423 0.055411033 -0.03310551 -0.07537329
0.10353552 -0.27481484 0.08304121 -0.0039327503 -0.034363285 -0.01591473 -0.046593275 0.1841232
-0.12306722 0.067151815 0.15198524 -0.06548666 -0.0828386 -0.097404875 0.023376264 0.062833786
-0.070900746 -0.11808726 0.032786246 0.033952598 0.15000075 0.16599095 0.08737543 0.11915618
0.11411915 -0.005511559 0.09175913 0.085309096 0.047246397 -0.06968649 -0.093649596 -0.059625193
0.075571075 -0.049575657 0.067021035 0.14194521 0.13058986 -0.03813607 -0.13724193 -0.022995245
-0.029090017 -0.113343544 -0.034602117 0.10818783 0.05758189 -0.09620538 0.13265856 -0.02958848
0.028643915 0.31546694 0.107587345 0.108255155 0.108309336 0.0065037697 0.072367154 0.042893562
0.10483947 0.105613 0.024464665 -0.1406185 -0.17148806 0.08983513 -0.03718587 -0.08928997

encoder.0.attention.keys.bias f4 [64]
00000000: 3455 ef39 7060 c639 2934 ad38 c8b3 a339
00000010: 244d 09b9 06a9 1739 5c0d 77ba e595 fd39
00000020: 1427 95b9 4676 2d3a 07ba e538 241c 21ba
00000030: 1541 ca39 3e91 2ab8 0129 9aba 39f7 f6b9
00000040: 6f43 853a 6d42 01b8 2d97 7cb9 792a b739
00000050: 572c 893a e1d5 c4b8 7fff 2eba 1de2 d439
00000060: 6542 a139 f0a8 6bba 9ff8 d3b9 af60 5539
00000070: 902d 57ba 08eb efb9 a096 deb9 bbc7 02ba
00000080: db68 b0b9 8add 64b9 baeb d1ba 807d d63a
00000090: ea0b a5ba 2b98 3f3a 15e5 9e39 463d b33a
000000a0: e86c 3cba 63db 5c3a b2ae 41b9 ae95 3a3a
000000b0: 7323 7239 6c15 c13a 0c2e 65ba 3027 ca37
000000c0: b4d4 4f3a 6fa6 1bb9 9f1b 7e3a 5ecb 523a
000000d0: 7e85 acba 6550 8aba f3cd 333a 9ac9 30ba
000000e0: 3b1c 1db9 61ba 7d3a f5ea 4aba 935c 383a
000000f0: 5c01 a1b9 961c 653a c856 e7ba d913 9f38
0.00045649114 0.00037837354 8.2589984e-05 0.0003122373 -0.00013094075 0.00014463448 -0.0009424293 0.000483676
-0.0002844861 0.00066170504 0.00010954221 -0.0006145856 0.00038576932 -4.0666426e-05 -0.0011761488 -0.00047104972
0.0010167192 -3.081786e-05 -0.0002408891 0.00034936125 0.0010465485 -9.385846e-05 -0.0006675645 0.00040604259
0.0003075778 -0.0008989712 -0.00040430293 0.0002034928 -0.00082083885 -0.00045760744 -0.00042455364 -0.00049888686
-0.0003364746 -0.00021826304 -0.0016015687 0.0016364306 -0.0012592052 0.00073087466 0.00030306788 0.0013674877
-0.0007187859 0.0008425025 -0.00018470993 0.0007117641 0.00023092124 0.0014731116 -0.0008742518 2.4098525e-05
0.00079281186 -0.00014843953 0.0009693447 0.00080411683 -0.0013162342 -0.0010552524 0.0006858997 -0.0006743908
-0.00014983203 0.00096789567 -0.00077407 0.00070328376 -0.00030709326 0.00087399164 -0.0017649764 7.585408e-05

encoder.0.attention.values.weight f4 [64, 64]
00000000: c6b8 30bd 3ed4 833d 0165 5ebd b339 a43c
00000010: 8204 13bd 948b f4bc 3127 253d be11 19bc
00000020: 2a3f 6f3c eae7 88bd 1802 91bc aaaa db3c
00000030: 3309 473c 67eb 563b 79c9 26bd b345 c93b
00000040: 67fc f53b 0956 8d3d 2ced f2bb 2c5d 203d
00000050: d54f 3bbd b134 5dbd b19b 3cbd 7753 a53c
00000060: 2c45 22bd e880 663d 129b 6ebc 61d4 f1bc
00000070: 3b7e a53c 5df7 dfba c753 83bb 2b7c 98bb
00000080: 88c5 1dbd ac9d 44bc 711a f43b 933e 923d
00000090: 8610 c93c e466 e43d cf3f 233d ece6 e5bb
000000a0: 443e 313c 28ae 503d 295a bcbc cc83 91bd
000000b0: 4cb4 10bd be11 343d 5798 bdbd c2d3 e7bc
000000c0: 5b4c b9bc 1d13 f1bc 3a10 33bc 0fc1 53bd
000000d0: 5edf 8cbc 03bf 94bb 66e2 5abb 1175 fe3b
000000e0: a873 68bc 889c 803c 34f1 38bd 2e0d 61bd
000000f0: 5709 9c3c 5957 68bc 5cd7 24bd 4c26 d73b
00000100: 5bbc be3c b58a 57bd 332c 093d 418e 4f3d
00000110: cdac aabb 00fd 533c 598a d4bb 4f6a d03c
00000120: 6d2f c63c 66dc 1ebc 4eae f83c e241 9ebc
00000130: 1b2d 4f3a 30a7 54ba 431f f03c 9424 17bc
00000140: e6d3 a83c 3dee 043d 4021 9a3a a73f d63c
00000150: dc4f babc 76a0 203c e12b 163d 3297 193d
00000160: f76b 1abc b0d0 5ebc 1c23 873b 1f85 35bc
00000170: 276c 8abc 31c8 57bb 988d 14bc afb1 043d
00000180: 0ab0 7fbc 3de7 683c ef86 913c 4277 b33b
00000190: f649 b03c c211 afbc eb23 8f3c 1303 923d
000001a0: 5453 c2bb 84be 26bd 2656 193d d1f8 903d
000001b0: 3d03 f4bb b3d4 82bc f676 7c3d 7dc5 d23c
000001c0: 307f 3a3c bacd 1c3d 6c64 1bbc bd20 cabb
000001d0: 1005 003d 3246 00bd 25f9 13bd fbcb 6dbd
000001e0: ad3a d03c ed44 fabb 8f2d a5bc c2c5 45bc
000001f0: b0e5 78bb f682 9a3c 5eb5 34bd 256a 46bd
00000200: 935e a63c 3e99 0a3c 8781 693c 4f74 6cbc
00000210: 6fdf a23c 8c28 533d a75a 333d 286b 5c3d
00000220: 8089 e23c 69d4 6a3c 19fc 273d a81a 3c3c
00000230: 50cf 30bd 0369 8cbc 11a7 cfbd c9b8 55bc
00000240: 469a a73c 7b49 95bd f7b7 c83c 07b8 afbb
00000250: 395a 383d 78b9 eabc 2f4e 053d 5ce1 8237
00000260: cf43 6c3c 5791 363d 6f68 dc3b 990e 023d
00000270: 7df5 22bd 5863 b7bc 82fc 54bd 4669 45bd
00000280: 5406 8cbc 2e0d b33c d912 dc3d 2c0f 303d
00000290: d720 e43c 9eb1 fcbb 2663 81bc 3830 f9bc
000002a0: c196 eabc 413e c6bd 7636 66bc 9eb4 43bd
000002b0: 609a 193d 8d7d 8ebc edef 433a 4fb3 023d
000002c0: 2294 91ba 9ba8 e93b 58ac 183d fed0 ba3c
000002d0: eb4c 83bc 4d92 2e3d 31fc f93c 0c3b 7f3d
000002e0: a41c 203c a676 213d b8e4 f53c 67a5 18ba
000002f0: cf3e f8bb c1ce 833b 89f9 803d 513f 583b
00000300: edda 1f3d c0a4 12be 0a4d 843c 7f83 67bd
00000310: 1a2d 3f3d 09fb d13a 2b31 633c 8b38 dd3c
00000320: fd05 84bc 1c52 313c 92b7 393d 035f c43c
00000330: 79d6 c73c ca48 1abb 69aa 5fbd fffb fbbc
00000340: 2e9a 88bc 2074 ca3c 921c 843b d935 64bc
00000350: b17a 1dbd fb79 be3d 2600 ac3c ea62 1fbd
00000360: dbc0 343b 7bcf 02bd 8e92 c63c 20fe 4b3c
00000370: 6827 c13b 1f03 fc3b 90f5 01bd 13b7 cd3c
00000380: 5af6 84bc 313e 413d df0e 8cbd 101d 443c
00000390: 9680 233c 875c 1bbd 8783 f7bb 5153 dbbb
000003a0: 4eec c43b f21b 0b3e ec80 613d d4e2 cbbd
000003b0: b9da 96bc 85e3 9d3c acfe 0b3d 4390 843d
000003c0: 7ead edbc 44c1 d73d 9313 84bc d9cb ed3c
000003d0: 2d32 763d 6ce6 e6bd 238f 9d3c 93e5 a8bc
000003e0: ccbc 163d aa35 db3d c556 033d 165e 2abd
000003f0: b3c8 0ebd 04e5 1939 00b0 c43c a269 8f3d
-0.043144964 0.06436966 -0.054295544 0.020047044 -0.03589297 -0.029851712 0.04032058 -0.009342609
0.014602462 -0.06684859 -0.017701194 0.026814777 0.012148189 0.003279412 -0.040719483 0.006142342
0.0075068953 0.069011755 -0.007413527 0.039151356 -0.04573043 -0.05400533 -0.046046916 0.0201814
-0.03961675 0.05627528 -0.014563339 -0.029520215 0.020201793 -0.001708727 -0.00400779 -0.004653474
-0.03851846 -0.0120004825 0.007449441 0.07140841 0.024544012 0.11152437 0.039855774 -0.0070160534
0.010818068 0.05094734 -0.02299221 -0.071052164 -0.035328194 0.043962233 -0.09257572 -0.028299216
-0.022619417 -0.02942806 -0.010929162 -0.051697787 -0.017196354 -0.004539372 -0.0033399104 0.0077654202
-0.014187731 0.01569964 -0.045151904 -0.05494421 0.019047422 -0.014180982 -0.040244445 0.0065658446
0.023283174 -0.052622516 0.033489417 0.050672773 -0.0052085877 0.012938738 -0.006486219 0.025441317
0.024192536 -0.009696102 0.030356552 -0.019318525 0.00079031446 -0.0008112071 0.029311782 -0.0092250295
0.020608854 0.032453764 0.0011759177 0.026153399 -0.022743158 0.009803882 0.03666294 0.037497707
-0.009425155 -0.01359956 0.0041240584 -0.011079102 -0.016897274 -0.003292572 -0.009066962 0.032396015
-0.015605936 0.014215288 0.017764537 0.005476863 0.021519642 -0.021370772 0.017473182 0.071294926
-0.0059303436 -0.040709034 0.037435673 0.07078708 -0.007446675 -0.015970564 0.061636887 0.025728935
0.011382863 0.038282134 -0.009484392 -0.0061684535 0.031254828 -0.031316943 -0.036126275 -0.05805586
0.025418604 -0.007637611 -0.020163326 -0.012071075 -0.0037978701 0.018861275 -0.044118278 -0.04844107
0.020308768 0.008459387 0.014252073 -0.014432027 0.019881932 0.05155234 0.043787625 0.05381313
0.027653456 0.014332869 0.041011903 0.011480965 -0.04316646 -0.017139917 -0.10139287 -0.0130445445
0.020459305 -0.07289406 0.024501784 -0.005362514 0.045007918 -0.028652892 0.032545265 1.5602149e-05
0.014420464 0.0445722 0.0067263166 0.031752203 -0.039784897 -0.022386238 -0.051998623 -0.0481961
-0.017092861 0.02185687 0.107457824 0.04298322 0.02784769 -0.0077116033 -0.015794348 -0.0304185
-0.028636338 -0.09679843 -0.01405107 -0.04777967 0.03750074 -0.017393852 0.00074744114 0.031909283
-0.0011106769 0.007130695 0.037273735 0.022804733 -0.016027888 0.042619992 0.030515762 0.06231217
0.009772453 0.039419793 0.030016288 -0.0005822987 -0.0075758467 0.0040224497 0.06297595 0.0032996724
0.039027143 -0.1432066 0.016150016 -0.05652189 0.04667387 0.0016020249 0.013866703 0.0270045
-0.016116137 0.010822799 0.045341082 0.023971086 0.02439426 -0.002354192 -0.054605875 -0.03075981
-0.016675081 0.024713576 0.004031726 -0.013928854 -0.038447086 0.0930061 0.020996165 -0.03891269
0.002758077 -0.03193615 0.024239805 0.012450725 0.00589459 0.0076908018 -0.031728327 0.02511171
-0.01623075 0.04717845 -0.06838774 0.01196982 0.009979388 -0.037930038 -0.007553521 -0.0066932817
0.006009615 0.13584879 0.05505459 -0.099553734 -0.018414842 0.019273529 0.03417842 0.06472828
-0.029013392 0.10534909 -0.016122615 0.029027866 0.060106445 -0.11274418 0.019233292 -0.020617282
0.036801144 0.10703595 0.03206517 -0.041593634 -0.03485937 0.00014676532 0.024009705 0.0700257

encoder.0.attention.values.bias f4 [64]
00000000: 47f3 1cbc b276 b2bc e35f 9f3c b476 b03b
00000010: 1dce e4bb 6878 083c 58ec 5b3c dbf6 1d3d
00000020: af47 b1bc 6cc6 5ebd 6d2e c63c cdd7 a1bc
00000030: dbef 5abd e1d7 31bc 1a69 04bc cfa4 2d3c
00000040: df7e 9a3c 642c 743c 7a40 e6ba 21cc 0fbc
00000050: 7ff5 203d 179b 903c d015 0c3c dc2c d9bb
00000060: 4251 97bc 7339 dcbb b8b8 10b8 8cad 49bd
00000070: b531 8ebc ac72 3f3c c1bf 843b 5850 d83c
00000080: e877 81bb 4473 cd3c af1c 8abb 711a 293d
00000090: 716f 073d 062d aa3c 1d67 133c ea98 1e3b
000000a0: 28f0 18bd f594 b83c e29f 833c 956d d6bb
000000b0: 9d68 e3bc a2d2 f43c 0e90 333c 12fd f63c
000000c0: 38da 3fbb c6ac 993c ad46 cbbb 1618 e3bc
000000d0: cd44 193c 94fc 48bb 2deb e3b9 9761 443c
000000e0: 3c2f 1abc d9ef 17bc fb83 81bc 1e36 59bc
000000f0: dca6 f7bc eefc 0dbc 58fd 3ebc 981e cabb
-0.009579486 -0.021785114 0.019454902 0.0053852443 -0.0069825784 0.008329488 0.013423048 0.038565498
-0.021640627 -0.05438845 0.02419206 -0.019756222 -0.0534514 -0.010854692 -0.008081699 0.010598375
0.018859325 0.014903162 -0.0017566823 -0.0087766955 0.039296623 0.017652078 0.008550122 -0.006627662
-0.018471364 -0.0067207157 -3.4504308e-05 -0.049237773 -0.017357687 0.011685055 0.004051179 0.026405498
-0.0039510615 0.025079377 -0.004214845 0.041284982 0.033065263 0.020773422 0.008996752 0.002420003
-0.037338406 0.022531966 0.016067449 -0.006543825 -0.027759844 0.029885594 0.010959638 0.03014997
-0.0029274356 0.018759143 -0.0062034936 -0.027721446 0.009354782 -0.0030668126 -0.00043472034 0.011986158
-0.009410676 -0.009273493 -0.015810004 -0.013257531 -0.030230932 -0.00866626 -0.011657082 -0.006168198

encoder.0.attention.fc.weight f4 [64, 64]
00000000: 202b c5ba 3b14 eabc 279a bebc af5d 4f39
00000010: c9a2 82bc dc00 833b 8679 5c3c 9b73 92bb
00000020: 708f c33c 6eef 763b 54dd 97bc 0fd5 07bd
00000030: 07d4 67bc 52d4 5ebb de47 a73c 0490 c4bc
00000040: 620e a63c b5f4 403c 63c2 6e3d d004 a7bc
00000050: e136 c63c 0bae bb3c 39e1 35bc 7d8e fd3c
00000060: 9b48 78bb 65af a4bc 9bea 973c a0bb 17bd
00000070: c213 9dbb 0fd1 fa3c 5e10 63ba 6b12 9bbb
00000080: 24f4 11ba 85c6 58bb 20fc a63a 8830 183b
00000090: 0a74 0d3d ab24 cb3b 600e 58bc 72f0 80b9
000000a0: ebf3 323d 475f d2bc fedc 5dbc e594 d9b9
000000b0: 2107 7e3c 660e 8b3c 26b8 ae3a 5408 863b
000000c0: 826f 08bd 05be 2fbc 3470 78bc 19a5 1b3d
000000d0: f787 d2bc 3542 1d3b 7272 29bc df75 853c
000000e0: 6e76 a0bb 4e68 183c 0be4 9bbc 2514 443c
000000f0: 2bdb fb3c 0294 653c a070 643c 0455 66bc
00000100: f045 8bbc f25d 253c 1ed2 2a3a bc00 b9bb
00000110: 8627 bdbb cf81 0f3d 2367 f6bc 6938 2cbc
00000120: 159c 7dbb 1e17 013d 2a44 c53c cca9 9e3b
00000130: 86b5 1cbd 9546 c63c 182b e53c b076 0f3c
00000140: c2c6 8a3b 9631 8c3c 74f6 123d 3bc0 abbb
00000150: 3537 343c 3ee2 333c f661 123d cd4d 06bc
00000160: b74b c53c 5261 863c d496 813a e1e8 a63c
00000170: 4735 f83c c4fb 0a3c d234 743c 8d6e a3bb
00000180: 6af7 7a3b 1f22 04bc b0f8 1b3c 6a86 34bc
00000190: 70c2 113c a7bd 44ba 1f62 04bd b8da 6abc
000001a0: 6d81 bf38 bdf6 6abc 3ff0 95bc b0fb 9ebc
000001b0: 5274 563c c42b 083c 2353 783c 8ecb f5bc
000001c0: 079c 7e3c 030b f43b 2168 6dbc 878a 263c
000001d0: 37b8 9fbb c2c5 863b ef5e cd3a 4f0b 083c
000001e0: de93 09bd ef72 6d3c 1e8d 423c 89d1 2b3c
000001f0: 1915 143d 1e3b 803c 33d4 f6bb c2a7 a13c
00000200: 3d8d dcbc fa62 10bd a00c 8fbc d4e9 1fbb
00000210: 3ca4 e8bc a3e2 88bc 7941 25bc 4f95 59bc
00000220: feef 44bc 9b75 0abd d806 5b3c 384d 093b
00000230: 7b1f 87bc c853 a23a bff8 833c b428 c83c
00000240: 461b 803a 655a cc3a 594b db3c 8993 a8bb
00000250: ae86 44bc 42d4 acbb 7d05 1cbb 8bec 273b
00000260: 02f3 1a3c 2608 8abb b970 2039 3e6c c2bb
00000270: ce27 3a3d 0cc0 f53b 291c d5bc 66be e83c
00000280: 6976 28bb dcb7 273b a9c8 823c 2f2f 90bc
00000290: ba3c 02bc 350b eebc d237 9ebc c842 15bb
000002a0: 89a1 db3a f071 b73b d085 fc3c 10d8 6d3c
000002b0: c10a d1bb e9ed 18bc 5754 653c b7f4 82bc
000002c0: 2223 863c aac4 4bbd c899 1cbd f2c6 bc3c
000002d0: 5b64 f0bc 5299 51bd 9d9b a43c 67d6 093c
000002e0: 6d30 9d3c 26b6 a8bc 473d 473c 743b 0b3d
000002f0: 2772 92bc 9752 053c eaf0 bf39 70bd f9bb
00000300: c7c6 cebb 3363 b2bc e3be 94bb c4e1 283b
00000310: 460e 01bb d17c 9b3c 5eee ae3b c290 4e3c
00000320: 2249 cf3b f0d1 20bd 5b2d bf3c 336f 6bbc
00000330: e723 b1bc 6b38 e63b 0bb1 5a3c c980 373c
00000340: f0d7 01bd 6a67 33bc 8f92 fd3c 5d59 d2bc
00000350: 030c 833c 97ec 0cbd 2498 30ba f202 13ba
00000360: 24e8 873c 8145 8239 1913 4cb9 d2b5 8e3c
00000370: 7710 073c d7c8 debc 879f de3c 6224 f73c
00000380: 445c cfbc 0f9b 5b3c be45 72bc b0c9 5b3c
00000390: 4bb0 1abc be76 843c a102 edbc 8e6b b8bc
000003a0: 1bd0 5ebc 0f9a 69bc 98cf 18bc c3a6 05bc
000003b0: bd66 fb3b 2003 62bc bb40 db3c 7959 4fbc
000003c0: 8fd1 4fbb 0337 f2bc 4cd6 023c a2c7 74bc
000003d0: 746c 79bc d81a 41bc eb64 12bb 959c 31bd
000003e0: 32e9 3b3b 8222 893c fc56 a5bc f921 33bb
000003f0: 65ff 84bb 7d17 82bb 02d8 04bd 0c53 003d
-0.001504276 -0.0285741 -0.023266865 0.00019775958 -0.015946763 0.003997905 0.013456708 -0.0044693477
0.023872107 0.0037679332 -0.018538155 -0.033162173 -0.014149672 -0.0034001064 0.020420011 -0.023994453
0.02027053 0.011777093 0.05829085 -0.020388037 0.02419609 0.022910139 -0.011101061 0.030951733
-0.0037885073 -0.020103166 0.018544486 -0.037044168 -0.004793615 0.030617265 -0.00086618017 -0.00473242
-0.0005567691 -0.0033077311 0.0012739934 0.0023222286 0.03453449 0.0061994395 -0.013187021 -0.00024593208
0.04368965 -0.025680197 -0.013541458 -0.000415004 0.015504629 0.01697464 0.0013330027 0.0040903483
-0.033309467 -0.0107264565 -0.01516347 0.037999246 -0.025699599 0.0023995761 -0.010342227 0.016291557
-0.0048969304 0.009302212 -0.019029638 0.011967693 0.030744156 0.014012339 0.0139428675 -0.014058355
-0.017001122 0.010093199 0.0006516295 -0.0056458395 -0.005772534 0.035035904 -0.030078476 -0.010511496
-0.0038697768 0.031516187 0.024080355 0.0048420187 -0.03825905 0.024203578 0.02797465 0.008756325
0.0042351196 0.017113488 0.035879567 -0.0052414215 0.0109994905 0.010979233 0.035737954 -0.00819726
0.024083955 0.016403828 0.0009886869 0.020374717 0.030298842 0.008482877 0.0149051715 -0.004987544
0.0038294443 -0.008064776 0.009519741 -0.011018375 0.008896455 -0.0007505067 -0.032320138 -0.014334373
9.131697e-05 -0.014341054 -0.018303035 -0.019407123 0.013089256 0.008311216 0.01515654 -0.030004289
0.0155401295 0.0074476018 -0.014490158 0.010164863 -0.004874255 0.00411293 0.0015668551 0.008303477
-0.033588283 0.014492734 0.011874465 0.010486969 0.036152933 0.01565319 -0.0075326203 0.019733313
-0.026922816 -0.03525064 -0.017462075 -0.0024400847 -0.028398626 -0.016709631 -0.010086411 -0.013280227
-0.012020109 -0.033803564 0.013368331 0.0020950567 -0.016494503 0.0012384588 0.016109822 0.024433471
0.0009773753 0.0015590905 0.026769327 -0.0051445407 -0.011995001 -0.0052743265 -0.0023806982 0.0025623168
0.009457352 -0.004212397 0.00015300782 -0.0059333136 0.045448117 0.0074997004 -0.026014404 0.028411102
-0.0025705344 0.0025591766 0.015964823 -0.017600624 -0.007949049 -0.029058078 -0.019313727 -0.00227754
0.0016756515 0.005598299 0.030825526 0.014516845 -0.006379456 -0.009334066 0.013997159 -0.01598583
0.016374175 -0.0497481 -0.038232595 0.023044083 -0.029344728 -0.05117161 0.020093733 0.008412934
0.01918813 -0.020594668 0.012160606 0.033992246 -0.017876698 0.008137367 0.00036609854 -0.0076214597
-0.006310317 -0.021775817 -0.004539357 0.0025769332 -0.0019692346 0.018980416 0.005338474 0.012607755
0.006325857 -0.039262712 0.023337057 -0.014369774 -0.021623565 0.0070257685 0.013347874 0.011200138
-0.031700075 -0.010949949 0.030953674 -0.025677377 0.015996939 -0.034405317 -0.0006736538 -0.0005608044
0.016590185 0.00024847317 -0.0001946207 0.017420683 0.008243672 -0.027195377 0.027175678 0.030168716
-0.02531255 0.013403668 -0.014787136 0.013414785 -0.009441446 0.016169902 -0.028931918 -0.022512224
-0.013599421 -0.014257922 -0.009326838 -0.008157435 0.0076721595 -0.01379469 0.026764264 -0.012655609
-0.00317106 -0.029567247 0.007985663 -0.014940174 -0.015223611 -0.011786185 -0.0022337984 -0.04336222
0.002867293 0.016740087 -0.020183079 -0.0027333482 -0.0040587657 -0.003970085 -0.032432564 0.0313292

encoder.0.attention.fc.bias f4 [64]
00000000: 0000 0000 0000 0000 0000 0000 0000 0000
00000010: 0000 0000 0000 0000 0000 0000 0000 0000
00000020: 0000 0000 0000 0000 0000 0000 0000 0000
00000030: 0000 0000 0000 0000 0000 0000 0000 0000
00000040: 0000 0000 0000 0000 0000 0000 0000 0000
00000050: 0000 0000 0000 0000 0000 0000 0000 0000
00000060: 0000 0000 0000 0000 0000 0000 0000 0000
00000070: 0000 0000 0000 0000 0000 0000 0000 0000
00000080: 0000 0000 0000 0000 0000 0000 0000 0000
00000090: 0000 0000 0000 0000 0000 0000 0000 0000
000000a0: 0000 0000 0000 0000 0000 0000 0000 0000
000000b0: 0000 0000 0000 0000 0000 0000 0000 0000
000000c0: 0000 0000 0000 0000 0000 0000 0000 0000
000000d0: 0000 0000 0000 0000 0000 0000 0000 0000
000000e0: 0000 0000 0000 0000 0000 0000 0000 0000
000000f0: 0000 0000 0000 0000 0000 0000 0000 0000
0.0 0.0 0.0 0.0 0.0 0.0 0.0 0.0
0.0 0.0 0.0 0.0 0.0 0.0 0.0 0.0
0.0 0.0 0.0 0.0 0.0 0.0 0.0 0.0
0.0 0.0 0.0 0.0 0.0 0.0 0.0 0.0
0.0 0.0 0.0 0.0 0.0 0.0 0.0 0.0
0.0 0.0 0.0 0.0 0.0 0.0 0.0 0.0
0.0 0.0 0.0 0.0 0.0 0.0 0.0 0.0
0.0 0.0 0.0 0.0 0.0 0.0 0.0 0.0
