model/mnist/tune_lr0.0005_ed32_nl4_nh4_fm2_ps4/temp_model.pt (torch, 175623 bytes, 74 tensors)

embedding.cls_token f4 [1, 1, 32]
00000000: 22a8 303b d94b 1b3a ab37 b0bb 8b31 ecba
00000010: 3a11 743b d498 b5bc c404 0fbc 9bff 453a
00000020: 471e 93ba 884c 16bc 0cf8 80bb f226 01bd
00000030: 76e7 953b 68cb 69ba 472c 03bc 69a1 d3bc
00000040: b813 b039 8068 173c 08f1 773d fbc8 09b8
00000050: e30d 4dbb 73ed 1fbc 4e5e 893c 0e75 e83b
00000060: 1266 663b ee39 00bb c2bc fcbb 0a72 ba3c
00000070: 7b7a 30bc a128 403d ee11 d0bb 43c4 c83a
0.0026955684 0.0005924083 -0.00537773 -0.0018020136 0.0037241713 -0.0221676 -0.008729164 0.0007553042
-0.0011224233 -0.00917352 -0.0039358195 -0.03153128 0.0045747114 -0.00089185545 -0.008006162 -0.025833802
0.00033584028 0.009241223 0.0605326 -3.2850523e-05 -0.0031288795 -0.009761202 0.0167686 0.007094032
0.0035156053 -0.0019565779 -0.0077129314 0.022759456 -0.010771389 0.046913747 -0.0063497936 0.001531728

embedding.pos_embedding f4 [1, 50, 32]
00000000: 0fa8 303b 294c 1b3a b337 b0bb 9931 ecba
00000010: 1911 743b d598 b5bc b004 0fbc c6ff 453a
00000020: 5d1e 93ba 8d4c 16bc 13f8 80bb ef26 01bd
00000030: 7de7 953b 31cb 69ba 3f2c 03bc 66a1 d3bc
00000040: 2914 b039 8768 173c 02f1 773d 7ec1 09b8
00000050: fd0d 4dbb 78ed 1fbc 4f5e 893c 1c75 e83b
00000060: 2166 663b de39 00bb cebc fcbb 0b72 ba3c
00000070: 797a 30bc a428 403d ec11 d0bb 27c4 c83a
00000080: 82e2 1fba 1ede 453d 60f4 c0bc f619 b83b
00000090: d4e2 643c 6312 daba 08ac 683a 74f4 2fba
000000a0: 8f75 593c f391 60bc 5d3e 403d f327 a6bc
000000b0: 4719 e1bb 7b39 08bd 521b cdbc b683 e73c
000000c0: 3f38 05bd 4da3 1abc fa03 7f3c 7ff5 403b
000000d0: 5408 36bd 4d48 5ebd e38d 19bc 5e1a 7c3c
000000e0: 6563 07bd 04bb 02bc 07a1 553a 673e 8cbb
000000f0: 85d2 163d 62c4 4b3c 6653 893c f6de 453d
00000100: 260d 2a3b 2dc5 1e3d 4eae 67bc 32ae 4e3c
00000110: 66c0 613b 819a e9ba 14df 26bb 5a4f 55ba
00000120: 2e83 223c b462 23bc 5b0d 243d fed6 93bc
00000130: d764 01bb 82f2 f8bc 5b77 a2bc 64c6 c03c
00000140: 2287 d3bc d91c a4bb 2c8d 3e3c 0314 30bb
00000150: 72fb 19bd 56bf 1cbd 259b f1bb 69b1 303c
00000160: 176d a9bc 1f75 6dbb e1ef d53b 1c23 95bb
00000170: b62f 023d f5df f03b 5d87 263c 4471 2d3d
00000180: 4c84 463c 4e8d 0dbd 73eb 033d 7560 14bb
00000190: 8368 143d a252 7cbd 7317 7ebd 14ec 463d
000001a0: b711 65bc 1e87 833c 4639 a1bc 99ef 743c
000001b0: 1e0e a73d 0448 4b3b 9792 9ebc 5e4d b63b
000001c0: ef69 273d 40e2 3d3c 7465 3e3c e964 10bb
000001d0: 26a6 6ebc 4140 113d 8f4a 833d ddca 18bc
000001e0: 2527 943d cbad 793d 8ca9 893d b86c ef3b
000001f0: a456 81bc a2f7 d03c 1db2 12be 0e30 213b
00000200: 54c1 073b eec9 53bd da3e 083d e795 89bb
00000210: 711f 3a3d 88ba 98bd 29ff 89bd 88e7 313d
00000220: b61b d0bb d1b6 0c3d 27a4 55bd fcea 273c
00000230: e4c6 4e3d d117 a83c c5ff d4bc 5cfc 2bbc
00000240: 16a9 283d ce76 883c 0180 e43b d6f1 953c
00000250: 2f00 0fbb e407 273d 3aab 823d 4705 d13b
00000260: 2c16 ee3d e56c a53c 34ae 533d 66cd 193d
00000270: 05f6 0fbd ee43 0d3d d2b1 24be b83f cebb
00000280: a243 4c3c 9d39 1fbd e0a4 093d e9a2 eebc
00000290: 2919 683d cb0b bdbd eea3 77bd 62b4 373d
000002a0: dd55 04bc 3a05 343d aece 43bd c6a5 553b
000002b0: b9be 213d d052 e23c d279 ffbc 84c3 153c
000002c0: a647 243d cf8b 8a3c d86f 53bb 0e90 aa3c
000002d0: c2fd 3b3b 73cf 893d a4ae 503d 0c65 943c
000002e0: 7938 c93d 4de3 fa3b ee9b 493d fd26 1f3d
000002f0: 8a59 4abd 19f9 3a3d 23f9 19be 9dd5 7a3b
00000300: 2dd5 023c 6ba8 1f3c c56a 3e3c 6bc1 61bd
00000310: bd79 b43d 33bd 9cbd c3d2 4bbd 7e2e 703d
00000320: d4d3 86bc 6e81 963c cf56 263c e5b4 863c
00000330: 25d4 9f3d 72b2 80bb 7997 70bd b92b 88bb
00000340: a1bb 0c3d bca2 3239 b7d0 813c fe96 ef3c
00000350: 9517 2abd 9346 253d b32b 3e3d 4e59 2d3c
00000360: 8593 1a3d af83 223d db72 573d 217d a03c
00000370: 2259 99bc 0719 433d 6b0b 1abe 69f9 2d3d
00000380: f644 b4b8 5fe7 4a3d 966f d7bc bd37 a33b
00000390: 5c5c 743c d733 3fba 0735 c83a f1cc 50ba
000003a0: 0f57 683c fe78 6fbc 6a86 453d 502f babc
000003b0: dcb2 09bc 3159 0abd b5a0 d4bc ac37 f43c
000003c0: 3204 0cbd 4666 27bc 496c 853c a8ec 263b
000003d0: 92c5 3bbd 0276 70bd 9cac eebb 43ce 853c
000003e0: 5ea4 0abd fe56 22bc 2f5a 7238 5b88 a2bb
000003f0: 10bb 1a3d bfed 733c 0ca1 733c 95e4 483d
0.002695564 0.00059241295 -0.0053777336 -0.0018020152 0.0037241636 -0.022167603 -0.008729145 0.0007553067
-0.0011224259 -0.009173525 -0.0039358228 -0.03153127 0.0045747147 -0.00089185225 -0.008006155 -0.025833797
0.00033584356 0.00924123 0.060532577 -3.284355e-05 -0.0031288855 -0.009761207 0.016768603 0.0070940387
0.0035156088 -0.0019565742 -0.007712937 0.022759458 -0.010771387 0.046913758 -0.0063497927 0.0015317247
-0.0006099121 0.04830753 -0.023554027 0.005618329 0.013970096 -0.001663756 0.00088757323 -0.00067121466
0.013272657 -0.013706672 0.046934474 -0.020282721 -0.0068694684 -0.033257943 -0.025037441 0.028261047
-0.032524344 -0.009438348 0.015564913 0.0029443202 -0.044441536 -0.05426817 -0.009372207 0.015387146
-0.033053774 -0.007979158 0.00081493 -0.0042799 0.03682186 0.012436958 0.0167634 0.048308335
0.0025947778 0.03876226 -0.014140679 0.012614774 0.0034446954 -0.0017822535 -0.0025462555 -0.00081371295
0.009918971 -0.009972263 0.0400518 -0.018046852 -0.0019743943 -0.030389074 -0.019832304 0.0235321
-0.025821272 -0.0050083217 0.011630338 -0.0026867397 -0.037593313 -0.03826841 -0.007373231 0.010784485
-0.0206819 -0.003623314 0.00652884 -0.0045513045 0.031783782 0.0073509165 0.010164109 0.042344347
0.012116503 -0.034558587 0.032206964 -0.00226405 0.036232483 -0.061602242 -0.06203408 0.048564985
-0.013981274 0.01605564 -0.01968063 0.014949703 0.081569895 0.0031018266 -0.019357009 0.005563422
0.04087251 0.011589587 0.011620868 -0.0022032803 -0.01456598 0.035461668 0.06410705 -0.00932571
0.07234029 0.060956758 0.067217916 0.0073066615 -0.015788384 0.025508706 -0.14325757 0.0024595293
0.0020714598 -0.051706247 0.033263065 -0.004198778 0.04544014 -0.07457453 -0.06738121 0.043433696
-0.0063509597 0.034354035 -0.0521585 0.010248896 0.050482646 0.020519169 -0.026000867 -0.010497179
0.041176878 0.016658213 0.006973267 0.018303793 -0.0021820178 0.04077901 0.06380315 0.006378803
0.11625323 0.020193527 0.051679805 0.0375494 -0.035146732 0.03448861 -0.16083458 -0.006294217
0.012467297 -0.038873304 0.033604503 -0.029130416 0.05666462 -0.09230765 -0.06045907 0.04484976
-0.008077112 0.043950297 -0.047804527 0.003260003 0.039488528 0.027627379 -0.031186018 0.009140853
0.04010739 0.016912369 -0.003226271 0.020820644 0.0028685187 0.06729021 0.0509478 0.01811459
0.098252244 0.007656491 0.04922097 0.03885554 -0.049401797 0.045647714 -0.15036444 0.0038274296
0.007985395 0.009744744 0.0116221355 -0.0551161 0.08812282 -0.076532744 -0.049761545 0.05863809
-0.01645843 0.018372264 0.010152533 0.01644368 0.07804135 -0.0039275223 -0.058738206 -0.004155603
0.034358624 0.00017036026 0.015846593 0.029246803 -0.041526396 0.040350508 0.046428394 0.010580374
0.03773834 0.039676365 0.05259977 0.019590916 -0.01871926 0.04763129 -0.15043418 0.042474184
-8.595914e-05 0.04953706 -0.026298326 0.0049810098 0.014914598 -0.00072937965 0.0015274592 -0.0007965109
0.014180913 -0.014616249 0.04822389 -0.022727638 -0.00840446 -0.033776466 -0.025955537 0.029811703
-0.03418369 -0.010217255 0.016286986 0.0025470648 -0.045842715 -0.05870629 -0.0072837602 0.016333705
-0.03384816 -0.009908436 5.7781286e-05 -0.0049601025 0.037776053 0.014888226 0.01486994 0.049046118

embedding.conv1.weight f4 [32, 1, 4, 4]
00000000: 7165 44bd b594 3bbd 6a59 fc3b 469f c43c
00000010: 1212 9dbc f341 11bd c9f7 83bc 3d30 af3c
00000020: b3b5 aebc c727 52bc f8a1 7dbc 4c7d 943b
00000030: 1cf2 9ebc 6eb7 b1bc a7f7 f73b 5813 1d3d
00000040: da68 593b 0b65 5ebb 2d63 c3bb 5f85 0f3d
00000050: 74ff 57bc 38f6 a9bb c418 84bc 5703 4b3c
00000060: ab7a a6bc 51d8 acbc 2603 d13c 81df dbbc
00000070: c31c be3c 6671 083d 29d3 e43b 1ed7 303b
00000080: a7cd 303d cc14 133c ebc1 073d a15f afbb
00000090: f3c6 cd3c be10 2bbd f32f 893a 3a4b d438
000000a0: 2ea2 0d3d c2f4 ca3c f7f5 163d cae2 cb3b
000000b0: c3d4 0a3d a1f7 0fba 81db e7bb 88f3 8bbc
000000c0: 15a1 6a3c 3087 fe3c 35ac 78bc 97f6 bfbb
000000d0: bb7b a9ba f138 a9bb 1e0e 5ebc e340 b2bb
000000e0: a7ba 1b3d 1697 2c3c 49ec 3bbc b52b 9f3c
000000f0: 8215 bf3b 59c7 ba3c 384f 69bb 2aac c53c
00000100: 807e 473c ac00 a03b 35b2 a1bb 1919 223c
00000110: 55b6 883c 012b e13b d92d 493c 4d05 a63c
00000120: 549f fe3a e0d4 c13b 9120 15bb 17ba 92bb
00000130: 5862 943c b221 7a3c aeb6 7d3a 7df2 9abb
00000140: b3dc 24bc b1c0 67bc abd0 493b 3b47 58bd
00000150: 910e 0c3c 51d3 17bb 8671 ed3c 5c9e 23bd
00000160: c342 9939 dd2d 8cbb a221 cdba 91e6 e73b
00000170: 358f ac3b 30aa 23bc 0b87 5fbc 4b21 01bd
00000180: f607 d6bc b96b 98bc 737c 273b e0ea 253d
00000190: 5122 afbc b78a f4bc acc1 5d3b 412d d5bb
000001a0: 1148 4ebc a541 983b 58b8 053c 786c bb3c
000001b0: fdc2 49bd 6b89 4ebc dbdd 13bb 4d25 8a3c
000001c0: ad1c 483d 4bf8 bb3c 3676 4e3c f8e3 aabc
000001d0: 5d2f 5c3b 601c 13bc 98de 00bd 145b 2cbb
000001e0: ca61 e03c 712d 863d e2de 953c 2bd6 8cbc
000001f0: 8258 ea3c 1a3d 1abc 64bf b1bc 9dd0 113b
00000200: 710b 7e3b 7599 90bb f203 b6bc 9fdf 85bc
00000210: 304a 7abc c39f 7abc b495 093a 835e 59bc
00000220: 0b8e 12bc c924 6bbb bec6 15bc a121 76ba
00000230: 21f8 0b3c d0e7 243d 3eb5 f73c b11c cbbc
00000240: 3049 013b 2f39 bc3c a85d dc3c 92c4 4bb9
00000250: a788 b4bb 7b36 e7bb 984b 113a 9757 92bc
00000260: 68a4 4cbc b1f7 063d 77bb c93c f74a d73a
00000270: c8e9 bcba c2fe 923c 750a 753c 42ec ffbc
00000280: 5bc7 80bc 2e76 0dbb e948 febc e581 27bd
00000290: 714d e3bb 06f4 66b8 61ed 3aba bded 013c
000002a0: ade3 a23c d2ec 00bc 0d0e 3abd d7d1 52bc
000002b0: e541 c3bb dbf8 fc3c ff69 02bc f641 fc3b
000002c0: e014 11bd 4bb3 df3c 4ea6 64bc b8c0 fb3c
000002d0: c5a4 76bc 5ab5 c63b f9b0 fd3b 9591 5e3c
000002e0: 5922 c7bc 46ab 253d 8453 5e3c 4bb0 693c
000002f0: c7a4 e5bb a619 1fbc 7f6f 273d 1cb2 843c
00000300: d141 c03b 7594 963b 6783 bfbc 3eea 3a3d
00000310: 1d06 503c d69f 3bbc 1d6b 8639 749f 163c
00000320: 12ea cb3c 488e 833c d4e7 76bc 1e64 df3c
00000330: 9783 33bb 5e48 81bc 48d5 143c 6875 c73c
00000340: d4fa 903c 3d33 6f3d 4ad6 0a3d 1fff eabb
00000350: 5d50 ad3b fcc5 db39 772f 083d f754 b9bc
00000360: ac1e 5a3c 5b2b cd3c a8cc de3c f1d1 80bc
00000370: 2a8b 71bc a859 edbc ea1d e03b e5f1 3cbd
00000380: 5aee 1c3c 632d f8bc 2c3f b8bb b9ef 7ebb
00000390: 59c9 b3bb 911b 53bc 8954 b1bc e8e3 253c
000003a0: c545 323c 20f0 06bb 7320 023b a901 a63b
000003b0: 9717 97bc 7f67 76bc eb2a aabc 4d9f 77bc
000003c0: 0bfc fbbc f769 463c c3c1 39bd fccd 56bb
000003d0: bda8 4cbc a6e0 20bd 9a12 0f3c c0f7 56bc
000003e0: a9ce 0abc 33be 9dbc 5445 78bc c987 08bc
000003f0: fb8d 85bc ec1a 79bc 7bc1 b4bc 1cb0 383c
-0.047948305 -0.045796115 0.0077010887 0.024001729 -0.019173656 -0.035463285 -0.016109364 0.021385306
-0.021326875 -0.0128268665 -0.015480511 0.004531538 -0.019402556 -0.021693911 0.0075673643 0.038348526
0.0033174069 -0.0033934738 -0.0059627504 0.035039302 -0.013183463 -0.0051868223 -0.01612509 0.012390933
-0.020322165 -0.021099241 0.025514197 -0.026839973 0.023207074 0.03331127 0.00698318 0.0026983689
0.043164875 0.008977126 0.03314392 -0.005351976 0.02511928 -0.041764013 0.001046656 0.0001012296
0.034578495 0.024774913 0.036855664 0.0062221037 0.03389431 -0.00054919167 -0.0070757275 -0.017083898
0.0143206315 0.031070322 -0.015177776 -0.005858253 -0.0012930551 -0.0051642586 -0.0135531705 -0.005439864
0.038019802 0.010534069 -0.011469909 0.01943002 0.0058314214 0.022800134 -0.0035600197 0.024129946
0.012176156 0.0048828926 -0.004934574 0.009893679 0.016688505 0.0068715815 0.012278997 0.0202662
0.0019426146 0.0059152693 -0.0022755007 -0.00447775 0.0181133 0.015266823 0.00096784055 -0.004728614
-0.010062384 -0.014145062 0.0030794542 -0.052802306 0.008548395 -0.0023166726 0.028984796 -0.039945945
0.00029232175 -0.0042779283 -0.0015650282 0.007077046 0.005266095 -0.009989306 -0.013643037 -0.03152589
-0.026126843 -0.018606054 0.0025556355 0.040507197 -0.021378668 -0.0298513 0.0033837361 -0.006505639
-0.012590424 0.0046464973 0.008161627 0.02287887 -0.04925822 -0.012606005 -0.0022562656 0.01686349
0.048855472 0.022945544 0.012601426 -0.020860657 0.0033597567 -0.008978933 -0.031462282 -0.0026299404
0.02739038 0.06551636 0.018294755 -0.017191967 0.028606657 -0.009413982 -0.021697707 0.0022249587
0.0038764144 -0.0044128248 -0.022218678 -0.016341982 -0.015276477 -0.015296879 0.0005248443 -0.013267162
-0.0089449985 -0.003588008 -0.009141622 -0.00093891664 0.008543045 0.040260136 0.03023779 -0.024793955
0.001972746 0.022976486 0.026900128 -0.00019432817 -0.0055094543 -0.007056055 0.00055425754 -0.017864032
-0.012490369 0.03295106 0.024625523 0.001642554 -0.0014412934 0.017943744 0.014956106 -0.031240586
-0.01572006 -0.0021585333 -0.031040626 -0.04089536 -0.006936722 -5.5063538e-05 -0.0007130709 0.007930216
0.019883955 -0.007868962 -0.045423556 -0.0128674125 -0.005958783 0.030880382 -0.007959842 0.007698293
-0.0354203 0.027307173 -0.013955666 0.030731544 -0.015053933 0.0060640993 0.007742044 0.013584514
-0.02430837 0.040446542 0.013569716 0.014263223 -0.0070081684 -0.009710705 0.040877815 0.01619821
0.005867221 0.004595334 -0.023378087 0.045633547 0.01269677 -0.011451682 0.00025638277 0.00919329
0.024891887 0.016059056 -0.015069921 0.02726942 -0.0027391666 -0.015781578 0.009084053 0.024347976
0.01769773 0.058398474 0.03389577 -0.007171526 0.005289121 0.00041918445 0.03324839 -0.022623522
0.013312977 0.025045088 0.027197197 -0.015725108 -0.014742652 -0.028973415 0.0068395035 -0.046129126
0.009578312 -0.03029508 -0.005622765 -0.003890021 -0.005486649 -0.01288499 -0.021646755 0.010125138
0.010880892 -0.0020589903 0.0019855767 0.005066116 -0.018443866 -0.015039324 -0.020772418 -0.015113664
-0.030759832 0.012110225 -0.0453508 -0.0032776585 -0.012491402 -0.03927674 0.008732462 -0.013120592
-0.008472123 -0.019255733 -0.015153248 -0.008333155 -0.016303053 -0.015204173 -0.022064915 0.0112724565

embedding.conv1.bias f4 [32]
00000000: 87c3 aebc 4ab7 b8bd 9523 3a3c 97fb 273c
00000010: 4272 713c fd05 5bbc 57b1 79bc 6cde 063d
00000020: b78c afbc cd7a 3a3c 558c 09bd 8f30 bf3c
00000030: 68a9 513b f10d bb3c 07f7 07bc 4828 c53b
00000040: 04db 0b3d 0191 af3b 97cc 3bbd d9cf 7d3c
00000050: 3eae 4e3d da75 913c b627 5a3b a433 c1bb
00000060: 0144 ea3c 03de 9c3c 813d 393c 8615 573c
00000070: 51c5 8fbc 2cad 6cbc 4be1 b8bc ecd5 02bd
-0.02133347 -0.090193346 0.0113610225 0.010252855 0.014736714 -0.013368127 -0.015240035 0.03292696
-0.021429403 0.011381817 -0.033581097 0.023338584 0.0031991843 0.022833796 -0.008298642 0.006016765
0.034144416 0.005357862 -0.04584941 0.015491449 0.05045914 0.017756391 0.003328783 -0.0058960486
0.02859688 0.019148832 0.011306168 0.01312769 -0.017550142 -0.014445584 -0.022568366 -0.031942293

encoder.0.attention.queries.weight f4 [32, 32]
00000000: b65d 2bbd 358d c5bd d49b 8d3c afbb 29bd
00000010: e465 a43d d9c1 babd 4511 42bb 511d b23d
00000020: adfb 94bd 50d9 bb3d c74b 60bd b580 3d3d
00000030: 9898 753d 3bfd 713d 620f 8e3b 1a52 73bd
00000040: b3ee c63d 533c 023d 723f a4bd 0b7f 953c
00000050: c06a ab3d 1ee0 033d 3b3e d33c c151 7dbc
00000060: 1b4e 883d 03f8 893d 82dd bbbc 25d4 9d3c
00000070: 81c6 21bd 9431 0dbb 9a66 ecbb cbd4 72bd
00000080: 5a1d e9bd 3e7e 92bd 59fa 8f3d 9ec0 d5bb
00000090: 959f d73d 7ac8 1dbe 489a 2cbe 8e74 d03d
000000a0: 5f9a fdbd 1459 273d 76b9 0dbe 7149 64bd
000000b0: d02c f23d d7fa 6d3d e03b 00bd f117 d5bd
000000c0: 2aee f63d 9c7d bd3d 50f4 ec3c 3d0b 6b3d
000000d0: 5dc7 ed3d 9219 093d 4a13 9c3d 75a9 bd3b
000000e0: 9318 463e d274 aa3d 0a53 22bd 7c62 d63d
000000f0: 71d8 f5bd 2599 cb3d 5507 58bd 23d0 c2bd
00000100: ff35 ec3d 476a 643d 1ddb 71bd 26e9 ef3b
00000110: b7ed 1cbe d27a 2d3e c61d 5d3e 1589 25be
00000120: c217 f53d dc93 60bd 761c b73d 6255 b83b
00000130: c58c d3bd adb4 a4bd 22df 593d d698 223e
00000140: 410f f7bd cad1 0abe 29ef 02bc decc a9bd
00000150: f310 d8bd 2d1d 92bd 1b83 6cbb 9e4c d83b
00000160: 4bf8 39be bd25 f2bd 345c 463c 70fc c5bd
00000170: 1458 2a3e a422 07be c634 613d 283b e23d
00000180: b487 0abe 51b3 96bd 40c6 813d e80e 0fbd
00000190: 55ea 173e 9090 0abe e29e 35be 745a ef3d
000001a0: 86c6 05be 5468 173c 09d2 f1bd ab6d cbbc
000001b0: 222d 983d 5bb2 ee3d 6ae9 b7bc 35bc 2abe
000001c0: 61f4 053e 3851 df3d d467 7c3b 456a 793d
000001d0: d869 833d a74f 823d 6f54 da3c 5de9 8abd
000001e0: 0adc 363e b409 f63d 0266 86bd be90 c83d
000001f0: c2fe 2ebe 8736 dc3d b178 9ebd ca65 0fbe
00000200: 5c78 c6bd 208d 37bd e805 5c3d 0d77 403c
00000210: 2b5f b53d 8173 e7bd 2cf8 6dbe e1e9 da3d
00000220: 5048 16be c296 ac3d 533b d7bd 24d8 3ebc
00000230: ea27 be3d 1e31 cb3d a0fb 35bd a955 edbd
00000240: a05f ed3d 41de 953d 0754 153d ca26 ad3d
00000250: 6135 f13d 850e 573d 835d 713c ef0d 81bd
00000260: edf2 303e 89c4 f03d be0c 24bd 9f12 003e
00000270: 51fc 3cbe e1f4 ed3d 4b3b 8abc efb3 dfbd
00000280: 6df4 a03d 82b7 d33d 6537 74bd 303e bc3c
00000290: 3d26 aabd 952c 073e a204 153e 8c41 d1bd
000002a0: 1ccb 2a3e 5030 49bd 72ab ff3d 58cf adbc
000002b0: fa0b adbd fca9 bdbd b668 d23c 610f d83d
000002c0: 1702 16be 6a99 bbbd 1b42 1c3d b2df 7bbd
000002d0: 59d7 f6bd 223a 5fbd 25ce e0ba 01bc 273d
000002e0: 5990 1cbe afdd c3bd ecba 903d 67fa cfbd
000002f0: 6203 3c3e 2b26 23bd ddb1 683d 57f5 ee3d
00000300: d888 c6bd a9c1 cfbd 1937 503d 1b53 1c3c
00000310: cd52 003e 6d3a e4bd 8d80 eebd e31d 0f3e
00000320: 3b31 b9bd 1954 01bc d617 a5bd 707b 02bd
00000330: 9a60 cc3d 69fe c83d db00 26bc 4acd bfbd
00000340: a28b 163e 833b e63d b6c2 77bc a370 293d
00000350: 4281 a43d 52d9 7e3d 870d 453c dd6e 28bd
00000360: 13f4 093e 21e0 ba3d b247 14bd c913 623d
00000370: 12d0 09be 93d0 893d 4c89 9bbc c4e6 e8bd
00000380: 0c56 9dbd 1cb1 7dbc c215 693d ead7 d7bc
00000390: 04bb fb3d 4f07 0ebe fade 07be 185e ff3d
000003a0: 3427 08be 0fc7 0b3d 72d4 eebd 7956 96bc
000003b0: 6e10 ac3d d601 993d 8bb1 10bc d94b b5bd
000003c0: 9f3c f83d 7bc1 f53d 2517 cfbc 091f c33c
000003d0: 24a3 e83d a537 a63c c94f a03b 79d4 e7bc
000003e0: a0c3 243e 201a 9c3d 7e0c b4bc 268f eb3d
000003f0: f1c6 11be 1803 ad3d 3289 58bd 1a72 0bbe
-0.041837417 -0.09646074 0.017286219 -0.041438755 0.080272466 -0.09119005 -0.0029612344 0.08696998
-0.07274566 0.091723084 -0.054759767 0.046265323 0.059959978 0.05907939 0.00433533 -0.05940447
0.09713497 0.03179581 -0.08019914 0.018249055 0.0836997 0.032196157 0.02578651 -0.015461386
0.066555224 0.067367576 -0.022932772 0.019266197 -0.03949595 -0.0021544443 -0.0072143795 -0.059284966
-0.113825515 -0.07152985 0.07030172 -0.006523206 0.10528485 -0.15408507 -0.16855729 0.10178481
-0.123829596 0.040856436 -0.13840279 -0.0557341 0.118249536 0.058100548 -0.0313071 -0.10404957
0.12057145 0.09252474 0.028925091 0.057383765 0.11610291 0.03347165 0.076208666 0.005788023
0.19345312 0.08323063 -0.039629973 0.10468003 -0.120041735 0.099413194 -0.052741367 -0.09512355
0.115337364 0.055765416 -0.059046853 0.0073214946 -0.15325056 0.16941383 0.21593389 -0.16165574
0.11967422 -0.05482851 0.08940975 0.005625413 -0.10329584 -0.08042274 0.05319131 0.15878615
-0.12063456 -0.1355659 -0.007991591 -0.082910284 -0.10550108 -0.07134471 -0.0036088887 0.0066009304
-0.18161123 -0.11823604 0.012106944 -0.09667289 0.16635162 -0.13196808 0.05498197 0.110464394
-0.13528329 -0.07358421 0.06336641 -0.034926325 0.14835484 -0.13531709 -0.1773639 0.116871744
-0.13064012 0.009241182 -0.11807639 -0.024832567 0.074304834 0.11655112 -0.022450168 -0.16673358
0.13081504 0.10904163 0.0038514035 0.060892362 0.064166725 0.06362849 0.02665159 -0.06782792
0.17857376 0.120135695 -0.06562425 0.097932324 -0.1708937 0.10752588 -0.07737864 -0.14003673
-0.096909255 -0.04481232 0.05371657 0.011747134 0.088560425 -0.113013275 -0.23239201 0.1068914
-0.14676023 0.08427192 -0.10509362 -0.011648212 0.09284957 0.09921478 -0.04442942 -0.11588604
0.11590505 0.07317782 0.036457088 0.08454664 0.11777759 0.05250408 0.014731768 -0.06301486
0.17280169 0.11756236 -0.040051214 0.12507103 -0.18455626 0.116189726 -0.016873976 -0.109229915
0.078591205 0.10337736 -0.05962314 0.022978872 -0.083080746 0.132006 0.14552549 -0.1021758
0.16679043 -0.04911834 0.124838725 -0.021217033 -0.0844955 -0.092609376 0.025684696 0.10549808
-0.14649235 -0.09160121 0.03814898 -0.06149263 -0.12052793 -0.0544988 -0.001715128 0.04095078
-0.1528944 -0.09563767 0.070669025 -0.10155182 0.18360665 -0.03983132 0.05681025 0.116678886
-0.096940696 -0.101443596 0.050833795 0.009541298 0.12531586 -0.11143956 -0.11645613 0.13976245
-0.09042593 -0.007893586 -0.08061187 -0.031856 0.09979363 0.0981415 -0.01013204 -0.09365328
0.14701703 0.1124182 -0.015122106 0.041367184 0.080324665 0.06221897 0.012027151 -0.041121352
0.13472013 0.091247804 -0.036201186 0.05519465 -0.13458279 0.067292355 -0.018986367 -0.1137214
-0.07682428 -0.015484121 0.056905515 -0.026348073 0.1229153 -0.13869976 -0.13268653 0.12469119
-0.13296205 0.034125384 -0.116616145 -0.01835178 0.08401571 0.07471053 -0.008831392 -0.088523574
0.121209376 0.11999794 -0.02527959 0.02381851 0.113592416 0.020290205 0.0048923236 -0.028299557
0.1609025 0.076221704 -0.021978613 0.11501913 -0.14236046 0.08447856 -0.052865215 -0.13617745

encoder.0.attention.queries.bias f4 [32]
00000000: ed65 8f3d 3207 093e cfc3 07be 350d 0c3e
00000010: 1343 083e 5520 edbd 2dbf ee3d fd7b 013e
00000020: 72e2 d7bd 216f d7bd a1e6 e33d e661 d1bd
00000030: a894 cbbd a9d7 d33d 208b dbbb 9796 12bc
00000040: 4b7a a4bd 6992 b8bd 4188 913d 55d5 a1bd
00000050: 2f13 5c3d 29c1 bbbd ac66 a3bd 9536 babd
00000060: 9dda 34bd d801 dc3c 83de 7cbc 2ace e4bc
00000070: d987 f03c ffc4 13bd 7cc6 4c3d 4d99 0a3d
0.07001863 0.13381651 -0.13258289 0.13676913 0.13306837 -0.115784325 0.11657558 0.12644954
-0.10541238 -0.10519243 0.11127973 -0.10223751 -0.09940463 0.10343868 -0.0066999346 -0.008947036
-0.08031138 -0.090123005 0.071060665 -0.07902018 0.053729232 -0.09167702 -0.079785675 -0.09092442
-0.0441538 0.026856348 -0.01543391 -0.027930338 0.029361652 -0.036076542 0.049993977 0.033837605

encoder.0.attention.keys.weight f4 [32, 32]
00000000: aa6a c1bd b99c 10be 09ab c83d 23bd fc3d
00000010: 7f4e c73d 65fc 98bd 20f2 a9bd 5581 a53d
00000020: ec3d 0cbd 1f10 e73c 8010 8bbd 609d 583d
00000030: c802 ec3c 812b 5d3d 5078 acbd 88b0 a6bd
00000040: c92d bf3d 7e78 733c 9e03 d0bc e536 bd3d
00000050: 4e98 c03c 5dc7 c23d 7ef8 8abd 3a04 22bd
00000060: 80b3 043e 580b a53d 028a 1e3d abda fc3d
00000070: 66bc 45bc bc2d 3bbc 23a4 493d 462c 1b39
00000080: 8909 23bd b056 01be 1889 d53d f6f8 263e
00000090: fd54 cb3d 6ee9 00be d537 e3bd b451 c53d
000000a0: ee31 c7bc 00ad 673c cce6 58bd a2df c83d
000000b0: 2525 6a3d 19c3 f4bc 5ba0 0abe 5766 79bd
000000c0: d92e c13d a256 133b 7648 2ebc 386d 023e
000000d0: 279a d63b 415f 123e 7fbe 64bd 8adc 05bd
000000e0: 497d 693e fb22 923d 9cdb 9f3d 203d 1e3e
000000f0: 32db e5ba f830 963d 6f9c b93d e806 373d
00000100: c94a b73d 57bb e53d a208 fcbd 380b 04be
00000110: 55c7 d6bd 1957 073e 7d81 fe3d d6ad a7bd
00000120: cf59 bd3c 49c4 153c 74d3 fe3c 1047 d4bd
00000130: 784a c0bb 027a 4d3d e923 ce3d e642 263d
00000140: 23d8 97bd 6633 f93c 055c c3bb e57a 0cbe
00000150: a0b3 34bc 30ca 06be f6ea 993d 3e3e 243d
00000160: d2c3 6dbe 6581 51bd 1bad 82bd 1c14 24be
00000170: 2e19 293d 1990 2cbd d1da 36bd f0bb 01bd
00000180: ad3a 83bd c149 86bd ffd0 e43d caa0 223e
00000190: 9239 ec3d 7b1b 20be 3c7a a9bd 1fc9 e03d
000001a0: c7df 0abd 1efb 3c3c 1f8f a7bd 8197 e43d
000001b0: d3b9 6a3d 07bc 31bd 0565 04be de71 59bd
000001c0: 9828 973d d4a7 ecb7 7f3f b3bb c467 153e
000001d0: 4011 3e3c c2d6 023e a36b a5bd f020 bcbc
000001e0: 2c32 803e 3dfe 903d 5d18 853d 9cca 303e
000001f0: a889 c4bc 4574 383d 763b 823d 555c f83c
00000200: 0f72 afbd 8ca4 c3bd 27a8 b73d 3177 fd3d
00000210: 3bf9 d23d dc3f 07be 366c 20be 5d63 b93d
00000220: 7f8c 833b 5eaa d03b 1083 bdbd 0e35 f83d
00000230: f16a 823d e3d8 34bd 517a 1ebe 523a 7fbd
00000240: 2740 a13d 101b d43c 32e5 93ba 2803 113e
00000250: 9c61 f4bc d737 013e 02db f2bd 4dec 40bc
00000260: 1877 593e 48c8 983d 7cbd bf3d 7a76 283e
00000270: 530e 003d 9c53 523d 5ad9 8d3d e901 903d
00000280: c759 b63d e171 fe3d cdec ffbd 2381 32be
00000290: 5c35 d3bd 503c ec3d 3acd d33d a899 9dbd
000002a0: 96f6 a43c 8939 5e3c 0d3a a63d 9095 bdbd
000002b0: 6a72 30bd b5f3 e83c 134a 273e bd8d 593d
000002c0: 8868 c0bd bc8c 80bb 12ac 913b f635 f9bd
000002d0: 9700 8bbc 3e9f 16be 59f4 f13d a3d0 193c
000002e0: 8605 4abe 41c8 96bd 3638 82bd ffd4 27be
000002f0: b6d6 373d f5eb 973c c83c b6bd 91dd 6cbc
00000300: 499e 77bd da7b ccbd 9b76 fd3d 354c 503e
00000310: bf86 f13d f234 01be 5756 e7bd 4dd5 ad3d
00000320: f952 69ba e6c0 ad3c f533 9ebd c8c7 673d
00000330: cad4 873c f343 39bc 66e6 12be 69de 0bbd
00000340: 758b 903d c2b9 ec3c 47cd cdbb 820d 033e
00000350: 1882 b43c 1521 f73d 82e2 8abd 6fbd d2bb
00000360: 5819 933e 1555 853d 7076 e63d 0730 ef3d
00000370: 307a 0dbd ea59 bbba 2ef1 ca3d 49fb 1f3c
00000380: 34af 51bd 0772 eabd 920e e43d 92ab 043e
00000390: b42a 0a3e bf24 eabd 6f92 02be b70d 033e
000003a0: d1a5 c7bc 3eb5 69bb c666 d1bc 546e b73d
000003b0: b08a 093d 1145 25bc cb1c 11be a3f1 a0bd
000003c0: 36fc 253d df6f a63c 8539 21bd c820 0d3e
000003d0: 17c3 d53b 54b2 e13d dc52 d9bd 001f c1bc
000003e0: 113c 6f3e d5d8 803d e090 f53d 2093 193e
000003f0: 4d08 d63c 4c13 983d 3f72 7a3d 766d 013d
-0.09444173 -0.14122285 0.09798247 0.123407625 0.09731769 -0.074700154 -0.08298135 0.08081309
-0.03423874 0.02820593 -0.067902565 0.05288446 0.02880992 0.053996567 -0.08421385 -0.081391394
0.09334905 0.014860271 -0.02539235 0.09238986 0.023510125 0.09510682 -0.067856774 -0.039554812
0.12959099 0.08058804 0.038705833 0.12346395 -0.0120688435 -0.011424478 0.0492288 0.00014798445
-0.039804015 -0.12630725 0.10426539 0.16305909 0.099283196 -0.12589046 -0.110946335 0.09634724
-0.0243158 0.0141403675 -0.05295448 0.098082796 0.05716433 -0.029878186 -0.13537733 -0.060888615
0.094327636 0.0022482057 -0.010637393 0.12736976 0.006549138 0.14294149 -0.055845734 -0.032681026
0.22801699 0.07135578 0.07805559 0.15453005 -0.0017536639 0.07333559 0.090630405 0.04468432
0.08949811 0.11217373 -0.12306334 -0.12894905 -0.10487238 0.13216819 0.12427042 -0.081874534
0.023114113 0.009141036 0.031106688 -0.103651166 -0.0058682524 0.050165184 0.10065443 0.040591143
-0.07414272 0.030420016 -0.0059618973 -0.13718756 -0.011029154 -0.13163066 0.07515518 0.04009842
-0.23219231 -0.05114879 -0.063806735 -0.16023296 0.04128378 -0.04212961 -0.044642273 -0.03167337
-0.06407676 -0.06557036 0.11172675 0.15881649 0.11534418 -0.15635483 -0.082752675 0.10975861
-0.033904817 0.01153448 -0.08181595 0.111617096 0.057306122 -0.043392207 -0.12929161 -0.053087108
0.073807895 -2.8211543e-05 -0.005470216 0.14590365 0.011600792 0.12777236 -0.08077171 -0.022964925
0.25038278 0.07079742 0.064987876 0.1726479 -0.02399142 0.04503276 0.063589975 0.030317465
-0.08566677 -0.09552869 0.089676194 0.123762496 0.10301443 -0.13207954 -0.15666279 0.09052155
0.004014551 0.0063679656 -0.09253514 0.121194944 0.06368054 -0.04415215 -0.15476348 -0.062311478
0.07873564 0.02589181 -0.0011283515 0.1416136 -0.0298317 0.12618957 -0.11858179 -0.0117750885
0.21236837 0.074600756 0.09362313 0.16451445 0.03126366 0.051349267 0.06926222 0.07031614
0.089038424 0.124240644 -0.12496338 -0.17432074 -0.10312912 0.11534941 0.10341878 -0.07695323
0.020137113 0.013563522 0.08116541 -0.092570424 -0.043077864 0.028436521 0.16336851 0.053113688
-0.09394938 -0.003923027 0.004445561 -0.12168495 -0.016968055 -0.14709184 0.11814184 0.009388122
-0.1972867 -0.07362414 -0.06358378 -0.16389845 0.0448825 0.01854513 -0.08898312 -0.014457122
-0.060453687 -0.0998456 0.12376138 0.2034157 0.11793279 -0.12617853 -0.11295765 0.084879495
-0.00089006085 0.021210145 -0.07724754 0.05658701 0.016580958 -0.011307704 -0.14345703 -0.034147654
0.07057849 0.02889717 -0.0062805745 0.12798122 0.02203469 0.12066857 -0.06781484 -0.0064312737
0.28730273 0.06510369 0.11253059 0.11679082 -0.034540355 -0.0014293764 0.099092826 0.009764501
-0.051192477 -0.1144753 0.111355916 0.12956074 0.13492852 -0.1143279 -0.12751172 0.127982
-0.02437106 -0.0035661007 -0.025561702 0.0895659 0.03357953 -0.0100872675 -0.1417114 -0.078585885
0.04052373 0.020317016 -0.039361496 0.13782036 0.0065235007 0.110203415 -0.10611507 -0.023574352
0.23362757 0.062913574 0.11990523 0.1499753 0.026127005 0.074255556 0.06114411 0.03159853

encoder.0.attention.keys.bias f4 [32]
00000000: 5f3c cdb8 8c32 16b8 b589 9db7 a52e dcb8
00000010: 012a 5338 7465 0438 176a 12b9 787b 0f37
00000020: 2bb7 45b9 0988 1c38 db1b d1b8 ce2e b3b8
00000030: aeec 06b7 dd36 ab36 258e ddb8 2009 cd36
00000040: d340 8438 170f 0039 2f08 29b8 0435 7f38
00000050: b017 ffb7 1b3d f4b7 f885 be37 b9c1 e2b7
00000060: fe7b 7db9 a3c6 303a b291 34b9 459c c3b9
00000070: c3bd 9139 5b0d aab8 7edc 8d39 099b 9238
-9.786407e-05 -3.5809862e-05 -1.8779983e-05 -0.00010499106 5.034544e-05 3.1565738e-05 -0.00013963167 8.5522115e-06
-0.0001885562 3.731999e-05 -9.971085e-05 -8.544103e-05 -8.042129e-06 5.102584e-06 -0.00010564578 6.1105384e-06
6.306325e-05 0.00012212653 -4.030036e-05 6.0846112e-05 -3.04094e-05 -2.9115521e-05 2.2712149e-05 -2.7031509e-05
-0.00024174151 0.00067434664 -0.00017220413 -0.00037309728 0.0002779794 -8.108719e-05 0.00027057895 6.9907e-05

encoder.0.attention.values.weight f4 [32, 32]
00000000: ef18 41bb c069 b8bc 8f68 3f3c cabf 25bc
00000010: 1d35 953c a22e 78bb 6701 6d3c 4f4b af3b
00000020: 734e f43c ff7f e0bc a761 85bd 800e 43bd
00000030: 4fb6 2dbc 4bb9 5c3d 1e95 85bc 81c5 fb3b
00000040: 965e 843c 96ec 1cbd 1d42 cc3c 76b8 81bc
00000050: 6bc5 36bc a33b c93c d983 3f3c 1fc2 1cbc
00000060: 69b0 903d ce0c a3bc 6709 c6ba a084 eb3b
00000070: 9a86 8f3c ee92 67b9 e143 6b3b 3f7b 103d
00000080: c800 073d b96c 8e3c 5e3e 813b 5de6 e0bb
00000090: dfa0 813b 3d82 913b 4662 cfbc 03da 75bc
000000a0: 634e 7b3b 6cb1 3d3c 0b2f b2bd 8453 843c
000000b0: 4775 073d df93 843d fd79 863c 9ac7 fd3b
000000c0: def8 443d 68fb 9dbc bb1e c1bd b67c 943c
000000d0: a18d 863c dfe2 4ebb 4adc 663c 4957 97bc
000000e0: 905b 33bd 3fc0 20bb 7fa8 22bd 73c1 d1bc
000000f0: f4c4 9fbc 3dc0 18bd 4d97 b9ba e399 323b
00000100: f039 dc3c e6a4 f43c f44c 733c 2780 67bd
00000110: 0373 e2bc 58b2 e63c dafb b03c ac0a 643a
00000120: dbf5 fd3c 4d95 153c c232 273d 7b42 38bd
00000130: 3989 6d3c fcd0 9f3d fa8f 713c 809e 6ebc
00000140: 04e6 9dbc 0143 723d 7184 663b 611b d1bc
00000150: 49a9 0a3d 20a0 86bb 4f15 ca3c 0e8b ce3c
00000160: 07f9 2abe f64b 22bc e751 80bc 096d 60bc
00000170: 7a80 d73c eafa 9fbd 8426 a43c 59c1 cdbc
00000180: b86c a23c 91f3 e3bc b441 fcbc 1f38 6d3c
00000190: 0e9b 83bc 5318 413d 3523 a73c f7d5 9fbc
000001a0: 2f6f 22bc 325f c53c 241b e7bc 0551 35bc
000001b0: 0f2b 01bd 0afe 893d 9fdc d0bc e97d 553c
000001c0: 4592 b2bc 8b9b b53c 4886 96bd 04fb 10bd
000001d0: c5a1 ca3b 66ae 3439 b05f 313c f549 0ebc
000001e0: 586d 4ebc e8c8 d5bc f9c9 583c c850 91bc
000001f0: fd03 58bd 03a9 f33c 05f5 47bd cb6b 453c
00000200: 10d0 313d 1281 f2bc ce71 a23c bcf2 e03b
00000210: 7b98 983c 84d9 47bc 25b4 be3b 1ff7 2a3d
00000220: a546 273c 9012 efbc a5fc f23c 67eb ebbc
00000230: 51f0 6d3c 0c1e 12bd b50b 6b3c fa9e e2bb
00000240: 0481 debc 93f6 84bc 1cbf 023e f655 2cba
00000250: fb1a 12bd b63c 57bc a7ab 6cbc ff50 153d
00000260: d0c5 6c3d 345b ab3c c0ab 36bc f448 1e3c
00000270: aadd 263d 2c6a 2c3b 0f7e 9c3c d4df 563c
00000280: d476 cdbc 7e1e ce3b b6bf 7dba bb2a e0bb
00000290: 5881 f93a 8cda 83bc d1a8 24bb 8e53 763a
000002a0: 87a3 56bd 22c4 fa3b 544d 93bd 93ed b1bc
000002b0: c375 3a3c f3ea 7c3d 027b b3bb 4ba4 5ebd
000002c0: 4186 3b3d c2ad 943b 66be cebd 5c32 893c
000002d0: a7e6 133d c0bc 7f3c ce33 983c c9bc 1bbd
000002e0: fadd dbbc 80c0 923c 505f c13c 50ae 153a
000002f0: 6827 30bd 5180 3ebc abb7 743d ffd8 253b
00000300: 091c 6fbd 546e fd3c 8c4c 423d b086 8f3c
00000310: cf81 4b3d d3ad d9bb 32eb 30bd 49a6 2b3d
00000320: aa34 3dbd bbed 313d b9f9 dbbb 6838 8f3c
00000330: 840e 3c3d 616d 5d3d f103 2ebd 5635 84bc
00000340: 533a bd3c 92eb 943c b94d 8b3d 7233 8c3c
00000350: c09d b2bc f46d b03b e011 633c 2b24 eebc
00000360: 979b 053d bdb4 463d 3232 ce3b 520f 593d
00000370: a426 7f3b 5a43 6a3c d5ab 5f3b 58ba c4b9
00000380: 65c6 04bc 56d6 acbb 3c15 243d d396 8cbb
00000390: 94d8 753c ed4e 35bc 6852 e63b 5b07 573d
000003a0: fd7c 2f3c c89d babc 0a53 7b3d 12f7 293b
000003b0: 6768 153d b949 67bd 33a7 e1bb 4de6 33bc
000003c0: eaca 003c e4e8 f6bb 4eda a43d 14e1 1b3d
000003d0: c225 2dbd ffc8 e3bc 8e3a afbb 34a2 00bd
000003e0: f546 9c3c e5e0 a03c fc7a dc3a 555f c8bc
000003f0: c121 553d c4e0 543c 7249 8a3b 0e9f ff3c
-0.0029464324 -0.022511363 0.011682644 -0.010116527 0.018213803 -0.0037869592 0.014465666 0.0053495537
0.029822564 -0.027404783 -0.06512766 -0.04762125 -0.010602548 0.053887647 -0.016306456 0.0076834564
0.016158383 -0.038311563 0.024933869 -0.015835028 -0.011155467 0.02456457 0.01168915 -0.009567766
0.070648976 -0.019903567 -0.0015109003 0.007187441 0.017520238 -0.00022084612 0.0035898613 0.035273787
0.03295973 0.017385827 0.0039442023 -0.006863399 0.003955945 0.0044405744 -0.025315415 -0.015005591
0.0038346283 0.011577945 -0.08700379 0.016153105 0.03307083 0.06473517 0.01641559 0.0077447416
0.0480889 -0.019284919 -0.094296895 0.018125873 0.016424956 -0.0031568331 0.014090607 -0.018474238
-0.043788493 -0.002452865 -0.03971147 -0.02560494 -0.019503094 -0.037292708 -0.0014159471 0.0027252368
0.026883096 0.029863786 0.01484989 -0.0565187 -0.027642732 0.028161213 0.021604467 0.00086991
0.031001022 0.009129834 0.04081989 -0.044985276 0.014498048 0.078035325 0.014743799 -0.0145641565
-0.019274719 0.05914593 0.0035174156 -0.02552575 0.03385285 -0.004108444 0.024668364 0.02521279
-0.16696559 -0.009905806 -0.015664054 -0.013697871 0.02630638 -0.0781153 0.020037897 -0.02511661
0.019827232 -0.027826102 -0.030793048 0.014478712 -0.016065147 0.047142338 0.02040253 -0.019511206
-0.009914204 0.024093244 -0.028211184 -0.01106668 -0.031535204 0.06737907 -0.025495825 0.013030508
-0.021798262 0.022168895 -0.07349831 -0.035395637 0.006183835 0.00017231106 0.010826036 -0.008684625
-0.012599312 -0.026096776 0.013231748 -0.017738715 -0.05273818 0.029743677 -0.048817653 0.012049626
0.043411314 -0.029602561 0.019829657 0.0068648737 0.018627396 -0.012197856 0.0058198147 0.04173958
0.010209714 -0.029183656 0.029661486 -0.028798772 0.014522628 -0.035673186 0.014346053 -0.006915924
-0.027161129 -0.016230857 0.12768215 -0.00065740885 -0.03567026 -0.013137033 -0.014445222 0.036454197
0.057805836 0.020917512 -0.011149347 0.009660948 0.04073874 0.00263084 0.019103078 0.013114888
-0.025081076 0.006290256 -0.0009679751 -0.0068410314 0.001903574 -0.016095422 -0.0025125036 0.0009396606
-0.052402046 0.0076527754 -0.071924835 -0.02171973 0.011380616 0.061747503 -0.00547731 -0.0543559
0.04578233 0.004537315 -0.10094909 0.016747646 0.03610864 0.015608966 0.01857939 -0.038021836
-0.026839245 0.017914057 0.023605019 0.00057098735 -0.04300633 -0.011627273 0.059745472 0.0025306342
-0.058376346 0.030936398 0.047436282 0.017520279 0.049684342 -0.006643036 -0.04319305 0.04190663
-0.046192802 0.043439608 -0.006713119 0.017482951 0.04591228 0.05405939 -0.042484228 -0.016138714
0.0230991 0.018178735 0.06801934 0.017114375 -0.021803737 0.005384201 0.013859242 -0.02906998
0.032619085 0.04851221 0.006292605 0.052993126 0.0038932944 0.014298284 0.003412952 -0.0003752287
-0.008103942 -0.0052745743 0.040059313 -0.0042904406 0.0150052495 -0.011066181 0.0070288666 0.05249725
0.010710952 -0.022780314 0.06135849 0.002593462 0.03647652 -0.05646679 -0.006886387 -0.010980201
0.0078608785 -0.007535087 0.08049451 0.038056448 -0.042272337 -0.027805803 -0.0053475564 -0.03140469
0.019076804 0.019638488 0.001682132 -0.02445952 0.052034143 0.012993041 0.004220181 0.031203773

encoder.0.attention.values.bias f4 [32]
00000000: dfdb cebb 1132 87bc 8fdd 90bb 6a26 98ba
00000010: 0791 b93b 10a7 8abc 60e7 52bc af63 dd3b
00000020: c8bc b0bb 561c 35bc 8ce8 8bbc f73c 13bc
00000030: a81c 9b3b 10d2 aa3b efc1 b5bb 208a a0bc
00000040: 81b6 f43b cb99 173c f06f 2d3c 2bd7 4d3c
00000050: 8bb3 453c 2b49 e4ba da98 b63c 6041 103c
00000060: 95fc d83c 8c9c 6aba 7f98 f5bb 92fc 043d
00000070: 8adf 52bc c6bd c63c 7fbd f5bb aa5a 9ebc
-0.006312832 -0.016503366 -0.004420943 -0.0011608128 0.0056630406 -0.016925365 -0.012872547 0.006756268
-0.005393598 -0.011054119 -0.01707866 -0.008986703 0.0047336407 0.0052130297 -0.0055468003 -0.019597113
0.007468045 0.009252976 0.01058577 0.012563507 0.012066732 -0.0017416825 0.022289682 0.008804649
0.026487628 -0.0008949719 -0.0074949856 0.032467432 -0.012870679 0.024260413 -0.0074993963 -0.019330341

encoder.0.attention.fc.weight f4 [32, 32]
00000000: 493c c2bc f7fe d03c 3471 a6bc bd79 b63b
00000010: f0c4 133c c212 1cbb 4396 8b3c 8714 1b3b
00000020: a279 8cbc 065d c23c 2a20 27bc 5385 29bc
00000030: 3883 663b 6ebb b53c ad3d 1ebb cf13 823c
00000040: 1764 a73b eb78 d0bb e7b8 bebc a004 13bd
00000050: 3d76 fe3b a51a 19bb 9331 77bc 6a7c 73bc
00000060: 2072 f8bb 03c7 6ebc 00ba 333c 7ae5 903a
00000070: 1215 d5bc 13ab ffbb c2b4 34bd d06e 94bc
00000080: 5752 48bc 1945 083c aa8e 3a3d 07b5 eebc
00000090: dcb7 043d bbbd 32bc 5045 bfbb ee72 1bbc
000000a0: ed4a 8cbb 2e33 4bbc 6113 cabb 1c95 d0bb
000000b0: d286 bebc c548 0dbb 1565 85ba d6e4 a23a
000000c0: 766c 0f3b ef18 293a 98ef 97bc ca1c 12ba
000000d0: a548 5f3c 2d57 993c cf19 5cbc 67a8 913c
000000e0: 862d 623c a13c 2bbd 65fd c13b ae4e 5cbc
000000f0: 27cc 683c 29b9 e6bc d418 1dbb fce3 c9bc
00000100: 0f51 2d3c 8645 203c 6044 0cbb f78c 113d
00000110: 4611 aa3c 94eb eebc 2f8d ab3c 8124 15bd
00000120: c9b2 053c 6f6a eebc d77c af3c 16da 0f3b
00000130: 471a 083d 74a0 113c d996 1ebc 3427 303d
00000140: 4bcc 323b 611d 7c3b bb8b 443c 4b63 4dbc
00000150: 2bb2 5abc f06a 5b3c b101 07bc 3922 a1bc
00000160: b285 d3bc ab9d 513c 59a1 ad3c 5345 753b
00000170: e60f 03bc 020f 8a3b 2cc9 a3b9 1e80 9b3c
00000180: de9d e83c ed3e bd3b 1422 80bd 750b b83c
00000190: 5d33 0abc e4e3 cdbb 8979 f9bc 8606 c0bc
000001a0: cef9 7a3b 922f e739 90a8 703c d8e6 32bd
000001b0: 2020 233c b830 ecbc 6fe5 d9bc fe36 ae3b
000001c0: dc23 1ebc c12b 0fb9 939d 653c e8c6 93bc
000001d0: 0fb6 053d cf0a 7fbc 66e9 d13c 1bb6 9bbb
000001e0: 372a d8ba 9ee2 a4b9 954d 37bb 27b0 e9bc
000001f0: 4dea a6bc d292 a8bc 3d4b 85bb 44a2 86bb
00000200: d8cb c7bc b91b 1d3c 6068 ac3c 542b 8bbb
00000210: 6261 1c3b 40ff b038 c14f 5b3c 2b78 8dbc
00000220: 2d02 a43c 8a6d d43b d3e8 403d 0abf 373c
00000230: 2781 ed3c aed2 173d 7cf3 f33c 8f68 a8bc
00000240: b89a ba3b 4e14 b53b 74df e63a e0a3 8fbb
00000250: 28fa 05bd 65bb 243d d811 cebc 06cd 603c
00000260: d9f7 56bc c97c 06bd d578 4cbc d450 0c3c
00000270: f4db 49bd c4cf cc3b e010 cdbb 9c99 593c
00000280: 29ea c1bc aee4 e93c 99fe 853b b0a1 74bc
00000290: afb6 093d 7250 a8bb 2e0a e83b b2ed fcba
000002a0: de43 713c 37ff 043d d2a8 e13c 1320 2b3d
000002b0: becf a83c a21e e23c 6b3c 8abc ef77 643c
000002c0: af26 373c 58aa d7bb ff50 0ebb a548 a93c
000002d0: d008 423d 3055 df3b 9297 bcbb 8de6 35bc
000002e0: 10ba b63c 21fa 40bc d479 56bc 3436 573a
000002f0: b9e1 fe3b 2311 153c c44a 39bd 4dfa 10bd
00000300: 9d62 a83c eac4 2ebb 0b71 0fbd a1b9 6ebc
00000310: e2ef 893c 6418 b3bc 9d77 d6bc b74f c23c
00000320: 26ce 5c3b f7b2 233d 5b88 5fbc 4985 bbbc
00000330: e0bc b73c c247 cabc 4ffe 2a3d 7e90 763b
00000340: 321f 563c 5ce4 2cbd f382 a9bc b1fb 993c
00000350: 3999 aa3c 8d3c 17bc 1288 01bd c7f9 563a
00000360: aeee b23a b32a 2bbc 35a8 3dbd 0192 103b
00000370: fe9f 5a3d 1051 6ebb 3927 923c 0ae3 323c
00000380: 7cd0 803a 6026 f9bb 1dae 283c 01d9 dd3a
00000390: 9976 a33c 9b69 7cbc 977b 283d a525 bcbc
000003a0: c04e 21bb 8a1f 253d 6b07 1ebc 8e34 b93c
000003b0: 5ed0 5b3c e471 503c 06bf 73bc 64ca 23bd
000003c0: e69c 87bc def3 783c c655 8ebb 58fd b6bc
000003d0: 5eb9 6a3c 6673 773c 2048 403c 2671 2fbc
000003e0: ca1c 24bd 7d6d c93c b5c7 ecbc 07b7 18bb
000003f0: 0d49 1dbd 19bf 3e3c 6e22 fc3c 6001 72bc
-0.023710387 0.025512202 -0.020317651 0.0055687116 0.0090191215 -0.0023814891 0.017039424 0.0023663358
-0.017147843 0.023725998 -0.01020054 -0.010346728 0.0035173427 0.0221841 -0.0024145648 0.015878586
0.005108367 -0.006362071 -0.023281528 -0.035893083 0.00776556 -0.0023361829 -0.015087503 -0.014861206
-0.007581964 -0.014573815 0.010969639 0.0011054717 -0.026011024 -0.007802376 -0.044117697 -0.018119246
-0.012226663 0.008317255 0.04554621 -0.029139055 0.032401904 -0.010909493 -0.00583712 -0.009487851
-0.004281393 -0.012402339 -0.006166861 -0.0063654315 -0.023257647 -0.0021558267 -0.001017722 0.0012427818
0.0021884716 0.0006450554 -0.018546864 -0.0005573748 0.01362816 0.018718326 -0.013433888 0.017780496
0.013804799 -0.041805867 0.0059200996 -0.013446493 0.01420883 -0.028164463 -0.0023971098 -0.024644844
0.010578408 0.009782201 -0.002140306 0.035534825 0.02076019 -0.029165067 0.020941345 -0.036411766
0.0081603015 -0.029103486 0.021421833 0.0021950058 0.033228185 0.008888353 -0.00967952 0.043006137
0.0027282413 0.003846966 0.011996205 -0.01253588 -0.013348143 0.013392195 -0.008240149 -0.019669639
-0.025820587 0.012793939 0.0211951 0.0037425354 -0.007999396 0.004213215 -0.00031239667 0.01898199
0.02839559 0.0057753236 -0.062565 0.0224664 -0.0084350975 -0.00628327 -0.03045346 -0.02344061
0.0038295868 0.00044095196 0.014688626 -0.04367718 0.00995639 -0.028831825 -0.02659866 0.005316614
-0.009652104 -0.00013653842 0.014014619 -0.018039182 0.032644328 -0.015566542 0.025623988 -0.0047519333
-0.0016492073 -0.0003144936 -0.0027969826 -0.028526379 -0.020375395 -0.020577822 -0.004067807 -0.004108699
-0.024389192 0.009589129 0.021045864 -0.0042471085 0.0023861756 8.439878e-05 0.013385714 -0.017269215
0.020020569 0.0064827846 0.04709704 0.011214981 0.028992249 0.037066154 0.029779188 -0.02055767
0.0056947134 0.005526102 0.0017614202 -0.004383549 -0.03270927 0.040217776 -0.025154993 0.013720756
-0.013120615 -0.03283385 -0.0124799805 0.008564193 -0.04928203 0.0062503535 -0.006258115 0.013281252
-0.023671227 0.028551426 0.0040891883 -0.014931127 0.033621486 -0.005136543 0.0070812916 -0.0019296913
0.014725653 0.032469954 0.02754632 0.041778635 0.020606872 0.027602497 -0.016874513 0.01394461
0.0111786565 -0.006581586 -0.0021715758 0.020664522 0.047371686 0.006815575 -0.0057553733 -0.011102331
0.022305518 -0.011778385 -0.0130905695 0.0008209676 0.007778373 0.009098324 -0.045237318 -0.035394955
0.020554835 -0.0026667663 -0.035019916 -0.014570625 0.016838018 -0.021862216 -0.026180083 0.023719652
0.003369221 0.039965596 -0.0136433495 -0.022890704 0.02242893 -0.02469242 0.041746434 0.0037622745
0.013068961 -0.042209968 -0.020692324 0.018796774 0.020825015 -0.009230745 -0.031623907 0.0008200672
0.0013651454 -0.010447192 -0.046302993 0.0022059681 0.053375237 -0.0036364235 0.017840968 0.010918388
0.0009827758 -0.0076034516 0.010295418 0.0016925634 0.019954013 -0.015406038 0.04113349 -0.022967169
-0.002461359 0.04031328 -0.009645323 0.022608068 0.013416378 0.012722466 -0.0148770865 -0.039987937
-0.016554307 0.015194861 -0.004343721 -0.0223376 0.014326422 0.015103197 0.011735946 -0.010708129
-0.040066518 0.02458834 -0.028903821 -0.0023302452 -0.038399745 0.011642241 0.030778136 -0.014770836

encoder.0.attention.fc.bias f4 [32]
00000000: 0000 0000 0000 0000 0000 0000 0000 0000
00000010: 0000 0000 0000 0000 0000 0000 0000 0000
00000020: 0000 0000 0000 0000 0000 0000 0000 0000
00000030: 0000 0000 0000 0000 0000 0000 0000 0000
00000040: 0000 0000 0000 0000 0000 0000 0000 0000
00000050: 0000 0000 0000 0000 0000 0000 0000 0000
00000060: 0000 0000 0000 0000 0000 0000 0000 0000
00000070: 0000 0000 0000 0000 0000 0000 0000 0000
0.0 0.0 0.0 0.0 0.0 0.0 0.0 0.0
0.0 0.0 0.0 0.0 0.0 0.0 0.0 0.0
0.0 0.0 0.0 0.0 0.0 0.0 0.0 0.0
0.0 0.0 0.0 0.0 0.0 0.0 0.0 0.0

encoder.0.fc1.weight f4 [64, 32]
00000000: a251 013c 8749 71bc a8b8 fb3c 4373 32bd
00000010: cc27 693d 0715 12bd cbfb 38bc 7688 3c3d
00000020: 118a ccbb 5104 b3bc 19a1 b13c f7bc ee3c
00000030: f540 2cbc 64de b7bc 4068 08bd fbc4 0bbd
00000040: 21bf d93c 20da 58bc 3837 f93a eeed 5f3d
00000050: a8d9 0aba 229f bdbc 3d0a f23b 73df 9e3c
00000060: 8a01 bb3c 780b 553c 9619 d3bc f926 c5bc
00000070: 2789 09bc bab0 65bd eae3 56bd d570 1d3b
00000080: b824 05bc f8ca 863c 7c78 4d3d 6a2d eb3d
00000090: f275 543d 9125 88bb b198 dabc 5a6c 46bd
000000a0: c285 1a3c e77a 47bc f879 b1bc 2a73 d63c
000000b0: cf39 923d 524a 98bd 69ba e03b 764b 43bb
000000c0: c347 f13b cf19 bbbc 73d0 a9bc 894f 00bd
000000d0: d475 74bd f8fb b53b 9f68 8fbc 10f6 35bd
000000e0: 8845 e63c eb8b 3f3d 80ad ac3c 3cff 743c
000000f0: 215c 6f3b 06be a4bc 337c 793d 2ecc dc3c
00000100: bb91 293c 4ae9 f7bc 11b8 14ba 26f0 ddbc
00000110: 4124 833c 7e38 3abc fcb1 10bb 4870 d93d
00000120: 661e 8cbc 0b86 3a3c dfa5 803c 91ac bb3c
00000130: 605c 603d f08a 813d b9e4 5fbc 2f65 fbbc
00000140: 76bc 933d 00ae 9a3d 13bf 80bc 2ccd 9b3c
00000150: 0329 523d e93e fabc 689f 36bc dbd3 10bd
00000160: b150 4ebd 5894 d13d 2781 083d ab70 cc3c
00000170: be47 813b 97eb 60bd fa40 81bd 8ac6 9fbc
00000180: 82a2 223d 2bec 88bc 8e3c 9cbd 3274 75bd
00000190: 0c35 e63c 3927 d9bb c472 543d 6c44 c8bc
000001a0: 52b0 233b 671c 123d 46af 87bc e113 1bbd
000001b0: b34c 26bd f2e5 343d 5397 18bb baca 003d
000001c0: 864f 193c a08e 953c b7de 1bbc 8091 c2bb
000001d0: 6bc1 963d 643e 1ebc 8e53 573c 90dd 2a3c
000001e0: 0a41 363c 8e5f bc3c ffb4 93bd 1e3f 2f3c
000001f0: c7ea bf3c 76ad 8f3b a106 d1bc cf2d 8cb9
00000200: 0254 6c3c 1ce1 52bb 7eb7 fb3d 7252 20bd
00000210: 0573 7abd a9b2 15bd b1c3 05bd dd33 713d
00000220: f56b 1a3d 8f4f 7ebe fd1e e73c 44e8 873d
00000230: 95f7 a8bc fe78 8dbd af5c b13c 474d ea3b
00000240: 3f95 913d 464f 50be 770f c8bc 8954 813d
00000250: 86e3 f3bc cd2b ba3d 7fd6 4e3d 9796 ec3b
00000260: 558d 6c3d 7dbe 23be 4ead 24bc af59 fabb
00000270: 31e7 f1bb e5e0 abbb bd3a 713d 9a68 473d
00000280: 1814 183c 350c 3c3d 4a56 7fbc fb01 01bd
00000290: e943 d8bb a985 933d 1f62 e73c c72a 6b3c
000002a0: 2d22 c3bb a111 c23d cd4c 30bc 2086 ed3c
000002b0: 18ed bebd 8d56 a83d 1712 fc3c 401f d93c
000002c0: 9f00 91bd 0c3d 7abc 1880 52bd 5b3c 92ba
000002d0: 553a 2f3d ab0d 9e3c e289 6b3d 28ff 87bd
000002e0: 0349 0b3b d7a1 69bd efab ea3c c5b8 aabd
000002f0: b0b9 eabc 27ff 363a 3291 053d a98f 3abd
00000300: 98bc c33d 8fa6 efbc a3c6 c2bd ba7c 3bbd
00000310: d567 4bbd 1644 093d 3259 5e3c 4615 9dbd
00000320: 1891 3e3d b5bb 21be 68fd b13c e8b1 2dbd
00000330: dd81 68bd d88a c8bd 7c20 9e3c a215 7d3d
00000340: 10d5 a2bd e299 49bd 7dcc fb3d 0bbc babb
00000350: 57bf af3c cb0c 79bd 4ab7 833d 0927 5b3d
00000360: bb05 843b 1186 50bc ae3a a1bd b623 ebbc
00000370: 6849 32bc c3bc 813d 0a20 53bd d969 833c
00000380: e7f6 ea3b 27d4 d6bc 3eec f23c 970c 4bbc
00000390: 7a34 0abd 9caa 1cbd 859f 7abd ce2e c23d
000003a0: 9bd4 a0bc 735e 8b3d ef20 85bc 9352 993b
000003b0: 8b31 8f3c 6212 393d 5173 01bd 504b c2bc
000003c0: e939 82bb 6c2c 923c 935a 42bc f7c6 593c
000003d0: aaf2 ad3c 21a2 92bc 8ecf dd3b 8005 e83b
000003e0: dc5d ba3b 3581 693c 72f8 c0bc 09d7 6eb9
000003f0: 86bd 843b 5668 b6bc 2fb2 28bd 8bda c43b
0.007892998 -0.014727003 0.0307277 -0.043566953 0.05692272 -0.035664584 -0.011290501 0.046028577
-0.0062420447 -0.021852644 0.021683263 0.02914284 -0.010513534 -0.022444911 -0.033302546 -0.034123402
0.026580395 -0.013235599 0.0019013649 0.054670267 -0.00052967155 -0.02314717 0.0073864744 0.019393658
0.022827882 0.013003223 -0.025769036 -0.024066435 -0.008394516 -0.056076743 -0.05246345 0.0024023552
-0.00812643 0.016454205 0.05016373 0.114832714 0.051870294 -0.004154869 -0.026684137 -0.048443176
0.009431304 -0.012175298 -0.021664605 0.026177961 0.07139932 -0.074360505 0.0068581593 -0.0029799617
0.007363291 -0.022839455 -0.02072928 -0.03132585 -0.059682682 0.0055537187 -0.017505942 -0.044424117
0.028109327 0.046764296 0.021078825 0.014953431 0.003652342 -0.020110141 0.06090946 0.02695283
0.010349686 -0.030262608 -0.000567318 -0.02709205 0.016008498 -0.011366008 -0.0022078743 0.10617119
-0.017104339 0.011384497 0.015704094 0.022909435 0.054775596 0.06325328 -0.013665372 -0.030687897
0.072136804 0.07552719 -0.015716111 0.019018732 0.051308643 -0.030547576 -0.011146404 -0.03535829
-0.050369922 0.102333724 0.033326294 0.024956068 0.00394532 -0.054912176 -0.063112214 -0.01950385
0.03970576 -0.016714176 -0.076287374 -0.059925266 0.028101467 -0.00662699 0.05186726 -0.024446689
0.0024976921 0.035671618 -0.01656307 -0.037860755 -0.04060049 0.044164605 -0.0023283556 0.031443335
0.009357339 0.018256485 -0.009513549 -0.005937755 0.0736111 -0.00965843 0.01314248 0.010428801
0.011123905 0.022994783 -0.07212257 0.010696201 0.02342738 0.004384692 -0.025515856 -0.0002673701
0.014424326 -0.0032177633 0.12290858 -0.039141126 -0.061144847 -0.036547337 -0.03265733 0.05888735
0.037700612 -0.24835037 0.028213019 0.06636098 -0.020625869 -0.06907843 0.02165064 0.0071503255
0.071085446 -0.2034274 -0.024421437 0.06314952 -0.029771578 0.090903856 0.05049753 0.0072201
0.057751972 -0.15990634 -0.010051085 -0.0076400856 -0.0073822965 -0.0052453154 0.058893908 0.04868374
0.0092821345 0.04591008 -0.015584538 -0.03149603 -0.0065998924 0.07203228 0.02824503 0.014353461
-0.005955002 0.09476019 -0.010760498 0.02899462 -0.09322566 0.08219633 0.030770345 0.026504159
-0.070801966 -0.015273344 -0.05139169 -0.0011156903 0.04278024 0.019293627 0.057504542 -0.06640464
0.0021253235 -0.057039108 0.028646437 -0.08336023 -0.028652996 0.00069807697 0.032609172 -0.04554716
0.09557456 -0.029254226 -0.09510543 -0.045773245 -0.04965957 0.033512197 0.0135710705 -0.07670073
0.04652509 -0.15794261 0.021727279 -0.042405993 -0.056764472 -0.09792107 0.0193026 0.06178821
-0.07950795 -0.04921902 0.122948624 -0.005698686 0.021453543 -0.060803216 0.06431444 0.053504024
0.0040290034 -0.012727276 -0.078725204 -0.028703552 -0.010881759 0.063348316 -0.051544227 0.016041683
0.0071705463 -0.026224209 0.029653665 -0.012393138 -0.03374145 -0.038248643 -0.061187286 0.094815835
-0.019632628 0.06805124 -0.016251056 0.004679033 0.017479679 0.045183547 -0.031604115 -0.023717552
-0.0039741886 0.017843448 -0.011862415 0.013292066 0.021233875 -0.017899575 0.006769127 0.007080734
0.0056874584 0.014251997 -0.023555968 -0.00022777556 0.0040509133 -0.022266548 -0.041185554 0.0060074977
