model/mnist/tune_lr0.0001_ed64_nl6_nh4_fm2_ps4/temp_model.pt (torch, 875757 bytes, 106 tensors)

embedding.cls_token f4 [1, 1, 64]
0	0xba90cf49	-0.0011048104
1	0x3a993c9f	0.001169104
2	0xbc083e3a	-0.008315617
3	0xbc150fd9	-0.009098017
4	0x3681b874	3.8659728e-06
5	0xb9aeb04a	-0.00033319212
6	0xba994c08	-0.0011695633
7	0xbb807cad	-0.0039211125
8	0x3993bba4	0.00028177828
9	0xbba816d0	-0.0051296726
10	0x3b6cfc49	0.0036161116
11	0xbac080e0	-0.0014686845
12	0x3a46a0d8	0.0007577068
13	0x3b11386e	0.002215888
14	0x39d3d843	0.00040406184
15	0xbb2dfa99	-0.0026547073
16	0xba30c70a	-0.00067435263
17	0x3a46f85f	0.0007590111
18	0x3ae20b32	0.0017245768
19	0xbbbb2b79	-0.0057119695
20	0x3b23a38d	0.002496931
21	0x3a9fccc3	0.0012191761
22	0xba5c1b47	-0.00083963986
23	0xbc017ffc	-0.007904049
24	0xbaccd765	-0.0015628157
25	0xbb856753	-0.004071155
26	0x3b7a755c	0.0038216924
27	0x3ac38e24	0.001491968
28	0x3b351866	0.002763295
29	0xbb208038	-0.0024490487
30	0x3b11b107	0.002223076
31	0xbc009b2a	-0.007849494
32	0xbba9d6a5	-0.0051830583
33	0x3abdef6c	0.0014490909
34	0xbbbf383d	-0.0058355615
35	0x3bd4cd5d	0.006494208
36	0x3b42d932	0.002973151
37	0xbae08347	-0.0017128967
38	0xba884089	-0.001039521
39	0x3b17c0c8	0.0023155678
40	0xbb8abe09	-0.0042340797
41	0xb9c01af2	-0.0003664117
42	0x3be0bb37	0.0068582552
43	0xbb57701c	-0.003287322
44	0x3b2464b6	0.0025084442
45	0x3bd03b37	0.006354715
46	0xbac8aeb1	-0.0015310851
47	0xbb80448f	-0.003914423
48	0xbbbd3bb3	-0.005774939
49	0xbb0697b3	-0.0020537197
50	0x3ba8904d	0.005144155
51	0x3b1170b6	0.0022192425
52	0x3b224421	0.0024759846
53	0x3c0b06b7	0.008485488
54	0x3ae74031	0.0017643032
55	0xbb82ddb0	-0.0039937124
56	0x3c194c39	0.009356552
57	0x3babcc7a	0.0052428814
58	0xbbd00403	-0.0063481345
59	0xbabedd87	-0.001456187
60	0x3ba29128	0.0049611516
61	0x3b9b0af3	0.00473153
62	0xbb038761	-0.0020069706
63	0x3c04b755	0.00810035

embedding.pos_embedding f4 [1, 50, 64]
0	0xba90cf41	-0.0011048095
1	0x3a993c92	0.0011691025
2	0xbc083e33	-0.008315611
3	0xbc150fd9	-0.009098017
4	0x3681cb1d	3.868145e-06
5	0xb9aeb066	-0.00033319293
6	0xba994c09	-0.0011695634
7	0xbb807caf	-0.0039211134
8	0x3993bbbb	0.00028177895
9	0xbba816d2	-0.0051296735
10	0x3b6cfc4e	0.0036161128
11	0xbac080de	-0.0014686843
12	0x3a46a0e9	0.0007577078
13	0x3b113878	0.0022158902
14	0x39d3d828	0.00040406105
15	0xbb2dfa93	-0.002654706
16	0xba30c72f	-0.0006743548
17	0x3a46f870	0.00075901207
18	0x3ae20b2f	0.0017245765
19	0xbbbb2b6e	-0.0057119643
20	0x3b23a392	0.0024969322
21	0x3a9fccb9	0.0012191749
22	0xba5c1b4a	-0.00083964004
23	0xbc017ffb	-0.007904048
24	0xbaccd758	-0.0015628142
25	0xbb85674e	-0.004071153
26	0x3b7a7557	0.0038216913
27	0x3ac38e1e	0.0014919674
28	0x3b35186d	0.0027632967
29	0xbb208024	-0.002449044
30	0x3b11b106	0.0022230758
31	0xbc009b28	-0.007849492
32	0xbba9d6a7	-0.0051830593
33	0x3abdef74	0.0014490918
34	0xbbbf3836	-0.0058355583
35	0x3bd4cd5c	0.0064942073
36	0x3b42d941	0.0029731544
37	0xbae08354	-0.0017128983
38	0xba884095	-0.0010395224
39	0x3b17c0c3	0.0023155666
40	0xbb8abe06	-0.0042340783
41	0xb9c01ac6	-0.00036641042
42	0x3be0bb33	0.0068582534
43	0xbb57701d	-0.0032873221
44	0x3b2464af	0.0025084426
45	0x3bd03b33	0.0063547133
46	0xbac8aebc	-0.0015310864
47	0xbb804494	-0.003914425
48	0xbbbd3bb4	-0.0057749394
49	0xbb0697bb	-0.0020537216
50	0x3ba8904d	0.005144155
51	0x3b1170b9	0.0022192432
52	0x3b22441e	0.002475984
53	0x3c0b06b2	0.008485483
54	0x3ae7402d	0.0017643027
55	0xbb82ddb0	-0.0039937124
56	0x3c194c39	0.009356552
57	0x3babcc77	0.00524288
58	0xbbd00402	-0.006348134
59	0xbabedd81	-0.0014561863
60	0x3ba29128	0.0049611516
61	0x3b9b0af2	0.0047315294
62	0xbb038759	-0.0020069687
63	0x3c04b753	0.0081003485
64	0x3b521fd4	0.0032062428
65	0xbaeccb97	-0.0018066046
66	0xbbf4322d	-0.0074522705
67	0x3b299d1b	0.0025880996
68	0x3c29fa34	0.0103745945
69	0xbba078f8	-0.004897233
70	0x3ba143e7	0.0049214247
71	0xbb72f15c	-0.003707013
72	0x3c09233f	0.00837022
73	0xbc1fa3b5	-0.009743621
74	0x3b46f3db	0.0030357752
75	0x3c15e500	0.009148836
76	0xbb1b5a1d	-0.0023704835
77	0x38d29e42	0.00010043058
78	0xba112e85	-0.0005538243
79	0xbc18b231	-0.009319828
80	0xb916f713	-0.00014397157
81	0x3ad19352	0.001598934
82	0x3c0ebf2a	0.008712569
83	0x3bbe735c	0.0058120918
84	0xbbaf3cf7	-0.0053478437
85	0x3b23c4b3	0.0024989068
86	0x3b1e6b6a	0.002417291
87	0x3bf53b42	0.0074838707
88	0xbbb72f66	-0.005590367
89	0x3b974639	0.0046165255
90	0xbc07b84a	-0.008283684
91	0xbc1745f4	-0.009232987
92	0x3b770cd0	0.0037696846
93	0x3c029e52	0.007972317
94	0x3aa5a180	0.0012636632
95	0x3bb9653f	0.0056578214
96	0x3bdf559c	0.0068156254
97	0x3c02b200	0.007977009
98	0x3c1edf9d	0.009696868
99	0xba6849d9	-0.0008861102
100	0x3602c9e6	1.948903e-06
101	0x3ae1b4a0	0.0017219968
102	0x3c6037d2	0.013685184
103	0x3b9545a4	0.004555421
104	0x3b8d8cc4	0.004319759
105	0x3b0ab09f	0.0021162403
106	0xbc0354a5	-0.008015786
107	0x3bef6149	0.0073052985
108	0xbb73f43b	-0.003722443
109	0x3a3304ca	0.0006829022
110	0xbaacdff2	-0.00131893
111	0xbc277418	-0.01022055
112	0x3b7fdf5d	0.0039043047
113	0x3a15e66b	0.0005718234
114	0x3b7df85d	0.0038752772
115	0x3accd3f9	0.0015627138
116	0xbb6ef3b7	-0.0036461183
117	0xbb2a9500	-0.0026028752
118	0xbc7f3d38	-0.0155785605
119	0x3bc34532	0.0059591765
120	0x3ae840d2	0.0017719513
121	0xbb7f0e45	-0.0038918417
122	0x3c0f027f	0.008728622
123	0x3b1a7fda	0.002357474
124	0xbc1228be	-0.0089208465
125	0xbb07fd63	-0.0020750395
126	0x3af2dcee	0.0018528977
127	0xbbbffef7	-0.0058592516
128	0x3b801e5a	0.003909868
129	0x3a010a9b	0.000492254
130	0xbbc84ef9	-0.00611293
131	0x3a7c9b92	0.0009636219
132	0x3c1b18d7	0.0094663715
133	0xbb616a9c	-0.003439582
134	0x3b88f601	0.0041797166
135	0xbb7f7246	-0.0038978024
136	0x3bce8a86	0.0063031344
137	0xbbc12353	-0.0058941036
138	0x3bbbf3a7	0.0057358327
139	0x3bf76caf	0.007550798
140	0xbb1ff988	-0.0024410207
141	0x3bde2106	0.006778839
142	0xbad01e0d	-0.0015878096
143	0xbc35f9d2	-0.011106925
144	0x3a2aa1d7	0.00065091014
145	0x3bd6351c	0.006537093
146	0x3bf36c5e	0.00742869
147	0x3ba2fb7c	0.004973827
148	0xbb34ac54	-0.0027568536
149	0x3b94ad1c	0.004537238
150	0xba914614	-0.0011083507
151	0x3b5ba6af	0.00335161
152	0xbb316c4e	-0.0027072611
153	0x3b1fa284	0.0024358341
154	0xbbe20293	-0.0068972795
155	0xbbac919c	-0.0052663814
156	0xb73d396d	-1.1278648e-05
157	0x3bdfcba2	0.006829695
158	0x3a99b88d	0.0011727974
159	0x3c28bdef	0.01029919
160	0x3bb31586	0.0054652123
161	0x3bdc4d78	0.006723102
162	0x3bc097b6	0.0058774604
163	0xba07964d	-0.0005172238
164	0x3ae7e663	0.0017692562
165	0x39392af0	0.0001765897
166	0x3c28d20f	0.010303988
167	0xb9aa7f14	-0.00032519607
168	0x3aaec4f7	0.0013333847
169	0x3abf9bf6	0.0014618624
170	0xbba80769	-0.0051278365
171	0x3bd2d1e3	0.006433712
172	0xba873a09	-0.0010316978
173	0x3926369c	0.00015851337
174	0xbb8c502c	-0.004282018
175	0xbc65db7d	-0.014029381
176	0x3af6e62f	0.0018836911
177	0xbb082c4f	-0.0020778363
178	0xba2fec56	-0.0006710937
179	0x3b753c55	0.0037419994
180	0xba88cbef	-0.0010436754
181	0xbb825e2c	-0.0039785113
182	0xbc0dce7b	-0.008655186
183	0x3bc64c74	0.0060515944
184	0x3b483ff7	0.0030555704
185	0xbaed9b67	-0.0018127979
186	0x3bfd8a42	0.007737429
187	0x37bd362c	2.2555781e-05
188	0xbc003dd3	-0.00782724
189	0x39cc2d5b	0.00038943705
190	0xbabae609	-0.001425923
191	0xbb4bf058	-0.0031118598
192	0xba2de5c5	-0.00066336646
193	0x3c51464f	0.0127731105
194	0x3a6e8e32	0.0009100168
195	0xbb44434c	-0.0029947339
196	0x3be6ebc5	0.007047149
197	0x3bb5d2aa	0.0055487948
198	0xba833583	-0.0010010455
199	0xbba21e2e	-0.0049474454
200	0xbac1dfd6	-0.001479144
201	0x3c28e10e	0.0103075635
202	0x3c775507	0.015095956
203	0xbbabb02d	-0.0052395076
204	0xbafe989a	-0.0019424141
205	0x3c4ea0e2	0.0126116
206	0xbabbfea0	-0.0014342852
207	0xbc84659d	-0.016161734
208	0x3c00e3d6	0.00786682
209	0x3c3f41b7	0.0116733825
210	0xba68e1e9	-0.0008883761
211	0xba084526	-0.0005198292
212	0x3c737787	0.0148600405
213	0x3ab0e505	0.0013495988
214	0xbbc4e8f6	-0.0060092164
215	0xbb5bebe7	-0.0033557357
216	0x3b379aa4	0.0028015757
217	0xbc15f4c9	-0.0091526
218	0x3af378f5	0.0018575477
219	0x3be954e1	0.007120714
220	0xbc4b8963	-0.012422892
221	0xbada44e8	-0.0016652616
222	0x3b56affe	0.0032758708
223	0x3d126256	0.03573831
224	0xbb31972c	-0.0027098162
225	0xbb9938a8	-0.0046759434
226	0xbc51f28f	-0.012814178
227	0x3c1db7a7	0.009626306
228	0x3c587765	0.01321206
229	0xbc0064fe	-0.007836578
230	0xbc0343ec	-0.008011799
231	0xbc12bc24	-0.008955989
232	0xbc0d22d7	-0.0086142635
233	0xbb1b3dee	-0.0023688036
234	0xbb0b2e8f	-0.0021237468
235	0x3a723bc6	0.00092404743
236	0x3c629a05	0.013830666
237	0x3a925bc4	0.0011166264
238	0xbcacd1eb	-0.02109619
239	0xbc8f4445	-0.017488608
240	0x39c86da9	0.00038228676
241	0xbc6850bb	-0.014179404
242	0xbb4477d7	-0.0029978657
243	0x3c3883b5	0.01126187
244	0x3c68e153	0.014213878
245	0xbc0ecac9	-0.00871534
246	0x3c1d1d21	0.009589464
247	0x3adb3dff	0.001672685
248	0x3c22aa1d	0.0099282535
249	0x3c4f577d	0.012655136
250	0x3b88d9f4	0.0041763727
251	0xbc2f7a24	-0.010710273
252	0xbbdbb154	-0.006704489
253	0x3ba74472	0.005104595
254	0xbcac782a	-0.021053392
255	0x3b98881d	0.004654898

embedding.conv1.weight f4 [64, 1, 4, 4]
0	0xbd4a6c5b	-0.049419742
1	0xbc0f085f	-0.008730023
2	0x3cced8fc	0.02524995
3	0xbc1222ee	-0.008919461
4	0xbc82f4ff	-0.015985964
5	0x3cfa3b6b	0.03054591
6	0xbb61cf44	-0.0034455815
7	0xbd27480b	-0.04084019
8	0x3b196964	0.0023408765
9	0x3c95a408	0.018266693
10	0x3c3e7908	0.011625536
11	0x3ce107e3	0.027469581
12	0xbba63e84	-0.0050733704
13	0xbc7d255f	-0.0154508045
14	0xbd0c1e07	-0.034208324
15	0xbc10c16d	-0.008835179
16	0x3bda37d2	0.0066594863
17	0x3c5e1a7b	0.013556118
18	0xbb559819	-0.0032591878
19	0x39f913e0	0.0004750779
20	0x3d1e1106	0.038590454
21	0x3bc5fce3	0.0060421093
22	0xbcca85b4	-0.024721958
23	0xbc80b759	-0.015712427
24	0x3b68515d	0.0035448887
25	0x3d2afcf2	0.041745134
26	0xbcd5520f	-0.026040105
27	0x3bdc54ae	0.006723962
28	0xbacd01c9	-0.0015640791
29	0xbccca201	-0.024979593
30	0xbc7e081f	-0.015504866
31	0xbc513f51	-0.012771443
32	0xbcc13333	-0.023583984
33	0xbbc987e6	-0.0061502336
34	0xbcd66d92	-0.026175294
35	0x3c3f3532	0.011670398
36	0xbc2531df	-0.010082691
37	0xbc40327c	-0.011730786
38	0x3c9a610a	0.0188451
39	0x3adf90cd	0.0017056704
40	0xbb1d65be	-0.0024016942
41	0x3d0708f1	0.03296751
42	0x3d2e40e4	0.042542353
43	0xbc8dcc34	-0.017309286
44	0xbc776601	-0.015100003
45	0xbcb6f8e3	-0.022335475
46	0xbc4d6ac8	-0.012537666
47	0x3b28ec45	0.0025775593
48	0x3c717568	0.0147374645
49	0xbd54351c	-0.05180846
50	0x3c0326a6	0.00800482
51	0x3cc40da6	0.02393229
52	0xbbc37d9f	-0.005965903
53	0x3bdb37ef	0.0066900174
54	0x3d04d4b7	0.032429423
55	0xbcd3cb16	-0.025853675
56	0xbca246f2	-0.01980922
57	0x3b8e2fbc	0.0043391865
58	0xbbcef363	-0.006315635
59	0x3c1873be	0.009304939
60	0x3a095286	0.0005238432
61	0xbc9e5ce1	-0.019331397
62	0x3ad33ce8	0.0016116174
63	0x3c3c237c	0.0114830695
64	0x3c8c0e5e	0.017096695
65	0xbac48c3c	-0.0014995406
66	0x3b98b19d	0.004659845
67	0x3c78123a	0.015141064
68	0x3bf6cfe5	0.007532107
69	0x3af1b4d9	0.0018440738
70	0x3d01ed91	0.0317207
71	0xbd1172fd	-0.035510052
72	0xbafd5cd5	-0.0019330034
73	0xbd0655cb	-0.032796662
74	0x3c651bc4	0.013983671
75	0x3ca3bab9	0.019986497
76	0xbc1dfc39	-0.009642654
77	0xbc51cbff	-0.012804984
78	0x3d0cd9e8	0.0343875
79	0xbca13c67	-0.019682122
80	0xbbe17da7	-0.006881434
81	0xbc535f0a	-0.012901077
82	0x3c5be1bc	0.0134205185
83	0x3a361bd9	0.00069468986
84	0x37d4de43	2.5375868e-05
85	0x3c4707fb	0.012147899
86	0xbb5278ba	-0.0032115416
87	0x3c3b32fe	0.011425732
88	0x3d1ac126	0.037781857
89	0xbcaa112f	-0.020760147
90	0xbc3fac57	-0.011698804
91	0xbc7cc3b8	-0.015427522
92	0x3be6fcae	0.0070491647
93	0xbc8006ad	-0.015628183
94	0xbc64779d	-0.013944534
95	0xbc92fcc2	-0.01794279
96	0xbd21bedc	-0.03948866
97	0xbbe57d99	-0.007003498
98	0x3c602161	0.013679833
99	0xbd2e4797	-0.042548742
100	0x3c220a68	0.009890176
101	0xbcdb8b87	-0.02679993
102	0x3be4f65d	0.0069873766
103	0x3c6e124b	0.014530729
104	0xbd1a0048	-0.037597924
105	0x3c0460e2	0.008079739
106	0x3c5ee153	0.013603526
107	0x3bf1dfcb	0.0073814145
108	0x3c58c4c2	0.0132305045
109	0x3c0d518f	0.008625402
110	0x3ce5a9f1	0.028035136
111	0x3ab6c37f	0.001394376
112	0xbc0400e3	-0.008056852
113	0xbd0742af	-0.03302258
114	0x3b6e7e33	0.0036391139
115	0x3c47f419	0.0122041935
116	0xbc50128a	-0.012699733
117	0xbcab7fc4	-0.020934947
118	0xbbf97d26	-0.007613796
119	0x3d19bcd2	0.03753359
120	0xbc359a1f	-0.011084109
121	0xbc380528	-0.011231698
122	0xbc0c1638	-0.008550219
123	0x3cba5264	0.022744365
124	0x3b8e3f7c	0.004341064
125	0xbba00577	-0.004883464
126	0xbb384713	-0.0028118535
127	0x3c6edbe5	0.014578794
128	0x3c066d57	0.00820478
129	0xbcad20c2	-0.021133784
130	0x3c57f9ad	0.013182086
131	0x3c13ea49	0.009028026
132	0x3adeeedf	0.0017008445
133	0xbaa5ec88	-0.0012658993
134	0x3c213d00	0.009841204
135	0xbd077028	-0.033065945
136	0x3ba2bb11	0.0049661477
137	0xbd033d0b	-0.032040637
138	0x3c0e2aab	0.008677165
139	0xbc72e141	-0.0148242125
140	0xbcdd53fd	-0.027017588
141	0xbcf6123c	-0.030037992
142	0xbc5518bb	-0.0130063845
143	0x3d06d898	0.032921404
144	0xbc39e9c0	-0.011347234
145	0xbadbe311	-0.0016776045
146	0xbd099cc3	-0.033596765
147	0xbd2eca7c	-0.042673573
148	0x3ca0a4b2	0.019609783
149	0x3b1066f7	0.0022034028
150	0xbb65eb2d	-0.0035082803
151	0x3cb7b191	0.022423537
152	0xbc542926	-0.012949264
153	0xbc38d0ea	-0.011280278
154	0x3ccbbcbd	0.02487027
155	0x3befc7d9	0.007317525
156	0x3cc2aa41	0.023762824
157	0x3cb2e5e3	0.021838134
158	0xbc01f7c6	-0.007932609
159	0x3bd1b283	0.006399454
160	0x3d2d7ee4	0.04235734
161	0xba0157a2	-0.0004934018
162	0x3c107c60	0.008818716
163	0xbd104de1	-0.03523052
164	0xbc9d102b	-0.019172749
165	0x3cfa18f6	0.03052948
166	0x3b1b8739	0.0023731722
167	0x3ceab33b	0.028649917
168	0xbc7e4f61	-0.015521855
169	0x3ccee31e	0.025254782
170	0x3a539dd6	0.00080725306
171	0xbca8977e	-0.02058005
172	0x3c92aebf	0.017905591
173	0x3c942778	0.018085226
174	0xbc4fd393	-0.012684721
175	0x3c45845b	0.012055482
176	0x3a927fa4	0.0011176956
177	0x3c0b4e89	0.008502611
178	0xbc377895	-0.011198183
179	0xbc9db407	-0.019250883
180	0x3b2d1ee3	0.0026416115
181	0x3b76f144	0.0037680427
182	0x3cdab809	0.026699083
183	0xbbbc569b	-0.005747629
184	0x3beb0f52	0.007173457
185	0xbcb92fe6	-0.022605848
186	0xbc7adaed	-0.015310985
187	0xbd487b92	-0.04894597
188	0x3d19f800	0.037590027
189	0x3c5e5787	0.013570673
190	0x3c3ffb81	0.011717678
191	0x3ccb8f1c	0.024848513
192	0x3d1d4a18	0.03840074
193	0x3c538e65	0.0129123675
194	0x3c72e991	0.014826194
195	0x3d245e3b	0.040128928
196	0xbcb048c1	-0.021519067
197	0xbcafdac2	-0.021466617
198	0xbbccfa8e	-0.0062554544
199	0xbc8864e2	-0.016649667
200	0x3b6d8b2d	0.0036246285
201	0x3c53eb8a	0.012934575
202	0x3c141e99	0.009040498
203	0xbbce4a86	-0.006295505
204	0x3bfd5253	0.007730761
205	0xbc3599a9	-0.011083999
206	0xbd25fe8e	-0.040525965
207	0xbbc41199	-0.005983543
208	0xbc396b8e	-0.011317147
209	0xbca77324	-0.020440646
210	0xbc94e7fe	-0.018177029
211	0xbd361e8b	-0.04446272
212	0x3b898fb1	0.0041980376
213	0xbc43932d	-0.011936945
214	0xbc9c17cd	-0.019054318
215	0xbc40e036	-0.011772206
216	0x3c3ed39c	0.011647131
217	0xbb2a50a8	-0.0025988016
218	0x3c768e7c	0.015048619
219	0x39c623b1	0.00037792095
220	0x3c8e8449	0.017397063
221	0x3cb8fa0a	0.022580165
222	0x3d13efb1	0.03611726
223	0x3d054c66	0.032543562
224	0x3ce5f9de	0.028073248
225	0xbcb62ccf	-0.022238163
226	0x3c1dc3a8	0.009629168
227	0xbb8f2b4a	-0.004369174
228	0xbced827a	-0.02899288
229	0xbc354285	-0.011063223
230	0x3ba7fe6b	0.0051267645
231	0x3b9bc59d	0.004753782
232	0x3c971655	0.018443266
233	0x3c8e5517	0.017374558
234	0x3c755129	0.014972963
235	0xbbba6b14	-0.0056890342
236	0x3cbe7597	0.02324943
237	0x3c05b79b	0.008161451
238	0xbcad3a3e	-0.021145936
239	0xb909fd3e	-0.00013159678
240	0xbb59b2d9	-0.0033218174
241	0xbc757c27	-0.0149832135
242	0x3d45da98	0.04830417
243	0x3c7cb97f	0.015425085
244	0x3c17b75e	0.009260027
245	0xbb9e1afa	-0.004824993
246	0x3a6eca6b	0.0009109142
247	0x3c432d31	0.01191263
248	0x3b38de5b	0.0028208706
249	0x3c384954	0.011247952
250	0xbb5ceefc	-0.0033711782
251	0x3b91a040	0.004444152
252	0xbc96c8f6	-0.018406373
253	0x3b9899f1	0.004657023
254	0xbd02ba0f	-0.03191572
255	0xbbb69e59	-0.0055730757

embedding.conv1.bias f4 [64]
0	0xbb89f193	-0.004209706
1	0x3bed6848	0.0072450973
2	0xbb10d4c9	-0.0022099486
3	0x3c409667	0.011754609
4	0x3b9a0d57	0.0047012973
5	0x3c1406f5	0.009034862
6	0xbbe1fe1e	-0.006896748
7	0x3c0e8b5b	0.008700217
8	0xbb3afa91	-0.0028530697
9	0x3c0bf470	0.008542165
10	0x3bd18258	0.006393712
11	0xbbfbd171	-0.0076848795
12	0xbb3863b6	-0.0028135604
13	0x3b39a28d	0.0028325648
14	0x3b44d5ae	0.003003459
15	0x3b02741e	0.0019905637
16	0xbbeaf77e	-0.0071706166
17	0x3b005d41	0.0019586834
18	0xba5c9306	-0.0008414242
19	0x3b941430	0.004519008
20	0x3b010c27	0.0019691081
21	0xbb771269	-0.0037700182
22	0xbbed484d	-0.007241285
23	0x3b8a89e9	0.004227866
24	0x3c07a353	0.008278686
25	0x3ab767b3	0.0013992697
26	0xbb334875	-0.002735642
27	0x3bb790ea	0.005601992
28	0xbb1196e6	-0.0022215187
29	0xbb1be079	-0.002378492
30	0xba053dc7	-0.0005082753
31	0x3c60c9c7	0.0137199825
32	0xbb84d888	-0.004054133
33	0xbb4212e8	-0.002961332
34	0x39677320	0.00022072764
35	0x3a08f8b3	0.00052250474
36	0x3c0606aa	0.0081803
37	0xbc194089	-0.009353765
38	0x39b708c6	0.00034911017
39	0x3b0a0160	0.0021057948
40	0xbc26bef0	-0.010177359
41	0x3b21f224	0.0024710977
42	0xbb663cf1	-0.0035131539
43	0xbafd532c	-0.0019327155
44	0x3ba4157f	0.0050074453
45	0x3b5555ef	0.003255244
46	0x3a94fa8c	0.0011366173
47	0x36f6790a	7.345462e-06
48	0x3bc6dabc	0.0060685556
49	0xbc16c3c5	-0.0092019485
50	0xbaac69f2	-0.0013154133
51	0x3b0a30b2	0.0021086154
52	0x3c1542c1	0.009110154
53	0xbbde650e	-0.006786949
54	0x3a55ca9d	0.0008155497
55	0x3c24ea6d	0.010065657
56	0xb9849999	-0.0002529144
57	0x3bcab9fb	0.0061867214
58	0x3a6c295e	0.000900885
59	0xbacf29ae	-0.0015805268
60	0x3b14cefd	0.0022706382
61	0x3ba57995	0.005049894
62	0xbbe4f82f	-0.0069875936
63	0x3a89ea35	0.001052207

encoder.0.attention.queries.weight f4 [64, 64]
0	0x3c30b3a7	0.01078502
1	0xbc850df1	-0.016242
2	0xbcdd5081	-0.027015926
3	0xbd252e76	-0.04032751
4	0x3d4efc53	0.050533604
5	0xbca887ae	-0.02057251
6	0xbccdc771	-0.025119515
7	0xbd39ac39	-0.04533026
8	0x3c8281c4	0.015931018
9	0xbd7a38a3	-0.06108917
10	0x3bb4ff44	0.005523594
11	0x3b780126	0.0037842481
12	0x3d855b85	0.065115966
13	0x3c43612b	0.011925022
14	0x3c9afb0d	0.018918538
15	0x3d16e862	0.03684271
16	0xbbd79cce	-0.006579972
17	0x3c6643a8	0.014054216
18	0x3cdc5d13	0.02689985
19	0xbd29d3a1	-0.04146159
20	0xbc9a1637	-0.018809421
21	0x3bc9c4e2	0.0061575035
22	0xbcab12a8	-0.02088292
23	0xbd7cdf00	-0.061736107
24	0x3ac70efe	0.0015186963
25	0x3bed68a8	0.007245142
26	0x3d7befb5	0.0615079
27	0xbc337641	-0.010953487
28	0x3c4a6ef3	0.012355554
29	0x3a95ef96	0.00114392
30	0x3c375d35	0.011191656
31	0xbce3b628	-0.02779682
32	0x3b4bf667	0.003112221
33	0x3b8b0367	0.004242349
34	0x3d0dd271	0.03462452
35	0x3cbd3009	0.023094194
36	0x3d6cf399	0.0578495
37	0xb957b2ca	-0.00020570602
38	0x3cb415de	0.021983083
39	0x3d000418	0.031253904
40	0xbbe9aa06	-0.007130864
41	0xbca01f23	-0.019546097
42	0x3d78df68	0.06075993
43	0x3d0cdbc1	0.03438926
44	0x3c50e33d	0.01274949
45	0x3a17d49a	0.0005791873
46	0xbcf4af33	-0.029868698
47	0xbb675a3c	-0.0035301587
48	0xbda66cc8	-0.08126217
49	0x3c194aee	0.009356244
50	0x3d134433	0.03595371
51	0x3c918411	0.01776317
52	0x3bfbb3cb	0.007681345
53	0x3c8f388c	0.017483018
54	0x3d0d2094	0.034454897
55	0xbd229c82	-0.03970004
56	0x3d42d0fe	0.04756259
57	0xbc2b8dbf	-0.010470807
58	0xbc82cd4b	-0.015967032
59	0xbcb53a44	-0.02212251
60	0x3d43655d	0.04770409
61	0x3c587c56	0.013213238
62	0x3c8b37c4	0.016994365
63	0xbb5e7507	-0.0033944265
64	0x3d3d9cbb	0.046292048
65	0xbcc4d404	-0.024026878
66	0x3d4c5e8d	0.04989486
67	0x3c5912bd	0.013249096
68	0xbcbce819	-0.023059892
69	0x3ce79bb6	0.028272491
70	0x3d49de0a	0.04928402
71	0x3d7dd9e0	0.06197536
72	0x3d01b15e	0.03166329
73	0x3d16feff	0.036864277
74	0xbd6e8a54	-0.05823739
75	0x3cdecc9c	0.027197175
76	0xbd09503e	-0.03352379
77	0x3d92f800	0.071762085
78	0xbd1c3d21	-0.038144235
79	0xbd1fbb97	-0.03899726
80	0x3cbc7d7e	0.023009058
81	0xbd40def7	-0.047087636
82	0xbd4f2f5e	-0.050582282
83	0x3d3d659d	0.046239484
84	0x3d16898d	0.036752272
85	0xbc716055	-0.01473244
86	0x3d6f7526	0.05846133
87	0x3d207b1e	0.039179914
88	0xbd2e1241	-0.042497877
89	0x3c9e8b64	0.019353576
90	0xbd99a4b6	-0.07502119
91	0xbd0e7c08	-0.034786254
92	0x3c7ece62	0.015552135
93	0x3ac40971	0.0014956427
94	0xbd5a7214	-0.05333145
95	0x3c8eca95	0.017430583
96	0x3c07dd08	0.008292444
97	0x3d42f7c9	0.047599588
98	0xbc9a13a5	-0.018808195
99	0xbd22bcaa	-0.039730705
100	0xbc85ea76	-0.016347151
101	0x3d97adf4	0.07406226
102	0x3d4e1297	0.050310697
103	0xbc9c2ec9	-0.019065278
104	0x3d791384	0.060809627
105	0xbd14e775	-0.036353547
106	0xbd05d4e3	-0.032673728
107	0x3c2e12f2	0.010624634
108	0xbd206c63	-0.039165866
109	0xbd859c30	-0.06523931
110	0xbbe71303	-0.007051827
111	0xbcb34a6e	-0.021886077
112	0x3d3785de	0.0448054
113	0x3cd65168	0.026161864
114	0xb76e62d0	-1.4208912e-05
115	0xbd0fe193	-0.035127234
116	0xbd1e6dc9	-0.038678918
117	0xbb8c301e	-0.004278197
118	0xbcd57f97	-0.026061816
119	0x3d46eda9	0.048566494
120	0xbd82a156	-0.06378429
121	0xbd70a9ca	-0.058755673
122	0x3cb58459	0.022157835
123	0x3ca604d4	0.020265974
124	0xbd956d2d	-0.07296214
125	0xbcc2658f	-0.023730068
126	0x3c8c9eab	0.017165503
127	0xbcbd309c	-0.023094468
128	0xbd6821b4	-0.056672767
129	0xbc069acd	-0.008215618
130	0xbda37561	-0.079813726
131	0xbd889338	-0.06668705
132	0x3c96a61d	0.018389756
133	0xbd026b83	-0.031840812
134	0x3c2458e7	0.010030962
135	0xbc34b3dc	-0.01102921
136	0xbce47c89	-0.027891414
137	0xbc880c5a	-0.016607452
138	0xb98817df	-0.00025957727
139	0xbbe1a4e9	-0.006886114
140	0x3cb920b6	0.022598606
141	0xbc6fafe2	-0.014629336
142	0x3ca6dfb7	0.020370347
143	0x3ca61856	0.020275276
144	0xbb9561c7	-0.004558775
145	0x3cd2b8cd	0.025722886
146	0x3cc5de15	0.024153749
147	0x3aea119a	0.0017858029
148	0xbca416c3	-0.020030385
149	0x393a6d11	0.00017778973
150	0x3b460175	0.003021327
151	0x3c43c826	0.011949575
152	0x3c492816	0.012277624
153	0xbd260eaa	-0.04054133
154	0x3db16187	0.0866118
155	0xbd025189	-0.03181604
156	0xbc904a8c	-0.017613672
157	0xb9cfdd6c	-0.0003964709
158	0xbc3132da	-0.010815347
159	0xbd61713d	-0.055039633
160	0x3c0fa46b	0.008767228
161	0xbc846397	-0.01616077
162	0xbcfa6d8c	-0.030569814
163	0x3d0680cb	0.03283767
164	0x3d0f5115	0.034989435
165	0xbba065f2	-0.0048949653
166	0x39bd246e	0.0003607603
167	0x3c97c45b	0.018526247
168	0xbcb8542b	-0.022501072
169	0x3bcc19c9	0.00622866
170	0x3cb665c9	0.022265332
171	0xbc874103	-0.016510492
172	0x3d3ce4f8	0.0461168
173	0x3c452444	0.012032572
174	0x3d08c732	0.033393092
175	0x3c074455	0.008256038
176	0xbd5e18ee	-0.054222994
177	0x3bfd4509	0.007729177
178	0x3d027e9e	0.031859033
179	0x3d0a32bd	0.033739794
180	0xba828786	-0.0009958602
181	0xbb3e9c9d	-0.0029085048
182	0x3c3997b4	0.011327673
183	0x3c1907eb	0.009340267
184	0x3da8f781	0.082503326
185	0x3d21cc85	0.039501686
186	0xbce7af03	-0.028281694
187	0xbd4f6ccd	-0.05064087
188	0x3c0e2b44	0.0086773075
189	0x3b731df0	0.0037096702
190	0x3c1bc71c	0.009507921
191	0x3c0d2ad6	0.00861617
192	0x3d4bfd45	0.049802084
193	0xbca96c92	-0.020681653
194	0x3d08c101	0.033387188
195	0x3d5e73b4	0.05430956
196	0xbd32acc2	-0.043621786
197	0xbb94efed	-0.004545203
198	0x3d4bbb16	0.049738966
199	0x3d6d1b7e	0.057887547
200	0xbb8eeb41	-0.0043615405
201	0x3db8f608	0.09031302
202	0xbca19cdb	-0.019728115
203	0x3d268394	0.040652826
204	0x3bcfb03c	0.0063381474
205	0xbc28eb9a	-0.010310078
206	0xbc732f9a	-0.014842892
207	0xbd553888	-0.052055866
208	0x3c86cef0	0.016456097
209	0xbd0717e1	-0.032981757
210	0xbcb317f8	-0.021862015
211	0x3d8d5750	0.06901419
212	0x3d10f448	0.035389215
213	0x3c6326e9	0.013864257
214	0x3b56d7d1	0.0032782445
215	0x3d3608f9	0.04444215
216	0xbd4a96dc	-0.049460277
217	0x3d846b5a	0.06465788
218	0xbd6efeb9	-0.05834839
219	0x3c9a4864	0.018833347
220	0xbb93ae38	-0.0045068525
221	0x3d5e465b	0.054266315
222	0xbc9b964a	-0.018992562
223	0x3bca039a	0.00616498
224	0x3d43960d	0.04775052
225	0xbbbf02f6	-0.0058292104
226	0xbc2baca2	-0.010478171
227	0xbca605b8	-0.020266399
228	0x3ccd75c7	0.025080575
229	0x3d4a415e	0.049378745
230	0xbca8b34d	-0.02059331
231	0xbac87795	-0.0015294427
232	0x3ca86a2d	0.020558441
233	0xbcfde901	-0.030994894
234	0xbc8ed449	-0.01743521
235	0x3d33c4f3	0.043888997
236	0xbd2dbfb5	-0.042419154
237	0xbd4d3c71	-0.05010647
238	0xbc6049a0	-0.013689429
239	0xbb02c12a	-0.001995156
240	0x3d1463bb	0.036227923
241	0x3d08e616	0.033422552
242	0xbd3a4b42	-0.045481928
243	0xbc92c35a	-0.017915417
244	0xbd0fab31	-0.03507537
245	0xbc46d761	-0.012136311
246	0xbcc66805	-0.024219522
247	0x3d3ea205	0.046541233
248	0xbddb50db	-0.10708781
249	0xbd79078c	-0.060798213
250	0x3d23f48f	0.04002815
251	0x3c971d55	0.018446604
252	0xbd6e97cc	-0.058250234
253	0xbbc67ccc	-0.0060573574
254	0x3c0f932b	0.008763115
255	0xbcc90d3d	-0.024542445

encoder.0.attention.queries.bias f4 [64]
0	0x3bf29e01	0.0074040894
1	0xbcf874e5	-0.030329177
2	0x3c3db709	0.0115792835
3	0xbd0c6435	-0.034275252
4	0x3d0e3e30	0.034727275
5	0xbce9dc50	-0.028547436
6	0x3d15aa26	0.03653922
7	0x3ca1dde8	0.019759133
8	0x3d13697c	0.03598927
9	0xbca24954	-0.019810356
10	0x3ce9464a	0.0284759
11	0x3cc8f0c6	0.024528872
12	0xbcc7c318	-0.02438502
13	0xbcec5cbc	-0.028852813
14	0xbd1cdb99	-0.038295362
15	0xbcc60e81	-0.024176838
16	0xbc831f8e	-0.016006257
17	0xbc4d3c63	-0.012526604
18	0x3d1af228	0.037828594
19	0x3d14d53d	0.036336172
20	0xbcb315fd	-0.02186107
21	0x3c48e44d	0.012261462
22	0xbcef24f2	-0.029192422
23	0xbca287c1	-0.019840123
24	0x3c6d0d94	0.014468569
25	0xbb85b52c	-0.0040804353
26	0x3d074b3d	0.033030737
27	0xbcb548eb	-0.022129497
28	0xbc4b99d3	-0.012426811
29	0x3cccabb6	0.024984222
30	0xbc5b2d96	-0.013377568
31	0x3d033281	0.032030586
32	0xbcf8d455	-0.030374685
33	0x3ce8a5b8	0.028399333
34	0x3d443b1f	0.047907945
35	0x3d4a79f6	0.049432717
36	0xbd5842a7	-0.05279794
37	0x3cb09b2b	0.021558365
38	0xbcfff7eb	-0.031246146
39	0xbbebef65	-0.007200169
40	0xbcb1a87f	-0.02168679
41	0x3d2fadf0	0.04289049
42	0x3be1b010	0.0068874434
43	0xbd00ccc0	-0.031445265
44	0xbc074391	-0.008255855
45	0x3ca97e7c	0.020690195
46	0xbce66623	-0.028124874
47	0xbd3b76e6	-0.045767687
48	0xbbcca73c	-0.006245522
49	0xbd05073d	-0.032477606
50	0x3cc0b8ed	0.02352568
51	0xbd04f68a	-0.03246168
52	0xbc2dd765	-0.010610436
53	0x3c5dba0d	0.0135331275
54	0x3c81dd5f	0.015852628
55	0xbccdf65d	-0.02514189
56	0xbcfeaeca	-0.031089205
57	0xbc88c341	-0.016694667
58	0xbcb3c9d3	-0.021946823
59	0xbcc8c553	-0.024508154
60	0x3cab4bd3	0.02091018
61	0xbcc97060	-0.024589717
62	0xbce79456	-0.028268974
63	0x3c82d8d4	0.015972532

encoder.0.attention.keys.weight f4 [64, 64]
0	0x3b8452b8	0.004038181
1	0xbb2ce3b2	-0.0026380834
2	0x3c31e642	0.01085812
3	0xbaa8850c	-0.0012857034
4	0xbc5b8296	-0.013397833
5	0x3cd1fba5	0.025632689
6	0x3c8e1a04	0.01734639
7	0xbd37ed4e	-0.044904046
8	0x3d19073c	0.037360415
9	0xbcfeb615	-0.031092683
10	0x3b0fbe30	0.002193343
11	0x3c70d5fd	0.014699456
12	0x3d3ac24a	0.045595445
13	0x3c785fb6	0.015159538
14	0xbc410dbc	-0.01178306
15	0xbc635870	-0.013876066
16	0xbcaaab82	-0.020833734
17	0xbc6681b7	-0.014069012
18	0xbacf335e	-0.0015808155
19	0xbc674c32	-0.0141172875
20	0x3c088d4b	0.008334468
21	0xbd0e6375	-0.03476282
22	0x3ce232fb	0.0276122
23	0xbd551db2	-0.052030273
24	0xbd3f2e6f	-0.046675142
25	0xbd73387d	-0.059380043
26	0xbc3046ff	-0.010759114
27	0xbc5d06bc	-0.013490375
28	0xbc5584a0	-0.013032109
29	0xbd7501df	-0.059816238
30	0xbcf09d17	-0.029371781
31	0x3d0159ea	0.03157989
32	0x3cd5c0bc	0.02609288
33	0x3d23dfa6	0.04000821
34	0x3bc4d834	0.0060072187
35	0x3c8aaf32	0.016929243
36	0xbd2e8ac0	-0.04261279
37	0x3d294632	0.04132671
38	0x3d54677d	0.051856507
39	0x3d2d887c	0.04236649
40	0x3d8f9e0c	0.07012567
41	0x3be5ead1	0.0070165177
42	0xbb891c76	-0.004184301
43	0x3c6cad42	0.014445605
44	0xbd4cc43a	-0.049991824
45	0xbd4aeba6	-0.049541138
46	0xbd1d3d52	-0.038388558
47	0xbd04ee95	-0.032454092
48	0xbce3feb8	-0.02783142
49	0xbc3e6efc	-0.01162314
50	0x3d116824	0.035499707
51	0xbd5977f1	-0.0530929
52	0xbd0afbeb	-0.033931654
53	0x3d05a52d	0.032628227
54	0xbd4d6820	-0.05014813
55	0xbd3f6069	-0.046722803
56	0xb8766f79	-5.8754787e-05
57	0xbd3f37f7	-0.04668423
58	0xbcbe4acb	-0.023229023
59	0x3c2cdbb1	0.010550425
60	0xbc127785	-0.0089396285
61	0x3cb98024	0.02264411
62	0xbc7feca4	-0.015620384
63	0x3be3cb12	0.006951698
64	0xbca1503e	-0.019691583
65	0xbcad2e1e	-0.021140154
66	0x3b407743	0.002936796
67	0xbcb41df8	-0.021986946
68	0x3c9ec85e	0.019382652
69	0xbd0f49b4	-0.0349824
70	0x3d509cdd	0.050930846
71	0xbc86dded	-0.016463244
72	0xbd57377a	-0.05254314
73	0xbd37c929	-0.044869576
74	0x3c6f2d18	0.0145981535
75	0x3cc86e0d	0.024466539
76	0xbd20cc63	-0.03925742
77	0x3c2e10bd	0.010624108
78	0x3d88ad69	0.066737
79	0x3d1dad0b	0.038495105
80	0x3c516b99	0.012782001
81	0x3b75e2f4	0.0037519308
82	0x3cf9e714	0.030505694
83	0x3d97fd3f	0.0742135
84	0xbc6e82d5	-0.01455756
85	0x3d34c499	0.044132803
86	0xbd1f0a55	-0.038828213
87	0x3d6434f3	0.05571456
88	0x3d154214	0.03643997
89	0x3d3f13e0	0.046649814
90	0x3d0422a2	0.03225959
91	0x3b83618a	0.0040094303
92	0xbb3c8157	-0.0028763616
93	0xba6e86d9	-0.00090990734
94	0x3c0a751c	0.008450773
95	0xbd9d162f	-0.07670247
96	0xbd2ee9d8	-0.04270348
97	0xbd2b6005	-0.04183962
98	0x3ce9d82a	0.028545458
99	0xbd00d180	-0.031449795
100	0xbcd814d6	-0.026377123
101	0x3c211c4b	0.009833406
102	0xbc0f1b23	-0.008734497
103	0x3b69eb13	0.0035693094
104	0xbd022f7e	-0.031783573
105	0xbd1f8a04	-0.03894998
106	0xbd3a23bb	-0.04544423
107	0xbd6729ad	-0.05643623
108	0xbca2c01c	-0.019866996
109	0x3ca0c816	0.019626658
110	0xbc20d56f	-0.0098165115
111	0x3d0dacb9	0.03458855
112	0x39d4b68a	0.00040571793
113	0xbb8bd625	-0.0042674714
114	0x3c7643b8	0.015030794
115	0x3ccb2623	0.024798458
116	0xbcfad55f	-0.030619321
117	0x3a567823	0.0008181354
118	0x3cb7c404	0.022432335
119	0x3d685d00	0.056729317
120	0xbc6c2de9	-0.014415243
121	0xbd35afd6	-0.044357143
122	0xbcd016d2	-0.025401507
123	0xbbd79279	-0.00657874
124	0x3d82abc7	0.0638042
125	0x3b75da90	0.0037514307
126	0x3c816124	0.01579339
127	0x3d1bc30c	0.038027808
128	0xbbb09725	-0.0053891116
129	0x3c1bd39f	0.009510904
130	0xbc7d927f	-0.015476822
131	0xbd27d4cd	-0.040974427
132	0xbca9def8	-0.020736203
133	0xbc573f0a	-0.013137588
134	0x3be5d356	0.0070137186
135	0xbd0609d5	-0.03272422
136	0x3d312536	0.043248378
137	0x3d3b5a92	0.04574067
138	0xbd1c9a25	-0.03823294
139	0xbc96ad82	-0.018393282
140	0x3c994546	0.01870979
141	0x3cbfad30	0.023398012
142	0xbd043d0d	-0.032284785
143	0xbc9f436c	-0.019441329
144	0xbb326ae3	-0.0027224354
145	0xbc9824f0	-0.0185723
146	0xbd3e28e2	-0.046425708
147	0xbd1bdc1a	-0.038051702
148	0x3ca4c203	0.020112043
149	0xbc295687	-0.010335571
150	0x3bdc1de0	0.0067174286
151	0xbcf39098	-0.029732034
152	0xbcbc469e	-0.022982892
153	0xbd636a25	-0.05552115
154	0xbb84a351	-0.004047789
155	0xbc384cae	-0.011248751
156	0xbc2c3d66	-0.010512685
157	0x3c78587d	0.015157816
158	0xbd90fb7e	-0.07079218
159	0x3d29e9cd	0.041482735
160	0x3d234780	0.03986311
161	0x3d080ba6	0.033214234
162	0x3c045f69	0.008079388
163	0x3cccb9f2	0.02499101
164	0x3c936956	0.017994564
165	0x3d271ebf	0.040800806
166	0x3c8b98c1	0.017040612
167	0x3ce12b51	0.027486475
168	0x3d71cd17	0.05903348
169	0xbc75ba2f	-0.014998003
170	0x3c38908a	0.01126493
171	0x3d014ec0	0.031569242
172	0xbd4baf11	-0.049727503
173	0xbcbc94db	-0.023020199
174	0x3c922e3a	0.017844308
175	0xbd85795f	-0.0651729
176	0xbc99aeba	-0.018760074
177	0xbc9ff8dc	-0.019527845
178	0x3d178a18	0.03699693
179	0xbcdeef01	-0.027213575
180	0x3d15d634	0.036581233
181	0x3d2e74a3	0.042591702
182	0xbd0cdf19	-0.03439245
183	0xbd059780	-0.032615185
184	0x3bd4bb43	0.00649205
185	0xbb7046d9	-0.0036663322
186	0xbc9511b5	-0.01819692
187	0x3c90940c	0.01764872
188	0xbd741b09	-0.059596095
189	0xbaee3dcc	-0.0018176376
190	0xbc87e856	-0.016590279
191	0xbd2f73f1	-0.04283518
192	0xbc8f2862	-0.01747531
193	0xbd2256a3	-0.039633404
194	0x3d252917	0.04032239
195	0xbcd63ec3	-0.026152974
196	0xbc796187	-0.015221006
197	0xbc1bda4e	-0.009512497
198	0x3cca169a	0.02466898
199	0x3ca0d820	0.019634306
200	0xbc601d59	-0.013678872
201	0xbcc236c7	-0.02370776
202	0x3cb5b7bd	0.02218234
203	0x3cfb2788	0.030658498
204	0xbd26c7f7	-0.040718045
205	0x3ca5607e	0.020187613
206	0x3d67c650	0.05658561
207	0x3ce50100	0.027954578
208	0xbd03e08f	-0.032196578
209	0x3cb9c465	0.022676656
210	0x3d1df2e8	0.03856173
211	0x3c39307a	0.011303062
212	0xbc4bc756	-0.012437662
213	0x3c01ee44	0.007930342
214	0xbbce4e41	-0.0062959497
215	0x3c910f79	0.017707573
216	0x3ce772d9	0.028253006
217	0x3d9ea5d1	0.07746471
218	0x3cceeb8d	0.025258804
219	0x3cdaf6cf	0.026729016
220	0x3d0b0aa9	0.033945713
221	0x3cb2147a	0.02173828
222	0x3d823d6f	0.06359374
223	0xbd377dd6	-0.04479774
224	0xbd7ac6e1	-0.061224822
225	0x3a06eede	0.00051472883
226	0x3d0a3810	0.03374487
227	0x3bc0b72c	0.005881211
228	0xbc9887d7	-0.018619461
229	0xbcd2626d	-0.025681699
230	0xbd05c2d0	-0.03265649
231	0x3c4d7d89	0.012542137
232	0xbd37a2ca	-0.044832982
233	0x3b0ae97f	0.0021196303
234	0xbcc5c960	-0.024143875
235	0xbd0da9f6	-0.034585916
236	0xbc83e665	-0.016101072
237	0x3cf1ed5d	0.029532129
238	0x3c082ee4	0.008311961
239	0x3d040048	0.03222683
240	0xbca824f4	-0.020525433
241	0xbc43f5cb	-0.011960457
242	0xbcb7d7f6	-0.022441845
243	0x3d2a7f83	0.04162551
244	0xbd9328df	-0.0718553
245	0x3c11a68e	0.008889807
246	0xbbc3e50c	-0.0059782322
247	0x3d3c7059	0.04600558
248	0xbc3e929a	-0.011631632
249	0xbd79d979	-0.060998414
250	0x3d224bfd	0.03962325
251	0xbcf36814	-0.029712714
252	0x3cf2583d	0.02958309
253	0x3d15ca80	0.036570072
254	0x3d13477c	0.035956845
255	0x3cc41e6f	0.023940293

encoder.0.attention.keys.bias f4 [64]
0	0xb2a224c9	-1.887601e-08
1	0x3592b6a3	1.0931002e-06
2	0x35054910	4.965268e-07
3	0xb602ab5f	-1.947126e-06
4	0x35bcdfc1	1.4072212e-06
5	0x3413cc49	1.376476e-07
6	0x360b804c	2.0787293e-06
7	0xb541fc6b	-7.226542e-07
8	0xb526100b	-6.1863165e-07
9	0x35cab633	1.51032e-06
10	0xb5833be5	-9.777692e-07
11	0xb3c988b7	-9.38466e-08
12	0xb4f60c49	-4.583001e-07
13	0xb4966dc1	-2.8019534e-07
14	0x35edd6bf	1.7720375e-06
15	0x3554caf3	7.9271484e-07
16	0xb4f89b98	-4.630681e-07
17	0xb5b5ca5f	-1.3544449e-06
18	0x35c7e03f	1.489192e-06
19	0xb68286ac	-3.88998e-06
20	0xb5f0bfd2	-1.793722e-06
21	0xb474f040	-2.2811673e-07
22	0x3629e703	2.531743e-06
23	0xb5f9af98	-1.860305e-06
24	0x3500a82f	4.7928455e-07
25	0x344844b1	1.8651441e-07
26	0x361f864f	2.3771024e-06
27	0xb55c54b2	-8.2079634e-07
28	0x33b8d76a	8.607351e-08
29	0x35b24226	1.3281285e-06
30	0x358b5aee	1.0382771e-06
31	0x35e5ce34	1.7121843e-06
32	0x33b5654a	8.446894e-08
33	0x36a0d291	4.7928847e-06
34	0x36caa149	6.038845e-06
35	0xb689db21	-4.108428e-06
36	0x351365cb	5.4909896e-07
37	0x34209627	1.4955786e-07
38	0xb5ed0a53	-1.7660881e-06
39	0xb5623041	-8.426178e-07
40	0xb53cbdbc	-7.031156e-07
41	0x35d7f39a	1.6089646e-06
42	0x355a4233	8.130766e-07
43	0xb5f34ea6	-1.81278e-06
44	0xb4cc9d24	-3.8112296e-07
45	0x35bad1bd	1.3919122e-06
46	0xb6c79f2c	-5.949192e-06
47	0x3645aa5c	2.945445e-06
48	0xb656b68e	-3.1994746e-06
49	0xb53c483a	-7.014056e-07
50	0xb56f967c	-8.925342e-07
51	0x3556659a	7.986906e-07
52	0xb66bf810	-3.516212e-06
53	0x34a0949a	2.9910444e-07
54	0xb63be363	-2.7997528e-06
55	0x35cfe97e	1.5490657e-06
56	0x360316d8	1.9533818e-06
57	0x36863cd6	4.0005934e-06
58	0xb584722c	-9.867995e-07
59	0x35d48e6d	1.5836682e-06
60	0x355c6dd3	8.21162e-07
61	0x35cdc49e	1.5330913e-06
62	0x36206853	2.3902583e-06
63	0xb674eb97	-3.6495965e-06

encoder.0.attention.values.weight f4 [64, 64]
0	0x3d06e2cb	0.03293113
1	0xbd441dee	-0.047880106
2	0x3b083aff	0.0020787118
3	0x3b3cc3a9	0.0028803146
4	0xbc969361	-0.018380823
5	0xbcc67f86	-0.02423073
6	0xbc699675	-0.014257063
7	0x3cb81487	0.022470726
8	0xbc407399	-0.011746311
9	0x3cebc181	0.028778793
10	0xbcbdf9f8	-0.023190483
11	0xbb00b3fc	-0.001963853
12	0xbc9e15ce	-0.019297507
13	0xbc2e37eb	-0.010633449
14	0x3cabca7e	0.02097058
15	0xbc19ffa6	-0.00939933
16	0x3d00ce8e	0.031446986
17	0xbc0bdea6	-0.00853697
18	0x3c812d5d	0.015768701
19	0x3b3859e8	0.002812976
20	0x3c44c491	0.012009756
21	0xbc0c6223	-0.0085683195
22	0x3d0c02ea	0.034182467
23	0xbc1ba6ee	-0.009500248
24	0xbcd72178	-0.026261076
25	0x3c859e93	0.016310966
26	0xbbab000b	-0.005218511
27	0xbab47e23	-0.0013770502
28	0x3be3a973	0.00694769
29	0x3be279ed	0.0069115073
30	0xbd1459c8	-0.036218435
31	0xbc8ded90	-0.017325193
32	0xbd21a09d	-0.039459813
33	0xbbd2e7db	-0.0064363307
34	0xb8ed329f	-0.000113104696
35	0x3bed4f5d	0.007242127
36	0xbc8e9c0a	-0.01740839
37	0x3b8a31b0	0.004217349
38	0xbc9ddc81	-0.019270184
39	0xbc5c5fc7	-0.0134505695
40	0x3bbd9a51	0.005786218
41	0x3cb87f11	0.022521527
42	0xbb28eaf5	-0.002577481
43	0xbc5450a0	-0.012958676
44	0x3c1474cc	0.00906105
45	0xbcd54b66	-0.02603693
46	0x3ce92fe7	0.028465224
47	0xbc9b9000	-0.018989563
48	0xbc143307	-0.009045369
49	0x3b4de46a	0.0031416663
50	0xbcd76223	-0.026291912
51	0xbc191c34	-0.009345103
52	0xbcbcf63d	-0.023066634
53	0xbc1c2701	-0.009530784
54	0xbd06f4b5	-0.032948215
55	0x3c0cddd1	0.008597807
56	0x3b54d145	0.0032473367
57	0xbaadb8f1	-0.0013253969
58	0xbd1b114a	-0.037858285
59	0xbd1a218a	-0.03762964
60	0x3c06e3ac	0.008232992
61	0xbc41592d	-0.011801046
62	0xbbe255df	-0.0069072093
63	0x3cbe52f6	0.023232918
64	0x3d100968	0.03516522
65	0xbd23d41e	-0.039997213
66	0xba80f373	-0.0009838179
67	0x3be167cd	0.006878829
68	0x3cfc55bc	0.0308026
69	0x3c9e837e	0.01934981
70	0x3d003bf8	0.03130719
71	0x3c49d6bf	0.012319266
72	0x3cbed546	0.023295056
73	0x3d1b048b	0.03784613
74	0x3ce9b55b	0.02852886
75	0x3c151fe2	0.00910184
76	0xbc6f3e77	-0.014602295
77	0x3cd6846f	0.026186196
78	0xbcf0fe6c	-0.029418193
79	0x3acc698f	0.0015595424
80	0x3b86463b	0.0040977276
81	0xbbc099c4	-0.0058777053
82	0xbbeb4158	-0.0071794204
83	0x3b1792ee	0.0023128348
84	0x3c3cf2a8	0.011532463
85	0xbd1ed210	-0.03877455
86	0x3c229ac0	0.009924591
87	0x3c3664b9	0.011132413
88	0xbc79ba51	-0.015242175
89	0x3c7fe52f	0.0156186065
90	0xbc9179d6	-0.017758291
91	0xbc3bb0ba	-0.011455709
92	0x3ad72623	0.0016414564
93	0xbd1ea500	-0.038731575
94	0xbc6ecaa0	-0.014574677
95	0x3d00802a	0.031372227
96	0x3c485b5e	0.012228815
97	0xbbea5539	-0.0071512726
98	0xbbd58967	-0.006516624
99	0x3c2e20b6	0.010627916
100	0x3c6cc227	0.014450586
101	0x3b4148a9	0.0029492772
102	0x3d33a95c	0.043862686
103	0x3c08b801	0.008344651
104	0x3c7ddad0	0.0154940635
105	0xbc9cb37e	-0.019128557
106	0x3be9ecfa	0.0071388455
107	0xbc52e9e8	-0.01287315
108	0xbc19958a	-0.009374032
109	0x3a74fef2	0.0009345851
110	0xbb9834fd	-0.0046449886
111	0xbc420426	-0.011841809
112	0x3cee31aa	0.029076416
113	0xbd17501f	-0.036941644
114	0xbbc56908	-0.0060244836
115	0xbd05c78a	-0.032661
116	0x3aefc965	0.0018294273
117	0x3cc28369	0.023744302
118	0xbaea7512	-0.0017887673
119	0x3cbe14fd	0.023203367
120	0x3cbb13c5	0.022836575
121	0x3b5ae0d6	0.0033398173
122	0x3b3993e1	0.0028316902
123	0xbb499cc2	-0.00307636
124	0xbba45ebc	-0.005016176
125	0x3b97ee41	0.0046365564
126	0xbb4068ce	-0.0029359343
127	0x3cd61e16	0.026137393
128	0xbc0cd744	-0.008596245
129	0x3c98e72c	0.018664919
130	0x3adf6faa	0.0017046828
131	0x3b9adff7	0.0047264057
132	0x3c4fd2a2	0.012684496
133	0xbcd99ecd	-0.02656498
134	0xbc953233	-0.018212413
135	0xbcc1ae13	-0.023642575
136	0xbb75607b	-0.003744154
137	0xbd33f66f	-0.04393619
138	0x3c8825e1	0.016619625
139	0x3b1ccc93	0.0023925647
140	0x3ba3f5d3	0.0050036698
141	0xbcdc5665	-0.026896665
142	0x3bf32246	0.007419857
143	0xbb699139	-0.0035639538
144	0xbcee5dfc	-0.02909755
145	0xbbaeafc7	-0.005331013
146	0x3b4fd825	0.0031714526
147	0xbba64795	-0.005074451
148	0xbc57fe62	-0.013183208
149	0x3d6291bf	0.055314776
150	0x3c970eb3	0.018439626
151	0x3d78d944	0.060754076
152	0x3c5be885	0.013422136
153	0x3c98de87	0.018660797
154	0x3c89c7d4	0.016818918
155	0xbcd1cbbe	-0.025609847
156	0xbcaa74f4	-0.02080772
157	0x3ca84e56	0.020545166
158	0xbcd22b42	-0.025655393
159	0x3cd423b7	0.025895936
160	0xbc93b379	-0.018029915
161	0xbc6d9750	-0.014501408
162	0x3ca4dc55	0.020124594
163	0x3c529a95	0.012854238
164	0x3c230b88	0.00995148
165	0x3c4841a0	0.0122226775
166	0xbcc66b1c	-0.024220996
167	0xbc869cc5	-0.016432175
168	0x3cc5b406	0.024133693
169	0x3c9b0b41	0.018926265
170	0xbd0b8de6	-0.03407087
171	0xbc70435d	-0.014664498
172	0xb97816df	-0.00023659643
173	0xbd1791eb	-0.037004393
174	0xbccc95b7	-0.024973733
175	0x3d2f30fe	0.042771332
176	0x3c7ee7d1	0.015558199
177	0x3ca4aebb	0.02010285
178	0xbd167eb7	-0.03674194
179	0x3c024d40	0.007952988
180	0xbbdbbcb4	-0.006705845
181	0xbbdc7a39	-0.0067284373
182	0xbbc45031	-0.005991005
183	0x3d10d66e	0.035360746
184	0xbd26ddac	-0.040738747
185	0x3cbe6d8d	0.023245597
186	0x3c676037	0.0141220605
187	0xbc2e6445	-0.010644023
188	0x3acd54e5	0.0015665559
189	0x3c2dc45d	0.010605899
190	0x3d43f8c5	0.047844667
191	0x3d3795ba	0.044820525
192	0xbd112980	-0.035439968
193	0xbc2037bf	-0.009778916
194	0xbc2a9f16	-0.010413906
195	0xbc3889cb	-0.011263321
196	0xbc364d7c	-0.011126872
197	0x3ca4403b	0.020050159
198	0xbc0b984d	-0.008520198
199	0xbca7852c	-0.020449243
200	0xbcd57c09	-0.026060121
201	0x3b8bae42	0.0042627165
202	0xbc649b50	-0.013953045
203	0x3c8f4220	0.017487586
204	0xbc6b6a68	-0.014368631
205	0xbcb644fa	-0.022249687
206	0x3c001f24	0.0078199245
207	0x3b89cab4	0.0042050723
208	0xbc3f4e82	-0.011676433
209	0xbc125dc4	-0.008933488
210	0x3a9247d5	0.0011160324
211	0xbc01d76b	-0.007924895
212	0xbc38daf0	-0.0112826675
213	0xbbb7a322	-0.0056041637
214	0x3cc7da13	0.024395978
215	0x3d38cf82	0.04511977
216	0x3cae3e99	0.021270083
217	0x3d3200a5	0.043457646
218	0x3c767289	0.015041956
219	0x3c063de0	0.008193463
220	0x3c08b6ce	0.008344365
221	0xbc8b7641	-0.017024161
222	0x3b5f5ff9	0.0034084304
223	0x3cd07538	0.02544652
224	0x3d02becf	0.03192025
225	0xbc06414a	-0.008194277
226	0x3c16630e	0.00917889
227	0xbc9d615b	-0.019211462
228	0xbc7b68d6	-0.015344819
229	0xbb91740d	-0.004438883
230	0xbbaf979b	-0.005358649
231	0x3c2e498b	0.010637651
232	0x3cfb61cd	0.030686283
233	0x3c63cc45	0.013903682
234	0xbcb0bda8	-0.02157481
235	0xbc42e02a	-0.011894265
236	0x3cf3314b	0.02968659
237	0x3c584734	0.01320057
238	0x3cb7194a	0.022350926
239	0xbbef05c8	-0.0072943904
240	0x3c195a60	0.009359926
241	0x3cab0e20	0.020880759
242	0xbca74b19	-0.020421552
243	0x3cda78ef	0.026668994
244	0xbc43f937	-0.011961273
245	0x3cac3f41	0.021026256
246	0xbb91c7ee	-0.0044488823
247	0xbcb344cf	-0.021883396
248	0xbc98315b	-0.018578222
249	0xbc5bbb36	-0.013411334
250	0x3c269481	0.010167242
251	0xbc189937	-0.009313873
252	0x3c8db1ff	0.01729679
253	0xbc8824dc	-0.016619138
254	0xbb0a3067	-0.002108598
255	0xbc3eabc4	-0.011637632

encoder.0.attention.values.bias f4 [64]
0	0xbad21ee5	-0.0016030936
1	0x3b3e1363	0.0029003255
2	0xbbec7587	-0.007216159
3	0xbbc7cacd	-0.006097174
4	0x3a5de9d0	0.0008465322
5	0x39ffb66e	0.0004877331
6	0xbaeecbd3	-0.0018218703
7	0xbb4277a1	-0.0029673355
8	0xb81c0f61	-3.720762e-05
9	0xbada4b90	-0.00166546
10	0x3c01d3e6	0.007924056
11	0xbb8b5738	-0.0042523406
12	0x3a485fae	0.0007643652
13	0x3bad5415	0.0052895644
14	0x3ad1c934	0.0016005398
15	0xbabe30a1	-0.0014510342
16	0xbafa51da	-0.001909788
17	0x39fc3baa	0.0004810964
18	0xbba9783a	-0.005171803
19	0xbb9aa7e1	-0.0047197198
20	0x3b893fa0	0.004188493
21	0x3a1a2c02	0.00058811915
22	0xbb2cef8f	-0.0026387905
23	0xbbb0a402	-0.005390645
24	0x3a9e8421	0.0012093821
25	0xbbdd9fe0	-0.0067634434
26	0x3bb76d2b	0.0055977306
27	0x3b32f1b9	0.0027304722
28	0x3b1aa29d	0.002359546
29	0xbb174cc3	-0.0023086525
30	0x3acdf549	0.001571336
31	0xba9f7b84	-0.0012167548
32	0xbbe46c9c	-0.006970955
33	0x3abfb64a	0.001462647
34	0xbbeae160	-0.00716798
35	0x3bf3ef63	0.0074443086
36	0x3b8f7d87	0.0043789777
37	0xbb81744d	-0.0039506317
38	0xbaa66f78	-0.0012698015
39	0x3b4a4db6	0.0030869073
40	0xbb94428c	-0.0045245346
41	0xba985f7c	-0.0011625136
42	0x3bac1c73	0.005252415
43	0xbb82d8c5	-0.003993126
44	0x3b1de3b1	0.0024092013
45	0x3bd43644	0.0064761955
46	0xbb050358	-0.0020296182
47	0xbb890475	-0.0041814395
48	0xbb98145c	-0.004641099
49	0xbb3eeff6	-0.0029134727
50	0x3bb92ff9	0.0056514707
51	0x3aa7a6dd	0.0012790818
52	0x3bb6028b	0.0055545024
53	0x3c0f1f4d	0.00873549
54	0x3b17ee66	0.0023182868
55	0xbb2e6635	-0.0026611213
56	0x3bf8fb04	0.007598283
57	0x3bd69cca	0.0065494524
58	0xbc12f22d	-0.008968872
59	0xba503357	-0.00079422205
60	0x3b946021	0.004528061
61	0x3b884118	0.0041581504
62	0xbbc24604	-0.0059287567
63	0x3bcf6e51	0.0063302894
